EUSIPCO/Nested Array noisy position/saved_models/da_music_20dB_nested_7.pth (torch, 47122 bytes, 18 tensors)

bn.weight f4 [16]
00000000: 24fe 7b3f 635e 9f3f 8975 973f 1364 8e3f
00000010: 4af0 8a3f 5a4f b03e 3815 653e 468a 103e
00000020: c083 813f bd82 a93f 709d bb3f 61b1 9a3f
00000030: 09ec 7a3f 6dd1 b43e 730a 2c3e ef3b 1e3d
0.9843466 1.245068 1.1832744 1.112429 1.085458 0.3443554 0.22371376 0.14115247
1.0118332 1.3243023 1.4657421 1.2085382 0.9801641 0.3531603 0.16800861 0.038631376

bn.bias f4 [16]
00000000: 7572 55bd 8b31 a4be c368 093f 2bdb 903e
00000010: 36b2 bc3e 7848 25be dafb 97bc c034 43bd
00000020: 3ad2 18be 903d 5bbe 31a8 a3be 3709 efbd
00000030: 5a6a f23d bbde bcbd 0698 87bc 4fb3 bfbd
-0.052111108 -0.32069048 0.5367548 0.28292212 0.36854714 -0.16140926 -0.01855271 -0.04765773
-0.14923945 -0.21410203 -0.31964257 -0.116716795 0.11836691 -0.0922217 -0.016551983 -0.09360372

bn.running_mean f4 [16]
00000000: 9c38 c139 9413 123a 0238 6bba 498f fa3a
00000010: 2a20 90b9 f608 4dba d329 b0ba 94d4 65ba
00000020: c35b ee3a 6d9e 8dba 0acf a9ba 2d7f 3fba
00000030: c9bc acb9 213d deb9 7169 b1ba 0239 3738
0.00036854006 0.00055723754 -0.00089728844 0.0019116189 -0.00027489784 -0.00078214647 -0.0013440199 -0.00087673333
0.0018185306 -0.0010804661 -0.0012955379 -0.00073050224 -0.00032947052 -0.00042388684 -0.0013535452 4.3683693e-05

bn.running_var f4 [16]
00000000: 6320 c03f c800 c13f 3ad7 c03f 97f6 c03f
00000010: bd74 c03f 2bd6 c03f d832 c13f 4797 c03f
00000020: 2cbf c03f 79c7 c03f 9685 c03f 83d8 c03f
00000030: bab1 c03f d0bc c03f 628a c03f 5746 c13f
1.5009884 1.5078363 1.5065682 1.5075253 1.5035626 1.5065359 1.5093641 1.5046166
1.5058341 1.5060874 1.5040767 1.5066074 1.5054238 1.5057621 1.5042231 1.5099591

rnn.weight_ih_l0 f4 [48, 16]
00000000: 1087 173d 28f5 9a3e 274a 6cbe a579 5a3f
00000010: 45ea e8be e69c 443f 9015 7dbd 2671 c8bc
00000020: 8ffb 47bf 1fc9 77be 08cb d63e 81fe 5a3f
00000030: cd91 5bbe ac58 d13d a3ec a8bc 1381 fa3e
00000040: 79c8 b2be 305f 2ebe 0d19 28bf 2b58 eb3e
00000050: 4245 393f af6e 8e3f 0519 ffbe 8bf2 fb3d
00000060: 24b9 863f 6fa7 97be dcb7 883e 8495 99bf
00000070: 045e 563f b8a8 55bf f12b a3be 550d 37be
00000080: 96a2 aabe 75b6 3c3f 7552 b33e 0029 823d
00000090: a80f 773f 1a41 533e f920 a9bc e39e 32be
000000a0: f708 27bf b627 5dbd 1985 673f da34 4fbe
000000b0: 84cf 5c3e df1c efbd 59ab 2fbf f170 ae3e
000000c0: 4668 843e 2c17 d03d f956 fabe 16e7 99bf
000000d0: b6f3 b0bf a3d7 f93d 8525 853e 5578 403e
000000e0: 7a63 eabf 0bad 8bbf 85f6 14bf c6c1 1dbf
000000f0: 28b6 0fbf b10f 873f 4fa2 64be 7358 6fbf
00000100: ceff e4bd a375 0a3e 0c49 c4be 9d4e 533f
00000110: 6df0 eebe 0dd5 c03d 4342 ac3e 760c 81be
00000120: 7ad4 adbe 30b1 793e 9ce5 43be af58 5e3e
00000130: dbb5 0f3e cf37 16bf 4c6f 263e cf04 2bbd
00000140: 930a 89be a280 88be ff8d 08bf ff0d a73f
00000150: 2fa2 3a3f 076d 883d dd0e bfbc bad0 0e3e
00000160: cc23 7b3f 7518 923f 1671 49be a447 85be
00000170: 2182 623f 946e 7dbf e85e 3d3f 8784 f8be
00000180: 1443 b43e ac5d 28bf c2e0 be3e 66ce b73e
00000190: 89bc 90be 1548 853e 8c47 f53d 72a4 41bf
000001a0: e5bf 203e c0c7 513f bfe3 77bf 57f3 813f
000001b0: e760 2cbf 18c1 163f 9750 27bf 5b8f d63e
000001c0: 2788 f03e 0e9b e23e ab03 4c3f 1a31 abbe
000001d0: 4e85 90bf c602 07bf e58d 8a3e 3fc4 8f3e
000001e0: ecbf 9a3f 54c9 743e 21b6 4abe ad14 8bbf
000001f0: 94ec 3ebf 6a1f e63f 4967 82be 703c 293f
00000200: a9c5 c43e 6140 5bbf 8fc9 4ebf 1600 703f
00000210: ec24 3abf 105e aabe dd8b 1c3e b1bc 9bbe
00000220: 2574 b9be a29b 9a3e e086 af3e aef6 2bbf
00000230: 71d2 f5be 590d 35bf 457c da3e e2f5 fdbd
00000240: 988f adbe d614 a33f 33eb 873e 5dc4 57bf
00000250: 5507 483e a8dd b23e 9820 2f3f 0e47 46bf
00000260: d4a1 d03e 730a 183f 9a18 73be 5de8 c8bd
00000270: 6da5 e6be c04f 9ebe 7cc8 d43e 0f68 fcbd
00000280: 8517 e5bd 7a86 a0be 6c34 9abe 850e 30bd
00000290: 60c8 543f 015e fe3d 3d72 4abe 6dae d23e
000002a0: 7054 323f 699d ee3e 072e 46bf 9eed 013f
000002b0: a0ee 943f d9bc 8bbf 2184 d33e 7a41 00bd
000002c0: 4885 94bd 2f74 98be b7df 23bf 7d4d 453f
000002d0: 1694 5c3e c148 88be 6136 f53e a562 c23e
000002e0: ed68 b43e 7549 0b3f 2e9d 33bc 10cf b1bd
000002f0: b9fe 01be d28f 03bf b067 103f 8610 ec3e
00000300: 9387 2abd f3c2 1f3e 3ac8 08bf 69a5 35be
00000310: 3ebc 75be 9f20 b43e e599 e33c 5a97 303e
00000320: 1680 063f fc58 06bf ab56 a53e 8b3f 2dbf
00000330: cf31 c03e 3857 9abe 5e4b 663e fcac fbbe
00000340: b36e 853d 5969 2ebf 6cee 8c3e 654f 0dbf
00000350: fd10 3fbf d8e4 283d e18b 993c 049b ccbc
00000360: c059 d33f 7f67 ea3e 4b44 a73b 3507 413f
00000370: 9a2d e4be 0740 0a3f ec39 7cbc 9a42 0cbf
00000380: c503 94be 2001 79be 469f c13e 0524 11be
00000390: 05e1 5bbe d644 1f3d e8c0 94bc 9cbb 54bd
000003a0: 44cc 233e f8ec 1ebf 4569 403e a949 1d3e
000003b0: 832a a0be a069 2dbe 8339 a2bc f433 723e
000003c0: 9700 1abe 38ec 7c3f 0e51 473d 1301 fb3d
000003d0: 6ab3 22bf 48d1 1b3e 8407 c7bd 0b9f c33e
000003e0: cd10 1cbf 36e9 abbe e40b b9be 098d 9dbf
000003f0: 66da 033f db8f 38bf 64d1 d83e a2a6 1a3e
0.03699404 0.30265164 -0.23075162 0.85341865 -0.45491233 0.7680191 -0.06178814 -0.024468016
-0.7811822 -0.24197815 0.41951776 0.8554459 -0.21442337 0.10221991 -0.02062065 0.489266
-0.34918573 -0.17028499 -0.65663224 0.45965704 0.72371304 1.1127528 -0.49823776 0.12302121
1.052525 -0.2961993 0.26702774 -1.1998754 0.83737206 -0.8346057 -0.31869462 -0.1787618
-0.33327168 0.7371591 0.35023847 0.063554764 0.96508265 0.20630303 -0.020645605 -0.17443423
-0.65248054 -0.05399295 0.90437466 -0.20235005 0.21563536 -0.116754286 -0.6862083 0.34070542
0.25860804 0.1016067 -0.4889448 -1.2023647 -1.3824375 0.121993326 0.26005188 0.18795903
-1.8311608 -1.0912184 -0.5818866 -0.616238 -0.56137323 1.0551664 -0.22327541 -0.9349434
-0.11181603 0.13521437 -0.3833698 0.8254183 -0.46667805 0.09415636 0.33644304 -0.2520482
-0.3395117 0.24383998 -0.19130558 0.21713518 0.14034216 -0.5867891 0.16253394 -0.041752633
-0.2676588 -0.2666064 -0.5334167 1.3051146 0.7290372 0.0666142 -0.023322517 0.1394681
0.98101497 1.1413714 -0.19672045 -0.2603122 0.8847981 -0.98996854 0.7397294 -0.4853861
0.35207427 -0.6576793 0.37280852 0.35899657 -0.2826884 0.26031557 0.11976537 -0.7564155
0.15698202 0.8194542 -0.9683189 1.0152386 -0.6733536 0.5888839 -0.65357345 0.41906247
0.46978876 0.44258922 0.79693097 -0.334359 -1.1290681 -0.52738607 0.27061382 0.2807941
1.208982 0.23904926 -0.19796039 -1.0865685 -0.7457974 1.7978337 -0.25469425 0.66107845
0.38432053 -0.8564511 -0.80776304 0.9375013 -0.7271259 -0.3327489 0.15287729 -0.30417398
-0.36221424 0.30196863 0.3428259 -0.6717328 -0.48012117 -0.7072349 0.42672935 -0.12400414
-0.33898616 1.2740734 0.2654663 -0.84284 0.19534047 0.34934735 0.6840911 -0.7745217
0.40748465 0.59390944 -0.23739854 -0.09809945 -0.45048085 -0.3092022 0.41559207 -0.12324535
-0.111861266 -0.31352597 -0.3011812 -0.042982597 0.8311825 0.124202736 -0.19770141 0.411487
0.6966009 0.4660447 -0.7741398 0.507532 1.1635323 -1.0917007 0.41311744 -0.031312443
-0.07251984 -0.2977614 -0.64013237 0.7707136 0.21540865 -0.26618007 0.4789305 0.37965885
0.35236302 0.5440896 -0.0109627675 -0.08682072 -0.12694825 -0.5139133 0.56408215 0.46106356
-0.0416332 0.15601711 -0.5343052 -0.1773888 -0.2399759 0.35181138 0.027783344 0.17245236
0.52539194 -0.5247953 0.32292685 -0.67675084 0.37538 -0.30144668 0.22489688 -0.49155414
0.06515255 -0.681295 0.2752565 -0.5519927 -0.746353 0.041233867 0.018743457 -0.024976261
1.6511765 0.45782086 0.0051045767 0.7540162 -0.4456604 0.5400395 -0.015394669 -0.54789126
-0.28909126 -0.24316835 0.37816828 -0.14173897 -0.21472557 0.038884006 -0.018158391 -0.05193673
0.1599589 -0.62080336 0.18790157 0.1536013 -0.31282434 -0.16934824 -0.019802814 0.23652631
-0.15039288 0.9879794 0.048661284 0.12256064 -0.63555014 0.15216553 -0.0971823 0.38207278
-0.60963136 -0.33576363 -0.36141884 -1.2308666 0.51505125 -0.72094506 0.42347252 0.15102628

rnn.weight_hh_l0 f4 [48, 16]
00000000: 357d 02bf 32c5 b03e 7e18 913e aa00 973c
00000010: ec63 a9bd 949b 833e 96ea bcbe 6df9 153f
00000020: 8d7d 013c 5443 4c3e 21bc 543e 93ad 4a3d
00000030: eedb 103f bc44 17bf 2009 35bf 3b7d 363f
00000040: 3d48 913e 77de b63e 56a9 c4bd 4de0 84bc
00000050: 82e9 c23e 374e 4dbf e741 3fbf b218 943c
00000060: 03c2 0dbf d1d1 f03e 6e99 063f 3ff9 2b3f
00000070: 42a7 343f daff 443f f01e 4cbe 5f3d b93e
00000080: e294 82bf 1c5c 273e 80f3 3d3f c604 993e
00000090: 5560 653e 082e f23e 6d8c 21be f392 033f
000000a0: ae3d a63e a6e5 603e c1b8 4f3d 1946 a1be
000000b0: 8f70 2f3f 3106 d9be d38d 9bbf b4be 553f
000000c0: fa41 833e 59b7 f8be 7bef be3e 203f e13f
000000d0: 10d6 1abe 7410 35bf 39fb 23be 2cf0 18c0
000000e0: da5f 113f 7498 c83c 88f4 0bbe 5bca 263e
000000f0: 1d10 5f3e 4e9d 6f3f 48f7 28bd e720 313e
00000100: 1d36 41bd b1d3 cb3e 3cc9 72be 67d3 823e
00000110: d2d2 0abf 5bc0 273e c8f4 8a3f 3fc6 96bd
00000120: ce0a 223e 75e7 a1be f47d 893e fefe c3bd
00000130: d040 573e 9955 a6be ae70 ca3e cd75 fb3e
00000140: 536a a2ba 8dd6 213f 2b0d 713d c338 7dbf
00000150: 1115 83bf be8d be3f c4a5 713e a752 293f
00000160: 0042 563d d32f 31bf c2d2 073e 4ea8 cebe
00000170: f68c 3ebf 24af d4bf d36c db3c 7dc5 0dbf
00000180: 632a 94be f056 3c3e d1f1 cebd 4ba9 8fbe
00000190: aa43 cd3e d4a8 a5be f894 f93c 9e2a 963e
000001a0: bc91 cebd cd24 213e d8b2 1e3d cb8c f83d
000001b0: c0dd 103e 7a56 c3be 808b 6a3d ff82 6a3e
000001c0: 9f77 0fbf 4e46 cf3e d6a5 7b3e 33a2 37be
000001d0: 10ec e53d b4f5 0cbf a051 14bd bdf2 03c0
000001e0: fffa 9f3f 10d5 15bf d316 163d e647 903e
000001f0: 31e5 303e af95 92be 37af 003f e772 b6be
00000200: 47ad b63e 63ee 9abd 8bd2 2abe 3ed6 813e
00000210: e541 c5be 5811 0bbe b956 963f d754 2bbf
00000220: b99b f7bd 2b6b 29bf dc82 4b3e d86e 143e
00000230: 585c 37bf 6c99 7b3e ab0c 8fbd 0aed 4cbf
00000240: e138 193f bf8e 383e c74c 7e3d 3d08 94be
00000250: 6301 ab3e 5e43 72bf d96f 1bbf d79c 383f
00000260: 236a a73d d69e 683f 848f 9e3e b38d 47bf
00000270: 301d b73f eeaf 193e 0e45 18be 01da 5e3f
00000280: 2053 f33e 5fd2 8ebe aba6 d2be 51bd c23d
00000290: cd0e 893d d2a3 83bf c13a 05bf 0746 d4be
000002a0: 2021 46bf c0c4 483e e59c 5cbb 3b7c b43e
000002b0: 4654 143f c36c 9d3f 247e 8a3e e6b5 3e3f
000002c0: dd7b 16be 5aa6 c73e f3e5 13be 0cc3 a9bf
000002d0: 7d90 b6be a839 d03e 5f15 db3d bb99 103f
000002e0: 105e 303e e822 5fbe 7190 bc3e 10dc 89be
000002f0: 9f00 fe3e 26a6 97bf b23a 30be 79b7 063f
00000300: 1f9e 683e 5d90 74be 896e 6e3e d9c8 863e
00000310: c99b aebe 27d8 8b3e 9b71 093e 8b15 44be
00000320: b662 323e 931f 5b3f e7c8 8dbd 68c8 b4be
00000330: ff12 613e 8767 fcbe 4927 c4be 36cf 373e
00000340: 8a98 8a3e 2138 0c3f 9e0f b9bc 2e85 cfbe
00000350: cfcd 153e 2cae ebbd 09a5 8ebe 8ef8 403e
00000360: 0edb a2be 3a85 76bd 4813 b8bd 706c 403e
00000370: cdfa fbbe 765c 8fbe 520a 8ebe 4aa0 43bd
00000380: ceb1 55bf e924 d7bc 67ee d73f cbcf 8f3e
00000390: b4e7 733f 6bf3 1f3f b403 70bf 2cd0 713f
000003a0: ae96 763f e70c 9c3f ee04 22be 9e6a 75bf
000003b0: 9281 623f 4fdf 4dbf d8c4 4bbf dc5f 643f
000003c0: 8b79 a53f 01d7 bebe 696b 83bf f98c 89bf
000003d0: cbec b83e bd32 27bf a4bd ecbe a47a 01be
000003e0: 486a a5bf 2afc 993e 0941 a6be f82f 113f
000003f0: 248e e63d 5b54 1e3f 20a0 8c3f f628 acbe
-0.509723 0.34525448 0.28339 0.018432934 -0.08271012 0.25704634 -0.36897725 0.5858372
0.007903469 0.19947559 0.2077489 0.04948194 0.56585586 -0.59089255 -0.7071705 0.71284837
0.28375426 0.35716602 -0.09602611 -0.016220236 0.38068777 -0.8019747 -0.74709934 0.018078182
-0.55374163 0.47035077 0.52577865 0.67177194 0.70567715 0.769529 -0.19933677 0.36179635
-1.0201685 0.1634373 0.74199677 0.29886454 0.22400029 0.47300744 -0.15776224 0.513961
0.32468933 0.21962604 0.050713304 -0.31498793 0.68531126 -0.42387536 -1.2152656 0.83494115
0.25636274 -0.48577383 0.37292084 1.7597389 -0.15120721 -0.7072823 -0.16013803 -2.389659
0.5678688 0.024486758 -0.136675 0.1628813 0.2178349 0.935994 -0.04125145 0.17297707
-0.047170747 0.39809945 -0.23709577 0.25551912 -0.54227936 0.16381972 1.0855951 -0.07362031
0.15824434 -0.316219 0.26853907 -0.0957012 0.21020818 -0.3248718 0.39539093 0.49113312
-0.0012391306 0.63218004 0.05885045 -0.98914737 -1.0240804 1.4887006 0.23598391 0.6614174
0.052309036 -0.692136 0.13263991 -0.4036278 -0.7443384 -1.6615949 0.02678529 -0.5537947
-0.28938589 0.18392539 -0.101047166 -0.28058848 0.40090686 -0.32355368 0.030466542 0.2932939
-0.100863904 0.15736695 0.038744777 0.12136229 0.14147091 -0.38151914 0.057261944 0.22901534
-0.560419 0.40483326 0.2457498 -0.17932968 0.11226666 -0.55062413 -0.036210656 -2.0616906
1.2498473 -0.5852823 0.03664286 0.28179854 0.1727493 -0.28629825 0.50267357 -0.3563454
0.35679075 -0.07565 -0.16681878 0.25358766 -0.38526836 -0.13580835 1.1745216 -0.6692633
-0.120902486 -0.6617915 0.19874138 0.14495409 -0.7162528 0.24570245 -0.06984838 -0.8004919
0.59852415 0.18023203 0.06208494 -0.28912535 0.33399495 -0.94634044 -0.6071754 0.7211432
0.08174541 0.90867364 0.3096887 -0.7795059 1.4305782 0.15008518 -0.14870092 0.870514
0.47524357 -0.27894875 -0.41142783 0.095087655 0.06692276 -1.0284369 -0.52042776 -0.41459677
-0.77394295 0.19606304 -0.0033662852 0.3525103 0.5794109 1.2298816 0.27049363 0.74496305
-0.14695688 0.38994104 -0.14443187 -1.3262649 -0.3565711 0.40668988 0.106974356 0.56484574
0.17223382 -0.2179066 0.3682895 -0.26925707 0.4960985 -1.184758 -0.1720989 0.5262371
0.22716568 -0.23883195 0.23284353 0.2632511 -0.3410323 0.2731335 0.13422243 -0.19148843
0.17420468 0.85595053 -0.06923085 -0.35309148 0.21979903 -0.49297735 -0.38311222 0.17950138
0.27069503 0.54773146 -0.022590455 -0.40531296 0.14629291 -0.1150783 -0.27860287 0.18844816
-0.3180775 -0.06018565 -0.089880526 0.18791366 -0.49214783 -0.2800023 -0.2774225 -0.047760285
-0.83474433 -0.026262717 1.686963 0.2808822 0.95275426 0.624808 -0.9375565 0.9445827
0.9632367 1.2191437 -0.15822193 -0.9586581 0.8847896 -0.80418867 -0.79597235 0.8920877
1.2927717 -0.3727341 -1.0267154 -1.0746146 0.3611816 -0.65311795 -0.46238434 -0.1264444
-1.292306 0.30075198 -0.32471493 0.5671382 0.1125758 0.61847466 1.0986366 -0.33625

rnn.bias_ih_l0 f4 [48]
00000000: 13ae f5bd 7c4a 5ebe bc46 1cbe cef7 ba3e
00000010: 7870 cdbd bc09 273e 428e 44bd 68c9 92be
00000020: 00e5 0abf b7ab a4be 256d 57be 250c 3dbe
00000030: 1539 8d3e 858e 213e 4f31 59be 37c4 c1bc
00000040: 3cea 223f ddf7 b93f 7470 b03f 5376 95be
00000050: d514 4b3f a267 5e3f ad60 673f 0b78 5f3f
00000060: 47ae 643f 3676 8e3f e226 7c3f f259 913f
00000070: 040a 8a3f 6604 233f 6d69 883f f5b6 753d
00000080: 8c90 223e ac5a 163e 52df e93d cf96 1e3f
00000090: c914 723e 649d 823e 68a7 193c 69c6 9dbe
000000a0: 8b90 b9be 8547 833e 81fb f2be 7c66 a8bc
000000b0: f03c e9bd 257d 313b b945 5dbe 6815 1cbf
-0.11996093 -0.21708101 -0.15261358 0.36517185 -0.10031217 0.16312307 -0.04798723 -0.28669286
-0.54255676 -0.32162258 -0.21037729 -0.18461664 0.27582613 0.15777023 -0.21210216 -0.023653133
0.63638663 1.4528767 1.3784318 -0.29191837 0.7932866 0.8687688 0.9038189 0.87292546
0.89328426 1.1129825 0.9849683 1.1355574 1.0784307 0.63678586 1.0657173 0.059988935
0.15875453 0.14683026 0.11419548 0.61948866 0.23640741 0.25510705 0.009378292 -0.30815437
-0.3624309 0.25640503 -0.47457507 -0.02055668 -0.11388576 0.0027082649 -0.21608628 -0.60970163

rnn.bias_hh_l0 f4 [48]
00000000: c543 1abe 4ed6 ae3d f225 803c 016c a13e
00000010: f0ce d3be c059 88be 1d0b c5bb 82d7 9dbe
00000020: f4f4 2ebf 4a93 4a3c 3f76 85bc 2a25 e1be
00000030: ea47 273e f18c 9d39 7c5a 0c3e fffc 94bd
00000040: 099b e63e 9110 b23f 7611 883f 2009 d5bd
00000050: 33b2 403f 0cfa 3b3f 32eb 873f 253e 383f
00000060: 9a78 a13f 0114 a43f 9508 8f3f 4b39 993f
00000070: 7c18 693f da87 623f 39b8 943f 1660 b53e
00000080: 9f2b e4bd a148 a7be 157b 7e3d c007 3a3f
00000090: 8209 2bbd 9a54 3a3e c169 a3be cc65 12be
000000a0: 0e93 733e 27ca 7c3e 21e1 d3be f73f cdbd
000000b0: 87b0 36be 4c3c a13e 499e 55be 960a 9ebe
-0.15064915 0.08536969 0.015643094 0.31527713 -0.41368818 -0.26630974 -0.0060132877 -0.30828482
-0.6834252 0.012364218 -0.016291736 -0.43973666 0.16336027 0.00030050383 0.13706392 -0.07274818
0.45040157 1.3911306 1.0630329 -0.10402131 0.7527191 0.73428416 1.0618651 0.71969825
1.261493 1.2818605 1.1174494 1.197061 0.91052985 0.88488543 1.161872 0.3542487
-0.111411326 -0.326726 0.0621291 0.72668076 -0.041757114 0.18196335 -0.3191662 -0.14296645
0.23786566 0.2468649 -0.41382697 -0.10021966 -0.17840777 0.31491315 -0.20861162 -0.3086745

fc.weight f4 [128, 16]
00000000: e3c5 2dbe f14a 983d 9b77 c43e 8a34 be3c
00000010: 8b34 6c3f a1ea 483e 48e4 2ebe 9498 e63e
00000020: d05d 503f bdf5 78be 4c76 803e ec89 2b3e
00000030: 4781 823e 949a 05bf 77e7 44bd 5d87 013f
00000040: ea37 1abe 997d 123e 9b65 b2bd b517 dbbd
00000050: 3c60 a43e aaef 86be 903f 863e a721 d73c
00000060: 58dd 243f dfac 463e dfa0 043f 6f02 433c
00000070: dbfe 253f b5f1 8dbe a6bb fb3e 1daf 663f
00000080: 85e7 9ebe b2ba 533e 61ca 1e3c 2838 a8be
00000090: 0711 5f3e ccd5 8d3e f8b3 02bf e26c 7e3f
000000a0: 24e4 003f 253a 2c3f 5958 49bd 61b4 2ebf
000000b0: 39cd 2b3f c9ea 11bf 00f5 ddbe 54ce 1d3f
000000c0: 095b 383d b80f cd3d 4b4b 1abf 27bd 46be
000000d0: 6336 33bf b3ac 8cbe 13f2 633f d433 02bd
000000e0: a7ef 2d3e 1272 7a3e c774 4b3e 2f01 b63d
000000f0: 3ce3 933e 4fc7 833e dfc2 c73e aff5 d63e
00000100: fae2 6dbe 1e06 7a3e 7468 efbd be57 69be
00000110: 7014 a93d 1dff a0be e3e6 083e 257f 323e
00000120: 0064 bbbe 03cd 84be 3b8e 0cbe 955f 813e
00000130: 771a 15bf 0e8e 1f3e c675 76be a838 2f3f
00000140: 43f4 b6be 0808 e23d fd48 a63e 5dae 253d
00000150: 07d8 703e 78df eb3e c6f2 43be 3e37 c9be
00000160: c54e 633e 7c87 bc3e 8991 5fbd 03cf 8c3c
00000170: 211a 2e3d 92f4 2cbe 0697 4ebe 326d 883e
00000180: 0cc4 ea3d b4cb b73e 87b3 76bd c594 8bbe
00000190: dbed 6f3e edd6 94be 82a9 d3be 18f3 99bd
000001a0: 1cba ce3d cc40 41be a14c 493e abda 683e
000001b0: 2cda 613e 532f 1ebe 135e 34bd f4fe 893c
000001c0: 26bb b9be 3e6e 38bf 626a d73c 93f7 2c3e
000001d0: c70a aebe 7dfd fd3d ad13 0fbe c4bc 213e
000001e0: 269a 683c 75a4 f13e 800e 0bbf d538 c2bd
000001f0: 0ab7 9d3e f56d cc3d c4de 6bbe 11b5 84bd
00000200: c464 bb3e e5ee 933e c538 83bd dbb4 603d
00000210: 7089 d33b 1b6a 2a3e c98f 7cbe 5095 9e3e
00000220: 1f55 0abf 5a6e 463e 7214 56be fbd1 813d
00000230: 55ea a9bd d787 86bd 601d 7c3c 6dc0 673d
00000240: 1508 983e 855d 1dbe 4c73 2cbe 6cb7 f53d
00000250: 3170 16bf 4f8d 52be 898e be3e 9b09 d1be
00000260: b94a f5be 40b8 963d 845e 153e 34d8 313e
00000270: ce6e a7be e3bf 153d 3304 ad3d 804a a13d
00000280: 2b68 c83d 66ba 583f 0022 0dbf 3dd2 32be
00000290: a374 ddbe e997 9dbd 44dd 4e3d 39b5 0a3e
000002a0: d6c3 8abf da05 dfbc c19f f33e 1157 ba3e
000002b0: 13bb d3bd a09d 263d ba76 88bc bb4f ef3e
000002c0: 0c85 e3be 94c0 663d 34c4 2bbe db59 8ebd
000002d0: 0173 ecbe 842d e63e 181b 51bb 650f 243e
000002e0: 5016 abbe c041 b4be a59a 353c 7fd5 9a3c
000002f0: ca94 183e a26b 34bd af39 c6be f8cd c83e
00000300: b5d4 bc3d a3fd fd3e 4267 203e aa9d 8cbd
00000310: c237 1ebe 78fe 83be 1b5d ba3e 72b4 8bbe
00000320: dab5 b03e 7a5c 30bf 0a3f de3e cf68 ee3e
00000330: 9074 83be 20a7 84be e143 dd3b cf8c 043f
00000340: 02e9 a93e 6ada fa3e f899 1ebf 4ac7 17bf
00000350: a0f6 55bc b1e2 a9be 7671 ddbd b918 0f3e
00000360: 7cc0 173d 86ed 02bf c4a7 293f 8a27 d83e
00000370: 9853 9e3e cab6 223e 60fc 013f cc7b 30be
00000380: fbbd c63d c3bd a93d e9a8 6fbd 9809 25bc
00000390: 2397 153e b340 41bd 0bb6 d6bd b602 23be
000003a0: 18c4 c33c bf2e 6cbd 39fd 443e b9a9 f13d
000003b0: 3f70 b13e 0823 b03e 01a9 58be b792 dc3e
000003c0: 134b 843d 521f 723d e856 173e aa6a 6c3e
000003d0: 5991 763e 3450 a7bd d5fd 63be 9efe 093f
000003e0: 7110 ab3d e0ae 09bf e74c bc3e 4311 9b3d
000003f0: 2301 823d ba9b 0abe d7d8 11be 0e0c 8f3e
-0.16970019 0.07436169 0.38372502 0.023218412 0.92267674 0.19620754 -0.1707927 0.45038283
0.81393147 -0.24312492 0.25090253 0.16751832 0.25489256 -0.5218899 -0.048072305 0.5059717
-0.15060392 0.14305724 -0.08710786 -0.10697881 0.3210467 -0.26354724 0.2622037 0.026261164
0.64400244 0.19401883 0.5180797 0.011902436 0.64842004 -0.2772347 0.49166602 0.9011095
-0.3103601 0.20676687 0.009691806 -0.32855344 0.21783839 0.27702177 -0.5105586 0.9938489
0.50348115 0.6727622 -0.04915652 -0.68243986 0.6711002 -0.5699888 -0.43350983 0.61642957
0.045008693 0.10012764 -0.6027114 -0.19408093 -0.7000486 -0.2747551 0.8904125 -0.03178771
0.16985951 0.24457577 0.19868766 0.088869445 0.28884304 0.25737998 0.39015862 0.41984317
-0.23231116 0.24416396 -0.11689845 -0.22787377 0.08255851 -0.31444636 0.13369326 0.17431314
-0.3659973 -0.25937662 -0.13726132 0.25268236 -0.5824351 0.15581533 -0.24068365 0.68445826
-0.35733232 0.11036688 0.3247756 0.04044949 0.23519908 0.4606893 -0.1913558 -0.3929996
0.22198017 0.36822116 -0.054582153 0.017188555 0.042505387 -0.16890171 -0.20174798 0.2664581
0.11463174 0.358976 -0.060229804 -0.2726194 0.23430578 -0.29070225 -0.41340262 -0.075170696
0.10094091 -0.18872374 0.19658138 0.22739665 0.22055882 -0.1544774 -0.04403503 0.016845204
-0.36275595 -0.72043216 0.026295844 0.16891317 -0.33992597 0.12401865 -0.1397235 0.15794665
0.014196908 0.47195783 -0.54319 -0.09483496 0.3080371 0.0998191 -0.23034197 -0.06479848
0.36600316 0.288932 -0.06407312 0.054859977 0.006455593 0.16642039 -0.24664225 0.3097329
-0.54036134 0.19378033 -0.20906237 0.06338879 -0.082966484 -0.06568878 0.015387863 0.056579996
0.29693666 -0.15367706 -0.16840857 0.119978756 -0.5876494 -0.20561717 0.3721812 -0.4082764
-0.4790857 0.07359362 0.14586836 0.17367631 -0.32701725 0.03655995 0.084480666 0.07875538
0.097854935 0.8465942 -0.55130005 -0.17463012 -0.4325305 -0.0769499 0.050503984 0.13545693
-1.0841014 -0.02722447 0.4758282 0.3639455 -0.10338416 0.040677667 -0.016658176 0.46740517
-0.44437444 0.056336 -0.16774064 -0.06950732 -0.4618149 0.449566 -0.0031907018 0.16021498
-0.3341546 -0.35206413 0.011084233 0.018900631 0.14900509 -0.04404796 -0.38715884 0.39219642
0.09220258 0.49607572 0.1566439 -0.068660095 -0.15450957 -0.25780082 0.3639916 -0.27286106
0.34513742 -0.6889111 0.4340747 0.46564338 -0.25674868 -0.25908756 0.0067524766 0.51777357
0.33185583 0.48994762 -0.6195369 -0.59288466 -0.013059288 -0.33180764 -0.108126566 0.13974275
0.0370488 -0.5114368 0.66271615 0.42217666 0.30923152 0.15890041 0.5077572 -0.17234725
0.09704205 0.08288147 -0.058510695 -0.010073088 0.14608435 -0.047180843 -0.10483941 -0.15919003
0.023897216 -0.057661768 0.19237222 0.1179995 0.3465595 0.34401727 -0.2115822 0.43080685
0.06459632 0.0591119 0.14779246 0.23087564 0.24078883 -0.081695944 -0.22264798 0.5390414
0.08352745 -0.53782463 0.36777422 0.07571652 0.06347873 -0.13535967 -0.14242874 0.27938884

fc.bias f4 [128]
00000000: 4c1b a2be e93c d6be ce22 5dbd aded 39be
00000010: 3b40 7eba 095e 023e 6c12 39be b225 063f
00000020: 3733 823e 442d bd3e 767b ccbe 6da5 fcbb
00000030: a2b3 44bf abab 21bf e555 e33d d607 17be
00000040: dacf 2dbe 76f9 dd3e cdc3 b33e dfd8 bfbd
00000050: dc92 083f d477 4dbd eb9f a2be e914 8d3e
00000060: be32 da3d c94c 7ebe 4f39 f43d d477 9bbe
00000070: be49 19bf fc9a a2bd fabb 703d 974f 813c
00000080: 139a 513e b3ee 65bc dcd6 70be 901c 203e
00000090: f483 a13e a983 4dbe 5d78 55bc db49 0dbf
000000a0: a37f 0ebf 6eff 343d 2bd3 f43d e4b3 0dbe
000000b0: a629 62be d63f 823e 38df f53e 45c1 20be
000000c0: 5378 f1bd 63f5 c1bd 6a08 36bf 6b44 183e
000000d0: e13d 2bbe 03e6 2dbf 6902 573e 427f e43e
000000e0: 2d80 553f b431 a53e 1193 6b3e 7e45 593f
000000f0: 0661 f6be e8c4 10be e09d da3d d0d6 c7be
00000100: 70e0 de3d 4afd e1be b4d0 793e 6897 9abd
00000110: 21e5 6d3e a403 2abe 52c3 09bf 2726 833e
00000120: d519 0fbe 32f0 333e 365e a6be 669c b6bb
00000130: 909c 83be d919 0dbf cb9f b03b 652d 8abe
00000140: d97e 14be 88c0 113f feed 0a3c ff3a 9d3e
00000150: 5bf8 96be 4cd2 a8bd e3dc a03d 7d7a 0f3f
00000160: 3b21 20be 5195 a4bd 8616 c2be e64d 1b3e
00000170: 3206 c43e e756 8bbc 1cb1 a8be 08bb c6be
00000180: 0963 553e 44e9 03be fb2e a53c 93ec b83c
00000190: 0190 78bf 6a4d 103f f951 bbbc 8861 8a3c
000001a0: 9b28 963e 7100 ab3e 313e e0be 2a4b 33be
000001b0: dcdd 623d 83a5 443e 87a3 a73e 1bc6 dd3e
000001c0: 1b3d 913e b315 c2be f239 a03d 490e 32be
000001d0: a979 8d3d 1cf2 8c3e 235d b23d 59ca 18be
000001e0: 697e 22bd 1b5d 0a3f 9696 98be 901d 64be
000001f0: d7d3 933d f53e 923d bab2 373e 5a2d 25bd
-0.3166145 -0.41843346 -0.05398827 -0.18157072 -0.0009698902 0.12731184 -0.18073434 0.5240127
0.254297 0.36948597 -0.39937943 -0.00771015 -0.768366 -0.6315257 0.111003675 -0.14749083
-0.1697382 0.43354386 0.35110322 -0.09367537 0.5334909 -0.050163105 -0.31762633 0.27555016
0.106542096 -0.24833979 0.11924993 -0.3036486 -0.59878147 -0.07939717 0.05877302 0.015785022
0.20468931 -0.014033961 -0.23519462 0.15635896 0.31545985 -0.20069756 -0.013029185 -0.5519082
-0.5566351 0.04418891 0.119543396 -0.13838154 -0.220862 0.25439328 0.48021865 -0.15698726
-0.11790528 -0.09470632 -0.7110659 0.1486985 -0.16722824 -0.67929095 0.20997013 0.4462834
0.83398706 0.32264483 0.2300532 0.8487166 -0.48120898 -0.14137614 0.106746435 -0.39031076
0.10882652 -0.44138557 0.2439602 -0.0754841 0.23231937 -0.16602951 -0.5381366 0.25615045
-0.13974698 0.17572096 -0.32493752 -0.0055728434 -0.25705385 -0.55117565 0.0053901426 -0.26987758
-0.14501514 0.56934404 0.008479593 0.30709073 -0.29486355 -0.08243236 0.07854631 0.5604628
-0.15637676 -0.08036292 -0.3790781 0.15166435 0.38285977 -0.017009212 -0.32947624 -0.3881457
0.2083856 -0.12881953 0.020164004 0.022573745 -0.9709473 0.56368124 -0.022866236 0.01689221
0.29327855 0.33398774 -0.43797448 -0.17509142 0.055387363 0.19203763 0.3274195 0.43315205
0.28366932 -0.3790718 0.07823552 -0.17388262 0.069079705 0.27528465 0.08709171 -0.1492094
-0.039671335 0.5404832 -0.29802388 -0.22276902 0.072181396 0.07140914 0.17939273 -0.040326454

mlp.0.weight f4 [16, 360]
00000000: 4206 94bd e434 d5bc 0690 8abd d3c4 f4bc
00000010: ca2d 8dbd 2e80 adbd 7449 d2bd 2ee2 dabd
00000020: c617 b0bd 82ff b2bc a5e0 c3bd dd50 30bd
00000030: 1b22 8dbd da42 a5bd b0be bcbd d017 93bc
00000040: 440d b6bc 95b0 cbbd 9108 98bd 26a5 07bd
00000050: 45d3 93bd 7767 80bd 0fb2 4cbd 71bf 9dbd
00000060: 297f e2bc 57ad 98bd 1058 7cbd 8b45 85bc
00000070: ec17 87bc 186e aebd 3410 13bd df24 babc
00000080: 6222 21bd 6ea4 10bd d2c5 b3bd 4114 95bd
00000090: 5ad7 12bd 82c0 c4bc b66d c8bd 6535 0fbc
000000a0: 7ba5 04bc 9ed1 12bd 1c75 2abc fa3a 52bd
000000b0: 4dfa f6bb 60ca 43bd d502 1cbc 68df e2bd
000000c0: 2d90 4bbd cccd cabd b85a e3bd 77a1 83bc
000000d0: b621 d7bd d501 c5bc 906e 14bd 0a4e 7fbc
000000e0: 4f0b 88bd 8812 5fbd 7947 80bd 7718 84bd
000000f0: ae13 9cbd 9f10 91bd 7b02 77bd 3c47 dabd
00000100: bb3f 23bd 1ff0 2ebd fb0e babd 2e32 babc
00000110: a7df d2bd 6f1b 73bd 2b45 a8bc ff13 8fbd
00000120: 4b98 a9bc 6c22 0dbd 3448 50bd b6b8 62bd
00000130: b7f5 c4bc a79f b9bd 6752 c4bd 1129 05bd
00000140: a7a4 9bbd 6044 8abd 567f 57bc 671d 5ebd
00000150: 1913 0bbc edc8 c4bd c3c3 c4bc 3b18 3ebd
00000160: 0e37 33bd 6317 d4bc 2ffd 9ebd 8f00 03bd
00000170: 64ac 35bd f369 98bc adae a1bc 50a4 d1bc
00000180: ef4b bbbd ea6f 37bc 3f9e d0bc 8875 8ebc
00000190: 1722 d0bd b613 bebd f9d3 a1bd 85c0 a1bc
000001a0: 44b4 95bd 8ca2 95bc ae8c 90bd 5630 a8bd
000001b0: 7270 93bc 99b7 80bd 359a cdbd 3577 1cbd
000001c0: 95b0 d4bd 185c d3bd 4468 b4bd 5f5c b2bd
000001d0: 3830 babd d8af d0bd 116c f0bb a569 10bd
000001e0: dbb0 22bd 5007 a5bd e02b 6dbd baf5 b2bd
000001f0: a551 9bbd 5657 a9bd de65 28bd c5ef 98bd
00000200: 4231 20bd 40ba ecbc a340 86bd 2219 03bd
00000210: b924 65bd d54c 2ebd 34f6 b7bd 18b2 48bc
00000220: 88bb b5bd 3857 58bc 152f ccbd 8448 85bd
00000230: cab9 dcbd 78fb 90bd eee6 a3bd ab22 46bd
00000240: 3c1a c1bd a757 acbd 0222 e9bc 78fd cdbc
00000250: 84be b9bd 725b 10bd de86 71bd b08d 2ebd
00000260: 4b14 86bc 0c48 9bbd 08ac 88bd 2d83 6ebc
00000270: 9896 a3bc 0129 abbd ee2a 9bbc 6432 07bc
00000280: 793b d2bc 0728 08bd d3a8 f7bc 946c c4bc
00000290: b470 c8bc 0ae3 41bd cf49 cbbd 640e a5bc
000002a0: a0c9 31bd 1d8b 0fbd 31d1 a9bc 14a8 d6bd
000002b0: 2d84 f2bb 31f8 01bd 1394 84bd 86a2 c2bd
000002c0: d854 a6bd bd1a a0bd d394 83bc 557c cbbd
000002d0: 384b 08bd 8cc9 e4bd 359f a6bd 4c2f 8abd
000002e0: a340 43bd 7d28 40bc 6d0b 5fbd 861d d6bd
000002f0: 40d9 61bd 939f d6bd 7f66 0ebd 7e4a 9fbc
00000300: 7a29 a7bd 947e c4bd d527 38bd 7788 86bd
00000310: e397 d5bd ce88 21bd 5565 43bd 612d b8bd
00000320: 47ec 11bd 14c8 c5bd 5dfb 99bd 3077 80bd
00000330: 056b 5ebd 3ae9 babd f0b2 83bd 9dce b1bd
00000340: e7e3 58bd 2d3e 8fbd 286e 90bd f2c6 d3bd
00000350: e3b9 85bc bbcd 3fbd a007 b0bd 9c2e bbbd
00000360: 5104 04bd d31e cdbd 4ede 9ebd 134a 83bd
00000370: b6c8 84bc f56f 9abc c727 2bbd 64f7 55bd
00000380: ccb8 67bd d9dd 82bd 757e 13bd 108b c9bd
00000390: e6b5 abbd 3e9f 94bd 5a61 3fbd 71ae 90bd
000003a0: 0f97 b5bd 546f 23bd bb9f f6bc e789 85bd
000003b0: 4ebb 3cbd dd78 aebd fb3f 87bd 0561 0fbc
000003c0: 8947 3fbd b7b5 36bd 609b a7bd 2394 e4bd
000003d0: 99c2 a1bd b26b 6fbd f1ff d8bd da17 c5bd
000003e0: fb0f 7fbd c5cb 23bc fa2b 12bd bcaa b0bd
000003f0: ef2a 57bd 782b f7bc d47e 95bd 3047 91bc
-0.07227756 -0.026026197 -0.067657515 -0.02987901 -0.06893499 -0.08471714 -0.10267916 -0.106876716
-0.085982844 -0.021850351 -0.09564332 -0.043045867 -0.06891271 -0.080693915 -0.09216058 -0.01795569
-0.022223122 -0.0994579 -0.07423509 -0.033116482 -0.07218031 -0.06269734 -0.049974497 -0.0770253
-0.027648525 -0.07454937 -0.06160742 -0.016268512 -0.016490899 -0.085170925 -0.035904124 -0.02272266
-0.03933943 -0.035313062 -0.087779656 -0.07279254 -0.035849907 -0.024017576 -0.09786551 -0.008740758
-0.008096094 -0.035844438 -0.010403898 -0.051325776 -0.0075371624 -0.04780042 -0.00952216 -0.110777676
-0.049698044 -0.09902534 -0.111012876 -0.016068203 -0.10504477 -0.024048725 -0.036238253 -0.015582571
-0.06642782 -0.054461032 -0.06263632 -0.06449979 -0.07620941 -0.07083248 -0.0603051 -0.10658118
-0.0398557 -0.042709466 -0.090848885 -0.022729006 -0.102965645 -0.059352335 -0.020540794 -0.06986236
-0.020702502 -0.034456655 -0.05085011 -0.055351935 -0.024042947 -0.090636544 -0.095860295 -0.032509867
-0.07599764 -0.06751323 -0.013152918 -0.05422726 -0.00848844 -0.09608636 -0.024019128 -0.046409827
-0.043753676 -0.025890058 -0.07763135 -0.031982955 -0.044353858 -0.018605208 -0.019736612 -0.025591046
-0.091453426 -0.011196116 -0.025466083 -0.017390028 -0.10162752 -0.09281103 -0.07901759 -0.01974512
-0.073097736 -0.018265985 -0.070580825 -0.08212344 -0.017997954 -0.062850185 -0.10039178 -0.038199622
-0.10385243 -0.103203 -0.088089496 -0.08709025 -0.09091228 -0.101897895 -0.0073371013 -0.035257
-0.039719444 -0.080580354 -0.05790317 -0.08738275 -0.07583932 -0.08268611 -0.041112773 -0.074676074
-0.039109476 -0.028897405 -0.06555297 -0.03200639 -0.055943225 -0.04255374 -0.089825064 -0.012249492
-0.08873659 -0.013204388 -0.09969918 -0.06507972 -0.10777624 -0.07079214 -0.08003031 -0.048372906
-0.09428832 -0.08415156 -0.028458599 -0.025145277 -0.09069541 -0.03524346 -0.05896651 -0.042615592
-0.016367098 -0.07582101 -0.06673437 -0.014557642 -0.01996927 -0.0835743 -0.018941369 -0.00825176
-0.025663124 -0.033241298 -0.030231869 -0.023977555 -0.024467804 -0.047335662 -0.09926187 -0.020148464
-0.043405175 -0.03504478 -0.020729633 -0.10481277 -0.0074010105 -0.031730834 -0.064735554 -0.09503655
-0.081216514 -0.078176 -0.016062176 -0.09935824 -0.03327486 -0.111712545 -0.08135835 -0.067473024
-0.047669064 -0.011728403 -0.054454256 -0.1045485 -0.055138826 -0.10479655 -0.034765717 -0.0194447
-0.08162208 -0.09594455 -0.04495986 -0.06568997 -0.10429361 -0.039437108 -0.04770406 -0.0899303
-0.035625722 -0.096573025 -0.07518647 -0.06272733 -0.05430128 -0.09126516 -0.06430614 -0.086819865
-0.05295172 -0.06994281 -0.07052261 -0.1034068 -0.01632399 -0.04682706 -0.08595204 -0.091397494
-0.03223068 -0.10015645 -0.07757245 -0.06410613 -0.016208988 -0.018852213 -0.04178598 -0.052237883
-0.05657272 -0.0638997 -0.03600927 -0.09840977 -0.08384304 -0.072569355 -0.0467237 -0.07064522
-0.08866703 -0.039901093 -0.030105462 -0.065204434 -0.046077065 -0.085191466 -0.06604 -0.008751159
-0.04669908 -0.04460689 -0.08183932 -0.11161067 -0.07898445 -0.058452316 -0.10595692 -0.0962369
-0.0622711 -0.009997313 -0.03568647 -0.08626315 -0.05253118 -0.030172095 -0.07299581 -0.01773414

mlp.0.bias f4 [16]
00000000: c019 81bc da3d 93bd bcd9 473e ad40 dabd
00000010: 9265 cdbd 4139 0b3e f592 9e3c 3c30 eebc
00000020: d890 a3bd a5a9 84bd a386 84bc 11d3 a83d
00000030: 1a83 fd3d 62c9 0a3e 3944 88bc 2046 fa3d
-0.015759349 -0.071895316 0.19516653 -0.10656867 -0.100291386 0.1359606 0.019357184 -0.029075734
-0.07986611 -0.064776696 -0.016177481 0.08243383 0.12378521 0.13553384 -0.016634094 0.122204065

mlp.2.weight f4 [16, 16]
00000000: eb52 bfbd b6b8 813d e5b4 8cba eaa3 febd
00000010: 4b8f dcbd e0fc 00be 4db6 cc3e e645 81be
00000020: c2bb 3c3e a9e8 053d 7377 d93b 088a 823e
00000030: 21df 40be e9da a1be 577c 8abd cab3 5abe
00000040: a798 0f3e 5263 e13d f813 70be 9c72 81be
00000050: 92a7 2abe fa3e 98be de36 cdbe 073c 0b3d
00000060: 6ed8 c5bc 8c63 c53d 254e cdbd bae0 7bbe
00000070: 1f18 21bf 4b98 1d3d f0d7 f0be e83d a83e
00000080: 1fb6 a43d 41a5 36be 7b23 6a3d 8d99 0bbe
00000090: 6938 8cbd 4cd9 1c3e 5138 6fbe 94c2 433d
000000a0: c3c1 383e 4e3a 123e f9e7 18be 39ef 11be
000000b0: 9de0 0d3e 6824 863e ee7b 11be 246b 383e
000000c0: b0af 8a3c 5421 bbbc a89b 90be caed a93c
000000d0: 03f8 8a3c e99b c13d 87f1 b4be b8d9 2cbb
000000e0: 9cf1 76bc fddf 54bc 829b 4abc 49dd 9abd
000000f0: 25e4 55be 9b94 f8bd 05c7 5bbd 5339 91bd
00000100: 3520 883c 3e8c 19bc 5ad3 4a3d 180b dbbb
00000110: 46bf c23c 56af 5fbf feda 8bbd 66a5 a2bc
00000120: 2f67 323c 9d2b 983c ded7 77bb 361e bebc
00000130: 38f8 e4be 5f79 4abd cde0 813c fd25 833e
00000140: c804 2ebe ffec f93c 0073 00be c1c6 0c3e
00000150: b189 ca3c 221f 9fbd f582 56be c53a a1bd
00000160: 2845 843e eb33 bc3d b954 27be 513d 9cbd
00000170: 7304 063e cd5c cd3e df2c 54bd f8ce 923e
00000180: bb11 a53c 01e7 1e3c 1713 1abd 33c7 ae3b
00000190: 42c5 a63c db93 a23d fea6 94be a993 c5bb
000001a0: 2c11 a2bc e955 c23c 3a74 1abe 7ccf 03be
000001b0: 6856 17be 77ed a2bd f162 acbc c257 4a3d
000001c0: aca9 3e3e 4e51 61be c86c e5bc 374b d93d
000001d0: 3c14 8f3d 9369 c9be 2176 e0be 117d 16be
000001e0: 4c43 82be dee2 a43c e124 12bd 6f8c 21be
000001f0: 7ff2 45be 8dfe ddbe b879 08bf 9f01 0bbe
00000200: 494e 24bc 3acc b03c 5643 f8be bfb9 ebba
00000210: f361 b33b d103 8b3e f689 31bf 45de f4bb
00000220: 7814 a339 a1aa c3bc 0ae8 5dbb 653a 52be
00000230: aeef 00be 2f1b d3bd a39b c0be 46b6 bfbe
00000240: ab32 7b3d b82b 15be 5a92 b23e 448e 2d3e
00000250: a74e 493d 5e0a 863e 0240 083c 8997 2a3e
00000260: 5260 6e3d 9f25 b13d ce9e 8c3d 6d26 de3c
00000270: b4d7 523e 6ab6 45be ae19 03bd 637f 38be
00000280: bafa 88bd 1039 babc d228 d73e a14b 1dbe
00000290: 8a6e 693e 5e95 913e a7bb 7b3e 4e33 3a3e
000002a0: 0400 2dbe 1570 b23d b4fe 3e3e bca9 dbbd
000002b0: 89b8 a43e 3f77 5a3e 8c69 8f3e 7d4f 26bc
000002c0: dc1b 0f3a d552 df3b e934 89be 755b 2f3c
000002d0: ca3f 0a3b 581c 83be f848 7fbd 659e 883b
000002e0: 114f 1c3a a9d6 2fbc a9c1 b73b e488 a0bd
000002f0: 79cb 2b3e 5e1e 9abe c4a7 583d 2502 213e
00000300: 7e24 953e cd69 7dbd ddc7 a63d 528e b9bd
00000310: ff41 4bbd 9c47 8d3d 6b86 4e3e 98bf d1bd
00000320: 6b5c 95bd 2e2d 253e abe3 99bc 5bc7 7f3e
00000330: 2c0a 0e3e 0295 aa3b d648 62be f4e8 623e
00000340: bd5a 503d 3bce 4e3e 1ea7 8ebc 3562 9dbd
00000350: b557 aabd 86d2 063e 8238 833b ee24 a7bd
00000360: d040 4b3e 278b 0bbe 9d9a c23d 931e f03e
00000370: c69e 28be 4f84 e8bd 4b78 57bd 1315 9d3d
00000380: 121c 05bc 489b 133c 349f 3abe b49b 423c
00000390: f17d 073c f6ba 53be 3dce 043d 478e 463c
000003a0: 1c7b 5b3c 256d 813c 06b6 bebc 508e 05bd
000003b0: 9197 19be 7228 9b3d 152e 5a3e 965c c03c
000003c0: c344 60bc dabd 6b3e bd5a f6bb 414b 353d
000003d0: 6b3b cfbd 3b1f 533e 77b0 09bd 64f8 103e
000003e0: 4af3 96bd 5972 153d 5dab 1e3e 9330 7d3e
000003f0: c49a 08bd 0505 883e 8ff8 55be 5b53 153e
-0.09341987 0.06334059 -0.0010735063 -0.12433608 -0.107695185 -0.12596464 0.39982834 -0.2524864
0.18430999 0.032692585 0.006636554 0.25495934 -0.18835117 -0.31612328 -0.06761997 -0.21357647
0.14023076 0.11005272 -0.23445117 -0.25282753 -0.16665486 -0.29735547 -0.40080923 0.033992793
-0.024151053 0.09638128 -0.100246705 -0.24597445 -0.6292743 0.038475316 -0.47039747 0.3285973
0.08042549 -0.17836477 0.057162743 -0.13632794 -0.06846697 0.15317267 -0.23361327 0.047792986
0.18042664 0.14280054 -0.1493224 -0.14251412 0.13855214 0.2619965 -0.14207432 0.18009621
0.016929477 -0.02284304 -0.28243756 0.02074327 0.016963964 0.094535656 -0.3534052 -0.0026374888
-0.015072253 -0.012992856 -0.0123661775 -0.07561738 -0.20887811 -0.12137719 -0.053656597 -0.07091012
0.01661692 -0.009371815 0.049517967 -0.006684672 0.023772847 -0.87376916 -0.06828879 -0.019854259
0.010888859 0.018575484 -0.0037817876 -0.023207765 -0.44720626 -0.049432155 0.015854264 0.2561492
-0.16994011 0.030508516 -0.12543869 0.13747694 0.02472386 -0.0776961 -0.20948394 -0.078725375
0.25834012 0.0918959 -0.16340913 -0.07628883 0.13087635 0.40109864 -0.051800605 0.2867353
0.020150056 0.00969863 -0.03761586 0.005333805 0.020357732 0.079383574 -0.29033655 -0.0060295654
-0.019783579 0.023722606 -0.150834 -0.12872118 -0.14779055 -0.07955449 -0.021043273 0.0494001
0.18619412 -0.22003672 -0.028005973 0.10610049 0.06986281 -0.3933836 -0.43840125 -0.14696147
-0.25441968 0.02012771 -0.0356797 -0.15776227 -0.19330786 -0.4335827 -0.5331073 -0.13574837
-0.01002843 0.021581758 -0.48488873 -0.0017984434 0.005474323 0.2715135 -0.69351137 -0.0074727857
0.00031105033 -0.023885073 -0.003386023 -0.20530088 -0.1259143 -0.10307919 -0.3761874 -0.3744375
0.061327618 -0.14567459 0.34877282 0.16948801 0.049147274 0.26179785 0.008316042 0.16659369
0.058197327 0.08649754 0.06866227 0.027117932 0.20590097 -0.19307867 -0.032006912 -0.18017344
-0.06688447 -0.022732288 0.4202333 -0.15360881 0.22796074 0.2843427 0.24583302 0.18183634
-0.16894537 0.08712784 0.18651849 -0.10725734 0.3217204 0.21334551 0.28010213 -0.010150787
0.00054591685 0.0068152943 -0.2679818 0.010702957 0.002109515 -0.25607562 -0.062325448 0.0041692727
0.00059627095 -0.010732331 0.005607803 -0.0783861 0.16776837 -0.30101293 0.05289437 0.15723474
0.29129404 -0.061868478 0.0814359 -0.090603486 -0.049623486 0.06898424 0.20168464 -0.10241622
-0.07293018 0.16130516 -0.018785318 0.24978392 0.13871068 0.0052057514 -0.22098097 0.22159177
0.050867785 0.20195858 -0.017413672 -0.07684747 -0.0831751 0.13166246 0.004004539 -0.08161341
0.19848943 -0.13627301 0.095021464 0.46898326 -0.16466817 -0.11353361 -0.052604955 0.07670035
-0.008124368 0.00900919 -0.18224794 0.011877943 0.008269773 -0.20676789 0.032423247 0.0121188825
0.013396051 0.015799114 -0.023280155 -0.032606423 -0.14999224 0.07576074 0.21306641 0.023481648
-0.013688269 0.23021641 -0.007518141 0.04426122 -0.10118755 0.20617382 -0.033615556 0.14157254
-0.073706225 0.036486004 0.15495057 0.24725561 -0.03335072 0.2656633 -0.20895599 0.14582579

mlp.2.bias f4 [16]
00000000: 4149 6b3e 20ca 1e3f a6e6 df3e 4510 98be
00000010: 8612 5d3f 689d ea3e 36a9 5cbe 6c96 5cbd
00000020: a4cd 533f 802f d1bd dfe2 253e 998f 99be
00000030: ce70 8a3e 72c1 a73e 0fc3 d9bd e203 873e
0.22977163 0.6202717 0.43730658 -0.29699913 0.8635639 0.45823216 -0.21548924 -0.05385439
0.8273566 -0.10214138 0.16199826 -0.2999237 0.27039188 0.32764775 -0.106329076 0.2637015

mlp.4.weight f4 [16, 16]
00000000: a019 b9be 933f 32bc f3cb 6abe dc51 baba
00000010: 7588 22bc 01bf 83bd 4f43 983c 526f 4a3c
00000020: e8eb 0fbc e2c4 99bd 20cb 09be cc83 abbc
00000030: f94a e2be e0d7 a8be 2779 82bd 231f acbe
00000040: bbbe 95b7 20b3 8dbe 209d 93be 35e8 78bc
00000050: befa ccbd 8fe4 41be 58fe bc3d bb82 c3bb
00000060: 82de be3c b8bd bf3d 2ab5 80be c7ce 933d
00000070: d5d8 4abe 82ea a5bd 99ad bf3a 543b aa3c
00000080: c7cb 90be 63eb 8c3e 450a 68be 7fd5 49bc
00000090: fab4 0abd 9a8e 5a3e 8643 853c f79c 85bc
000000a0: d0da fb3d ebea 12bd 8c43 9fbe ab52 84bc
000000b0: 5892 7cbe b1f7 123c 769c d73d aaf9 4cbe
000000c0: 3058 5b3d 1cd8 08be e856 ab3d 3694 8c3d
000000d0: 2411 293e 498c 17be f25a edbd 44f2 2abe
000000e0: cb95 953e 25b6 3fbd b787 8fbe dbcd 4b3e
000000f0: 4c55 933e 055f d53e 8bc9 98be 98ac 8a3e
00000100: c57b 90be 3466 ddbb 27e0 fabd 9774 f53b
00000110: 5cdd 1bbe 3107 3abe 34fc bf3a 198b 98ba
00000120: 106c acbc e38e 78be 6a18 35be bf78 10bc
00000130: 17ed 31be 3b06 f7bd 82e7 0b3b cf5c b3bd
00000140: 03bc 7dbe bfcc a33d 8636 01bc 20ae 80bc
00000150: 503e d33c 346f 573d 66c2 8a3c 829c 00bc
00000160: 4aec cc3a e156 84bd 7fb2 8fbd 4069 79bc
00000170: ef47 80be 86f7 063d 17f7 b13c b7d0 c0bd
00000180: 518a a6be 0a10 1cbc 530c b5bc ffaf a13c
00000190: 6e74 74bd e621 2c3c 8ed2 9f3c 5d4b 9f3c
000001a0: aad9 b2bc ce16 98be c60e 1bbc 2a55 0d3c
000001b0: 2543 90be 5907 aebd 89f4 a83c 7c7a 76be
000001c0: 0b46 17bf a93a d33e f7b7 edbe 8126 59bc
000001d0: eb4c 233e 4bc7 c13e fc2d 8f3b ccf2 413c
000001e0: ce6f 5e3e 0820 243d 5f93 853e 0495 1e3e
000001f0: 0d16 a8be 8aec e43e cadf e0bd 5ec2 a6be
00000200: bd92 95be 0810 87ba 1f56 75bd 98db aabb
00000210: db8a 9a3e 7b55 9dbe 4cb8 aabc 967b d7bd
00000220: 87bd adbc 2c1c 83be 7a6f 56be f878 32bc
00000230: 9696 1b3e 0e30 04be e1ed 03be 6774 6b3d
00000240: ba58 953c 6590 acbd b4da 3e3e dd64 953c
00000250: cd88 52be 0c0b 38be d076 fd3d 45f2 50bd
00000260: ea95 b1bd e66a 0f3d a18c 02be 2db7 e83d
00000270: eb59 0dbe 2cee 9e3b 9f9f c13c 8e3e 7e3d
00000280: d2cb 053d 8ceb 963d 6c8a 213e 2939 b13b
00000290: 09c1 bd3b 92db 0cbe c031 f23d 1980 44bd
000002a0: b4ed a1bb 894c 91be ec02 ffbd d38c c63c
000002b0: 9c06 acbd 4610 8abd f7da 8c3a 1d74 50bd
000002c0: 8f3a 3fbe 713b 61bf 9722 c83e 0bcb 013b
000002d0: 7261 44bf e1a1 053f 4bbc 4a3e 044e b6bd
000002e0: 5f54 2b3f 413a 83be 3e35 ecbd 6388 05be
000002f0: ea5f f23d f5e4 5abe 2ce9 93bd d59f 633e
00000300: 94b1 8ebc 579c fc3e 36c5 c03d 6454 533c
00000310: eec7 5c3e e08e 8cbd 6e2a cd3c cf88 b8bd
00000320: e4e6 15bd 4b74 29be d490 96be 362a d03d
00000330: 4c42 a83d 86c3 8e3e 057b 6cbe 5bfa 253d
00000340: 687f 73be eabe b63c 795f 2fbe 00a9 4c3c
00000350: 6615 a43c 0b9d 793d 224e c13d 2150 07bc
00000360: 19a0 a0bc 3052 55be 9a9f 2e3d 2401 9dbc
00000370: 3007 89be d322 24be 7a2b a03c 5753 023e
00000380: 4cbc 5dbe 3926 3d3b 5f4e 12bb 6b37 723b
00000390: 8321 a0bc 5b79 51bc 8632 143c 4a13 3a3b
000003a0: aea6 df3b 94e8 23be 2741 2bbe 80c8 bdbc
000003b0: 5cdf dabc eafc d43c 76e1 3ebc 8d32 88be
000003c0: 844a 06be 1c7e 7fbe c225 163e b53d fb3d
000003d0: e081 9fbe 48e6 c8bc 1665 463e 4b85 153e
000003e0: dbea 19bf 530a 7e3e 3a55 983e 88d5 d2bd
000003f0: 258c 7d3e 875e 873d 3f5e 03be 6ef7 6b3e
-0.36152363 -0.010879415 -0.22929363 -0.001421507 -0.009920229 -0.064329155 0.018586783 0.012355642
-0.008784272 -0.075082555 -0.13456392 -0.02093687 -0.44197825 -0.329772 -0.06370764 -0.33617505
-1.7851e-05 -0.27675724 -0.28830814 -0.015192081 -0.10008763 -0.18934844 0.092282 -0.005966512
0.02329946 0.09362358 -0.25138217 0.07217174 -0.19809277 -0.081013694 0.001462388 0.020780243
-0.2828047 0.27523336 -0.22660168 -0.012318968 -0.033864 0.2134346 0.01626755 -0.016310198
0.122975945 -0.035868566 -0.31106222 -0.0161527 -0.246652 0.008970187 0.105278894 -0.20017114
0.0535509 -0.13363689 0.083661854 0.068642065 0.16510445 -0.14799608 -0.11589612 -0.1669398
0.29215845 -0.046804566 -0.2803323 0.19902746 0.28776014 0.41674057 -0.29841265 0.27084804
-0.2821943 -0.0067565683 -0.12249785 0.0074907052 -0.1522116 -0.18166806 0.0014647306 -0.0011638134
-0.021047622 -0.24273257 -0.17685094 -0.008817851 -0.17375599 -0.12061735 0.0021347706 -0.08757936
-0.24778752 0.079980366 -0.007886535 -0.01570803 0.025786549 0.052596286 0.0169384 -0.007849814
0.0015634384 -0.06461883 -0.07016467 -0.015222847 -0.2505488 0.0329509 0.021724267 -0.09414809
-0.32527402 -0.009525308 -0.022100603 0.019737242 -0.05968135 0.010506129 0.01950958 0.019445116
-0.021832306 -0.297049 -0.0094639715 0.008626262 -0.28176227 -0.08497495 0.020624416 -0.24070162
-0.5909125 0.41255692 -0.46429417 -0.013253809 0.1594731 0.3784736 0.0043694954 0.011837672
0.21722338 0.04006961 0.26088998 0.15486532 -0.32829323 0.44711715 -0.109801844 -0.32570165
-0.29213515 -0.001030446 -0.059896585 -0.005214166 0.30184063 -0.3072928 -0.020839833 -0.10521619
-0.021208538 -0.2560743 -0.20940962 -0.010893099 0.15194163 -0.12908956 -0.12883712 0.057484057
0.018230785 -0.084259786 0.18638116 0.018236572 -0.20559998 -0.17972964 0.12376177 -0.051012296
-0.08671172 0.035014056 -0.12748958 0.11363063 -0.13803832 0.0048501696 0.023635684 0.062071376
0.03266508 0.07369146 0.1577546 0.0054084253 0.005790834 -0.13755634 0.11825895 -0.047973726
-0.0049416665 -0.28378704 -0.12451729 0.024237072 -0.08399698 -0.06741385 0.0010746409 -0.050891984
-0.18674682 -0.87981325 0.3908889 0.001980486 -0.7671119 0.5220013 0.1979839 -0.08901599
0.66925615 -0.25630382 -0.11533593 -0.13040309 0.118347004 -0.21376403 -0.072222084 0.2222894
-0.01741866 0.49338028 0.09412615 0.012898538 0.21560642 -0.06863189 0.025044646 -0.09010469
-0.036597148 -0.16548268 -0.2940737 0.10164301 0.0821577 0.27883548 -0.23093803 0.04052196
-0.2377907 0.022307832 -0.17126264 0.012491465 0.020029735 0.060940783 0.09438731 -0.00825885
-0.01960759 -0.20832133 0.042632677 -0.019165583 -0.26763296 -0.1602891 0.019551981 0.12727104
-0.21653861 0.0028861894 -0.0022324545 0.0036959301 -0.01954723 -0.012785281 0.009045249 0.0028392845
0.0068252897 -0.1600669 -0.16724072 -0.023166895 -0.026717834 0.025999505 -0.011650434 -0.26601067
-0.13114363 -0.2495045 0.14662841 0.12267629 -0.31153774 -0.02452387 0.19374499 0.14601628
-0.60123986 0.24808626 0.29752523 -0.10294634 0.24760492 0.066098265 -0.12828921 0.23043606

mlp.4.bias f4 [16]
00000000: 278e 27be ec17 0d3e af01 32be 48ca d43e
00000010: 11f5 94be e27f e0bd 1479 a2be 8daa aabe
00000020: eec1 94be 4f79 a8be 44e0 abbd e1f2 983e
00000030: 7c0c ae3e 1809 99be 5d1e 96be 70b2 9e3e
-0.1636282 0.13778657 -0.17383455 0.41560578 -0.2909322 -0.10961892 -0.31733 -0.33333245
-0.29054207 -0.3290505 -0.08392385 0.29872802 0.339939 -0.2988975 -0.2932004 0.30995512

mlp.6.weight f4 [3, 16]
00000000: 520a 563e bc69 183e 577b eb3d 2220 273d
00000010: 5c5c 8f3c ffda ecba 1b2e 40be d996 733d
00000020: 0d30 d9bd 6304 633d 7a8f e73c c443 3c3e
00000030: 7407 db3d 133f 27be bbdd 0d3d fede a1be
00000040: cc71 b83d 3abc 1bbc af9a 003d 5708 2b3d
00000050: f41a 993e 2aaa 363d 4547 463e 2580 233d
00000060: d60b 7e3c 209e 313d a2c8 1cbd 150a 6abe
00000070: 217f cb3d 522d 54be 50db b53c f2cf a1be
00000080: 936b 85bd 9c78 f3bc cb81 fbbd e755 b43e
00000090: 60b8 933c 7fc4 e63d 1604 b6bd 4fd3 d4be
000000a0: c85c fabd 6430 43bc b752 aa3d d83c 94bb
000000b0: 07ac 0d3e 877c 3fbe 85ca 313d 998b d5bb
0.20902374 0.14884084 0.114981346 0.04080213 0.017500095 -0.0018070637 -0.18767588 0.05947003
-0.10604868 0.055424105 0.028266657 0.18385226 0.10694781 -0.16332655 0.034635287 -0.31615442
0.0900608 -0.009505326 0.031397518 0.041756 0.29903376 0.044595875 0.19363125 0.03991713
0.015505752 0.04336369 -0.038277276 -0.22855408 0.09936357 -0.20720413 0.022199303 -0.31603962
-0.06514659 -0.029720597 -0.122806154 0.35221788 0.018032253 0.112679474 -0.08887498 -0.41567466
-0.12224728 -0.011913393 0.08316558 -0.0045238547 0.13835154 -0.18699847 0.04340603 -0.0065168855

mlp.6.bias f4 [3]
00000000: 7fd7 1fbe 67be a2be d35a d2bd
-0.15609549 -0.3178589 -0.102712296
