EUSIPCO/Nested Array noisy position/saved_models/da_music_v2_10dB_nested_10.pth (torch, 47202 bytes, 18 tensors)

bn.weight f4 [16]
00000000: 459b 473f 2bb0 663f 4a4d 8e3f b97a 763f
00000010: 712a 243f 30fe d53e 32f8 273e a673 393e
00000020: 188d 8d3f 2935 b63f d2e0 bb3f c091 433f
00000030: ed69 0b3f fc4b 4c3e 16e3 c63d 860b 623d
0.779713 0.9011256 1.1117337 0.9628101 0.6412726 0.41795492 0.16403273 0.18110523
1.1058683 1.4234973 1.4677985 0.7639427 0.54458505 0.1995086 0.09711282 0.05518677

bn.bias f4 [16]
00000000: 91ea c13e c5de 91be ba52 ebbc 56b5 93be
00000010: c7fc 193d 4404 af3d 4d50 57be 05cf f6bd
00000020: e259 ab3d 8b5a 023f defe 3bbe b010 fd3d
00000030: 8d39 eebe cd21 483e cb02 8fbc bcdf 26bc
0.37874272 -0.28490272 -0.02872597 -0.28849286 0.037594583 0.085457355 -0.21026726 -0.120512046
0.08366753 0.5091941 -0.18358943 0.123566985 -0.46528283 0.19544144 -0.017457386 -0.010185178

bn.running_mean f4 [16]
00000000: 68df 873a d31f 973a 803f 2fba 5df1 8f39
00000010: 225c ebba e742 9b3a 6e29 80ba c304 7b3a
00000020: d228 db39 df98 0cba 7338 583a 7845 7fba
00000030: 86f1 6bba 6639 e5b9 f780 21bb da3d e43a
0.0010366263 0.001152987 -0.00066851825 0.00027454915 -0.0017956535 0.00118455 -0.0009777972 0.00095755997
0.0004180135 -0.0005363356 0.00082481577 -0.00097378297 -0.00090005284 -0.0004372105 -0.002464352 0.0017413453

bn.running_var f4 [16]
00000000: 648d c63f 9a79 c63f 41bf c63f ea13 c63f
00000010: 7c6d c63f 1572 c63f 1d24 c63f fd42 c63f
00000020: 7c6d c63f 9e40 c63f 402a c63f 799c c63f
00000030: 1277 c63f 3f2b c63f 72b7 c53f 108c c63f
1.5511899 1.550586 1.5527116 1.5474827 1.5502162 1.5503565 1.5479771 1.5489193
1.5502162 1.548847 1.5481644 1.5516502 1.5505087 1.5481948 1.5446608 1.5511494

rnn.weight_ih_l0 f4 [48, 16]
00000000: 6980 633e 3125 523f bb69 c6bc 1a51 f2bd
00000010: 86e1 0abe edfe db3e 0239 30bf 5aa9 283e
00000020: e095 8cbe f284 e4be 870a a0be 0d3f 3ebe
00000030: 27d6 c63e a63f 12bf aab7 023f 00ce 92be
00000040: ae7f 3dbf c9d4 0e3e 78ea 543f 84ac 403e
00000050: ebc9 583d 49d1 d63c 4b79 003f ce1d 783e
00000060: d739 41bf 7d19 833f 4d37 31bf 1833 c93e
00000070: 316a 79bd f88b b43e 18c9 56be 2bce 81be
00000080: 955a f0be 9dcf a8be 9106 0ebf b51d 303f
00000090: f2fd 9a3d ed4f da3c 2496 223f 60a7 15be
000000a0: 4a84 d73e 3def bcbe fddb e93d 7729 bdbe
000000b0: 6024 e43d 188b 8fbe d48e 083e 43a7 bcbd
000000c0: e8bf 9ebe e69e debf d389 143f 4d5c a9bf
000000d0: d57c 113f 09a1 4cbe d77a 2a3f 001e aa3e
000000e0: 4483 7b3f 34e5 04bf 7cbc 5e3f 8fc2 163e
000000f0: 5991 8dbe 336f 09bf 18aa 16be 3e63 43be
00000100: 248a 62bf a955 cb3e 7096 0cbe d549 f13e
00000110: b580 c63f 206a 69bf e2ac 9c3f 85d2 d0bd
00000120: 619a 2dbf 5541 8e3e 568a 99bf b765 3b3f
00000130: cf95 adbe c00d 693f 286c 7e3b 42fd a33e
00000140: 9950 1d3d 0b98 23be fd43 cfbe fd36 933e
00000150: 0ab1 c2bd 5800 2e3f 4c76 c53e 62b8 ed3e
00000160: 8496 253d e8f3 033e c31b ba3d 6c34 dd3c
00000170: c396 0d3f a5d9 6dbe a5f5 de3e 96e9 0cbe
00000180: b2ac 82bf 24e7 1abf 0c4c 873f 43c8 9fbd
00000190: 9aed 03c0 d3ff e53e ee71 eebd 972d 393e
000001a0: 768f 2bbe 676c 8dbf 3a78 28bf 7bb0 843f
000001b0: 06f5 c83d 59dd bbbe fbb7 57be 9765 43be
000001c0: 18dd 1c3e 1f4c a93e e358 6bbd dc6d abbe
000001d0: f042 a63e 61ae 323e 6813 bfbe d811 123d
000001e0: 13e0 95be cb70 173e 096f 863d 5f7d 5ebb
000001f0: 3e60 64be 30c1 023f e4c5 5ebe 8d32 b73d
00000200: 5777 7ebf 7bda 01bf da43 283f 1765 cd3e
00000210: 09cc 3a3f d8b8 25bf 693c ef3e d3d7 1dbf
00000220: 8bda 80bd 9e48 9b3f 9cf6 5d3f 71d6 1e3f
00000230: 554e 23bd 6683 ad3e 06ce 9a3c 7fa1 123f
00000240: c4d4 1dbd d3ef 2e3f 7ea6 e03f 902b 1cbf
00000250: 1d1c 35bf 0155 62bd c824 09bf 2c6b 8ebc
00000260: 48dc e63e 239d 873e b290 18bf 14b1 59bf
00000270: 7315 8c3f f821 4bbf 60d3 5a3c 7b9a babe
00000280: 9d32 78be 8214 aa3e 23d8 a63f 7dfa ef3e
00000290: 95b9 71bf a667 0d3f 9c7a bebd cd6f 173f
000002a0: 908e ee3e 5c51 023e 3691 cb3d b67e 8c3e
000002b0: cc32 1b3f cdd3 8abe 4cde 5e3d e0c0 9b3e
000002c0: 7efd dcbe 996e 1e3f b07f 503e 1a4b b73e
000002d0: 630a ffbe f71d d8be 0e34 ca3e 6b3a e43e
000002e0: 1289 ecbe af51 73bf 7ded 93bf 04b1 85bf
000002f0: 8973 a13d 2233 8ebf fed5 5d3f 27df 2abd
00000300: ef47 803f b751 acbe 68f2 98bf bf22 0ebf
00000310: 4f0b 1b3c 3e0c e73e b9ee 22be 4444 0a3f
00000320: 4623 833e 0a3d 6dbf 5b53 76bf 40d4 8e3f
00000330: b94b 0d3f ea1d dabe ad49 c33e 28d2 14bf
00000340: f071 8bbf 8272 90bd 7fbc 0b3e 196e d0bd
00000350: 518e 94be 782c 513e dd18 fbbe 47a3 15bb
00000360: 11a6 723e 90de 103f 0179 033f b243 33bf
00000370: 064a e43e febb bebe 80b8 073f 5657 37bf
00000380: 2e6a 37bf 8ff5 363f e6b8 71bf 2cb6 153f
00000390: 9dad 42bf 1449 053e 812f 05bf b08b ef3e
000003a0: 2b21 863e a8d3 8b3d 2322 733f 70cf ddbe
000003b0: 1243 273f d34c a23e 119b fa3c 9b9b 6c3e
000003c0: 69bd 803f ee99 81bc d66b 3abe 3d36 efbe
000003d0: 7cac 013f 7428 99be 35b7 97be 7620 92be
000003e0: 84d0 67bf e2b2 dbbe 1b02 b0be 36d8 d9be
000003f0: 87ae 0dbe c0b9 72bf 138e 423f c645 eabe
0.22216953 0.82088 -0.024220338 -0.11831875 -0.13562593 0.4296793 -0.68836987 0.16470852
-0.27458096 -0.4463268 -0.31258032 -0.1857874 0.3883526 -0.5712837 0.510615 -0.2867279
-0.7402295 0.13948359 0.8317027 0.1881581 0.05292694 0.026222842 0.5018508 0.2423012
-0.7547888 1.0242153 -0.6922501 0.39296794 -0.060892288 0.35263038 -0.20975149 -0.25352606
-0.4694411 -0.32970896 -0.5547877 0.6879533 0.075679675 0.02664944 0.63510346 -0.1461463
0.42093116 -0.36901274 0.114189126 -0.36945698 0.111397505 -0.28035808 0.13335735 -0.0921159
-0.31005788 -1.7392242 0.58022803 -1.3231293 0.56831104 -0.19983305 0.6659369 0.33226013
0.9824717 -0.51912236 0.87006354 0.14722656 -0.27649954 -0.536853 -0.14713323 -0.19080827
-0.88492036 0.3971379 -0.13729262 0.47126642 1.5508028 -0.9117756 1.224026 -0.101964034
-0.6781369 0.2778422 -1.1995342 0.7320208 -0.33903357 0.91036606 0.003882179 0.32029158
0.038406942 -0.15975969 -0.40481558 0.2875289 -0.09506424 0.67969275 0.38566816 0.46429735
0.040426746 0.12886012 0.090873264 0.027002536 0.5530817 -0.23227556 0.43546787 -0.13760981
-1.0208952 -0.6050894 1.0570083 -0.07801869 -2.061377 0.4492174 -0.11642824 0.18083797
-0.16753945 -1.1048707 -0.6580845 1.0366358 0.098123595 -0.36692312 -0.21066277 -0.19081722
0.15318716 0.33065888 -0.057457816 -0.33482254 0.32472944 0.17449333 -0.37319493 0.03566155
-0.29272518 0.14789121 0.06564147 -0.0033949239 -0.22302338 0.5107603 -0.21755177 0.08945189
-0.9940085 -0.50724 0.65728533 0.40116188 0.7296758 -0.64735174 0.46725777 -0.61657447
-0.06291684 1.2131536 0.8670442 0.6204596 -0.039869625 0.33889312 0.018897068 0.57277673
-0.038532987 0.6833469 1.7550809 -0.6100397 -0.7074602 -0.055256847 -0.5357175 -0.017385088
0.45089936 0.26487073 -0.5959579 -0.85035825 1.0944046 -0.7934871 0.01335606 -0.36445984
-0.24238057 0.3321877 1.303471 0.46870795 -0.944238 0.5523628 -0.0930073 0.5915497
0.46593142 0.12726349 0.09939806 0.27440423 0.60624385 -0.27114716 0.054411218 0.3042059
-0.4316215 0.6188751 0.20361209 0.35799485 -0.49812612 -0.4221036 0.3949284 0.4457582
-0.46198326 -0.95046514 -1.1556851 -1.0444646 0.07883365 -1.1109354 0.8665465 -0.04171672
1.0021952 -0.33656093 -1.1948977 -0.5552177 0.009463145 0.45126528 -0.15911378 0.54010415
0.2561285 -0.92671263 -0.9622094 1.1158524 0.5519367 -0.42600948 0.38142148 -0.58133173
-1.0894146 -0.07053091 0.13646124 -0.101772495 -0.2901483 0.2042712 -0.49042407 -0.0022832917
0.23696162 0.56589603 0.5135651 -0.7002517 0.44587725 -0.37252802 0.530159 -0.7161764
-0.7164639 0.7146844 -0.9442276 0.584811 -0.7604616 0.13016158 -0.5202561 0.4678626
0.2619718 0.068274796 0.94973963 -0.43322325 0.65336716 0.31699237 0.03059152 0.23106234
1.0057803 -0.01582047 -0.18205199 -0.46721068 0.50653815 -0.29913676 -0.29631963 -0.2854039
-0.90552545 -0.42909914 -0.34376606 -0.42547768 -0.13836108 -0.9481468 0.7599804 -0.45756358

rnn.weight_hh_l0 f4 [48, 16]
00000000: ac4a c23e c599 173f 2dcb 11be 9440 38bf
00000010: b74b a5bd 533b cb3e 3ee7 1ebf c2ee 8a3e
00000020: f6f0 a1bd 316c d1bc 3dbf 2ebf 7ea3 b33e
00000030: 8c7f 75be 5d80 35bd 21bb 2ebd 4cda 063f
00000040: d700 14bf 5a38 713e 3ba5 2d3e 348f 083e
00000050: 98ce 69be 0c99 cbbe b17f 9e3f e016 1d3f
00000060: 6e0c 1d3f d8e3 733f 79ed 743e 9951 073f
00000070: b121 863e 385c 4bbf 3db7 2040 de65 953d
00000080: a20c 263f c799 283f 5856 1fbd ecd0 ed3d
00000090: 70b3 0ebf 3373 a8be fede 3dbf 8e64 0e3f
000000a0: ada1 8f3f 79f8 d43d bc78 afbd 712d c83e
000000b0: 4db9 793e 2697 c7be d584 63bd 62e5 803f
000000c0: baf1 933d 1c73 85be fe66 b93d 3458 353e
000000d0: 7e9a c9be 3bfa 3fbf 4ca8 6b3e 5777 a33e
000000e0: 196b e5be 9bb3 df3e 3c6b 4dbd ac85 8b3d
000000f0: f1ac 1fbf 1832 2b3e 2749 0e3f d8bc c9be
00000100: 2dfe fa3d 4dcc 01bf 7039 9b3e 67b5 063f
00000110: 1aa2 753f a4d3 513e 67b5 e43e 2fd0 01be
00000120: 9cc1 a73e a998 19bf ee3d a63c 40fc 9bbe
00000130: c1d2 3e3d 6cbe 83bd 0531 a1be d115 883e
00000140: 1821 d8bc 2070 753f 7539 073f 192b ecbd
00000150: 4cb3 b9be 0273 d3bc f769 053f 5d4a 243f
00000160: ada2 1040 1c21 4d3f b8af d93e d695 273f
00000170: 11d8 91be 1b9a 35be 5563 c73f 1458 453f
00000180: 00b7 27bf 34c2 adbe 5c23 e73e 80b1 2cbf
00000190: a772 d1be c22e bfbd b53e a9be dc98 fc3e
000001a0: b020 2bbd 625d 353f 4479 c93e 9a31 b53f
000001b0: f3e8 1d3d 8d64 11bf abb2 c73d d80c 8cbe
000001c0: dfed 893e bd65 e3be 8649 12bf 46f1 853e
000001d0: 026c 773f 315e 713f e2e4 963c 2b23 07bf
000001e0: 86b5 18bf 3f40 46bf 7a8a dbbe 34d4 21bf
000001f0: bf5c 75be a96c 9e3f 2bb6 34bf 3683 c53e
00000200: d546 0ec0 9e3a e53e 6fb0 a03e c27e 8ebe
00000210: f7a1 fc3e 5f3e 98be db87 ee3f 7abd c5b9
00000220: f82a e43e c619 453f c272 1abe 9b83 163e
00000230: f47c fb3e 033f d0be 3afb f43f 3178 973e
00000240: 105b aabd f2f4 05be ca98 dd3e 0984 13bf
00000250: 7b85 43be b5da b8be 6e11 26bd e5bd 2e3f
00000260: dc32 0cbe 670d 2e3e d46c 683f 952a 69bd
00000270: e846 b83d af41 86be 61b1 a93e 7773 ffbe
00000280: a27f 093e 4217 b63e e42b 913e d40f ec3d
00000290: 51ee 393d 8c7d 34bf 4ee0 b8be 1322 0f3e
000002a0: 8978 b33e 0507 24bf bc47 70be 557e 103e
000002b0: e74e 283d 281c 3b3f 4dd6 79bf 1051 363f
000002c0: 943b 5a3e 65f6 11bf 4eae 183d 139a ae3d
000002d0: 3a5b fdbe 31a2 263f 06ce 093f d849 a33e
000002e0: defe 2dbf 38d1 b23d 654e 333f 8de7 71bf
000002f0: 552c b73e 7a38 5fbf 2d72 263f a24b b7bf
00000300: 6a1d 9f3e 8f24 b7be 973c a7bd c2f6 903e
00000310: 41c0 64be 7e6b b73e 77c0 043e b199 ef3d
00000320: 8fe8 fb3e d3a8 8a3e 9673 d53d 6941 c4bd
00000330: 8300 27be 243d 093e a1fa d63e d56d 4b3f
00000340: 7f53 663e e434 693f 9b11 67be 3bfa fc3e
00000350: 474e 32bd 56a6 9d3d c7d6 9cbd abd8 c43d
00000360: f045 7b3f 78c7 5b3e f7db 0a3e 0578 73bc
00000370: bd6d 5cbd af70 bfbe cbb5 af3f 68a5 603f
00000380: 4e04 453e 621e 0cbf 3ba5 103f 80ed 0d3e
00000390: e78a dc3e 00d3 733e b9ce 24bf c3fe 4e3e
000003a0: 23d9 13bf 0b4c b0be efcb ba3d e0b5 123d
000003b0: c5eb dbbd 0d04 893d 7b66 34be 1740 d6bd
000003c0: eb21 5fbf 3f44 d83f be3b 2f3e b5f2 72bf
000003d0: 2a22 8e3e 4984 7d3e d768 803f 06f1 6abd
000003e0: fff0 0040 16a9 723f d333 c3bc 1bc6 a43f
000003f0: 24ea 563f e792 51be 3ff9 e43f 8267 883f
0.37947595 0.5921901 -0.14237662 -0.7197354 -0.08071082 0.39693698 -0.620716 0.27135283
-0.07907288 -0.025564285 -0.68260556 0.35085672 -0.23974437 -0.04431187 -0.04265893 0.52676845
-0.5781378 0.23556653 0.16957562 0.13335878 -0.22832716 -0.39765203 1.2382718 0.6136303
0.6134709 0.95269537 0.23918714 0.52858883 0.2619758 -0.7943759 2.511184 0.0729482
0.64863026 0.65859646 -0.038900703 0.11612114 -0.5574255 -0.3290039 -0.74168384 0.55622184
1.1221215 0.10398955 -0.0856795 0.3909717 0.24387093 -0.38982505 -0.0555466 1.0070002
0.0722384 -0.26064384 0.09052847 0.17709428 -0.3937568 -0.74991196 0.23013419 0.31926987
-0.44808272 0.43691716 -0.050151095 0.06812605 -0.6237326 0.16718328 0.5558037 -0.3940189
0.122555114 -0.50702363 0.3031726 0.5262055 0.9595047 0.2049089 0.4466965 -0.12677072
0.327649 -0.59998566 0.020293202 -0.3046589 0.04658771 -0.064328045 -0.3148271 0.26579145
-0.026382968 0.95874214 0.5282205 -0.11531658 -0.36269605 -0.025811676 0.52114815 0.6417597
2.259929 0.80128646 0.42516875 0.65463006 -0.28485158 -0.17734568 1.5577189 0.7708752
-0.6551361 -0.33937228 0.45144165 -0.67458344 -0.40907785 -0.0933509 -0.33055654 0.49335372
-0.04177922 0.70845616 0.3935033 1.4155762 0.038552236 -0.56794053 0.09750875 -0.2735355
0.26939294 -0.44413558 -0.5714344 0.2616064 0.9664918 0.9428435 0.018419687 -0.5278804
-0.5965198 -0.7744178 -0.42879087 -0.6321442 -0.23961161 1.237691 -0.70590466 0.38576669
-2.2230732 0.44771284 0.31384608 -0.27831084 0.4934232 -0.29735085 1.863521 -0.0003771594
0.44564033 0.7699245 -0.15082839 0.14698641 0.4911877 -0.40673074 1.9139168 0.29583886
-0.0831815 -0.1308172 0.4328063 -0.57623345 -0.19093888 -0.3610436 -0.040543966 0.68258506
-0.13691276 0.169973 0.9079106 -0.056925375 0.08997899 -0.26221988 0.33143142 -0.4989278
0.13427594 0.3556462 0.28353798 0.115264565 0.04539329 -0.7050407 -0.3610863 0.13977842
0.350529 -0.6407321 -0.23464864 0.14110692 0.041090872 0.7308984 -0.9759262 0.7121744
0.2131179 -0.57016593 0.037275605 0.08525481 -0.49483663 0.65091234 0.5382999 0.31892276
-0.6796702 0.087313116 0.70041496 -0.94493943 0.3577601 -0.8719555 0.6501797 -1.4319956
0.3107713 -0.3577008 -0.081658535 0.2831326 -0.22338964 0.35824198 0.12964045 0.11699236
0.49200866 0.27081928 0.10422437 -0.095827885 -0.16308789 0.1340223 0.4198809 0.79464465
0.22492789 0.9109633 -0.2256531 0.4940966 -0.043531682 0.07697742 -0.07658153 0.09611639
0.9815359 0.2146281 0.13560472 -0.014860158 -0.053815592 -0.37390658 1.3727354 0.8775239
0.19239923 -0.5473386 0.5650212 0.1386013 0.43074724 0.23810959 -0.64377934 0.20214371
-0.577532 -0.34433016 0.091209285 0.03581798 -0.10738329 0.06690226 -0.17617218 -0.10461443
-0.8716113 1.6895827 0.17112634 -0.9490159 0.2776044 0.24757494 1.0031995 -0.057358764
2.0147092 0.94789255 -0.023828423 1.2872957 0.8395102 -0.20466195 1.7888564 1.0656588

rnn.bias_ih_l0 f4 [48]
00000000: 5681 8c3d 4bfa c7bd b624 3dbf 1098 e4bd
00000010: 0a3b 55bd b32c 2cbf 85ea 1ebf cbe7 383f
00000020: 3250 c13e 27cc 03bf 800b 02be a01c dbbe
00000030: f607 adbe aac4 b6bd 806d 6f3d cee0 aebd
00000040: 0041 aa3f ae8d 693f 08bf 883f e9e9 5d3f
00000050: 44de 933f b7cf 833f 8a40 583f 80c2 7abf
00000060: 4a34 a33f 1454 863f 5d58 353f 4b23 8e3f
00000070: 02df 7f3f 0859 963f e61d 973f dfe4 783f
00000080: 1521 9e3e 853e b43d 894c 823e f8d1 bc3e
00000090: cec5 913e 0fbc f13d 1862 8abe 6aea 65bf
000000a0: c6b2 92bd d45f 1d3e e8d9 87bd f782 e63d
000000b0: 669e 6d3d 7f98 11be 468d 873e 3018 80bd
0.06860606 -0.097645365 -0.7388414 -0.11161816 -0.052058257 -0.67255706 -0.620766 0.7222869
0.37756497 -0.51483387 -0.126997 -0.42795277 -0.33795136 -0.089242294 0.058454037 -0.08538972
1.3301086 0.9123181 1.0683298 0.86685044 1.1552205 1.0297765 0.8447348 -0.97953033
1.2750332 1.0494409 0.70837957 1.110452 0.9994966 1.174592 1.1805999 0.9722423
0.30884615 0.08800987 0.25449017 0.36878943 0.28471226 0.118034475 -0.27027965 -0.8981081
-0.071630046 0.15368587 -0.06633359 0.11255448 0.05801239 -0.14218329 0.2647497 -0.062546134

rnn.bias_hh_l0 f4 [48]
00000000: c8f3 35be 9414 9bbe c524 50bf c6c3 ed3d
00000010: e48b 4dbe 82df ecbe a80c aabe 02e0 283f
00000020: 05cd c73e d896 15bf 68c4 93be fd2d 85be
00000030: 465b c23c 1252 7c3d 7f38 7ebe 87cd 3c3e
00000040: ad7e 9a3f a007 8d3f e04a a93f 6999 8a3f
00000050: a9f6 873f 3925 8a3f a1bd 3f3f 9caf afbf
00000060: d907 a63f 9c18 313f 8e61 833f 9ebb 8c3f
00000070: bc4e 223f f987 a93f 740f 9d3f c48f 633f
00000080: 0d00 4bbd e655 2d3d 246f 7abe e040 0c3f
00000090: 2c9f 04be f54e 203e 7653 e83d 8b59 55bf
000000a0: 9109 bcbe d7d3 ecbe 4829 c43c 112b 6d3e
000000b0: e1c1 9ebe 35aa 193e fb46 bdbc 62bc 973d
-0.17768776 -0.30289137 -0.81306106 0.116096064 -0.20072895 -0.46264273 -0.3321278 0.6596681
0.39023605 -0.58433294 -0.28860784 -0.2601165 0.023725163 0.061601706 -0.24826239 0.18437777
1.2069908 1.1017952 1.3225975 1.0828067 1.062215 1.079261 0.74898726 -1.3725467
1.2971145 0.69178176 1.0264146 1.0994756 0.6340139 1.324462 1.2270341 0.88891244
-0.049560595 0.042318247 -0.2445646 0.5478649 -0.12951344 0.1565512 0.11344044 -0.83339757
-0.3672605 -0.4625537 0.023945466 0.2316096 -0.31007293 0.15006335 -0.023105135 0.07408978

fc.weight f4 [128, 16]
00000000: f891 353f c8bb 09be b593 74be 5194 b93d
00000010: c59d 973d 501b cdbc 370b c2be 33f9 6f3b
00000020: 64ae a33d 0a4b 2fbf 4a13 69bd f1bc 0ebe
00000030: 7566 06be e83d fa3d 5c31 b3be 1357 803e
00000040: 94ec 19be a4c8 223e f555 bf3d ee4d 2a3f
00000050: ceed bbbc 8d54 09bf 3e37 243f 5bb6 b23c
00000060: 6c64 903e 6345 cfbc 844b 3dbe c418 a83e
00000070: b525 09bf 12f6 5a3d 9a44 653d 3c74 763e
00000080: 3bf0 a93e 0ba3 193d 2b05 123e c899 ca3e
00000090: abba 3e3e 9da2 37be 3a29 973d f94a 883e
000000a0: 533c c03d 1904 083e ea6c 743e d974 65bd
000000b0: c008 c8be 0829 2cbd 59ac 30bd 5007 a1be
000000c0: 5e80 273e 6c16 b43c c342 a5be ef85 c63c
000000d0: 401a 45be 99a3 463e 03c8 6dbc 38d0 87bd
000000e0: 2bcc a3be 4a33 843e f53a 12bf 2513 42be
000000f0: 5a38 b2be 100b a1bd 1d09 493b c4eb c3bd
00000100: 662f 77bf ca44 e6bd b81e 7e3e 2241 8b3d
00000110: 46c8 f23e 7f59 2fbe 2d62 ac3e 96c3 63bd
00000120: 4e4e 49be 3aa7 fd3e ab41 633d ecb7 873c
00000130: ecb9 163e 6b55 27be b948 ba3e a3b0 0ebe
00000140: 4572 7c3d 28f4 81bd 1e1e 6f3e 5f9d d8be
00000150: d9f9 543e d048 cc3d f8b2 e3be 2a26 04be
00000160: 7f5b f03d 003d 10bf 771e 913e de0f a93e
00000170: f1c5 f13e 45f6 5c3e b8ed 61bd 4dd1 29bd
00000180: 193a 683f adf7 0f3e 4a2e a6be 39d8 d1be
00000190: cd99 ebbe 0517 62bd 4b73 b2be 4b3f be3d
000001a0: aa69 43be 180d 7fbe 26ff 373e 698c d9bc
000001b0: 7a03 e83d 0e2d d33d eff6 4cbc a7f3 ed3d
000001c0: 580a b6be 18c7 22be 0d51 ea3e 0100 53bd
000001d0: 5389 ee3e 0c54 cf3d 0550 ddbe 6429 0abc
000001e0: b537 e9b9 e68a bd3e 1393 b93e 687f 9a3e
000001f0: ae1c 00bd 820c 9e3d 9f06 3abe f22d 72bd
00000200: d02b 08bf 58d7 4f3e f206 25bf df80 fd3e
00000210: 4123 6abe a247 b6be ceea da3e 4d50 8cbe
00000220: 8db4 0ebe b91b fe3e 7078 32be 2e2b abbe
00000230: 2448 47bd 9e53 883e 22a4 5abd df65 1c3b
00000240: 2216 a03d 2745 2a3f 34cd 14bf a0b1 9e3d
00000250: 8292 09bf 1f56 1b3e c4ad a3be 3a17 a3bd
00000260: 7437 843e ea13 6b3e 91cc 12bf 3310 953e
00000270: 3d6d 3bbe 99ea e23d 361e 633e 9899 253f
00000280: f750 e8be c1af 49bd 906d 173f 3511 213e
00000290: 5c83 17be 7f6e 8abe fb02 5a3d d027 a13e
000002a0: 0086 c8be 0ce8 58bd 653b b93e b8f8 123f
000002b0: 421f 343e 424c 74bd 9e27 e73d 0717 f3be
000002c0: c833 1abe b9b9 82bd c953 9c3e 6656 37be
000002d0: c948 edbe 6619 373f 18de 89be 6fd6 0e3e
000002e0: bfcf 993d c9ef 3d3e 6281 ed3d 4940 54bf
000002f0: 8731 4dbe c970 173d 850f f13e 63e0 56be
00000300: ddf2 663e 0801 c33e cf7a 3e3e f5b1 23bd
00000310: 2a11 2bbd 8fc2 87be 8563 f9be e7ac 4dbd
00000320: 6bd4 7e3e 3065 5cbd 1873 3dbd 1ec6 e53c
00000330: 9ee4 28bf 1a9c f23e 0c49 d7be b699 b23e
00000340: cf74 96bd fe35 533e da56 2fbf 2327 9f3e
00000350: 89ed a1be cc6c 6bbe 1326 6fbe cd19 a53e
00000360: b56e 56be 4bb4 793f c57b 8f3e e9be 3bbd
00000370: aea4 183e ff84 633e 67ec d93e 9544 ac3c
00000380: 7e38 103f ad24 cabe 059b 28bf ab50 013e
00000390: c52d dbbe d0a6 203f 01a7 36be a0f0 cabe
000003a0: 9b95 cd3d bccc 503e e782 0abe 968c 10be
000003b0: 6a29 1cbf 54ca 1a3b 72cb 7cbd 1b44 2f3e
000003c0: e799 a73f f36c 15bf 5cde f93e 9e9e bd3d
000003d0: 6494 3bbf 56f5 5bbc 134f 26be 4f04 143f
000003e0: 3fdc f53e 9dd5 87be 1c48 df3d dcd2 583f
000003f0: 3044 e7be d0e7 39bf 53a5 b0be a810 063f
0.70925856 -0.13450539 -0.23884471 0.09061492 0.07403139 -0.025037438 -0.3789918 0.003661704
0.07992247 -0.68473876 -0.05690316 -0.13939263 -0.13125022 0.12218839 -0.34998596 0.25066432
-0.15031654 0.15896851 0.09342567 0.6652516 -0.022940543 -0.5364464 0.6414679 0.02181547
0.28201616 -0.02530164 -0.18485838 0.32831395 -0.5357316 0.053457327 0.055973627 0.24067777
0.33191094 0.037509006 0.14259784 0.3957045 0.18625896 -0.17933126 0.0738091 0.266197
0.09386506 0.13282813 0.23869672 -0.056019638 -0.39069176 -0.042031318 -0.043133114 -0.31450891
0.16357562 0.021983348 -0.32277498 0.024233786 -0.19248295 0.19398345 -0.014513019 -0.066315114
-0.31991705 0.2582038 -0.5712121 -0.18952616 -0.34808618 -0.07863438 0.0030675598 -0.09566453
-0.965567 -0.11243589 0.24816406 0.067995325 0.47418422 -0.17123984 0.33668652 -0.055606447
-0.19658777 0.49541646 0.055482548 0.016567193 0.14719361 -0.16341178 0.36383608 -0.13934569
0.061632413 -0.06345397 0.23351333 -0.42307565 0.20798434 0.099748254 -0.4447248 -0.12905183
0.117362015 -0.5634308 0.28343555 0.33019918 0.4722133 0.2157832 -0.055158347 -0.04145937
0.9071365 0.14059325 -0.3245719 -0.40985277 -0.46015778 -0.055197734 -0.34853587 0.09289416
-0.19083276 -0.24907339 0.17968425 -0.02655621 0.11328788 0.10311328 -0.012510045 0.116187386
-0.35554767 -0.1589626 0.45764962 -0.051513676 0.46589145 0.101234525 -0.43225113 -0.00843272
-0.00044482728 0.37020034 0.3624502 0.30175328 -0.03127735 0.077172294 -0.18166588 -0.059125848
-0.5319185 0.20296991 -0.6446372 0.49512383 -0.22865011 -0.35601526 0.42757267 -0.27405015
-0.13936062 0.49630526 -0.17428756 -0.3343138 -0.048652783 0.26626295 -0.053379185 0.002386443
0.078167215 0.6651177 -0.58125615 0.07748723 -0.5373918 0.15169571 -0.3196851 -0.079634145
0.25823557 0.22956815 -0.57343394 0.29113922 -0.1830339 0.11079902 0.22179493 0.6468749
-0.4537427 -0.049239878 0.59151554 0.1572922 -0.14796203 -0.27037427 0.0532255 0.31475687
-0.39164734 -0.052955672 0.36178127 0.57410765 0.17590049 -0.059643038 0.11286853 -0.47478506
-0.15058815 -0.0638308 0.30532673 -0.17904052 -0.46344593 0.7152313 -0.26927257 0.13948987
0.075103275 0.18548502 0.115969434 -0.8291059 -0.20038424 0.036972795 0.47082153 -0.20984034
0.22553582 0.38086724 0.18601535 -0.039964635 -0.041764416 -0.26515624 -0.4870874 -0.05021372
0.24885719 -0.053807437 -0.04625234 0.028048571 -0.6597384 0.4738472 -0.42047918 0.34882897
-0.07346498 0.20626065 -0.684919 0.31084546 -0.31626537 -0.22990721 -0.23354368 0.32246247
-0.20940669 0.9754073 0.28024116 -0.045836363 0.1490657 0.22218703 0.42563173 0.021028796
0.563362 -0.39481106 -0.6586154 0.12628429 -0.42808357 0.62754536 -0.17837144 -0.39636707
0.100383006 0.203906 -0.13526498 -0.1411613 -0.6100069 0.0023619132 -0.061717458 0.17115824
1.3093842 -0.5836937 0.4880246 0.092587695 -0.732733 -0.013425192 -0.16241102 0.57819074
0.48019597 -0.26530161 0.10902426 0.84696746 -0.4516921 -0.7261934 -0.34501132 0.52369165

fc.bias f4 [128]
00000000: 6830 fcbd b07d 93be 56f6 c9be 1d10 9e3e
00000010: 9360 9d3d 8c8b f93c bad1 013d 25c3 07be
00000020: 4734 b03e 5819 733e c81f 65bd af3d 6c3d
00000030: 1b76 86be 2b26 23be 2cab a93e de13 8bbe
00000040: 5fee 2cbd 365b 9f3e 0b98 153f c5a8 25be
00000050: 48d3 b63d 8556 b0be f7ac 24bd f0c1 203e
00000060: c48b 9bbb 643a f63d 5c4d 143d 7876 b8bc
00000070: 5ff3 0b3e f186 963e 25c6 bcbe 75b0 d33e
00000080: b5b5 b83e 7d43 64be 4e30 cdbd 9a22 a63e
00000090: 6fcf c9bc b510 19bf ce2d 173e 1155 933e
000000a0: e999 1a3e 2492 66be 4b85 29be ee84 a73d
000000b0: acb9 a83e caf6 7ebe dca1 213f 4248 053c
000000c0: b289 aa3e 85c1 0b3d 0ea3 1ebc a3be cebd
000000d0: b791 01be a24a 3fbe dc0c d83d 8e14 1a3e
000000e0: 1ecc dd3d 2092 febc 250d 773e 278a cabe
000000f0: 8b76 ddbe 97ba 1bbe b635 3cbe aea0 323e
00000100: 1897 333e 1e5c 373e dcd3 533e 5ae0 e1bc
00000110: 6793 b0bc 0bab 643e 250a 9cbe 4106 ba3e
00000120: 3fc4 8ebe ccc6 ae3d f065 313d 0155 cf3c
00000130: 9b92 993e 1d06 cb3d db96 c9be f305 c53e
00000140: 93e7 963d 198e e03e 7b07 bbbe 74c0 453e
00000150: c184 c63c 34fa 963d 0e64 46be 7673 963e
00000160: 8a5b da3d d01b e0bd 9382 9bbe da02 9cbe
00000170: 5ae6 1cbe e42c cbbc 1145 1c3e ac82 cd3d
00000180: dee6 09be 3d4b edbd eaa3 4b3e 2451 aabe
00000190: 8aa2 d63d 9a18 d53d 7314 14bf 27fb 093e
000001a0: c7a8 e23d 1c8c 84be 4395 bebd 6410 d63e
000001b0: a284 34bd cff4 d63d 9c5b cabc 2715 aabb
000001c0: 504a 91be e808 19be 7fde 38bd 7a58 b23e
000001d0: 71ea 893e 6c4e f43e bd11 aebe 4729 f33d
000001e0: 22bf dcbd b6c3 de3d 2541 403e e706 543e
000001f0: 88c0 c8bb 4291 c13d 1f73 673d 5bc6 3cbf
-0.1231392 -0.2880683 -0.39445752 0.30871668 0.07684436 0.030462049 0.03169415 -0.13258035
0.34414884 0.23740137 -0.055938512 0.057676014 -0.26261982 -0.15932529 0.33138406 -0.27163595
-0.042219516 0.31124276 0.58435124 -0.16177662 0.089270175 -0.3444101 -0.040204015 0.15698981
-0.004746886 0.12022856 0.03620659 -0.022517428 0.13667057 0.29399827 -0.36869922 0.41345564
0.3607613 -0.2229137 -0.10018979 0.32448274 -0.024635045 -0.5979112 0.14763567 0.28775838
0.15097775 -0.22516686 -0.16554753 0.08179651 0.32954156 -0.2489883 0.631376 0.008134903
0.33308178 0.0341201 -0.00968243 -0.10094955 -0.12653242 -0.18680814 0.10549328 0.15046903
0.10829948 -0.031075537 0.24126108 -0.39558527 -0.43254504 -0.15207897 -0.18379864 0.17444107
0.17538106 0.17906234 0.20686287 -0.0275728 -0.021554662 0.22330873 -0.3047649 0.36332896
-0.278841 0.08534011 0.043310106 0.025309088 0.29994664 0.099132754 -0.39372906 0.384811
0.07368388 0.43858412 -0.36529145 0.19311696 0.024233224 0.07371941 -0.19374105 0.29384965
0.10661991 -0.10942805 -0.30373058 -0.30470926 -0.15322247 -0.024801679 0.15260722 0.10034689
-0.13466975 -0.11586616 0.19886747 -0.3326503 0.104802206 0.10405083 -0.57843703 0.13474713
0.11067348 -0.25888145 -0.09305813 0.4180938 -0.0440718 0.10495912 -0.024701886 -0.00519051
-0.28377008 -0.14944804 -0.045134064 0.34833127 0.26936677 0.4771608 -0.33997908 0.118731074
-0.10778643 0.10877173 0.1877485 0.20705758 -0.006126467 0.09451534 0.056506272 -0.73740166

mlp.0.weight f4 [16, 360]
00000000: a041 ddbc 6b04 dabd f955 58bc c6e4 ccbd
00000010: fcf2 9dbd 94a7 20bc 607b d0bd 68ac d8bc
00000020: d1be 91bd af00 d3bd 9444 95bd 353b 3dbd
00000030: 3c69 c9bd a30c 6abd 47d8 9bbd b55a 66bc
00000040: 0322 8abd 1445 e1bd 72df eebc 5dc6 c8bd
00000050: 7eae 69bd c038 c1bd 7910 cabd 7103 bcbd
00000060: 85ab 8fbd e033 d4bc 196d 72bc 639d 83bd
00000070: 29a9 08bc 072c adbd b384 e9bc dc7f a7bd
00000080: a76a c8bd 9a04 bdbd 2e2e 4fbd 3474 19bc
00000090: 36ad 18bd 610a b5bd 80d5 b9bd 6de9 1dbd
000000a0: ae51 73bd 94c6 ffbc 6e03 07bd f9e9 0abd
000000b0: 2d0a e4bc db91 ccbd ecc7 72bc 8517 73bd
000000c0: c3be cebd 158f 83bd 7ee4 aebd 5371 afbd
000000d0: 3f47 36bd 2697 bbbd baed b1bd eb3c d7bc
000000e0: 916b 67bd c04c 99bd 3407 83bd b9b3 b0bd
000000f0: a883 2bbd b74f d9bd 4a6e a8bd 21b2 7ebc
00000100: 7816 0cbd e99c 4abd f229 9abd b751 b9bd
00000110: a5bc 8bbc 9147 84bd cbf1 1ebd 0663 83bd
00000120: 3d56 97bc 9cf0 28bd 647f 4dbd 09ca 85bd
00000130: 040b abbc 10ee bebd 2730 9bbd 8b54 aabd
00000140: 5472 c2bd 9993 a8bd 9a25 5ebd d9ae 58bc
00000150: e9c9 9ebd b795 d0bd b1d5 d7bd 6f2a 72bd
00000160: 2d00 f1bc 780f e6bc e4d8 60bc 2374 17bd
00000170: c3ce 9bbd f772 9ebd d052 9fbd bddc 59bc
00000180: 4840 61bd ccc1 06bd be30 2ebd d5cc 92bd
00000190: 92a7 b4bd 9f8d e2bd 9057 89bd ab4d 3bbc
000001a0: 71a6 bebd b308 8bbc 8693 80bc af46 93bd
000001b0: b526 9cbd 0475 1abc df6c 4dbc b2e5 06bd
000001c0: 2d96 80bc 9bfa 1ebd 8899 46bd 46c1 85bd
000001d0: 77af 61bd 0d2f 6dbd c6c2 71bd 343c e3bd
000001e0: 6c89 80bc 8258 a5bd af43 b3bd 2952 dcbd
000001f0: 10e2 cdbd 255c e1bd a796 01bc 55b6 90bd
00000200: 2d88 a6bd 0ce8 a0bd ffd8 9cbc 0815 66bc
00000210: 24b2 2cbd 3893 adbd 53d8 70bd 9a55 dfbd
00000220: 5c1b 5fbd 6db4 dabd 6016 d5bd 49e3 debd
00000230: db68 25bd dbd7 62bd 2581 0bbd 0d42 c9bd
00000240: d15c e9bc 8b01 4ebc 331b c9bd 5fab a1bd
00000250: 3f97 a6bd 9917 cabc d769 afbc 3381 bcbd
00000260: 4514 bbbd 6eda a0bd 9ef4 8ebc eb29 21bd
00000270: 1b1a b8bd b701 30bd 08d0 a2bd 8ea8 76bd
00000280: d38e d8bd 2fad 08bc 4558 09bc 4f9a 9ebc
00000290: d784 54bc 62c3 bcbc 6dac 85bd afdd bbbd
000002a0: f875 adbd 1e80 1abd ab3e 65bd 9e1d ccbd
000002b0: 6039 1abd 37e0 43bd 336b 91bd a5a8 57bd
000002c0: a4bb dcbd 21b7 90bd ef79 f5bc f19e e2bc
000002d0: fbca d3bd c9d5 adbd ad64 28bd 5576 7bbd
000002e0: 0520 adbd cf63 2ebd 2167 e2bc 20d3 20bd
000002f0: f266 84bc 1fb6 51bd 9ead d3bd b952 31bd
00000300: 8c1c 76bd 6217 a0bd ddf8 cdbd f5d5 a5bc
00000310: 922f 80bd a129 82bd 7c95 92bd ee35 c9bd
00000320: 9f8c 70bd 82fc 3bbd 5954 95bd 3074 acbd
00000330: 8694 88bd cc9e b0bd 1f80 a4bd 706b d6bd
00000340: a71e c1bd 6842 52bd eed5 20bd ae3e 65bd
00000350: bc69 4abd b66f 82bd a57e 86bd 4ab0 c3bc
00000360: 84ca d9bd 651d 40bd 2cfd 13bd 9fe4 66bd
00000370: 91da e0bc 53d7 4bbd 7793 dfbd e7e9 06bc
00000380: 25be 02bc e10d 22bd 04fc b4bd c55d 9ebd
00000390: 08f8 b8bd 9126 a7bd 4308 8bbd f374 4fbd
000003a0: ce6e ccbc f8e7 b1bd efbb 3bbc 1ec7 c4bd
000003b0: ebc8 1bbd 28f1 c1bd 59b5 f5bb 52eb 54bd
000003c0: 714e 12bd 1d77 03bc b63f 08bd 048c 82bd
000003d0: 8ffb bbbc 355d 22bd 0ade 90bd ad4c 6cbd
000003e0: 0ada 2dbd a8f8 b3bd 03dd a0bd 4916 afbd
000003f0: 1a8c 9dbd 5606 5abc 659f c2bd bcf9 46bd
-0.027008832 -0.10645374 -0.013204091 -0.100045726 -0.07712361 -0.009805579 -0.10179782 -0.026449397
-0.071164735 -0.10302865 -0.07288471 -0.046199042 -0.09834525 -0.057140958 -0.07609611 -0.014059712
-0.067447685 -0.10999504 -0.029159281 -0.0980346 -0.057051174 -0.09434652 -0.09866423 -0.09180344
-0.07015137 -0.025903642 -0.014796519 -0.064265035 -0.008341112 -0.08455663 -0.028505659 -0.08178684
-0.09785967 -0.09229393 -0.05058115 -0.009366084 -0.03727456 -0.0883987 -0.09073925 -0.03855269
-0.059404068 -0.03122262 -0.032962255 -0.03391454 -0.027836883 -0.09988757 -0.014818173 -0.0593486
-0.10094979 -0.06423775 -0.08539675 -0.08566537 -0.04450154 -0.09159689 -0.08687921 -0.026274165
-0.056499068 -0.07485342 -0.06397858 -0.086280294 -0.041873604 -0.106109075 -0.08224161 -0.015545399
-0.034201115 -0.049466047 -0.07527532 -0.09048789 -0.017057726 -0.06458963 -0.03880481 -0.064153716
-0.018473739 -0.041245088 -0.050170317 -0.06532676 -0.020879276 -0.093227506 -0.07577544 -0.083169065
-0.094944626 -0.08231277 -0.05423508 -0.013225281 -0.07753355 -0.10184806 -0.10538805 -0.0591225
-0.02941903 -0.028083548 -0.013723586 -0.03697599 -0.07607796 -0.077367716 -0.07779467 -0.013297257
-0.054992944 -0.032899663 -0.042526953 -0.07167975 -0.08821024 -0.11062168 -0.06706154 -0.011432092
-0.0930909 -0.016971922 -0.015695345 -0.07191216 -0.0762457 -0.009427313 -0.012538164 -0.0329339
-0.01569661 -0.038813215 -0.048486263 -0.065310046 -0.055098977 -0.0579062 -0.05902364 -0.11095467
-0.015690528 -0.08073522 -0.08753144 -0.10757858 -0.100528836 -0.11003903 -0.0079094535 -0.07066027
-0.08131442 -0.078567594 -0.01914644 -0.0140431 -0.042162076 -0.084753454 -0.058800053 -0.10904999
-0.05446945 -0.10678945 -0.10404658 -0.10883195 -0.0403832 -0.055381637 -0.03405871 -0.09827051
-0.028486641 -0.01257361 -0.09819641 -0.078940146 -0.08134317 -0.024669455 -0.021412773 -0.0920433
-0.091347255 -0.07854162 -0.017450627 -0.039346617 -0.08989354 -0.042970385 -0.07949835 -0.06021934
-0.105741166 -0.008342071 -0.0083828615 -0.01936069 -0.012971125 -0.023042385 -0.06527028 -0.09173142
-0.084697664 -0.03771984 -0.055967968 -0.099665865 -0.037652373 -0.04782125 -0.07100525 -0.052651066
-0.10777977 -0.07066179 -0.029965369 -0.02766368 -0.1034145 -0.08488042 -0.041111637 -0.061392147
-0.08453373 -0.042575654 -0.027637066 -0.039263844 -0.01616237 -0.051199075 -0.10335849 -0.04329178
-0.06008582 -0.0781696 -0.100572325 -0.020243624 -0.06259073 -0.06355596 -0.07157418 -0.098247394
-0.058727857 -0.045895107 -0.07291479 -0.084205985 -0.066689536 -0.08624038 -0.0803225 -0.10469711
-0.094296746 -0.05133286 -0.03926652 -0.05596798 -0.049417242 -0.063689634 -0.06567124 -0.023887772
-0.1063433 -0.046903033 -0.036130115 -0.056370374 -0.02744797 -0.049765896 -0.109167986 -0.008234478
-0.007979904 -0.039564017 -0.08837131 -0.07732729 -0.09031683 -0.08161653 -0.06788685 -0.05064864
-0.02495518 -0.08686823 -0.011458381 -0.09608291 -0.038033407 -0.09469825 -0.007498425 -0.05198223
-0.03571934 -0.008024004 -0.033263884 -0.06374362 -0.0229471 -0.03963967 -0.070736006 -0.05769031
-0.042444266 -0.08787662 -0.07854655 -0.085491724 -0.07692738 -0.013307175 -0.09503058 -0.04857801

mlp.0.bias f4 [16]
00000000: 5afa babd 3ef6 823d 1591 6abc 2830 d7bc
00000010: eb98 d3bd 1d1e a23d 1078 9c3d ee77 573d
00000020: 174f 803a efad 6fbd 6e57 3c3d ac40 3ebd
00000030: f024 5d3d 53f9 283e 28e2 47bc 524c aabd
-0.09129782 0.06394623 -0.014316817 -0.02626808 -0.10331901 0.079159 0.076400876 0.05260461
0.0009789196 -0.058515485 0.045981817 -0.046448395 0.053990304 0.1650136 -0.012199916 -0.08315338

mlp.2.weight f4 [16, 16]
00000000: 9be7 973c a892 ddbc ce39 eb3d 1f2b b53d
00000010: 7ab3 a53d ff0f b13e d4aa 4fbe b874 813e
00000020: d5e0 fb3c 4e1a 7fbe ff3b 80bd 5f95 703d
00000030: 3fff 7a3e f9d4 55bd 5abc 313e 6464 183e
00000040: eed1 f0bd 5458 6c3e 09aa 2fbe c4f5 f1bd
00000050: cc5e 0fbf 055c 433e 5a10 0cbf e255 5ebd
00000060: 6bd1 40bd ebc6 82bd 753b 0e3e c4d3 c1bd
00000070: a9c3 d8bc 8b10 8b3e 822c 6dbe c344 5d3d
00000080: 2696 a83c fd08 6e3d b720 733a a026 40bb
00000090: cdfc 8bbe 4c2a 7fbe ee44 8ebe 4af1 7ebc
000000a0: 759e a23c 6c55 b6b9 ec43 6bbe 943a 53bc
000000b0: b7ae 61be 8157 a73d 1ac7 8abc f06f fdbb
000000c0: ad3c 07bb bb11 93be 2b7e 783c c568 3a3c
000000d0: 66b2 0dbe 10e5 90be f23e 1abd 109f 5dbc
000000e0: ff45 babc 2340 ecbb 585d 37bb 4875 443c
000000f0: 3ef0 073b 294a ab3b e286 97bc 9ca7 21bc
00000100: 4fbf 6c3c 07fe 173d e2f5 973a 6a93 bdbb
00000110: d3dc 36be f42d 91bc 4555 0b3e 75b4 463e
00000120: 623a a6bd 56cb 91bd 9f58 053f 4ec9 62bc
00000130: ba7c 8fbd e772 353e a1ce 3abe 64f6 813b
00000140: 09f9 49bc cc76 87bc 1919 c3ba cb5e adbb
00000150: ca01 913e 67a5 923e bc4a e83e 97ee f73d
00000160: 311c 383e 5b12 513e 724c 16be e091 54bc
00000170: dbd2 f4be b692 0abe f679 433e 55ff 39bc
00000180: 7ed2 aa3b 7f6d 17be 1f05 9bbc 85d7 263c
00000190: c0bb 8b3d 2a61 67be 1644 9cbd 6530 80be
000001a0: 4d26 c03b c6ae ba3c e58c 89bd 372a 9c3c
000001b0: fa21 85be 4c76 66bb fc81 aabc ffd6 a23b
000001c0: a495 393e 3a0d 1cbc 479d 1f3e f0fb f1bd
000001d0: d3c0 5dbe e4f3 6dbe c475 bbbd 4448 85be
000001e0: caf6 b1bb 8e71 46ba f422 8dbe 0ac4 90bd
000001f0: 5732 83ba bce8 08be f6ef 16be ec0e 4e3d
00000200: 6678 91bc ea9d 463e bd79 56bd 8899 b63d
00000210: e933 91bd d703 a03e 3f18 8a3e 569e c33d
00000220: 87f5 373e edf3 513e a0ca 0cbe 5c5c db3c
00000230: 6632 893e 8ce5 c23e 0ce5 8fbd 0c0a d93a
00000240: 6e64 d6bd 35f1 133e 05b4 823e 5300 41bc
00000250: ea95 10be a45c 6dbe d057 c33c 56b1 8d3d
00000260: a71a ce3d 7211 dabd 3cfa a93d 6eb6 33bd
00000270: 655c fe3e 243f 0dbc cf39 6dbd db7a 623e
00000280: 29e3 0f3b 783e 96be 4e1d 66bc 9c47 a2bc
00000290: 3b53 003f 0a40 c8bc 7dd1 fb3e 166d 5cbd
000002a0: 0fb8 27be de13 f4bd 4828 7dbe ec4d 4bbc
000002b0: 1baf 45bc 7a10 f4be dddf d93c fcb1 b33b
000002c0: 9458 403c 59c7 bdbe c67c 8a3a 7c06 c23a
000002d0: 7d9c 873c 8244 82be 173a fabd 6d8c 963c
000002e0: 1cee cfbd f413 403e cccb 7ebe b9e0 2abb
000002f0: 36a0 25be 3d69 2dbd d7c6 c53c 1d81 7a3c
00000300: 47df 243c a39c 6ebd f774 1e3e 0605 2f3c
00000310: b7b4 8ebe 3f13 23be 554d 3cbe 002b 47be
00000320: f182 99bb a57a bbbb 807a 99be 95d0 94bc
00000330: 7c0d e1bd 4f82 1dbe 7e05 27bd 31d9 e43d
00000340: 0be9 4e3e 7c14 babe 8171 b63d 141d 8cbb
00000350: a01f 26bd 2070 b73d cd0b 633c 1a3e cc3d
00000360: cfaa cabd bd10 56bd e96c 0a3e 79d7 9fbd
00000370: c9f1 49be 66b7 5dbe 52ec a5bd 2435 d63d
00000380: 478b 9d3d 9034 c73d 0bf4 4e3c 836d b73d
00000390: eb33 183c 4580 d9bc 537b 35bd 0583 5f3a
000003a0: 527b 41be 3b27 e53c 126a d9bd d89a ba3c
000003b0: 74a5 103d 858b d1bd e318 2f3e 3b94 3a3e
000003c0: 4e30 15bd 6fb7 053e c2f3 c5bd cf23 e53d
000003d0: 34d2 b4bc fb75 6b3e 25ff 8cbd 0216 853c
000003e0: 3f5a 093e 5df1 66bd 8ae0 51bd 03d3 8a3e
000003f0: 58d0 bc3e 4e64 8a3d e999 603e 451f 8e3c
0.018543055 -0.02704747 0.11485635 0.08846115 0.08090873 0.34582517 -0.2028001 0.25284362
0.030746857 -0.24912378 -0.06261443 0.0587362 0.24511431 -0.05220506 0.17357007 0.14882046
-0.11758791 0.2308057 -0.17154707 -0.11814454 -0.56004024 0.19078071 -0.5471245 -0.054281123
-0.047074717 -0.06385597 0.13889869 -0.09464219 -0.026460486 0.2716106 -0.2316151 0.054020654
0.020579409 0.05811404 0.0009274589 -0.0029319897 -0.2734131 -0.24918479 -0.27786964 -0.0155604575
0.019850949 -0.0003477739 -0.22975129 -0.012892384 -0.22039305 0.08170987 -0.016940642 -0.0077342913
-0.002063553 -0.28724465 0.0151668 0.011377518 -0.13837585 -0.2829976 -0.037657686 -0.013526693
-0.022738455 -0.007209794 -0.0027979221 0.011990853 0.002074256 0.0052273464 -0.018496934 -0.009866621
0.014449908 0.037107494 0.0011593665 -0.0057853954 -0.17857675 -0.017722107 0.13606746 0.19404776
-0.081166044 -0.071188614 0.5208835 -0.01384194 -0.070062116 0.17719613 -0.18242885 0.0039661396
-0.012327441 -0.016536139 -0.0014884799 -0.005290841 0.28321677 0.28641817 0.45369518 0.12106054
0.17979504 0.20417158 -0.14677599 -0.012974232 -0.4781712 -0.13532528 0.19089493 -0.01135238
0.005213081 -0.14787863 -0.01892334 0.01018322 0.0682292 -0.22595659 -0.07630174 -0.25036922
0.005863941 0.022788417 -0.067163266 0.019063098 -0.26002485 -0.0035165725 -0.020813935 0.004969477
0.1812349 -0.009524638 0.1558734 -0.118156314 -0.21655588 -0.23237568 -0.091533214 -0.26031697
-0.005431031 -0.00075700216 -0.2756573 -0.070686415 -0.0010009509 -0.13370031 -0.14739975 0.0503072
-0.017757606 0.19396177 -0.052362192 0.089160025 -0.07089979 0.3125293 0.26971623 0.095516846
0.17964755 0.20503207 -0.1374917 0.026777439 0.26796263 0.38065755 -0.07026109 0.001655878
-0.10468374 0.14447482 0.2552797 -0.011779862 -0.14119688 -0.23179871 0.023845583 0.0691859
0.10063677 -0.10647859 0.082996815 -0.04387515 0.49679866 -0.008621011 -0.05791646 0.22117178
0.0021955466 -0.29344535 -0.014045073 -0.019809537 0.50127 -0.024444599 0.49183264 -0.05381497
-0.16378807 -0.11917852 -0.24722397 -0.012408715 -0.012065674 -0.4766882 0.026596004 0.005483864
0.011739869 -0.37066153 0.001056575 0.0014802958 0.016554112 -0.25442892 -0.12218111 0.018377507
-0.10152838 0.18757612 -0.2488243 -0.0026073887 -0.16174397 -0.04233669 0.024142666 0.015289572
0.010062999 -0.05825485 0.15474306 0.01068235 -0.2787225 -0.1592531 -0.18388875 -0.19449997
-0.004684799 -0.0057214075 -0.29976273 -0.018165866 -0.109889 -0.1538174 -0.040776722 0.111742385
0.20206086 -0.36343753 0.08908368 -0.0042759273 -0.040557504 0.08956933 0.013857794 0.099727824
-0.098958604 -0.052262057 0.13518108 -0.0780477 -0.1972114 -0.21651992 -0.08101715 0.104593545
0.07692581 0.097268224 0.012631427 0.089564346 0.009289722 -0.026550421 -0.044307064 0.00085262983
-0.18894699 0.027972808 -0.106159344 0.022778913 0.03531404 -0.10231689 0.17099337 0.18220608
-0.03642302 0.13058256 -0.09665634 0.111884706 -0.022072889 0.22994225 -0.068846025 0.016245846
0.13413332 -0.056382526 -0.051239528 0.27114114 0.36877704 0.06757413 0.21933712 0.017348895

mlp.2.bias f4 [16]
00000000: dcd4 083e 9be3 913e fb3a 7bbe bbec 71be
00000010: 84ee f03c 6cb3 dcba 13e0 98be b18d 3e3e
00000020: bb9c 553e fd2c c73d 980e 19bf 45b1 bcbe
00000030: 9348 8e3d 0c66 2d3e 2f02 a5bd 6c21 623e
0.1336245 0.28493962 -0.24534218 -0.23625462 0.029410608 -0.001683814 -0.29858455 0.18608738
0.20860569 0.09725378 -0.59787893 -0.36853996 0.06947436 0.16933459 -0.08057057 0.22083062

mlp.4.weight f4 [16, 16]
00000000: 0374 49bc 1171 8fbd 9343 a93d 742e 993b
00000010: 03b8 cf3e 2ac2 babd d6c0 7e3c f9a8 4c3c
00000020: 79d4 973e 9b3b ba3d 611b c7be 4bee 463e
00000030: 6451 4b3e 50a9 2abe 1cf8 47be fdde 003e
00000040: 413a a93c 6175 40bc 5643 03bc c678 063c
00000050: ea2e 8abc 89c6 48bc 2ef1 3d3c cff3 c13c
00000060: 7d4f a9bb 2a6a a4bb 4962 563b 9b14 63bc
00000070: 8bdd fc3b f8c5 64bc bf50 253c 8aee 0dbc
00000080: 5006 9dbc 7fc6 2d3c e45d 2ebc a980 6d3c
00000090: fefb 1dbc 8225 55bc 9e1c 6ebc 08ac 87ba
000000a0: ab53 b8bc 6e17 8dbc eee2 f0bb 90d4 97bb
000000b0: 6470 bd3c 1e74 4e3c 4db2 ccbb a183 a3bb
000000c0: b33d 5f3e c622 f23e 9d10 e63b 74d2 5c3c
000000d0: 15a0 863e e1dd a5be b267 66bd 36ff 40be
000000e0: 3d43 babc 4b11 d93d 0c29 0c3e 3a66 49be
000000f0: 91c3 403d aa24 143e 3b4e a9bd 678c ac3c
00000100: f5e7 383e 135a 59be 8541 343d fc8c 77be
00000110: 3aca 1abe fbf5 2fbd ad35 6bbe 0c1c 1c3c
00000120: d3d0 893e 24fc 093e 01ff 643d 704f 363d
00000130: 0214 41bd 50e4 513e 97dc 6b3e cd6e 773e
00000140: cf02 113e 8efb 193e 61b6 44be 84d4 56ba
00000150: c7a4 bbbd 7305 263e b35c 66bd 16ba 093e
00000160: c2b0 8e3e 55f8 303d b007 dbbd 4f1c c33d
00000170: 5302 993c 8140 8cbb 98ba 50be 1ee6 893e
00000180: 1b31 1f3e 822e 9fbd 0611 79bc cc29 173c
00000190: 2b05 acb9 e95a ca3d d1e0 333b 96d9 803e
000001a0: da34 41be 7dd2 2fbd 616d 76be 5f5f 453e
000001b0: c3a3 eb3c e531 babb 6606 603d 5320 6cbe
000001c0: a44d 8e3d 0f3f 2c3e eacc 27bc 15f4 cdbb
000001d0: 91eb cabd bb21 f5be e8a1 5cbe c385 7f3b
000001e0: a6d8 863e d547 433e 68e7 2dbd 576e 1dbd
000001f0: 5e6b a5bd c5ce 3b3c c7fc 293e 3e26 093e
00000200: 1787 6d3d 9807 b03d c187 543c 4fcb 95bc
00000210: 0c27 1439 acc3 6bbb e0c6 babd 44fb db3b
00000220: 4f83 41be ef55 e2bd 4de3 ae3d 3974 283e
00000230: e847 82bc 712e 18be 7fe9 ab3c 8e38 1b3e
00000240: 45c0 75be b182 6ebe 1deb 4e3d 1c75 1ebe
00000250: 828a b43e fecc eb3d 49a3 e3bc 9d57 e03d
00000260: 4e48 313e 7d7a 263e e179 fbbe 32f3 443e
00000270: 13fb 703e ffe5 033d 8894 06bd 216c 62bc
00000280: c8a7 ebbb a34d 8abc 3950 4c3c 942a c13c
00000290: 3528 fbbb e4f8 c6bb 5ff1 993c ad94 253b
000002a0: 8385 b4bc bd64 a1ba 5855 fb3b d095 6ebc
000002b0: d23a c8bb 0baa c73b 7a0a a2bb abcc 533b
000002c0: 7543 843c f6fc 89bc f00c 2e3c 5c37 b03b
000002d0: e7da b8bb a74b 9cbc af6b 683c 49d9 2cbc
000002e0: daf4 96bc 976b b9bb 6aaa fb3b 0233 7fbc
000002f0: e89e 75bc 404a 313c 0f84 8d3c 6d58 10bc
00000300: cbf1 0ebe 1c79 67be 3555 9d3b 51eb 1a3c
00000310: eeeb 0c3d ef5d 95be 9b37 5a3c 4787 a03c
00000320: c32b 3f3d 740a 23bd e79b dd3d 2f79 09be
00000330: 1c3d 083b 92fb e9bd df63 d6bd d62a 7d3d
00000340: c7c2 2cbe 07ca 81bb 69e5 f1bb 0e62 2ebc
00000350: d173 653c 27d0 6c3c 86be 80bc 9aa6 9fbc
00000360: 0e82 4dbc 880a f13d fce1 b4bc eebc 893c
00000370: ad21 083c d83f 68be 51b2 923d 54e5 61bc
00000380: 6745 f7bd df74 c8bc 221d 95bd a073 96bc
00000390: efda d93e 8df1 cfbd 5a2d c23c 44fc af3d
000003a0: 3200 80be c1a1 3a3e 9490 903e b123 9d3d
000003b0: 81b4 2c3e 0933 c13d a1af 1cbe 1034 55be
000003c0: fcf3 71be c5a5 62bc c983 fd3b d492 9f3b
000003d0: c618 3fbe a4f4 53bc 244a 883c 621f c3bc
000003e0: 9a4b 5abe 34bd 93be 3b28 463b 5187 833b
000003f0: 69df 693c badd d9bd 7905 033e 4199 ccbe
-0.012295726 -0.070039876 0.08264842 0.004674727 0.40570077 -0.09119065 0.015548905 0.012491458
0.2965429 0.090934 -0.38888076 0.19426839 0.19855267 -0.1666615 -0.1952824 0.12585063
0.02065766 -0.011746735 -0.00801166 0.008207506 -0.016868073 -0.012254366 0.011593146 0.023675827
-0.0051669464 -0.0050175386 0.003271239 -0.013859893 0.0077168397 -0.013963215 0.010090052 -0.008662829
-0.01916805 0.010606407 -0.010642502 0.014496007 -0.009642599 -0.013009431 -0.01453319 -0.0010350952
-0.022500833 -0.017223086 -0.007351271 -0.0046334937 0.023124881 0.012600927 -0.006246841 -0.0049900566
0.2180088 0.47292155 0.0070210234 0.01347791 0.26294008 -0.32395843 -0.056251235 -0.18847355
-0.02273714 0.105990015 0.13687533 -0.19667903 0.047061507 0.14467111 -0.082668744 0.021063043
0.18057235 -0.21225767 0.044007797 -0.24174875 -0.15116206 -0.042959195 -0.22969694 0.009528171
0.26917133 0.1347509 0.055907253 0.04450935 -0.04713822 0.2049725 0.23033367 0.24163361
0.14161228 0.15037367 -0.19210197 -0.00081951194 -0.09162288 0.16213016 -0.05624075 0.13449892
0.2786923 0.043205578 -0.10694826 0.09526884 0.018677866 -0.0042801504 -0.2038368 0.26933378
0.15546076 -0.077725425 -0.015201813 0.009226274 -0.00032810247 0.09880621 0.0027447233 0.25166005
-0.18867818 -0.042925347 -0.24065162 0.19274662 0.028764611 -0.0056822174 0.054693602 -0.23059206
0.069484025 0.1682093 -0.010241726 -0.0062852004 -0.09908212 -0.47877297 -0.21546137 0.003898964
0.26337165 0.1907037 -0.042457014 -0.038435306 -0.08077119 0.011462872 0.16600333 0.13393494
0.05799016 0.085951984 0.012971819 -0.018285422 0.00014128926 -0.0035974784 -0.09119964 0.006713303
-0.18897747 -0.11051547 0.08539448 0.16450585 -0.015903428 -0.14861466 0.020985363 0.15158293
-0.23999126 -0.23292042 0.05051719 -0.15474361 0.35261923 0.115137085 -0.027787821 0.10954211
0.17312738 0.16257663 -0.49116424 0.19233397 0.23533277 0.032201763 -0.032856494 -0.013819725
-0.007191632 -0.016882723 0.012470298 0.023579873 -0.007664705 -0.0060721505 0.018791853 0.002526562
-0.02203632 -0.0012313348 0.007670086 -0.014562085 -0.0061105276 0.0060932687 -0.0049450966 0.0032318037
0.016145447 -0.016844254 0.010623202 0.005377693 -0.0056413296 -0.019079043 0.01418583 -0.010549852
-0.018427301 -0.0056585777 0.007680227 -0.015576126 -0.0149914995 0.010820925 0.017274885 -0.008810145
-0.13959424 -0.22604793 0.0048014172 0.009455518 0.034404688 -0.29173228 0.013318921 0.019595755
0.046672594 -0.03980489 0.10820752 -0.13425134 0.0020788377 -0.11424936 -0.10468268 0.06180843
-0.16871177 -0.003960851 -0.007382084 -0.010643495 0.014004664 0.014453924 -0.015715849 -0.019488622
-0.0125432145 0.11769587 -0.022080414 0.016813722 0.00830881 -0.22680604 0.071629174 -0.013787586
-0.12073784 -0.024469791 -0.07280947 -0.018365681 0.42549846 -0.10153494 0.023703266 0.08593038
-0.2500015 0.18225767 0.28235304 0.07672823 0.16865732 0.09433562 -0.15301372 -0.20820642
-0.23628229 -0.013833468 0.0077366573 0.004869798 -0.18661794 -0.012936745 0.016636916 -0.023818675
-0.21317902 -0.28855288 0.0030236382 0.0040139337 0.014274457 -0.10637994 0.12795056 -0.39960673

mlp.4.bias f4 [16]
00000000: b9b0 d3be e041 c2bb 1591 fcbb ad6b 6a3e
00000010: 7fbd 883e fcc5 7c3e e0e9 f1bc fa1f 9d3d
00000020: 6515 4dbe 140b 0b3e 79d8 39bc f020 0ebc
00000030: 1d24 16be 56db 94be a4db d53e e400 d4be
-0.41345766 -0.005928263 -0.007707725 0.22892638 0.26707074 0.246849 -0.029530466 0.07672115
-0.20027693 0.13578445 -0.011343115 -0.008674845 -0.14662214 -0.2907359 0.41769135 -0.4140693

mlp.6.weight f4 [3, 16]
00000000: a53c ddbe 48e4 1e3c e813 013c 7898 09bd
00000010: 41ad 223e e6cf 4e3e 7158 983c e8a5 b7bd
00000020: afd1 143e 61df 93be 1e90 943c 4f52 43bc
00000030: 2f8c fdbd 1bb7 9bbe b642 763c f44d 373e
00000040: 7d5e e93d 9526 6f3b ee54 6b3c f6da dd3d
00000050: ea71 c83d 5920 933e d915 1fba f843 2d3e
00000060: ee34 683e 9e06 b3bd 46cc 1bbc f6d8 773b
00000070: 07fe 9dbc cdb2 1f3d bfc4 d3be fe70 67be
00000080: ed67 a9b9 a49a 063a 75af 0d3c 0d5b cbbe
00000090: 781b 3e3e e40b 833e 7b98 953c becb 0e3c
000000a0: 0cef 43be 3b17 973d 0fad b63c c12c bcbc
000000b0: e23f e4bc 85d3 5cbe 50e9 cabd 17a7 953e
-0.4321033 0.009697981 0.007878281 -0.03359267 0.15886404 0.20196494 0.01859686 -0.08967191
0.14533113 -0.28881362 0.018135127 -0.011921479 -0.123802535 -0.30413136 0.015030554 0.1790083
0.11394975 0.0036491503 0.0143635105 0.10832779 0.097873524 0.28735617 -0.0006068624 0.1692046
0.22676441 -0.087414965 -0.009509152 0.0037818528 -0.019286169 0.038988877 -0.41361043 -0.22601697
-0.00032311623 0.00051347376 0.008647789 -0.39717904 0.18565166 0.2559501 0.018261185 0.008715568
-0.19134158 0.07377478 0.022299318 -0.02297056 -0.027862493 -0.21565063 -0.09907782 0.29229042

mlp.6.bias f4 [3]
00000000: 59e1 98bd 7ebf 073e 0a13 13be
-0.07464857 0.13256642 -0.14362732
