EUSIPCO/Nested Array noisy position/saved_models/rnn_15dB_nested_4.pth (torch, 87890 bytes, 14 tensors)

bn.weight f4 [16]
0	0x3f5e95ff	0.86947626
1	0x3f7582b9	0.9590259
2	0x3f8f2aec	1.1184974
3	0x3f6607e0	0.89855766
4	0x3f5a0713	0.85167044
5	0x3eea9abe	0.45821184
6	0x3e91cebc	0.28478038
7	0x3e475e38	0.19469535
8	0x3f4ed6c1	0.8079644
9	0x3f8c9188	1.0981913
10	0x3f8ee755	1.1164347
11	0x3f6d8d10	0.9279337
12	0x3f3b896b	0.7325656
13	0x3eaf9922	0.3429652
14	0x3e51a78f	0.20474075
15	0x3e3e93ef	0.1861112

bn.bias f4 [16]
0	0x3c9da005	0.019241342
1	0xbdf964cc	-0.121774286
2	0x3e0e4969	0.13895191
3	0xbcf85c98	-0.03031759
4	0x3be4c259	0.006981176
5	0xbce11f6b	-0.027480802
6	0x3c9ef67f	0.019404648
7	0xbac371e6	-0.0014911264
8	0xbdc8fbbc	-0.098136395
9	0xbd8afe41	-0.06786776
10	0x3c816c4f	0.015798716
11	0x3d2bbf2e	0.04193037
12	0x3d8e21a7	0.069400124
13	0x3ccfa226	0.025345873
14	0xbbf1953a	-0.0073725255
15	0xbc241d9d	-0.010016826

bn.running_mean f4 [16]
0	0xbb1aafe4	-0.0023603374
1	0x393e94c0	0.00018175226
2	0xba6c8dc9	-0.0009023813
3	0x3a989caa	0.0011643369
4	0xbadb84d6	-0.0016747962
5	0x3a524b53	0.00080220884
6	0xb9ef26f1	-0.00045614646
7	0xb9c52009	-0.00037598636
8	0xba628bb1	-0.00086420315
9	0x390fbe67	0.00013708473
10	0x38dfaf1b	0.000106660846
11	0x3ae2173d	0.0017249357
12	0xb9aed5f4	-0.00033347274
13	0xb919a5b3	-0.00014652945
14	0xbae0796e	-0.0017126033
15	0xbaac761c	-0.0013157758

bn.running_var f4 [16]
0	0x3fc2410b	1.51761
1	0x3fc25869	1.5183231
2	0x3fc203c4	1.5157399
3	0x3fc200b8	1.5156469
4	0x3fc21aab	1.5164388
5	0x3fc1f72f	1.515356
6	0x3fc1f97f	1.5154265
7	0x3fc247e0	1.5178185
8	0x3fc1cac0	1.5139999
9	0x3fc23085	1.5171057
10	0x3fc24fea	1.5180638
11	0x3fc24620	1.517765
12	0x3fc29157	1.5200604
13	0x3fc2bd12	1.521395
14	0x3fc250d1	1.5180913
15	0x3fc218df	1.516384

rnn.weight_ih_l0 f4 [48, 16]
0	0x3ea5dd9e	0.32395643
1	0xbf149b6d	-0.5804966
2	0x3e7eeada	0.24894276
3	0x3f1db043	0.6159708
4	0x3e99a4ce	0.30008548
5	0x3f200957	0.6251425
6	0xbea5adb9	-0.32359102
7	0x3f06a162	0.5259
8	0xbf50ece8	-0.8161149
9	0x3f2a0647	0.6641583
10	0x3f412dd9	0.7546058
11	0xbd3a905c	-0.045547828
12	0xbed5cfe2	-0.41760164
13	0x3cde72b1	0.027154298
14	0xbe85d519	-0.26139143
15	0x3e54b386	0.20771608
16	0x3e491948	0.1963855
17	0x3d1f13a4	0.03883709
18	0xbef5d962	-0.48017412
19	0xbe9fe46a	-0.31228954
20	0x3cef1d36	0.029188734
21	0xbeb288de	-0.34870046
22	0x3e8236fd	0.25432578
23	0xbec2a998	-0.38020015
24	0x3f093b50	0.5360613
25	0xbd0fadbf	-0.035077807
26	0xbdf8f775	-0.12156574
27	0xbf48ba74	-0.78409505
28	0x3deb04e8	0.11475545
29	0x3e5ac804	0.21365362
30	0xbf44bf29	-0.7685419
31	0x3f4938d0	0.78602314
32	0xbbea4852	-0.0071497345
33	0xbea2e2cb	-0.31813654
34	0xbf011ccb	-0.5043456
35	0xbf54d72d	-0.8314083
36	0xbbb9bc32	-0.0056681866
37	0xbe072c13	-0.13200407
38	0x3de4268a	0.11140163
39	0xbe643283	-0.22284894
40	0xbea90c3b	-0.33017144
41	0x3f01474e	0.5049943
42	0x3f0b5cda	0.54438555
43	0x3e9507cf	0.2910752
44	0x3e39fadc	0.18162102
45	0x3ecdc36d	0.4018816
46	0x3e709e35	0.23497851
47	0x3d9e04c8	0.07715756
48	0x3f4f4b08	0.80973864
49	0x3f3d2567	0.73885196
50	0x3f512ca1	0.81708723
51	0x3f68ee6b	0.90988797
52	0x3df1b8fa	0.118028596
53	0xbd0ec762	-0.034858115
54	0xbe8ddc68	-0.2770722
55	0xbd4f87df	-0.050666686
56	0xbec484bd	-0.3838252
57	0xbddbb762	-0.10728337
58	0xbf8159bc	-1.010551
59	0xbf89d60c	-1.0768447
60	0xbf3d2373	-0.73882216
61	0xbdbf224a	-0.09332712
62	0x3e7151a1	0.23566295
63	0x3f1f3929	0.62196594
64	0xbf179e68	-0.59226084
65	0xbf10dc3f	-0.5658607
66	0x3ec43fbd	0.38329878
67	0xbef90204	-0.4863435
68	0xbe8be7e5	-0.2732536
69	0x3e860189	0.26173046
70	0x3eb3e178	0.35132957
71	0xbdec1a55	-0.1152846
72	0xbe7189ca	-0.23587719
73	0xbf24d804	-0.64392114
74	0x3f279ea4	0.6547644
75	0x3eb97507	0.36222097
76	0xbfdd7493	-1.7301201
77	0xbeb800d5	-0.35938135
78	0xbe8d33b3	-0.27578506
79	0xbcd67b04	-0.026181705
80	0x3ee7e7cb	0.45294032
81	0xbec984b5	-0.3935906
82	0x3f491d03	0.78559893
83	0x3f2c5c7a	0.6732861
84	0xbf2f238d	-0.6841362
85	0x3db7a8cd	0.08967743
86	0xbe6a7343	-0.22895531
87	0x3e2128f3	0.15738277
88	0x3cb5d155	0.022194544
89	0x3e78096f	0.24222349
90	0x3f54d2c4	0.831341
91	0xbe8425d2	-0.25810105
92	0xbe391015	-0.18072541
93	0xbe12425f	-0.14283131
94	0x3e6b9ddb	0.23009436
95	0xbe8228c2	-0.2542172
96	0xbe6ef251	-0.23334624
97	0x3f0b711e	0.5446948
98	0xbe91a338	-0.2844484
99	0x3f135c4c	0.5756271
100	0xbde400a0	-0.11132932
101	0xbf0c343f	-0.5476722
102	0x3cca8f6a	0.024726588
103	0x3dbb6fbf	0.09152173
104	0xbe54736a	-0.20747152
105	0xbf115b99	-0.5678039
106	0xbd4f1008	-0.050552398
107	0xbe7ff7ce	-0.24996874
108	0x3e69a8b5	0.22818263
109	0x3e0ec181	0.13941003
110	0xbeac58ef	-0.336616
111	0x3e5af1d8	0.21381319
112	0xbe489581	-0.19588281
113	0x3e335f8e	0.1751692
114	0x3ed993b8	0.42495513
115	0xbf22eacb	-0.63639516
116	0xbe99ffc1	-0.30077937
117	0x3ee72988	0.45148873
118	0x3ede9889	0.4347575
119	0x3f214670	0.62998104
120	0x3da448bc	0.080216855
121	0x3f80ab7a	1.005233
122	0xbf2a67ae	-0.6656445
123	0x3f2fccac	0.6867168
124	0xbda32e67	-0.07967835
125	0xbeec2e96	-0.46129292
126	0x3eca38ac	0.39496362
127	0xbe6d82f4	-0.23194486
128	0xbf31e2a1	-0.69486433
129	0x3d3fc3bd	0.04681753
130	0xbfa03976	-1.2517536
131	0xbf33256f	-0.69978994
132	0xbe1f37b6	-0.15548596
133	0xbee12ff0	-0.43981886
134	0x3f251ba2	0.6449529
135	0xbf0525a5	-0.52010566
136	0x3db939a6	0.09044199
137	0xbf3170c7	-0.6931271
138	0xbead2840	-0.3381977
139	0x3c30638e	0.010765923
140	0xbf23b5b8	-0.63949156
141	0x3e2467a4	0.16055161
142	0xbe6729a7	-0.22574483
143	0x3e8bf4ce	0.2733521
144	0xbed1290c	-0.4085163
145	0xbe64fde6	-0.2236248
146	0xbf436e16	-0.7633985
147	0x3e9828eb	0.29718718
148	0x3e72c772	0.23708895
149	0xbd7916f6	-0.060812913
150	0x3d783427	0.06059661
151	0x3f01dde0	0.5072918
152	0xbee676ea	-0.450126
153	0xbe3239fc	-0.17404932
154	0x3eba256a	0.3635667
155	0x3f2da0eb	0.67823666
156	0xbf678575	-0.90438014
157	0x3b8fe00d	0.0043907226
158	0x3ccb596c	0.024822913
159	0xbe937869	-0.28802803
160	0x3f299975	0.6624978
161	0x3f37ffbe	0.71874607
162	0xbcf9855f	-0.030459104
163	0x3e9e66f6	0.30937928
164	0xbf571b5c	-0.8402612
165	0xbf76c8d6	-0.964002
166	0x3e6e2bfe	0.23258969
167	0x3e0f5443	0.13996987
168	0x3f80b746	1.0055931
169	0x3ed174ba	0.40909368
170	0xbe51bc29	-0.20481934
171	0x3eb89b2e	0.36055893
172	0xbe87d410	-0.26528978
173	0x3dd88e45	0.10574011
174	0xbeb76acc	-0.35823667
175	0xbdee441c	-0.116340846
176	0xbec155e7	-0.3776085
177	0x3f007b86	0.5018848
178	0xbfa13439	-1.2594062
179	0x3e4fffd1	0.2031243
180	0x3cd222a5	0.025651285
181	0x3e2ee647	0.17080031
182	0x3f02635b	0.50932854
183	0xbea633c5	-0.32461372
184	0xbd0717c7	-0.03298166
185	0xbf1fc1d1	-0.62405115
186	0xbede9376	-0.4347188
187	0x3d657cef	0.05602735
188	0xbf6d922b	-0.9280116
189	0x3eb7a272	0.35866123
190	0xbe79b955	-0.24387105
191	0x3ee15584	0.44010556
192	0x3f26499d	0.64956075
193	0xbc4f5ea8	-0.012656845
194	0xbe8e72a2	-0.27821833
195	0xbf03471a	-0.5128037
196	0xbf46b316	-0.77617013
197	0x3c69c2c9	0.014267632
198	0x3f78f013	0.97241324
199	0x3e56969b	0.20955889
200	0xbdf86ed1	-0.121305116
201	0xbe244ddd	-0.16045327
202	0xbec67232	-0.38759
203	0x3e46af8d	0.19402905
204	0x3f0c517e	0.5481185
205	0xbf26b184	-0.6511462
206	0x3ef505ae	0.47855896
207	0xbeaa3009	-0.33239773
208	0xbf433f1b	-0.76268166
209	0xbdb63532	-0.08896865
210	0x3da604cc	0.08106384
211	0xbedb2e2d	-0.42808667
212	0xbda35271	-0.07974709
213	0x3e264457	0.16237007
214	0xbe8fbaa2	-0.28072077
215	0x3da360eb	0.0797747
216	0x3d9ddeb8	0.07708496
217	0xbe7cc310	-0.24683785
218	0x3e857df6	0.26072663
219	0x3e1f0670	0.155298
220	0xbf4488c9	-0.7677122
221	0xbf8fa5cf	-1.1222476
222	0x3e9ed52b	0.3102201
223	0xbe96bf1d	-0.29442683
224	0x3c73eefb	0.01488852
225	0x3facba6d	1.3494393
226	0x3eb38a5b	0.35066494
227	0x3ef15a5f	0.4713926
228	0xbf0cb7c0	-0.5496788
229	0x3e4ed80e	0.20199606
230	0xbdeb16c1	-0.11478949
231	0x3de49165	0.11160544
232	0xbfc46d63	-1.5345882
233	0xbf5b2be3	-0.8561384
234	0x3f2942aa	0.66117346
235	0x3f438b9e	0.76384914
236	0x3e2afc83	0.16697888
237	0xbea6f5d1	-0.32609418
238	0xbeb392f9	-0.3507307
239	0x3de1db90	0.11028206
240	0xbf041b68	-0.5160432
241	0x3e8f250f	0.2795796
242	0x3f29ebed	0.6637562
243	0xbeb15038	-0.34631515
244	0x3ed3b353	0.4134775
245	0xbf7c9409	-0.98663384
246	0x3f6ebadd	0.9325388
247	0xbeb77b59	-0.35836294
248	0x3fa522ee	1.2901285
249	0xbdfd5766	-0.123701856
250	0xbde10737	-0.10987704
251	0x3e451c49	0.19249071
252	0x3d494fdf	0.049148437
253	0xbf1755d4	-0.5911534
254	0x3e5308cb	0.20608823
255	0xbf6dc93d	-0.9288519

rnn.weight_hh_l0 f4 [48, 16]
0	0xbf393c74	-0.7235787
1	0x3e3724ba	0.17885104
2	0xbe95a849	-0.29229954
3	0x3c822372	0.015886042
4	0x3de00b31	0.109396346
5	0xbd363328	-0.04448238
6	0x3d9312b1	0.071812995
7	0x3d0be49b	0.034153562
8	0x3e9ed3a4	0.31020844
9	0x3e071a65	0.13193662
10	0xbe61fc89	-0.22068991
11	0x3dc810d3	0.09768834
12	0x3d9c223e	0.07623719
13	0xbe63e425	-0.22254999
14	0xbd8ccc22	-0.06874873
15	0x3f1102b0	0.56644726
16	0x3da34a44	0.079731494
17	0x3e9dfeff	0.3085861
18	0xbe0b8cc6	-0.1362792
19	0x3ef61638	0.48063827
20	0xbd73d949	-0.05953339
21	0xbe202d3b	-0.15642254
22	0xbe90232c	-0.28151834
23	0xbe773a76	-0.24143395
24	0x3ec0fb65	0.376918
25	0x3d28d476	0.041218244
26	0xbf01997b	-0.5062482
27	0xbef4a14a	-0.47779304
28	0x3f36bd52	0.7138263
29	0x3e738ea0	0.23784876
30	0xbddd9e94	-0.10821262
31	0x3ebce2a0	0.3689165
32	0xbe8eab7b	-0.27865204
33	0x3edf19af	0.43574283
34	0x3cc9a981	0.024616959
35	0xbf04a9b6	-0.5182146
36	0xbed0390c	-0.40668523
37	0x3ef4c6d6	0.4780795
38	0xbed0339a	-0.4066437
39	0xbeb39931	-0.35077813
40	0xbd9e2e41	-0.07723666
41	0x3e39ddbe	0.18150994
42	0xbe6e0c93	-0.23246984
43	0xbc37b84b	-0.011213372
44	0xbe0461b6	-0.12927899
45	0xbd77fcf0	-0.060543954
46	0xbefeb6a1	-0.4974871
47	0x3dd22b1d	0.102621295
48	0xbf08d0f3	-0.5344383
49	0xbe7f8a5f	-0.24955128
50	0x3cfee9c8	0.031117335
51	0x3f4e1be8	0.8051133
52	0x3f0341b8	0.51272154
53	0x3cfef052	0.031120453
54	0xbd130865	-0.035896678
55	0xbd5deb08	-0.05417922
56	0xbd0adbdf	-0.03390109
57	0x3e82d61b	0.25553975
58	0xbe594a14	-0.21219665
59	0xbeba9b7a	-0.36446744
60	0xbe1e5da2	-0.15465406
61	0xbc09e88c	-0.00841726
62	0x3e085c8b	0.13316552
63	0x3ed6ce09	0.41954067
64	0xbef02c02	-0.46908575
65	0xbf1e254a	-0.6177565
66	0x3edccaed	0.4312357
67	0x3ebe960c	0.37223852
68	0x3e3c9ec7	0.18419944
69	0xbe6a3c31	-0.22874524
70	0xbdc2700d	-0.09494028
71	0xbed79992	-0.42109352
72	0x3c3e8cc9	0.0116302455
73	0xbe87a305	-0.26491562
74	0xbe9d4d15	-0.3072287
75	0xbe40f4ca	-0.1884338
76	0x3e26d053	0.16290407
77	0x3ed6e5ea	0.41972286
78	0x3e8ca198	0.27467036
79	0x3e08347b	0.1330127
80	0xbea980e6	-0.33106154
81	0x3ec75dac	0.38938653
82	0x3b2a3963	0.0025974147
83	0xbe56feb7	-0.20995604
84	0x3e92bf3d	0.28661528
85	0x3ea48d4b	0.32139048
86	0x3e2cac39	0.16862573
87	0xbca2b5a0	-0.019861996
88	0x3edd3436	0.43203896
89	0xbf4aabe7	-0.7916855
90	0x3d8a8e01	0.06765366
91	0xbe9f193f	-0.3107395
92	0xbd28a99a	-0.04117737
93	0xbf2636d1	-0.64927393
94	0x3eb56466	0.3542816
95	0x3e78c0eb	0.24292342
96	0xbc746d02	-0.014918568
97	0x3dfe9eac	0.12432608
98	0x3e89fcb7	0.2695062
99	0x3e92bdbe	0.28660387
100	0x3d4e0028	0.050293118
101	0xbeb71044	-0.35754597
102	0xbf0d5f9b	-0.5522401
103	0xbcc0d796	-0.0235403
104	0x3dd5a624	0.104320794
105	0x3e90e09c	0.28296363
106	0xbeeb2e54	-0.45933783
107	0xbccedce6	-0.025251817
108	0x3e670aaf	0.22562669
109	0x3e6aeffa	0.22943106
110	0xbd44b025	-0.048019547
111	0x3eddb1ec	0.43299806
112	0xbe3f14f9	-0.18660344
113	0xbdacb7eb	-0.08433517
114	0x3ee10774	0.43951
115	0xbe832e19	-0.25621107
116	0xbde6ab1c	-0.11263105
117	0x3eb9bc18	0.36276317
118	0xbe5fa8d6	-0.2184175
119	0x3ec8ee7e	0.39244455
120	0x3e23e08c	0.16003627
121	0x3e420de5	0.18950613
122	0xbe8b0455	-0.27151743
123	0xbec14340	-0.3774662
124	0xbe89b3ea	-0.26895076
125	0x3e5d973d	0.21639724
126	0x3eb716e7	0.3575966
127	0xbdb6dc3e	-0.089287266
128	0xbf083db3	-0.53219146
129	0xbe3a9495	-0.18220742
130	0xbd395c56	-0.045254074
131	0xbde28351	-0.11060203
132	0xbf27a69c	-0.654886
133	0x3ea88f2f	0.3292174
134	0xbdeda015	-0.11602799
135	0xbd5763c7	-0.05258539
136	0x3df9eb25	0.122030534
137	0x3ec6d8e0	0.38837337
138	0xbf0721d2	-0.5278598
139	0xbf1423d7	-0.5786719
140	0x3e070bc5	0.13188083
141	0x3e1985e9	0.14992489
142	0xbdab0ea5	-0.083524026
143	0x3f20c89d	0.6280611
144	0xbf28be87	-0.6591572
145	0x3e3f68e9	0.18692364
146	0xbe320a91	-0.17386843
147	0x3f0bd6af	0.54624456
148	0x3df3bbbb	0.11901041
149	0xbe1a7963	-0.15085368
150	0x3cd91d15	0.026503125
151	0x3e45dcd5	0.19322522
152	0x3f02848e	0.5098351
153	0xbd97873f	-0.07398843
154	0x3d1b6991	0.037942473
155	0xbe180ff9	-0.14849843
156	0x3df75928	0.12077552
157	0x3ea675f9	0.3251188
158	0x3eb37a9d	0.35054484
159	0x3f1727e3	0.5904524
160	0xbe82038d	-0.25393334
161	0x3edf5b05	0.4362413
162	0xbd8d894a	-0.069109514
163	0xbebfc9e2	-0.37458712
164	0xbf387a1f	-0.7206134
165	0x3d90361a	0.07041569
166	0xbec6296f	-0.38703486
167	0xbe812a30	-0.252275
168	0x3e00d75e	0.12582156
169	0x3e90e1f9	0.28297403
170	0xbed2031a	-0.4101799
171	0x3e345c64	0.17613369
172	0x3e772e65	0.24138792
173	0xbe16441a	-0.14674416
174	0xbed9a4fb	-0.42508683
175	0x3e40c79e	0.18826148
176	0xbee156f9	-0.44011667
177	0xbe8342b6	-0.25636834
178	0xbf48b924	-0.784075
179	0x3d7a6a48	0.061136514
180	0xbeb31dcd	-0.34983674
181	0x3d4ca2a5	0.049959797
182	0xbe03cc01	-0.1287079
183	0x3ee456ae	0.4459738
184	0xbe9f5582	-0.31119925
185	0x3d509715	0.050925333
186	0xbf5c8d0f	-0.8615274
187	0xbee1a637	-0.44072124
188	0x3fbf651e	1.4952734
189	0x3ea7e986	0.32795352
190	0xbed6be97	-0.41942284
191	0xbce77645	-0.028254637
192	0x3e5d433f	0.21607684
193	0x3fb4cf65	1.4125792
194	0xbeb95daf	-0.36204287
195	0xbe492fd4	-0.19647151
196	0xbe345822	-0.17611745
197	0xbcd42bf2	-0.025899861
198	0xbe7de9b9	-0.2479619
199	0xbf49fc20	-0.7890034
200	0xbeb2e6f9	-0.34941843
201	0x3e9339ea	0.28755122
202	0xbf261321	-0.6487294
203	0xbeddd654	-0.43327582
204	0x3ec52158	0.38502002
205	0x3f51b3ff	0.8191528
206	0x3f29f578	0.6639018
207	0x3e904c20	0.2818308
208	0x3e2fb29d	0.1715798
209	0x3fbdc65d	1.4826161
210	0xbeec7384	-0.4618188
211	0xbebd8616	-0.37016362
212	0x3f3d6071	0.7397528
213	0x3da17146	0.07882933
214	0x3e443e64	0.19164425
215	0x3d0db514	0.034596518
216	0xbe05fbd0	-0.1308434
217	0xbf335fb5	-0.7006791
218	0x3ed4fbba	0.41598302
219	0x3d9640cf	0.0733658
220	0xbfcd794a	-1.605264
221	0xbed34e4e	-0.4127068
222	0x3f9218d0	1.1413822
223	0xbeda25ff	-0.42607114
224	0x3e91c17f	0.28467938
225	0x3f07d4c1	0.5305901
226	0x3f379fe1	0.7172833
227	0x3eabf348	0.33584046
228	0xbf7ea226	-0.9946617
229	0xbf0d151f	-0.55110353
230	0xbe4abf9f	-0.1979966
231	0xbef0f3e4	-0.47061074
232	0xbe3f2a53	-0.18668489
233	0xbe83c476	-0.25735825
234	0x3f02f7e7	0.5115952
235	0x3e901411	0.2814031
236	0xbcdec906	-0.027195465
237	0x3f0adc16	0.54242074
238	0x3f7e41e3	0.99319285
239	0x3d295708	0.041342765
240	0x3efdecba	0.4959467
241	0x3ef1715b	0.47156796
242	0x3e1f3b44	0.15549952
243	0xba4aac6d	-0.0007731382
244	0xbeaed688	-0.3414805
245	0x3e6e8db2	0.2329624
246	0xbf4e962e	-0.80697906
247	0xbeca977d	-0.395687
248	0xbd59b263	-0.05314864
249	0x3f2eaa28	0.6822839
250	0x3e2214c5	0.15828235
251	0x3e88294e	0.26594013
252	0x3ccdd146	0.025124203
253	0xbd50c0e5	-0.05096521
254	0x3e622542	0.22084525
255	0xbd427174	-0.04747148

rnn.bias_ih_l0 f4 [48]
0	0x3cc09ecb	0.023513218
1	0x3dbfc300	0.09363365
2	0x3edc3229	0.4300702
3	0xbe435a4f	-0.19077419
4	0x3e1d3e02	0.15355685
5	0xbdd77765	-0.105208196
6	0xbea6337a	-0.32461149
7	0xbc5a93c7	-0.013340897
8	0xbe907428	-0.2821362
9	0x3e006af6	0.12540802
10	0xbe14e8c6	-0.14541921
11	0xbdb680c0	-0.08911276
12	0xbe4af2d1	-0.1981919
13	0xbda874c7	-0.082253985
14	0xbe28f597	-0.16499935
15	0xbedd8612	-0.4326635
16	0x3fbd17a6	1.4772842
17	0x3fc9b5d0	1.575861
18	0x3f9c726e	1.2222421
19	0x3fbe8817	1.4885281
20	0x3fb7eb13	1.4368614
21	0x3fbdb7d2	1.4821723
22	0x3fb373ed	1.4019753
23	0x3fce1951	1.6101476
24	0x3fd92cdd	1.6966816
25	0x3fb84efa	1.4399102
26	0x3fe0e0a7	1.7568558
27	0x3fe14de0	1.760189
28	0x3f8cc1d0	1.0996647
29	0x3fbcd921	1.4753762
30	0x3fc82a08	1.5637827
31	0x3fb10e4d	1.3832489
32	0xbdeda82f	-0.11604344
33	0xbe80df33	-0.25170287
34	0x3e4c9b09	0.19981016
35	0xbe533da0	-0.20628977
36	0xbe414e27	-0.18877469
37	0x3e7dbf25	0.24779947
38	0x3e447377	0.19184671
39	0x3d6b6818	0.05747232
40	0x3e42cdc4	0.19023806
41	0x3e243a09	0.16037764
42	0x3e0113e5	0.12605245
43	0xbe9b3b6b	-0.3031877
44	0xbd54b4ad	-0.05193012
45	0x3deeb7b3	0.116561316
46	0x3df6f0bf	0.120576374
47	0x3d778ebb	0.060438853

rnn.bias_hh_l0 f4 [48]
0	0xbe0439b0	-0.12912631
1	0x3e0cb43b	0.13740627
2	0x3e64d63b	0.22347347
3	0xbe4d3506	-0.20039758
4	0xbe1a518e	-0.15070173
5	0x3d84bd96	0.06481473
6	0xbced9bb0	-0.029004902
7	0x3ea05176	0.3131215
8	0xbe8c10f0	-0.27356672
9	0xbc1c3eb3	-0.009536433
10	0x3e46d734	0.19418031
11	0xbd94888a	-0.07252605
12	0xbeb5ff77	-0.35546467
13	0x3e9a6a21	0.30159095
14	0xbd8f1837	-0.069870405
15	0xbdf4d7f3	-0.119552515
16	0x3f99cea3	1.2016186
17	0x3fa588e5	1.2932402
18	0x3fbd314c	1.4780669
19	0x3fae0d82	1.3597872
20	0x3fb19c74	1.3875871
21	0x3fcd6f1f	1.6049536
22	0x3f9f0cc3	1.242577
23	0x3fbe2678	1.485549
24	0x3fc2f6e8	1.52316
25	0x3fc9e787	1.5773782
26	0x3fa667e2	1.3000453
27	0x3fd97f6b	1.699201
28	0x3f7de464	0.9917662
29	0x3fb6a0e1	1.4267846
30	0x3fa60a6e	1.2971933
31	0x3f93a3d3	1.153437
32	0xbe0d081d	-0.13772626
33	0x3e0e1cc5	0.13878162
34	0x3ca49c0d	0.020093942
35	0x3ea70aec	0.3262552
36	0xbea876c7	-0.3290312
37	0x3e58abea	0.2115933
38	0xbe84fa86	-0.25972384
39	0x3e18493e	0.1487169
40	0x3e73662f	0.23769449
41	0xbdc021c6	-0.09381442
42	0xbe5e5b42	-0.217145
43	0xbd9cacfa	-0.0765018
44	0x3d91da1c	0.07121679
45	0xbe4648e9	-0.1936375
46	0x3e89348a	0.26797897
47	0x3b921020	0.0044574887

mlp.0.weight f4 [128, 16]
0	0xbc85dcab	-0.016340574
1	0x3ea32c89	0.31869915
2	0xbe548774	-0.20754796
3	0xbc188093	-0.009307998
4	0x3dfb2747	0.12263351
5	0xbdf27dec	-0.11840424
6	0xbdc1ea5c	-0.09468529
7	0xbe7057e3	-0.23471026
8	0x3e3e8fff	0.18609618
9	0xbe042a55	-0.12906773
10	0x3da73bd9	0.08165712
11	0x3e5e5757	0.21713005
12	0xbca73e8f	-0.020415572
13	0xbd128064	-0.035766974
14	0x3d028c0a	0.031871833
15	0x3d5d23e6	0.053989314
16	0xbe6488db	-0.22317831
17	0xbe8c30a7	-0.2738087
18	0x3e540dd9	0.20708407
19	0x3e73cae8	0.23807871
20	0x3e5e1d7b	0.21690933
21	0xbe6f21bf	-0.23352717
22	0xbe49d603	-0.19710545
23	0xbe9a12fc	-0.3009261
24	0xbe34f693	-0.17672186
25	0x3dfe284d	0.124100305
26	0x3be75d11	0.007060655
27	0x3e3a7c10	0.18211389
28	0x3dc8b062	0.09799267
29	0x3de5e365	0.11225013
30	0x3b208638	0.0024494063
31	0x3dc01d91	0.09380639
32	0xbd90e5c0	-0.07075071
33	0x3cdf2622	0.027239863
34	0xbeb73efc	-0.3579024
35	0xbd86a7cf	-0.06574976
36	0xbe449aa9	-0.19199623
37	0x3d511848	0.051048547
38	0xbde7643f	-0.11298417
39	0x3e33763a	0.17525569
40	0xbec0d971	-0.37665895
41	0x3de61097	0.11233633
42	0xbd33b69a	-0.043875314
43	0x3e24ea03	0.16104893
44	0x3c759a1f	0.014990359
45	0x3cff4a7d	0.031163448
46	0x3e16eab4	0.1473797
47	0x3d458245	0.048219938
48	0x3de371bd	0.11105678
49	0x3d13100d	0.03590398
50	0xbdf4ffc0	-0.11962843
51	0xbd9416ee	-0.07230936
52	0x3bb2865e	0.0054481467
53	0xbe3455de	-0.1761088
54	0xbe642b4e	-0.22282144
55	0xbe0f124a	-0.1397182
56	0x3d1dcc62	0.038524993
57	0x3d5632bb	0.052294474
58	0xbdeabe16	-0.11462037
59	0x3c5f78ea	0.013639668
60	0xbd836c23	-0.0641711
61	0x3e19870e	0.14992926
62	0xbbde88eb	-0.0067912242
63	0xbd9bccd0	-0.07607424
64	0xbdaf2747	-0.085524134
65	0x3ea1f184	0.31629574
66	0x3dd29daf	0.10283982
67	0x3dceb194	0.10092464
68	0x3d05fe20	0.032713056
69	0xbe1fd2ef	-0.15607809
70	0xbe2b902f	-0.1675422
71	0xbd884652	-0.066540375
72	0xbd9083ee	-0.070564136
73	0xbdbb778c	-0.09153661
74	0xbdd1b7da	-0.10240145
75	0xbe04490a	-0.12918487
76	0xbe556eea	-0.20843092
77	0xbc3cb84b	-0.011518548
78	0xbd486ef1	-0.048933927
79	0xbd8a2eb8	-0.06747192
80	0xbe1e1ce9	-0.15440716
81	0x3e90d0f7	0.28284428
82	0xbf095eac	-0.5366008
83	0x3dc2b8f7	0.095079355
84	0xbf25068a	-0.644631
85	0xbe9dda8b	-0.30830798
86	0xbe640569	-0.22267689
87	0x3bffd14f	0.007806934
88	0x3dfd0356	0.12354152
89	0x3e98a444	0.29812825
90	0xbe2f26c8	-0.17104638
91	0xbdd958b0	-0.10612619
92	0x3dbce286	0.092228934
93	0xbe82c4af	-0.25540683
94	0xbf08b792	-0.53405106
95	0x3ead5742	0.33855635
96	0xbdbf769d	-0.093487956
97	0x3e96ec9e	0.294774
98	0x3c5307fb	0.012880321
99	0x3c16c4ac	0.009202164
100	0xbd74b045	-0.059738416
101	0xbe912a87	-0.28352758
102	0x3c51cdba	0.012805397
103	0x3e133aac	0.1437785
104	0xbdc1937a	-0.09451957
105	0xbd95943c	-0.07303664
106	0x3d4ef0a6	0.05052247
107	0xbe1015bb	-0.1407079
108	0xbe66ad2d	-0.22526999
109	0x3e9b1459	0.30288962
110	0x3cdb188e	0.026745107
111	0x3df7ce0b	0.120998465
112	0xbe99e545	-0.3005773
113	0x3e3dc1bd	0.18530937
114	0xbe29f3f2	-0.16596964
115	0xbe231b70	-0.15928435
116	0x3d9cf91c	0.07664701
117	0xbda0dab2	-0.07854213
118	0xbe98e05c	-0.29858673
119	0x3e8261ec	0.25465333
120	0xbd093322	-0.03349603
121	0x3e13c6e8	0.14431345
122	0x3e870828	0.2637341
123	0x3e0a217b	0.13489334
124	0xbd3f8dd6	-0.046766125
125	0xbd6b54b5	-0.05745383
126	0x3cd28757	0.0256993
127	0x3dd10477	0.1020593
128	0x3c08758b	0.008328806
129	0x3ea48684	0.32133877
130	0x3e0586d0	0.13039708
131	0x3f03cc47	0.5148358
132	0x3e52760b	0.20552842
133	0xbe6452bb	-0.22297184
134	0x3b77479c	0.0037731891
135	0x3bd69dfd	0.0065495954
136	0x3e216c1d	0.15763898
137	0x3dcd5284	0.10025504
138	0x3db3c228	0.08777267
139	0x3ef2100b	0.47277865
140	0xbd554be1	-0.052074317
141	0x3eb280b6	0.34863824
142	0xbc225ff5	-0.009910573
143	0xbcfb4ec8	-0.030677214
144	0x3e543ae7	0.20725594
145	0x3e936c18	0.28793406
146	0xbd3aa1a8	-0.045564324
147	0x3ec9df96	0.39428395
148	0xbf0008bb	-0.5001332
149	0xbdbfac9f	-0.09359097
150	0xbeb48a20	-0.3526163
151	0x3e8bbe0d	0.27293435
152	0xbb8dda98	-0.004329037
153	0x3f8fee72	1.1244643
154	0x3e209662	0.15682366
155	0xbdcd9dfb	-0.10039898
156	0xbda08eaa	-0.07839711
157	0xbe603607	-0.2189561
158	0x3e9e6a4d	0.30940476
159	0x3cd01733	0.025401687
160	0xbe720d9d	-0.23638006
161	0x3de7caf2	0.113180056
162	0xbebae617	-0.3650367
163	0x3e00cafe	0.12577435
164	0xbe93bac2	-0.28853422
165	0xbd33dc34	-0.043911174
166	0xbe81143f	-0.2521076
167	0xbd19f01a	-0.037582494
168	0xbe0149c2	-0.12625793
169	0x3d705acf	0.05868035
170	0xbe04cf6a	-0.12969747
171	0x3d2d144a	0.042255677
172	0xbd2b06bb	-0.041754466
173	0xbd8e309f	-0.069428675
174	0xbee8b389	-0.45449474
175	0xbdfbc85a	-0.122940734
176	0xbe7a1793	-0.24423055
177	0xbe18775c	-0.14889282
178	0x3de9ad83	0.11410048
179	0xbd07a956	-0.033120476
180	0xbdef325b	-0.116795264
181	0x3dc6cac9	0.09706647
182	0xbe6aa885	-0.22915848
183	0xbd09e59e	-0.033666246
184	0x3e170056	0.14746222
185	0x3de95658	0.11393422
186	0xbe03f272	-0.12885454
187	0x3e443917	0.19162403
188	0xbe152a6f	-0.14566968
189	0x3e37616b	0.17908256
190	0xbd0f86dd	-0.035040725
191	0xbe55254e	-0.20815012
192	0xbcdb192c	-0.026745401
193	0x3df88c6d	0.12136159
194	0xbdd6f7ee	-0.104965076
195	0xbd81b822	-0.06333949
196	0x3e202658	0.15639627
197	0x3e91f026	0.2850353
198	0xbdeaea15	-0.11470429
199	0x3da9dd68	0.08294183
200	0x3d0e6fbb	0.034774523
201	0xbc98da02	-0.018658642
202	0x3e0b3143	0.1359301
203	0xbd3b2389	-0.045688186
204	0x3d594528	0.05304447
205	0x3d760cc7	0.06007078
206	0xbeeccdee	-0.46250862
207	0xbcef1dc9	-0.029189007
208	0xbac9fc7f	-0.0015410333
209	0x3d2c14a1	0.04201186
210	0xbe3731c7	-0.17890082
211	0xbd11336e	-0.035449438
212	0x3d8670a4	0.06564453
213	0xbe79555e	-0.24348971
214	0xbe5dde71	-0.21666886
215	0x3e62f0b2	0.2216213
216	0xbe9a6ea3	-0.30162534
217	0xbd970865	-0.07374648
218	0x3e24ce44	0.16094309
219	0x3d98fd76	0.07470219
220	0xbd91f6e8	-0.07127172
221	0x3dc71812	0.09721388
222	0xbe25b82c	-0.16183537
223	0xbe1074e2	-0.14107087
224	0x3da0f9e9	0.078601666
225	0x3d2e3fb3	0.042541217
226	0xbe4de301	-0.20106126
227	0xbe14289f	-0.1446862
228	0xbe7f9107	-0.24957667
229	0xbd04bcd9	-0.03240666
230	0x3e23f9f4	0.16013318
231	0x3e8c0b02	0.27352148
232	0x3c6dec90	0.014521733
233	0x3e17b9cc	0.1481697
234	0x3da5029a	0.08057137
235	0x3e1c9d11	0.15294291
236	0xbc32e935	-0.010919859
237	0x3db26860	0.08711314
238	0x3e2fc13f	0.17163561
239	0x3c7b9abb	0.015356715
240	0xbe9704ed	-0.29495946
241	0xbd6be77c	-0.057593808
242	0x3e38a14b	0.18030278
243	0xbdd3741a	-0.10324879
244	0x3d3c8ac1	0.046030764
245	0xbcc1f0df	-0.023674427
246	0xbeb01054	-0.34387457
247	0xbe744285	-0.238535
248	0x3e81c5f2	0.25346333
249	0x3d54d114	0.051957205
250	0xbe800c23	-0.2500926
251	0x3e9f807a	0.31152707
252	0xbed2dbc0	-0.4118328
253	0x3dacd34d	0.0843874
254	0x3e3fcbdb	0.18730108
255	0x3e316eec	0.1732747

mlp.0.bias f4 [128]
0	0x3e73e90a	0.23819366
1	0x3e7a3f1d	0.24438138
2	0xbe5d1d29	-0.21593155
3	0xbe9fecab	-0.3123525
4	0x3e6088ab	0.21927135
5	0xbe75fa49	-0.24021257
6	0x3dd73dba	0.1050982
7	0xbd562005	-0.05227663
8	0x3d17316d	0.03691237
9	0xbe20913e	-0.15680405
10	0xbd1eed6b	-0.03880064
11	0x3e311157	0.17291771
12	0xbe52c8f6	-0.20584473
13	0xbe6870b1	-0.22699238
14	0xbe94e6e1	-0.29082397
15	0xbdd14be2	-0.102195516
16	0x3e9ae7bb	0.3025492
17	0xbec373ec	-0.3817438
18	0x3e7b8e01	0.24565889
19	0xbe8854bc	-0.26627147
20	0xbdc4f8df	-0.09617781
21	0xbe9c99a3	-0.30585966
22	0xbef7e968	-0.48420262
23	0xbec1175b	-0.3771313
24	0xbec92d30	-0.39292288
25	0xbee20c7e	-0.44150156
26	0x3e88620f	0.26637313
27	0xbecff214	-0.40614378
28	0xbe67d0e9	-0.22638287
29	0x3dce2a50	0.10066664
30	0xbe889a46	-0.266802
31	0xbe8bcba0	-0.2730379
32	0xbed3e3fe	-0.41384882
33	0x3d030e31	0.031995956
34	0x3d0a6cfe	0.03379535
35	0xbe09979d	-0.13436742
36	0xbe9cde3e	-0.30638307
37	0xbe76bd1d	-0.24095578
38	0xbe71f885	-0.23629959
39	0x3e3a6e3b	0.18206112
40	0xbe70ab4a	-0.23502842
41	0xbe726376	-0.23670754
42	0xbef2ab1d	-0.47396174
43	0xbe8b8945	-0.27253166
44	0xbdeabccf	-0.11461794
45	0x3c30d01c	0.010791805
46	0x3e15d285	0.14631088
47	0x3d943ea3	0.072385095
48	0x3e2f343a	0.17109767
49	0x3e9143a1	0.2837191
50	0xbd8ecabb	-0.069722615
51	0xbe81f23c	-0.25380123
52	0xbe5126dc	-0.2042498
53	0x3d800aa6	0.06252031
54	0x3d33bd8c	0.043881938
55	0x3d9e7627	0.077373795
56	0xbc7bd844	-0.015371386
57	0x3e067b5b	0.13132994
58	0xbdeb0bd0	-0.114768624
59	0x3d952b81	0.07283688
60	0xbe3ebdf5	-0.1862715
61	0xbdb36919	-0.0876028
62	0xbebff883	-0.37494287
63	0x3cdeab8b	0.027181407
64	0xbf03f154	-0.5154011
65	0xbe829763	-0.25506124
66	0xbe9466e3	-0.28984746
67	0xbdcfda45	-0.101490535
68	0xbd31691d	-0.043313134
69	0xbdb4afc6	-0.088225886
70	0x3e144879	0.14480771
71	0xbe82e6dd	-0.2556676
72	0xbe30147f	-0.17195319
73	0x3e61cb27	0.22050153
74	0x3da16ff8	0.078826845
75	0xbeab5e80	-0.33470535
76	0x3d6aa336	0.057284556
77	0x3cc900b7	0.024536474
78	0x3e2cb0ec	0.16864365
79	0xbe2b3605	-0.16719826
80	0xbd1bc980	-0.038033962
81	0x3d72f89f	0.059319135
82	0xbc8c77fa	-0.017147053
83	0x3e428a1b	0.18997996
84	0xbe438368	-0.19093096
85	0xbb84817a	-0.004043755
86	0xbd2ea250	-0.042635262
87	0xbe713a7a	-0.23557463
88	0xbdffb6dd	-0.1248605
89	0xbeae22ec	-0.34011018
90	0xbeacd5fb	-0.33757004
91	0xbecfe2fc	-0.40602863
92	0x3d626b6b	0.055278223
93	0x3e5ebfa5	0.21752794
94	0x3d4c5ea8	0.04989496
95	0xbe8f6d94	-0.2801329
96	0xbe308283	-0.17237286
97	0x3d5f6aa6	0.054545067
98	0xbd82205a	-0.06353827
99	0xbdc75db0	-0.09734666
100	0x3e0f9c34	0.1402443
101	0xbe692e92	-0.22771671
102	0xbe96f0fb	-0.29480729
103	0xbea5a4b5	-0.32352224
104	0xbe6157fc	-0.2200622
105	0xbe922983	-0.28547296
106	0x3e4614ad	0.19343825
107	0x3d6ffe8d	0.058592368
108	0xbe988c06	-0.2979433
109	0x3d6e73ba	0.058215834
110	0xbe9ba135	-0.3039643
111	0xbe4c7864	-0.199678
112	0xbd77fb19	-0.0605422
113	0x3e9fa5b5	0.31181112
114	0xbdaba559	-0.08381147
115	0xbed09adf	-0.40743157
116	0xbe99e68f	-0.30058715
117	0x3e62cc4e	0.22148249
118	0xbe9f6405	-0.31130996
119	0x3dc92e04	0.0982323
120	0xbe590219	-0.21192206
121	0x3d19f926	0.037591122
122	0xbeb99b0a	-0.36251098
123	0xbeaef4cc	-0.3417114
124	0xbecb2030	-0.39672995
125	0xbdd0f00e	-0.10202037
126	0xbd6a0422	-0.057132848
127	0xbe4d22fb	-0.20032875

mlp.2.weight f4 [128, 128]
0	0x3c861d41	0.016371371
1	0xbd8f615b	-0.07000991
2	0xbba1906c	-0.0049305465
3	0x3bf8cb7e	0.0075926175
4	0x3c4ef714	0.01263215
5	0x3a36c0db	0.0006971487
6	0xbb8917f0	-0.004183762
7	0x3bad945b	0.0052972264
8	0xbcbdd10e	-0.023170974
9	0xba5f405f	-0.0008516367
10	0xb9dac3ca	-0.00041726074
11	0xbd49ba5d	-0.049249995
12	0xbbfa0fec	-0.0076312926
13	0xbd05195e	-0.032494895
14	0xbb99a088	-0.0046883263
15	0xbca2bc1c	-0.019865088
16	0xbdf1f3c0	-0.1181407
17	0x3b700388	0.0036623199
18	0xbb9aae3d	-0.004720478
19	0x3b4b6354	0.0031034546
20	0xb9e0bec1	-0.00042866732
21	0x3b0889e6	0.0020834147
22	0xbb9d8e6c	-0.004808238
23	0xbbd6cc6f	-0.006555132
24	0xbb64caa7	-0.003491083
25	0xbc0fd5ce	-0.008779002
26	0xbd6bd3e9	-0.05757514
27	0xbbcd2e04	-0.006261589
28	0xbd12397e	-0.03569936
29	0xbcd83cea	-0.026396234
30	0xbbf6bfc5	-0.007530185
31	0xbd5ec4e1	-0.054386977
32	0xbdd8b403	-0.105812095
33	0xba5345ec	-0.00080594304
34	0xbda13a55	-0.07872454
35	0xbbf42329	-0.0074504805
36	0x3bd452c1	0.0064795916
37	0xbb945ee0	-0.0045279115
38	0xbd7fde1b	-0.062467676
39	0xbda05b2f	-0.07829892
40	0x3bcc6903	0.0062381043
41	0x3c00ef7b	0.007869597
42	0xbe04adfb	-0.12956993
43	0xbe01e245	-0.12683971
44	0xb9b459c8	-0.00034399168
45	0xbaf78e9e	-0.0018887108
46	0xbdf8c303	-0.121465705
47	0xbc941be3	-0.018079704
48	0xbdf05232	-0.117344275
49	0x3adfcd07	0.0017074653
50	0x3bd3774f	0.0064534317
51	0x3a85b891	0.00102021
52	0x3b1cbfb2	0.002391797
53	0xbdf163c8	-0.1178661
54	0xbdce5097	-0.10073965
55	0xbdd445c4	-0.10364869
56	0xbb829234	-0.003984714
57	0xbbb03f29	-0.005378623
58	0x3b576674	0.0032867463
59	0xbbdfac98	-0.0068259947
60	0xbbb77179	-0.005598244
61	0x39dabf19	0.0004172258
62	0xbb5e1e02	-0.0033892398
63	0xbd1dfb6c	-0.038569853
64	0x39deb8df	0.0004248088
65	0x3c81395c	0.015774421
66	0xbdda2c66	-0.106529996
67	0xbbc6fc37	-0.006072547
68	0x3bb9823c	0.005661277
69	0xbb8028cb	-0.003911113
70	0x3b8cd674	0.0042980257
71	0xbb1ce147	-0.0023937987
72	0xbbb95402	-0.0056557665
73	0xbb4abd09	-0.0030935428
74	0x3ca0e14f	0.019638686
75	0xbbb412b0	-0.005495392
76	0xbdfb764f	-0.12278425
77	0xbda20c5a	-0.07912512
78	0xbdea8e82	-0.114529625
79	0xbda845bc	-0.08216426
80	0xba29334c	-0.0006454482
81	0xbd412720	-0.047156453
82	0x3b596f2f	0.0033177843
83	0xbe0c56bb	-0.1370496
84	0xba962c05	-0.0011457211
85	0xbd87947a	-0.066201165
86	0x3bb9c94a	0.0056697475
87	0xbb1d057e	-0.0023959572
88	0xba18d753	-0.00058304257
89	0xbbb8cb0b	-0.005639439
90	0xbbb2177b	-0.005434928
91	0xbbb13536	-0.0054079546
92	0x3b21435a	0.0024606795
93	0xbd2af910	-0.04174143
94	0x3bd824fc	0.0065962058
95	0xbbf0a3e8	-0.007343758
96	0x3bf323bc	0.0074200314
97	0xbdbd149a	-0.09232445
98	0xbc906a82	-0.017628912
99	0xbd4823a9	-0.048862133
100	0x3c19d742	0.0093897
101	0xbdc4232a	-0.095770195
102	0x3bb515ee	0.005526296
103	0xbbf51ea2	-0.0074804584
104	0xbd24372c	-0.04009168
105	0xbd263f3a	-0.04058764
106	0xbbbf8452	-0.005844631
107	0xbb2d304c	-0.0026426492
108	0xbba13fe8	-0.0049209483
109	0xbbf47d48	-0.0074612238
110	0xbd3b488d	-0.045723487
111	0xbbc675ca	-0.006056522
112	0xbcd1ceb9	-0.025611268
113	0xbb8020b5	-0.003910149
114	0xbb2cbe9f	-0.0026358736
115	0xbdbf5e22	-0.09344126
116	0x3b99ce88	0.00469381
117	0xb88aba77	-6.6150846e-05
118	0xbbd33bbb	-0.0064463294
119	0xbdbb302d	-0.09140048
120	0x3b17cb0a	0.0023161792
121	0xbdbebb3a	-0.093130544
122	0xbbea4875	-0.007149751
123	0xbbabebd8	-0.0052466206
124	0xbd5f3eb9	-0.054503176
125	0x3c8fed4a	0.017569203
126	0x3bb50bb7	0.005525078
127	0x3cad2617	0.021136327
128	0x3c27e70c	0.010247957
129	0xbcc2e6fd	-0.023791784
130	0x3e3d5cb3	0.18492393
131	0x3de6f6bd	0.1127753
132	0x3d02efa5	0.031966824
133	0x3e38de8e	0.18053648
134	0xbd09435f	-0.033511516
135	0xbc8f61b1	-0.017502638
136	0xbc1354a1	-0.008992345
137	0xbe17c11d	-0.1481976
138	0x3e2dffd7	0.16992126
139	0x3d0a58b9	0.03377602
140	0xbdde7a13	-0.108631276
141	0x3c37db58	0.011221729
142	0xbdd601b2	-0.10449542
143	0xbd928577	-0.07154363
144	0x3c413dc4	0.011794511
145	0x3e8cb310	0.27480364
146	0xbcea4fcd	-0.028602505
147	0x3dd61a50	0.104542375
148	0xbc800796	-0.015628617
149	0xbcef9a20	-0.029248297
150	0xbf1e582e	-0.618533
151	0x3d0b1d2e	0.033963375
152	0xbe5faa06	-0.21842203
153	0xbd885f85	-0.06658844
154	0xbcd814e2	-0.026377145
155	0xbdf4e89b	-0.119584285
156	0xbdcce4fd	-0.100046135
157	0xbcc00176	-0.023438197
158	0xba79c7c7	-0.00095283653
159	0x3d90d938	0.07072681
160	0xbed8b390	-0.42324495
161	0xbcbddcb0	-0.023176521
162	0x3d5fa027	0.054596093
163	0x3d20c586	0.039250873
164	0x3ddb46c7	0.10706859
165	0x3d7a685b	0.061134677
166	0x3b363bd7	0.0027806663
167	0xbc766ca6	-0.015040552
168	0x3d968dfe	0.073513016
169	0x3d738066	0.059448622
170	0x3c5e695b	0.013574923
171	0x3d7c5443	0.061603796
172	0xbaabf3b6	-0.0013118896
173	0xbd7d011b	-0.061768632
174	0xbd3aefab	-0.04563872
175	0x3c63b7bd	0.013898787
176	0xbbc99ee2	-0.0061529735
177	0xbda70000	-0.08154297
178	0xbd637375	-0.05553003
179	0xbd3283d7	-0.043582764
180	0xbe4793e0	-0.19490004
181	0x3cdbbb4e	0.026822712
182	0x3dbd1834	0.09233132
183	0xbd78cded	-0.06074326
184	0x3d366b4c	0.04453592
185	0xbdbd4eec	-0.09243569
186	0xbd26368d	-0.040579367
187	0xbe02cd91	-0.1277373
188	0xbcdff25b	-0.027337244
189	0xbdd2c64a	-0.10291727
190	0x3c025319	0.007954382
191	0xbe4a3c14	-0.1974948
192	0x3e44fd48	0.19237244
193	0x3d08917a	0.033341862
194	0xbda3ce9f	-0.07998394
195	0x3d5b3fdb	0.053527694
196	0xbd6ecaee	-0.058298998
197	0xbd1e4628	-0.038641125
198	0xbda04d02	-0.07827188
199	0xbcac74af	-0.021051733
200	0xbdb58ae9	-0.08864386
201	0x3d96e0e6	0.07367115
202	0x3d23cef2	0.03999228
203	0xbd948c28	-0.07253295
204	0x3dcd4610	0.10023129
205	0xbde83632	-0.11338462
206	0x3c285180	0.010273337
207	0x3d61f5d6	0.055166088
208	0x3dc9ab96	0.098471805
209	0xbd8ffa32	-0.07030143
210	0xbdd0e478	-0.10199827
211	0x3cdbf198	0.0268486
212	0x3d71afbb	0.05900548
213	0x3d3a09fa	0.04541967
214	0x3da4015e	0.08008073
215	0xbcd3790d	-0.025814557
216	0xbd04342f	-0.03227633
217	0xbd07ac9d	-0.0331236
218	0xbdd7cf46	-0.10537581
219	0xbe4115bf	-0.18855952
220	0xbdcd19a1	-0.10014654
221	0x3b38e116	0.0028210334
222	0x3e1ae13f	0.15124987
223	0x3c660101	0.014038325
224	0xbe15c196	-0.14624628
225	0xbdb1c6ed	-0.0868052
226	0xbc0be80d	-0.008539212
227	0x3d4c5ca6	0.049893044
228	0x3d8c9e72	0.068661585
229	0xbd46ad0a	-0.048504867
230	0xbda4944b	-0.08036097
231	0x3cbfa004	0.023391731
232	0xbdcfa52e	-0.101389274
233	0xbe395d4f	-0.18102
234	0x3d2df57f	0.04247045
235	0xbc464110	-0.012100473
236	0xbc3bdc6e	-0.011466129
237	0x3cde6444	0.02714742
238	0xbd11f7fc	-0.035636887
239	0xbe7e5492	-0.24836949
240	0xbd232af6	-0.039835893
241	0x3d046c7d	0.032330025
242	0xbd5dcf1d	-0.054152597
243	0xbdc9c4b1	-0.09851969
244	0xbdf56289	-0.11981685
245	0xbcd9680e	-0.026538875
246	0x3c323719	0.010877394
247	0xbcf6363e	-0.030055162
248	0xbe74a223	-0.23889975
249	0x3d00a371	0.03140587
250	0xbdf08fc1	-0.11746169
251	0xbd1b33da	-0.037891246
252	0xbd4d0a0f	-0.05005842
253	0xbdd41e54	-0.10357347
254	0x3dee2ee7	0.1163004
255	0xbe5af35e	-0.213819

mlp.2.bias f4 [128]
0	0xbdbacf82	-0.0912161
1	0x3e703fd7	0.23461853
2	0x3db0b0ea	0.08627494
3	0xbd4c5da1	-0.04989398
4	0x3e6945bd	0.2278051
5	0x3b24cc68	0.002514625
6	0xbd9cfc9b	-0.07665368
7	0x3ce30b6f	0.027715413
8	0xbdc40d32	-0.09572829
9	0x3e4bfd33	0.19920807
10	0xbdd6c5a6	-0.10486917
11	0xbe10b06d	-0.14129801
12	0xbdd24ac9	-0.102681704
13	0x3d221bb5	0.039577205
14	0x3e259556	0.16170248
15	0x3e84580d	0.25848427
16	0xbcd72097	-0.026260657
17	0xbdf82d59	-0.121180244
18	0x3e6f2bc1	0.23356535
19	0x3e6b1b3e	0.22959611
20	0x3905ded7	0.00012766883
21	0x3e51a244	0.20472056
22	0xbd8f6416	-0.07001512
23	0xbe4a1f13	-0.19738416
24	0x3bdddc97	0.006770681
25	0x3ea80358	0.3281505
26	0xbde13e95	-0.10998265
27	0x3d94e7e0	0.07270789
28	0xbe04a8f7	-0.1295508
29	0x3e3b72a1	0.18305446
30	0xbdc601f4	-0.09668341
31	0x3bc6fd02	0.0060726414
32	0xbdc1a59d	-0.09455416
33	0x3e8e4868	0.27789617
34	0xbd9e916f	-0.07742583
35	0xbdc7d912	-0.097582
36	0xbdb3dd7e	-0.08782481
37	0xbc8221fd	-0.015885348
38	0x3e7afa4d	0.24509545
39	0x3a54e209	0.000812084
40	0x3d28d58e	0.041219287
41	0xbc1d8063	-0.009613129
42	0xbde79c76	-0.113091394
43	0x3e6a71b2	0.22894934
44	0xbe0870f8	-0.13324344
45	0xbe036ff0	-0.1283567
46	0x3d9324ae	0.071847305
47	0x3e7a9a8b	0.24473016
48	0xbdcef50d	-0.101053335
49	0xbcdce8f1	-0.026966544
50	0x3c37e45f	0.0112238815
51	0x3e32a668	0.17446291
52	0xbdcea8e1	-0.10090805
53	0xbbdce59b	-0.0067412383
54	0xbd4c5269	-0.04988328
55	0xbe0655fe	-0.13118741
56	0xbd9242a5	-0.07141618
57	0xbca27821	-0.019832673
58	0xbe13db6b	-0.1443917
59	0xbdbde760	-0.09272647
60	0x3e5a4ae8	0.21317637
61	0x3e5e7541	0.21724416
62	0xbde1659f	-0.11005711
63	0xbd7ba7cd	-0.061439324
64	0x3e5d9bcc	0.21641463
65	0xbde2d9ac	-0.11076674
66	0x3decc602	0.115612045
67	0xbc9ee0c8	-0.019394293
68	0xbd2f6388	-0.04281953
69	0xbd3c9cc5	-0.046047945
70	0x3c85608f	0.016281394
71	0x3e8fb865	0.2807037
72	0x3e4f65ca	0.20253673
73	0x3c5d4d79	0.01350724
74	0xbd90e22a	-0.07074387
75	0xbe0ed0c0	-0.1394682
76	0xbdd39b50	-0.10332358
77	0xbd0357be	-0.0320661
78	0xbde13c97	-0.10997885
79	0xbdd7d769	-0.10539133
80	0x3b992e05	0.0046746754
81	0xbdcee883	-0.10102942
82	0xbd50ed06	-0.051007293
83	0xbdc7e544	-0.09760526
84	0xbdee108e	-0.11624251
85	0xbca40478	-0.020021662
86	0xbdb27f9a	-0.08715744
87	0xbe0cad6f	-0.13738035
88	0xbade641a	-0.0016967088
89	0x3e4dd23c	0.2009973
90	0xbce78db7	-0.028265817
91	0x3eabaea2	0.33531672
92	0xbdf36203	-0.118839286
93	0x3e9470b8	0.28992248
94	0x3db77d0a	0.08959396
95	0x3d8577c1	0.06516982
96	0xbc1a489a	-0.009416724
97	0xbc9dd798	-0.019267842
98	0xbd38ebc8	-0.045146734
99	0xbe0d3700	-0.13790512
100	0x3e95b9d5	0.2924334
101	0xbd9c5530	-0.07633436
102	0x3e2b4413	0.16725187
103	0xbd099ef0	-0.03359884
104	0xbd2c7c95	-0.042111
105	0xbd9357b5	-0.07194463
106	0x3ccb26a0	0.024798691
107	0x3c80e7a6	0.015735459
108	0x3eb41e29	0.3517926
109	0xbca799f1	-0.020459147
110	0x3e8e61fc	0.2780913
111	0xbdfe0413	-0.12403121
112	0x3e1a5959	0.15073146
113	0x3c32946f	0.010899647
114	0x3e42d75f	0.1902747
115	0xbd7b1364	-0.06129779
116	0x3d330746	0.04370811
117	0x3c6bffef	0.014404281
118	0xbcdcb53f	-0.026941894
119	0x3e95957e	0.29215616
120	0xbd73f7fd	-0.059562672
121	0xbe07e99c	-0.13272709
122	0xbdebe52a	-0.11518319
123	0x3d6e51b7	0.058183398
124	0x3e1bb5a8	0.15206015
125	0xbe3eab0e	-0.1861994
126	0x3d4e7249	0.05040196
127	0xbd2decfc	-0.042462334

mlp.4.weight f4 [3, 128]
0	0x3c8e5f96	0.017379563
1	0xbb98b55b	-0.004660291
2	0xba9e6746	-0.0012085221
3	0xbbb5f12c	-0.0055524316
4	0xbb4f9a6c	-0.0031677736
5	0x3d476077	0.04867598
6	0x3d189644	0.03725268
7	0xbd0033ac	-0.03129928
8	0x3d263aba	0.04058335
9	0x3d23c5f5	0.03998371
10	0xbce18135	-0.027527431
11	0xbc99c86c	-0.018772326
12	0xbc1f8761	-0.009736867
13	0x3d58dd20	0.052945256
14	0xbdd02ec0	-0.10165167
15	0x3de95904	0.113939315
16	0x3cba92f4	0.02277515
17	0x3b6ca9d0	0.0036111958
18	0xbcfee9dd	-0.031117374
19	0x3e89d768	0.26922154
20	0x3cc974de	0.02459186
21	0x3cb6e359	0.022325205
22	0xbb623b95	-0.0034520377
23	0xbe1e4ba1	-0.15458538
24	0x3bf8d4cc	0.0075937267
25	0x3d385660	0.04500425
26	0x3d9e3d4d	0.07726536
27	0xbd3b035e	-0.045657508
28	0xbc8c881f	-0.017154751
29	0x3d10188d	0.035179663
30	0xbd0f1c69	-0.034939203
31	0xbdfd840c	-0.123787016
32	0x3da2a6df	0.079419844
33	0x3df3efb9	0.11910958
34	0xba71550c	-0.00092060934
35	0x3d05c7e0	0.03266132
36	0x3d2dc8cf	0.042427834
37	0xbbb06793	-0.0053834408
38	0x3e2afb79	0.16697492
39	0x3cbdb35a	0.02315681
40	0x3dbac579	0.09119696
41	0xbba8ee79	-0.0051553813
42	0x3cf58771	0.02997181
43	0x3ceb56da	0.028727937
44	0xbce7c92c	-0.028294168
45	0x3dd9101d	0.105987765
46	0x3e4b4ac8	0.19852746
47	0xbbcd0dd3	-0.0062577515
48	0x3ae89c23	0.0017746728
49	0xbd0a4f43	-0.033766996
50	0x3ad45235	0.0016198816
51	0x3db79084	0.08963111
52	0xbe01fe15	-0.12694581
53	0x3d3a68e0	0.045510173
54	0xbabf789f	-0.0014608091
55	0x3cfe265c	0.03102415
56	0x3b3c2c1e	0.002871282
57	0x3ca26500	0.019823551
58	0x3b958c26	0.004563826
59	0x3bb90864	0.005646752
60	0x3e07ced8	0.13262498
61	0x3b2f3bef	0.0026738604
62	0x3cc86f91	0.024467262
63	0x3d6d589a	0.057945825
64	0xbd81cf4a	-0.063383654
65	0x3e0615a1	0.13094188
66	0xbc2a4126	-0.010391509
67	0x3b612c4f	0.0034358685
68	0x3dcca1c3	0.09991791
69	0xbc0d440e	-0.0086221825
70	0xbcb4cc19	-0.022069978
71	0xbe37868c	-0.1792242
72	0x3dae2552	0.08503212
73	0x3db96b88	0.09053713
74	0x3cffc2f9	0.0312209
75	0x3d826c35	0.06368295
76	0x3d5b4558	0.05353293
77	0xbac73847	-0.0015199267
78	0x3dca8e53	0.098904274
79	0xbc5a12e8	-0.013310172
80	0xbcb2abfa	-0.02181052
81	0xbbb5268e	-0.0055282777
82	0x3b81673c	0.003949074
83	0x3c86b0d1	0.016441735
84	0x3da073d3	0.07834592
85	0x3d488045	0.048950452
86	0xbc252f3c	-0.010082062
87	0x3dc8ff8d	0.098143674
88	0xbb7ea445	-0.0038855236
89	0x3d85ec51	0.065392144
90	0x3ba52f0f	0.00504101
91	0x3e1dd4f8	0.15413272
92	0xbc9c382b	-0.019069752
93	0x3d867b6c	0.065665096
94	0x3e4fed42	0.2030535
95	0xbe660bb3	-0.224654
96	0x3d3c3ce3	0.045956504
97	0xbc629032	-0.013828324
98	0x3d076c37	0.033062186
99	0x3d1b4efd	0.037917126
100	0x3d8d6acd	0.06905136
101	0x3c9a4943	0.018833762
102	0x3dd3b88d	0.10337935
103	0xbd1f3aa5	-0.038874287
104	0xbb466ec2	-0.003027842
105	0xbc5d4713	-0.013505715
106	0x3ced88d5	0.02899591
107	0x3d9a57f7	0.07536309
108	0x3c8378da	0.016048837
109	0x3ba349ad	0.004983148
110	0x3cbcc21a	0.023041774
111	0x3c16d38f	0.009205713
112	0x3dc9c9e7	0.09852963
113	0x3c7e7dae	0.015532894
114	0x3df1a573	0.11799135
115	0x3bb26c6c	0.005445054
116	0x3e666c78	0.22502315
117	0x3d97d72d	0.074140884
118	0x3d5bb0a1	0.053635243
119	0x3e166995	0.14688714
120	0x3cec1895	0.028820315
121	0x3db21ded	0.08697114
122	0x3dae5e95	0.08514134
123	0x3d108bb5	0.035289485
124	0xbdf4b18e	-0.11947928
125	0xbe514419	-0.20436133
126	0x3d84d672	0.06486215
127	0x3c083a59	0.008314692
128	0x3d18bf7a	0.03729198
129	0xbd9af346	-0.07565932
130	0xbe34b836	-0.17648396
131	0x3d781c8d	0.060574103
132	0x3e3ffd28	0.18748915
133	0x3ddda059	0.108215995
134	0xbbb28280	-0.0054476857
135	0xbdb78cd3	-0.08962407
136	0x3c1a77f3	0.009428012
137	0xbc966732	-0.018359754
138	0x38906a07	6.886204e-05
139	0x3d89c7d0	0.06727564
140	0x3c40d841	0.011770309
141	0x3d369d3f	0.044583555
142	0xbe8a6dbe	-0.27036852
143	0x3d63864c	0.055547997
144	0x3cde65f1	0.027148219
145	0x3d3a60ab	0.045502346
146	0xbe509786	-0.20370302
147	0x3cc51b87	0.024060978
148	0xbc54fb78	-0.012999408
149	0xbe109300	-0.14118576
150	0x3e135236	0.1438683
151	0x3e911ee9	0.28343895
152	0xbba15de8	-0.0049245246
153	0x3e6d0880	0.23147774
154	0xbe02c86b	-0.12771766
155	0x3e6ff5a7	0.23433553
156	0x3d958b85	0.07302002
157	0xbc3040e2	-0.010757657
158	0x3b80e573	0.0039336025
159	0xbd7be1c7	-0.061494615
160	0x3b3ab6fa	0.002849041
161	0x3dc353c8	0.095374644
162	0x3d07267e	0.032995693
163	0xbd9e1506	-0.07718854
164	0xba39a922	-0.00070823927
165	0xbe3ab924	-0.18234688
166	0x3dc5e682	0.096631065
167	0xbd2600bf	-0.040528055
168	0xbd37c034	-0.044861034
169	0xbe05abe1	-0.13053848
170	0xbd8a956c	-0.06766781
171	0xbcaf9c9d	-0.021436984
172	0xbccfe505	-0.02537776
173	0x3e0ba6c8	0.13637841
174	0x3c6f38b0	0.014600918
175	0xbcef573f	-0.029216407
176	0xba92ed37	-0.0011209612
177	0x3d0da6c9	0.034582887
178	0x3d60d305	0.054888744
179	0xbdd8a670	-0.105786204
180	0xbe3da4e7	-0.18519937
181	0xbcb8f131	-0.022575947
182	0x3cb11e3f	0.021620868
183	0x3cb9e341	0.02269137
184	0x3c1abfa8	0.0094451085
185	0x3c16fb04	0.00921512
186	0x3db21dbd	0.086970784
187	0x3dc27f51	0.0949694
188	0x3b480a1f	0.003052361
189	0x3e59d197	0.21271358
190	0x3ddb21fe	0.10699843
191	0x3e029f83	0.12756161
192	0xbe6f5e80	-0.23375893
193	0xbb594613	-0.003315334
194	0x3d7fce67	0.0624527
195	0x3d8c79cd	0.06859169
196	0x3d5b2637	0.05350324
197	0x3becd3f8	0.007227417
198	0x3da9affd	0.0828552
199	0x3a9b9e13	0.0011872671
200	0xbc8305ce	-0.015993979
201	0xbc553e26	-0.013015306
202	0x3ccdfdf7	0.025145514
203	0x3d1ce400	0.038303375
204	0x3dc65f6b	0.09686168
205	0xbd023572	-0.03178925
206	0xbcdd8ac0	-0.0270437
207	0x3d913939	0.070909925
208	0xbcfa974e	-0.030589726
209	0xbd0fcbd3	-0.03510649
210	0xbd10be50	-0.035337746
211	0xbd99f8bf	-0.07518148
212	0x3d7e875f	0.06214082
213	0xbc8301c9	-0.015992062
214	0x3dfdaafb	0.123861276
215	0x3d1592a0	0.036516786
216	0xbb6d6c36	-0.0036227829
217	0x3e708015	0.2348636
218	0xbc56908f	-0.013095989
219	0x3cfe7277	0.03106044
220	0xbc1639f1	-0.009169088
221	0xbcee2d45	-0.02907432
222	0xbcae056e	-0.021242823
223	0xbc8417d9	-0.016124653
224	0x3d9b47ef	0.075820796
225	0x3c9959b8	0.018719539
226	0x3bee1b4c	0.0072664376
227	0x3c922809	0.017841356
228	0xbb6cebbc	-0.003615125
229	0x3db6249e	0.08893703
230	0xbc2315d1	-0.009953932
231	0x3d954a53	0.07289567
232	0x3c29284b	0.010324548
233	0x3dc0f459	0.094216056
234	0x3d32eef7	0.043684926
235	0xbcb48cad	-0.022039736
236	0xbd79bea3	-0.06097282
237	0x3cd03571	0.025416108
238	0x3be70b9a	0.0070509436
239	0xbe2a353e	-0.16621873
240	0xbd45b4bb	-0.04826806
241	0x3cab4f09	0.02091171
242	0x3ddbc440	0.10730791
243	0x3bd80008	0.0065918006
244	0x3c4eddaa	0.012626091
245	0xbc479875	-0.012182345
246	0x3e05e430	0.13075328
247	0xba73e8df	-0.0009304415
248	0x3dcf6623	0.10126903
249	0x3de03b07	0.109487586
250	0x3d87cc77	0.066307954
251	0xbdad5fa2	-0.08465506
252	0x3c8ae7d6	0.016956251
253	0x3d289496	0.041157328
254	0xbcd2c0e3	-0.025726741
255	0xbc044162	-0.008072229

mlp.4.bias f4 [3]
0	0x3e52b26d	0.20575877
1	0xbc434561	-0.011918397
2	0xbea9cc0e	-0.33163494
