EUSIPCO/Nested Array noisy position/saved_models/rnn_5dB_nested_7.pth (torch, 87874 bytes, 14 tensors)

bn.weight f4 [16]
000000 85 89 4a 3f e5 b5 80 3f cb ff 80 3f 44 c8 55 3f
       0.7911609 1.005551 1.0078062 0.83508706
000010 df d2 40 3f 74 81 b2 3e 8b da 1a 3e 63 78 f3 3d
       0.75321764 0.3486439 0.1512243 0.11888196
000020 b3 4c 49 3f f3 12 8e 3f 84 6d 4a 3f 00 78 2d 3f
       0.7863266 1.1099533 0.7907336 0.6776123
000030 16 fb 2e 3f 25 1a a0 3e 6c 5f 57 3e d6 fc 28 3e
       0.68351877 0.31269947 0.21032494 0.165027

bn.bias f4 [16]
000000 f2 79 69 3d bb 15 e1 3d 60 e6 7d 3e 1a 3f a2 bd
       0.05700106 0.10990473 0.24794912 -0.07922192
000010 90 b4 06 3d 97 08 b0 3d d2 96 3b bd 9e aa 31 3c
       0.03288704 0.085953884 -0.04579813 0.010843901
000020 30 65 e2 bc 00 b4 88 be e5 93 9e b9 af 20 e8 3c
       -0.02763614 -0.2669983 -0.00030246298 0.028335897
000030 e8 77 8a be 3f 71 82 3b 1d 2b d9 3a 75 86 df bc
       -0.27044606 0.003980785 0.0016568635 -0.027285794

bn.running_mean f4 [16]
000000 35 08 a9 ba 11 25 84 3a 9c ac 56 ba 83 ca 52 3a
       -0.0012896123 0.0010081847 -0.0008189173 0.0008041041
000010 1c 45 16 3b 21 24 ed ba 45 58 a4 3a 7d 97 a4 ba
       0.0022929376 -0.0018092432 0.0012538513 -0.0012557354
000020 a3 c2 17 b9 65 86 80 ba 0f b5 81 b9 70 70 4b 3a
       -0.0001447299 -0.0009805678 -0.00024739697 0.000776059
000030 b4 ef 7e b8 d8 94 9c 3a 58 70 e2 ba 5d c0 67 3b
       -6.078156e-05 0.0011946214 -0.0017275913 0.003536246

bn.running_var f4 [16]
000000 7f 22 d4 3f da fb d3 3f 46 71 d4 3f 5e 9a d4 3f
       1.6573027 1.6561234 1.6597068 1.6609609
000010 ad 6a d4 3f d4 38 d4 3f 16 61 d4 3f bf 43 d4 3f
       1.6595055 1.6579843 1.6592128 1.6583174
000020 1c 56 d4 3f 4e 4a d4 3f 41 14 d4 3f c5 a3 d3 3f
       1.6588778 1.6585176 1.6568681 1.6534353
000030 5b 9a d3 3f 2b 06 d4 3f d9 69 d4 3f 15 35 d4 3f
       1.653148 1.6564382 1.6594802 1.6578699

rnn.weight_ih_l0 f4 [48, 16]
000000 c9 18 69 3f 5f 8f be bd e9 a7 62 bf c6 a1 21 bf
       0.91053444 -0.093046896 -0.8853746 -0.6313747
000010 aa 81 0c 3f e1 2d e3 be 10 56 0e 3e 8e c5 79 3d
       0.5488535 -0.4437094 0.13900018 0.06097942
000020 22 4d c4 bd 61 20 6f 3f 8b e9 f7 3e 32 ba a2 bf
       -0.095850244 0.9340878 0.48420367 -1.2713072
000030 5b b6 2f bf 24 0a f4 3d 09 bd 18 be 7c e7 9c ba
       -0.6863763 0.11915997 -0.14915861 -0.0011970843
000040 19 5c 52 3e 75 78 70 3c b7 e4 82 bf c1 8d 93 be
       0.20542945 0.014677157 -1.0226048 -0.28819087
000050 86 f9 86 bf f7 d3 f3 3e 85 20 b8 be fd b7 f3 3d
       -1.0544899 0.47622654 -0.3596231 0.11900327
000060 b7 71 93 bf 37 84 06 3f 2e 9a 80 3f 68 d8 b7 3f
       -1.1519078 0.52545494 1.0047052 1.4362917
000070 b5 f8 91 3f f8 4f 1c bf d9 10 35 3d 93 22 06 c0
       1.1404024 -0.6105952 0.04420552 -2.0958602
000080 09 3f 59 bd b9 b1 ae be 4e 1d a1 3e 64 21 09 be
       -0.05303863 -0.34119967 0.3146767 -0.13391644
000090 54 e9 8a be c0 46 02 40 bf 63 0f c0 1f 5c e1 3f
       -0.2713114 2.0355682 -2.240463 1.7606238
0000a0 5d 27 19 be 67 1f 73 be 69 50 b2 bd 45 84 28 bf
       -0.14956422 -0.23742448 -0.08706743 -0.6582683
0000b0 79 2a 6f 3f 2a 82 0c c0 63 44 64 3f aa 93 93 3f
       0.93424183 -2.1954446 0.8916685 1.1529438
0000c0 b7 67 b9 be ef aa 20 3f 29 21 90 3f e3 96 91 bf
       -0.3621194 0.62760824 1.126012 -1.1374172
0000d0 46 58 be bf 19 95 f8 3e be 50 00 bf 08 8d 75 3f
       -1.4870689 0.48551252 -0.501232 0.9591832
0000e0 19 47 0b be 0a d9 8e bd 06 0b f9 be ea 50 4d 3e
       -0.1360134 -0.06974991 -0.48641223 0.20050398
0000f0 d8 94 ad be 39 17 af be da 78 5e be a5 4f 4c be
       -0.3390262 -0.34197405 -0.21725789 -0.19952257
000100 7f 4e 0d be 0c fa 9d bd 59 20 91 3e eb bf b7 3f
       -0.13799475 -0.07713708 0.28344992 1.4355444
000110 fe 31 44 bf f0 fd 28 bf cc 0f 56 3d 9a 88 1c bf
       -0.7663878 -0.6601248 0.05226116 -0.6114594
000120 fb c1 21 bf e4 61 00 3f 83 89 b4 3e a3 49 69 3e
       -0.63186616 0.5014937 0.35261163 0.22781996
000130 bc 7c d1 be 90 94 6d 3f 29 96 29 bf 1a d5 38 ba
       -0.40915477 0.92804813 -0.6624475 -0.00070507976
000140 bd f8 16 3f 48 ac e9 3c ff c3 35 be ed d2 f2 be
       0.58973294 0.028524533 -0.17750548 -0.4742655
000150 f4 b3 7c 3d 41 d1 82 bf c9 c4 1a 3f 81 66 27 bf
       0.061695054 -1.0220109 0.6045652 -0.65390784
000160 1d 65 5f 3f 1a de 2b be 9f 10 6e bf e8 71 a9 3e
       0.8726366 -0.16783944 -0.9299411 0.33094716
000170 1f d4 3f 3f f3 4e 47 3f 0a 73 71 3e 37 7b c6 3d
       0.74933046 0.7785484 0.2357904 0.0969147
000180 7b a6 b8 3e d4 90 3e 3e 58 87 5e 3e 9e 17 8d 3f
       0.36064515 0.18609935 0.21731317 1.1022832
000190 6a f2 11 3f fc e3 9a 3e ad 11 2b be 92 45 f0 3e
       0.5701052 0.30252063 -0.16705962 0.46928078
0001a0 72 2c 21 bf 66 e6 92 be 8e 82 5d bf 03 04 6b bc
       -0.62958443 -0.28691405 -0.86527336 -0.014344218
0001b0 fd aa f2 bd b7 79 39 be d3 4c d0 be 9f 1b a0 3e
       -0.1184902 -0.18112837 -0.40683612 0.31271073
0001c0 98 39 81 be 70 9f 2c bf 74 cc 58 bf 8c ea 24 3e
       -0.25239253 -0.6743078 -0.8468697 0.16105098
0001d0 c7 5b 64 3f 80 2e 0a bf ad d1 2f 3f e5 3a 6a be
       0.8920254 -0.53977203 0.68679315 -0.22874029
0001e0 a4 cf 41 39 e0 91 3a 3f a3 49 2d bf 02 39 b8 be
       0.00018483266 0.7287884 -0.67690486 -0.35980994
0001f0 b0 9e 33 3f 24 04 a0 3e e0 2c 5a be 72 05 c9 bc
       0.7016401 0.3125316 -0.21306181 -0.02453873
000200 78 58 00 bf 06 5e 18 3f fa b2 15 bf c5 00 45 bf
       -0.5013499 0.5951847 -0.5847622 -0.769543
000210 3b 03 92 3f d6 27 af bd b9 83 d4 3e 02 4e 30 bf
       1.1407236 -0.0855252 0.41506746 -0.6886903
000220 1e 3e f2 3e 54 7e 8d be 18 76 56 bf dd 12 f1 3e
       0.47313017 -0.27635443 -0.83773947 0.47084704
000230 9a 9a af 3d d7 f2 ab bc ae 98 0c bf 94 5b 60 3e
       0.0857441 -0.020989818 -0.5492047 0.21909934
000240 07 cd 17 3f 8e 59 99 be 2c f5 f5 be dd bd 9b 3e
       0.5929722 -0.29951137 -0.48038614 0.30418292
000250 87 3f 33 3e 19 ce f8 be ee f6 9c be e9 fa 4c 3e
       0.17504703 -0.4859474 -0.30657142 0.2001759
000260 a1 6f 96 3e 46 5c cf bd 54 e9 98 bd a9 9c 01 bf
       0.2938204 -0.10125022 -0.07466379 -0.5062967
000270 3d 43 3b bf c4 19 71 3d 78 23 47 bb 1c f5 30 be
       -0.7314947 0.058862463 -0.0030386131 -0.17281002
000280 da 36 84 bf 04 3a 85 3f d9 b9 10 bf 60 4d 92 3f
       -1.0329239 1.040833 -0.5653358 1.1429863
000290 28 aa bf bd 93 ee 4a 3e 35 68 f1 be 73 d5 04 3e
       -0.093586266 0.19817571 -0.47149816 0.1297205
0002a0 4b a8 8a be 3e dd 09 3f 26 29 a7 3e fa 24 d5 be
       -0.27081522 0.53853214 0.3264858 -0.41629773
0002b0 22 fd 4c 3f c6 82 a6 3e bf a5 29 bd c5 1f f9 3d
       0.8007375 0.32521647 -0.041417833 0.12164263
0002c0 8d ae 92 be 68 9a 1a 3f 4e dc 49 3f 96 8d f4 3e
       -0.28648797 0.60391855 0.78851783 0.47764271
0002d0 4b f8 24 3f 57 af fd be da fc f3 3e 8f dc bd be
       0.64441365 -0.49547836 0.47653848 -0.37082335
0002e0 33 03 5d 3e c3 d8 9c bc 7a b1 23 3e 9a 5e 04 3e
       0.21583252 -0.019146329 0.1598567 0.12926713
0002f0 92 01 78 3e 28 b7 8d be 41 fe 73 3e b4 17 45 bd
       0.24219349 -0.276788 0.23827459 -0.04811831
000300 69 1e 51 bf 0f 7f 9b 3f 97 5b 4e 3f 30 0e 54 bf
       -0.8168703 1.214815 0.80608505 -0.8283415
000310 8d b7 09 be d9 b6 0f bf 94 22 a6 3e a0 b3 66 be
       -0.13448925 -0.5613838 0.32448256 -0.22529459
000320 3d 8f 89 bf 66 6f 46 bf 71 d7 3c 3f 47 32 1b bd
       -1.0746838 -0.7751373 0.7376624 -0.037889745
000330 17 e8 84 be 23 8f b7 3e 12 ed 34 3e 88 21 68 3f
       -0.2595832 0.35851392 0.1766856 0.90676165
000340 d9 68 05 3f 35 c6 fd 3e 6f 41 3f bf 19 86 3c bf
       0.5211311 0.49565282 -0.7470922 -0.73642117
000350 56 e1 49 3e 13 6b c9 3e 2d a4 8e 3e 62 e2 fe 3e
       0.19714865 0.39339504 0.2785963 0.4978209
000360 98 2f 2a 3f ac 51 b5 be bd 43 32 bf 70 07 94 3d
       0.6647887 -0.35413873 -0.6963461 0.07227981
000370 80 76 a2 3e b3 6b 05 3f 13 eb bf 3e 9b f8 31 3d
       0.31731033 0.5211746 0.37484035 0.04344998
000380 7f 52 41 bf d6 3b 97 bf 20 6e a6 3d 23 ac 85 be
       -0.75516504 -1.1815135 0.081264734 -0.26107892
000390 3e 98 1d bf ac 48 08 3f f9 ce 52 3e bf 16 0a 3f
       -0.6156043 0.5323589 0.20586766 0.5394096
0003a0 1e d3 bd 3e 14 ad 14 bf 5a b2 22 bf f3 fc 64 bd
       0.37075132 -0.58076596 -0.6355339 -0.055905294
0003b0 a1 43 8b be 5c 37 aa 3c 68 3c f5 bd 9c 91 bd 3e
       -0.27200034 0.02077835 -0.11974412 0.37025154
0003c0 80 bb fd 3e bc 19 18 3f bf 8c 51 be f5 28 c1 3e
       0.49557114 0.5941427 -0.20463847 0.3772656
0003d0 78 52 db be 24 b6 e9 be aa 16 0b 3e 34 91 c0 be
       -0.42836356 -0.45646775 0.13582864 -0.3761078
0003e0 04 06 6f be 8d 19 2c 3f da ec 5f bf e1 a8 42 3f
       -0.23342139 0.6722649 -0.8747078 0.7603894
0003f0 05 e9 bf be bf 3d 8f 3d a6 1a 52 be 9b 83 a1 be
       -0.37482467 0.06994199 -0.20517978 -0.3154572

rnn.weight_hh_l0 f4 [48, 16]
000000 52 e4 72 3e bc ec 1e bd 5e 28 26 be e9 29 db bc
       0.2371991 -0.038799986 -0.16226336 -0.026753383
000010 86 ed 63 3f c3 28 57 3e 3e 3c b3 3e a1 b4 d0 bd
       0.89034307 0.21011643 0.350069 -0.10190702
000020 ef 36 23 3e aa 35 a1 3e cd 84 7c be 37 1a fd bd
       0.15938924 0.31486255 -0.24660034 -0.12358516
000030 a8 36 a0 3d 58 46 0c 3e 20 2b 49 bd 5e 59 15 be
       0.07822925 0.13698709 -0.049113393 -0.14584872
000040 e0 1b a7 bc a8 94 1f 3f c6 ba 58 bd 17 15 ac 3c
       -0.020399034 0.62336206 -0.052912496 0.02100615
000050 27 ac 11 bf ee 41 29 be 56 93 f1 3d d8 bc d7 3d
       -0.5690331 -0.16529056 0.1179568 0.10534066
000060 da f4 79 3d 37 a7 62 be ed 2d fa 3e b9 01 0f 3f
       0.061024524 -0.221341 0.48863164 0.55862004
000070 62 20 2a bf c2 b4 c4 3d c7 1f 1f 3f 89 a7 1d bf
       -0.6645566 0.09604789 0.62157863 -0.61583763
000080 06 b1 37 3e 08 b0 0c bf 8d ca fb 3f 8e 58 20 3f
       0.17938623 -0.549561 1.9671189 0.62635124
000090 5d 95 23 3f 02 e3 07 bf 8a 85 48 bc e7 f4 1a 3c
       0.63899785 -0.5308076 -0.012238869 0.009457803
0000a0 60 14 a9 3e c4 dc a1 be 16 84 be 3e ae 2b 7f 3e
       0.33023357 -0.31613743 0.3721015 0.24919006
0000b0 ae 16 02 3f 5c 5f ef 3e 7f 76 7b be d9 f7 ad 3e
       0.50815856 0.4675244 -0.24556921 0.33978155
0000c0 31 b5 61 3e be af 44 3e fe 90 55 3e 78 69 0b bd
       0.22041775 0.19207665 0.20856091 -0.03403613
0000d0 00 1a 90 bd 3c a6 45 bc fe e0 ad 3e 64 45 17 3f
       -0.07036209 -0.012063559 0.33960718 0.59090257
0000e0 51 a5 ce be 09 84 98 be 13 25 57 bd db 35 2d 3e
       -0.403605 -0.29788235 -0.05252559 0.16915075
0000f0 bc 94 ca 3c 2d cd d8 be 7c 24 bd 3d ee a0 08 bf
       0.024729125 -0.42344037 0.092354745 -0.5337056
000100 2c 9b ec 3e 98 2f 71 be 17 16 c2 3f db 8e a0 bd
       0.46212137 -0.23553312 1.5162991 -0.078397475
000110 c1 87 c1 3e 0d 17 11 3e b7 d6 f7 bd 3e 7d 88 3e
       0.37798885 0.1416895 -0.121015005 0.26658052
000120 b4 d9 c0 bf 0c a7 7f be 34 16 35 3f 85 b9 c5 bc
       -1.5066438 -0.24966067 0.70737004 -0.024136314
000130 eb 7f eb 3e 50 18 86 bf 3b 17 8e bf e8 1c 2f be
       0.4599603 -1.047617 -1.1100839 -0.1710087
000140 33 cf a7 3e 6b ca 04 be 65 ad 6b be 6c bc a6 3e
       0.32775268 -0.12967841 -0.23015364 0.3256563
000150 5e 02 48 3f df 1d 9a 3e 74 bb 6e 3d b7 75 42 bd
       0.7812861 0.30100915 0.058284238 -0.047475543
000160 56 64 d4 3c 48 2e a2 3c b8 d7 f9 be ab 49 18 3e
       0.02592675 0.01979746 -0.48797393 0.14871852
000170 e5 3a 98 3e ae 9a 57 3d 10 c5 f3 be 21 01 b6 3e
       0.29732433 0.05263775 -0.47611284 0.35547736
000180 54 df 41 bd 12 45 ca 3e 20 6e 95 be 52 5e a9 3e
       -0.047332123 0.3950582 -0.2918558 0.33079773
000190 a1 8f 67 3e 80 d3 2b 3e 6a 98 de 3e 5e 96 91 be
       0.22613384 0.167799 0.43475658 -0.28435034
0001a0 10 bc 0b 3f cb 0b 09 bf 88 3c 03 3d a6 b8 b0 bd
       0.54583836 -0.5353362 0.03204015 -0.08628969
0001b0 b1 5c 57 be 68 44 0f bc 47 bd 15 3e bf a6 bd 3c
       -0.21031453 -0.008744337 0.14622985 0.0231508
0001c0 64 af cb be a1 57 8f bd 11 d7 90 be 40 1d 46 3f
       -0.3978225 -0.06999136 -0.28289083 0.7738838
0001d0 a9 4d 04 bd 51 6b de be 41 df d1 be a2 9e bd bd
       -0.032300625 -0.4344125 -0.40990642 -0.092587724
0001e0 62 7d 2b bd 0e a0 af bd 7a 49 61 be 4d 6c e4 3d
       -0.04186762 -0.0857545 -0.22000685 0.11153469
0001f0 5d af 95 3d 76 dc bf 3c 6c 0b 6b 3d f5 92 2b be
       0.073088385 0.023420554 0.05738394 -0.16755278
000200 ce 71 8c bf a3 7d 86 3e cd 11 21 bf 06 fe e7 be
       -1.097223 0.26267728 -0.62917787 -0.45310992
000210 f8 f1 0a c0 41 87 76 bf 0b 64 d6 be db 53 9f 3e
       -2.1710186 -0.9630013 -0.41873202 0.31118664
000220 89 c4 6e 3e ce e8 a1 bc 08 47 4e 3f cd 20 c5 3e
       0.2331716 -0.01976433 0.80577135 0.38501588
000230 72 06 15 bf 3b 9a 03 c0 97 87 2e 3f 84 5c fe be
       -0.5821296 -2.0562885 0.68175644 -0.4967996
000240 cb 24 24 bf 92 d1 eb be ae 31 06 be ad 61 a6 3d
       -0.6411864 -0.46058327 -0.13104889 0.08124099
000250 b4 ca 16 bf 16 a9 7e bf 6e 98 37 be d3 b5 e9 3e
       -0.5890305 -0.99476755 -0.17929241 0.45646533
000260 ec 14 c2 3e f5 8a 86 be 5e 3d 46 3e 4a 2e d6 3e
       0.37906587 -0.2627789 0.19359347 0.4183219
000270 cf 40 ed bc 99 41 9a be fb 37 20 3f c4 b2 3d bf
       -0.028961567 -0.30128172 0.6258542 -0.741009
000280 84 d6 1a bf ef 46 5d 3e d1 e6 44 be 8b 12 d1 be
       -0.60483575 0.2160909 -0.19228674 -0.4083446
000290 38 7f a0 bf 9e 98 ee be 27 1a a6 bb 6a 72 e6 3e
       -1.2538824 -0.46600813 -0.0050690356 0.45009166
0002a0 d7 48 79 bf 1e 64 12 bd 9f 69 e9 bd 02 cb d6 bd
       -0.9737677 -0.03574001 -0.11397099 -0.104879394
0002b0 3a 9e cd be f4 4f 8b bf 60 bd b6 3e 15 57 52 be
       -0.4015978 -1.0883775 0.35691357 -0.20541032
0002c0 7e 60 87 ba ec 47 94 be c5 63 32 be b8 6d 97 3d
       -0.001032844 -0.28961122 -0.17420872 0.07393974
0002d0 c4 ed 06 3f bc 0c aa 3d f9 54 6f bd 19 f2 26 be
       0.5270655 0.0830321 -0.058430646 -0.1630329
0002e0 e5 79 84 bd 1a 36 48 3e 00 07 5c be aa 18 b5 be
       -0.06468562 0.19551888 -0.21487045 -0.3537038
0002f0 e4 d6 91 be 64 26 f5 bd 54 e9 64 bd 40 f9 af 3d
       -0.2848426 -0.11970213 -0.05588658 0.085924625
000300 a8 5f 11 3e 3b b6 af bd ae 66 81 3e 44 24 80 bd
       0.14196646 -0.085796796 0.2527365 -0.06256917
000310 63 4f 9b bd 45 53 5f 3d 2c 70 e9 3e 53 34 b4 3d
       -0.07583501 0.05452277 0.45593393 0.087990426
000320 c7 ae 05 be 96 c4 8c 3e 53 61 06 3d 6f 12 94 be
       -0.13054954 0.27493733 0.03280766 -0.28920314
000330 7d ed c9 3e 79 b4 70 be f8 24 77 be 74 57 13 be
       0.39439002 -0.23506345 -0.24135196 -0.1438883
000340 8c 9a 36 3f 85 00 37 3d 4f 63 a7 3e 00 24 48 be
       0.7132957 0.04467823 0.32692954 -0.19544983
000350 d2 42 0b 3f 97 1f a8 3d c3 2b d8 3e 24 81 0f 3f
       0.54398835 0.0820915 0.42220888 0.5605643
000360 11 eb 18 bf 19 04 e1 be 3e fc 93 3e 47 b4 a1 be
       -0.5973368 -0.4394844 0.28903383 -0.31582853
000370 64 64 77 be d0 a5 b6 be 45 84 e0 3d cc 41 34 3e
       -0.2415939 -0.3567338 0.109627284 0.17603225
000380 69 01 84 3e 7f 76 c9 be b9 13 1b 3f 57 7b 83 bd
       0.25782326 -0.39348218 0.6057697 -0.064200096
000390 a4 e1 2b be d9 70 45 3e f3 ba 95 3d 15 0f f7 bd
       -0.16785294 0.19281329 0.07311048 -0.120634235
0003a0 4c 3c 40 bf a0 7d e4 bc 26 2e c9 bd d8 41 88 be
       -0.75092006 -0.027891934 -0.09823255 -0.26612735
0003b0 27 13 83 3e a1 ba 8f be eb 61 d1 bd 4b a9 7b bd
       0.2560055 -0.28072074 -0.102237545 -0.061440747
0003c0 2b 29 3d 3d 28 da 97 be 94 05 0c 3f 9d f2 f6 bd
       0.04618184 -0.29658628 0.5469601 -0.120579936
0003d0 c2 cd 46 3d cd dc 8d bd 7b 7f 84 be fe 01 31 bd
       0.04853607 -0.0692688 -0.2587851 -0.04321479
0003e0 bf fd 85 3d d5 71 e4 3e ab ab aa be ff 4a 0d 3c
       0.06542539 0.44618097 -0.33334097 0.0086238375
0003f0 b3 ca 16 3d 11 d1 c5 be 42 e1 b6 be fd 7d bc 3d
       0.036814403 -0.38636068 -0.35718733 0.09203718

rnn.bias_ih_l0 f4 [48]
000000 6a 83 3b be ad 66 bd be af 2e d5 be 39 bf 45 3d
       -0.18311849 -0.36992398 -0.4163718 0.048278067
000010 98 0f 10 be 59 e3 33 be 8a 8a a5 3e 8c 90 1e be
       -0.14068449 -0.17567195 0.3233226 -0.15484828
000020 4d 98 90 be a8 30 e3 be 33 e0 bf 3d 36 66 be 3d
       -0.28241196 -0.4437306 0.093689345 0.09296839
000030 81 e0 c4 bd c3 94 1a 3e be c7 0d 3e 6e c8 df bc
       -0.09613133 0.1509581 0.13845727 -0.027317252
000040 f8 7d 89 3f 08 91 b5 3f b1 33 cf 3f a0 fd ab 3f
       1.0741568 1.4184885 1.618765 1.3436775
000050 58 28 86 3f c9 0e 8a 3f a7 3e 9f 3f 8f 90 a3 3f
       1.0481062 1.0785762 1.2440995 1.2778491
000060 5d 05 00 3f 2d 84 a2 3f 70 1d 58 3f 1e c3 97 3f
       0.50008184 1.2696587 0.8441992 1.185642
000070 87 9c 99 3f 00 ab a0 3f 9a 7b 19 3f 7d f2 84 3f
       1.2000893 1.2552185 0.59954226 1.0386502
000080 14 eb 53 3e 45 78 e3 3d 7d 6b a7 bd 5d 70 ed bd
       0.20695144 0.11106924 -0.08174799 -0.11593697
000090 9f 34 60 be fb bf b7 3e e0 80 7d 3e 0e 60 a5 bd
       -0.21895073 0.35888657 0.24756193 -0.080749616
0000a0 88 6e 83 bd 66 06 cd 3d 6a d0 b0 be 0c 9b a6 be
       -0.064175665 0.10010986 -0.34534007 -0.32540166
0000b0 0e ac e7 bd f2 4d ae be 4a 32 74 be 9a b2 a4 3e
       -0.11312114 -0.34043843 -0.23847309 0.32167512

rnn.bias_hh_l0 f4 [48]
000000 4c 73 bd 3c e1 5e 80 be 6c 24 71 be e1 b8 0d be
       0.023126267 -0.25072387 -0.2354905 -0.13840057
000010 db 1f 0a be f8 31 29 b9 1e ee 72 bd db 93 44 be
       -0.13488714 -0.00016135711 -0.059309117 -0.19197027
000020 9b 2d e1 bd 2c b9 07 bf 33 ad 3d bd a3 c7 2a be
       -0.10995027 -0.53016925 -0.046307754 -0.16677718
000030 8e 1d fb bd 85 ad 95 3e fd 6f 20 be da 1f 69 be
       -0.122614965 0.29233947 -0.1566772 -0.22766057
000040 8b 87 69 3f e7 a7 ad 3f 8e e8 a5 3f c9 21 ad 3f
       0.9122245 1.3566865 1.2961595 1.3525935
000050 d1 f6 51 3f f9 2d 67 3f ab 10 cd 3f 50 ac 7e 3f
       0.82017237 0.90304524 1.6020712 0.9948168
000060 cc d7 16 3f 39 44 93 3f 3a 57 9e 3f 60 1a 88 3f
       0.5892303 1.1505195 1.237037 1.0633049
000070 6d 16 42 3f 18 89 8d 3f d1 77 37 3f b2 11 67 3f
       0.7581547 1.1057463 0.716672 0.90261376
000080 e2 41 17 3f e1 69 fc 3d 81 e4 86 3e ab d9 9a 3e
       0.59084904 0.12324882 0.2634621 0.30244192
000090 52 e2 e2 3d a4 dc a1 3e 0b 7a 00 3f 65 0c e9 3d
       0.110783234 0.31613648 0.5018622 0.11379317
0000a0 09 36 f5 3e 4e af 4f 3d 46 e3 52 be a2 d9 86 3c
       0.47892788 0.050704293 -0.2059451 0.016461197
0000b0 55 4f b2 3e 46 23 6d be 8f 6c f2 bd 1f 24 34 3e
       0.3482615 -0.23157987 -0.11837112 0.17591904

mlp.0.weight f4 [128, 16]
000000 84 83 a5 be 09 b4 35 be 5b 32 92 bd 9a 5e f5 bc
       -0.323269 -0.17744459 -0.07138511 -0.029952336
000010 fe e5 9d bd de ce 23 be 61 1a 14 be 93 3d 87 bd
       -0.07709883 -0.15996882 -0.14463188 -0.06603541
000020 34 49 9c bd ac 64 d9 be a7 4b 9e 3d 2e 76 fd bd
       -0.0763115 -0.4245962 0.07729273 -0.123760566
000030 58 ea c5 be 2c 4d c0 3e 27 54 00 be b1 23 c9 3d
       -0.38655353 0.37558877 -0.12532102 0.09821261
000040 4a 4f 59 bd 14 75 24 3e 9d 68 b6 bc 8b f9 c8 bd
       -0.05305413 0.16060287 -0.02226668 -0.098132215
000050 34 76 01 bd 59 a1 4c be d3 22 60 be cf 0e 0c 3e
       -0.031606868 -0.19983424 -0.21888284 0.13677524
000060 b3 be af bd e3 61 24 3e 61 8e 24 3e 55 02 21 3e
       -0.08581295 0.16052966 0.16069938 0.15723546
000070 fe 23 13 3e 16 fb ed 3d a0 9e 25 be 2e 06 44 3c
       0.14369199 0.116201565 -0.16173792 0.011964364
000080 a2 c9 1b 3e 00 5b 7d 3d e1 1a 0d 3e b9 a5 5d bc
       0.15213636 0.061854362 0.13779785 -0.013528281
000090 b6 ea d4 3e 87 c9 1c be 51 61 9a be 8b 29 47 be
       0.4158532 -0.15311252 -0.30152372 -0.19449441
0000a0 ca 90 c9 bd 44 73 f8 3d b7 51 b7 3e 75 a2 ad bc
       -0.098420694 0.1213136 0.3580453 -0.02119563
0000b0 c4 8a 4c 3e 67 75 a7 be 31 89 0f 3e 82 aa 83 3d
       0.1997481 -0.32706758 0.14017178 0.06429006
0000c0 36 d0 6b 3e e6 fe 8e 3e d2 f7 9d 3c a7 c3 70 3e
       0.23028645 0.27928847 0.019283209 0.23512135
0000d0 ef 5d 3e be f8 7d 0d 3e b1 57 16 3e 9c 03 c6 3d
       -0.1859052 0.13817585 0.14681889 0.09668657
0000e0 2c 6d cf 3d 5c 37 10 be 5a 49 63 3e 8b 63 53 3f
       0.10128245 -0.14083618 0.2219595 0.82573766
0000f0 4e 9f a5 3d 1e 3f cf bd 25 c4 3d 3d 54 fa 37 be
       0.080870256 -0.101194605 0.046329636 -0.17966586
000100 c1 cf a2 3d e5 79 72 3c b7 72 b8 3c 9d d7 87 3d
       0.07949782 0.01479957 0.022515638 0.06632922
000110 0e 6e 64 3e 85 36 1b be bd cb 49 be 17 25 3e 3d
       0.22307608 -0.15157516 -0.19706626 0.04642209
000120 d0 36 fa 3d a1 79 d0 3c f6 d9 e4 bb 36 6b 45 be
       0.12217486 0.025448622 -0.006983991 -0.19279179
000130 00 ca aa be 79 de 5c 3e ec f2 75 bd 8e 80 84 3e
       -0.3335724 0.21569242 -0.06004612 0.2587933
000140 80 40 00 3e 1e fb dc 3d ef 73 28 bc 1b 40 54 be
       0.12524605 0.10790084 -0.010281547 -0.2072758
000150 38 87 57 be 29 f4 2a be 10 71 2d be 65 c9 42 3d
       -0.21047676 -0.16694702 -0.16937661 0.047555346
000160 fd 8f e9 39 ad 52 75 be 7b 22 7e be 42 95 b5 bd
       0.00044548503 -0.2395732 -0.24817841 -0.08866359
000170 14 83 23 be 5a f1 cf bc 68 fd b2 bd 5f ea 6b 3c
       -0.15967971 -0.02538364 -0.0873974 0.01439914
000180 fc 06 4a be 3b ea 49 be 8a b8 87 bc c6 9b ac bd
       -0.19729227 -0.19718258 -0.016567487 -0.08428149
000190 23 fe 88 bd db 33 ed bd cd d7 f2 bd 4b 05 18 3e
       -0.06689098 -0.11582156 -0.11857567 0.14845769
0001a0 fe f9 3d bd 9d b5 27 3e 14 e5 33 bc 6f db 4e 3d
       -0.04638099 0.16377874 -0.010979909 0.050502237
0001b0 49 3c 88 bd ae c5 9a 3e bd 9d 9e bd ae 44 24 be
       -0.066521235 0.30228943 -0.0774493 -0.16041824
0001c0 58 d2 f7 bd 2d 55 92 bd 2f 86 96 3d ef b6 06 bc
       -0.12100667 -0.07145152 0.07349812 -0.008222326
0001d0 d1 71 ea bd bb b0 7f 3e 1b 27 a6 3d dc 9f 1d 3f
       -0.1144749 0.24969761 0.081129275 0.6157205
0001e0 c8 82 45 3d 88 d5 c0 bd 1a ea af 3d e9 13 b0 3e
       0.048220426 -0.09415728 0.08589573 0.3439019
0001f0 3d 2c c7 3d 16 48 55 be b1 f1 93 3c 55 e0 86 3d
       0.09725235 -0.2082828 0.018059583 0.06585757
000200 27 6b 28 bd 4d 01 e6 bd e3 0b 4f be 1e 0a 38 bc
       -0.041117813 -0.11230717 -0.20219378 -0.011232881
000210 2f bc 06 bf da c7 51 3e 8b fb 12 3d d7 61 5e 3e
       -0.52630895 0.20486394 0.03588442 0.2171701
000220 d3 46 64 3e 87 84 90 bc 5e ea a1 be 15 6b 06 3e
       0.22292642 -0.017641319 -0.3162412 0.13126786
000230 aa c9 2a be 55 8f 17 3e 1d 02 98 bc 05 c0 9a bc
       -0.16678491 0.1480077 -0.018555695 -0.01889039
000240 48 99 fe 3d 4b 7d 95 3c e1 34 0d 3d 41 4f 50 be
       0.1243158 0.01824822 0.034474257 -0.20342733
000250 09 3c 25 be bc 91 1d 3d 79 07 0d be a1 69 b7 3d
       -0.16136183 0.03846906 -0.13772382 0.08955694
000260 2c 34 9a 3d 77 a9 3c 3e f3 3c 32 3e 75 5d e6 bd
       0.07529482 0.1842402 0.17406063 -0.11248294
000270 07 ed ce 3d 11 3b 85 be c4 6f 5b bd 76 a1 c6 3d
       0.10103803 -0.26021627 -0.053573385 0.09698765
000280 b5 4b d5 3e 06 44 09 3e af 42 c1 be b0 c6 5a 3d
       0.41659322 0.13404855 -0.37746188 0.05341214
000290 d1 a6 a2 3e 39 38 54 be 89 19 df 3d ed ee f2 3d
       0.31767896 -0.20724572 0.10893542 0.11861978
0002a0 01 7b ef 3e 8f d6 d1 be d5 a6 81 3e bd 0f 2d 3f
       0.46773532 -0.40984008 0.25322595 0.6760214
0002b0 09 91 72 3e f4 d8 5c 3d d3 5d ad 3d 78 a8 80 bf
       0.23688139 0.05391784 0.08465161 -1.0051413
0002c0 7f 58 60 be 1f 1c 3f 3e 84 73 10 bd 1c de ee bd
       -0.21908759 0.18663071 -0.035266414 -0.11663458
0002d0 54 75 a4 3d 53 b4 21 be d4 23 5e 3e 41 c0 31 3b
       0.08030191 -0.15791444 0.21693355 0.002712265
0002e0 9b c3 79 3d bb ac ec bd 2f f3 32 3c 0e 00 1d 3e
       0.06097756 -0.11556383 0.010922237 0.15332052
0002f0 53 41 d4 bd 01 e4 db bd cc d3 ee 3d 4f 34 ec bd
       -0.10364022 -0.10736848 0.11661491 -0.115334146
000300 2c 1f b0 be e5 d6 28 bd 69 b1 3e 3c bb db ff 3d
       -0.34398782 -0.041220564 0.011638978 0.12493082
000310 5a 8c 1b 3e 98 b0 16 be 16 1d 6e bd 92 f9 d5 3e
       0.15190259 -0.14715803 -0.058133207 0.4179197
000320 b2 7c cc be a5 26 b2 be 24 f1 00 3f 7c 5b 8c 3c
       -0.39938885 -0.34795108 0.5036795 0.017133467
000330 6f bb 5f be 19 fb c8 bb c2 a1 6d 3e 97 87 d5 be
       -0.21848844 -0.006133449 0.23206237 -0.4170501
000340 2e 0f df be 05 25 96 3d 4f eb 21 3e 8f 0e d5 3d
       -0.4356627 0.0733128 0.1581242 0.104031675
000350 c9 63 e6 be 94 43 38 3d bc 0d ba 3c 93 ea 5a be
       -0.44998005 0.044986323 0.022711627 -0.21378545
000360 80 14 74 3e 83 e2 67 3e 85 c0 05 be 4c 7f 86 3e
       0.23835945 0.22645001 -0.13061722 0.26268995
000370 cc 3d e6 3d 8f d4 b7 bd d0 29 56 3e fc 10 19 be
       0.112422556 -0.08976089 0.20914388 -0.14947885
000380 fe 5a 31 be ef db c5 bd da d9 d4 bd bd 5d eb 3d
       -0.17319867 -0.0966109 -0.103931144 0.114924885
000390 ce 6a 9a bd 77 64 3e be 9c 08 a7 bd 67 66 0d be
       -0.075399026 -0.18593012 -0.08155939 -0.13808595
0003a0 0a ba 50 3d 92 5c b3 3d fc 38 59 3e da 05 a7 bb
       0.05095867 0.08757891 0.21213144 -0.005097133
0003b0 20 54 0f 3e 2e 81 7c 3e 3b 55 11 3e ad d9 6b be
       0.13996935 0.24658653 0.14192669 -0.23032255
0003c0 fe dd 04 3f ee 81 83 3e 54 0f 93 be 2b cd 51 3e
       0.51901233 0.25685066 -0.28722632 0.20488422
0003d0 b6 c3 7e ba a1 ef a5 be 5e 3d a4 3d 3c 0a 8a 3e
       -0.0009718494 -0.32409385 0.08019517 0.26960933
0003e0 d1 1b 91 be 0c fe 4e be b1 ec ac 3e 0d 13 8d 3f
       -0.28341535 -0.20214099 0.3377433 1.1021439
0003f0 fc 96 66 3e 52 c4 d3 3d 98 a7 13 3e 05 5b 0d bf
       0.22518533 0.103401795 0.144194 -0.5521701

mlp.0.bias f4 [128]
000000 a3 75 e0 3d ce 91 74 be 9b 9c db 3d 68 1b c8 3d
       0.109599374 -0.23883745 0.107232295 0.09770852
000010 8b 1a 08 3e cf a4 56 3e 02 15 a6 be d1 73 ae 3e
       0.13291375 0.20961307 -0.32437903 0.34072736
000020 49 02 37 3e e2 b4 42 3e 32 a9 81 bc b3 90 af 3e
       0.17871965 0.19014314 -0.015827749 0.34290084
000030 08 94 ab be aa 87 a2 bd fd 6f 80 be 83 e8 40 be
       -0.33511376 -0.07936032 -0.2508544 -0.18838696
000040 27 58 49 3e 18 55 02 be d5 bb c1 be 4e 90 92 be
       0.19662534 -0.12727773 -0.37838617 -0.2862572
000050 88 8d 87 be 1f ee 64 be 7d 20 d8 bd 95 f0 84 be
       -0.26475167 -0.22356461 -0.10553072 -0.259648
000060 6f 91 4f be 13 ba db be 7c 38 58 3c 1f 96 ae be
       -0.20270322 -0.429154 0.013197061 -0.34098908
000070 17 5b 90 3e 19 66 f3 bd 0e 67 8d 3e 02 d8 00 bf
       0.28194496 -0.11884708 0.27617687 -0.503296
000080 82 40 a7 3e eb 9f 85 3d 44 10 56 bd 51 fe 09 be
       0.32666403 0.065246426 -0.052261606 -0.1347592
000090 14 3b c4 3c 52 27 5d be 60 b7 d2 3d 84 ee 51 3e
       0.023953952 -0.21597031 0.10288882 0.20501143
0000a0 7b 0d 7d be f8 c2 98 be 7e bf 3d 3e a1 2f f7 bb
       -0.24712174 -0.2983625 0.1853008 -0.0075435196
0000b0 5a d8 ad be 8a 3e 55 be 66 51 88 be 03 98 93 bd
       -0.33954126 -0.20824638 -0.26624602 -0.07206728
0000c0 31 44 0a 3d d1 cd 8c be e5 b1 23 3e d3 ef 12 be
       0.03375644 -0.27500775 0.1598583 -0.14349298
0000d0 3b 5d 29 be 28 28 df 3d ae c3 84 bc 4f 11 46 be
       -0.16539471 0.10896331 -0.016206589 -0.1934254
0000e0 16 e4 c0 3e d1 55 2e be 3e 6c 12 be 1b f7 aa 3e
       0.37674016 -0.17024924 -0.14299104 0.33391652
0000f0 1e 1a 83 3e 9c 03 f4 bd e6 e4 e3 bd da d6 11 be
       0.25605863 -0.11914751 -0.11127643 -0.14242116
000100 48 6a 8b 3c da 82 b0 3e 6e 90 b4 3d 8a 17 84 be
       0.017018452 0.34474832 0.0881661 -0.2579921
000110 0f f5 6e bd 64 9b f0 bc af 2c 02 3f d8 a2 a2 3d
       -0.058339175 -0.029370971 0.5084943 0.07941216
000120 c0 6a 09 3d cc 4c 8e be 73 a1 86 3d 0c 8c 9b 3e
       0.03354907 -0.27792966 0.06573763 0.30380285
000130 1b 4a 34 3e 96 6c f4 bc 3c 96 72 be 9f 8d 36 bd
       0.17606394 -0.029836934 -0.23690122 -0.044568654
000140 7c a9 f5 3d 53 43 85 be b2 53 27 be 38 35 8c 3e
       0.11995217 -0.26027927 -0.16340521 0.27384353
000150 3b 0a a3 3e c9 ae af be d0 98 57 be 08 88 a2 be
       0.31843743 -0.34313038 -0.21054387 -0.3174441
000160 eb d1 77 be fa 49 c1 3d 6f 53 15 3e e1 d8 9c be
       -0.24201171 0.09437938 0.14582609 -0.30634215
000170 7c e1 e6 bd cc 00 31 be 55 79 ac bd 11 8a 9e be
       -0.112734765 -0.1728546 -0.0842158 -0.3096471
000180 7c ff 48 bc 3e 1b c9 be 82 e4 63 bd cd 9f 16 be
       -0.0122679435 -0.39278597 -0.055637844 -0.14709397
000190 f1 48 58 be 71 03 89 be 0e b0 00 be d3 26 9d 3e
       -0.21121575 -0.26760438 -0.1256716 0.30693683
0001a0 30 fc 8d be f5 8f 92 3e ba 07 ff bd ef f4 84 be
       -0.27731466 0.28625455 -0.124526456 -0.2596812
0001b0 04 68 b2 3e 41 30 64 be 1d 92 93 3e 45 9f c9 3d
       0.34844983 -0.22284032 0.28822413 0.098448314
0001c0 48 19 bf 3d 40 32 cc bd 7a 93 4b 3e f2 e3 b9 3d
       0.09330994 -0.09970522 0.19880477 0.0907668
0001d0 c8 88 09 bf 91 2b 70 be 18 53 87 3e 2a 86 44 3e
       -0.53724337 -0.2345412 0.26430583 0.19191805
0001e0 dc e1 98 3e 70 31 84 3e ad 4c 28 be 5e 6d 98 bd
       0.29859817 0.25818968 -0.164355 -0.07442735
0001f0 ce 22 8f be e9 9c ae be 93 14 68 be 6d 7f 75 3d
       -0.2795624 -0.34104088 -0.22664098 0.059935976

mlp.2.weight f4 [128, 128]
000000 99 8f fd bc 41 55 46 3d 7d 2a 05 bd 98 53 df bd
       -0.030952262 0.04842115 -0.032511223 -0.10904616
000010 ee fd 5e bd 82 d3 83 ba e1 7a d4 3c 50 41 d7 bd
       -0.054441385 -0.0010057541 0.0259375 -0.10510504
000020 c4 53 d2 bd 8e 76 f6 bd ed f3 9b 3b 65 3c bc bd
       -0.10269883 -0.12034331 0.004759303 -0.09191207
000030 81 ba 2d bd de ae fb bd 65 78 09 be 62 bc 2e 3c
       -0.042414192 -0.12289213 -0.13424833 0.010665031
000040 6a 89 88 3b e4 ba 83 3c bb 17 c5 bc 35 89 8b bc
       0.0041667717 0.016080327 -0.024059167 -0.017033199
000050 81 f4 59 3d 3a 73 de bc 04 e3 22 3d 59 14 c0 3c
       0.053211693 -0.027154554 0.03976728 0.023447203
000060 bb 88 6d 3d 2f 3b 6f 3c 66 7a d5 3b e3 fe 6a bd
       0.057991724 0.014601513 0.006514835 -0.057371985
000070 af d8 d8 3c 87 f1 02 bd 1e e2 17 bd 72 3e 69 bd
       0.02647051 -0.03196862 -0.037080877 -0.056944318
000080 f8 a5 8f bd b6 5c 02 be ad 3c 5d 3d 2a 08 3c 3c
       -0.07014078 -0.12730679 0.054012943 0.011476556
000090 d0 2a 42 3d 95 b1 d7 3d 54 eb 44 3d d4 48 a5 3c
       0.04740411 0.10531918 0.04807599 0.020176329
0000a0 53 65 c7 bc f4 82 9a 3d 29 ee 5f bd a8 98 9e 3d
       -0.024340307 0.075445086 -0.054670487 0.077439606
0000b0 c9 b9 0b be 0b 18 b3 bd cc 6d 32 3d 86 07 3b 3c
       -0.1364509 -0.0874482 0.04356174 0.011415368
0000c0 d8 e5 e8 bd 34 2d 98 bd 46 59 25 bc 14 9e 8a bd
       -0.11371964 -0.07430497 -0.010092085 -0.06768432
0000d0 8d 8e b7 bd 73 87 89 bd a8 c2 94 bc 75 a4 86 bd
       -0.08962736 -0.06715288 -0.018159226 -0.065743364
0000e0 65 1e f5 bd 9f a1 46 bd 2e ef 25 bd 82 2a f2 bd
       -0.11968688 -0.048493978 -0.040511303 -0.11824514
0000f0 1c fd 68 3d 72 b7 ed 3c a9 96 11 bd 1c 5c 89 3d
       0.05688201 0.029018138 -0.03554407 0.067070216
000100 ee 87 8c bc 7b ff 61 bb 64 97 6d bd 62 b5 16 be
       -0.01715466 -0.0034484554 -0.058005705 -0.1471763
000110 bc a1 0d 3b 38 2e 5c 3d e3 70 d6 bc 56 bf 9b bd
       0.0021611294 0.053755015 -0.026176875 -0.07604854
000120 96 52 86 3d 93 94 a9 bc 24 1a 67 bd 90 03 1c be
       0.06558721 -0.020700729 -0.056421414 -0.15235734
000130 ac 09 56 3d 13 02 97 bd 09 22 29 be 9d d5 d1 bc
       0.052255318 -0.073734425 -0.1651689 -0.025614554
000140 2b ef d7 bc 6e de ce 3d e9 63 70 bd 89 2c c0 bd
       -0.026359161 0.10101019 -0.05868903 -0.093834944
000150 44 0a c4 bc 43 10 ec ba f5 f6 a1 bd 6f 92 38 3d
       -0.023930676 -0.0018010217 -0.079084314 0.045061525
000160 c8 1b 10 bd 75 24 98 bd dc 19 15 3c dc 0f 9b 3d
       -0.035182744 -0.074288286 0.009100404 0.07571384
000170 fc 48 8c bd 47 4b 07 bd 98 7b c0 3a a3 f2 0d bd
       -0.06849858 -0.033030774 0.0014685271 -0.034655225
000180 a0 54 d2 bd e5 6b b4 bd c8 f2 c3 bd f0 81 16 3d
       -0.10270047 -0.08809642 -0.09567791 0.03674501
000190 d6 b7 3a bd 4b 7e c1 bd c3 03 43 bd 16 03 8b bb
       -0.045585476 -0.094479166 -0.04761101 -0.004242311
0001a0 bf 7f 4d 3d 3b 25 62 bd 30 2d 71 3c 2f c4 b1 3d
       0.050170656 -0.055211287 0.014720246 0.08679997
0001b0 56 54 95 bd 03 d6 e1 bd f0 cb da 3c a8 eb da bd
       -0.072914764 -0.110271476 0.026708573 -0.10689479
0001c0 0c 87 0e 3c 35 32 0b be 3b ce c8 bc 2d d1 89 bd
       0.00869919 -0.13593371 -0.0245124 -0.0672935
0001d0 da 34 0c be f7 70 14 be ac 6a 48 3c 15 11 a2 bd
       -0.13692036 -0.14496218 0.012232464 -0.079134144
0001e0 7a 0f 1e bd 86 c8 45 bd 27 de c1 bd 31 1e 5a bd
       -0.03858898 -0.048286937 -0.094662 -0.05325145
0001f0 3e 6f 2f bd c2 ab 0a 3e 68 9d af 3d 80 af d4 bd
       -0.0428307 0.13542083 0.08574945 -0.103850365
000200 33 39 f8 bd 09 e7 a1 bd 39 54 12 be 8d db 35 bd
       -0.12120285 -0.079053946 -0.14289941 -0.044398833
000210 0b a3 91 3c 25 64 8e bd b7 3d 25 bc 88 a0 f5 bd
       0.01777794 -0.06952695 -0.010085515 -0.119935095
000220 8e 87 e5 bd c0 cd f7 bd 83 75 04 bd d8 bf a4 bd
       -0.11207496 -0.120997906 -0.03233863 -0.08044404
000230 fe 12 9f bc 82 57 14 bd 20 1c 4c bd 00 32 08 be
       -0.019418236 -0.036216266 -0.04983151 -0.13300323
000240 2b 78 63 bd 4b a0 b8 bd cb cc c5 3c af b1 d3 bd
       -0.055534523 -0.090149485 0.024145504 -0.10336625
000250 3b 33 14 be 78 b9 61 bd 71 68 37 3c ec d3 0c bd
       -0.14472668 -0.055108517 0.011194334 -0.034381792
000260 09 e4 3c bd 85 11 24 bc 11 47 8f bc 21 82 b0 bd
       -0.04611591 -0.010013943 -0.017489942 -0.0861857
000270 95 92 41 bc 52 12 80 bd e2 e9 28 bd cb 30 0c 3d
       -0.011814733 -0.06253494 -0.041238673 0.03422622
000280 86 5f b9 bc e3 c8 b7 3c 18 7b 2d 3b 9d 4c 39 bd
       -0.022628557 0.022434657 0.0026471075 -0.04523908
000290 37 bb 06 bd 60 43 b2 3b d5 4f 21 bd e7 ea b3 bd
       -0.032893386 0.0054401606 -0.039382774 -0.087850384
0002a0 46 51 e0 3c 7e 8a 37 bd f8 ae 04 bd aa 1b 9b bd
       0.027382504 -0.04480981 -0.032393426 -0.07573636
0002b0 4b f8 ed bd 8d d3 07 bd 6b c8 e9 bd 3a ec e3 3b
       -0.11619624 -0.033160735 -0.1141518 0.0069556506
0002c0 87 38 02 be b4 ac 9e bc b1 bf f3 bc 9d f0 8c bd
       -0.12716876 -0.01936946 -0.029754492 -0.06881831
0002d0 94 55 b8 bb 78 3d cf bc 6d 6a 82 bd bb b3 a3 3c
       -0.005625436 -0.025297865 -0.06367955 0.019983163
0002e0 20 24 28 bd 5b 6e 01 be a5 8e 91 bd 38 95 32 bc
       -0.041050076 -0.12639754 -0.071072854 -0.010899834
0002f0 c9 fc a0 bd 2b 4f 16 bd ee 94 88 bd aa 92 c0 bd
       -0.07860715 -0.036696594 -0.06669031 -0.09402974
000300 9b e9 d2 bd a1 83 18 bc d2 da 1f bd 4c 99 f3 bd
       -0.10298463 -0.0093087265 -0.039027043 -0.118944734
000310 1c f2 85 bd 8f 1f 87 3b dc 88 f3 bd 09 69 88 bd
       -0.06540319 0.004123635 -0.11891338 -0.06660659
000320 67 1d 29 bb cb da d7 bd 1d fb cf bd e8 0e 55 39
       -0.0025804879 -0.10539778 -0.10155318 0.00020318816
000330 69 46 c0 bd b7 6c c2 3c 4d 69 c9 3c 29 c7 d1 bd
       -0.0938843 0.02373348 0.024586344 -0.10243065
000340 80 1b 90 bd 75 8d 01 be 08 e7 b9 bd 99 6e 85 bc
       -0.07036495 -0.12651618 -0.09077269 -0.016288089
000350 f2 de 64 bc b3 65 33 bd c9 d3 da bd c1 ad 82 bc
       -0.01396917 -0.04379816 -0.10684926 -0.015951993
000360 02 21 c5 bd e5 a1 e5 bb ff 65 87 bd 61 6a a7 3c
       -0.09625436 -0.0070078247 -0.06611251 0.020436468
000370 e0 1a 09 be 1c 53 a5 bd 7b 95 05 be b2 f1 ff bd
       -0.13389158 -0.080724925 -0.13045304 -0.124972716
000380 44 8a 7f bc 71 1d b6 bc 61 5c dc 39 fc ae ce bd
       -0.01559693 -0.022230836 0.00042030498 -0.10091969
000390 43 c9 a7 3b 87 ca 0e bd 22 c1 e4 bd bd 94 d4 bd
       0.005120428 -0.034861114 -0.1116965 -0.10379932
0003a0 33 bf cd bd 1f 9a 04 be ac 60 33 3c ee 22 87 3c
       -0.10046234 -0.12949418 0.010948341 0.016496148
0003b0 e8 3a 25 bd 15 08 b9 bc 8a c5 1b bd 03 1c ec bd
       -0.04033938 -0.022586862 -0.038030185 -0.1152878
0003c0 8b ba ab bd ca 95 20 3d f0 5a 6d bc 8f 22 d4 bd
       -0.083851896 0.03920535 -0.014487013 -0.10358154
0003d0 2f 65 f0 ba 90 9d d8 bd 7b 13 4c 3c 6b e4 0e be
       -0.0018340702 -0.10576928 0.012455816 -0.13954322
0003e0 4e d4 09 be 40 7b 25 bc 6b 34 c7 3c 04 7e 00 be
       -0.13459894 -0.010100186 0.024316987 -0.12548071
0003f0 25 92 d9 bd e3 f8 e7 bd 03 e3 6d 3b 8b 6e 54 3c
       -0.10623578 -0.11326768 0.003629864 0.012965809

mlp.2.bias f4 [128]
000000 93 4b ea bd 87 a1 e4 bd 7f 47 31 3e f6 c7 8d 3e
       -0.11440196 -0.111636214 0.1731243 0.2769162
000010 0f 77 d5 3a 07 bc 06 be 93 f8 d8 3c 64 89 81 bb
       0.0016286093 -0.13157664 0.026485717 -0.003953146
000020 05 12 b9 3c d4 5d 05 be 8a a7 2f 3e ad 37 9e bd
       0.0225916 -0.13024074 0.17153755 -0.07725463
000030 ff 46 81 3e db ab 47 3e 11 bb 82 bd d0 1c c0 bd
       0.25249478 0.19499151 -0.06383336 -0.093804955
000040 1d a0 6c bd 47 cb 06 bc 7a 86 8e 3d 32 48 26 bc
       -0.057769883 -0.008227176 0.06959243 -0.010149049
000050 30 35 99 3e c7 c3 af 3e 99 6a c5 3e 59 e4 04 be
       0.2992339 0.34329054 0.3855789 -0.12977733
000060 7e 80 d9 bd 45 a8 31 be 05 d6 2d 3d 00 99 f6 3d
       -0.10620211 -0.17349346 0.042440433 0.12040901
000070 eb 9c 12 bd 00 44 a9 3e 4c 98 f3 bd 98 ff 3b 3e
       -0.03579418 0.33059692 -0.11894283 0.1835922
000080 31 a0 81 bd 82 61 8c bc 8f 45 ab 3e 39 70 c0 3e
       -0.06329382 -0.01713634 0.33451506 0.3758562
000090 32 f4 13 3e b8 d2 71 3d 11 da d8 bc 1d 02 74 3e
       0.14448622 0.059038848 -0.02647117 0.23828931
0000a0 9a 1a b1 3e 14 d7 2d bd dd 1a ae bd 6a 17 06 3e
       0.34590608 -0.042441443 -0.085012175 0.1309487
0000b0 72 86 b2 bd 91 00 13 be 0e 9e e0 bd 73 c9 90 3e
       -0.0871705 -0.14355685 -0.109676465 0.28278694
0000c0 ff fa dc bd 2b dc 6f bd 2a 93 74 3c 70 24 00 3d
       -0.10790061 -0.058559578 0.014927665 0.03128475
0000d0 16 d2 78 3e 90 39 49 3e 86 45 ca bb 6d fd 2a 3c
       0.24298891 0.19650865 -0.0061728386 0.010436398
0000e0 1f 3f b2 bc 09 9a b3 3d 25 f0 58 bd 0b 77 8b bd
       -0.021758614 0.08769614 -0.052963395 -0.06809815
0000f0 d9 8c b4 bb df 22 54 3e 9c 31 63 3e 6c 60 ac 3d
       -0.0055099544 0.20716427 0.22186893 0.084168285
000100 83 4f 91 3e db 0a 30 3e 57 b0 88 bd 97 4a ca 3c
       0.28380975 0.17191641 -0.06674259 0.02469377
000110 31 f1 24 bd f1 cc 22 bd 1e 81 2a bc c5 e0 93 3e
       -0.04026908 -0.03974623 -0.0104067605 0.28882423
000120 9b 63 87 3d f6 c8 57 bd 8b 30 98 bd b0 66 d7 bb
       0.06610795 -0.052681886 -0.07431134 -0.0065735206
000130 8b 38 64 3e 5b d6 9e 3e 14 96 9a 3d 06 c0 f9 bd
       0.22287194 0.31022915 0.075481564 -0.12194829
000140 1c 25 76 3c ea 5d 47 3d f3 b4 92 3c 0a 4e 83 bd
       0.015023496 0.048673548 0.017908549 -0.06411369
000150 9f fe 92 3d 74 85 f5 bd f5 08 d7 3c 6e 62 12 be
       0.07177471 -0.11988345 0.026249388 -0.1429536
000160 0b 04 8a 3e 21 43 56 3e 2c 92 fe bd 8c d1 1b 3e
       0.2695621 0.20924045 -0.12430224 0.15216655
000170 0e a7 1f bd 0d 58 10 bd b4 d8 93 bc c7 8e c2 3c
       -0.038977675 -0.03524022 -0.018047668 0.023749722
000180 4b 68 ef 3c 24 a6 81 bd 0d 75 e5 bb e2 69 ae bc
       0.029224535 -0.06330517 -0.007002479 -0.021290723
000190 6c d3 8b bd ea 4a d5 3b 82 5a 10 be 40 f3 5e bd
       -0.06827435 0.0065091746 -0.14097026 -0.0544312
0001a0 82 f5 c8 3d 76 58 23 bc 15 86 6e 3e 08 ee 73 3d
       0.09812452 -0.009969821 0.23293336 0.059553176
0001b0 23 17 bb 3e 0c eb 83 3e 8f 7c 4a bd fe c1 10 3e
       0.3654109 0.25765264 -0.049435195 0.14136502
0001c0 23 ee 2a 3d a3 2f ac bd d5 c2 1c 3e 10 c9 68 be
       0.04173101 -0.084075235 0.15308698 -0.2273295
0001d0 3a 31 57 bc 92 f6 8e 3e b8 5a 96 bd 1e 05 41 3e
       -0.013134295 0.27922493 -0.07341522 0.18849608
0001e0 31 55 be bd ae d3 1f 3e 50 ed db bc d4 da a6 3d
       -0.09293593 0.15608093 -0.026846558 0.08147207
0001f0 9e 2e 8a bd ce 97 f1 bd 88 87 93 bd 0c 08 52 bc
       -0.06747173 -0.117965326 -0.07203585 -0.012819301

mlp.4.weight f4 [3, 128]
000000 f5 a2 c2 3d 6e cb e2 3c 47 47 77 3d 2b 50 e6 bb
       0.09503738 0.027684893 0.06037071 -0.0070285997
000010 16 95 b0 3d 55 b6 42 3d a7 3b f0 bb 22 e3 00 3e
       0.08622186 0.047537167 -0.00733133 0.12586644
000020 79 68 ef 3b 54 51 4f 3d 1c b4 ce 3d 1b 3e 0a 3d
       0.0073061553 0.05061467 0.10092947 0.033750635
000030 bd 85 9f bc 1d 8c 8f 3b f0 f2 6e 3d 7e 83 71 3c
       -0.019472951 0.0043807165 0.058337152 0.014740823
000040 72 0f 7f 3d f6 3a cc bc 5e 33 50 3d e7 13 35 b8
       0.06227059 -0.024930459 0.050830238 -4.31723e-05
000050 b4 61 fd 3d dd 47 02 3e 22 04 19 3e be c8 0f 3d
       0.12372151 0.12722726 0.14942983 0.035103552
000060 6c 77 96 3c 23 ef b9 3d 88 0f ba 3c 18 cd a2 3d
       0.018367492 0.09078815 0.022712484 0.07949275
000070 e9 43 da 3d 73 cb 05 3e 7c 4c 16 bd 41 40 0c be
       0.10657484 0.13065891 -0.036694035 -0.13696386
000080 26 cd 7b 3c 98 98 3b bd 5e 8a ef 3d d2 ad 39 3e
       0.015368735 -0.04579982 0.11696313 0.18132713
000090 b5 eb 89 bc 66 ac af bd a8 78 b3 3d 7f e8 36 3e
       -0.016836027 -0.08577804 0.08763248 0.17862128
0000a0 e2 63 e2 3d a4 38 fc 3c b2 1d 98 3d 9a 60 94 3c
       0.110542074 0.030788727 0.07427539 0.01811247
0000b0 a0 bb 55 3c 0a 8a 5b 3d 88 bb 35 3d 0b e2 17 3e
       0.013045222 0.05359844 0.044368297 0.14832322
0000c0 71 a4 e6 3d 3a 0d 2d 3c b0 3f 08 3d d2 48 85 3d
       0.112618335 0.0105622355 0.033263862 0.0650803
0000d0 66 46 ae 3d 12 52 f7 3d 2a d2 df bb a0 62 e8 3c
       0.08509521 0.120762005 -0.0068304734 0.02836734
0000e0 d0 9d 17 bd 5c 7e 48 3d f3 9a 10 3c 5c 09 ab 3c
       -0.037015736 0.04894863 0.008826005 0.020878486
0000f0 c9 f7 67 bc 49 e3 b4 bb ca 97 d4 3b 3f 5f 00 be
       -0.014158198 -0.0055202586 0.006487821 -0.12536334
000100 ce 43 21 3d 92 78 30 3e ec 76 c4 3d a2 eb 82 3d
       0.039371304 0.17233494 0.09592995 0.063926
000110 77 8e b3 3c 70 3b be 3e 1c b0 11 bc bf 74 f5 3d
       0.021918518 0.37154722 -0.008892085 0.11985158
000120 49 84 cc 3d f2 50 ea 3c b8 71 0b 3d c2 ec 61 3b
       0.09986169 0.02860305 0.034043998 0.0034473394
000130 1e e2 88 3d 4a a8 0c 3e 6f 2d 23 3d cd e5 0e 3d
       0.066837534 0.13736072 0.03983825 0.034887124
000140 c4 28 47 3c b8 52 5d 3e 48 0c c0 bc 73 58 01 3e
       0.012155715 0.21613586 -0.023443356 0.12631397
000150 ec ae 98 3d 43 3b 98 3c 74 e1 a9 3d 62 ff fa 3b
       0.07455239 0.018582946 0.08294955 0.0076598385
000160 8c 86 c2 3d 55 56 9f 3d 8c 3a b2 bb 5f 32 90 3d
       0.09498319 0.077801384 -0.0054391082 0.070408575
000170 11 d6 0c 3d be 5a c9 3d 46 a6 81 bc 90 55 b4 bc
       0.034383837 0.09831761 -0.015826356 -0.022013456
000180 21 9c f2 3c 2c 60 af 3b e2 7e 89 bb 21 b1 12 bc
       0.029615464 0.0053520408 -0.004196034 -0.008953364
000190 a6 e3 ed 3c 77 5a 98 3c 32 2d 3c 3c a1 c1 26 bd
       0.029039215 0.018597824 0.011485385 -0.040712003
0001a0 8e 57 a2 3c 10 53 73 3d 1b 43 b4 3d 79 fe be 3b
       0.01981714 0.059405386 0.08801862 0.0058286753
0001b0 54 a9 ba 3d f8 5c 6d 3d f8 33 1d ba 32 79 8a 3d
       0.09114328 0.05794999 -0.00059968187 0.067613974
0001c0 c6 ef 38 bd 05 37 f6 3b cd 44 06 be d6 42 05 3e
       -0.04515054 0.007513883 -0.13112183 0.13013777
0001d0 1a 11 9a bc 78 66 0b 3d 1e 98 07 3d ce 9a 94 bb
       -0.018806983 0.03403327 0.033104055 -0.0045350557
0001e0 d9 de 1c 3b 34 9b 93 3d 90 7d dd 3c a3 fa de 3e
       0.0023936538 0.07207337 0.027037412 0.43550596
0001f0 28 17 bb 3c ff 90 be bc 08 53 23 3b db c6 27 3d
       0.02283819 -0.023262499 0.0024921317 0.040961128
000200 1f 43 44 3c 9a f4 c6 3d 28 f5 fd 3b 6b fe ec 3d
       0.011978894 0.09714623 0.007750172 0.11571964
000210 05 46 6d bc 38 e7 85 3d d7 6c 05 3e 43 b3 0d 3e
       -0.014482026 0.06538242 0.130298 0.13837914
000220 40 14 cd 3d 27 40 8c 3d 7d ed 8a b9 5b d3 15 3b
       0.10013628 0.068481736 -0.00026498354 0.0022861573
000230 54 ac b2 bd 83 ab f3 3c 4d a2 c2 3d d3 64 91 3d
       -0.08724275 0.02974487 0.09503613 0.07099309
000240 21 09 72 ba 20 bd c0 3d c7 f2 55 be 0a b7 10 3e
       -0.00092329277 0.09411073 -0.20893393 0.14132324
000250 e4 f8 55 3c 2a 50 a7 3b 66 c1 e0 bb f7 02 6d 3c
       0.013059828 0.005105992 -0.0068589924 0.014466039
000260 10 e2 d5 bc 8e 9d 70 3c 5f b2 b5 bc 2d e5 75 3a
       -0.026108772 0.014686001 -0.02217978 0.0009380158
000270 ba b1 33 3d de 2c 82 3c 91 90 8e bd dd 0b 26 3d
       0.043870665 0.015890535 -0.069611676 0.040538657
000280 45 01 b9 3d 74 29 91 bd 8d cc 0e 3c 3d 5b 1f 3d
       0.09033445 -0.07087985 0.008715761 0.03890537
000290 63 c6 48 bd d8 0c 80 3c 55 1d d4 3d dc 7e 08 bb
       -0.04901732 0.015631124 0.10357157 -0.0020827567
0002a0 17 cf 02 3d 51 d1 6f 3d 00 d5 d2 3d ad 6d 2d 3e
       0.031935778 0.05854923 0.10294533 0.16936369
0002b0 6b 6a 51 bc 30 c0 97 bd 8f 98 e1 bd 52 93 f5 3c
       -0.01278172 -0.07409704 -0.11015426 0.029977474
0002c0 3f 61 0b 3e 57 5d da 3d bb d7 93 bc 06 b8 84 3c
       0.13611315 0.106623344 -0.018047204 0.01620103
0002d0 55 02 c1 3c 8d 5d 3c bd dc e8 15 bb 12 de 1b 3d
       0.023560682 -0.045987654 -0.002287439 0.03805358
0002e0 f5 2a 8c bc aa 37 9a 3d 08 fd 8b 3d e6 54 da bb
       -0.017110327 0.07530148 0.06835371 -0.0066629527
0002f0 f5 6b b5 3b d4 bd 87 be 64 fa af bb 8a 7c 12 be
       0.005536551 -0.26512015 -0.005370425 -0.1430532
000300 9b 20 33 3d a5 63 9b 3d ac b0 ab 3c eb 4c 97 3d
       0.043732267 0.07587365 0.020958267 0.07387718
000310 a2 c3 85 3d dc 22 2c be 10 81 08 3e 3b 47 30 3c
       0.065314546 -0.16810173 0.13330483 0.01075917
000320 1e 92 90 3c 98 e8 84 bd 71 ea 20 3d 9b b2 27 ba
       0.0176478 -0.06489676 0.03928608 -0.0006397159
000330 84 06 1b 3d 30 84 1d bc 8c 59 1c bb 35 d7 7c bd
       0.03784801 -0.0096140355 -0.0023857085 -0.061728675
000340 ec ed ce 3d f7 7e b2 39 5f a3 06 3e 6f 53 04 3d
       0.10103974 0.00034045402 0.13148259 0.03230613
000350 9a 71 81 3c e9 ba 08 3e ac 6c 1b bd 84 17 bb bc
       0.01580124 0.1335255 -0.037945434 -0.022838362
000360 64 e2 05 bd ae d1 bf 3d 59 43 93 bd 8b 15 98 3e
       -0.032686606 0.09366165 -0.0719058 0.29703936
000370 fc 95 36 3d 0b 21 62 bc 32 f7 9b 3d 2b 68 75 bc
       0.04457663 -0.013801823 0.07615508 -0.014978449
000380 f0 ac 3c 3e d4 a8 a5 3d cc f6 22 bb c5 bd 61 3d
       0.18425345 0.08088842 -0.002486634 0.05511262
000390 76 b1 81 3d bb 2e 18 bc e4 56 0e 3d c0 ca 18 3b
       0.06332676 -0.009288485 0.034750834 0.0023314208
0003a0 87 29 8e bd 0a 01 e0 bc 70 ff 80 3d b6 e0 6e be
       -0.069415145 -0.027344245 0.06298721 -0.23327908
0003b0 dd 5b 89 3c dd df 04 3d 10 a5 c3 3d fb 88 d2 3b
       0.016767437 0.032440055 0.095529675 0.0064250208
0003c0 3c e1 8a 3d b6 6e 82 3d 9f cc ed be 82 d9 67 be
       0.06781241 0.06368773 -0.46445176 -0.22641566
0003d0 50 10 91 3c 3a 64 9c be 3d 99 74 3d 42 24 65 bd
       0.017707974 -0.30545217 0.059716452 -0.05594278
0003e0 95 00 fb 3d 6e b1 cb 3e 83 5f be 3d 56 3a 48 3d
       0.122559704 0.39783806 0.09295561 0.04888376
0003f0 b2 c0 2d bd 0e bb ea 3d 4c d6 13 3e 2f ec fc 3b
       -0.042420097 0.11461459 0.14437217 0.007718585

mlp.4.bias f4 [3]
000000 52 a3 a7 3e 37 dd bc 3a eb e1 d8 be
       0.3274179 0.0014409189 -0.42359862
