EUSIPCO/Nested Array noisy position/saved_models/rnn_10dB_nested_6.pth (torch, 87890 bytes, 14 tensors)

bn.weight f4 [16]
00000000: b3a6 533f a814 6d3f d8e1 7f3f 9b5b 593f
00000010: 5543 4f3f 87cf b13e 3f6d 643e 43f4 6e3e
00000020: 3b4d 643f eed6 883f 12e8 883f ddda 6c3f
00000030: 1a2b 623f e0de ee3e a136 6c3e 6383 4a3e
0.8267624 0.92609644 0.99953985 0.84905404 0.80962116 0.34728643 0.22307299 0.23335366
0.89180344 1.0690591 1.0695822 0.9252146 0.8834702 0.46654415 0.23067714 0.19776683

bn.bias f4 [16]
00000000: f857 093e 3a2a ebbc 9725 ffbc a5e9 523e
00000010: f35d 67bd 2324 0dbb f438 04bd 74ea 163d
00000020: 1b58 51bd 8aa3 f9bd cef6 933e 955a c93b
00000030: 320f 82be 08ac e13c a588 cfbc 4c7a 033e
0.13412464 -0.028706659 -0.031145854 0.20596941 -0.05648608 -0.0021536432 -0.032280877 0.036844686
-0.051109415 -0.12189396 0.28899235 0.0061448314 -0.25402218 0.027547851 -0.025333712 0.12839621

bn.running_mean f4 [16]
00000000: 60fe a13a 7fa9 763a 6e8a cbb9 203c 9f38
00000010: 4a8e caba 7868 623a 9d1b edb9 cb6f 893a
00000020: dbe7 cfb8 7bd9 a2ba f3ea 563a 7407 6aba
00000030: 1f4e 73ba a684 92b8 9179 17bb 8075 c23a
0.0012359135 0.0009409412 -0.00038822315 7.59291e-05 -0.0015453782 0.0008636783 -0.00045224736 0.0010485587
-9.9137156e-05 -0.0012424433 0.00081984623 -0.0008927502 -0.00092813553 -6.98653e-05 -0.002311323 0.0014836043

bn.running_var f4 [16]
00000000: 8d6e c63f fb5f c63f 45af c63f f1e9 c53f
00000010: 0f59 c63f 9271 c63f d32d c63f eb38 c63f
00000020: c740 c63f 6c24 c63f c42a c63f 1e8a c63f
00000030: e075 c63f eb17 c63f 87a3 c53f ff7a c63f
1.5502487 1.5498041 1.5522238 1.5462018 1.5495929 1.5503409 1.5482734 1.548612
1.5488518 1.5479865 1.5481801 1.55109 1.5504723 1.5476049 1.544053 1.5506285

rnn.weight_ih_l0 f4 [48, 16]
00000000: ca8d 053f aa29 983e 8042 a1bc d2f3 73be
00000010: fd4a 233f 640c 31bd 613a a63f 9efd cdbf
00000020: 2833 22bc c04e 68bf 59f2 45bf 9300 7cbe
00000030: 9503 20bd c8a4 283e 6a12 28bf b9d9 7a3e
00000040: ba67 fe3e 76df 6dbe 0bc9 4ebf fcb3 37bf
00000050: f9eb 24bf d08a adbe 4d26 7d3e 859e e9bd
00000060: 462b 553f 6b57 d6be 4a5c b2be 6061 34be
00000070: fd70 30be 14e8 a73e 4070 d73d 0963 8abd
00000080: 9298 2bbf 817e c7bb f7bc a0bd 9a0d 90bd
00000090: 2bf8 ea3e 33a8 bd3e 9022 d6be 2987 7c3f
000000a0: 0c55 02bf ba0f 653e a19b 5bbe e5cb 76be
000000b0: bbb8 d1bd 3ae5 9abe 356d 083f feb2 4abf
000000c0: 509a 6cbf 3a39 33bf ffa0 edbd 0d84 313c
000000d0: 0132 293f 49d5 363e 7d56 93be 83f2 e0bd
000000e0: 5ffa e8be f480 4ebe 6d84 37bd 52b7 6abf
000000f0: aff6 493d 6909 883e 8c1c b53e 69cf 233c
00000100: ac51 db3e 57ce 47bf b4bb 703e 7e3e 1bbf
00000110: 4e55 7c3f 37e7 ab3e 86c5 803f 87bc e7bf
00000120: 8362 7cbf e765 033d 45c8 a23e 85c3 a9bd
00000130: 5e6f 2d3c 9722 e0bd aacc adbe 86f0 e43d
00000140: 1495 8e3e 3e30 9c3e 0762 943e b6f4 c7be
00000150: a63f 983c 3e51 843f 6cdb bcbe 7e18 fe3e
00000160: 052b 3d3f ef64 253e fbb8 393f 1132 e73f
00000170: a901 ee3e 2385 3cbf ba84 f23e bb17 1c3e
00000180: 7141 133f a8d3 d83e 91ae 5d3f 6a47 89bd
00000190: d55d 37bf 6f11 81bd a76b cb3e 2650 55be
000001a0: 8724 003e 5c04 1ebf 0368 4abe 5f6e c7be
000001b0: f2e9 203e b9ca c0bd a1d9 0abe bb54 d4be
000001c0: 1230 3abe f4f4 84be cb0b 563f 03dc 07bf
000001d0: fd85 dbbe 6282 e33d be06 d3be 21e8 15bd
000001e0: 9f68 bfbe 5ac5 1cbf b482 923f 9d61 063f
000001f0: 2944 8f3d 81bb d8be c74d f13e 58e7 ce3c
00000200: a0c4 293e 34a0 3c3f 5159 763e 8de6 833e
00000210: 83ee d8bd 9e78 e23d 4d34 913e 555c 24bd
00000220: 712f d8bc b6e2 183d 4c54 4fbe e8d3 aa3e
00000230: 833c c73e daa7 b9bd 6ed1 8c3e 9367 d0be
00000240: 1cf2 913e 36b7 47bf 46d9 03bf e46c 29be
00000250: 0156 69bd 921e 953f 9613 15bf ae2b 3a3e
00000260: c5b6 0b3f 54d1 273f 9a38 09bd a014 013f
00000270: ff7c 503f 6d7c 573f 1de6 a7be 260b b8be
00000280: f112 c8be a4be 223f ca17 7cbe 3aae 193f
00000290: dd25 0bbf 6b00 3fbe e746 76be b54c a1be
000002a0: 6c16 89bf 4e74 c53e d530 cb3d 3011 78bf
000002b0: 9217 483f 94d7 0640 c3c5 76bf a869 1abf
000002c0: 0bae 09bf 1905 d83e 35e3 a23d 6a3e b8bf
000002d0: 0599 423d 6ff1 9a3e c6d8 6d3a ca60 94bd
000002e0: 9072 92be 7142 e23e dd64 093e b4d4 04bf
000002f0: 6817 f5be 1927 df3a 1dce d3be 858f c5be
00000300: 5a15 d73e 518b f4be b640 15be eecb 4c3f
00000310: 4aa8 acbf 44f7 3d3a 6d2f fcbe 7dc8 7abd
00000320: ad84 7b3e 2f30 92be e6a5 373f 90a8 fabe
00000330: 43cd e53d ef79 d13f 9277 a6bf 91dc ff3e
00000340: b933 003f 5af4 53be c0bb ca3e c5f2 93be
00000350: 2702 dbbe 5cc6 a43d 0ea3 02bf da69 11be
00000360: f624 febe c3c1 5d3e 41db 4fbe 831c 053f
00000370: f15c cebe 3842 bfbe e836 a03f 6228 5c3d
00000380: b58b 0abf e7af b8be 8771 27be b0a9 223e
00000390: 1c5b f03d 6c26 553f 063e b8bf 81f4 473f
000003a0: bac5 f63e 4588 77be c45b 22bf b052 99bd
000003b0: d6e9 c1be df4d 1abf f8a7 bbbe e2b3 d03c
000003c0: 61a5 dbbe e699 ce3e 9309 f03e b7ff 00bf
000003d0: 24c0 513f e33a c13f 67d7 88bf 9f13 a23e
000003e0: 23c4 08be ccec 343e 1c84 12bf cdfe babd
000003f0: 4a02 e33e 3a6e 20be dd11 3bbe 15a4 f63c
0.5216948 0.29719287 -0.01968503 -0.23823479 0.637863 -0.043224707 1.2986566 -1.6093023
-0.009899892 -0.9074516 -0.7732292 -0.24609594 -0.039065916 0.16469109 -0.656531 0.24497117
0.49688512 -0.23229775 -0.8077552 -0.7175901 -0.64422566 -0.33894968 0.24721642 -0.11407188
0.83269155 -0.4186357 -0.34836036 -0.1761527 -0.17230602 0.3279425 0.10519457 -0.06757171
-0.6702968 -0.0060880785 -0.07848542 -0.07033844 0.45892462 0.37042388 -0.41823244 0.9864374
-0.5091102 0.2236928 -0.21446086 -0.24101217 -0.10240313 -0.3025301 0.53291637 -0.7917937
-0.9242296 -0.70009196 -0.11602973 0.010834706 0.66091925 0.178548 -0.28776923 -0.109837554
-0.45503518 -0.20166379 -0.044804025 -0.91685975 0.04930752 0.2656968 0.35373342 0.009998181
0.42835748 -0.78049225 0.23509103 -0.6064223 0.98567665 0.3357484 1.0060279 -1.8104409
-0.98587817 0.032079604 0.3179342 -0.082892455 0.010585634 -0.109440975 -0.3394521 0.11178689
0.27848113 0.30505556 0.2898104 -0.39053887 0.018585037 1.0337293 -0.36886156 0.4962806
0.7389377 0.16151784 0.7254788 1.8062154 0.46485642 -0.7364065 0.47366887 0.15243427
0.5752173 0.4234898 0.8659449 -0.06703074 -0.7162755 -0.06302153 0.3973057 -0.20831355
0.12513934 -0.617254 -0.1976624 -0.38951394 0.15714243 -0.09413666 -0.13559581 -0.41470894
-0.181824 -0.25968134 0.83611745 -0.53070086 -0.42875662 0.11108853 -0.4121608 -0.03659833
-0.37384507 -0.61238635 1.1446137 0.52492696 0.069954224 -0.42330554 0.47129652 0.025256798
0.16578913 0.7368195 0.24057509 0.25761834 -0.105923675 0.11058162 0.28360215 -0.040127117
-0.02638981 0.037325583 -0.20247 0.33364797 0.38913354 -0.09065218 0.27503532 -0.4070402
0.28505027 -0.7801393 -0.5150341 -0.16545445 -0.056966785 1.1649954 -0.5823301 0.18180725
0.5457576 0.65553784 -0.033501245 0.50422096 0.8144073 0.84174234 -0.3279275 -0.35946006
-0.3907695 0.63572145 -0.2461845 0.60031474 -0.5435465 -0.18652503 -0.24050485 -0.31503835
-1.0709968 0.38565296 0.09921423 -0.96901226 0.78160965 2.1069078 -0.9639551 -0.6031747
-0.53781193 0.4219139 0.079534926 -1.4394047 0.047509212 0.30262324 0.0009073134 -0.072450235
-0.2860303 0.44191316 0.13417383 -0.5188706 -0.4786942 0.0017025202 -0.4136819 -0.3858606
0.42008477 -0.4776254 -0.14575467 0.7999867 -1.3488858 0.0007246623 -0.49254933 -0.061226357
0.2456233 -0.28552386 0.71737516 -0.48956728 0.11220791 1.6365336 -1.300524 0.49972966
0.5007892 -0.20698681 0.39596367 -0.28896156 -0.4277508 0.080456465 -0.5103005 -0.14200535
-0.49637574 0.21655945 -0.20298482 0.5199663 -0.40305284 -0.37355208 1.2516756 0.05374945
-0.54119426 -0.36071703 -0.16351901 0.15885043 0.11736128 0.8326175 -1.4393928 0.7810746
0.48197728 -0.24173076 -0.63421273 -0.074864745 -0.37873715 -0.6027507 -0.36651587 0.0254764
-0.42899612 0.4035179 0.46882305 -0.5039019 0.8193381 1.5096096 -1.0690736 0.31655595
-0.1335607 0.17668456 -0.5723283 -0.09130631 0.44337684 -0.15667048 -0.18268533 0.030107537

rnn.weight_hh_l0 f4 [48, 16]
00000000: abf4 00bc cf74 95bd 3c9d b1bc 3f4e 323f
00000010: e9a5 b43d 4b45 613e 4a46 113f 351a 6abe
00000020: a690 413c 8931 79bd 535d bc3e 554f c73d
00000030: 8dd2 023f 8a1d ed3d e795 3e3e c419 63be
00000040: 4008 203f b349 5e3e 9f26 15be 768e e43e
00000050: 0369 48bf b8fb 19bf 7c8c e63e af1e 41be
00000060: 2655 533f e15e 403e 7e78 0cbf 083a 6cbe
00000070: f7a6 ba3e 0a2b 25be b2ef 333c c6c6 f63d
00000080: 57e7 c6bd 387b f93e 1b8c a2bd f276 76be
00000090: 3f4f 33be a046 bebd b4bb 603e 3ed9 07be
000000a0: 5c94 403f 5c60 32bd 0359 c3be 2890 0bbf
000000b0: 642a 023f a793 31bf b931 d1bc 8eec d83c
000000c0: 3d3e 0a3e 44b1 21be 3feb 323e cbc4 833e
000000d0: e80e ddbe 4324 23bd 9a98 d0bd 5706 c8bd
000000e0: 23f8 3e3e bfa0 e13e 21bb 1fbd 9f67 d7bd
000000f0: 168d c03e 986b adbe 7062 723e 737f 5cbe
00000100: c7c5 d1be 9158 d0bc ed03 a2bb 538d b73d
00000110: 73cf be3e df9d ab3e 0d26 0fbf 6545 643f
00000120: ddb2 9b3e ef33 763e acde 22bf ddfa d03e
00000130: 0b22 403e 9448 723e 4af0 2e3f 7c15 14bf
00000140: 02cc adbe a865 ed3e 0947 22be 02b0 923e
00000150: af48 de3d ccc3 0fbe 0d27 623f 9ac6 85be
00000160: 9dd2 31be 4e46 a6be f335 58be 111e 1a3d
00000170: 8686 bc3c e96e ddbd 318f 68be acad 203e
00000180: 7d2a 8abe dcb6 b2bc 0dba cd3d 509e 503d
00000190: c13d 88bd 1154 9dbe a0c5 723e a5ab 4cbe
000001a0: b531 16be 103f 113e 6e9b 093e 6040 89bd
000001b0: 1ddf 713d 57fa 04bf 58a9 8c3d c424 ef3e
000001c0: 1767 a2be eb6e 5a3e 2d01 08bf 73c1 7a3e
000001d0: 7cde b63d da43 063d dc50 b93e 3217 bebe
000001e0: 0e36 953e de91 64be 448a ec3d e08e af3e
000001f0: 6cd0 80be 2268 b0be 611e 2bbe 3b62 f2bb
00000200: 9cd5 8cbe c37e fe3e 53c0 ea3e 68c9 af3b
00000210: 0e53 8dbe 327d cabd 6779 b1bc 3c5d fd3d
00000220: 2b40 fe3e c518 9abe 68d9 43bf d84e 583e
00000230: c956 5bbe 9a0a e5bd 0185 5ebe e07f 233f
00000240: 5734 e5be f424 0a3d 1297 b8bd 6e6e b23d
00000250: 33fd 823d a5e1 8e3e d73d ba3e b7a7 e7bd
00000260: 246a 563e 48b6 e4bd c1a5 1f3d eadc 3f3f
00000270: bd5a 023f 504f 95be b654 343e 4469 823e
00000280: 1181 9a3d 6395 1cbf 8d97 18bf ac80 723e
00000290: 5028 873e c97a 833a 73a3 a7bc 988d 8fbc
000002a0: 5634 653e 8ea4 15be b9e8 713f 7f82 273e
000002b0: 07cf c33c 9d04 bc3d f600 b23e 008c 42be
000002c0: d088 90bd b2a9 143c 9c88 293f a8b3 04be
000002d0: 3d3b 493d 0f7b 68bf 78ce 3a3f ca41 f73e
000002e0: 96ae 893e 11f7 573f 6392 58bf ab76 24be
000002f0: 7c7c ce3e a07f bbbd 6929 eabd 0989 f13e
00000300: e661 a2be dd3b d03e 5a68 933d da0b b0bd
00000310: 5572 47bb 68c6 8d3e addb 37be 5429 dfbd
00000320: 533f 5abe e891 d03d c832 243f 2e9d fabd
00000330: 3ebc c63e 6dce 23bf d9fd 983e e29c 383f
00000340: 157a fc3c 48ee ffbd 8db2 ccbe b99c bb3d
00000350: e324 bd3d fd46 61bd d5fa 2dbd 515d 4cbe
00000360: d710 84be a002 1e3e 011e e73e 7d55 f6be
00000370: 5871 6b3e cbde 18be c08f 98be c060 fd3e
00000380: 7c35 2bbe 9249 833f 292a c13e 51d1 90be
00000390: a245 abbe 2a14 5c3e 9490 253f 0ae6 fa3e
000003a0: ecae 5b3f dec6 95bf af46 babf 3567 963e
000003b0: 2caf aabe 5457 d0be 945b b1bc efc2 d83e
000003c0: 8e24 3d3b 43ec f03e d601 26bf a69d b13d
000003d0: 8b72 1f3f 97df 5abc 5f21 833e dea3 21be
000003e0: 7d7d d9bd 8dd5 1d3f 65d1 06bf d952 113e
000003f0: 55b7 1f3f 8d18 56be 2704 d3be f0e5 1f3f
-0.007870833 -0.0729767 -0.02168142 0.69650644 0.08820707 0.2199909 0.5674788 -0.2286156
0.011814272 -0.060838256 0.3678995 0.09731928 0.51102525 0.115779 0.1861187 -0.22177798
0.6251259 0.21707802 -0.14565514 0.4463994 -0.78285235 -0.6014972 0.45029056 -0.18859361
0.825518 0.18786193 -0.54871356 -0.23069012 0.3645551 -0.161297 0.010982441 0.12049632
-0.09712093 0.4872682 -0.07936879 -0.24068812 -0.17510699 -0.092908144 0.21946603 -0.13266465
0.7522638 -0.043548927 -0.38153848 -0.5451684 0.5084593 -0.69365925 -0.025536405 0.026479986
0.13500305 -0.15790278 0.17472552 0.2573608 -0.43175435 -0.039829504 -0.101853564 -0.09766834
0.18649344 0.44067952 -0.03899682 -0.10517811 0.3760764 -0.3387115 0.23670363 -0.21532993
-0.40971205 -0.025432857 -0.0049443156 0.08962502 0.37267646 0.33518884 -0.55917436 0.8916839
0.304099 0.24043249 -0.6362102 0.40816393 0.18762986 0.23660499 0.683354 -0.5784528
-0.33944708 0.4636662 -0.1584741 0.28649908 0.10853707 -0.14039534 0.88340837 -0.26128083
-0.17365499 -0.32475513 -0.2111433 0.03762633 0.023013365 -0.1081217 -0.22710873 0.1569125
-0.2698554 -0.02181571 0.10045252 0.05093223 -0.066524036 -0.307282 0.237082 -0.19987352
-0.14667399 0.14184213 0.13438198 -0.06701732 0.059050668 -0.5194449 0.06868237 0.46707737
-0.31719276 0.21331374 -0.53126794 0.24487858 0.08929154 0.032779552 0.36194503 -0.37127072
0.29142803 -0.22321269 0.115498096 0.34288692 -0.25159013 -0.34454447 -0.16710807 -0.007396964
-0.2750672 0.49706087 0.45849857 0.0053645857 -0.27602428 -0.0988716 -0.021664334 0.12371299
0.4965833 -0.30097023 -0.7650361 0.21123827 -0.21419825 -0.11183663 -0.21730424 0.63866997
-0.44766495 0.033726647 -0.090131894 0.08712469 0.0639595 0.27906528 0.36375305 -0.11311286
0.20938927 -0.1116758 0.038976435 0.74946463 0.50919706 -0.29162073 0.1761044 0.25470936
0.07544149 -0.61165446 -0.5960625 0.23681897 0.26397943 0.00100311 -0.02046368 -0.017523572
0.22383246 -0.14613554 0.9449573 0.16358374 0.02390243 0.091805674 0.34766358 -0.18998718
-0.07057345 0.009073662 0.66224074 -0.12959158 0.04912876 -0.9081277 0.72971296 0.4829238
0.2689101 0.8436137 -0.8459837 -0.16060893 0.4032935 -0.09155202 -0.114336796 0.47174862
-0.31715316 0.40670672 0.07197638 -0.085960105 -0.0030433137 0.27690434 -0.17954893 -0.108965546
-0.21313219 0.101840794 0.64139986 -0.12237011 0.38815492 -0.63986856 0.2988117 0.72114384
0.030819932 -0.124966204 -0.39979973 0.09160752 0.09235551 -0.05499934 -0.04247554 -0.19957472
-0.25794098 0.15430689 0.4514008 -0.48112097 0.22992456 -0.14928739 -0.29797173 0.49487877
-0.16719621 1.0256827 0.37727478 -0.28284696 -0.33451563 0.21492067 0.64673734 0.4900363
0.85813785 -1.1701314 -1.4552821 0.29375616 -0.3333677 -0.40691626 -0.021650113 0.42336223
0.00288609 0.47055253 -0.6484655 0.08672647 0.62284154 -0.013358972 0.25611398 -0.15785167
-0.10619638 0.6165398 -0.5266326 0.1419176 0.6238912 -0.20907803 -0.41214105 0.6246023

rnn.bias_ih_l0 f4 [48]
00000000: fd40 28be 3b00 35be 965e 0b3e ea91 edbd
00000010: d214 e0be 7bfe 003e 036f 8c3d bac3 95be
00000020: b176 5fbe c054 683d 8822 c4be 7e51 d5be
00000030: c488 7b3d 5824 04be d78b 4d3e 8fe6 48bd
00000040: 687d ae3f 8e48 8f3f a59c 643f 37f2 ac3f
00000050: b2e3 a33f 4ccb a83f 681b a93f bf02 d13f
00000060: aace a93f a9db 833f 94cb 813f 05e8 be3f
00000070: 4106 9a3f a7a7 b03f 2dc4 b03f b5af 633f
00000080: 380c 863e 0ab4 2bbe d9a3 193c 0631 683d
00000090: f3fd a9bd be4e 08be 988f 493e d40c 37be
000000a0: 5385 ebbd 8ca3 823b 6d39 103e e08c f5bb
000000b0: 28e1 413e e2a0 2fbe 6669 fabd 4831 e03d
-0.16431041 -0.17675869 0.136103 -0.116000965 -0.43765885 0.12597077 0.06857111 -0.2925089
-0.21822621 0.05672145 -0.38307595 -0.41663736 0.061409727 -0.12904489 0.20072876 -0.049048003
1.3632021 1.1194017 0.8930152 1.3511418 1.2803862 1.3187041 1.3211489 1.6328963
1.3266194 1.030141 1.0140252 1.4914557 1.2033159 1.3801163 1.3809868 0.8893998
0.26181197 -0.16767898 0.009377443 0.056687377 -0.0830039 -0.13311288 0.19683683 -0.17875987
-0.11500039 0.0039867815 0.14084406 -0.0074936002 0.18933547 -0.17151216 -0.122271344 0.109469

rnn.bias_hh_l0 f4 [48]
00000000: 1a83 903c 8dec 083e 9de4 deb9 f44d a53d
00000010: b92d fcbd f48b 88be 8259 ca3c 259b e03d
00000020: f424 2a3e 6f62 40be 42ee 29be ee2b 94be
00000030: 8fc3 473c f5da 163e 7246 13be 3233 16bd
00000040: 06a1 af3f ddee 533f 113f 983f 07e2 a93f
00000050: ae11 8b3f f396 8c3f cafa 9e3f 04e9 a33f
00000060: 6b66 953f 8b16 583f a203 823f c1b9 c83f
00000070: 8201 923f f48f 913f b34e af3f 3ae6 773f
00000080: 81ee f5bd 0fab 2d3e d443 59bd 5f9b 163e
00000090: ef44 e63d f282 5dbe b8b4 e13d 116d aa3d
000000a0: 67a9 9a3d 40c9 253e cc70 953e 1041 c0bd
000000b0: 4809 21be 44c6 44be 63b1 41bc a06d d6bd
0.01764064 0.13371487 -0.0004251347 0.08071509 -0.123134084 -0.26669276 0.024700884 0.109670915
0.16615659 -0.1878755 -0.16594794 -0.28939766 0.012192621 0.14731963 -0.14382342 -0.036669917
1.3721015 0.8278635 1.1894246 1.3272103 1.086477 1.0983566 1.2420285 1.2805486
1.167188 0.844094 1.0157359 1.5681688 1.140671 1.1372056 1.3695892 0.9683567
-0.12008382 0.16959785 -0.0530432 0.14707707 0.11243617 -0.21631983 0.110207975 0.08321584
0.07551842 0.16190052 0.2918762 -0.0938741 -0.15726197 -0.19216257 -0.011822077 -0.10470128

mlp.0.weight f4 [128, 16]
00000000: cc18 fdbd e8f5 31be 0ca7 58be e9e7 3d3e
00000010: ccc6 ef3d 279f 8dbe 0bf0 c53e 3cfc babe
00000020: ed34 99bc 12f5 0dbd 9ace ae3d a578 a73e
00000030: b953 82be bb35 9aba ccf2 a33e 6d09 8cbe
00000040: b5d6 0abe 21bb 0dbd edcb 3a3c dc1b 6abe
00000050: 60d0 a93e d5a2 25be 0e19 3c3d 22f4 773e
00000060: e801 33bd 84c5 d3bd c23c c03d 856d ce3e
00000070: 18b3 8dbe d418 bf3d 431e 553d c6e9 91bd
00000080: 9eee de3d 0c18 5e3d 437f 483e 53a7 33bd
00000090: 80de 2f3e e9ce 3a3d ffee 9dbd 62d1 da3d
000000a0: f798 adbb 1837 96be 7fc4 db3e 263a 26bd
000000b0: 5bac 7abe 85df 27be 7dae 96be d274 9c3e
000000c0: a7e6 e0bc 0e67 5c3e 0d4d 0fbd 3cd7 20be
000000d0: 2faa 54bd 5b54 64be acfa 7f3d d961 9abd
000000e0: 5a57 aabd 8efe 1bbe c009 28be f56e 023b
000000f0: 792f c63d dfa0 13be 3fa1 87be 7234 cb3d
00000100: a72e 5d3e d06e 10bf bbd5 72be 500f c83e
00000110: 274f 253e f9f3 e6be 301a 9f3e 00cf 3abe
00000120: 4b00 083f d747 9bbd 87c8 573e 9876 873e
00000130: ef2e bdbe 7f6a 1f3e cca1 493e 7d71 f5bc
00000140: 024c 05bd 015d 8e3e 0d43 10bd 8eda 2fbf
00000150: b87e 34be 3f36 fc3d 36c9 143e 1589 0a3f
00000160: c8cf 253f 140d bcbd 1d49 c9bd 0b39 98be
00000170: 08c9 72be 2f7f 2bbd 8494 d1bd 0cf9 233c
00000180: d3db 02be 7295 8ebd 5980 483e 5bfa 073d
00000190: f8c3 3dbe 5cf9 adbc 3dad 87bd f3c7 8f3e
000001a0: faaa 2e3e 4e03 673e 2f88 593e 2810 aa3d
000001b0: de2e df3c f111 7a3e c99e 293e fea5 0e3e
000001c0: ed8e 64bc 467a a7be b82d a5be 80a0 9d3d
000001d0: 776e 0f3f f2ba 02bf 9a3d 013f 758f 833d
000001e0: 85eb 0e3f 9322 113e f393 ee3d 4431 113f
000001f0: a2e5 04bf cbc3 30bd d62f 1d3f 7629 a23b
00000200: bf43 94bd 06f7 453e f3db 94be 708f c2bd
00000210: 688d 8d3e c7fc 8f3e 33bb dd3d 0828 683e
00000220: 8be8 063d b709 4cbd 3a6c f03d 1d6c f53d
00000230: 68da 413c 5d75 633e ae67 4e3e 480e 103e
00000240: c075 ddbd 15f6 a0be b095 ddbe 3469 ba3e
00000250: b4c2 213d d9e3 0bbe 94cb 013e 887b 21be
00000260: 57a4 653e 03eb ce3e 3d0f 61be 4d0e b5bd
00000270: 34a9 c13e 9e78 0ebe 35d5 f03c c8b2 f6bc
00000280: 072e 893c 8aba 993e 9d4c 533e 33d0 543e
00000290: f4ad 92be 5156 083e be37 d23c 17ee ca3c
000002a0: 808b cd3d 7e2b d1bd da6d 0bbf 657f 8f3e
000002b0: c4dc 0d3e 13a8 353e 3bea 63be 613d 513e
000002c0: 3702 72be 1f4c b43d e004 4cbe bc8e 4bbe
000002d0: cf83 7c3c 42fa 70bd 5f24 0fbe 7bef 453e
000002e0: 24b3 d93d 35c0 4ebe b4c4 f73c ebf8 8b3d
000002f0: e7df 9bbe 3493 a43c cc07 083e b0a3 20be
00000300: b550 7fbe 3f7c c3bd 38af 6ebe c805 e8bd
00000310: 4389 923e 2c80 46bc 6d55 093d dc8c cb3e
00000320: dfef 483b 9911 39be 9947 c6bd f6d9 3e3d
00000330: d1c6 07be 493f 3ebd e1fd 5e3e 07fa d93c
00000340: c9d3 5fbe 2217 7abe 15e7 98be d371 ac3d
00000350: 58fb c4bd 84ef 073e d1e9 f63d 7c5f 1bbe
00000360: 7c40 873e 2b1b 6dbd 2ad5 f8be fe09 8ebc
00000370: 9dec 453e 8dfd 6f3e 182c 7a3e 895b 8abd
00000380: c6fa ff3d 5038 6b3e cc68 75bd 1211 de3c
00000390: ccf6 1cbd 6d9a cbbd 58f7 2cbe 0ef0 54bd
000003a0: 4a36 50be 4a0d c8bd 18c4 2d3b 9cca 2d3a
000003b0: fe7e a3bd 29c6 883d 8ade 163e 7fc2 91bd
000003c0: 477a 75be 567d 0fbe 420b 583d f17c bb3d
000003d0: 1917 2cbe 0d79 853e 0e27 28be 292d 283d
000003e0: 0abc 7a3e d656 bebc 0e4e 303e 1a96 143e
000003f0: b8f9 c33e 4fb9 0b3d 1b28 19bd 34d0 4a3d
-0.12358245 -0.17378962 -0.21157473 0.18545498 0.11707839 -0.27660486 0.386597 -0.36520565
-0.018701995 -0.034657545 0.085355 0.32709232 -0.254545 -0.001176528 0.32021177 -0.2735094
-0.13558467 -0.03460229 0.011401159 -0.2286219 0.3316679 -0.16175397 0.04592233 0.24214223
-0.04370299 -0.103404075 0.09386589 0.40317932 -0.276757 0.093309075 0.052030813 -0.07124667
0.10885356 0.05422215 0.19579796 -0.043860745 0.17174721 0.04560748 -0.077116005 0.10684468
-0.005297776 -0.29338908 0.42923352 -0.0405828 -0.24479811 -0.1639386 -0.2943 0.30557877
-0.027453734 0.21523687 -0.03498559 -0.15707105 -0.051920112 -0.22297804 0.06249492 -0.07538194
-0.08317442 -0.15233824 -0.1640997 0.0019902561 0.096770234 -0.14416836 -0.26490209 0.099221125
0.21599828 -0.56419086 -0.23714344 0.39074183 0.16143475 -0.4510801 0.31074667 -0.18243027
0.5312545 -0.07582062 0.21072589 0.26457667 -0.3694987 0.15567969 0.19690627 -0.029961342
-0.03254319 0.2780533 -0.035220195 -0.68692863 -0.17626464 0.12315034 0.14529881 0.5411542
0.64770174 -0.09182182 -0.098283984 -0.2973102 -0.237095 -0.04186934 -0.10233405 0.010008108
-0.12779169 -0.06962098 0.19580211 0.033197742 -0.18531787 -0.021237068 -0.066248395 0.28082237
0.1705741 0.22559854 0.21243356 0.08303863 0.027244028 0.24420907 0.16564478 0.13930508
-0.013950092 -0.32710475 -0.32261443 0.076966286 0.5602793 -0.51066506 0.5048462 0.06423847
0.55828124 0.14173345 0.11649313 0.567158 -0.5191289 -0.043155473 0.61401117 0.00494879
-0.07239484 0.19332513 -0.29074058 -0.09500015 0.27646947 0.2812254 0.10826721 0.2267152
0.032936614 -0.049813952 0.117393926 0.119835116 0.011831857 0.2221274 0.20156738 0.14067948
-0.10813475 -0.31437746 -0.43278265 0.3640839 0.039492324 -0.13661136 0.12675315 -0.1576978
0.22425972 0.40413675 -0.21978469 -0.08840618 0.37824404 -0.139132 0.02939854 -0.030114546
0.01674558 0.3002513 0.20634694 0.20782547 -0.2864834 0.13314177 0.025661346 0.024771733
0.10036373 -0.102133736 -0.54464495 0.28026882 0.13853747 0.17739896 -0.2225732 0.2043357
-0.23633657 0.088035814 -0.19923735 -0.19878668 0.015412285 -0.058832414 -0.13978718 0.19329636
0.106298715 -0.20190509 0.030245163 0.06834587 -0.3044426 0.020089723 0.13284224 -0.15687442
-0.24933131 -0.095451824 -0.23309028 -0.11329228 0.28620347 -0.0121155195 0.033528734 0.39755905
0.0030660552 -0.18073119 -0.09681625 0.046594582 -0.13259436 -0.046447072 0.21776535 0.02660848
-0.21858133 -0.24422887 -0.29863802 0.08420148 -0.096182525 0.13274962 0.12056316 -0.15173143
0.26416385 -0.057887238 -0.4860013 -0.017338749 0.19328542 0.23436566 0.24430883 -0.0675574
0.12499003 0.229707 -0.059914395 0.02710775 -0.0383213 -0.09941564 -0.16891229 -0.051986746
-0.2033321 -0.0976816 0.0026514586 0.00066296174 -0.07983206 0.06678421 0.1473333 -0.07117175
-0.23972426 -0.14012656 0.05274511 0.0915469 -0.16805686 0.26068917 -0.16421148 0.041058693
0.24485794 -0.023234766 0.17217276 0.14510384 0.38276458 0.03411227 -0.037391763 0.049514964

mlp.0.bias f4 [128]
00000000: fd3f 1e3d a217 1e3d 994d f4bd 8312 433c
00000010: 9013 3bbe 0525 a9bd 996f 7ebe 55b3 04bd
00000020: 8b77 abbe 322b 26be a793 5dbe bd3e 1e3d
00000030: 9b03 a7bc 2215 9d3c 7203 82be f90f 2ebd
00000040: 9084 b33d ac46 3cbe fe19 59be 48f3 77be
00000050: 6d25 78be c572 5fbe ae54 bbbe 403e 42bd
00000060: 40e7 8abe d107 12be 88f8 99be 89b9 263d
00000070: 6dd0 8abe c9e6 c8be 10c5 0e3d 359d 923c
00000080: 641f 2bbe 0f09 d1bd 384e 35be d32a 613e
00000090: 3e16 94be 70c3 17be 1058 e83d 4981 66be
000000a0: 1ca7 a2bd 3c0b f4bd 42bd abbc aca9 10bd
000000b0: b52d 693e f7f4 fc3d 39d4 40be 1213 38be
000000c0: ebe2 30be a648 06bd bf2d a13c 4a19 e03d
000000d0: f481 43be 5ee9 57be cb1e 81be 9134 97bd
000000e0: 87cc 6abd 393d b13d 6186 5cbe f975 1bbe
000000f0: 910d 0abe 04e4 c3be 1b51 c5bd efe5 e23d
00000100: 11a3 95bd 5ef5 023e 754e 47be 82b9 01bc
00000110: 3371 76bd bad8 98be fd8c 8b3b 98c3 c5bd
00000120: e7a2 913e 2196 b4bd ac23 ecbe 7629 1d3e
00000130: 9151 e8bd 3fe7 b73d dd26 8cbe 3639 2bbd
00000140: 23c3 7fbd b7f3 0d3e 9fd6 013e f6e9 5abe
00000150: af74 a7be 18e2 98be 904d 9e3d 5cb1 71be
00000160: a7e9 3bbd f6fb a2bd dff7 bd3d 7559 8dbe
00000170: 3541 1a3d dc9b d8bd 7721 933d 060c 363e
00000180: 4a82 13be 7b64 5dbe dea1 56be 8c0c e5bd
00000190: 7d4e be3d 95aa 15be 924a c3bc 5c80 78bd
000001a0: 8c84 9ebe a51d 96be 3430 913e 8790 b1bd
000001b0: 81d5 9bbe 3362 e7be aed3 36be e637 3b3e
000001c0: 099d d9bd ffb3 d8bd 4301 7bbe 137a f2bd
000001d0: 0ef0 36be 0554 c1be 7e2a f3bd 47bc 9dbe
000001e0: 310d b73d 5ad9 a7bb 4e6c b5be 7121 483d
000001f0: 69b3 d33d 3481 44be 99fd e6bd 6751 013e
0.038635243 0.038596757 -0.11928863 0.011906269 -0.18269181 -0.08259014 -0.24847259 -0.032397587
-0.33489642 -0.16227415 -0.21638356 0.03863405 -0.020387461 0.019175116 -0.25393254 -0.0424957
0.08765519 -0.18386334 -0.21201321 -0.24213898 -0.24233027 -0.21821125 -0.36588043 -0.047422647
-0.27129555 -0.14260794 -0.30072427 0.040704284 -0.2711214 -0.39238575 0.034855902 0.017897228
-0.16711193 -0.10206806 -0.1770562 0.21988992 -0.2892322 -0.14820647 0.113449216 -0.22510256
-0.0794203 -0.11916205 -0.020964269 -0.03531806 0.22771342 0.12351411 -0.18830957 -0.17976025
-0.17274062 -0.032784127 0.019675134 0.109423235 -0.19092542 -0.21085116 -0.25218806 -0.07383073
-0.05732396 0.086542554 -0.21535636 -0.15181722 -0.13481738 -0.382599 -0.0963461 0.110790126
-0.07306493 0.12788913 -0.19463523 -0.007917764 -0.06016655 -0.2985285 0.0042587505 -0.09656447
0.28444597 -0.08817697 -0.46120965 0.15347847 -0.113436826 0.089796536 -0.273734 -0.041802607
-0.062441956 0.13862501 0.12679528 -0.21378312 -0.3270621 -0.29859996 0.077296376 -0.23602813
-0.045877125 -0.07958214 0.09275793 -0.27607313 0.037659843 -0.10576603 0.07184117 0.17778024
-0.1440517 -0.21620362 -0.20960185 -0.11184034 0.09292314 -0.14615853 -0.023839269 -0.060669288
-0.309605 -0.29319492 0.2835709 -0.086701445 -0.30436328 -0.45192108 -0.17854187 0.18283042
-0.10625655 -0.105812065 -0.245122 -0.1183969 -0.17865011 -0.37759414 -0.11873339 -0.30807707
0.08938063 -0.005122346 -0.35434192 0.048860017 0.10336954 -0.19189912 -0.11278839 0.12628709

mlp.2.weight f4 [128, 128]
00000000: 7156 08be 2c60 11be ef94 893a f7d0 fcbd
00000010: 9b69 f1bd 1b7c 53bd e555 29bb b65a 15be
00000020: 3417 feb9 de02 f03b 160e 86bd ab19 b4bc
00000030: 6845 74bd 3ea8 e4bd 9217 69bd 8370 1cbd
00000040: 8a0c 4ebd 802f bf3b 251a 8abd b578 9dbb
00000050: 64ea cabd b019 fcbd f65a 763b e21c 13be
00000060: e180 c5bd c3a0 dcbc a663 afbd 4123 dbbc
00000070: 7b1d ee39 c135 223b cf14 0c3c 244e 13be
00000080: b99d c9bd a687 0e3c d98a a23b 08f9 8ebd
00000090: 0c0a 073b 534f 37bc 6c7c 88bc 61c1 a0bd
000000a0: e039 79bd 0cb4 b9bc 8bd3 e2bd f97b fcbd
000000b0: 6edc d83c ff92 d9bd 06ed 68bc 6e12 1dbd
000000c0: a091 1bbd 6c0b e7bb d8d4 713c 3e06 b7bc
000000d0: 4966 b5bd 29b3 ba3b 57c6 c9bd b46a 0bbe
000000e0: 7775 8ebd 6983 61bd dac6 f0bd 155e 873c
000000f0: b65c 16bb a08d 04bc 89f5 c23c 7e80 28bd
00000100: f26f dc3b b2b1 963c 95d5 75bd 9db0 8bbd
00000110: 516e 803d 7a2d efbc e7b6 5abd 8174 1abd
00000120: 1ef5 5ebd 2044 8dbd 2180 73bb ab12 fdbd
00000130: 1d9d bbbd 4367 d2bd 1e43 dcbd abfd 0fbe
00000140: 12b7 963b 91fe 3a3c 04f8 13bd 7ba3 1b3b
00000150: b7c1 86bd c56a b6bd 780b b73c d9f5 89bd
00000160: b961 5fbd d749 aebd 9fb8 b2bc ce2a de3c
00000170: b9f6 793c 804b 75bd 5e1b 03be 601b c93b
00000180: fd9f d1bd 5b79 04be 152b 1cbd d6be d3bd
00000190: 452d fbbc c686 ebbc c39c 9cbd f251 f0ba
000001a0: bdef c53a 4ca2 a63b 18b5 b7bd 525c fa3a
000001b0: 9f74 b9bb ed24 5cbd b671 8fbb 5652 313c
000001c0: 38a3 043b 5ea2 f13a a4d2 8dbd 7d6b 5abc
000001d0: a479 c1bd 06c7 8cbc 6574 a3bd 88a2 6ebd
000001e0: 94b9 c2bd 21e9 b6bd 54d4 89bd fead f2bc
000001f0: 27e0 bcbd f459 b93c f566 72bd a2a1 96bd
00000200: eecc cfbd 45eb 933c f57e e9bd 35d7 c2bd
00000210: d565 7f3d 1f09 2ebd d8b4 443c e512 4d3d
00000220: 14ef 96bd 7ed7 bebd 786f 88bd 14a4 e53c
00000230: cfee 993d d216 363b 9ff5 07bd 8974 debd
00000240: 4fc1 a5bc a6b2 4abc 8bbc 843d 7d21 0dbd
00000250: 8976 f2bd 9e11 43bc 8717 05bd 7792 ffb9
00000260: 3022 bcbd 0923 aabd 3b44 233d ca57 f93b
00000270: a5f5 e4bd efcd 7dbc c8c1 59bd 879e abbd
00000280: 10fc 24bc c11a 35bc 03f5 1e3d e33a b7bd
00000290: fb52 0abe c2b4 9cbc a44a 45bd b340 803d
000002a0: a274 343d ec19 38bd 2424 213c 37c0 133d
000002b0: 209e 113b 4105 083d f170 1cbc ce80 b9bd
000002c0: c565 52bd 49a7 f2bd 4c03 5cbd 1a5b 04be
000002d0: f694 543d a906 6b3d c29c 733c 4357 11be
000002e0: a296 6ebd 71b0 07be 437f 5f3c 3a82 7abd
000002f0: 650a 4a3d a393 bdbd f595 f7bd 278a c2bc
00000300: cb96 b4bd 98bc 55bd ebaf 8dbd 6394 41bd
00000310: b7b8 3e3d 253e d2bd 6075 7bbd ea75 81bd
00000320: 0ba9 d13c 783f 06bc 80e3 3fbd 2b7f a1bd
00000330: 43c5 483d cad1 c2bd 070b c63d 93ab a8bd
00000340: 5c41 a5bd b0b6 0cbe 8337 75bd 3b0c 94bd
00000350: 876e 443c 8901 2b3d 6aac cabd d3b9 e9b8
00000360: 646a 663d c388 bcbd cb4a adbd 101a 13be
00000370: 654d 9dbd 016b e4bc ef32 a3bd 6d47 30bb
00000380: af4e f63b ae5d eebd 96e6 72bc f951 ffbd
00000390: 53b4 f43b 0a27 b3bc 7e6f a4bd 84fb 90bd
000003a0: ef71 04bd b432 f7bb 8231 81bd a612 03be
000003b0: d0fd 163d db9d d6bd fb18 bf3b 216c b9bd
000003c0: e7f1 79bb b487 eebd dd12 83bc 56c5 9a3d
000003d0: bcca 603d 7af5 fd3c 7fae dcbd 5397 f3bd
000003e0: d8ce 58bd 9175 6abd 4292 1fbd c0ed 90bd
000003f0: 18aa b0bd ad9c aa3c c9ef bc3d 8b59 a4bd
-0.13314225 -0.14196843 0.0010496656 -0.123445444 -0.11787721 -0.051632028 -0.002583855 -0.14585385
-0.00048463943 0.0073245605 -0.065456554 -0.021984896 -0.059636503 -0.11164902 -0.056907244 -0.038193237
-0.050304927 0.00583452 -0.06743268 -0.004805649 -0.09907988 -0.12309587 0.0037590838 -0.14366487
-0.09643722 -0.026932126 -0.08563928 -0.026750209 0.00045416862 0.0024751278 0.008549883 -0.14385277
-0.09844536 0.008699333 0.0049603996 -0.06981093 0.0020605354 -0.011188346 -0.016660891 -0.07849384
-0.06084621 -0.02266886 -0.11075505 -0.123283334 0.026472297 -0.106237404 -0.014216667 -0.038347654
-0.037980676 -0.007050922 0.014760219 -0.022341844 -0.088574 0.005697627 -0.098522834 -0.13614923
-0.069559984 -0.055056963 -0.11756678 0.016524354 -0.0022943444 -0.008090407 0.02379872 -0.041138165
0.006727212 0.018395279 -0.06001814 -0.06820796 0.06271041 -0.02919649 -0.053397086 -0.037708763
-0.05443298 -0.068977594 -0.0037155228 -0.12357076 -0.09160826 -0.10273602 -0.10754989 -0.1406161
0.0045994604 0.011413232 -0.036125198 0.0023748565 -0.06579917 -0.089070834 0.022344336 -0.06736345
-0.054536555 -0.085101776 -0.02181655 0.02712002 0.015256577 -0.059886456 -0.12803409 0.0061372966
-0.102355935 -0.12936918 -0.038127024 -0.103391334 -0.030661235 -0.028750788 -0.076470874 -0.0018334968
0.0015101355 0.0050852653 -0.08970088 0.0019101 -0.0056596543 -0.053746153 -0.004377569 0.010822853
0.0020238888 0.001843523 -0.06924942 -0.013331291 -0.09447029 -0.017184746 -0.07981185 -0.05826047
-0.095080525 -0.089311846 -0.067299515 -0.029623982 -0.09222441 0.0226259 -0.05918022 -0.07355048
-0.10146509 0.018056521 -0.11401168 -0.09513704 0.062352974 -0.042489167 0.012006007 0.050066847
-0.07369819 -0.093184456 -0.06661886 0.02803234 0.07516252 0.0027784598 -0.033193227 -0.10862071
-0.020233778 -0.012371695 0.06481274 -0.034455765 -0.11839015 -0.011906056 -0.03249314 -0.00048746515
-0.09186208 -0.08307464 0.03985999 0.007609342 -0.111796655 -0.015490993 -0.05316332 -0.08379846
-0.010069862 -0.011053742 0.03880788 -0.089467786 -0.13508217 -0.01912916 -0.048166886 0.062623404
0.044056542 -0.044946596 0.009835277 0.036071982 0.0022219494 0.033208136 -0.009548412 -0.09057771
-0.051366586 -0.11848313 -0.05371408 -0.12925377 0.051899873 0.0573794 0.014868917 -0.14193444
-0.058249123 -0.13250901 0.013641181 -0.06115935 0.04932632 -0.09256675 -0.12089149 -0.023747517
-0.08817824 -0.05218181 -0.06918319 -0.047260653 0.046562877 -0.102657594 -0.061391234 -0.063213184
0.025593301 -0.008193843 -0.04684782 -0.078855835 0.04901625 -0.0951267 0.09670072 -0.0823585
-0.08069107 -0.13741565 -0.059867393 -0.07228895 0.011989242 0.04174951 -0.098961666 -0.00011144918
0.056253806 -0.09205773 -0.08461531 -0.14365411 -0.076807775 -0.027883055 -0.07968699 -0.0026898042
0.007516704 -0.11638962 -0.014825484 -0.12466807 0.0074677854 -0.021869201 -0.08029078 -0.07079223
-0.032335218 -0.007543886 -0.06308271 -0.12800083 0.03686315 -0.10479327 0.0058318353 -0.09053827
-0.003813857 -0.11646977 -0.016000206 0.0755717 0.054880843 0.031000841 -0.1077547 -0.11894097
-0.052931637 -0.057241026 -0.03895784 -0.07076597 -0.08626193 0.020826662 0.09225423 -0.080248915

mlp.2.bias f4 [128]
00000000: 0b1c e7bd f472 463d 0148 3bbd bc87 dc3c
00000010: 7147 e4bd 6c33 54be 620a a8bd 8834 623c
00000020: acf5 b13b 3e8b 5f3e b348 11bd ce95 8ebd
00000030: 6f9c 13be 0fcc 29bd 3c37 673c 919c ba3c
00000040: 3ad1 523e acae b1bd ea76 353e 8188 f33a
00000050: d70c b5bd 3caf a5bd 41a4 bcbc 6002 b0bd
00000060: 92a7 d4bc b802 fa3b b614 48bd 544f 93bd
00000070: a6fe 03be 487d a8bd f83d acbd 3829 ae3d
00000080: d71a 8a3c 5f7c 4fbd 2503 2e3e 343d 93bd
00000090: 996a 6639 98d3 f7bd 022a 0fbd 57bd febd
000000a0: c5c8 aebd b762 3ebd 63ae ecbd eaeb 773e
000000b0: 600d 653e c830 c6bc e576 333e d7b2 53bd
000000c0: 24c6 96bd bc02 1e3e 703c bf3c 6834 133c
000000d0: 6a79 113e fbeb 263e e5b1 c2bd ee7e 2b3e
000000e0: 442b b53c 1bce 5abd bb7e 1abe a566 8dbb
000000f0: 6088 06be 9e94 dabd 469c 403e 3f44 b7bd
00000100: 4d6b 383e 1d2a 51bd 49a5 ddbd 8805 f3bc
00000110: f509 a6bd 42da 0a3e 99dd 7fbd effa d2bd
00000120: eb4a 6a3e 589a 4d3c 9d1f b0bd a835 4f3b
00000130: 6ecb 06be 2e18 adbd afc5 8dbd b866 893e
00000140: 84b8 e03d 7ce8 8a3e 49a2 733c 91e0 843e
00000150: 59ee e2bc 4cdc 5c3e a7a2 253c 9195 1f3e
00000160: cbde f3bc bbed 853d 3db3 973e c2d8 55bd
00000170: fc26 85be 1787 393a 6067 abbd e58e 963e
00000180: d9eb 07bc b390 f1bd 7ca3 c2ba cef7 663e
00000190: 1e86 5b3e 44e3 57bd 6845 14bc 5210 6f3e
000001a0: 72ba 4b3d f84f cbbd 26da e1bd 889f ec3c
000001b0: 5217 e43d 41d6 b2bd 9dad e8bc ee52 24bd
000001c0: 8473 403e 2231 db3d ed2b 3d3e 1da0 ec3d
000001d0: fa16 273e d1e2 83bb 43aa 0dbc cad2 aa3d
000001e0: 2b04 9fbd 2f2a 1c3c bf6b c0bb a43e 9ebd
000001f0: 8fd7 d43d b22e 433e 5aa6 8b3e 18ac 8e3e
-0.11284646 0.04844947 -0.045722965 0.026920192 -0.11146439 -0.20722741 -0.08205105 0.01380647
0.0054308977 0.2183046 -0.035469722 -0.06962167 -0.14415143 -0.04145437 0.01411229 0.022779735
0.20587626 -0.08675894 0.17721143 0.001858011 -0.0884034 -0.08090064 -0.023027541 -0.08594203
-0.02595881 0.0076297186 -0.048847876 -0.07192865 -0.1289011 -0.082270205 -0.08410257 0.085039556
0.016858501 -0.05065572 0.16993387 -0.07189408 0.0002197422 -0.12100905 -0.03495217 -0.124384575
-0.085343875 -0.04648086 -0.11556699 0.24211088 0.22368383 -0.024193183 0.17525823 -0.051684227
-0.07362011 0.1543073 0.023344249 0.008984663 0.14206472 0.16300957 -0.09506587 0.16747639
0.022115357 -0.053419214 -0.15087406 -0.0043152147 -0.1313796 -0.10672878 0.18809614 -0.08948564
0.18009682 -0.051065553 -0.10822541 -0.029665723 -0.08107368 0.13559821 -0.06246719 -0.10301768
0.22880141 0.012549005 -0.0859978 0.0031617675 -0.1316354 -0.084518775 -0.06922471 0.2683618
0.109726936 0.27130497 0.014870235 0.2595258 -0.027701544 0.21568412 0.01010958 0.15584399
-0.029769322 0.06539484 0.29628935 -0.05220867 -0.26006305 0.000707732 -0.083693266 0.29405895
-0.008295977 -0.11795177 -0.0014849748 0.22555467 0.2143788 -0.05270697 -0.009049751 0.2334607
0.049738355 -0.09927362 -0.11027937 0.028884664 0.111372605 -0.08732272 -0.028403098 -0.04011815
0.18794066 0.10702731 0.18473788 0.11553977 0.16317359 -0.0040248414 -0.008646551 0.08340986
-0.07764467 0.009531542 -0.0058722193 -0.077267915 0.10392677 0.19060782 0.27275354 0.27865672

mlp.4.weight f4 [3, 128]
00000000: ccb9 edbd 120f ebbb 442f 32bc feb9 e6bc
00000010: 0f7c e43d 71a7 223d 5789 b83d a3c3 cc3d
00000020: c02e be3c ae66 8ebe a8af 5b3d a406 2dbc
00000030: fa49 82bc bbb8 00be a494 4c3c bd59 373e
00000040: 2d14 5b3d 2548 44bd 229c 393e 1d9c 34bd
00000050: 5908 8e3d a286 1cbd 60b6 13bd f873 22bd
00000060: f121 8ebd d02d a4bc 8884 b33d 805c 50bc
00000070: 28dd c4bd 2fb5 e23d a3c3 f3bc fcdf 40bd
00000080: 5371 833d 234d 533a 5851 55be 1c3f 4c3d
00000090: 9b2a 733b ffec 7e3c c31d fd3c 0cf9 9dbb
000000a0: 0632 bb3d 8f58 acbc 9548 ac3c 2769 41bd
000000b0: a7bf a33c b9cb d0bd ecdd 81be 5662 79bd
000000c0: 935b 023d 36c2 50bd e0ab 223d d507 da3d
000000d0: c833 cebe cd88 c43d cc77 433c 15eb 16bd
000000e0: 3e0f c03b 2fe7 493d 1c0f 29bd f980 c53c
000000f0: 1183 bdbc e8bd 2d3d 8ef5 123e fa54 2cbd
00000100: 044f a0be 5d8b 7dbc daa9 35ba 0d73 133e
00000110: 9513 1ebd b2a7 e03b 93d4 d33c cf0f 4fbd
00000120: 5a45 b43d 534b bdbd f114 f33c fbea b93d
00000130: 5582 c43c 7414 153c 07dc c2bc 9f10 57bc
00000140: 480c ce3d 3055 693d dcf1 f03d 5747 963d
00000150: 27b1 143e 7ad8 72bd 6c83 183d 4a21 973d
00000160: f047 47be 62f9 493d 6d41 5abe c259 18bd
00000170: e131 893e d357 5fbd c399 ed3d 3122 78bc
00000180: eb26 e3bb 0820 30bd 4c57 023e b2fb 3b3d
00000190: 80c2 53be fa8a d9bc 35a8 9f3d 61e4 8e3d
000001a0: bcb4 1ebb 4f52 b93c 5556 e53d b66e fdbc
000001b0: 81f1 64be 4dc7 723d 9086 ddb9 f5a1 04bb
000001c0: c694 e63c 9ce2 e43c 4d9a c93c 1c8d c9bc
000001d0: 0bf9 b03e d5b7 24be c6cd 893d fe21 e4bc
000001e0: 7fa9 963c 7745 8bbc 8815 5c3d 7293 0ebe
000001f0: 0791 d4bc 0981 5abc 9335 fa3d 5905 1d3e
00000200: bdf8 2d3d f66c 033d b645 0e3c d391 7a3c
00000210: 33f1 633c f901 9abe 4cba 1b3d 9df3 d63c
00000220: 20b8 91bc 8250 97bc 4d3c 9b3d d71a c9bc
00000230: 9a70 abbe 7b5b dfbb ff51 3b3d 82dc ba3c
00000240: 8735 c43c afad 50bc 7a29 db3d 4ce6 9f3d
00000250: f939 59bc 9d6b d9bc af18 803d 7f8f d5bc
00000260: 496d 893c ed4b 3c3d 1494 11be 6081 c5bd
00000270: 8c10 7f3d df29 873c f1df 3f3d f701 c73d
00000280: 3eec 843d 5c9e 0fbc 5248 a0bd a853 f73c
00000290: 16fd 61bc 9bfe a53d 9d84 cdbc 8586 96bc
000002a0: 72a3 653d d8ec 153d f289 d1bc 5b21 89bc
000002b0: 6e58 1c3d 047e 79bb eccb a23d 884d bb3c
000002c0: f288 703c 90b9 5dbe b806 18bc 8154 6bbc
000002d0: f7ee 083d 813a 643c 3db0 833d f22f 463c
000002e0: 122f c2bd 2a18 c1bc aa91 0d3d f167 dcbc
000002f0: 4e26 823d 7fac 97bc af84 e03d ae49 97bc
00000300: 0bcd c1bd d66a 943d 9609 ea3c 8667 d23d
00000310: a9d1 0bbd d170 543c 6e0f 423c 8056 e53c
00000320: 7c13 783e 5e43 2cbb bca4 4bbb 4919 1e3d
00000330: f539 21bc b68d af3d 86cd 6bbb 3dd7 b2b9
00000340: 8b98 4d3d 56cc 1e3e f1a2 a63d c4ed 2d3e
00000350: c8bd a93a 6f30 f23c fe7a d1bc cd16 cb3d
00000360: d699 52bd 7b88 533d 2343 bfbc 6d57 71bd
00000370: aef1 b1bd a0bd 81bb 6cdf 0d3d e4e7 623c
00000380: 3000 a03d f6e7 61be e153 3b3d cfb0 e63b
00000390: a509 2bbe 8234 1f3d 0bea fabc e678 5d3e
000003a0: b101 c8bd d486 8c3d cb80 eabb 737a 19bb
000003b0: 64a1 813d 11c6 d13d 253b 9bbd a1e2 0b3d
000003c0: 917c 213e cbfc 893d 678e 033e 9559 8b3d
000003d0: 0ab2 c73c 24bb d03c b80a 853d 4f5e 413e
000003e0: 189e 28bd 1b22 8ebc f378 283c 1952 b5bd
000003f0: 9585 6bbb e8e4 803d 92c5 3f3e 5967 203e
-0.116077036 -0.0071734274 -0.010875527 -0.02816486 0.11156475 0.039710466 0.090105705 0.09998252
0.023215652 -0.27812713 0.053634316 -0.010560665 -0.015904415 -0.12570469 0.012486611 0.17905326
0.053486038 -0.047920365 0.18125966 -0.044094194 0.06935186 -0.038214333 -0.0360626 -0.039661378
-0.069400676 -0.020041376 0.08765513 -0.012717366 -0.09612495 0.11069714 -0.029756373 -0.04708861
0.06418099 0.00080605055 -0.20831811 0.049864873 0.0037104252 0.015559434 0.03089798 -0.0048209485
0.091404006 -0.021038322 0.021030704 -0.04721942 0.019988848 -0.10195107 -0.25364625 -0.060884796
0.031825613 -0.050966464 0.039714694 0.10646025 -0.4027388 0.09596405 0.011930417 -0.036845285
0.005861192 0.04929274 -0.041274175 0.02410935 -0.023133786 0.042417437 0.14351484 -0.042073227
-0.31310284 -0.015475121 -0.0006929912 0.14399357 -0.038592894 0.0068559283 0.0258582 -0.050552186
0.0880229 -0.092428826 0.029673072 0.09078022 0.023987928 0.009099115 -0.023786558 -0.013126521
0.10060936 0.056966007 0.11764881 0.07337826 0.14520703 -0.05928848 0.03723471 0.07379396
-0.19461036 0.049310096 -0.2131402 -0.037194975 0.26795867 -0.054527115 0.11601593 -0.015144871
-0.0069321296 -0.042999297 0.12728614 0.045894332 -0.20679665 -0.026555527 0.07795755 0.069771536
-0.0024216613 0.022622256 0.11198107 -0.03093658 -0.22357751 0.0592721 -0.00042252662 -0.0020238135
0.028147113 0.027940087 0.02460971 -0.024603419 0.34565005 -0.16085751 0.06728701 -0.02784824
0.018391369 -0.017000897 0.05373147 -0.13923433 -0.02594806 -0.013336428 0.1221725 0.15334071
0.042473543 0.032086335 0.008683613 0.015293556 0.013912487 -0.3007963 0.038019463 0.02623921
-0.017787993 -0.018471006 0.07579861 -0.024548931 -0.33484346 -0.0068163252 0.045732494 0.022810224
0.023951305 -0.012736722 0.107012704 0.078075975 -0.013258451 -0.026540572 0.06254708 -0.0260694
0.016775744 0.045970846 -0.14216644 -0.09643817 0.06227164 0.016499458 0.046844427 0.09717172
0.06490372 -0.008765783 -0.07826294 0.030191258 -0.013793251 0.08105203 -0.025087649 -0.01837469
0.056064077 0.036602825 -0.025578473 -0.016739538 0.03817027 -0.0038069496 0.07949051 0.022864118
0.014681088 -0.21652818 -0.009278946 -0.014363409 0.03343102 0.013929964 0.06430099 0.012096392
-0.09481634 -0.023571093 0.034562744 -0.026905032 0.06354962 -0.01851487 0.109628074 -0.01846775
-0.09462937 0.0724694 0.028569024 0.10273652 -0.034135494 0.012966351 0.011844499 0.027995348
0.24226183 -0.002628527 -0.003107353 0.038598333 -0.009840478 0.08571951 -0.0035980656 -0.0003411117
0.050194304 0.15507635 0.08136547 0.16985232 0.0012950236 0.02956411 -0.025571343 0.09916458
-0.05141624 0.05164383 -0.023347443 -0.058921266 -0.08688675 -0.0039593726 0.0346369 0.013849232
0.07812536 -0.22061142 0.04573429 0.00704012 -0.16702898 0.038868435 -0.030629179 0.2162815
-0.097659476 0.06861654 -0.0071564666 -0.0023418933 0.06329611 0.10242856 -0.0757964 0.034151677
0.15770175 0.067376696 0.12847291 0.06804196 0.024376888 0.02547986 0.06496185 0.18883632
-0.041166395 -0.017350247 0.010282743 -0.088535495 -0.0035937775 0.062936604 0.18727711 0.15664424

mlp.4.bias f4 [3]
00000000: 4baa 483d 2a5a 573e 7974 96be
0.04899053 0.21030489 -0.29385737
