EUSIPCO/Nested Array noisy position/saved_models/rnn_0dB_nested_4.pth (torch, 87874 bytes, 14 tensors)

bn.weight f4 [16]
000000 55 61 53 3f 7d 5b 63 3f fe 31 54 3f 81 96 6e 3f
       0.8257039 0.88811475 0.8288878 0.931984
000010 71 46 39 3f 0b 0b ae 3e 41 c1 f7 3d 51 a6 47 3e
       0.7237311 0.339928 0.12097407 0.19497038
000020 e4 fd 3c 3f 21 c8 52 3f ad f9 5c 3f d6 e8 52 3f
       0.73824906 0.8233662 0.86318475 0.8238653
000030 53 2d 42 3f 6c ac 01 3f a3 ec 95 3e e6 bd 79 3e
       0.7585041 0.5065372 0.29282102 0.24388847

bn.bias f4 [16]
000000 91 a8 1b bd e5 82 32 bc bb 37 2b 3e 32 76 98 3c
       -0.038002554 -0.0108954655 0.16720478 0.018611047
000010 27 63 06 bd b6 02 dc 3c c4 e7 d0 3e 21 19 c6 3c
       -0.032809403 0.026856761 0.40801823 0.024181904
000020 fe e0 31 be 92 1d db 3c 35 b4 4a ba ba 4d 82 3d
       -0.17370984 0.026747499 -0.00077325414 0.063624814
000030 3b 4a 8e 3d ee 53 cf 3c 7c fa 3d 3b cc 8a 0a 3a
       0.06947752 0.025308575 0.0028988412 0.00052849646

bn.running_mean f4 [16]
000000 3c 07 90 ba 78 ee eb 39 a2 1f 30 3a ed 9c 0f bb
       -0.0010988484 0.00045000366 0.0006718581 -0.0021913603
000010 d7 d0 0c 3b 41 80 ee b9 49 cc a7 ba 93 3c d6 ba
       0.0021486783 -0.00045490454 -0.0012801971 -0.0016344957
000020 1d 54 a4 ba 63 ee 82 ba b8 70 3f bb df 57 4b 3a
       -0.0012537275 -0.0009989258 -0.0029211473 0.0007756929
000030 6a 73 f6 3a 5b 46 44 ba 7b 34 ad ba e2 6d b8 39
       0.0018802707 -0.00074872904 -0.0013214493 0.00035177084

bn.running_var f4 [16]
000000 3e 3a 00 40 2a 18 00 40 14 34 00 40 cf 84 ff 3f
       2.0035548 2.0014749 2.0031786 1.9962405
000010 d1 38 00 40 df 27 00 40 cb d7 ff 3f 50 17 00 40
       2.0034678 2.0024335 1.998773 2.001423
000020 aa 7a ff 3f a1 5f 00 40 28 dc ff 3f 10 37 00 40
       1.9959309 2.0058367 1.9989061 2.0033607
000030 81 b5 ff 3f 8f b9 ff 3f b5 d9 ff 3f 78 44 00 40
       1.9977266 1.9978503 1.9988314 2.004179

rnn.weight_ih_l0 f4 [48, 16]
000000 a8 a2 25 bf d5 64 75 3f 8f f6 28 be e8 18 8b 3f
       -0.6470132 0.9585698 -0.16500305 1.0866976
000010 c2 34 10 3f 30 f7 04 3e f4 29 b7 bd e3 e8 8c 3e
       0.563305 0.1298492 -0.08943549 0.27521428
000020 bc 40 38 bf 17 a3 34 bf dc 15 00 bd a3 10 4b be
       -0.71973777 -0.70561355 -0.031270847 -0.19830565
000030 5c f0 42 3f b8 10 24 3f 03 36 25 be e2 79 8d be
       0.7614801 0.6408801 -0.16133885 -0.27632052
000040 d5 98 00 3f ce 72 02 bf 80 88 20 bf 12 a9 78 be
       0.50233203 -0.5095643 -0.6270828 -0.24283245
000050 a0 d6 63 be f7 c7 e2 3e a8 b9 cc bd 0d 44 fd 3e
       -0.22249842 0.44293186 -0.099963486 0.4946598
000060 4d f5 93 3f 38 bb 39 3f bb 63 6f 3e b9 3f 10 bf
       1.1559235 0.725513 0.23377888 -0.56347233
000070 8a f4 de bd c6 2a 60 be 91 39 e8 3e 70 46 07 bf
       -0.10886486 -0.21891317 0.4535642 -0.52841854
000080 79 c3 33 bf f1 b1 21 3f 3e 6e ea bd 57 d3 8b be
       -0.7022014 0.6316214 -0.11446808 -0.27309677
000090 b4 71 65 3e 13 65 86 be 15 61 a1 be 26 37 d9 be
       0.22406656 -0.26248989 -0.3151938 -0.42424887
0000a0 8c 5d 8e 3f 7f f0 4e 3e 76 15 2a bf 96 46 2a bf
       1.1122298 0.2020893 -0.66438997 -0.66513956
0000b0 2a 35 8f be ce ad 51 3f 48 a2 e7 bd 7e ca 28 3f
       -0.27970248 0.8190583 -0.113102496 0.6593398
0000c0 ab dc 96 bd f7 bb 15 3f d1 25 bd 3d 8e 88 99 3d
       -0.07366308 0.58489937 0.092357285 0.07496749
0000d0 6b 68 79 3f ef 23 4a bf 37 ae 95 bd 19 b0 ca 3e
       0.97424954 -0.7896108 -0.073086195 0.39587477
0000e0 06 31 e6 be 05 bb 89 be 6c 56 12 3f 62 71 42 bf
       -0.44959277 -0.26900497 0.5716312 -0.7595426
0000f0 46 d8 02 be ac c8 68 3f 7e b8 8c be 76 58 2e bd
       -0.12777814 0.909312 -0.27484506 -0.04256483
000100 29 1d 2c 3d 03 91 42 3f db db 07 3f 3f c0 1a 3f
       0.042019997 0.7600252 0.5306985 0.60449594
000110 08 bb 30 3e e0 f6 13 be 3d 3d ba bd d4 b5 8d 3e
       0.17258847 -0.14449644 -0.090937115 0.27677786
000120 e2 15 62 3d 39 2c c5 3e 61 9e c1 be 2d d3 1b be
       0.05519665 0.38510302 -0.37816146 -0.15217276
000130 8d 67 0e bf 47 01 5b bf b4 ef 02 be 49 d7 44 be
       -0.55626756 -0.85548824 -0.12786752 -0.1922275
000140 f8 aa 4c bf fb 98 06 bf 23 f2 c4 3e c3 15 1a be
       -0.7994838 -0.5257718 0.38465986 -0.15047364
000150 ce 92 d3 3d 13 07 31 bd 78 e5 a2 be 99 38 5e 3e
       0.10330735 -0.043219637 -0.31815696 0.21701278
000160 41 19 ca 3e e4 21 ce bd 4d 28 51 3f 2b 95 02 3f
       0.39472392 -0.10065058 0.8170212 0.5100886
000170 b1 a6 43 be 71 4b 0d 3e 27 bc aa be 57 fb 34 3f
       -0.19106556 0.1379831 -0.33346674 0.70696014
000180 e4 3c 2e 3f 86 eb da 3d 0f 13 ef 3e b7 47 22 be
       0.6806166 0.10689454 0.46694228 -0.1584767
000190 1e af a6 3e 72 73 bd 3d 1f 2d 26 be 12 fa 0f 3f
       0.3255548 0.09250535 -0.1622815 0.5624095
0001a0 34 12 53 be c0 15 10 3f e5 63 71 3e 48 c0 8d be
       -0.20612413 0.5628319 0.23573263 -0.2768576
0001b0 2d a5 22 bf b3 d5 09 3f 97 ff 6d bf 01 71 ac bd
       -0.6353329 0.53841704 -0.92968124 -0.08419991
0001c0 10 59 ff 3e e3 f1 f5 3e af e3 fc bd 83 d9 01 bf
       0.49872637 0.48036107 -0.12348115 -0.5072252
0001d0 c4 68 f4 bd 08 b5 a3 3e 4e b9 ff 3c 6d 21 8e 3c
       -0.11934045 0.31974053 0.03121629 0.017349923
0001e0 3f 0d c4 3e 05 a9 2b bf 76 67 73 bf 83 6d 4b be
       0.38291356 -0.6705478 -0.95079744 -0.19865994
0001f0 81 f9 98 bf 52 67 d1 3d a1 6f c0 be be ae 53 3f
       -1.1951143 0.10224785 -0.37585166 0.8268851
000200 77 88 29 3d ee 59 93 be 20 56 02 3f 6b 36 87 3f
       0.04138991 -0.28779548 0.50912666 1.0563482
000210 f2 79 9f 3e 7f 1c ab bc 8d a8 42 be bb b7 f1 3e
       0.31147724 -0.020887611 -0.1900961 0.47210488
000220 2f 82 12 bf 40 53 05 be d5 64 d1 3e e5 a0 30 3e
       -0.57229894 -0.13020039 0.4089724 0.17248876
000230 aa 02 cc be 4e 9f 30 be 19 1e 0a 3d 1c 70 63 3e
       -0.39845783 -0.1724827 0.03372011 0.22210735
000240 53 0d 56 3f bf 93 b0 be 9a c6 3c bd 36 a0 05 3f
       0.8361408 -0.3448772 -0.04608784 0.5219759
000250 9f b8 97 be b6 08 15 bf 89 3e 42 be dc b3 23 3f
       -0.29633042 -0.58216417 -0.18969168 0.6394632
000260 53 bb 12 3e 37 21 23 3f 3b 5c e2 be 02 e9 ac 3e
       0.14329271 0.63722557 -0.4421099 0.3377152
000270 ed 13 f7 be cb ed 4b bf 96 e1 11 3f 10 1b b3 bc
       -0.4825739 -0.7965972 0.5698484 -0.02186349
000280 d9 71 1e bf b7 cd b1 3e 9f 43 16 bf 79 47 36 3f
       -0.6189247 0.3472726 -0.5869693 0.7120281
000290 08 dd 6b be c8 27 ac be 93 44 9a 3e bd f5 bc 3e
       -0.23033535 -0.336241 0.30130443 0.36906233
0002a0 62 9f 20 bf f4 19 27 3f 06 97 83 be 69 23 af be
       -0.627432 0.65273976 -0.2570116 -0.34206703
0002b0 4a bc c1 be 87 06 0d bc f0 98 00 3f 7d 07 40 bf
       -0.37838966 -0.008607513 0.50233364 -0.75011426
0002c0 48 63 44 bf 10 d5 08 3f 87 d8 48 3f 70 db 88 3f
       -0.7671399 0.5345011 0.78455395 1.0691967
0002d0 95 9e 2a bf 7d 79 ae be af 35 4f be 61 c2 e3 bd
       -0.66648227 -0.34077063 -0.20235322 -0.11121059
0002e0 d9 4d 68 bf 26 6d 79 3f de e9 02 3f 1f 77 10 bf
       -0.90743786 0.9743217 0.51138103 -0.56431764
0002f0 75 33 6b bf 61 a9 ab 3e 0f c4 3f bf fa c9 d8 be
       -0.9187539 0.33527663 -0.74908537 -0.42341596
000300 fd 63 14 3e 62 a8 df 3f 31 1c 21 3e b5 40 af be
       0.14491268 1.7473261 0.1573341 -0.34229055
000310 ff fe 73 ba e0 ee 9e be 2d 32 e0 bd 1e cb d5 bd
       -0.0009307712 -0.31041622 -0.1094707 -0.10439132
000320 47 67 ac be 60 c7 69 3f ce fd 3c bf 3c 1a ad be
       -0.33672544 0.9131985 -0.73824775 -0.33809078
000330 16 2c a6 be e6 ae 3d 3e dd 0e 91 3c cb f2 69 bd
       -0.3245551 0.1852375 0.017707283 -0.05711631
000340 8b 19 98 be 6c 3c cb bd 80 d5 e7 be df ba e4 be
       -0.29706988 -0.09923634 -0.45280075 -0.4467382
000350 6c fb 6d bd 7a 51 a0 3e 0e d5 ad 3d 20 cb fe 3d
       -0.058101103 0.31312162 0.084879026 0.12441087
000360 fe 61 63 bf 05 d0 b8 bd fe 14 26 3f fa 45 04 3f
       -0.888214 -0.090240516 0.6487578 0.51669276
000370 69 b6 18 be 4a 23 87 be 60 29 d2 3c 04 a9 31 bf
       -0.14913334 -0.2639411 0.025654495 -0.6939852
000380 7c b0 a0 3c e4 c7 01 3f bb 35 96 3e 80 50 88 bd
       0.019615404 0.50695634 0.29337868 -0.06655979
000390 48 9d 33 3e 25 ff bf bc 42 77 ab 3d dd 03 34 bd
       0.17540467 -0.023437092 0.08372356 -0.043948997
0003a0 bb e8 35 3e 0e 0d 25 be 55 6e b7 be a3 09 f1 3e
       0.17764561 -0.16118261 -0.35826364 0.47077665
0003b0 11 6c 1d 3f 3e b6 a8 3d 62 93 01 be 04 06 80 be
       0.6149302 0.08237885 -0.12653878 -0.2500459
0003c0 16 be 1d be fe b4 b4 3e e5 de 13 bf 7a 8e 2c 3e
       -0.15404543 0.35294336 -0.57761985 0.16851225
0003d0 9a 62 39 be 46 a5 32 bf be 24 86 bd 34 fa ef bd
       -0.1810402 -0.6978344 -0.06549977 -0.11717644
0003e0 e5 d5 b0 be 4f b0 48 3f 4d c3 27 3e 51 b0 ea be
       -0.3453819 0.78394026 0.16383095 -0.45837644
0003f0 9b e1 80 be 51 66 2b be 7c 91 26 bf de 86 73 3f
       -0.25172123 -0.1673825 -0.6506574 0.95127666

rnn.weight_hh_l0 f4 [48, 16]
000000 34 a5 33 be ed d0 77 bc 45 1d 2f 3e 74 e7 8a 3e
       -0.17543489 -0.015125495 0.17101009 0.2712971
000010 38 9e c4 be f9 05 ad 3e 67 77 3d be 6d 2e d0 3d
       -0.3840196 0.3379362 -0.1850258 0.10165105
000020 c2 ec d8 3e 1c ea e2 3c 52 67 cd 3d 9b 96 dc 3e
       0.42368132 0.027699523 0.100294724 0.43083653
000030 8b a6 51 3e 44 e8 b8 bd 2e bc 2a be cd 33 12 3e
       0.20473687 -0.09028676 -0.16673347 0.14277573
000040 10 df 44 3d 3a 48 a9 bd d4 a4 07 be 61 95 51 3f
       0.04806429 -0.08265729 -0.1324647 0.8186856
000050 1f 09 08 bf c5 67 32 3e 2a 8c bd 3c 13 4e 72 3e
       -0.5313892 0.17422397 0.023138124 0.23662595
000060 67 5c 66 be c6 16 1e 3e a8 82 fe bd 16 f0 d1 be
       -0.22496186 0.15438375 -0.124272645 -0.41003484
000070 47 b5 d9 3d 5b 9f 35 3e ac 9f 40 be 99 18 9a 3e
       0.10630279 0.1773657 -0.1881091 0.30096892
000080 a1 95 24 3e 4a 53 31 3e f6 66 01 3e 56 be 93 be
       0.16072704 0.17316929 0.12636933 -0.28856152
000090 c7 31 f4 3e 14 70 00 3f d3 8c 2c 3f 56 c3 4a be
       0.47694227 0.5017102 0.6740238 -0.19801077
0000a0 be 4c d1 3e c6 ca c6 be 42 e0 c4 be d6 e9 f3 3e
       0.40878862 -0.3882658 -0.38452345 0.4763934
0000b0 30 0c 81 bb 22 4d 38 3e 05 7b 79 bc 6c 74 e4 be
       -0.0039382204 0.17998174 -0.015227084 -0.44620073
0000c0 b5 a8 d2 bc 82 d4 de 3e a9 71 17 be a3 ba 55 3e
       -0.025715211 0.43521506 -0.14789452 0.20871978
0000d0 57 eb 39 3d a4 c7 ac 3e e4 57 d7 bd 5c 1d c8 3c
       0.045390453 0.33746064 -0.10514811 0.024428062
0000e0 ea 8a 89 bd 6f 04 f9 3e f5 d7 ea bd e3 d2 f8 bd
       -0.06715949 0.48636195 -0.11466972 -0.121495984
0000f0 da b2 9c 3e 64 4e 07 be 8a be 33 3f 8e 3b ad 3e
       0.30605203 -0.13213497 0.70212615 0.338345
000100 9c 82 7a 3e d2 08 34 bf 2a b3 67 be 67 ac fd bd
       0.24463886 -0.7032596 -0.2262694 -0.12386399
000110 ab 5c 07 bf 83 a2 62 3e e5 f9 6a 3e cb 04 21 3f
       -0.52875775 0.22132306 0.2294689 0.6289794
000120 9e 9c 41 be 03 76 f9 3e cf 7a 15 be d2 1e 16 3e
       -0.18907401 0.48722848 -0.14597629 0.14660195
000130 0d ff a7 3e ce 93 13 be e2 3b 94 be 33 bc 66 3e
       0.32811776 -0.14411852 -0.28951937 0.2253273
000140 ab 89 b0 3d dc 72 be 3e fe c2 79 be 00 80 f1 bc
       0.08620008 0.37197006 -0.2439079 -0.02947998
000150 da 35 8a 3e 8c 67 8c 3e 5f 75 2e 3e 13 72 cf 3e
       0.2699421 0.2742275 0.17036961 0.4051672
000160 35 22 0c bf 12 a3 60 3e 63 f7 5e bf e1 b4 b8 3d
       -0.54739696 0.21937206 -0.8709623 0.09018875
000170 96 d6 59 bd c2 1c 18 3d d1 c2 af 3e 56 6b 7f be
       -0.05318316 0.0371368 0.3432832 -0.24943289
000180 48 ce 9a 3e 0b 79 b4 be 69 31 90 3d 9e 7d c6 3e
       0.30235505 -0.35248598 0.07040674 0.38767713
000190 bf 7b 2d be f1 24 75 3e 77 e7 af be f9 ba 69 bf
       -0.16941737 0.23939873 -0.3435628 -0.9130092
0001a0 d5 95 ae 3e 64 be 81 3e d7 43 4e be 65 c6 83 bd
       0.34098688 0.2534057 -0.20143066 -0.06434325
0001b0 86 1d 2b be 3f 60 8f 3e cc 5f ad 3e 92 83 25 3e
       -0.16710481 0.28003117 0.3386215 0.16163471
0001c0 b7 f0 ca bc d3 fe e6 be 14 1c ac bd 8d dc a7 3e
       -0.024772985 -0.4511629 -0.08403793 0.32785454
0001d0 82 d5 94 be 6a 84 1b 3f 71 a4 d7 3b 48 e5 29 be
       -0.29069144 0.6074892 0.0065808822 -0.1659137
0001e0 97 ee 6b 3d 74 f6 9b 3e 35 a4 8b 3e 3a 8d 8a 3e
       0.057600584 0.30461466 0.27273718 0.27060872
0001f0 15 71 01 be 0d 79 20 bb 6f 18 de 3d ab e4 89 3e
       -0.12640794 -0.0024486214 0.10844504 0.26932272
000200 21 42 a7 3e 47 64 20 bc d6 9b e7 be 0c 34 40 3f
       0.3266764 -0.009789533 -0.4523608 0.7507942
000210 40 35 03 be 13 c8 b9 3c 24 0b d5 3e 74 a5 9b 3e
       -0.12813282 0.02267841 0.41610062 0.30399668
000220 74 27 a9 3d 19 6d 74 be a8 60 0e bf 60 d5 93 be
       0.08259478 -0.23869742 -0.55616236 -0.2887373
000230 dd d4 ee bc c6 81 61 be f9 ce 85 3e 1b 81 22 3e
       -0.029154235 -0.22022161 0.2613447 0.15869562
000240 ef 77 29 bf 49 43 2e bd 81 d3 69 3e 1e 86 e6 3d
       -0.6619863 -0.042544637 0.22834589 0.112560496
000250 e6 bb 2b be a1 63 4f 3c b4 1d 99 be 57 0b cc bc
       -0.16770896 0.012658031 -0.29905474 -0.024907751
000260 69 24 11 3e 69 1c a5 3e 8b 41 e1 3c eb c6 f7 3d
       0.14174046 0.32248238 0.027497074 0.120984875
000270 e9 bc 5a 3e f0 9e c6 be 4e 01 9c bd 28 cb 40 bf
       0.21361126 -0.38793135 -0.07617436 -0.7530999
000280 01 49 9e 3e 46 3f 28 3e 23 e7 29 3c 7d 71 f8 3d
       0.30915073 0.16430387 0.010370049 0.12131021
000290 d3 fd b7 be bd e8 ea 3e d3 4c 67 be ca 87 21 3e
       -0.3593584 0.4588069 -0.225879 0.15774456
0002a0 c5 82 af be 7a 90 c1 3e 2c b9 8b 3e df bc 82 3d
       -0.34279457 0.3780554 0.27289712 0.063836806
0002b0 7a b2 c7 3c 91 86 97 bd fb 6d ed 3d 68 ac 40 3f
       0.024377096 -0.073987134 0.11593243 0.7526307
0002c0 6b ed 09 3f 90 a4 7a 3e 41 eb 13 bf 1e 2c 65 3d
       0.53877896 0.24476838 -0.57780844 0.055950277
0002d0 34 84 d6 be f5 32 d8 be 7b cb be bd 62 1e 9f be
       -0.41897738 -0.42226377 -0.093161546 -0.31077868
0002e0 1e 4b d8 bd 0b f3 76 bd 1f 3e 98 be 77 a4 cb be
       -0.105612025 -0.060290378 -0.29734895 -0.39773914
0002f0 dc 76 ac bd 00 f3 2b bf 2e ac 68 be 91 3d 88 be
       -0.08421108 -0.67167664 -0.22721931 -0.2660947
000300 a6 17 fb 3e 5a a4 fc 3d d5 fb 01 bf 7c f2 ed be
       0.4904148 0.12336035 -0.5077489 -0.46474063
000310 67 0a c0 be 60 2f 33 bf f9 d7 c1 3d 90 75 5d be
       -0.37507936 -0.69994164 0.09465022 -0.21626878
000320 34 e6 17 3d 8e 58 c7 be 6e a1 bc be 7b 36 18 be
       0.037084773 -0.3893475 -0.3684191 -0.14864533
000330 80 ea 3d 3d 73 1c 8f 3e f1 d5 fb be 45 bb 9d 3e
       0.046366215 0.27951393 -0.49186662 0.30806938
000340 89 21 7e 3d cf 4a d6 3e 39 d4 ae be 7d ce f5 3e
       0.0620437 0.4185395 -0.34146288 0.480091
000350 f6 c7 66 be d9 65 8d 3e e8 fd 01 be 11 e3 6c be
       -0.22537217 0.27616766 -0.12694514 -0.23133494
000360 10 b6 9a bd b5 73 e3 bd a3 6c 76 be a4 80 28 bf
       -0.07554257 -0.11106054 -0.24064879 -0.6582129
000370 4c 59 79 3c 1c 94 89 be 2f 33 05 be 3e 5e 0b 3f
       0.015219044 -0.2687081 -0.13007806 0.5444068
000380 03 9d 64 3f 23 b6 a7 be 03 bc c3 bd fb b4 12 3e
       0.8930208 -0.32756147 -0.09557345 0.14326851
000390 7a 92 48 3d cb b9 e5 3e dd d8 39 3e 18 d7 18 be
       0.048967816 0.4486831 0.18149133 -0.14925802
0003a0 97 a5 c5 bc 27 1d 1d 3e b1 6e 5f bd 06 3a 7d be
       -0.024126811 0.15343152 -0.054548923 -0.24729165
0003b0 65 55 64 be 2b 4e cd bd c8 3b c1 3e 70 04 66 be
       -0.222982 -0.10024675 0.37740922 -0.2246263
0003c0 81 66 98 be 07 a5 dc 3e 60 0b ea 3d c7 86 88 3e
       -0.29765704 0.43094656 0.11427951 0.26665327
0003d0 19 ff 3f 3e 61 95 53 3b a3 3c a0 be eb 95 9f be
       0.18749656 0.0032285082 -0.31296262 -0.31169066
0003e0 ba cb 61 3d 7f 40 13 be fd c0 59 be aa 1e 95 3d
       0.05512593 -0.14380072 -0.21265025 0.07281239
0003f0 94 79 c4 be 37 8f 02 bf 30 2b c5 be 64 e6 0c 3e
       -0.38374007 -0.5099978 -0.38509512 0.13759762

rnn.bias_ih_l0 f4 [48]
000000 b9 b0 ee 3d af 1e 41 be c9 48 32 bd 30 b1 32 bc
       0.11654801 -0.18859361 -0.043526445 -0.010906503
000010 c1 38 29 be f7 33 88 be 2b f6 4f bd f5 2a b7 bd
       -0.16525556 -0.26602146 -0.050771873 -0.0894374
000020 08 5c b6 3d a4 d0 d4 3d d5 9b 4c 3e c3 ef 15 bd
       0.08904272 0.103913575 0.1998132 -0.036605608
000030 76 ce 2b be a3 9a dd 3d 93 b1 29 3e 06 b2 78 3d
       -0.16777977 0.1082051 0.16571645 0.06071665
000040 ce bf a3 3f c9 8e 8d 3f 83 a3 b6 3f e6 4f 8a 3f
       1.2792909 1.10592 1.426865 1.0805633
000050 a3 a9 b9 3f 85 6b 55 3f 4f 0a c8 3f 03 7c c3 3f
       1.4504894 0.83367187 1.5628146 1.527222
000060 f1 7a a3 3f da 0c e7 3f f0 f0 85 3f cd 8d 92 3f
       1.2771894 1.8050797 1.0464153 1.1449524
000070 9d 15 a2 3f 54 c4 b5 3f ae c0 a6 3f c7 e0 81 3f
       1.2662846 1.420054 1.3027551 1.0146722
000080 89 a3 da 3d a3 e7 16 bd fd f5 b0 bd 3a 0d 79 bd
       0.10675723 -0.036842 -0.086406685 -0.06080363
000090 25 41 91 be 9e 28 a2 3c 5e 25 ae bd 5b 0d 3a 3e
       -0.28370014 0.019794758 -0.08503221 0.18169157
0000a0 e8 8a 26 3e d4 37 85 3e 2d b1 00 3e 01 e2 8a bd
       0.16263926 0.26019156 0.12567587 -0.06781388
0000b0 c6 22 dd 3d f0 6b 70 bd 8a 37 67 bd 3f 98 1f be
       0.10797648 -0.058696687 -0.05644945 -0.15585421

rnn.bias_hh_l0 f4 [48]
000000 5d e1 62 3d c4 39 1f 3e f9 74 47 be 45 3b 4d 3e
       0.055390704 0.1554938 -0.19478215 0.20042141
000010 ce aa 9d 3e 36 84 d9 3d 4e 87 92 be fc b8 c6 bd
       0.30794376 0.1062092 -0.28618854 -0.09703252
000020 26 bc 86 3e bd 2b 8c be b8 9b 0c 3e aa f7 7b 3d
       0.2631542 -0.2737712 0.13731277 0.061515488
000030 67 53 93 3b 6c 9d 48 be 82 96 46 3b a2 99 63 bd
       0.0044960263 -0.19591302 0.0030302112 -0.055566438
000040 35 97 a6 3f e9 d2 58 3f 45 82 ce 3f 69 8b bf 3f
       1.3014895 0.84696823 1.6133505 1.496442
000050 86 9f d9 3f c6 8e 8f 3f 53 75 c8 3f bb e0 98 3f
       1.7001808 1.1215446 1.5660805 1.1943582
000060 17 15 a1 3f ce 35 de 3f ca bf 85 3f 0b 23 b5 3f
       1.2584561 1.736017 1.0449154 1.4151319
000070 01 19 c4 3f f1 07 9c 3f 73 d5 84 3f bb b5 7a 3f
       1.532013 1.2189924 1.037764 0.9793355
000080 30 3a 85 be 42 4c 24 3e 9b 0c a0 bb 05 96 b7 3e
       -0.26020956 0.16044715 -0.004884315 0.35856643
000090 b8 b7 a5 be 15 34 38 3d dc c7 16 be 9a 8a 1f be
       -0.3236673 0.044971544 -0.14724678 -0.15580216
0000a0 78 fd b6 bd 7c de 9f 3e 0f 58 33 3e 8c eb 18 be
       -0.08935064 0.3122443 0.1751406 -0.14933604
0000b0 d4 4e 8c 3e 71 fe 0c be 22 05 4e 3e 55 21 6c 3e
       0.2740389 -0.13768937 0.20119146 0.2305959

mlp.0.weight f4 [128, 16]
000000 69 6c ce 3d bc 66 0a 3e 13 5a 27 3d 2c d8 2a 3c
       0.10079271 0.13515753 0.040857386 0.010427516
000010 84 64 07 bd 09 47 1a be 10 43 ad 3d 56 33 ee bd
       -0.033054844 -0.1506616 0.08460057 -0.11630885
000020 40 1e 34 3d 05 a9 b4 3d da 24 e9 bd 53 ad 41 bd
       0.04397416 0.088213004 -0.11383982 -0.047284435
000030 15 a9 9d bd 0a 2d e4 bd ef 4f 41 bb bd de 8d 3d
       -0.076982655 -0.11141403 -0.0029497107 0.069272496
000040 2b 34 30 be 48 8d 93 bd 81 c8 89 3c 1c 5b 71 bc
       -0.172074 -0.07204682 0.01681924 -0.014731195
000050 2e 39 52 bd 65 6e d7 bc 51 1d fa 3d 43 b3 f0 3d
       -0.051324062 -0.026297757 0.12212623 0.117529415
000060 4b 86 2d be 8e d9 66 be 90 37 6c 3e 90 f0 65 3e
       -0.1694576 -0.22543928 0.2306807 0.22455049
000070 28 66 9a 3c ac 9e 9c 3d d4 ad 72 be 6e 20 55 bb
       0.01884754 0.07647452 -0.23699123 -0.003252055
000080 57 23 b5 3d d6 a0 1b 3d f5 bd 1b be 54 f5 dd bd
       0.08844631 0.037995182 -0.15209182 -0.10837808
000090 fb 3e 82 3e 69 c4 f6 3d 42 3b 0e 3e 62 72 6d bc
       0.25438675 0.12049181 0.13889793 -0.014492603
0000a0 25 42 b1 bd ea da 69 be 5b 04 71 3d 79 59 ab bd
       -0.08655194 -0.22837415 0.058842044 -0.08366675
0000b0 35 fb 4e 3e 09 a5 dd bd 9b 3b 99 bd d2 1d 5b bd
       0.20213015 -0.108224936 -0.07482072 -0.053495236
0000c0 82 ec 14 3f ed 11 99 3c db ed 13 be 88 24 54 bd
       0.5817338 0.018685305 -0.14446203 -0.05179265
0000d0 4b 3c 07 be c9 7d c2 3d da e6 0c 3e 9f 59 80 3b
       -0.13206594 0.09496648 0.13759938 0.0039169337
0000e0 a8 1b b7 be 32 37 eb be f4 21 c7 3e 17 60 3d be
       -0.35763288 -0.45940548 0.38893092 -0.18493687
0000f0 86 24 a0 be 26 c9 73 be a8 ea c8 3d ec bc 1b be
       -0.31277865 -0.23807201 0.09810382 -0.15208787
000100 a3 97 c2 3e 3e 07 5b be c1 4f 84 3e d6 f1 3c bd
       0.38006315 -0.21389481 0.25842097 -0.04612907
000110 fe de 9d bd 25 0a d6 3e 39 3b 09 3e 33 77 a3 be
       -0.07708548 0.41804615 0.13401498 -0.3192688
000120 28 9e 82 3d 0c c2 d6 3d 55 a4 98 3d dc 89 25 bd
       0.06377822 0.1048623 0.07453219 -0.040414676
000130 71 aa e4 bd 74 06 57 be 93 32 c1 3e 77 d7 c6 3d
       -0.111653216 -0.20998555 0.37733898 0.097090654
000140 d7 c8 83 3e 98 71 b5 3e e5 fd 6c bf 92 9f 7c 3d
       0.25739166 0.35438228 -0.9257491 0.061675616
000150 0f 58 21 be 24 74 17 bf 35 4f 43 3f 7b aa db 3e
       -0.15756248 -0.5916159 0.76292735 0.42903504
000160 33 4c bf be a9 93 05 bf 27 90 c5 bd b7 c8 9e be
       -0.37362823 -0.52178437 -0.096466355 -0.31012508
000170 29 45 45 be 8b 3d be be ad fe a0 ba b2 2b 95 bd
       -0.19264664 -0.3715633 -0.001228293 -0.07283725
000180 d1 c1 c2 bd bb c4 a0 3c a6 81 47 be d1 26 27 3d
       -0.09509624 0.019625058 -0.1948305 0.040808503
000190 64 cf cb 3e 3d 04 09 be 7e 5a c5 3e c3 d4 de bd
       0.39806664 -0.13380523 0.38545603 -0.10880425
0001a0 ec 82 be 3d cc cd 21 bd 99 c2 3c be c9 37 fd 3d
       0.09302315 -0.039502904 -0.18433608 0.12364156
0001b0 24 d1 a8 bd 4a 01 03 be 2a b0 27 be 54 0e 08 3e
       -0.082430154 -0.1279346 -0.16375795 0.13286716
0001c0 c4 4c 36 bd d3 5f c6 3d 8a 52 8a 3d d5 16 11 3e
       -0.044506803 0.09686246 0.06754024 0.14168866
0001d0 d5 f9 1d 3e c1 3b 39 3c 0b 2a 89 3c 43 f3 b3 3d
       0.15427335 0.01130575 0.01674368 0.08786633
0001e0 ed 1c cb 3d 8f 6c a9 bd c9 23 ba bd 0e 75 e4 3c
       0.099176265 -0.08272659 -0.09088857 0.027887847
0001f0 f9 74 bc bd 66 4e ee bd c6 27 68 3c 2a 83 db bb
       -0.09201998 -0.11636047 0.014169639 -0.0066989856
000200 d3 5b b9 3d e7 f5 81 bd 0e 5c 26 3e cd 71 d9 bd
       0.09050717 -0.0634573 0.16246054 -0.10617409
000210 16 bf 6b 3e 2d 80 4d bd 9f 3b 4f 3e 9f 92 38 be
       0.23022112 -0.050171066 0.20237587 -0.18024682
000220 38 5a 91 3d 94 c9 c9 bd ef 45 0e be 81 ce c9 3a
       0.07097286 -0.09852901 -0.13893865 0.0015396626
000230 d1 b9 41 ba 6c 62 11 be d5 84 51 bd 94 ca 06 3e
       -0.00073900545 -0.14197701 -0.05115207 0.13163215
000240 a7 ef ea bd 8d d6 1f 3e fb ec f3 3e 82 6b 2e 3e
       -0.11471491 0.15609188 0.4764174 0.17033198
000250 cb 2b 0e 3e 63 01 36 be c1 93 a6 3e 9f 4b 83 3e
       0.13883893 -0.17773966 0.32534602 0.25643632
000260 d1 6f 85 be a9 cd 24 3d 26 67 13 be e2 4d 4f 3e
       -0.26061872 0.040235195 -0.14394817 0.20244554
000270 52 c9 81 bd 31 b5 c9 3d 94 d2 8e be c7 1e f4 3c
       -0.06337227 0.09849013 -0.27895033 0.029799832
000280 c5 66 75 3e 1a 76 26 3e 2d f9 8f 3d 33 6e a2 3d
       0.23964985 0.1625599 0.070299484 0.07931175
000290 57 94 1d 3c 74 8f 09 be ce d3 67 3e 45 e9 80 3d
       0.0096178865 -0.1343363 0.22639391 0.06294493
0002a0 4b b5 a7 bd 4c 3b 5f 3d ac ea 47 be dd d5 b0 3e
       -0.08188876 0.05449991 -0.19523114 0.34538165
0002b0 f3 d1 03 3c d8 dd 42 3e 86 8f de 3d 34 d8 d2 3d
       0.008045661 0.19029939 0.10867219 0.10295144
0002c0 69 b7 52 be fd 3b 41 bd b5 d3 ac be 91 f3 0c 3e
       -0.20577778 -0.04717635 -0.3375527 0.13764788
0002d0 8f 91 1d bd e6 23 a4 3c ed 76 4c 3f 6c 33 3b 3e
       -0.038468894 0.020036649 0.79868966 0.18281335
0002e0 14 88 cb 3a 88 2b c4 be 9c 5f a3 be b7 46 34 3f
       0.0015528225 -0.38314462 -0.31908882 0.704204
0002f0 75 9d b1 be e6 87 26 be 3c f2 11 be 78 c8 8e 3e
       -0.34690443 -0.16262779 -0.14252561 0.2788732
000300 7e b9 9b 3d 20 d4 ad 3e 95 1d e1 be 3e 68 75 3e
       0.07603739 0.339509 -0.43967882 0.23965546
000310 83 b0 5b be 7c f5 de be d7 17 f2 3e 5c 07 7d 3e
       -0.21454053 -0.43546665 0.47283813 0.24709839
000320 d5 1c 12 bf 08 b6 2a be 11 de 20 3c 4d 69 64 be
       -0.57075244 -0.16671002 0.00981857 -0.22305794
000330 6d 77 93 be 10 64 ca be 6f 36 ab be 2a f4 08 be
       -0.28802052 -0.39529467 -0.33439967 -0.13374391
000340 7e ff 14 3f 2e b6 96 be 2e 3a 14 be 4e 0c 7f 3d
       0.5820235 -0.29435867 -0.14475319 0.062267594
000350 aa 5d 98 bd 66 16 76 3e 53 dc 12 3e af 6d 9a be
       -0.0743974 0.24031982 0.1434186 -0.30161807
000360 7d 5d 2a 3e 79 9e a9 bd 1b b9 05 3e b4 e8 5a 3e
       0.16637225 -0.082821794 0.13058893 0.21377832
000370 0d cc b4 3e 34 78 a6 3e 13 71 4a bd f0 f2 19 3f
       0.35311928 0.32513583 -0.049424242 0.6013632
000380 eb ff 9c be 17 8d b3 3e 11 0b 7c bc 62 b2 d2 3d
       -0.30664 0.3506858 -0.015383498 0.1028793
000390 b0 99 9f 3e 71 c3 84 bd 5a 7f 0c 3f 29 27 24 3e
       0.31171942 -0.0648259 0.54881823 0.16030563
0003a0 4b 59 1a be 2d 55 a3 be dd 10 85 be 08 c1 78 3f
       -0.15073125 -0.3190092 -0.25989428 0.9716954
0003b0 07 90 89 be d0 75 82 3e c3 59 22 bf 4f 6b 4b 3e
       -0.26867697 0.2548051 -0.63418216 0.19865154
0003c0 5a aa 80 bc 46 d3 87 3e 43 e4 d3 be 48 20 30 bd
       -0.01570623 0.26528376 -0.41385087 -0.042999536
0003d0 46 ac 73 3d 2e 3e c5 3e 6c 15 d1 3e bc 72 b1 3e
       0.059490465 0.38524002 0.40836656 0.34657848
0003e0 f1 c9 47 be ef 47 24 bf df 13 4d bf f4 6a 15 be
       -0.19510628 -0.6417226 -0.80108446 -0.1459158
0003f0 ba c8 6e 3e 66 69 50 be 80 2a f2 3d 1d 94 98 bd
       0.23318759 -0.20352706 0.118245125 -0.07450125

mlp.0.bias f4 [128]
000000 52 d1 8f be ef 08 87 3e 7b 3b 9e be e0 a9 f6 bc
       -0.28089386 0.26374003 -0.30904755 -0.0301103
000010 84 eb 1a be 60 ec d3 be 42 a1 14 3e 34 60 c0 be
       -0.15128905 -0.41391277 0.1451464 -0.37573397
000020 32 fd d1 bd 3a 40 88 3d aa b6 96 be 57 9a 27 be
       -0.10253371 0.06652875 -0.29436237 -0.1636747
000030 7c 65 8a be bc f8 5c 3d 9a 45 34 be 35 a9 00 3c
       -0.2703055 0.05394815 -0.17604676 0.007852842
000040 ee ed 0a 3e bb c9 a0 be 1a 8b 70 be f7 97 5c be
       0.13567325 -0.31403908 -0.23490563 -0.21542345
000050 8a 92 87 be ea ed a1 be 43 ff a0 be f4 1a 05 be
       -0.26478988 -0.31626827 -0.3144475 -0.12998563
000060 0a 1f 2f 3e 2a 32 41 be a7 77 00 3e f9 51 a1 be
       0.17101684 -0.18866792 0.12545644 -0.31507853
000070 ee 36 0b bd 8e 7e 04 3e 82 30 12 3e d8 b3 6f be
       -0.033987932 0.12938902 0.14276317 -0.23408449
000080 d0 e0 c8 bd dc 8d 7b 3d 1e dd 5d 3e 05 96 a2 3d
       -0.098085046 0.061414585 0.21666381 0.0793877
000090 c4 70 85 be 5f 15 8c be a2 94 50 ba 9e 8d 5e 3e
       -0.26062596 -0.27360055 -0.00079567183 0.2173371
0000a0 b1 b3 49 be c1 a5 ed bd 7f ec 24 be 97 d2 82 bd
       -0.19697453 -0.11603881 -0.16105841 -0.06387823
0000b0 56 f6 92 bc c6 61 91 be 14 57 f5 bd 61 46 a0 be
       -0.017939728 -0.28394908 -0.119794995 -0.31303695
0000c0 46 8c 5a be f5 95 c2 bc 24 e4 dd 3d c2 2c 11 be
       -0.21342573 -0.023753146 0.1083453 -0.1417723
0000d0 36 11 ab 3d 48 93 3b 3e 2d 26 8f 3d 00 dd af be
       0.08352892 0.18317902 0.06989703 -0.34348297
0000e0 f8 91 95 be 6a d0 d7 bd 5f b2 79 3e 19 6f 91 bd
       -0.29212928 -0.10537799 0.2438445 -0.07101268
0000f0 47 86 7b be f2 36 46 be fb f5 48 bc 0e ff 27 3e
       -0.24562941 -0.19356897 -0.012265678 0.1640589
000100 8b c1 77 be 4e d7 78 3e 7c 6c 32 be cf f0 38 3c
       -0.24194925 0.24300882 -0.17424196 0.011287882
000110 6f af da 3d b3 66 bb be 95 fc 83 3e a3 47 ae bc
       0.106779926 -0.3660179 0.25778642 -0.021274393
000120 26 1f 40 bd df bf 81 bd 24 95 b4 ba e1 2c 23 be
       -0.046904705 -0.06335425 -0.0013777358 -0.15935089
000130 d9 b2 25 3e be 2e af bd b8 30 81 be c1 c9 81 bd
       0.16181506 -0.08553837 -0.25232482 -0.0633731
000140 31 70 24 be 41 1c 55 3e 12 47 b0 be 6e e3 43 3c
       -0.16058423 0.2081156 -0.34429222 0.011956079
000150 b8 fc 83 3e a2 87 1e 3e 4a 24 71 be 2b 43 f3 3d
       0.25778747 0.15481427 -0.23549 0.11878046
000160 8f 22 81 be 2f d4 a3 bd ac bf c0 bd bc e2 1a bd
       -0.2522168 -0.07999455 -0.094115585 -0.037813887
000170 40 86 42 3e 1d f7 9d 3d ca e3 7d be 7f f2 cb 3d
       0.18996525 0.07713149 -0.24793926 0.09958362
000180 01 cb fa 3b a6 51 c3 be 6b 3a 78 3d bb a2 ca bc
       0.0076535945 -0.3814823 0.060602587 -0.024735799
000190 0b 9d 58 be b8 6d 81 be ee e5 0f bc b9 cf 8a bd
       -0.21153657 -0.2527902 -0.008782847 -0.06777901
0001a0 ee d1 9c be 79 5f 30 be 8c 5e 54 be 1b 78 81 be
       -0.30628914 -0.1722392 -0.20739192 -0.25286946
0001b0 04 c7 35 be 91 2d 38 bd 00 96 73 be 1e f0 20 3e
       -0.177517 -0.04496533 -0.23787689 0.15716597
0001c0 4e b8 bc 3d 59 4f 7b be 49 8d c5 be 40 c6 de 3d
       0.09214841 -0.24541987 -0.38584355 0.10877657
0001d0 f3 06 85 be a9 9f 41 3e 58 21 b9 be 9e 55 9b be
       -0.25981864 0.18908562 -0.36158252 -0.30338758
0001e0 78 c1 29 be 4b 37 bb bd ae b9 d4 bd fb a8 b4 be
       -0.16577709 -0.09141406 -0.10386978 -0.35285172
0001f0 39 aa 23 3e 9f 4c 94 be fd 02 0c 3e fc 4b 24 3e
       0.15982904 -0.28964707 0.13673015 0.1604461

mlp.2.weight f4 [128, 128]
000000 d5 e3 8e bd 50 27 21 be 8b b0 8b 3d 74 3f 6f bf
       -0.06977049 -0.15737653 0.06820782 -0.93456197
000010 bc c7 28 3e b8 25 1d be 13 75 eb bd 06 29 db 3c
       0.16482443 -0.1534642 -0.114969395 0.02675296
000020 23 ae 39 3b f1 3e cd 3d 7d 28 c8 bd aa cc 0f be
       0.0028332553 0.10021771 -0.097733475 -0.14042917
000030 28 0a 34 3e 7c ec a1 3d e1 1e e3 bd 0e 2b 23 bf
       0.17582 0.07906434 -0.11089874 -0.6373757
000040 9b 86 0b be 93 73 33 bf 31 c3 c5 3d 85 ea 57 3e
       -0.13625567 -0.7009823 0.096563704 0.21085556
000050 8c db 2d bd bb c7 2e be 9f 10 bf 3d 68 0b 4a bd
       -0.042445704 -0.17068379 0.09329342 -0.049327284
000060 d0 39 12 bd 1b 9e 0f be b6 77 c1 bd 15 44 ff 3e
       -0.035699666 -0.14025156 -0.09446661 0.4985663
000070 dd b9 35 3f f2 51 c7 be 57 a3 10 3d cc a3 4d 3c
       0.7098673 -0.38929707 0.035312023 0.012551259
000080 46 3d 2b bf 46 87 cc bc f7 5a 37 3d fd 31 7b bd
       -0.6689037 -0.024966847 0.044764485 -0.06132697
000090 ce ae a0 be 8b 30 60 be 74 31 88 bc 32 e7 f4 3c
       -0.31383365 -0.21893518 -0.016625144 0.029895399
0000a0 cb f6 a3 bd 0c b0 4c bc 45 c7 21 bd 67 cb e8 bc
       -0.080060564 -0.012493145 -0.03949668 -0.028417302
0000b0 c2 44 58 3e d7 eb 42 bd 53 0f f5 bd 82 09 ec 3d
       0.21119979 -0.047588196 -0.119658135 0.11525251
0000c0 ab 52 aa bd 4f c9 61 bd a0 96 53 be 19 51 4f bd
       -0.08316549 -0.055123623 -0.20662928 -0.05061445
0000d0 1a 52 8b be ec 75 0e 3e e4 88 4b 3d 25 d0 92 be
       -0.27211076 0.13912171 0.049691096 -0.28674427
0000e0 f3 50 5f be 4f 0c e5 bd 45 43 07 bf 2e 43 71 bd
       -0.21808223 -0.11183988 -0.5283702 -0.05890196
0000f0 57 6c a3 bd fc ae ac 3d 5c 3f d9 bd 09 b9 19 be
       -0.079796486 0.08431813 -0.10607788 -0.15011992
000100 b9 ca 22 bc 2d d6 02 3d a2 8f f0 3d 6c 82 bf be
       -0.009936028 0.031942535 0.11746146 -0.37404191
000110 0b cd 85 3e 96 df d2 be 4f d7 f5 bb b4 16 9a 3e
       0.26132998 -0.41186208 -0.0075024734 0.30095446
000120 be 0b d8 be 60 3a d1 3e 80 cc bb 3c 45 49 91 3e
       -0.4219646 0.4086485 0.022924662 0.28376213
000130 67 6e b1 3e 6c f0 bc bd 85 c2 31 be ff 48 09 bc
       0.34654543 -0.09225544 -0.1735936 -0.00837922
000140 5a 9d 90 bc 9b b7 cc bc 2a 49 9f bf 18 95 59 bf
       -0.017653156 -0.024989894 -1.2444203 -0.84993124
000150 a2 47 28 3e d1 e9 15 be b2 73 0d bc ad 38 7c bd
       0.16433576 -0.14639975 -0.008633541 -0.061577488
000160 1f e2 e5 bd 40 e5 f7 bd 12 f5 c0 3c 80 bd eb bd
       -0.1122477 -0.12104273 0.023554359 -0.11510754
000170 ea 84 51 bd 88 a4 b3 bd 83 86 f9 bd 64 b1 22 be
       -0.051152147 -0.08771616 -0.12183859 -0.15887982
000180 7d dd f4 bf 19 34 84 3d ab 8d 0e be 7c 8a 28 be
       -1.9130093 0.06455249 -0.1392123 -0.16459078
000190 9b ea 35 bd 25 32 b8 3d b0 75 76 be 8d c9 23 bd
       -0.04441319 0.08993939 -0.24068332 -0.039987136
0001a0 d7 b5 0c be d5 5e 20 3e f3 23 02 bd a7 3a 84 3e
       -0.13741241 0.15661176 -0.031772565 0.25825998
0001b0 b4 43 a9 3e fd 79 c7 3e fc 8b a5 bd 6e f0 a4 bd
       0.33059466 0.38960257 -0.080833405 -0.08053671
0001c0 60 38 53 3e 7b a4 75 3e c5 03 dd bc ab fe 03 3e
       0.20626974 0.23988526 -0.026979337 0.12890117
0001d0 0d 50 55 3d be 9f 9e 3e 8d 41 6a 3c 4d 57 f7 3d
       0.052078295 0.3098125 0.014297855 0.12077198
0001e0 ce d0 6a bc 08 4f da 3d ff fb 06 bf f8 e9 df be
       -0.0143320095 0.10659605 -0.52728266 -0.43733191
0001f0 18 8b dd bc 64 a2 2d bd a5 b3 5b 3e 74 7a f3 3d
       -0.027043864 -0.042391196 0.21455248 0.118885905
000200 66 98 b0 3d 57 4d f3 3d 30 28 8b 3d a1 72 77 be
       0.08622818 0.11879986 0.067947745 -0.24164821
000210 34 e9 95 be e7 b0 80 3e 4f 28 ac 3d 96 c0 9f bd
       -0.29279482 0.25134966 0.08406126 -0.07800405
000220 5f fe 7d bd 13 ae f3 3d 7a 66 53 bd a4 77 bb be
       -0.062010165 0.118984364 -0.0516114 -0.36614716
000230 9e 4e 81 bd 0f b3 3b 3e 2c 53 2b be c4 6c a3 3d
       -0.06313823 0.18330024 -0.16730946 0.0797973
000240 e0 ab 24 be 18 00 5a be 8e 78 80 3d e8 24 02 bf
       -0.1608119 -0.21289098 0.06272994 -0.50837564
000250 60 92 af bf 7a 24 19 bf 39 f7 9e be 8a 9f 00 be
       -1.3716545 -0.59821284 -0.3104799 -0.1256086
000260 a6 aa 20 3e 0c 01 0b 3e 42 42 50 be d6 21 af bb
       0.15690097 0.13574618 -0.20337775 -0.0053446097
000270 9b 84 70 3d 64 72 86 3c 0f 4b 91 3e 27 13 92 bb
       0.058720212 0.016411968 0.28377578 -0.0044578495
000280 f9 04 e7 bc bd 31 bd 3d 88 96 3a 3e 68 bf 23 3d
       -0.028200613 0.092380024 0.18221486 0.03997746
000290 2e f6 d0 3e b8 3b b1 be 3f 71 52 be 8b 05 75 be
       0.4081282 -0.34615874 -0.20551012 -0.23927896
0002a0 dc 7f af 3d a8 d8 93 be e2 ef 1c 3e 05 ab 60 be
       0.08569309 -0.28876233 0.15325883 -0.21940239
0002b0 e8 51 8d bf f5 b9 a9 3c 18 d2 9f be ed 19 5f 3e
       -1.1040621 0.020718554 -0.31214976 0.21787234
0002c0 18 6d 09 3d 34 4d 03 3d 21 c7 04 3d aa 60 90 39
       0.033551306 0.03205605 0.032416467 0.0002753784
0002d0 94 96 6b 3d 3b de 40 3e f3 57 8e 3d 3e 17 4e 3d
       0.05751665 0.18834774 0.06950369 0.050315134
0002e0 54 0f 9a bd 44 bd 3e 3e 9c 14 60 3d ba bd 88 bb
       -0.07522455 0.18626887 0.054707155 -0.004173008
0002f0 cc 56 aa 3e bc f2 0d be 63 b3 00 be 92 0c dd 3d
       0.33269346 -0.13862127 -0.1256843 0.10793413
000300 91 47 ae 3d 76 af 96 3e 37 59 c1 3d 86 42 f2 bd
       0.08509744 0.2943074 0.094408445 -0.118290946
000310 ed a4 67 be 72 55 90 bd b4 c0 d7 3d b6 74 18 bf
       -0.22621508 -0.070475474 0.10534802 -0.59553087
000320 17 07 f7 bd 6c f4 54 3d 9b 04 97 3d 23 60 3c 3d
       -0.12061899 0.05199091 0.07373925 0.04599012
000330 d1 b2 90 3e cf 07 06 3d 6c cc 09 3e e5 8c 1b 3e
       0.28261426 0.03272229 0.13456887 0.15190466
000340 0e 9e e9 bb c3 b2 16 3d 97 92 0d bd 0e e8 43 bd
       -0.0071294373 0.036791574 -0.034563627 -0.047828726
000350 c9 01 6e 3d d1 62 85 3c 28 8d 36 bc 22 2f 3f bd
       0.05810717 0.01628247 -0.011142053 -0.04667581
000360 9e 9a 00 bd 3c d5 aa bc da a9 41 bd f8 a3 e6 bd
       -0.031397454 -0.020853631 -0.047281124 -0.11261743
000370 a3 f3 d2 3d e5 0c c6 bd 7c 2a 49 bf a9 b8 0e 3b
       0.10300376 -0.09670428 -0.7858045 0.0021777546
000380 98 6b ad be 44 13 e7 3d a4 93 61 bd 0d e7 69 3e
       -0.3387115 0.112829715 -0.05507244 0.22842045
000390 82 97 b3 bb 28 39 95 3c 99 0e 14 bd a0 e5 4b 3d
       -0.0054807076 0.01821573 -0.036146734 0.049779534
0003a0 61 3a d5 3d 1c 5b 38 3d 6f 01 43 be a7 9a 67 3e
       0.104115255 0.045008764 -0.19043516 0.22617589
0003b0 45 5a 8a be a4 af b3 3c 7c 46 46 bd 7a 31 4b 3e
       -0.27021995 0.021934338 -0.048407063 0.19843093
0003c0 51 42 45 3e 46 bb 62 be 52 d6 b6 bc c3 a1 c3 bc
       0.19263579 -0.22141752 -0.022318993 -0.023880845
0003d0 b1 de 53 3d d2 12 5c 3e c9 cc e6 bd ad a6 92 3d
       0.051726047 0.21491554 -0.112695284 0.07160697
0003e0 77 fd c0 bc a0 12 5d bd d4 62 d4 be a0 b8 d7 be
       -0.023558361 -0.05397284 -0.4148165 -0.42133045
0003f0 6b 96 02 3d b7 5d 34 be d1 8d 1d bd bb f9 a7 bc
       0.03188173 -0.17613874 -0.038465325 -0.020504823

mlp.2.bias f4 [128]
000000 31 1e a4 3d 76 ac 5c 3e 34 1c 08 be 45 ce f9 3d
       0.08013571 0.21550164 -0.13292009 0.12197546
000010 15 27 7c 3b 99 1a 06 be 5f b3 ec 3d 41 75 6f 3c
       0.0038475443 -0.13096084 0.1155765 0.014615358
000020 cb a2 33 3c d0 6d 57 3e 24 80 6c 3e 4b c5 46 3e
       0.010964106 0.21037984 0.23095757 0.19411199
000030 8e ae 88 bd 3d 98 e1 bd ed c0 9a 3d ee 8f b1 3d
       -0.06673919 -0.11015365 0.07556329 0.086700305
000040 12 18 80 3e 54 19 88 3e e2 c4 a8 bd 08 cb 8e 3e
       0.25018364 0.26581824 -0.082406774 0.27889276
000050 a8 8a a9 3e ed d9 f0 3d 32 b5 4d 3e 29 2e f1 bc
       0.331136 0.11760316 0.20088652 -0.029440956
000060 41 f2 54 bd 13 a6 9d 3c f5 32 e0 3d 73 df 72 3c
       -0.051988844 0.01924423 0.10947219 0.014823782
000070 69 32 28 3e c0 31 42 3e b7 bd 7b 3e b0 c1 c9 3d
       0.1642548 0.1896429 0.24584089 0.09851396
000080 26 71 4d bd 36 9a 58 bd 77 59 de 3d 4a 9b 1b 3d
       -0.050156735 -0.052881442 0.10856908 0.037989892
000090 60 a7 37 bd f0 30 b6 bd 0e 6d 50 bb 2c 1e dd bd
       -0.044837356 -0.08896053 -0.0031803283 -0.107967705
0000a0 6b 52 7a 3e 87 15 22 3e 36 c5 da 3d 99 a9 37 3c
       0.24445502 0.15828525 0.10682146 0.011209869
0000b0 6b cf 03 3e f2 26 8a bc e2 31 7c bd 48 51 5f 3e
       0.12872092 -0.016864274 -0.06157101 0.2180835
0000c0 52 98 04 be 60 95 0e be b0 04 b0 be 46 a7 c2 3d
       -0.1294873 -0.1392417 -0.34378576 0.09504561
0000d0 52 51 c8 bd e8 dc 23 3d 1d 57 b0 bd a0 2c 92 3e
       -0.097811356 0.040005594 -0.086103655 0.2854967
0000e0 4d 24 c8 bd 75 2c fe bd 20 35 e1 bc bb 7e 4f 3e
       -0.09772549 -0.12410823 -0.027491152 0.20263188
0000f0 6b cc e4 bd ac db da 3c 3e 5a 81 3e 3d f3 72 3e
       -0.11171802 0.026716076 0.25264162 0.237256
000100 7a dc da bc f8 f8 02 be 18 85 3e 3e 5c dd ec 3b
       -0.02671646 -0.12790287 0.18605459 0.0072285365
000110 39 96 49 bd f2 a5 a1 3e 44 1a 9c 3e 88 15 f1 bd
       -0.04921553 0.3157192 0.3048879 -0.11771685
000120 69 43 b6 bd 52 99 24 bd c2 22 87 3e 56 5d 77 3e
       -0.08899576 -0.04018528 0.26393706 0.24156699
000130 b0 39 ef 3d 60 4c 36 bd 3a 57 a3 bd c9 de 31 3d
       0.11680925 -0.04450643 -0.079756215 0.043425355
000140 2d f4 6c 3e fc 15 29 bc 5e 80 84 3e 67 88 69 3e
       0.2314002 -0.010320183 0.25879186 0.2280594
000150 59 d6 2c bd 1a eb 07 3e be 06 d5 bd c7 60 65 be
       -0.042196605 0.13273278 -0.104016766 -0.22400199
000160 0a 2e e8 bd f4 5b 61 3e 73 50 4d 3e f3 cb 0b 3c
       -0.11336906 0.22007734 0.2005022 0.008532512
000170 f7 fd 9d bd c5 a4 9f 3e 59 32 2b 3d 9f bf a2 bd
       -0.077144556 0.31180397 0.041796062 -0.07946705
000180 68 bc 22 3e ec db 2e bd 35 f3 4a bb 3e 77 90 3d
       0.15892184 -0.042690203 -0.0030967717 0.07053994
000190 70 b5 c6 bd e1 dc 96 bd 2c 52 88 bd 3d 3a 8e bd
       -0.09702575 -0.07366348 -0.06656298 -0.06944702
0001a0 4f ce 7d bd 2d 08 73 3e 19 c3 e0 3b 66 8c fc bc
       -0.06196433 0.23733588 0.006859195 -0.030828666
0001b0 6d 6b 8e 3e 8b 78 37 3d f5 0f e8 3c 67 12 b7 bd
       0.27816334 0.044792693 0.028327921 -0.08939057
0001c0 86 9b ac bd e4 a2 ba 3c ee ee 81 bd 8d e6 c7 be
       -0.08428101 0.02278275 -0.063444 -0.39043084
0001d0 c4 b6 df bc 69 2f a2 bd 8c e1 8d 3c 8a 55 2e 3c
       -0.02730883 -0.07919199 0.017319463 0.010640511
0001e0 e9 3b c8 bc bd d0 0f be 33 3d 1e bd 1d 95 49 bd
       -0.02444263 -0.14044471 -0.038632583 -0.04921447
0001f0 6e 6c 9f bd 6f a0 52 bd 03 78 5c 3e f6 09 5d bd
       -0.07784353 -0.051422533 0.21530156 -0.053964578

mlp.4.weight f4 [3, 128]
000000 5f 58 43 3d 8f bf 1c 3e 7c 2a 8b bd e3 0e 85 bd
       0.0476917 0.15307449 -0.067952126 -0.0649698
000010 9b 81 e9 bb 16 94 29 bd e0 ef 3d 3c 87 54 16 3e
       -0.007126046 -0.04140099 0.011592835 0.14680682
000020 8c b7 be 3b 34 f6 17 3e 42 31 88 bb 4c 5d 1d be
       0.0058202203 0.14840013 -0.0041562626 -0.15367621
000030 35 30 ab bc 83 b3 f0 bc 6a d6 32 bc c6 0e 35 bd
       -0.02089701 -0.029382473 -0.010915378 -0.044203542
000040 be 4a c9 bc 04 f4 bf bd 1a 06 b6 bd 52 43 03 bd
       -0.024571773 -0.09372714 -0.088878825 -0.032046624
000050 af 0f 90 be b8 04 61 bd 7a be 97 bd 87 2a cc 3c
       -0.28136966 -0.05493614 -0.074093774 0.024922622
000060 46 57 c4 bd d3 54 f3 bd cb a7 5d bd f1 89 36 b9
       -0.095869586 -0.11881413 -0.054115098 -0.0001740826
000070 a3 93 a5 bc 70 f7 8e 3c 23 fd 6c bd 31 54 23 bc
       -0.020212 0.017451972 -0.057858597 -0.009968803
000080 36 2e 18 3e 29 81 10 bc c7 18 1f be 7e b1 13 be
       0.14861378 -0.008819857 -0.15536796 -0.14423177
000090 4f 27 f9 bc 05 48 5b bd 1f dc 76 bc e2 a6 a1 bb
       -0.030414252 -0.05353548 -0.015067129 -0.004933224
0000a0 49 f4 d9 3d 99 33 c6 bd a9 36 dc 3d fa d6 8e bd
       0.10642297 -0.0967781 0.10752613 -0.06974597
0000b0 b5 11 b5 bb d6 1f e9 3b 0d cc cd 3d 9e 7c f1 bb
       -0.0055257925 0.007114391 0.10048685 -0.007369592
0000c0 ff b0 60 3b df 40 d4 bc bb a4 15 bb ca 35 9b be
       0.0034285185 -0.02590984 -0.0022833783 -0.30314475
0000d0 c3 1e 8b 3c 6f 31 77 bd d0 b6 1c 3d ed a4 88 bd
       0.016982442 -0.060349878 0.03826028 -0.06672082
0000e0 f6 73 a0 3c b8 f2 84 bc 76 07 66 3e a7 18 fb 3c
       0.019586544 -0.016229019 0.22463784 0.030651404
0000f0 0b 06 4a bd 0a 4b 3a bd 24 00 34 be d6 0a e3 bd
       -0.04932217 -0.04548172 -0.17578179 -0.11086051
000100 99 f8 8f bd ec 03 f0 bc 97 92 3c bc 42 56 cd 3b
       -0.07029838 -0.029298745 -0.011509559 0.0062663862
000110 7f 66 cd bc 09 10 c8 bc 96 b9 24 be 55 f3 2e bd
       -0.025073288 -0.024421709 -0.1608642 -0.04271253
000120 a4 ba c5 bd 1f 39 18 bd 80 a8 7c be b9 a2 1a 3e
       -0.096547395 -0.03716385 -0.24673653 0.15101136
000130 6f 6d 6c 3c dc de 42 bc 96 f8 26 bd bc 58 55 3d
       0.014430388 -0.011893954 -0.040764414 0.052086577
000140 85 f2 28 be d3 78 55 3d 56 cb c1 3c da 16 b9 bc
       -0.16498764 0.05211718 0.023656528 -0.022593904
000150 4e 79 3d bc 18 59 10 be af 77 6e bc 57 a7 08 bd
       -0.011564566 -0.14096487 -0.014554902 -0.033362713
000160 14 e3 8d bd a7 12 a3 bd a4 6a 4b bd 2c c4 07 be
       -0.06928077 -0.07962542 -0.049662247 -0.13258427
000170 98 14 24 bc 2a 21 65 bd fe b4 d3 bd aa 7f d0 bd
       -0.010014676 -0.05593983 -0.10337256 -0.101806
000180 fc 79 30 bd 47 bf bc bc 31 ed 32 be ef 3d 95 3c
       -0.043085083 -0.023040427 -0.17473294 0.018218009
000190 6a 10 e2 3c da ce 91 3d 66 5c 7e bc 69 31 a5 3c
       0.027595717 0.07119532 -0.015524959 0.020165162
0001a0 0a 71 d3 bc 57 c0 4d bd 32 1b c5 bd 44 dc c5 bd
       -0.025810737 -0.050232258 -0.09624328 -0.09661153
0001b0 43 fc 59 be b2 15 c9 bd d9 a0 99 bd d4 7c 3a 3a
       -0.21287636 -0.09818591 -0.075013824 0.0007113938
0001c0 81 a4 55 bd 13 81 a7 bc 67 77 0c bd 7b 26 84 3e
       -0.052158836 -0.02044729 -0.03429356 0.25810608
0001d0 9f f8 8b bc 4c ee 6a 3c 9b b2 d1 bc 46 e0 0a bd
       -0.017086325 0.014339041 -0.025597861 -0.03390529
0001e0 c7 27 29 bd e6 9d a6 bd 85 c1 47 bd 92 84 9b 3c
       -0.0412977 -0.081355855 -0.04876854 0.018984113
0001f0 e7 77 e2 3b 8d 4f e7 b9 93 d6 97 bd de 47 45 3e
       0.006911266 -0.00044119023 -0.07413974 0.19265696
000200 96 d8 4f 3d 53 0d 1e 3e 74 86 9b 3d c2 79 be bd
       0.05074366 0.1543477 0.07594004 -0.09300567
000210 fe 5f 0d be c7 70 9a 3d cf 64 41 3e d7 13 2c bd
       -0.1380615 0.07541042 0.18886112 -0.04201111
000220 b5 60 97 3d 99 dc eb 3d 4d 50 68 3e 0d 0c 54 3e
       0.07391492 0.11516685 0.22686882 0.20707722
000230 97 75 63 bc 25 14 2f bd 1d 73 dd bd fc 01 42 be
       -0.013883016 -0.04274382 -0.10812972 -0.1894607
000240 d4 d2 43 be 12 3c 62 bd 51 4e 83 be 2b 04 7b 3d
       -0.19123393 -0.05523307 -0.25645688 0.06128327
000250 3c 41 a5 bd a8 cc 4f 3e b0 9b c0 3d 67 bf f8 bd
       -0.08069083 0.20292914 0.09404695 -0.12145882
000260 84 3d f4 bc e7 b5 84 bc 26 43 ff 3d e0 ae c4 bd
       -0.02981449 -0.016200019 0.124639794 -0.09603667
000270 6a a6 9f bc 9c a5 0d 3e 3a 95 8e be 41 6e 3a be
       -0.019488532 0.13832706 -0.27848226 -0.18206121
000280 8a 4e ef bc f0 03 c9 3d 7c a2 2b bd 41 f0 b4 bc
       -0.029212255 0.09815204 -0.041903004 -0.022087218
000290 79 ed 15 3e a2 b2 bc 3d 0a e9 eb bc 33 ae af 3d
       0.1464137 0.09213759 -0.028797645 0.08578148
0002a0 7a b5 98 3e 21 76 b6 3d bd f0 0a bd 45 03 12 bd
       0.29825956 0.0890925 -0.033920992 -0.03564765
0002b0 bf 35 4d be a8 32 89 bc 4b 2e 29 be 91 b4 b2 bc
       -0.20040034 -0.016747788 -0.16521566 -0.021814616
0002c0 c0 2d b3 3c 7f 88 3e bd fb 37 9a 3e a6 ab 8c bc
       0.021872401 -0.04651689 0.30120835 -0.017171692
0002d0 8f 9f 3a 3d 64 c4 db 3d cf 00 d4 bc b3 52 b2 bd
       0.045562323 0.10730818 -0.025879292 -0.0870718
0002e0 7f 25 13 be 3f 0a e4 3d ea 8f 13 3c 50 97 3d 3e
       -0.14369772 0.11134767 0.00900648 0.18514752
0002f0 20 dc 49 bd 78 9a 0b 3d 33 28 1f be bf b5 ca bc
       -0.049282193 0.03408286 -0.15542679 -0.024744866
000300 eb 06 b5 bd 46 19 bd 3d 50 0a 72 be 3a c4 da 3c
       -0.0883921 0.09233336 -0.23636746 0.026704896
000310 39 3d b7 bd 38 4e 78 3d fa f1 7f bd 6a 68 0e be
       -0.08947224 0.06062147 -0.062486626 -0.13907018
000320 bb 86 a7 bc d8 26 6a 3d 18 ad d9 3b b6 94 7a 3e
       -0.020449987 0.05716595 0.006642949 0.24470791
000330 67 29 6a 3e 8b c3 d0 bb d7 15 1a 3d 99 6d e4 3c
       0.22867356 -0.006370967 0.037618484 0.027884291
000340 3b 26 a3 bd 25 d2 59 3e df 88 57 3d 5a 28 87 bb
       -0.07966276 0.2127157 0.052620765 -0.0041246833
000350 83 e3 8a bd 40 f7 92 bd e0 e6 8e 3b eb 7b 02 be
       -0.06781676 -0.071760654 0.0043610185 -0.12742583
000360 3d 80 5c 3d fa b8 00 3d 3a 36 52 bc 89 9c c4 bd
       0.053833235 0.031426407 -0.012830311 -0.09600169
000370 8d 9b e1 bc 28 a6 21 bd ab 27 c9 bd 92 58 15 3e
       -0.027539993 -0.0394651 -0.09822019 0.14584568
000380 e5 f1 d7 bd 1d 21 93 3d d9 5c 04 3d 41 9b 0e be
       -0.105441846 0.0718405 0.03231511 -0.13926412
000390 c7 07 d0 3d 2e cb 54 3d be c2 3e bd 86 da ed bc
       0.101577334 0.05195158 -0.04657244 -0.029034864
0003a0 8f df 2e bd ca 85 24 bd d3 b7 04 3e 6d d3 07 3e
       -0.04269367 -0.040166654 0.12960748 0.13264246
0003b0 ce 93 07 bd e8 e0 e4 bd 8f ed 2c be 7b ef 0a 3e
       -0.033099942 -0.1117571 -0.16887496 0.13567917
0003c0 c5 94 ba bb a1 3e 6c 3c bf bb 05 be dc ab 3b 3b
       -0.0056940042 0.014419229 -0.130599 0.0028636372
0003d0 33 1d 8b 3d a9 b7 3f 3d 67 e6 ad bd 29 26 44 bd
       0.06792679 0.04680601 -0.084912114 -0.047887955
0003e0 a9 13 07 be 3b a6 60 bc 83 24 05 bd 0c 61 b1 bc
       -0.13191094 -0.013711507 -0.032505523 -0.02165272
0003f0 03 4a 3e bd 88 95 a2 3c 91 db e9 bc 3c 76 8d bd
       -0.0464573 0.019846693 -0.02854708 -0.06907317

mlp.4.bias f4 [3]
000000 83 59 74 be 3c 7c 8e bd 83 de c8 3e
       -0.23862271 -0.069572896 0.39232263
