EUSIPCO/ULANoisy/saved_models/da_music_v2_-5dB.pth (torch, 46938 bytes, 18 tensors)

bn.weight f4 [16]
0	0x3f3acf11	0.7297221
1	0x3f5b0ea1	0.85569197
2	0x3f6c84d2	0.9239017
3	0x3f37b77c	0.7176435
4	0x3f3d5af0	0.73966885
5	0x3f2b524c	0.6692245
6	0x3f0a836f	0.541068
7	0x3f180f31	0.5939818
8	0x3f15403f	0.58301157
9	0x3f3ccab9	0.7374683
10	0x3f3bef97	0.7341246
11	0x3f5aae21	0.8542195
12	0x3f33ed8c	0.7028434
13	0x3f375557	0.71614593
14	0x3f3b8918	0.73256063
15	0x3e8f30f5	0.2796704

bn.bias f4 [16]
0	0x3dd1480a	0.102188185
1	0x3db9eba1	0.09078146
2	0xbe911b0a	-0.28340942
3	0x3dea72f6	0.11447708
4	0xbd191891	-0.037376944
5	0x3e090c76	0.1338366
6	0x3e8418c5	0.25800148
7	0xbdc97942	-0.09837581
8	0xbd900cc6	-0.07033686
9	0x3e8db654	0.27678168
10	0xbdd80541	-0.10547877
11	0xbdb54ed1	-0.08852924
12	0x3e17cadc	0.14823478
13	0x3db51e4c	0.08843669
14	0x3d811ad3	0.063039444
15	0x3dcb0d66	0.09914665

bn.running_mean f4 [16]
0	0x3b428b2c	0.0029685004
1	0xbaff0040	-0.001945503
2	0x3ac145c4	0.0014745523
3	0xbb67df1c	-0.0035380786
4	0xbabe3e74	-0.0014514462
5	0xbab3abc0	-0.0013707802
6	0x3a1af991	0.0005911822
7	0x39a3d265	0.0003124654
8	0x3ac5ec5a	0.0015100345
9	0xba823880	-0.0009935051
10	0xba7da7bb	-0.0009676178
11	0xbade693a	-0.0016968616
12	0xba03ea5d	-0.0005032176
13	0xbaa5f87a	-0.0012662553
14	0x3b818731	0.0039528836
15	0xba32ede9	-0.00068256125

bn.running_var f4 [16]
0	0x4045267b	3.0804737
1	0x40457b98	3.0856686
2	0x40459b26	3.0875945
3	0x4045a6b3	3.0882995
4	0x40454cd7	3.082815
5	0x4045033e	3.078323
6	0x40452641	3.0804598
7	0x4045648d	3.0842621
8	0x40453328	3.0812473
9	0x4045226c	3.080226
10	0x40457794	3.0854235
11	0x404511cd	3.0792115
12	0x4044bbc7	3.073961
13	0x40450764	3.078576
14	0x40452285	3.080232
15	0x4044f0a5	3.0771878

rnn.weight_ih_l0 f4 [48, 16]
0	0xbd370709	-0.044684444
1	0x3f511476	0.81671846
2	0xbe90d62d	-0.28288403
3	0x3de37bb7	0.11107581
4	0x3e009b64	0.12559277
5	0x3e5a34c8	0.21309197
6	0x3efc0b9c	0.49227607
7	0xbf032415	-0.5122693
8	0x3f8f8bd1	1.1214544
9	0xbed7e333	-0.42165527
10	0x3eff1cb4	0.49826586
11	0xbec15937	-0.37763378
12	0x3eb1ff24	0.3476497
13	0x3e8ab2e5	0.2708961
14	0xbe8306de	-0.25591177
15	0xbfb21c6c	-1.3914924
16	0xbf9eef2c	-1.241674
17	0x3f04a427	0.51812977
18	0x3eda7398	0.42666316
19	0x3f0312fc	0.5120084
20	0xbe9a50f3	-0.30139884
21	0x3e66b5a7	0.22530232
22	0xbf27f6af	-0.65610784
23	0x3f818138	1.011756
24	0xbe80a941	-0.2512913
25	0x3f18493f	0.59486765
26	0x3f50c4c1	0.8155022
27	0xbeb5c63e	-0.3550281
28	0xbf884d40	-1.0648575
29	0x3f1c1070	0.6096258
30	0xbf3dbc57	-0.7411551
31	0x3e489dcd	0.19591446
32	0x3e2ddd0c	0.16978854
33	0x3ec5a1b7	0.3859994
34	0xbf1dbdbf	-0.61617655
35	0xbdfe2baf	-0.12410676
36	0x3e813701	0.25237277
37	0x3f1f1075	0.62134486
38	0x3f490032	0.78515923
39	0x3f5d0745	0.8633922
40	0xbed3c8ed	-0.41364232
41	0xbf2a2b2a	-0.66472113
42	0xbf6c0266	-0.9219116
43	0xbf17c633	-0.59286803
44	0xbf272fbc	-0.6530721
45	0xbf040808	-0.51574755
46	0x3d66cacd	0.05634575
47	0xbf083999	-0.5321289
48	0xbf67b029	-0.90503174
49	0x3f346287	0.7046284
50	0x3fcf2746	1.618386
51	0xbf712020	-0.94189644
52	0xbedf4c49	-0.43612888
53	0x3f1efb91	0.6210261
54	0xbf67cb77	-0.9054484
55	0xbf2ed1d2	-0.6828891
56	0x3f58bf29	0.8466669
57	0x3f3c04a3	0.73444575
58	0x3ed7c8ab	0.42145285
59	0xbf67af1a	-0.9050156
60	0x3f0b50e1	0.54420286
61	0x3f2b4c24	0.66913056
62	0xbf688c0b	-0.9083869
63	0x3e16e192	0.14734486
64	0xbf288a24	-0.65835786
65	0x3e84b1b8	0.2591684
66	0xbeb6696a	-0.356273
67	0xbec3bc62	-0.38229662
68	0x3e134927	0.14383374
69	0xbf1d4c28	-0.6144433
70	0x3edeb6ec	0.43498933
71	0x3e581b4a	0.2110416
72	0x3f3f2404	0.7466433
73	0xbf652733	-0.8951294
74	0xbda59d5a	-0.08086653
75	0x3e216a5e	0.15763232
76	0x3e5c12f2	0.21491602
77	0xbdfa8c8d	-0.12233839
78	0x3f6b52d4	0.9192326
79	0xbf6ff7ee	-0.93737686
80	0x3fa1a4e0	1.2628441
81	0x3c836fea	0.016044576
82	0x3f16f0b4	0.58961034
83	0xbed36d73	-0.4129444
84	0x3f70fb23	0.94133204
85	0xbe64fc35	-0.22361834
86	0x3c9e84ee	0.019350495
87	0xbf9a07d6	-1.2033641
88	0xbe5bf166	-0.21478805
89	0x3d6988fa	0.057015397
90	0xbf247362	-0.6423856
91	0xbede5f78	-0.43432212
92	0xbf89f2b9	-1.0777198
93	0xbfc8ac11	-1.567751
94	0x3e3ade65	0.182489
95	0xbf2feed8	-0.6872382
96	0xbf26339d	-0.64922506
97	0x3f0af788	0.5428395
98	0xbf02f02d	-0.5114773
99	0xbefd0127	-0.49414942
100	0x3f587655	0.8455556
101	0xbeface13	-0.48985347
102	0xbf2262ef	-0.6343221
103	0xbc33e928	-0.010980882
104	0x3f2debd9	0.67938
105	0xbf292829	-0.66076905
106	0xbe0b1bcd	-0.13584824
107	0x3faea099	1.364276
108	0x3e823587	0.25431463
109	0xbf468e1c	-0.7756059
110	0xbe31db3d	-0.17368789
111	0x3f0e444e	0.55572975
112	0xbf4626ce	-0.7740296
113	0xbea010b1	-0.31262735
114	0x3ee01fe9	0.43774346
115	0xbf43749a	-0.76349795
116	0x3e3c30ba	0.18377963
117	0x3e4e9596	0.2017425
118	0xbf901018	-1.1254911
119	0x3f865ebd	1.0497662
120	0x3fab6d64	1.3392758
121	0xbf9bd86a	-1.2175419
122	0x3dcf333e	0.101171955
123	0x3f17133d	0.5901373
124	0xbed14add	-0.4087743
125	0x3f1cc986	0.61245
126	0xbf3793ce	-0.7170991
127	0x3ec93889	0.39300945
128	0xbf2e7c1f	-0.68158144
129	0x3e69773d	0.22799392
130	0xbf130b0e	-0.57438743
131	0x3c88fc9a	0.016722012
132	0x3e80265c	0.25029266
133	0xbf0a0a9a	-0.53922427
134	0xbef0bfae	-0.4702124
135	0x3fb550d7	1.4165295
136	0xbf871f3f	-1.055641
137	0x3e949722	0.29021555
138	0x3e133544	0.14375788
139	0x3f33553d	0.7005194
140	0xbe50ad9e	-0.2037873
141	0xbf7aa02b	-0.97900647
142	0x3f34050f	0.7032022
143	0xbf4bf94a	-0.7967726
144	0xbf62dc4f	-0.88617414
145	0x3f238c0e	0.6388558
146	0x3f32baeb	0.69816464
147	0xbe80fefc	-0.25194538
148	0x3e665af2	0.2249563
149	0x3d92bb61	0.07164646
150	0xbe361edc	-0.1778521
151	0x3fa28644	1.2697225
152	0xbf87e110	-1.0615559
153	0x3f0289d9	0.5099159
154	0x3f5255a6	0.8216194
155	0xbf61ff76	-0.8828043
156	0x3d1f5696	0.038900934
157	0xbf5c0135	-0.8593934
158	0x3f0274cc	0.5095947
159	0xbf1f37bd	-0.62194425
160	0x3f89c066	1.076184
161	0xbf879d11	-1.0594808
162	0xbed82504	-0.4221574
163	0x3f6af054	0.9177296
164	0x3f29b8cc	0.662976
165	0xbf1e441f	-0.61822695
166	0xbeac3196	-0.3363158
167	0x3f0d86b2	0.55283654
168	0x3f310075	0.6914132
169	0x3daeeace	0.08540879
170	0xbf2d7cf2	-0.67768776
171	0xbf24f7f2	-0.64440835
172	0xbe0867f6	-0.13320908
173	0x3e0b4851	0.13601805
174	0xbf5cc630	-0.8623991
175	0xbea8f3a0	-0.3299837
176	0xbf08191f	-0.5316333
177	0xbf976d4d	-1.1830231
178	0xbe730158	-0.23730981
179	0xbf128552	-0.5723468
180	0x3e73d14d	0.2381031
181	0x3eb203f7	0.3476865
182	0xbeab17be	-0.3341655
183	0xbf79b609	-0.9754339
184	0xbf23082d	-0.6368435
185	0xbeadf6e5	-0.33977428
186	0x3d9614c0	0.073281765
187	0xbefe9f8d	-0.49731103
188	0x3e2ff245	0.17182262
189	0xbf538e87	-0.82639354
190	0xbf280061	-0.6562558
191	0xbf406b73	-0.75163954
192	0x3ef21d1e	0.4728784
193	0xbec08a0d	-0.37605324
194	0x3eefc8bb	0.46832833
195	0x3ef6c08f	0.48193786
196	0xbec19108	-0.37805963
197	0xbdef8850	-0.116959214
198	0xbf9e2a7c	-1.2356715
199	0xbf5601e8	-0.8359666
200	0x3dc50600	0.09620285
201	0xbe82bc66	-0.25534362
202	0xbedf8f7b	-0.43664154
203	0xbf82c5db	-1.0216631
204	0xbe27f1eb	-0.16400878
205	0x3e59bc6c	0.21263283
206	0x3f060920	0.52357674
207	0xbeac3cf5	-0.33640257
208	0xbe680dfb	-0.22661583
209	0x3f981cd5	1.1883799
210	0x3f73dbc3	0.95257205
211	0xbe8fa662	-0.28056628
212	0x3e6066bc	0.2191419
213	0x3f16ae23	0.5885946
214	0xbec0d321	-0.3766108
215	0xbeafa8d7	-0.34308502
216	0x3f8accbb	1.0843729
217	0x3e2858c4	0.16440111
218	0xbf462138	-0.7739444
219	0xbf3b5e10	-0.73190403
220	0x3f03858c	0.5137565
221	0xbf4f9a84	-0.8109515
222	0xbf47356a	-0.7781588
223	0x3d0d8e81	0.03455973
224	0x3d5b11cd	0.053483773
225	0xbe963d79	-0.29343775
226	0x3f6cb74d	0.92467195
227	0xbfb06115	-1.3779627
228	0x3f3389c0	0.70132065
229	0x3d76db09	0.060267482
230	0x3e19396f	0.14963315
231	0xbe90f98c	-0.2831539
232	0xbf8a8f30	-1.0824947
233	0x3fd4de1f	1.6630286
234	0xbf9fe752	-1.2492468
235	0x3f3dbecf	0.74119276
236	0xbe02ec13	-0.12785368
237	0x3e4e2838	0.2013253
238	0x3e939875	0.28827253
239	0x3e6c4c2d	0.23075934
240	0x3e9be072	0.30444676
241	0xbde49c13	-0.11162581
242	0x3e648884	0.22317702
243	0xbefa8325	-0.4892818
244	0xbedd99c9	-0.4328139
245	0x3cbf52ec	0.02335497
246	0x3ebe7922	0.37201792
247	0x3df9d77b	0.12199303
248	0xbeda25f6	-0.42607087
249	0x3f0c3160	0.5476284
250	0x3f6cea41	0.92544943
251	0x3fa09ec3	1.254845
252	0xbf235cc4	-0.63813424
253	0x3f497453	0.7869312
254	0xbf956427	-1.1671189
255	0x3f2c72d0	0.6736269

rnn.weight_hh_l0 f4 [48, 16]
0	0x3df835a7	0.12119608
1	0xbeb9125b	-0.36146817
2	0x3e7891e7	0.24274407
3	0xbf15a060	-0.5844784
4	0xbea2f296	-0.31825703
5	0x3df855e5	0.12125758
6	0xbe6318a2	-0.22177365
7	0x3e93b54c	0.28849256
8	0x3db52ceb	0.08846458
9	0xbe67864d	-0.22609825
10	0x3ee2d065	0.44299617
11	0xbc3a2b4f	-0.011362865
12	0x3ee19ac8	0.440634
13	0xbed48603	-0.41508493
14	0x3e07c6d8	0.13259447
15	0x3d269eaf	0.040678676
16	0xbdc77137	-0.09738391
17	0xbdda5f84	-0.106627494
18	0xbcc593f3	-0.0241184
19	0x3b851c2c	0.0040621962
20	0x3e211ab1	0.15732838
21	0x3dd09c23	0.10186031
22	0x3e24d93c	0.16098493
23	0x3ea2cda7	0.31797525
24	0xbea2f136	-0.31824654
25	0x3dc27cf2	0.09496488
26	0x3f24c4b8	0.6436267
27	0x3e096c7a	0.13420287
28	0x3ef54b6d	0.47909108
29	0x3f0518fc	0.5199125
30	0x3dd20d64	0.1025646
31	0xbd419e2d	-0.04726999
32	0x3f305bc1	0.68890005
33	0x3e9317cd	0.28729096
34	0x3e8b66cb	0.27226862
35	0x3f048737	0.5176882
36	0x3e3b0392	0.1826308
37	0xbe23d9e3	-0.16001086
38	0xbd32ce06	-0.04365351
39	0xbef945a9	-0.4868596
40	0x3f01c93f	0.506977
41	0x3da18b32	0.078878775
42	0x3f06dfce	0.5268525
43	0xbf387f8a	-0.7206961
44	0xbf193923	-0.5985281
45	0x3edf195b	0.43574032
46	0x3d0f813a	0.03503535
47	0x3e0ac880	0.13553047
48	0xbfa17b79	-1.2615806
49	0x3d7eaed6	0.062178455
50	0xbee34ef7	-0.44396183
51	0xbe076a65	-0.1322418
52	0xbf29d4fd	-0.6634062
53	0x3eebd6ec	0.4606241
54	0x3e28df9b	0.16491549
55	0xbd0df1bd	-0.034654368
56	0xbe26f325	-0.1630369
57	0x3f2613f9	0.64874226
58	0x3e79162d	0.24324866
59	0xbe0142fe	-0.12623212
60	0x3f8676a1	1.0504953
61	0x3e2b2a73	0.16715412
62	0x3d6058e2	0.054772265
63	0x3ef08ec1	0.46983913
64	0xbf02f62c	-0.5115688
65	0x3f061628	0.5237756
66	0xbfba9eee	-1.4579751
67	0x3ed84a70	0.4224429
68	0xbf5f135b	-0.8713891
69	0x3f746e6e	0.95481
70	0xbf5d2f17	-0.8639998
71	0xbc12b033	-0.008953142
72	0xbf79eb96	-0.976251
73	0xbecf8aa9	-0.40535477
74	0x3d25f8d5	0.040520508
75	0x3de9c6e8	0.114148915
76	0x3ec4ee5b	0.384631
77	0x3e7ebd5e	0.24876925
78	0x3fc0da22	1.5066569
79	0xbe819882	-0.25311667
80	0xbf2f2523	-0.6841604
81	0x3ebd514b	0.36976084
82	0xbf208c6f	-0.62714285
83	0x3e953f3c	0.29149806
84	0xbee9f0f8	-0.45691657
85	0x3dc3ade3	0.09554651
86	0xbf78c511	-0.971757
87	0xbb91971a	-0.0044430615
88	0xbea227e4	-0.3167106
89	0xbda6ce62	-0.08144833
90	0x3e8cbeda	0.27489358
91	0xbe167745	-0.14693935
92	0x3eac20df	0.3361883
93	0x3eea3fde	0.45751852
94	0x3f01e9cf	0.5074739
95	0x3d85b2cc	0.065282434
96	0xbf368c5d	-0.7130793
97	0x3d617d0e	0.055050902
98	0xbe7b1c3c	-0.2452249
99	0xbe0d15ee	-0.13777897
100	0xbefe7a6f	-0.49702784
101	0xbf26f774	-0.65221334
102	0xbe8e7dde	-0.27830404
103	0x3ee09ba3	0.4386874
104	0xbee60dfe	-0.4493255
105	0x3ecefce0	0.40427303
106	0x3e9887ce	0.2979111
107	0xbe5bd31a	-0.21467248
108	0x3f9583d2	1.1680853
109	0x3e7745e2	0.24147752
110	0xbe6f7e79	-0.23388089
111	0xbcd69e52	-0.02619854
112	0x3db2b784	0.08726409
113	0x3f98658b	1.1905988
114	0xbdbcc172	-0.09216584
115	0x3fa924d0	1.3214359
116	0xbfa84823	-1.3147014
117	0x3ec4562b	0.3834699
118	0xbf3c13a9	-0.734675
119	0x3ff168b8	1.8860083
120	0xbf36dfe7	-0.714354
121	0x3f22ccc8	0.6359372
122	0x3eb8d24f	0.36097953
123	0xbf7c5e7a	-0.9858166
124	0x3e2bd4dc	0.16780418
125	0x3ec0a1af	0.37623355
126	0x3fb3ad87	1.4037331
127	0xbec0e368	-0.37673497
128	0xbe0f6700	-0.14004135
129	0xbe5ee440	-0.21766758
130	0xbe1f3c5d	-0.1555037
131	0x3b40afb0	0.0029401593
132	0xbec6beb5	-0.38817373
133	0x3e10fce3	0.14158969
134	0xbe46245f	-0.19349812
135	0x3ecff651	0.40617612
136	0xbe0dd51c	-0.13850826
137	0xbddba8ab	-0.1072553
138	0xbe1422ce	-0.14466402
139	0xbe0f63c4	-0.14002901
140	0x3f79a727	0.9752068
141	0x3d21788b	0.0394216
142	0xbdd58e61	-0.10427547
143	0x3df26892	0.118363515
144	0xbeff2bb0	-0.49838018
145	0xbfc83210	-1.5640278
146	0x3e0635a6	0.13106403
147	0xbf541ae2	-0.8285352
148	0xbed13fea	-0.40869075
149	0x3ee530d1	0.44763806
150	0xbbb94ae2	-0.0056546787
151	0x3f2d0e9f	0.67600435
152	0x3effa750	0.49932337
153	0x3d88a9b1	0.06672991
154	0xbeac0b4c	-0.3360237
155	0x3f942da4	1.1576428
156	0xbd5ad54d	-0.053426076
157	0x3b8019e0	0.0039093345
158	0xbf43e65e	-0.7652339
159	0x3b7f6aed	0.0038973645
160	0x3ee15746	0.44011897
161	0xbd07f1d5	-0.033189613
162	0x3ea49ccc	0.32150877
163	0xbe9fa0ae	-0.31177276
164	0x3e5bca82	0.2146397
165	0xbe6860da	-0.22693196
166	0xbe16135f	-0.14655827
167	0xbf584692	-0.8448268
168	0x3d3bc9e7	0.045846846
169	0x3e9fc193	0.31202373
170	0xbfd82e1f	-1.6889075
171	0x3e43aeaa	0.19109598
172	0xbe6c2d7c	-0.23064226
173	0xbd93654e	-0.07197057
174	0x3f2c2883	0.67249316
175	0xbfc7ec85	-1.5619055
176	0xbf59ef2f	-0.8513059
177	0x3f150f29	0.5822626
178	0xbc1d1ed9	-0.009589874
179	0x3e17d5da	0.14827672
180	0xbbfd3bc8	-0.0077280737
181	0xbe0fe40b	-0.14051835
182	0xbf0a8bd4	-0.5411961
183	0xbea8427a	-0.32863218
184	0xbf624b8e	-0.8839654
185	0x3f16ad2a	0.5885798
186	0x3da341e0	0.07971549
187	0xbf003150	-0.50075245
188	0x3ef5fe43	0.4804555
189	0x3ec0d17a	0.37659818
190	0x3f17e36a	0.5933138
191	0xbeb4d968	-0.35322118
192	0x3f871411	1.0552999
193	0xbf818d92	-1.0121329
194	0xbe1df7a3	-0.15426497
195	0xbe87045e	-0.2637052
196	0x3e3aceb8	0.1824292
197	0x3f1a4110	0.6025553
198	0x3e350441	0.17677404
199	0x3eefeb03	0.46858987
200	0x3edcc69e	0.43120283
201	0xbf19688a	-0.5992514
202	0xbef8d154	-0.48597205
203	0x3f55a716	0.8345808
204	0x3f8302d7	1.0235242
205	0xbedca0f8	-0.4309156
206	0x3c5bf5c3	0.013425293
207	0x3e0c9db9	0.13732041
208	0xbfcf6543	-1.6202778
209	0xbbdee0bb	-0.0068016923
210	0xbf11e41c	-0.5698869
211	0xbdf17a8e	-0.117909536
212	0xbebf7be8	-0.3739922
213	0x3ec95a56	0.39326733
214	0xbf1e467f	-0.6182632
215	0x3f25f818	0.64831686
216	0xbf017bdf	-0.5057964
217	0x3d762948	0.060097963
218	0x3eb0f0bd	0.3455867
219	0x3e88ad45	0.26694694
220	0x3fb4e946	1.4133689
221	0x3edbcb9f	0.42928788
222	0x3f010d4f	0.5041093
223	0xbe6c5236	-0.23078236
224	0x3e95df8a	0.2927211
225	0x3f2a5764	0.665396
226	0x3f24d2aa	0.6438395
227	0xbd6d7bc1	-0.05797935
228	0x3d99674c	0.074904054
229	0xbf35a651	-0.70956904
230	0xbee761d2	-0.45191818
231	0x3dc68f96	0.096953556
232	0x3e87a22e	0.2649092
233	0x3f3fd577	0.74935097
234	0xbe3d26d6	-0.18471846
235	0xbee59199	-0.44837645
236	0x3ef701f4	0.48243678
237	0x3e7b49fa	0.24539939
238	0xbf079902	-0.52967846
239	0x3d72f440	0.059314966
240	0x3f0ab591	0.541833
241	0xbf1e82f9	-0.619186
242	0xbe267cf4	-0.16258603
243	0x3e232782	0.1593304
244	0xbe9768d0	-0.29572153
245	0xbe359e73	-0.17736225
246	0x3f810af1	1.0081464
247	0x3f45031c	0.7695787
248	0xbe38ab22	-0.18034032
249	0x3f0d39ba	0.5516621
250	0x3f9a0fea	1.2036107
251	0x3f3a788e	0.728402
252	0x3e978a92	0.29597908
253	0xbf1cf329	-0.6130853
254	0xbe4f6b04	-0.20255667
255	0x3eaa2983	0.33234796

rnn.bias_ih_l0 f4 [48]
0	0xbe90cc72	-0.2828098
1	0xbf10ec64	-0.56610703
2	0xbe9da17d	-0.30787268
3	0xbeecd8c2	-0.46259123
4	0xbe8bc811	-0.27301076
5	0xbe92c205	-0.2866365
6	0xbeb943f0	-0.36184645
7	0xbd6979d5	-0.057000954
8	0xbdf1fea2	-0.118161455
9	0xbebbe031	-0.36694482
10	0x3dcd00f0	0.100099444
11	0xbed82018	-0.42211986
12	0xbea5f1c7	-0.32411024
13	0xbe813358	-0.25234485
14	0xbedd7b99	-0.4325836
15	0xbe6ae206	-0.22937784
16	0x3fec3326	1.8453109
17	0x3fe3704f	1.7768649
18	0x3fc539f1	1.5408307
19	0x3fc10fe9	1.508298
20	0x3fbadde4	1.4598966
21	0x3f99a5a0	1.200367
22	0x3fab9220	1.3403969
23	0x3fa8aeab	1.3178304
24	0x3f961009	1.1723644
25	0x3fecbe08	1.8495493
26	0x3fc45678	1.5338888
27	0x3fc30267	1.5235108
28	0x3fca9b71	1.5828687
29	0x3fda09e1	1.7034265
30	0x3fad6fbf	1.3549727
31	0x3fb61fef	1.4228495
32	0x3dc43461	0.09580303
33	0xbd8aadb5	-0.06771413
34	0x3d99e9e4	0.07515314
35	0xbeb53f4d	-0.35399857
36	0xbe8c11bb	-0.27357277
37	0xbbab2c60	-0.005223796
38	0x3daa213c	0.0830712
39	0x3e5184da	0.20460835
40	0x3e2a2702	0.16616443
41	0xbe0ead9a	-0.13933411
42	0xbe4e9de3	-0.20177417
43	0x3dccff8f	0.100096814
44	0xbf00e787	-0.5035328
45	0x3e19b0e6	0.15008888
46	0xbe5c3ec0	-0.21508312
47	0xbe635a37	-0.22202383

rnn.bias_hh_l0 f4 [48]
0	0xbe50a29f	-0.20374535
1	0xbf03eb7c	-0.51531196
2	0xbe83bd5b	-0.25730404
3	0xbe712af4	-0.23551542
4	0xbdfc50a5	-0.12320069
5	0xbd00b22b	-0.031419914
6	0xbf08bb9b	-0.53411263
7	0xbe35734c	-0.17719764
8	0xbe9245e1	-0.28568938
9	0xbe836866	-0.25665587
10	0x3dddc241	0.108280666
11	0xbee38ce6	-0.44443434
12	0xbf24513e	-0.64186466
13	0xbe59f891	-0.21286227
14	0xbf2caf1f	-0.67454714
15	0xbef77d97	-0.48338005
16	0x3ff0c797	1.881091
17	0x3fe16e84	1.7611852
18	0x3fd62605	1.6730353
19	0x3fc0c554	1.506022
20	0x3f9c7d2f	1.2225703
21	0x3fad9564	1.3561215
22	0x3f8ef2a8	1.1167803
23	0x3f8cb223	1.0991863
24	0x3f940480	1.1563873
25	0x3ff0ead2	1.8821661
26	0x3fae372a	1.3610585
27	0x3f9782bb	1.1836771
28	0x3faf19d4	1.3679757
29	0x3fbd8c9b	1.4808534
30	0x3f642845	0.89123946
31	0x3fc914c9	1.5709468
32	0x3e3d2a90	0.18473268
33	0xbdf757c5	-0.120772876
34	0xbd76faac	-0.060297653
35	0xbefe2923	-0.4964076
36	0x3e419dcd	0.18907852
37	0x3e6da4c0	0.23207378
38	0xbbaeccf1	-0.0053344895
39	0xbd8bfab4	-0.06834927
40	0x3b34c64d	0.0027584017
41	0xbc9c05f8	-0.019045815
42	0xbdede0c6	-0.11615138
43	0xbd436743	-0.0477059
44	0xbe8c2d98	-0.27378535
45	0xbc792e8d	-0.0152088525
46	0xbe127813	-0.14303617
47	0xbe9faf61	-0.3118849

fc.weight f4 [128, 16]
0	0xbe5a4c8e	-0.21318266
1	0xbf289c89	-0.65863854
2	0xbe83ac24	-0.2571727
3	0xbe92a904	-0.28644574
4	0xbf421a42	-0.75821316
5	0x3f2f3a91	0.6844874
6	0xbd3a20cb	-0.04544143
7	0x3e9f64ad	0.31131497
8	0x3ed5708d	0.41687432
9	0xbf2225b2	-0.6333877
10	0x3f34c695	0.7061551
11	0x3eeee5dc	0.46659744
12	0xbc437263	-0.011929127
13	0xbf316f35	-0.69310313
14	0x3ac721c8	0.0015192563
15	0x3f1a51d9	0.6028114
16	0xbe9da0be	-0.307867
17	0xbd1d0a17	-0.0383397
18	0xbeb24c3e	-0.34823793
19	0x3db72bb7	0.08943885
20	0x3d8c8069	0.0686043
21	0xbe840f68	-0.25793004
22	0x3ec73252	0.3890558
23	0x3e880a3e	0.26570314
24	0xbe147b0c	-0.14500064
25	0xbda9e213	-0.08295073
26	0xbecc89c1	-0.39948848
27	0x3e39796b	0.18112724
28	0x3e934eb8	0.28770995
29	0xbeddbd26	-0.4330837
30	0xbe908f5d	-0.28234378
31	0x3e6f3248	0.23359025
32	0xbeb6a1e7	-0.35670397
33	0x3f0e1fcc	0.5551727
34	0x3d651abf	0.05593371
35	0x3ead9007	0.33898947
36	0xbda8f682	-0.08250143
37	0xbd7c8d3d	-0.061658133
38	0x3e49d8e6	0.19711646
39	0xbd3792fb	-0.044817906
40	0xbf13e42d	-0.57770044
41	0x3f1278ce	0.57215583
42	0x3e0105c7	0.1259986
43	0xbefb6eea	-0.49108058
44	0x3f255a48	0.64590883
45	0xbd8929f6	-0.066974565
46	0x3eecb871	0.46234468
47	0xbf10ade0	-0.5651531
48	0xbda7cc45	-0.08193258
49	0x3efb9a1f	0.49141023
50	0x3eec8d21	0.46201423
51	0x3e1e86a3	0.15481047
52	0xbe33d710	-0.17562509
53	0xbe20e359	-0.15711726
54	0xbd8592fc	-0.06522176
55	0xbeb36b3f	-0.3504276
56	0xbe1540d7	-0.14575516
57	0x3f202eeb	0.6257159
58	0xbf1fde33	-0.62448424
59	0xbefd0ce5	-0.494239
60	0xbdf51bf8	-0.11968225
61	0x3ec91988	0.3927729
62	0x3ecccfba	0.40002233
63	0xbf4f154f	-0.8089189
64	0x3ebbcc87	0.3667948
65	0xbe0812b2	-0.13288382
66	0xbe94f2b7	-0.29091427
67	0x3f5bde22	0.8588582
68	0xbe9cf7ce	-0.3065781
69	0x3ebf2070	0.37329435
70	0x3d1c12ed	0.038103987
71	0xbaa89471	-0.0012861622
72	0xbceec7e3	-0.029148048
73	0xbf0848e7	-0.5323624
74	0xbe5e73cb	-0.21723859
75	0xbd975d73	-0.07390871
76	0xbe459dcc	-0.19298476
77	0x3ecfd92c	0.40595376
78	0x3f4b1f62	0.7934476
79	0xbdb45901	-0.08806039
80	0x3ee0874e	0.4385323
81	0x3e9e7e0f	0.3095555
82	0x3ee8d65b	0.4547604
83	0xbea62536	-0.32450265
84	0xbe89f494	-0.2694441
85	0x3ee83af5	0.4535748
86	0x3ed3266d	0.41240254
87	0xbeabaf25	-0.33532062
88	0x3d8abae6	0.06773929
89	0xbe7907c2	-0.24319366
90	0xbe93ea01	-0.28889468
91	0xbe02b597	-0.12764584
92	0xbdab5774	-0.0836629
93	0xbebf7a9c	-0.3739823
94	0x3f1a8d00	0.603714
95	0x3eb46bf8	0.35238624
96	0xbf0487c9	-0.5176969
97	0x3dfdca2e	0.12392078
98	0xbf640f1e	-0.89085567
99	0x3f3ca4c0	0.7368889
100	0xbd64e8d9	-0.055886123
101	0x3f271cf5	0.6527856
102	0xbf302951	-0.68813044
103	0x3cd871b3	0.026421404
104	0x3c9d7118	0.019218966
105	0xbf067184	-0.5251696
106	0x3e289e84	0.16466719
107	0xbd29fc83	-0.04150058
108	0x3dd41dd8	0.10357255
109	0x3f46964f	0.775731
110	0x3f046cea	0.5172869
111	0x3f634ffa	0.8879391
112	0x3d8eb38e	0.06967841
113	0xbe6620bb	-0.22473423
114	0xbeeadf6e	-0.45873588
115	0xbd8b27c0	-0.06794691
116	0xbdc6eeab	-0.09713491
117	0x3ec10199	0.3769653
118	0x3d7b31ca	0.06132678
119	0x3eeeb2e9	0.46620873
120	0x3dbcd5f9	0.092204995
121	0xbe96772c	-0.29387796
122	0x3f260e09	0.64865166
123	0x3efedde5	0.49778667
124	0x3dea7bcf	0.11449396
125	0x3e34599e	0.17612311
126	0xbf333a50	-0.7001085
127	0x3f10cb07	0.56559795
128	0x3f23d35a	0.6399437
129	0xbf0c5850	-0.54822254
130	0x3ebc5b30	0.3678832
131	0xbf2e998e	-0.68203056
132	0xbf39670b	-0.72422856
133	0x3ee6649e	0.4499864
134	0x3f0e30bd	0.5554312
135	0x3efef4fc	0.49796283
136	0x3ef71a61	0.48262313
137	0x3d228c7a	0.03968475
138	0xbcc25ae1	-0.023724975
139	0x3f00d2f0	0.50321865
140	0x3ef51bf0	0.47872877
141	0xbf5aa8d0	-0.8541384
142	0xbe943b87	-0.28951666
143	0xbe4d3140	-0.20038319
144	0xbe82ffb4	-0.2558571
145	0xbe9e7c01	-0.30953982
146	0xbe9ce5f4	-0.3064419
147	0xbe8a9a28	-0.27070737
148	0xba9e6dd6	-0.0012087177
149	0x3ed83a4e	0.42231983
150	0xbdc14c17	-0.09438341
151	0xbe89ef27	-0.2694027
152	0xbe148540	-0.14503956
153	0xbf54263e	-0.8287085
154	0xbeb52cd2	-0.35385758
155	0x3ef3aa5d	0.47590914
156	0xbe921a1f	-0.28535554
157	0xbf1e3a8b	-0.6180808
158	0x3dacb757	0.08433407
159	0xbdfed755	-0.12443415
160	0x3e245536	0.1604813
161	0xbe354a33	-0.17704086
162	0x3f221f88	0.6332936
163	0xbe833bf6	-0.25631684
164	0xbea194d0	-0.31558847
165	0x3e7bed49	0.24602236
166	0xbd647b42	-0.05578161
167	0xbd010793	-0.031501364
168	0x3e51389f	0.20431755
169	0x3e7e8b0c	0.2485773
170	0xbde11815	-0.109909214
171	0x3d294709	0.04132751
172	0xbe44bae9	-0.19211926
173	0xbf20500d	-0.6262215
174	0x3e10ee64	0.14153439
175	0x3e057ee9	0.13036694
176	0x3ed81f4e	0.42211384
177	0x3ed4700f	0.41491744
178	0x3e5715e7	0.21004449
179	0xbe5effe9	-0.2177731
180	0x3df552f1	0.119787104
181	0xbed79210	-0.42103624
182	0x3ead7b81	0.33883289
183	0xbd1f4bbb	-0.03889058
184	0x3eaf8ef2	0.34288746
185	0x3ed71055	0.42004648
186	0xbdcba633	-0.09943809
187	0xbe03b609	-0.1286241
188	0xbdd3feab	-0.103513084
189	0x3e1d8016	0.15380892
190	0xbeff3141	-0.49842265
191	0xbf0006df	-0.50010484
192	0xbe2d8e86	-0.169489
193	0xbe9dcafa	-0.3081892
194	0xbe2f2567	-0.17104112
195	0x3daec50c	0.085336775
196	0x3e9cf837	0.30658123
197	0xbe570cfd	-0.21001048
198	0xbdcecede	-0.100980505
199	0x3e7ae596	0.24501643
200	0xbe01ba30	-0.12668681
201	0xbe9b4505	-0.30326095
202	0x3f07b63b	0.53012437
203	0x3e31d3ce	0.17365953
204	0xbecc18e8	-0.39862752
205	0xbe65542c	-0.2239539
206	0x3eaf92bf	0.34291646
207	0xbeba7c86	-0.3642313
208	0xbf273088	-0.6530843
209	0xbf0ac08e	-0.54200065
210	0xbe39666c	-0.18105477
211	0xbd38b03c	-0.045089945
212	0xbd44a91b	-0.048012834
213	0x3e6e85e1	0.23293258
214	0xbeaa7d17	-0.3329856
215	0xbea318f5	-0.31854978
216	0xbdc3dbe8	-0.09563428
217	0xbf1bca5b	-0.60855645
218	0xbe74a3d8	-0.23890626
219	0x3ea29bea	0.31759578
220	0x3ad106b7	0.0015947436
221	0xbf8dfef2	-1.1093428
222	0x3f2b7a2b	0.6698329
223	0xbe5025cd	-0.2032692
224	0xbd62af0c	-0.05534272
225	0xbe53fbe8	-0.20701563
226	0xbf490622	-0.7852498
227	0xbf41121c	-0.7541826
228	0x3d82db86	0.06389527
229	0xbc8b30ca	-0.016991038
230	0xbcb78f48	-0.022407189
231	0xbd9cc1e7	-0.076541714
232	0xbca88ab5	-0.020573953
233	0x3dce1e5d	0.10064385
234	0xbe6efb51	-0.23338057
235	0x3e322cd9	0.1739992
236	0x3f1a2d7b	0.6022565
237	0x3f3a4016	0.7275404
238	0xbf338a4c	-0.701329
239	0x3e5d9bb9	0.21641435
240	0xbf01e68b	-0.50742406
241	0xbe6d5daf	-0.23180269
242	0xbe76892d	-0.24075766
243	0xbe59d54d	-0.21272774
244	0x3f20533b	0.62627
245	0xbe880ad2	-0.26570755
246	0x3e394a07	0.18094645
247	0xbef231c5	-0.47303596
248	0xbe1b71e4	-0.15180165
249	0xbeb98523	-0.36234388
250	0x3d09c75f	0.0336374
251	0xbc6c326f	-0.014416321
252	0xbf16c1c3	-0.58889407
253	0x3e2a5e7d	0.16637607
254	0xbe4b017e	-0.19824788
255	0xbe1464ce	-0.14491579

fc.bias f4 [128]
0	0x3d62a972	0.055337377
1	0xbe1b370b	-0.15157716
2	0xbe7af978	-0.24509227
3	0xbdf72cfc	-0.12069127
4	0x3f502e44	0.81320596
5	0x3d801e5a	0.06255789
6	0x3e701fc3	0.23449616
7	0xbe578424	-0.21046501
8	0xbeba9355	-0.3644053
9	0xbe0bdef7	-0.13659273
10	0xbd4e7246	-0.05040195
11	0xbc8823c4	-0.016618617
12	0x3f06ebc8	0.52703524
13	0x3ed34d29	0.41269806
14	0xbf1cf6f8	-0.61314344
15	0x3e8ed776	0.2789876
16	0x3e6d2bbf	0.23161219
17	0x3e54a88f	0.20767425
18	0x3f15ba7c	0.5848768
19	0x3ef38e0c	0.4756931
20	0x3dd72bcd	0.10506401
21	0x3e318b1c	0.17338222
22	0x3e817927	0.25287744
23	0xbede9593	-0.4347349
24	0xbf1941f7	-0.5986628
25	0x3e6382e4	0.222179
26	0xbd007862	-0.031364806
27	0x3c191796	0.009344002
28	0xbe041bd0	-0.12901235
29	0x3ef6c1d1	0.48194745
30	0xbf197f6a	-0.59960043
31	0x3e5362db	0.20643179
32	0x3f858128	1.043004
33	0xbeacb107	-0.3372881
34	0x3f1c62d1	0.6108828
35	0xbdaad3bb	-0.08341166
36	0x3e1884d8	0.14894426
37	0xbed8fb99	-0.42379454
38	0x3e8419ea	0.2580102
39	0xbf0cfd61	-0.55074126
40	0x3e825759	0.25457266
41	0x3d93c29e	0.07214855
42	0x3dd48a45	0.10377935
43	0xbd8351d9	-0.064120956
44	0xbc39b0e7	-0.011333681
45	0x3e832ff8	0.25622535
46	0xbda7ba02	-0.08189775
47	0xbf01f33d	-0.5076178
48	0xbed345c8	-0.41264176
49	0x3e2010c5	0.15631397
50	0x3e73f64a	0.2382442
51	0x3f501905	0.81288177
52	0xbe90fc3e	-0.28317446
53	0xbee346fd	-0.44390097
54	0xbee66869	-0.45001534
55	0x3e9822d2	0.29714066
56	0x3ee87ebe	0.45409197
57	0xbe940816	-0.2891242
58	0xbd27fb8e	-0.041011386
59	0xbd4ced4f	-0.050031003
60	0xbda2a567	-0.07941704
61	0xbea8a158	-0.32935596
62	0x3ac84570	0.0015279483
63	0x3e6f8931	0.23392178
64	0xbe602250	-0.21888089
65	0x3e77a31f	0.2418332
66	0xbe11d6fe	-0.1424217
67	0xbe482cd5	-0.19548352
68	0xbe313670	-0.17305923
69	0x3ea08d97	0.31358024
70	0x3d6e2065	0.058136363
71	0xbecb465c	-0.39702117
72	0x3e81a94a	0.2532447
73	0xbe55ef97	-0.20892178
74	0xbee72a8b	-0.45149645
75	0xbe021f57	-0.12707268
76	0x3e8313c2	0.25601012
77	0xbef26bfb	-0.47348008
78	0x3eacf875	0.33783308
79	0x3e44e0a9	0.19226326
80	0xbb950bc3	-0.0045485212
81	0xbeb67dfc	-0.35642993
82	0xbdc2ac49	-0.09505517
83	0xbe7410da	-0.23834553
84	0x3ea4b2eb	0.32167754
85	0x3d231ffe	0.039825432
86	0xbedc00f3	-0.42969474
87	0xbf25908f	-0.64673704
88	0xbc2dd3c8	-0.010609575
89	0x3f6bf0f0	0.92164516
90	0x3d18eea2	0.037336953
91	0x3e4581dc	0.19287819
92	0xbed1836b	-0.40920576
93	0x3e058293	0.13038091
94	0x3ddb2462	0.10700299
95	0x3d9f4442	0.07776691
96	0x3f2569a4	0.6461432
97	0xbf1927b8	-0.5982623
98	0x3eb1ae43	0.34703264
99	0x3ea49a9c	0.32149208
100	0xbdc1b54b	-0.09458407
101	0xbf3530c8	-0.7077756
102	0xbef510d2	-0.47864395
103	0xbeacbd6e	-0.33738273
104	0xbeaa9809	-0.3331912
105	0x3ca53f85	0.02017189
106	0x3e7027af	0.23452638
107	0xbded553a	-0.11588521
108	0xbc98f31d	-0.018670613
109	0xbdac25ae	-0.08405624
110	0x3df6d540	0.12052393
111	0xbd67295c	-0.056435928
112	0x3f30b7b0	0.69030285
113	0x3ecb6c5f	0.39731118
114	0xbf15cfd0	-0.5852022
115	0xbec319b0	-0.38105536
116	0xbe6c7efd	-0.23095317
117	0xbd855bfe	-0.06511687
118	0x3f075345	0.52861434
119	0xbebbb6eb	-0.36662993
120	0xbd8ff00f	-0.070282094
121	0xbda53949	-0.08067567
122	0x3e1ecc99	0.15507735
123	0x3e8e694c	0.2781471
124	0xbca2e3ec	-0.019884072
125	0x3dc84750	0.09779227
126	0x3d07fbf7	0.033199277
127	0x3d56492f	0.052315887

mlp.0.weight f4 [16, 360]
0	0x3e71a4a6	0.23597965
1	0x3e836559	0.2566326
2	0x3e7c17a4	0.24618393
3	0x3e8c2b1c	0.2737664
4	0x3e851e5a	0.2599972
5	0x3e567f23	0.20946936
6	0x3e74a6e6	0.23891792
7	0x3e944e21	0.28965858
8	0x3e6678df	0.22507046
9	0x3e5ef37e	0.21772572
10	0x3e5fd20a	0.21857467
11	0x3e757d11	0.2397349
12	0x3e90e457	0.2829921
13	0x3e663ed0	0.22484899
14	0x3e819e81	0.2531624
15	0x3e64139d	0.22273107
16	0x3e830e1e	0.25596708
17	0x3e637b74	0.22215062
18	0x3e74da87	0.23911487
19	0x3e7e6077	0.24841486
20	0x3e754d16	0.23955187
21	0x3e8e4e3a	0.27794057
22	0x3e72f839	0.23727502
23	0x3e729600	0.23690033
24	0x3e6abd21	0.2292371
25	0x3e8ec1ab	0.27882132
26	0x3e920b06	0.28524035
27	0x3e5c3f9a	0.21508637
28	0x3e885bd2	0.26632553
29	0x3e50afa2	0.20379499
30	0x3e976061	0.2956572
31	0x3e95a5e6	0.29228133
32	0x3e855cad	0.26047269
33	0x3e55e569	0.20888294
34	0x3e75dbe8	0.24009669
35	0x3e50e0c0	0.20398235
36	0x3e731e24	0.23741966
37	0x3e893635	0.2679917
38	0x3e5682e0	0.20948362
39	0x3e81e197	0.25367424
40	0x3e80f0cf	0.25183722
41	0x3e8b4236	0.27198952
42	0x3e6afb62	0.22947457
43	0x3e889974	0.26679575
44	0x3e5cc701	0.21560289
45	0x3e862cba	0.26206
46	0x3e781c37	0.24229513
47	0x3e3ce827	0.18447934
48	0x3e400585	0.18752106
49	0x3e0a4fb4	0.13506967
50	0x3e2bc274	0.16773397
51	0x3e3e03d1	0.18556143
52	0x3de7e2ab	0.1132253
53	0x3e0f791e	0.14011046
54	0x3e031faa	0.12805048
55	0x3ddc0b39	0.10744328
56	0x3d04bbb8	0.032405585
57	0x3d5ee536	0.05441781
58	0x3d16a1a6	0.036775254
59	0x3d294272	0.041323133
60	0xbc5d652a	-0.013512889
61	0xbc83f8aa	-0.016109783
62	0xbdd34659	-0.10316152
63	0xbd8dd900	-0.06926155
64	0xbdab7e9d	-0.08373759
65	0xbe0d2793	-0.13784628
66	0xbdfe9bb5	-0.124320425
67	0xbe04fa7d	-0.12986179
68	0xbe651812	-0.22372463
69	0xbe266718	-0.16250265
70	0xbe548fbf	-0.2075796
71	0xbe7331ed	-0.23749514
72	0xbe38cfa2	-0.18047956
73	0xbe1cdd66	-0.15318832
74	0xbe1faac4	-0.15592486
75	0xbe627d52	-0.22118118
76	0xbe191454	-0.14949161
77	0xbe2a59e6	-0.16635856
78	0xbe1016ae	-0.14071152
79	0xbdd34669	-0.10316164
80	0xbd418a2b	-0.047250908
81	0xbd84b828	-0.064804375
82	0xbd52e329	-0.051486168
83	0xbc6ea737	-0.014566234
84	0x3d1499c9	0.036279473
85	0x3d90f334	0.07077637
86	0x3deb2876	0.11482327
87	0x3e4a0b7e	0.19730946
88	0x3e5664db	0.20936911
89	0x3e87a6d5	0.2649447
90	0x3e6cacf8	0.23112857
91	0x3e9369a3	0.28791532
92	0x3ea08862	0.31354052
93	0x3e867eb9	0.26268557
94	0x3e845703	0.25847635
95	0x3e98ac4e	0.29818958
96	0x3e3a9c47	0.18223678
97	0x3e1973b0	0.14985538
98	0x3de95975	0.11394016
99	0x3d04261c	0.032262906
100	0x3c1e09ed	0.009645921
101	0xbe123f88	-0.14282048
102	0xbe6b90e8	-0.23004496
103	0xbe9b8028	-0.30371213
104	0xbead9051	-0.33899167
105	0xbef40ced	-0.47666112
106	0xbf06c919	-0.526506
107	0xbf0c9294	-0.5491116
108	0xbf139f6b	-0.5766513
109	0xbf09a849	-0.5377241
110	0xbf0f99fc	-0.56094337
111	0xbf13cad4	-0.57731366
112	0xbf0902e2	-0.53520024
113	0xbef9fccb	-0.48825678
114	0xbf031efd	-0.5121916
115	0xbeeeacaa	-0.46616107
116	0xbf0d6208	-0.5522771
117	0xbee75118	-0.45179057
118	0xbf086756	-0.5328268
119	0xbefcb3fd	-0.4935607
120	0xbefea155	-0.49732462
121	0xbf14f3d9	-0.5818458
122	0xbf069826	-0.5257591
123	0xbf08a4dc	-0.53376555
124	0xbf0ce72f	-0.5504026
125	0xbee4a174	-0.4465443
126	0xbecd84de	-0.40140432
127	0xbebe98be	-0.37225908
128	0xbeaa957f	-0.3331718
129	0xbe7fa342	-0.24964622
130	0xbdf6cdc1	-0.12050963
131	0xbd09a367	-0.0336031
132	0x3ce92946	0.028462064
133	0x3de7cb3f	0.11318063
134	0x3e4f14a3	0.20222716
135	0x3e7e8e24	0.2485891
136	0x3ec87c1f	0.39157197
137	0x3ed794a4	0.4210559
138	0x3ee26c6c	0.44223344
139	0x3edc04ca	0.42972404
140	0x3efc326e	0.49257225
141	0x3efc0249	0.49220493
142	0x3f01bfdd	0.50683385
143	0x3f09973d	0.53746396
144	0x3ef17ee8	0.47167134
145	0x3ececf1e	0.40392393
146	0x3edae639	0.4275377
147	0x3ec0f4b6	0.376867
148	0x3e9879bc	0.29780376
149	0x3e62424c	0.22095603
150	0x3e3619ad	0.17783232
151	0x3e2a7ac2	0.16648391
152	0x3e1f1a7f	0.15537451
153	0x3dba4d7e	0.09096812
154	0x3bd4e9fa	0.0064976187
155	0xbd21fe69	-0.039549265
156	0xbd3788b1	-0.044808093
157	0xbd8e3b57	-0.06944912
158	0xbe0cd7e9	-0.13754238
159	0xbe4ae8f8	-0.19815433
160	0xbe318883	-0.17337231
161	0xbe4a1b3a	-0.19736949
162	0xbe77579f	-0.24154519
163	0xbe46b0a0	-0.19403315
164	0xbe4ad072	-0.19806078
165	0xbe81e348	-0.25368714
166	0xbe8947e9	-0.26812676
167	0xbe49c0ad	-0.19702406
168	0xbe6e8e6b	-0.23296516
169	0xbe0db728	-0.138394
170	0xbe01b40f	-0.12666343
171	0xbdb1c476	-0.0868005
172	0xbd97e472	-0.07416619
173	0xbd9aaedc	-0.07552883
174	0xbd669ad5	-0.056300003
175	0x3cf56104	0.029953487
176	0x3d86786c	0.065659374
177	0x3d9345a6	0.07191019
178	0x3e0cfd75	0.13768561
179	0x3e72f09c	0.23724598
180	0x3e82ddfd	0.2555999
181	0x3e88f384	0.26748288
182	0x3e93a2e1	0.28835204
183	0x3ea97385	0.33095947
184	0x3eb90855	0.3613917
185	0x3eaf5a4a	0.34248573
186	0x3e97ac40	0.29623604
187	0x3ea9400f	0.33056685
188	0x3e8e1761	0.27752212
189	0x3e723ccf	0.23656009
190	0x3e4f548d	0.20247097
191	0x3e2ea1e4	0.17053944
192	0x3e3c825b	0.18409102
193	0x3dfd486b	0.12367328
194	0x3dd0ed4b	0.1020151
195	0x3d50e8f0	0.051003397
196	0x3d402d4d	0.046918202
197	0x3c7cf374	0.015438903
198	0xbd1facfc	-0.03898333
199	0xbdf70917	-0.120622806
200	0xbdfa6667	-0.12226563
201	0xbe393502	-0.18086627
202	0xbe722fef	-0.23651098
203	0xbe6ff802	-0.23434451
204	0xbe74b96b	-0.23898856
205	0xbe8803f2	-0.2656551
206	0xbe3da37e	-0.18519399
207	0xbe42c337	-0.19019781
208	0xbde5b06b	-0.1121529
209	0xbdf39f26	-0.118955895
210	0xbe1c8536	-0.15285191
211	0xbda649b7	-0.08119529
212	0xbd646bbe	-0.055766813
213	0xbd3c4a53	-0.04596932
214	0xbca34482	-0.019930128
215	0xbd2afc1a	-0.04174433
216	0xbda5d997	-0.080981426
217	0xbd6eaa06	-0.058267616
218	0xbdfc5a9b	-0.12321969
219	0xbe235239	-0.15949334
220	0xbe39e730	-0.18154597
221	0xbe5e5295	-0.2171119
222	0xbeaa3ec2	-0.33251005
223	0xbed57aba	-0.41695195
224	0xbf02117f	-0.50807947
225	0xbf27112d	-0.65260583
226	0xbf3e2aad	-0.7428387
227	0xbf37b3db	-0.7175881
228	0xbf217b9a	-0.63079226
229	0xbefb7f06	-0.4912035
230	0xbea4556b	-0.3209642
231	0xbe1cd3de	-0.15315196
232	0xbcf966c3	-0.030444508
233	0x3c1d9a42	0.009619297
234	0x3e03d939	0.12875833
235	0x3e212d92	0.1574004
236	0x3e945c83	0.2897683
237	0x3eb87649	0.36027744
238	0x3eb6b200	0.35682678
239	0x3ed6f97a	0.4198721
240	0x3ee0d6fd	0.43914023
241	0x3ece7ddd	0.403304
242	0x3ecf847c	0.40530765
243	0x3f026fa3	0.50951594
244	0x3f022930	0.508441
245	0x3ef992be	0.48744768
246	0x3f066f1a	0.5251328
247	0x3f11db76	0.56975496
248	0x3f1bafa6	0.60814893
249	0x3f08cb08	0.534348
250	0x3f0d35c1	0.55160147
251	0x3f16678e	0.5875176
252	0x3f0a56db	0.5403878
253	0x3f0a666d	0.5406254
254	0x3ef97a99	0.48726347
255	0x3ef0f74d	0.47063676

mlp.0.bias f4 [16]
0	0x3e589102	0.21149066
1	0xbd054cb2	-0.032543845
2	0x3c661a70	0.014044389
3	0xbddb738e	-0.107154
4	0x3db7565d	0.08952019
5	0xbc9d5e6d	-0.019210065
6	0xbdb1d4f0	-0.08683193
7	0xbdcbf425	-0.09958676
8	0xbccab26f	-0.024743287
9	0xba7a5eca	-0.0009550868
10	0xbd62c5de	-0.055364482
11	0xbddbfac4	-0.10741189
12	0x3da8be64	0.08239439
13	0xbdcbdefa	-0.09954639
14	0xbd8ee6b7	-0.06977599
15	0xbbcc5010	-0.00623513

mlp.2.weight f4 [16, 16]
0	0x3d984355	0.074347176
1	0x3dd60895	0.10450856
2	0x3ddb5778	0.10710043
3	0x3d9e1be8	0.077201664
4	0xbe72a22b	-0.23694675
5	0x3bf8fe49	0.0075986725
6	0xbe16d8a1	-0.14731075
7	0x3cbfc642	0.023409966
8	0x3e60aeb2	0.21941641
9	0x3c65f185	0.0140346335
10	0x3dfbb461	0.12290264
11	0x3cbca2d4	0.023026861
12	0xbe5fa484	-0.21840101
13	0x3dc1ec84	0.0946894
14	0xbde471fc	-0.11154553
15	0xbeb00809	-0.3438113
16	0xbe82afed	-0.25524846
17	0xbc8b6fb3	-0.017021036
18	0xbbfe2a7d	-0.00775653
19	0xbb96293b	-0.004582552
20	0x3ca575c4	0.020197757
21	0x3c6ea892	0.0145665575
22	0x3c007b67	0.007841921
23	0xbc8a585d	-0.016887838
24	0x3cbb9cf7	0.022901995
25	0x3bcf0ce4	0.0063186754
26	0x3c4dfe56	0.012572845
27	0x3c1d377c	0.009595748
28	0xbc68ae06	-0.014201647
29	0xbc983495	-0.01857976
30	0x3c827c02	0.015928272
31	0xbe640c0e	-0.22270223
32	0xbe94f295	-0.29091325
33	0x3c8218b0	0.015880913
34	0x3db55cef	0.08855616
35	0xbdaa2ea1	-0.08309675
36	0xbe76970a	-0.24081054
37	0xbd41959c	-0.04726182
38	0x3be65a8d	0.0070298375
39	0x3bcb73cf	0.006208874
40	0x3d759ffe	0.059967034
41	0x3c8cb994	0.017178334
42	0x3da892ca	0.08231123
43	0xbe902876	-0.2815587
44	0xbdd67255	-0.10471026
45	0xbe88688b	-0.2664226
46	0xbca348d0	-0.01993218
47	0xbe681c02	-0.22666934
48	0xbdf2241d	-0.11823294
49	0xbd814789	-0.063124724
50	0x3dac466b	0.08411869
51	0xbb05c8d2	-0.0020413888
52	0x3e26a6f1	0.1627462
53	0x3d208511	0.039189402
54	0xbded2c01	-0.11580659
55	0xbe239fbf	-0.15978907
56	0x3d81c7f4	0.06336966
57	0xbe579df0	-0.21056342
58	0x3d9e75af	0.0773729
59	0xbd5a87c0	-0.053352118
60	0xbe01bf8d	-0.12670727
61	0xbe749b42	-0.23887351
62	0xbe11ac7d	-0.14225955
63	0x3e849da8	0.25901532
64	0xbdd50737	-0.10401767
65	0xbca58f38	-0.020209894
66	0xbe6303a0	-0.22169352
67	0x3c796303	0.01522136
68	0xbe61d5f4	-0.22054273
69	0xbddde60b	-0.10834893
70	0xbce01e92	-0.027358327
71	0xbc4c1dd2	-0.012458282
72	0xbd3c7a16	-0.046014868
73	0xbdf18f66	-0.11794929
74	0x3dfa3558	0.12217206
75	0x3d7ddfe9	0.061981115
76	0xbe934c89	-0.2876933
77	0xbe2aae99	-0.16668166
78	0x3e7259c2	0.23667052
79	0xbe79a0b8	-0.24377716
80	0xbed6ead3	-0.41976032
81	0xbc38fcb6	-0.01129072
82	0xbe0e0923	-0.13870673
83	0xbc380b7f	-0.01123321
84	0x3e76eb2b	0.24113147
85	0x3b9b2048	0.004734073
86	0xbba2cb47	-0.00496808
87	0x3d64968b	0.05580763
88	0x3c98ff7c	0.018676512
89	0x3c11d632	0.008901166
90	0x3c0ebebc	0.008712467
91	0x3e2cb4ad	0.16865797
92	0x3cce9b91	0.025220664
93	0xbb95fd2d	-0.0045773
94	0x3e665d4d	0.22496529
95	0xbde8f234	-0.113743216
96	0xbdf743bc	-0.12073466
97	0x3db67ec9	0.08910901
98	0xbe64717e	-0.22308919
99	0xbe35e917	-0.17764698
100	0x3daa26fe	0.083082184
101	0x3e8fe338	0.28103042
102	0x3e52c44a	0.20582691
103	0xbde431b7	-0.11142295
104	0xbe8bad2d	-0.2728056
105	0x3df23245	0.118259944
106	0xbb036c45	-0.0020053547
107	0xbe2f5360	-0.17121649
108	0x3ec5aa6f	0.38606593
109	0xbd9403f4	-0.072273165
110	0xbdae6f3e	-0.085173115
111	0xbe54a2e8	-0.20765269
112	0x3ecc9c3b	0.39962944
113	0x3d8e7081	0.06955052
114	0x3cd47189	0.025933044
115	0x3e48012e	0.195317
116	0xbeb7f917	-0.35932228
117	0xbc1c8042	-0.009552063
118	0xbd9577b6	-0.07298224
119	0xbded3e86	-0.11584191
120	0xbdba27ff	-0.0908966
121	0xbb3d5818	-0.002889162
122	0x3e0d7266	0.13813171
123	0xbe055cac	-0.13023633
124	0x3e1e0e0c	0.15435046
125	0xbb090a3f	-0.0020910648
126	0xbdba0fc1	-0.09085036
127	0x390dd713	0.00013526929
128	0xbe936787	-0.28789923
129	0xbca91299	-0.02063875
130	0xbca8f735	-0.02062569
131	0x3c205b33	0.009787369
132	0xbe1233b5	-0.14277537
133	0xb8f605f6	-0.000117313044
134	0xbbde7b5a	-0.006789607
135	0x3abc063a	0.0014345117
136	0x3cbfce85	0.023413906
137	0x3cb9bad0	0.022672087
138	0xbcafba9c	-0.021451287
139	0xbc96a642	-0.018389825
140	0xbcdb0ef2	-0.026740525
141	0xbca54e3c	-0.020178907
142	0x3c60005c	0.013671961
143	0xbad19814	-0.0015990757
144	0xbe2ba4c9	-0.1676208
145	0x3e399108	0.18121731
146	0xbdd8697d	-0.10566995
147	0xbdfcf46c	-0.12351307
148	0xbec040b9	-0.3754938
149	0x3d1372cf	0.035998162
150	0xbd9951d2	-0.07486309
151	0x3e7fcda6	0.24980792
152	0xbd4e35b0	-0.05034417
153	0x3e79f32c	0.24409169
154	0x3d3af59a	0.04564438
155	0xbd3b1170	-0.045670927
156	0x3e31648e	0.17323515
157	0x3e7b55b3	0.2454441
158	0x3e8d1929	0.27558258
159	0xbd189666	-0.037252806
160	0x3df42cf5	0.119226374
161	0xbe75474d	-0.2395298
162	0x3e0e7b23	0.1391416
163	0xbc5029c3	-0.012705269
164	0xbe8433a3	-0.25820646
165	0xbc0f1880	-0.008733869
166	0x3c61f792	0.0137919355
167	0x3e13af28	0.14422286
168	0xbcb1c5ea	-0.021700818
169	0x3d2f3ad5	0.042780716
170	0x3c9c0b07	0.019048227
171	0xbe43c605	-0.19118507
172	0xbdeedff2	-0.11663808
173	0x3d563a46	0.052301668
174	0x3bb5cf74	0.005548412
175	0x3e125261	0.14289238
176	0xbe07f343	-0.1327639
177	0x3cbd55d0	0.023112208
178	0xbe2fe9c3	-0.17179017
179	0x3c70344e	0.014660908
180	0xbf0bc1c5	-0.54592544
181	0xbbdb6efb	-0.0066965795
182	0x3c042a6e	0.008066757
183	0xbc2bbe41	-0.010482372
184	0xbbe40c03	-0.0069594397
185	0xbbc404af	-0.0059820036
186	0xbca915e6	-0.020640325
187	0x3aa36154	0.0012464919
188	0x3cbcaa5d	0.023030454
189	0xbba97623	-0.0051715537
190	0x3c4ee384	0.012627486
191	0xbeb7ce18	-0.35899425
192	0x3e823e86	0.25438327
193	0xbc446680	-0.0119873285
194	0xbc428f1b	-0.011874939
195	0xbcc447ad	-0.023959959
196	0x3eab63a1	0.33474448
197	0x3a664350	0.0008783834
198	0xbb43e5dd	-0.0029891648
199	0xbca65751	-0.020305308
200	0x3c97b738	0.018519983
201	0x3cb22329	0.021745281
202	0xba230203	-0.00062182563
203	0x3c1f6e3f	0.009730875
204	0x3e29848f	0.16554473
205	0xbbe8a9e8	-0.0071003325
206	0x3c62e881	0.013849379
207	0xbda58c23	-0.080833696
208	0x3ba7c570	0.005119972
209	0xbe11af70	-0.1422708
210	0x3b859dff	0.0040776725
211	0xbca8e1ca	-0.020615477
212	0x3d326c8d	0.043560553
213	0x3b8321b4	0.0040018205
214	0x3c611c66	0.013739681
215	0xbe7e206d	-0.24817057
216	0x3c2d9d27	0.01059655
217	0xbd217ccb	-0.039425652
218	0xbc7134b4	-0.014722038
219	0x3c07fb68	0.008299686
220	0xbe335be4	-0.17515522
221	0x3cc0e1ba	0.023545135
222	0x3c870ff0	0.016487092
223	0xbea2d2d5	-0.31801477
224	0x3e8c4e29	0.2740338
225	0x3e0193e8	0.12654078
226	0x3e423ded	0.18968935
227	0x3c3938b4	0.011305023
228	0x3e35ccca	0.17753902
229	0x3becf58b	0.0072314194
230	0xbdf15cc1	-0.117852695
231	0x3da31ee3	0.079648755
232	0xbd9842cb	-0.07434615
233	0xbdb72f63	-0.08944585
234	0xbb5dfe4b	-0.0033873494
235	0x3d52e82f	0.05149096
236	0xbdcc6d5e	-0.09981798
237	0xbe3423d9	-0.175918
238	0xbe167fba	-0.14697161
239	0x3e8b8a95	0.27254167
240	0xbe30a8e9	-0.17251934
241	0x3ab9e63d	0.0014182996
242	0x3e018339	0.12647714
243	0xbcb4f051	-0.022087248
244	0xbe38316e	-0.17987606
245	0x3cac6a73	0.021046853
246	0xba93533e	-0.0011240018
247	0xbbf83fc5	-0.0075759613
248	0x3ca04a63	0.01956672
249	0x3bf6dee9	0.007533897
250	0x3c9ad752	0.0189015
251	0xbbf38c28	-0.0074324794
252	0xbb6dbafa	-0.0036274777
253	0x3cb26dd9	0.021780895
254	0xbbad10d8	-0.005281549
255	0xbdeae21a	-0.11468907

mlp.2.bias f4 [16]
0	0xbd3e3a25	-0.04644217
1	0xbe82e925	-0.255685
2	0x3d1cb098	0.03825435
3	0xbdbfaca7	-0.09359103
4	0x3da3225b	0.07965537
5	0x3e1efcc6	0.15526113
6	0x3ef7b272	0.4837833
7	0x3f2eed8f	0.68331236
8	0xbea60d79	-0.32432154
9	0x3f27ea17	0.6559157
10	0xbedc56f4	-0.4303509
11	0xbf01af8c	-0.5065849
12	0x3bd4d8a4	0.006495552
13	0xbe889635	-0.266771
14	0x3ebd2598	0.36942744
15	0xbda6e3fc	-0.08148953

mlp.4.weight f4 [16, 16]
0	0x3ddc2cd4	0.10750738
1	0xbe0990d9	-0.13434161
2	0xbd8f9ac8	-0.07011944
3	0xbdeb6740	-0.11494303
4	0x3da76d58	0.081751525
5	0x3e9c7217	0.30555794
6	0xbe369502	-0.1783028
7	0x3e878fc2	0.26476866
8	0xbd913814	-0.07090774
9	0x3e2f3841	0.17111303
10	0xbe59064d	-0.2119381
11	0xbe3487bb	-0.17629902
12	0xbe83f8e8	-0.25775838
13	0xbdad9689	-0.08475978
14	0x3e70d4a1	0.23518611
15	0x3d9d0aaa	0.0766805
16	0xbe45be25	-0.19310816
17	0x3e0f1f07	0.1397668
18	0xbd2d13f6	-0.042255364
19	0x3e0eaa3b	0.13932125
20	0xbda13684	-0.07871726
21	0xbeb38319	-0.35060957
22	0x3d6cc3f0	0.057804048
23	0x3abfc840	0.0014631823
24	0x3d8b5326	0.06802969
25	0x3dd87549	0.10569245
26	0xbe0627f9	-0.13101186
27	0x3e9cf2d9	0.30654028
28	0xbe8cfe2c	-0.27537668
29	0x3c476b28	0.012171544
30	0xbd71dde5	-0.059049506
31	0x3e269a9d	0.16269918
32	0xbe1d80f6	-0.15381226
33	0xbc1fcc3e	-0.009753285
34	0xbda980a0	-0.082764864
35	0xbbf0f7cf	-0.00735376
36	0x3dc8c0da	0.098024085
37	0x3e1c6190	0.15271592
38	0xbe150416	-0.1455234
39	0xbdce2402	-0.10065462
40	0xbc69066b	-0.014222722
41	0x3d983611	0.07432187
42	0x3d8cd9b8	0.06877464
43	0xbc98ae68	-0.01863785
44	0xbc7d413c	-0.015457448
45	0xbd13a3e3	-0.036044966
46	0xbd57b6a1	-0.052664403
47	0xbac7aadf	-0.0015233419
48	0x3d6de792	0.05808217
49	0xbb5d33f8	-0.00337529
50	0xbcf02d58	-0.029318497
51	0x3d8990a0	0.06717038
52	0xbe985768	-0.29754186
53	0xbe4b0a37	-0.19828115
54	0xbe1f529d	-0.15558858
55	0x3d64e2a4	0.055880204
56	0x3c215041	0.009845794
57	0xbe910066	-0.28320616
58	0x3ca278ae	0.019832935
59	0x3bc6019e	0.0060426733
60	0x3c9353f3	0.017984366
61	0xbd8b539e	-0.06803058
62	0xbe45732c	-0.19282216
63	0xbb80e5c5	-0.0039336407
64	0xbcb0b970	-0.021572798
65	0xbc5f32f6	-0.01362299
66	0x3c968a50	0.0183765
67	0x3eb59450	0.35464716
68	0x3ca90369	0.020631509
69	0xbdae5c50	-0.08513701
70	0xbdc91e0d	-0.09820185
71	0xbf2775c2	-0.6541406
72	0xbe946442	-0.2898274
73	0x3edb8547	0.4287512
74	0xbe4f8986	-0.20267305
75	0x3f0627c0	0.52404404
76	0x3ebf2c4e	0.3733849
77	0xbafd6f35	-0.001933551
78	0x3eb3defb	0.35131058
79	0x3d28149c	0.04103528
80	0x3da24d5e	0.07924913
81	0x3c9573b7	0.018243654
82	0xbe602465	-0.21888883
83	0xbe5c2414	-0.21498138
84	0xbe0af726	-0.13570842
85	0xbd0195a9	-0.031636868
86	0x3de7bf9d	0.11315844
87	0xbe406fe9	-0.1879269
88	0xbc94c8a6	-0.018162083
89	0xbe16ecff	-0.14738844
90	0x3e13354e	0.14375803
91	0x3c292998	0.010324858
92	0xbe56ff9e	-0.20995948
93	0xbe8b457c	-0.2720145
94	0xbcce7452	-0.02520195
95	0xbcb41733	-0.021983718
96	0xbe541c38	-0.2071389
97	0x3d6ead7a	0.05827091
98	0x3e758968	0.23978198
99	0xbe8aefac	-0.2713598
100	0xbdd6f803	-0.10496523
101	0xbdb7f63d	-0.08982513
102	0x3ec2d434	0.38052523
103	0x3d9052e2	0.07047059
104	0x3e3f5616	0.18685183
105	0x3b7c1812	0.0038466495
106	0xbe87e996	-0.265454
107	0x3eaffb58	0.34371448
108	0x3ee6d5e3	0.45085058
109	0xbd24885a	-0.040169097
110	0xbe214b04	-0.15751272
111	0xbdbaabc5	-0.09114794
112	0xbc8cac3d	-0.017171973
113	0x3c1387bc	0.00900453
114	0xbc9765f1	-0.018481227
115	0xbd442d0b	-0.04789452
116	0x3c459a66	0.012060737
117	0x3ca114c3	0.01966322
118	0xbe5f4d3a	-0.21806803
119	0x3cb17a08	0.021664634
120	0xbb022201	-0.0019856694
121	0xbcbd9763	-0.023143476
122	0xbe8ac27b	-0.27101502
123	0x3cbf1ca9	0.023329096
124	0xbccc306a	-0.02492543
125	0xbbf236e8	-0.0073917992
126	0xbe86b68f	-0.26311156
127	0xbc1b0ca9	-0.009463468
128	0xbdb0a2a0	-0.08624768
129	0xbc1b9c69	-0.00949774
130	0xbdf1c4c1	-0.11805106
131	0xbd8288cc	-0.06373748
132	0xbcb08ad1	-0.021550568
133	0x3e0acfdc	0.13555855
134	0xbe536387	-0.20643435
135	0xbe1c0969	-0.15237965
136	0x3b21039b	0.00245688
137	0xbd816b31	-0.06319273
138	0xbdda64ec	-0.106637806
139	0x3cb33a47	0.021878375
140	0x3bda50e6	0.006662476
141	0xbc8d8503	-0.017275339
142	0xbe910d85	-0.28330627
143	0x3a809121	0.0009808877
144	0xbddac074	-0.10681239
145	0x3ac4d246	0.001501628
146	0x3e06b0f8	0.13153446
147	0xbe6f8444	-0.23390299
148	0xbc1add5a	-0.009452188
149	0xbe13df98	-0.14440763
150	0xbe22929e	-0.15876243
151	0xbe69f163	-0.22845988
152	0xbb3f47dc	-0.0029187119
153	0x3dd7d2cf	0.105382554
154	0xbd832a77	-0.06404584
155	0x3c018eae	0.007907553
156	0xbde35738	-0.1110062
157	0x3df1369e	0.117779955
158	0xbd0b56ec	-0.034018442
159	0xbca1cf05	-0.019752035
160	0xbe37f77d	-0.17965503
161	0x3cb7b930	0.022427171
162	0x3b48ac5c	0.0030620312
163	0xbe976120	-0.29566288
164	0x3c055fc0	0.008140504
165	0x3d71ecc3	0.059063684
166	0x3c7fd2e0	0.015614241
167	0xbd8a6003	-0.06756594
168	0xbcbec4b8	-0.023287162
169	0xbe4cd4fc	-0.20003122
170	0xbe0d0351	-0.13770796
171	0x3c20bc43	0.00981051
172	0xbd1575c6	-0.03648927
173	0xbc373cc0	-0.0111839175
174	0x3dbe2669	0.0928467
175	0x3b1960f8	0.0023403745
176	0xbe1b0b4a	-0.15141025
177	0x3c130ddb	0.008975471
178	0x3e3bab77	0.18327127
179	0xbe5e5efe	-0.21715924
180	0x3d96e95a	0.07368727
181	0xbe300eb0	-0.17193103
182	0x3c72f1c7	0.014828152
183	0x3d057bb9	0.032588694
184	0x3c060da8	0.008181967
185	0x3d06d89a	0.03292141
186	0xbe58b8b2	-0.21164206
187	0xbdf10255	-0.11768023
188	0xbe6e297b	-0.23258011
189	0x3c8def8a	0.017326135
190	0xbe51cdc6	-0.20488653
191	0x3c141fd1	0.009040789
192	0xbce9258d	-0.028460288
193	0x3c64bbb1	0.013960765
194	0x3e3e403f	0.18579195
195	0x3da3d0b3	0.079987906
196	0xbd1408c1	-0.03614116
197	0x3d1281af	0.035768207
198	0xbd75899a	-0.05994568
199	0xbe173591	-0.14766528
200	0xbcbac0b1	-0.02279696
201	0xbdb7beec	-0.08971962
202	0xbe0af7ce	-0.13571092
203	0x3ad10669	0.0015947345
204	0x3bb3379e	0.0054692766
205	0xbc995ae0	-0.01872009
206	0xbe9d9da5	-0.30784336
207	0x3cc24419	0.023714112
208	0xbe79e57e	-0.2440395
209	0xbb8c32e7	-0.004278529
210	0x3e1c1a3e	0.15244386
211	0x3dbe4a96	0.0929157
212	0x3d00b35f	0.03142106
213	0xbd751248	-0.059831887
214	0xbbc9c4b3	-0.0061574816
215	0xbe897fc2	-0.26855284
216	0x3b75d189	0.0037508926
217	0xbe78dee8	-0.24303782
218	0xbe561d90	-0.20909715
219	0x3cace086	0.021103155
220	0xbc91b185	-0.017784843
221	0xbcbe4b8d	-0.023229385
222	0xbe70f97e	-0.23532674
223	0xbc89f718	-0.016841456
224	0xbd4666b7	-0.0484378
225	0xbd92276f	-0.071364276
226	0x3e8fd0e3	0.28089055
227	0x3db79968	0.08964807
228	0xbc46cdc9	-0.012134024
229	0xbe8df079	-0.2772253
230	0x3b7f3aaf	0.003894489
231	0x3ea5d746	0.32390803
232	0xbe0410ee	-0.12897083
233	0xbed3825f	-0.41310403
234	0x3d4c3287	0.049852874
235	0xbf05253b	-0.52009934
236	0x3dc55401	0.09635163
237	0x3db8ea2a	0.09029038
238	0x3ea07693	0.31340465
239	0xbd9b71d6	-0.07590072
240	0xbe233842	-0.1593943
241	0x3c2d750a	0.010586986
242	0xbe57352c	-0.21016377
243	0x3d110e6b	0.03541414
244	0xbd611dfe	-0.054960243
245	0xbe805186	-0.25062197
246	0xbe37cdb6	-0.17949566
247	0x3cce7682	0.025202993
248	0xbc130488	-0.008973248
249	0xbdccd157	-0.10000866
250	0xbda12c24	-0.07869747
251	0x3c57d71e	0.0131738465
252	0xbca88bd3	-0.020574486
253	0xbe9d0abf	-0.3067226
254	0xbdacd830	-0.08439672
255	0x3c73d44d	0.014882159

mlp.4.bias f4 [16]
0	0x3f07479b	0.52843636
1	0x3f8dc044	1.10743
2	0xbe0aad71	-0.13542725
3	0x3d8bea1a	0.06831761
4	0xbe7d0116	-0.24707446
5	0x3cd24f52	0.025672588
6	0x3ed8b17f	0.4232292
7	0xbe466ff1	-0.1937864
8	0x3cc28aae	0.023747768
9	0xbcbf1a8c	-0.023328088
10	0xbe199d8e	-0.15001509
11	0x3afc2256	0.0019236307
12	0x3c045821	0.008077652
13	0x3d79253c	0.060826525
14	0x3e4ee973	0.20206241
15	0xbd03e10f	-0.032197054

mlp.6.weight f4 [3, 16]
0	0x3e94e158	0.29078174
1	0xbf06e511	-0.5269328
2	0x3e284a4c	0.16434592
3	0xbd22e208	-0.03976634
4	0x3ddcef42	0.10787822
5	0xbd0b6875	-0.034035165
6	0x3caafe8e	0.020873334
7	0xbd2b0a77	-0.041758027
8	0x3e66cc4c	0.2253887
9	0x3de844a5	0.11341218
10	0xbd3eb1a6	-0.046556138
11	0xbe51c0fb	-0.20483772
12	0x3d9083f5	0.07056419
13	0xbe8910e2	-0.26770693
14	0x3ee32917	0.44367287
15	0xbd984617	-0.074352436
16	0xbdfd6d63	-0.123743795
17	0xbea72f32	-0.32653195
18	0x3dcab531	0.09897841
19	0x3e147f11	0.14501597
20	0x3ecc8971	0.3994861
21	0x3c80a7ca	0.015705008
22	0xbdfa99c6	-0.12236361
23	0xbc7694a3	-0.015050086
24	0x3d658758	0.056037277
25	0x3e12423b	0.14283077
26	0x3ddaf36f	0.106909625
27	0x3b003133	0.0019560575
28	0x3e0db0cb	0.13836972
29	0x3e351cc0	0.17686749
30	0xbd1189fa	-0.035531975
31	0xbc96162b	-0.018321117
32	0x3e92a58d	0.2864193
33	0x3efd633b	0.4948977
34	0x3dd36c96	0.103234455
35	0x3e9207e5	0.28521648
36	0x3d87aafe	0.06624411
37	0x3d817736	0.06321566
38	0xbf0ca7c0	-0.54943466
39	0x3e2e79a1	0.17038585
40	0x3df3fc8e	0.11913405
41	0x3e7e1c45	0.24815471
42	0x3e3be32d	0.1834838
43	0x3d37c734	0.04486771
44	0x3e929639	0.28630236
45	0xbc5ac4ba	-0.013352567
46	0x3e092111	0.1339152
47	0x3d17eb2a	0.037089504

mlp.6.bias f4 [3]
0	0xbf057567	-0.52132267
1	0xbec0d1be	-0.3766002
2	0x3f8d6d04	1.1048894
