EUSIPCO/ULANoisy/saved_models/da_music_5dB_9.pth (torch, 46898 bytes, 18 tensors)

bn.weight f4 [16]
00000000: 3288 113f f8e5 483f 75e2 6e3f 2807 893f
00000010: 8179 5b3f 3ca9 583f 9dc0 0e3f 9ee1 e53e
00000020: 3fa5 433f fa28 403f 6eb8 503f f463 733f
00000030: 005f 813f 9942 103f d3eb 223f dd2f d43e
0.5684844 0.78475904 0.93314296 1.0705309 0.85732275 0.8463323 0.55762655 0.44898695
0.7642402 0.75062525 0.8153142 0.9507439 1.0107117 0.5635162 0.6364109 0.41442767

bn.bias f4 [16]
00000000: 115c 3ebd 8234 653e 5a4b 20bd aa9e 8cbe
00000010: 2d3f 453c a245 cd3d 4c53 d9bd 3715 30be
00000020: 80f6 73bd 8c75 8abe cc7c 3b3d ed1c 673d
00000030: 6d53 d53d 499d 3c3e 45b3 193d bce3 493d
-0.04647452 0.22383311 -0.03913436 -0.274648 0.012038988 0.10023047 -0.10611591 -0.17195593
-0.059561253 -0.27042806 0.045773312 0.05642407 0.10416303 0.18419375 0.03752448 0.04928945

bn.running_mean f4 [16]
00000000: 3295 faba 30f1 23ba 026c 323a 96d7 6cba
00000010: 315f b73a dafa 113a 654a 9b3a 1d44 ecba
00000020: 53ea d3b9 8d2c 203b abc5 4fba 1342 e1ba
00000030: e664 3dba 1708 deb9 42dd ae39 464d 3a3a
-0.001911795 -0.0006253896 0.00068062556 -0.00090348104 0.0013990161 0.0005568691 0.0011847733 -0.001802567
-0.0004041964 0.0024440617 -0.0007925878 -0.0017185829 -0.0007224813 -0.00042349167 0.00033352716 0.00071068516

bn.running_var f4 [16]
00000000: d376 d43f 1a7a d43f 6dbc d33f 9708 d43f
00000010: 8472 d43f 2e95 d43f 2b34 d43f 71fc d33f
00000020: 9ed7 d33f 4c1d d43f 435a d43f f6be d43f
00000030: 526b d43f a65f d43f 8b2d d43f 773b d43f
1.6598762 1.6599762 1.6541878 1.6565121 1.6597447 1.6608026 1.657842 1.6561414
1.6550176 1.6571441 1.6590046 1.6620777 1.6595252 1.659169 1.6576399 1.6580647

rnn.weight_ih_l0 f4 [48, 16]
00000000: 7896 bdbe 3da6 ffbd 28c8 d7bd 21b2 6c3e
00000010: eb5e 4a3e c3ce cdbd df40 cabe fcca e1bd
00000020: 361a 27be 0ee2 ca3e b264 cabd 44cd c43e
00000030: 5793 11be c29d a6be cbc3 37be db55 3abc
00000040: 984f 7c3d da27 093f a231 2b3f fc02 ab3d
00000050: 483e 363f 01ae 523e 8646 17bf 664c 4c3f
00000060: 03ca 9cbe fef2 b1be ef28 ffbe d34d 10bf
00000070: d022 26bf 1626 eabf 3978 903e 970c f4be
00000080: 9130 d23e 51cb 9cbe 6c70 aebe 2dfa 4d3f
00000090: b814 a0be e412 39be 1f18 e1be b183 dc3e
000000a0: 5513 43be 83d8 54be 2d21 cabd b231 a0be
000000b0: 76d5 783d ed32 88bf 0112 823f fb68 a5be
000000c0: 780a 373f 7416 32bd d6de cc3e 577b 6a3e
000000d0: d7ab 05be 2ebe 50bf 8971 64be e198 dc3e
000000e0: 3251 553e 10ef b1be ae14 d7be d560 3abf
000000f0: 965f 8bbe 180f 893e 7ded 143f 52c1 14be
00000100: f548 83bf 57fa 593e 5fc9 673f e900 04bf
00000110: 3bdd 88bf 0a82 5c3f 9ec7 7cbe 8251 df3d
00000120: 5880 b03e 366d 4b3f b678 30bf 387b 84bf
00000130: 492a 263f b619 c33d 5221 4bbf b404 cfbe
00000140: 15cd 263f 9f2f 3e3f 98ae 69bf 92c2 5cbd
00000150: e322 653f 2097 d7bd 787c 053e 0d2d 703e
00000160: f83a 7c3f 6fab 62bf d428 ecbe 4026 5b3f
00000170: a8ca b93c 2034 d0be 0216 a1be 6683 323f
00000180: c105 923e 23c1 8fbf e0e7 ffbd 5e13 7d3e
00000190: a1d5 0bbe 5ae0 ba3e 6e40 55bc dd60 b1be
000001a0: 0fb8 13bf bf5c 6e3f 4fff 313e e9c1 623e
000001b0: 3fe8 bcbb fdb8 773c cf00 3cbf 6610 5e3f
000001c0: eb84 773f 2b03 af3d 362c e7bd af28 ca3c
000001d0: a516 76bd 94bb f93e b98a ed3d 2603 473f
000001e0: 81a8 29be 50ba 643d 3690 a4be 7411 e2be
000001f0: d2d6 e33e 3435 3bbf 41d7 8d3e cb04 82be
00000200: 8268 493f bd0d 063f ce9a adbf d35a 073e
00000210: abce 1e3f 9571 d4be 2553 003e 75f9 cdbe
00000220: c9da 8bbd df2b 323f d384 e23e bbf9 f5be
00000230: fc74 903d 6bdf bdbe b813 2c3e c8e5 5f3d
00000240: c456 19bf 58cf b53b cce7 21be c474 023e
00000250: 9d83 383d bde1 8a3e c9c7 da3e 3c87 2cbe
00000260: 3f7e 4d3f a044 90bf 1e2b 5b3f 1eeb 233f
00000270: a6d6 f5be c73d 143f 612f 75bf a157 703e
00000280: b062 fb3e 29e5 89be bccd 763f 7be5 ec3e
00000290: f246 e9bd 0e79 483f 6298 a1be a254 cb3f
000002a0: 609c 9e3e bb54 263d 76da 80be 2d12 9e3f
000002b0: 526d b03d 12c4 4ebe d68d 42bd 3dca fbbe
000002c0: 1bfd 843e 40c2 95bd f30a 6abf 9786 973e
000002d0: fa08 09be cce9 32bf fba8 973f 72ae ccbe
000002e0: 356d 8f3f 8290 703e dcea f63e f24a 29be
000002f0: 1b5d e5be d9aa 433d 7c48 f7be e320 b33e
00000300: a675 4a3e febb 29bf f37f 12bf fe3a dabd
00000310: fdf6 483d dbc9 8b3e 0b14 87bf 7f96 003f
00000320: 84cf aa3f 584d cf3e 62a5 943d 6daf 833e
00000330: 0ce2 473e 2b36 7b3f c07c 08bf cb3b 38be
00000340: fe2b e73e 7e25 873e 7dab 97be f13b 973e
00000350: 078c 5ebf 7ffd 433f 642d 0dbf 77ba 6b3d
00000360: ebfc 313f 3f6b aebd 768d 453f 6898 48bf
00000370: 7fa8 283e 4b5c a93e bd4d 4cbf 72f6 183f
00000380: ea60 4bbe d8d5 8a3d 4b06 2a3e 7e47 ca3e
00000390: e85f a83e 1ff1 1d3f 1310 fc3e fb12 573e
000003a0: b42b efbe 3a8b 34bc c96c 8bbe 35ca 25bf
000003b0: 6539 cebe 1d2a a0be 13ba 823e fd4b 1d3f
000003c0: 8df7 afbe b77b 27bd 2a50 123f 96f0 81bd
000003d0: fb16 c9bd 0da2 c3be da02 093c 348f 673f
000003e0: 4393 6b3f 1c8b 85bd 3b97 d23c 4073 3d3f
000003f0: e739 07bf 1d03 7a3f 73b0 46bf 2b54 44bd
-0.3702886 -0.12482879 -0.10536224 0.23114826 0.19762771 -0.10049202 -0.39502618 -0.11025044
-0.16318592 0.3962559 -0.09882487 0.38437855 -0.14216362 -0.32542235 -0.17945783 -0.011373009
0.061599344 0.53576434 0.6687261 0.083501786 0.71188784 0.2057419 -0.59091985 0.79804075
-0.30622873 -0.347557 -0.49835917 -0.5636875 -0.6489687 -1.8292873 0.28216723 -0.47665855
0.41052678 -0.30623868 -0.34070146 0.8045986 -0.31265807 -0.18073612 -0.43963715 0.43069223
-0.19050343 -0.20785718 -0.09869609 -0.31287915 0.060750447 -1.0640541 1.0161744 -0.32306656
0.7150035 -0.043478444 0.4001376 0.22898613 -0.13053833 -0.8154019 -0.22308935 0.43085387
0.20831755 -0.34752703 -0.42007965 -0.72804004 -0.27221364 0.26769328 0.5817488 -0.14526871
-1.025664 0.21286903 0.9054164 -0.5156389 -1.0692514 0.86135924 -0.24685523 0.10904218
0.3447292 0.7946352 -0.6893419 -1.0350103 0.6490827 0.09526388 -0.7934772 -0.40433276
0.6515668 0.74291414 -0.91282034 -0.053896494 0.8950636 -0.10526872 0.13035762 0.23454686
0.9852748 -0.88542837 -0.461249 0.8560524 0.022679642 -0.40664768 -0.31462103 0.6973175
0.28520015 -1.1230816 -0.124953985 0.24714419 -0.13655712 0.36499292 -0.0130158495 -0.34644213
-0.57702726 0.9311027 0.17382549 0.22144283 -0.0057649906 0.015119788 -0.73438734 0.8674377
0.9668719 0.08545526 -0.112877294 0.024677603 -0.06008019 0.48775923 0.11598725 0.7773918
-0.16568185 0.055841744 -0.32141274 -0.4415394 0.44499832 -0.73128057 0.27703288 -0.25394282
0.7867509 0.5236471 -1.3562868 0.1321824 0.620341 -0.41492906 0.12531717 -0.40229383
-0.06828839 0.6959819 0.44241962 -0.48042092 0.07053563 -0.37084517 0.16804397 0.054662496
-0.5989802 0.005548399 -0.1581108 0.12739855 0.04504739 0.2712535 0.4273055 -0.16848463
0.8027076 -1.1270943 0.85612667 0.64030635 -0.48015326 0.57906765 -0.9577542 0.23470928
0.4909873 -0.26932648 0.96407676 0.4626883 -0.11390485 0.78309715 -0.3156157 1.5885203
0.3097868 0.04060815 -0.25166672 1.2349297 0.08614601 -0.20191982 -0.047498547 -0.49177733
0.25974354 -0.07312441 -0.9142296 0.2959487 -0.1338233 -0.69887996 1.1848444 -0.3997684
1.1205202 0.23492625 0.48226058 -0.16532496 -0.44797596 0.047770355 -0.4829749 0.34986028
0.19771442 -0.6630248 -0.57226485 -0.10655783 0.04906367 0.2730244 -1.0552992 0.5022964
1.3344579 0.40488696 0.07258107 0.25719777 0.19519824 0.9812953 -0.53315353 -0.17991559
0.4515075 0.26395792 -0.29623023 0.2953792 -0.86932415 0.7655868 -0.55147386 0.057550874
0.6952655 -0.08516549 0.7716898 -0.78357553 0.16470526 0.33078226 -0.7980612 0.59751046
-0.19861189 0.06779069 0.16603963 0.3950767 0.3288567 0.61696047 0.49231014 0.21003334
-0.4671303 -0.011019522 -0.27231434 -0.6476167 -0.40278164 -0.3128213 0.25532588 0.61444074
-0.34368554 -0.040889468 0.5715357 -0.06344716 -0.09818836 -0.38209572 0.008362496 0.90452886
0.9202158 -0.06520674 0.025706878 0.7400398 -0.52822727 0.97661 -0.7761299 -0.04793183

rnn.weight_hh_l0 f4 [48, 16]
00000000: d25a 17bf 9195 f13d 324c dc3d 65b5 353e
00000010: 8f14 24bf 586d 9a3e 58d4 993d 1b53 2d3f
00000020: e183 debc 97e8 cc3d aa9b afbc d565 ca3d
00000030: 1a36 963e d7a4 25bc dee4 8f3e 1292 c03e
00000040: b25e 4e3e 9af3 c63e 1edc 28bf 057a a33e
00000050: dcf8 1e3e f658 23be 6b5f 883c 4aa3 c63c
00000060: 9798 693d 8f07 813e b7f5 6a3d fc49 40be
00000070: dc40 423e 0df9 033e e71b c0bd 014b 903e
00000080: b24f d83d 645c 563d 0275 023f b2b6 7f3e
00000090: b135 95be 4a94 d3be 58e7 bbbc ddee e83e
000000a0: b404 863e f724 893e e0c8 61bd 85c1 e63d
000000b0: b149 bfbd 6e0c 2cbe 1cc1 793f 4105 063f
000000c0: d146 9d3d e84a bc3e 6257 3c3e 4469 003e
000000d0: a811 d0be e683 c43f 954f f9bd c819 923e
000000e0: 5964 273f d922 2c3e 3ef6 e9be c69d 813e
000000f0: 566f 85bf 99b8 a83e 8f1a 94bc d824 853e
00000100: 37f7 e63d a7ab 8a3e 4768 943d 7310 afbc
00000110: b4f4 c5bf e381 27bf d2d1 e33e 0b54 2ebe
00000120: f44d 07bd 2ee5 0bbf b4d7 1d3e 4c21 0fbc
00000130: f533 fd3e cc33 a03e 6700 693c 5a1e da3e
00000140: 9779 df3e d227 0f3d 1c2c 73bf 358c d5bd
00000150: 8e83 c83d 15df 943e 9945 cdbf 74d3 63be
00000160: 8009 803d 78f5 91be a4f3 3abe cbf6 ef3e
00000170: 2d75 fc3d 48d8 193f 80f9 ee3e e6cd c83c
00000180: 3e6b 01bc adec 8fbc 4c1f b3bc 8614 583e
00000190: 0e85 e93e 7cd4 253e e766 873d 1aea 943e
000001a0: 3109 9a3d 96c9 03bf 5ad0 1b3e 46b0 0e3f
000001b0: 8fab ed3d 73f7 d1be 48c8 113f 356b 623e
000001c0: 55ba ffbe 26ea 69be 5665 043f d540 5f3e
000001d0: 18e6 14be 1657 d13e fe0a 703a e2f7 873f
000001e0: c201 0a3f fffd e03e 8123 00bf 5a39 0b3f
000001f0: 5353 08bf 6a13 2fbf 28f4 c33d 83f9 16bc
00000200: 03f1 063e 279d 63be ec3e 823e 8f28 1b3f
00000210: aa3e 83be 473e 92be 5498 8b3e cef7 68be
00000220: d563 34bf b834 133f a77a 04bf 8acc 753c
00000230: 3ead d63e 6f87 51be 7d29 34be 4500 53bd
00000240: 3679 933e c9fc d13e 4533 2dbe 9ee8 8fbc
00000250: 5ffc b13d 55e0 703f b955 773e 2a69 963e
00000260: 0c95 1abf ab4b 973e fcac 153f 98bf 223f
00000270: 3491 acbe ff85 d93e a4be aebe f9f5 06be
00000280: 56aa 673e 842c e53d 5d64 1cbf c08f 32bf
00000290: 94ee 4d3e f1e3 b3be af3b dabe 01b5 60be
000002a0: d7df 58bf f748 393e aa77 15bf b897 6c3e
000002b0: 5445 d0be 837d a3bd 7552 b93e c5ad 063e
000002c0: 3d5f d4bc 03dc 523f 0a75 99be d87e 8b3e
000002d0: cbda db3e 1684 103e 6542 eebe a014 0e3f
000002e0: be3e 8abe 36a8 963f 10a2 273e e381 743e
000002f0: 3953 803e 3016 d93e c460 0fbc 0573 e5ba
00000300: b882 63bb 1d65 eabe f071 bd3e 638d ccbe
00000310: 12b2 61bf 8186 213f 93a4 85be e867 0a3f
00000320: ddb3 043e 83ff 893e 7d1f 943e 4229 8bbf
00000330: 6873 13bf 4c0c 803e b177 a13f 21fe 333e
00000340: 705a 603d 3027 88be 338e d3be 63ba e1be
00000350: c198 d7bd a3f2 87be 96e2 45be 399b 8d3d
00000360: e37f 3ebe ac0e 43bd 8238 69be df9d 51be
00000370: de8d 403d 0bea c8be 38be 663f 64d7 da3a
00000380: 64d3 293e 4418 1e3f a688 713e 53cb 14be
00000390: a21b febe 8be7 f43e 0328 ff3e d9a6 6c3e
000003a0: 6cd1 453f 61f9 bebe f169 2e3f 8b40 213f
000003b0: bc68 93bf 70c8 883e a391 083e a3d1 96bd
000003c0: 7add a5bc f0a7 3dbf 2ded 9e3e edee 5ebd
000003d0: 1ad0 0fbf 17a8 593e bbc3 bf3e c017 a13d
000003e0: b095 04bf 3a43 dabe 8dbc 32be 8ce7 46be
000003f0: 2149 9d3e 6012 46bf eb7e a93e 2563 14bf
-0.59122956 0.11796106 0.107567206 0.17744978 -0.6409387 0.30161548 0.075112045 0.67704934
-0.027162494 0.100053005 -0.021436531 0.09882704 0.2933815 -0.010110102 0.281043 0.37611443
0.20153311 0.38857728 -0.6596087 0.3192903 0.1552462 -0.15951905 0.016647061 0.024247784
0.057030287 0.2520108 0.05736324 -0.18778223 0.18970054 0.12887974 -0.09380322 0.28182223
0.10562076 0.052334204 0.5095979 0.24972036 -0.29142526 -0.41324073 -0.022937462 0.45494738
0.26175463 0.26786014 -0.05512321 0.1126738 -0.093402274 -0.16801617 0.97560287 0.52351767
0.07679523 0.367759 0.18392709 0.12540156 -0.4063847 1.5352752 -0.12173382 0.28535295
0.65387493 0.16810168 -0.4569568 0.25315684 -1.0424602 0.32953337 -0.01807907 0.26004672
0.11277621 0.27084085 0.07246452 -0.021370148 -1.5465302 -0.65432566 0.44496018 -0.17024247
-0.033033326 -0.54646575 0.15414315 -0.008735966 0.49453703 0.31289518 0.014221287 0.4260128
0.43647453 0.034950085 -0.9498918 -0.10427133 0.09790717 0.29076448 -1.6036865 -0.22248632
0.06251812 -0.2850759 -0.18257004 0.46867976 0.12327037 0.60095644 0.46674728 0.024512243
-0.007899104 -0.01756891 -0.02186551 0.21101579 0.45609325 0.16194338 0.06611424 0.29084855
0.07521284 -0.5147947 0.15216199 0.5573772 0.11604988 -0.410091 0.5694623 0.22111209
-0.49946848 -0.22843227 0.51717126 0.21802075 -0.14540899 0.40886754 0.00091569114 1.0622523
0.5390893 0.43943784 -0.50054175 0.54384387 -0.5325214 -0.68389 0.095680535 -0.009214762
0.13177876 -0.22227918 0.2543863 0.6060876 -0.25633746 -0.2856314 0.27264655 -0.2275078
-0.7046483 0.5750232 -0.5174965 0.015002379 0.41929048 -0.2046182 -0.17593952 -0.05151393
0.28803414 0.41013172 -0.16914089 -0.017566975 0.08690714 0.94092304 0.24153794 0.2937711
-0.6038368 0.29549918 0.5846708 0.635736 -0.3370453 0.42485043 -0.34129822 -0.13179769
0.22623572 0.11190131 -0.6109064 -0.69750595 0.20110542 -0.35134843 -0.4262366 -0.21944048
-0.8471655 0.1809424 -0.5838572 0.23104751 -0.40677893 -0.07982924 0.36195722 0.13152225
-0.02592432 0.8236696 -0.29972106 0.27245212 0.42940363 0.14112887 -0.4653503 0.5550022
-0.27000993 1.1770084 0.16370416 0.23877673 0.25063494 0.4239974 -0.008751098 -0.0017505592
-0.0034715366 -0.45780268 0.3700099 -0.3995162 -0.8816234 0.6309586 -0.26102123 0.540648
0.12959237 0.26952752 0.28930274 -1.0871966 -0.5759797 0.25009382 1.2614652 0.17577411
0.054773748 -0.26592398 -0.41319427 -0.44087514 -0.10527182 -0.26552305 -0.19324717 0.06914372
-0.18603472 -0.047621414 -0.22775462 -0.2047038 0.047010295 -0.3924106 0.90134 0.0016696271
0.16584545 0.61755776 0.23587283 -0.14530687 -0.49630457 0.47832903 0.49835214 0.23110522
0.7727268 -0.37299636 0.68130404 0.6298911 -1.1516337 0.26715422 0.13336806 -0.07364204
-0.02024721 -0.7408438 0.31040326 -0.054427076 -0.5617691 0.21255527 0.37454018 0.07865858
-0.51790905 -0.42629415 -0.17454739 -0.19424266 0.30719855 -0.7737179 0.33104643 -0.5796378

rnn.bias_ih_l0 f4 [48]
00000000: be39 473f 07f6 c5be 57cc f93d 1bc8 8d3b
00000010: 8677 c7be 2289 eabe e46a 78be e141 e4bd
00000020: 57ae 43be 6256 89be b02d 13bd 3f28 94bc
00000030: 1424 89bd 599e 8fbd 43f1 9c3d 05b3 29bd
00000040: a673 86bf ac84 473f d28d 6f3f 7571 833f
00000050: e63d ce3f 6fdf 733f bb03 613f 5754 863f
00000060: 804d 803f 34fe 3d3f e016 6d3f 6888 933f
00000070: 8cda 913f c0bd 883f 22c1 943f 5899 813f
00000080: 5a2f 4ebf e416 16be 2510 b33c af0f 8d3e
00000090: bd62 f3ba f790 eebd c3e9 023d ac0d 15be
000000a0: 5754 eb3d e2f5 a33d bd4f 2c3d d130 893d
000000b0: 6ff6 373e aee3 d6bd ca92 0bbe 1a5f 1d3d
0.7782248 -0.38664266 0.12197178 0.004326833 -0.38958377 -0.4580775 -0.24259526 -0.11145378
-0.19109474 -0.26823717 -0.035932243 -0.018085597 -0.066963345 -0.07012624 0.076632045 -0.041430492
-1.0504043 0.77936816 0.93575776 1.0268999 1.611264 0.9526281 0.8789632 1.0494488
1.0023651 0.7421601 0.9261303 1.1526003 1.139482 1.0682907 1.162144 1.0124922
-0.80541 -0.1465717 0.021858284 0.27551028 -0.0018568855 -0.116487436 0.031961214 -0.14555997
0.11490696 0.08005883 0.04206823 0.06698764 0.179651 -0.10492645 -0.13630214 0.038420774

rnn.bias_hh_l0 f4 [48]
00000000: 6911 493f d411 97be 3117 25be 5d50 103e
00000010: f029 61be 4954 e2be 951a 8abc e266 09be
00000020: 33f4 78be 7689 abbd 6b5c aabd 6c48 24be
00000030: a178 72bd 0336 44bc ab4f 47be e0e6 b8bd
00000040: d5c3 babf 5e7a 8f3f dc9f a83f 9345 453f
00000050: e16f 9e3f ca27 973f dd28 423f 88a8 8c3f
00000060: 466e 6b3f 7aea 143f 8456 a13f fd4e be3f
00000070: 4bef 3d3f b26e 703f fd0c 603f b922 733f
00000080: 7bf8 78bf 1ef3 c03a 62d8 313e b874 533d
00000090: 06b2 88be 01dd 843e cdd4 263e 3fc2 193e
000000a0: bdaa e5be 4822 84bd ec16 58bd 2b45 46bd
000000b0: c0fd 7dbe 5253 433e ddd7 a0bc 9bc2 88be
0.7854219 -0.2950579 -0.16122128 0.14093156 -0.21988654 -0.4420493 -0.016858378 -0.13418153
-0.24311905 -0.08375828 -0.083184086 -0.16043252 -0.059197072 -0.011975768 -0.19463985 -0.09028411
-1.4591013 1.1209219 1.3173785 0.77059287 1.2377893 1.1809018 0.758436 1.0988932
0.9196514 0.5817028 1.2604527 1.4867855 0.7419326 0.9391891 0.8751982 0.9497486
-0.9725415 0.0014720892 0.173677 0.051624984 -0.2669832 0.25949863 0.16292115 0.15015505
-0.44856825 -0.06451851 -0.052756235 -0.048405807 -0.24803829 0.19074753 -0.019634182 -0.26710972

fc.weight f4 [128, 16]
00000000: 1acf f73d 778c e9be 5dc2 833d f9b2 18bd
00000010: c50b 033e 4d1d 49be d6cd 66bd 3ccc 9fbe
00000020: 0b2f 4abd df5e d6be e9e5 ccbc 06df a53e
00000030: 6463 953e 3015 a4bd 6ab6 0b3e 2367 79bd
00000040: c13b 05bf 1ade 0b3e 290f 7cbc 4078 ab3f
00000050: 969f 023f 928f fc3e cd08 cebd 936a e23e
00000060: d0df 90be 1658 793f 7de2 053f 7113 1a3f
00000070: a848 24bd 4a48 793e 7a75 80bf 9677 4dbe
00000080: 3824 29be 5782 123e 45d1 fcbd 7368 dd3e
00000090: 828a ddbe f489 22be c2cf ed3d 4412 2abd
000000a0: b222 35bf ea83 823f b30f 87be e4f6 12bf
000000b0: e2fb 6fbe d5e8 fc3d f5ab e0bd 4c6c c73e
000000c0: bc1a f03e e987 f33c 754a 90be 8637 4a3e
000000d0: 9f1a a93d 288a cc3d 695f 17be 2a01 d6bd
000000e0: 565b 11bf be4a 723e 4e0c 1ebf 4b92 97be
000000f0: 2cff ed3d d572 603d 99b5 0a3e 3da1 233e
00000100: 76ae 55be faa8 0c3e 3329 973e 2347 053f
00000110: 940b ec3e 55be 67bd 8ba3 cdbd a6ba 56be
00000120: ab27 d9be b54c f93e 7bfe 48be bcea 08bd
00000130: 93d7 72be ac66 59be 696e 59be 6210 92bc
00000140: d350 313e beba 253e 4699 47be badf d23c
00000150: 44c5 0abe 34a7 1cbf c97f 583e 6ed5 00be
00000160: 8eec 0dbf 3b28 9fbe c70c e9bc 895f 1b3d
00000170: 4b78 5f3f 0ea3 3a3e b051 c43c 259e dc3e
00000180: b54b 613d 78a7 9dbd 6d18 833e 2c38 dbbe
00000190: 8a5f 54bd 5add 96be 1e15 8b3e 848b 393e
000001a0: afd0 0c3d 7d22 103d dd27 67be 979b fdbd
000001b0: 2702 813e 3f45 d4bd b455 2b3f 480f 823e
000001c0: c5ac 9bbd 652a 41be d829 9b3e 2513 8d3d
000001d0: 9bbd 13bf 14b0 00be eff7 973e 56b9 063d
000001e0: 6179 28bd c411 2fbd f67d 753e 7d45 f7be
000001f0: 72d9 5a3e 0df1 54bd 7ba5 913c da0e b8be
00000200: aedc 2abe ff31 14be 0f4b d5bc 1f50 b0be
00000210: e0c3 6a3e 4d02 863e 8cc4 89be 01f6 843e
00000220: fd75 71b9 5479 643e ab0d d5be c11f 2fbf
00000230: 8422 38bf 68dc 88be b42f 0e3e fdd0 8f3d
00000240: 6bf7 503e 26d1 253f c003 ccbe e827 2ebe
00000250: 9108 c1be d80c babe 3e4a 23be e633 3a3d
00000260: 9e4e 95be 204b 46be 3a0f c1be fe23 30be
00000270: 7454 b13e 8dbe 183d 87ba a13e b032 f53e
00000280: d5cf 29be b3a2 0bbc d4c6 46be 04f8 0bbc
00000290: 0b10 ba3d 3541 033e d66d 89be d40d 393d
000002a0: 27ca b5be 5283 de3e 4aeb bdbe c745 1bbe
000002b0: 85a4 553d b40b 32bd 0636 7ebe df1b 5b3d
000002c0: d34a 7d3e 2fed 983d cd95 f73e 223b f6be
000002d0: f1cb 08be 21ce 8ebe 0bcb 863e 5ff1 75be
000002e0: 6651 8e3e 01bd 03bf a1aa f1bd 1c88 b93d
000002f0: b1a5 5e3e 4ac0 40be 523f 953e f3e6 613d
00000300: 16b3 f6bd 4db9 a6bc 6791 19be 10d9 823e
00000310: fbba a13e a763 d2bd 7d29 89be bc81 403e
00000320: be10 0abe 08f0 8d3d 48de 7ebe e7b7 cf3d
00000330: 847c fcbe 5411 85be a5a6 85be 5612 bebe
00000340: 05d7 ca3e 243e 09be 06c2 ef3d 3e09 a33e
00000350: fa83 a1be e3af f13c 3e3a 1ebe 9435 113e
00000360: c593 13be 8e6b cd3e 2a57 3ebc edae 8ebe
00000370: b805 b83d 07d5 f7bc 287a 88be a5fe 73be
00000380: e0eb 2b3c a449 253d 6a4e 823d 8ae7 18bc
00000390: 3ad5 d33e 8819 0abb 1433 6d3d 00f9 893d
000003a0: 6258 603d bf69 6a3d a6a4 c6bd 1399 663e
000003b0: 9134 bc3e 297c b5bd fd54 6ebe 88a7 fb3e
000003c0: 33fd c33e c4d6 8bbd 826d 123e 560b b83e
000003d0: 5343 54be 4f5e c3be 9005 76bd fe0d cdbe
000003e0: 4f1c 05bf ae36 5b3e 6a68 c8bd 5af6 7cbd
000003f0: e2c1 35be 9db8 af3d 2e67 11bf ce2b cbbe
0.12100048 -0.4561498 0.06433556 -0.037280057 0.12797458 -0.19640084 -0.056348644 -0.31210506
-0.04936127 -0.41869256 -0.025011973 0.32396716 0.29177392 -0.08011854 0.13643804 -0.060889374
-0.520443 0.13658944 -0.015384474 1.3396072 0.5102476 0.49328285 -0.10060272 0.44221935
-0.28295755 0.97400033 0.5229872 0.60185915 -0.040108353 0.24343982 -1.0035851 -0.2006515
-0.16517723 0.14307533 -0.123446025 0.4324375 -0.43269736 -0.15872937 0.11611892 -0.041521326
-0.70756066 1.0196507 -0.26379165 -0.57407975 -0.2343593 0.12349097 -0.10970298 0.3894981
0.46895397 0.029727893 -0.28181806 0.19747743 0.08257031 0.09987289 -0.1478249 -0.10449441
-0.5677999 0.23661324 -0.61737525 -0.296038 0.11620936 0.054797012 0.13545837 0.15979476
-0.20867333 0.13736334 0.2952362 0.5206167 0.46102583 -0.056578 -0.10040959 -0.20969638
-0.42413077 0.48691335 -0.19628327 -0.033426985 -0.23715048 -0.21230572 -0.21233524 -0.017830078
0.17315988 0.16184518 -0.19492063 0.025741447 -0.13551813 -0.6119263 0.21142496 -0.12581417
-0.5543908 -0.3108538 -0.028448476 0.037932906 0.8729293 0.18226263 0.023964733 0.43089405
0.05500384 -0.07697958 0.25604573 -0.42816293 -0.051848926 -0.29465753 0.2716455 0.18119627
0.034378704 0.03518914 -0.225738 -0.12383192 0.25196955 -0.1036477 0.6692765 0.25402284
-0.076013125 -0.18863828 0.30305362 0.06888417 -0.5771119 -0.12567168 0.29681346 0.032891594
-0.04113138 -0.042741552 0.23973832 -0.48295203 0.21372011 -0.051987696 0.017779103 -0.3594883
-0.16685745 -0.14472197 -0.026036767 -0.34436128 0.22926283 0.2617363 -0.26907766 0.25968936
-0.00023027505 0.22311908 -0.4161199 -0.6840783 -0.71927667 -0.26730657 0.13885385 0.07022283
0.20406882 0.6477226 -0.3984661 -0.1700741 -0.37701848 -0.36337924 -0.1594629 0.04545965
-0.29161543 -0.19364595 -0.3770693 -0.1720123 0.34634745 0.0372911 0.31587622 0.47890234
-0.16583188 -0.008522677 -0.19411784 -0.008543018 0.09085091 0.12817843 -0.2684161 0.045179203
-0.35505792 0.43459564 -0.37093574 -0.15163337 0.05215885 -0.043468192 -0.24825296 0.053493377
0.24735574 0.07467114 0.48356476 -0.4809199 -0.13359047 -0.2789164 0.26326784 -0.24017857
0.27796477 -0.5146027 -0.11800123 0.09059164 0.21742894 -0.18823352 0.29149872 0.05515189
-0.12045877 -0.02035203 -0.14996873 0.2555623 0.31587967 -0.102729134 -0.26789466 0.1879949
-0.13482949 0.06930548 -0.24889481 0.101424985 -0.49313748 -0.25989783 -0.26103702 -0.37123364
0.39617172 -0.13402611 0.11706929 0.3184299 -0.31546003 0.029502815 -0.15451905 0.14180595
-0.14411838 0.4012112 -0.011617461 -0.27867833 0.08985466 -0.030252947 -0.26655698 -0.23827608
0.010493249 0.040353432 0.063626125 -0.009332547 0.41373616 -0.0021072347 0.05791004 0.06736946
0.05477179 0.057229754 -0.09699373 0.2251933 0.36758855 -0.08861572 -0.23274608 0.49151254
0.38279113 -0.06828073 0.14299586 0.3594615 -0.20728807 -0.3815789 -0.0600639 -0.40049738
-0.5199632 0.21407577 -0.097855404 -0.061758377 -0.17749742 0.08580134 -0.56798065 -0.39681858

fc.bias f4 [128]
00000000: b670 39be 8089 223f 0f77 5fbe c5c6 a6be
00000010: 232d a83e edbc 9bbe 3c41 b1bd a67c 223e
00000020: a4c5 0d3e 67f0 0abe 037f 3fbe b84f 69bd
00000030: 7c00 b73d 9b32 8dbe 1494 683e e8a0 95bd
00000040: 2f3a 113e 6c7f 98be d4b8 973d 3142 a2be
00000050: 7ac7 aebe e5eb a3be 0a6f 18bd f445 363e
00000060: 5974 8c3e 32af ccbe bfe6 c43d 1fdf 9a3e
00000070: 871c cdbe e5c5 3fbe 3f88 f2bd 8062 b6be
00000080: 1483 9d3d ee44 6a3e 0762 1fbe 86f0 5f3e
00000090: 9072 2c3e 87d7 cfbd 7004 ac3e 5904 80bc
000000a0: 63f7 943e 97cd 09be 4b14 43be 0b09 4b3c
000000b0: 91ce d83b 313c 5d3d 03a9 6e3e e0da 573c
000000c0: 8420 e83e 6b3b 37be 7451 0ebf e7ae 29be
000000d0: e28d 4bbe 963f 07be 0901 4b3b a468 4cbe
000000e0: 2d0b d03b de79 283e 7469 2cbe 1fa8 803d
000000f0: bacf efbd 81a4 aa3d 79ec 0d3f 8792 88bd
00000100: 85d3 9b3e ff69 00bd 2c9e 8c3e ae2a a43c
00000110: c9af 563d 3526 c6bd b039 d2bd 75f2 17be
00000120: 370b 97bd 263a 07bf 2fb3 923d 75c1 c6be
00000130: 4da5 423f e339 883d fa9d 523e 86e5 623e
00000140: 7483 823d 1948 1fbf e564 f7bd a52c 853e
00000150: b742 603e 48c6 b9be e599 333d 1e7c 9a3d
00000160: 66fd cbbd 6105 683e 53d5 ecbd 7d13 21be
00000170: 5467 6abd 1822 fcbe 176a da3c e8b1 53bd
00000180: abb8 aebe 41d5 e6be 60c9 a53e f8c5 843e
00000190: 7d0b 743e c45f b9be 26d3 653d df54 adbe
000001a0: 4160 cc3e fc7e 163e 1b2b 6abb ec41 4d3e
000001b0: 1b3e cebd 0fb7 da3e e292 78bd f673 b83e
000001c0: 7074 4abe 6f0f 54bd 25f4 9e3c 8263 b5be
000001d0: 5ad9 ccbe f15c b63e 00cb 8dbd 50d5 07be
000001e0: 71c2 c0bc 3db0 a0bd bea9 17be a2b6 f3be
000001f0: 2779 743e 3c05 84bd 653a 17be aa07 d9be
-0.18109402 0.6349106 -0.21822761 -0.32573524 0.32846937 -0.30417576 -0.086550206 0.15867862
0.13844925 -0.13568269 -0.18700795 -0.05696079 0.08935639 -0.2757767 0.22712737 -0.07306081
0.14182352 -0.29784715 0.074083 -0.31691125 -0.34136564 -0.3201591 -0.03721527 0.17800122
0.27432516 -0.39977413 0.09614324 0.30248353 -0.40060827 -0.18727835 -0.11842393 -0.35622025
0.07691017 0.22877857 -0.15564738 0.21869096 0.16840577 -0.101485305 0.33597136 -0.015627073
0.2909499 -0.13457333 -0.1905071 0.012392293 0.0066164215 0.05401248 0.2330666 0.013174742
0.45337307 -0.1789376 -0.5559304 -0.16570626 -0.19878343 -0.1320785 0.0030975959 -0.19961792
0.0063489885 0.16452739 -0.16837102 0.062820666 -0.117095426 0.08332158 0.55438954 -0.06668573
0.30434814 -0.031351086 0.27464426 0.020039883 0.052413736 -0.09675256 -0.10264909 -0.14838584
-0.07375186 -0.528231 0.07163083 -0.3881947 0.7603348 0.06651666 0.20568076 0.22157869
0.06372729 -0.6221939 -0.12079791 0.26010624 0.2190045 -0.3628409 0.043847937 0.07543205
-0.09960441 0.22658302 -0.11564126 -0.1573009 -0.057227448 -0.4924476 0.026661916 -0.051683336
-0.34125265 -0.45084575 0.323802 0.25932288 0.23832507 -0.36205876 0.05610957 -0.33853814
0.39917186 0.14696878 -0.003573126 0.20044678 -0.100704394 0.42717788 -0.060686953 0.3602597
-0.1977098 -0.05177253 0.019403527 -0.3542748 -0.40009576 0.35617784 -0.06923485 -0.13264966
-0.023530217 -0.07846115 -0.14810845 -0.47600275 0.23874341 -0.06446311 -0.1476837 -0.4238866

mlp.0.weight f4 [16, 360]
00000000: 07b0 a23d 7f3a 9a3d 57ac a23c 8361 373d
00000010: 6966 da3d 443c a83d 1be8 973d 9626 cc3c
00000020: 0fd8 ea3d 58d6 a13d 2750 8c3d 32e0 093d
00000030: 411a ee3d 3ea3 dd3d d382 cc3d a00d aa3d
00000040: fd21 4e3d 88b0 943d 5a3d f43c eda5 cb3c
00000050: 1c85 8e3d e704 b73c af6c 823d c40a a33d
00000060: 84bc 773d 4b07 fc3d c5a5 f83d c4a1 903d
00000070: c7e8 f13d 0b79 3e3d 5add 313d 7865 be3c
00000080: d008 d53d 2563 603d 98ab 4d3d 26e4 e43d
00000090: e915 b23d 4ad3 8f3d f8d4 073d b203 e83d
000000a0: 15a1 053d a6f4 033e 2df8 f23d a1f9 bb3d
000000b0: 42b6 993d 42ae a83d 5ef2 013e 56a9 f63d
000000c0: 9f34 103e eeb6 ad3d 11bc 203e 62a0 c13d
000000d0: 7b30 0c3e 56f2 b53d 842c 123e 12d6 3d3e
000000e0: 9ea1 163e 0d55 243e 08e5 383e d3f6 713e
000000f0: 45a0 4f3e 14e4 863e f6cf 363e 75ce 443e
00000100: 8c8e 923e 7b5f 833e 7991 5f3e 5f02 8e3e
00000110: eeb3 823e 5ba8 703e ae81 243e ef44 d33d
00000120: 82f6 fc3d 0848 f53d b034 793d b81e 203d
00000130: 964d 243d 6228 2cbd 7f12 d03c 99bd 66bd
00000140: 30dd 97bd 2225 acbd 8e76 83bd 3964 4dbd
00000150: 81ff 08be e542 0dbe 7336 2abe 579f e3bd
00000160: 3b4c 00be 4df8 1bbe d491 23be b512 16be
00000170: 6021 36be 00d5 0bbe a19e 31be f746 15be
00000180: 3e25 d3bd 8f29 0cbe d1ee 78bd 139e 0fbd
00000190: 70d4 1bbd baa8 e1ba acc3 b83b 5671 143c
000001a0: ee48 04bd 5e25 f03c 151b b53d 3485 9d3d
000001b0: 5e37 b53d 8b70 c23d eea4 673c 5ef8 a93b
000001c0: 30b0 ee3c 9205 813d b0a6 aa3c c5dd 88bd
000001d0: cdec a0bd a176 88bd 55ea aabd 0eff 08be
000001e0: 75a6 5dbe 1de2 6ebe 69ab 87be bb5e 82be
000001f0: 8c0f a3be 04a9 9abe 5c25 acbe 1e84 9bbe
00000200: 22ca 99be 3420 bdbe 79f7 85be 511b 8fbe
00000210: 2221 84be eb47 40be 4d28 0bbe 6b70 15be
00000220: 0cb7 edbc add7 26bd 645e d93d 86ec d63d
00000230: 72ae 453e d63e 763e 640c 5e3e 091c 803e
00000240: 3290 b53e 9bbc e83e a61b fe3e 26ea 063f
00000250: bb3c ff3e 7f9a 013f 3706 fc3e e147 eb3e
00000260: 3a83 b13e bfa6 d73e 1c14 be3e a501 c93e
00000270: c7ad c73e f18e b33e 8bea 893e 3d74 433e
00000280: 9186 253e 7bfd 953d 9dce da3d 43cc 3f3d
00000290: b174 84bc b357 1a3d 39c3 7cbd 0b7a 54bd
000002a0: e450 a4bd 1f1e 0d3b eaf3 a6bc 56e0 22bd
000002b0: 0a34 2bbd fbec dabc 1792 10bd a72d ddbd
000002c0: a68f 57bd 7acf 153d 9303 7e3d b02e f23c
000002d0: 1aa7 b93b 8cfd 8f3d 910e aaba a1ef dabc
000002e0: 71d3 fdbc 3b72 4ebd 612a 07bd 9118 a2bd
000002f0: 780f 80bd 2c2e c3bd 42d7 c1bd 7db0 fcbd
00000300: 8fe3 3fbe d120 3dbe 5c36 36be 8ec6 bebd
00000310: 084c 24be 1bfb 49be 0705 21be bce2 19be
00000320: 3740 66be 40a0 42be 9355 66be f8f1 7abe
00000330: f483 41be 8008 81be 1c7f 7bbe 9759 68be
00000340: 05fd 4dbe 8a6a 0fbe 7fba a9bd 196f 94bd
00000350: fe7b 473c 8094 9b3d ed3f c23d 25a3 ef3d
00000360: b2d6 bb3d 9d14 fa3d a37c 4c3d 594f d23d
00000370: f8fa 513d 6b5f dd3c 859c 4dbd cde6 86bd
00000380: 9f2f acbd a24a 19be 6103 bfbd d353 88bd
00000390: 8b21 d5bd d5d4 bbbd 90b6 073c d1ce 13bd
000003a0: 57fe 843d 39ca 5a3d fa02 543d 0780 60bb
000003b0: f0a3 ce3b 2ff8 5e3d 822e cc3c 7921 0f3d
000003c0: 62a7 4a3d a337 1d3d 747c 843d 5506 053e
000003d0: 9f4d 7c3d f45a 873d bb90 f03d 61e2 983d
000003e0: 8a56 c53d c056 573d 8a57 063e abc0 f53d
000003f0: db75 4b3d 1df0 803d 9b85 a03d 1662 8bbc
0.07943731 0.075306885 0.019857569 0.04477073 0.106640644 0.0821462 0.074173175 0.024920743
0.11466991 0.07902211 0.06851225 0.033661075 0.11626101 0.108221516 0.0998589 0.0830338
0.050325383 0.07260233 0.029814411 0.024859393 0.06958982 0.022341205 0.06368386 0.07961038
0.060482517 0.123060785 0.12140993 0.07062104 0.11811977 0.046502154 0.043423988 0.023241743
0.104020715 0.05478205 0.050212473 0.11176328 0.08695585 0.07022722 0.033162087 0.1132883
0.032624323 0.12886295 0.11863742 0.09178472 0.07505466 0.08236362 0.12690112 0.12044017
0.14082573 0.08482157 0.15696742 0.09454419 0.13690369 0.088841125 0.14274794 0.18538693
0.1471009 0.1604807 0.18056118 0.23629312 0.20275982 0.26345885 0.17852768 0.19219382
0.2862438 0.25658783 0.21832837 0.27736184 0.255279 0.23501723 0.16065094 0.103158824
0.12351705 0.119766295 0.060841262 0.039091796 0.040113054 -0.0420307 0.025399445 -0.05633316
-0.07415235 -0.0840552 -0.06419097 -0.050144408 -0.13378717 -0.1379505 -0.16622333 -0.11114376
-0.1252908 -0.15231438 -0.15973598 -0.14655574 -0.17786169 -0.13655472 -0.17345668 -0.14577852
-0.10309838 -0.13687728 -0.060774628 -0.03506286 -0.038044393 -0.0017216422 0.0056385603 0.0090602245
-0.032296114 0.029314693 0.08843056 0.07691422 0.08848451 0.09494122 0.014138443 0.0051870784
0.029136747 0.062998906 0.020831436 -0.06682924 -0.07857666 -0.06663252 -0.083454765 -0.13378546
-0.2164553 -0.23328443 -0.26497963 -0.254629 -0.318478 -0.30207074 -0.33622253 -0.30374235
-0.30037028 -0.36938632 -0.2616537 -0.27950528 -0.25806528 -0.18777435 -0.13589592 -0.14593665
-0.029017948 -0.04073303 0.10613707 0.10494332 0.19304827 0.24047408 0.21684414 0.2502139
0.35461575 0.45456395 0.4963047 0.5270103 0.4985102 0.5062637 0.49223492 0.45953277
0.3467043 0.42119405 0.37124717 0.39259067 0.3899977 0.35069993 0.26936755 0.1908731
0.16164614 0.07323738 0.106839396 0.04682566 -0.016168924 0.037681293 -0.061709616 -0.0518742
-0.08023241 0.0021532846 -0.02037998 -0.039764725 -0.041797675 -0.02672433 -0.035295572 -0.10799723
-0.05262723 0.03657482 0.062015127 0.029563278 0.005665672 0.07030782 -0.0012974312 -0.026725592
-0.030984612 -0.050401907 -0.0329994 -0.07914842 -0.062529504 -0.09530291 -0.09464885 -0.1233835
-0.1873915 -0.1846955 -0.17794174 -0.09315215 -0.16044629 -0.19724695 -0.15724574 -0.15027899
-0.22485434 -0.19006443 -0.22493581 -0.24506366 -0.18897992 -0.25201797 -0.24560207 -0.22690426
-0.2011605 -0.14005485 -0.082875244 -0.07247753 0.012175558 0.075966835 0.09484849 0.11701039
0.09171809 0.12210963 0.04992355 0.102690406 0.051264733 0.027023038 -0.050198097 -0.065869905
-0.084075205 -0.14969876 -0.09326816 -0.06656613 -0.104067884 -0.09171454 0.008283272 -0.036085907
0.06493824 0.05341551 0.05176065 -0.0034255998 0.006306164 0.054435905 0.02492452 0.03494403
0.049476035 0.038383137 0.0646905 0.12990697 0.061597463 0.06609145 0.11746355 0.07465053
0.09635647 0.052572966 0.13119331 0.11999639 0.049672943 0.06295798 0.07837983 -0.017014544

mlp.0.bias f4 [16]
00000000: 8669 a13d 1560 b1bd 2150 d5bd cc83 cd3d
00000010: 89f7 3cbd ff6e a3bd 351c 453d 90dc bcbd
00000020: 40c2 32bb 900d dabb 24d3 53bb 9f01 7cbb
00000030: 2e57 81bd c590 ef3d 2c8c 4abd 93f8 e2bd
0.07881455 -0.08660904 -0.10415674 0.10034904 -0.046134505 -0.07980155 0.048122603 -0.092217565
-0.0027276427 -0.006654449 -0.0032321895 -0.0038453115 -0.06315456 0.116975345 -0.049450085 -0.11082568

mlp.2.weight f4 [16, 16]
00000000: 47ee 02be 72cd 8ebb c03c 273c 5e26 15be
00000010: 11dd 65bc 3057 26bc 7c80 2abd 45bc 953d
00000020: 834e 003e a9b9 203e 4f32 2cbd 3a93 fabd
00000030: 705b 6bbc fe96 263d 49db 053e e2a5 96bc
00000040: 66f7 2cbc 6e1d d2ba 5b30 47bc e1d5 70be
00000050: 0c25 a1bc b2ef 273c 6cbe bebd a784 673c
00000060: 23a3 90bb 8347 4ebe 0f91 74bc cbf2 903c
00000070: 94c4 9fbc fe42 3cbe 3618 123b 060f e73b
00000080: 6b2f 64bb 0917 af39 7e28 2c3c 5747 52bc
00000090: 522f b5bc 6704 323c 072e 65bc 6924 50bc
000000a0: d72c 74bc 86b2 afbc 7cdb ebbb 309c ba3c
000000b0: 5acc a83c ff4e 23bb 4998 713c 189e a7bc
000000c0: df68 44be 87ec 193c 225e bdbc 997e 10bc
000000d0: d0ec 3a3c 4a34 343c bfbc 57be b0e1 b63d
000000e0: c1d2 993d dc7f 03bd b08a 5c3d db34 b8bd
000000f0: 1dea ccbb d722 3fbd 9870 ce3d fa49 9ebc
00000100: 2f56 85be 7ddc aabb 4cb8 b0bc 577b 51be
00000110: b2ef bcbc 01c5 e4bb 7abc a4bd aab5 cf3b
00000120: 423a 8b3c 55f6 03be 099e 02bc 8704 88bc
00000130: 66c7 87bc 85f3 713d bdd1 243a 5282 95bb
00000140: bcee 1bbe 3aa6 cf3b f77b 38bc b9ba e03c
00000150: 0ef8 51bc fb63 1abc 2bd1 ba3e 1501 323d
00000160: 168e f43d 6b10 073e 2c71 a83e 8a39 29be
00000170: e8ac c1bc 5cca 4f3e fb39 1bbe 9cf9 87bc
00000180: 853d 8dbd d68c 0ebc b3ed 3abc e219 8b3e
00000190: 993c 923c 7ba5 91bb 8edb 063b 1dc2 373e
000001a0: 972e a8bd d9f1 57be 3c66 5b3e 22c3 b13d
000001b0: 4a18 b33c 9f75 4f3e 0cc0 8f3d 6332 223c
000001c0: 20df 7ebe b974 a93c 432e 5e3c 7cfd 9e3c
000001d0: 1a79 bfba 7eef bebc c2ca 59bd 26b0 153d
000001e0: f9bc 2a3e fb50 6dbe c84c b63d 76ea 4e3d
000001f0: 5bc1 2dbc a01f ffbc 78a3 cabd a548 fbba
00000200: 235a b93c e6f2 163d 23dc e1ba 3a51 423e
00000210: 085b 29bc 0235 473e ae70 bc3e 177d 1dbe
00000220: b48e 083e 80cd 553e 5c92 6fbe b068 a23d
00000230: 1bd4 fa3d fffd 1bbd 621c 2bbe 95c9 103e
00000240: 9811 e5bd 29e8 65bd 4d62 2bbe 9db4 843e
00000250: 82e0 c93d a1f5 69bd cd60 d0bc 960d cdbc
00000260: 662b 0b3e 063b 773e 3136 663c e21e 833e
00000270: f0dd 2bbe f1f4 29be fccf 9c3e fc1b f5bd
00000280: cbfd 5abd 7b22 403e 29e5 fb3d d0e7 9b3b
00000290: e617 8e3c 7898 173d 1192 913d f8b4 98bc
000002a0: 40b3 e5bd 8939 d1bd 6938 72be 081d 453d
000002b0: 76a1 e13d 25da c23d fd30 493e bf29 133d
000002c0: 4cf7 a7be 5524 c0ba 089c e73a 1d90 d8bc
000002d0: 1e0b b4bc 43cb c0bc be86 793e 36f4 db3b
000002e0: b990 51bc ee37 1a3e c6eb 8a3e b1a4 b7bc
000002f0: 41da 403c dd30 85be 54a7 703c 216e 9fbc
00000300: 1ed5 c4bb 8a98 3d3c 78e2 f6bd d0bf 9f3e
00000310: 59a6 a6bd 2ec7 52be 7f53 a33d 1069 81bd
00000320: 78dc ca3d 16a3 a3bd 530f 77be 4892 56be
00000330: ca62 30be ed80 ea3d 1d7e 563e 3458 b0bb
00000340: 350f 91be 83e6 5fbb 9044 833c 16d0 21be
00000350: b5f8 94bc 0cd2 b0ba a334 5fbd 877f 73be
00000360: 2f2e 1e3e 6283 4cbd 076d 93be 6542 013d
00000370: 9cd5 a8bc d8ec 363e b0a0 403e 8303 10bc
00000380: f269 0c3e 4b8c 093e 8a13 ba3c d0ef 9bbe
00000390: bb65 ae3d 5b49 b43d 78cc 9f3e 5fa6 99be
000003a0: 7f48 74be 143b 4b3d c6b7 963b 32e9 dd3d
000003b0: 0e28 39bc 3814 13bd 2bd2 573d 2e39 27be
000003c0: 243e 823e 3d06 5cbd cf87 3b3e 482a cf3c
000003d0: 31cb e5bd af99 273d 413e 51be 7f5f 863e
000003e0: 5512 713e bc04 e33d 356c 3f3e 745d a1bc
000003f0: 0b13 12bd 4152 7c3e e66c 2fbc 319a 23be
-0.12786208 -0.004357987 0.010207355 -0.14565417 -0.014029757 -0.010152623 -0.04162644 0.073113
0.1252995 0.15695824 -0.042040166 -0.122351125 -0.014365062 0.04067134 0.13071932 -0.018389646
-0.010557031 -0.0016030499 -0.012157525 -0.23519088 -0.019670986 0.010250019 -0.09313664 0.014130748
-0.0044139787 -0.20144467 -0.014927163 0.017693898 -0.019502915 -0.1838493 0.0022292263 0.0070513515
-0.0034818302 0.00033395764 0.010507701 -0.012834392 -0.02211729 0.010865307 -0.013988025 -0.012703993
-0.014903269 -0.021447431 -0.0071977954 0.022779554 0.020605255 -0.0024918912 0.01474578 -0.020461127
-0.1918063 0.009394771 -0.023116175 -0.008819246 0.011409 0.010998795 -0.21068095 0.08929765
0.07510901 -0.032104358 0.0538432 -0.089944564 -0.0062534944 -0.046664085 0.10080069 -0.019322384
-0.26042315 -0.0052142725 -0.021572255 -0.20457207 -0.023063514 -0.0069814925 -0.080437616 0.0063387947
0.016995553 -0.12886937 -0.007972249 -0.016603721 -0.016574573 0.05907013 0.0006287357 -0.0045626545
-0.15227789 0.0063369544 -0.011260024 0.027432786 -0.0128154885 -0.009423251 0.36487707 0.043458063
0.11941163 0.13189857 0.32898843 -0.16525856 -0.023642018 0.20292038 -0.15158837 -0.016598515
-0.068964995 -0.00870057 -0.011409211 0.27168185 0.01785116 -0.0044447756 0.0020577642 0.17945142
-0.08212011 -0.21088351 0.21425718 0.08679797 0.021862168 0.20259713 0.07019052 0.009899708
-0.24889803 0.02068554 0.013560834 0.01940798 -0.0014608235 -0.023307558 -0.05317188 0.03654494
0.1667365 -0.23175423 0.089013636 0.050516568 -0.010605182 -0.03114301 -0.098944604 -0.001917143
0.022625988 0.03685274 -0.0017231744 0.18976298 -0.010336645 0.19453815 0.36804718 -0.15379749
0.13335687 0.20879173 -0.23395675 0.07930124 0.12247487 -0.038084026 -0.16710046 0.14139397
-0.11184996 -0.05612961 -0.16736718 0.25919047 0.098572746 -0.057119016 -0.025436783 -0.025030892
0.13590774 0.2414361 0.014051006 0.256095 -0.16783881 -0.16597344 0.3062743 -0.11968228
-0.053464692 0.18763153 0.12299568 0.004757859 0.01734538 0.03701064 0.07107938 -0.01864098
-0.1121583 -0.10216052 -0.23654331 0.04812339 0.11017124 0.09514264 0.19647594 0.035928484
-0.3280586 -0.0014659265 0.0017670402 -0.026435906 -0.021977957 -0.023534423 0.24367806 0.006712462
-0.012790852 0.15060398 0.27133006 -0.022417398 0.011770786 -0.26013842 0.014688332 -0.019461693
-0.006006851 0.011572013 -0.12054914 0.3120103 -0.08137197 -0.20583794 0.0797491 -0.06318867
0.09905332 -0.079900905 -0.2412694 -0.2095424 -0.17225185 0.11450372 0.20946546 -0.0053816084
-0.28331915 -0.0034164495 0.016023904 -0.15802035 -0.018184999 -0.0013490333 -0.054493558 -0.23779117
0.15447305 -0.049929984 -0.2879412 0.03155746 -0.02060967 0.17863786 0.18811297 -0.0087899
0.1371229 0.13432424 0.022714395 -0.304564 0.08515497 0.08803054 0.31210685 -0.30009744
-0.2385578 0.04961689 0.004599544 0.10835494 -0.011301054 -0.035907954 0.052690666 -0.16330406
0.25438035 -0.053716887 0.18313526 0.025288716 -0.11220396 0.04091805 -0.20433904 0.26244733
0.2354215 0.110848874 0.18693621 -0.019697882 -0.035662692 0.24640752 -0.010707116 -0.15976788

mlp.2.bias f4 [16]
00000000: 3e9a 41be b669 48be 7e70 8bbc 4aa6 77be
00000010: 6fe2 aabe 4e42 b9be 64e5 3fbd 1608 84be
00000020: dee5 773e 8b44 903e 1b10 54bd ce31 6abe
00000030: a438 cf3d 1212 46be b5f5 c63e 8c5b 3d3e
-0.18906495 -0.19571576 -0.017021414 -0.24184528 -0.3337588 -0.361834 -0.046849623 -0.2578742
0.24208781 0.28177294 -0.051773172 -0.22870561 0.10118225 -0.19342831 0.38859335 0.18491954

mlp.4.weight f4 [16, 16]
00000000: 3e63 243c bf0b 20bc 5fa9 b03c b35b a63b
00000010: 4499 a2bd 372d 313e db91 62bb 2165 e73d
00000020: 9b0b 563e a8ca 28be 33ef 64bd 249d 8d3e
00000030: 4b85 ebbc bff3 b53c f5b8 813e e8df 54be
00000040: 9578 e8bd d43a 153d b0fa cb3b 60a4 29be
00000050: 316b 6e3d f56f 96bd f8af 8e3e f99c da3d
00000060: f3d0 8b3e acbf 013c 8ff1 2bbc d0e1 093d
00000070: abc3 a43e e42b 913e 0802 3dbe 6cde 273c
00000080: 97f7 0a3e c5ad c23c 07f8 2b3b 2803 be3d
00000090: 3c4f 9cbc 1829 d13a f790 223e 9b51 a63c
000000a0: 6984 91be e971 66be 731c a4be 377c 8ebc
000000b0: cb2f 85bd edcc eebd 89c9 89be c892 09be
000000c0: 56a2 f5bd 766a e3bb 927f b33c 7757 703c
000000d0: d170 293e aa77 56be c5ba 5a3b 9ac7 583c
000000e0: 9c11 303c fb78 5ebe 505d 703d 21bd debd
000000f0: b044 a9be 229d 5bbc b2ff 5cbd c25c 9bbe
00000100: 1de3 c13c 85c2 a53c 603a b03c 2e19 7bbb
00000110: 31cb b23d 34a6 16be 3743 8bbe c4e8 2cba
00000120: 982c cfbd 15f5 f8bd 5391 12be 3d67 113d
00000130: 0f58 98bd 4c55 a93c 221a b2bc b320 7cbe
00000140: f5b8 abbd 302f 2e3c f38a 3e3c eddb 853a
00000150: 85b3 403d 454b afbe 3b40 9ebe d02b 7fbb
00000160: 355c 81be 9cb3 003d 22c0 f2bd b201 29be
00000170: 79f6 c63d 46c6 263c a94f 5fbd 6481 b6be
00000180: 70a6 41be 89f7 1fbb 5a3c c1bc e6cf c2bc
00000190: fbc5 22bc 63b8 2cbe c78f 63bc 9e05 9dbc
000001a0: 8a7d a3be 3e5b 67be 150e 57be bc5c a9bd
000001b0: fffb 6cb8 7444 8abc 7b3e bf3d d675 0ebe
000001c0: 452e 4fbe 97d0 91bb 158f ccbb 4f79 50bd
000001d0: 9e10 003b 8d38 f4bd fcd4 f53d fc1d 4abd
000001e0: 8824 7dbe 413c 113e effd 8d3c 10cb 8f3b
000001f0: 5fd9 4cbe e45b 6cbd b5ea a9bc 0d7b f3bd
00000200: 709c 1d3e 22a4 2bbd d47d 9a3b 1ea7 aabb
00000210: f72a 8fbb faa4 2d3e 4ba0 5f3e 86cc 86bd
00000220: d106 debd cf46 bcbd 95c9 8f3e f028 8cbe
00000230: 0b5d 91bd 82db febd a9fa 92bd fe1d 2a3e
00000240: 4e1e b4bc a161 4239 4407 a8bc 1d48 1abc
00000250: b645 90bb c3af 86be e6e0 36be e9ee 023c
00000260: 69d8 e7bd 25b1 7bbe 76f8 49be a595 8cbe
00000270: ae6a f5be 49e2 8cbc 5203 82bb 6112 76be
00000280: 88b6 60bd 8d7b c5bd a891 373b f281 9abd
00000290: 65ff 02be 6a7f 833e c907 663e b6f2 363e
000002a0: 9b19 8f3e 587d 843e 1481 dbbd e883 d2be
000002b0: 5701 853e f590 4dbd b574 c7bd eb58 01be
000002c0: 6c7f 613e 0d52 e2bd ab32 b8bc 3779 2a3c
000002d0: 23ee 81bd 72e6 efbe 5e26 3c3d 93b6 0dbe
000002e0: 05d2 29be d9bb 103e e3d6 80be dbd6 d43e
000002f0: 9e44 873e ce38 473e ffa1 8c3e 44f3 b63e
00000300: 66f9 1b3e cbc2 82bd b118 f23b 7270 bc3d
00000310: 8adb a53e 69a4 8bbd ddb8 83be 0618 ba3c
00000320: 57d9 23be 8503 0fbe 3043 87be 3dfb 913e
00000330: bc6d 75be e5ed 903c 90e4 2dbe 8224 4d3d
00000340: 8edb e03b 5e13 9ebc 7d80 1b3c 40b8 39bc
00000350: 27a5 663c 031b 1d3e 063e 5f3e 6120 833b
00000360: 84c0 5bbd f6e3 e1bc 575e 273c 747e 23bf
00000370: bc33 d1bd 9d65 8d3b 8dfa bd3d 19a2 783e
00000380: e3be 983e 83ff 663c a5b7 edb9 1c46 14bc
00000390: ea1b aabc 2282 413e 5741 9f3e 0cd6 683e
000003a0: dd3f 15be cf97 cc3d 78c7 5cbe 81fc 93bf
000003b0: 0c65 5a3e 0f40 bc3d 6b41 083f e9ed 483e
000003c0: 52b4 f83d eff4 323d 525c 07bb 0f00 3e3e
000003d0: e135 e43d 97fb 183d 9965 71be 5921 303e
000003e0: 69c1 4d3e c942 8bbe 0ed6 893e af71 e83d
000003f0: 411b 853d ec42 19be 3470 ee3e 7af2 16bb
0.010033427 -0.0097684255 0.021565137 0.0050768494 -0.07939389 0.17302404 -0.00345718 0.11298586
0.20902865 -0.16483557 -0.05589218 0.2765895 -0.028750082 0.022210954 0.25336424 -0.20788538
-0.11351124 0.036433056 0.0062249526 -0.1656661 0.058207694 -0.07345573 0.27868629 0.106744714
0.27307853 0.007919233 -0.010494604 0.033662617 0.32180533 0.28353798 -0.18457806 0.010245901
0.1357101 0.0237645 0.0026240365 0.09277946 -0.01908075 0.0015957681 0.15875612 0.020302584
-0.28421333 -0.22504391 -0.32052955 -0.017393215 -0.065032564 -0.1166018 -0.26911572 -0.13434899
-0.11993854 -0.0069401814 0.021911416 0.014669291 0.16546942 -0.20944086 0.0033375483 0.0132311825
0.010746386 -0.21725838 0.05868274 -0.10875917 -0.33060217 -0.013404163 -0.053954788 -0.30344206
0.023667866 0.020234356 0.02151221 -0.0038314569 0.08730162 -0.14711839 -0.27199718 -0.0006595964
-0.101159275 -0.12156121 -0.1431325 0.035498846 -0.07438671 0.020670556 -0.021740977 -0.24621849
-0.08384887 0.010631368 0.011629808 0.0010212638 0.047046203 -0.34237114 -0.3090838 -0.0038936026
-0.2526566 0.03142129 -0.11853053 -0.16504553 0.0971498 0.010179108 -0.05451933 -0.35645592
-0.18911147 -0.0024409017 -0.023588348 -0.023780774 -0.009934898 -0.16867213 -0.01388926 -0.019167718
-0.31931716 -0.225934 -0.21001466 -0.08269641 -5.6501474e-05 -0.016878344 0.09338089 -0.13912138
-0.20232494 -0.0044499147 -0.0062426426 -0.05089694 0.0019541155 -0.11924849 0.12003514 -0.049345
-0.24720967 0.14183141 0.017332999 0.0043882206 -0.20004795 -0.05770482 -0.0207418 -0.118887044
0.15391707 -0.041904576 0.004714707 -0.00520791 -0.0043691355 0.16957465 0.2183849 -0.065819785
-0.10841144 -0.09193193 0.28083482 -0.27374983 -0.07097825 -0.124442115 -0.07176716 0.16613004
-0.021987107 0.00018537651 -0.020511277 -0.009416607 -0.0044028414 -0.2630597 -0.1785923 0.007991531
-0.11320574 -0.24579294 -0.19723687 -0.2745792 -0.47932953 -0.017197745 -0.003967681 -0.24030448
-0.054861575 -0.09642706 0.0028010402 -0.07544316 -0.12792738 0.25683147 0.22463907 0.17866024
0.27949223 0.2587688 -0.10717979 -0.4111626 0.25977585 -0.05018707 -0.09739057 -0.12631576
0.22021264 -0.11050806 -0.022485098 0.010404876 -0.06344249 -0.46855503 0.045935027 -0.13839178
-0.16584022 0.14134158 -0.25163946 0.41570172 0.26419538 0.19455263 0.27467343 0.35732472
0.15231857 -0.0638481 0.0073881974 0.09201135 0.32394058 -0.06818468 -0.25726977 0.022716533
-0.16000877 -0.13966186 -0.26418447 0.28511992 -0.23967642 0.017691562 -0.16981721 0.050083645
0.0068621105 -0.019296344 0.009491083 -0.0113354325 0.014077461 0.15342335 0.21801004 0.0040016626
-0.053650394 -0.02757452 0.010215363 -0.6386483 -0.10214946 0.0043150918 0.092763044 0.24280585
0.29833135 0.014099005 -0.00045340988 -0.0090499185 -0.020765264 0.18897298 0.31104538 0.22737902
-0.14575143 0.09989893 -0.21560466 -1.1561433 0.21327609 0.09191906 0.5322482 0.19622006
0.12143768 0.043690618 -0.0020654392 0.1855471 0.11143089 0.03734931 -0.23573913 0.17200221
0.20093311 -0.2719939 0.26921123 0.113498084 0.06499339 -0.14966935 0.4656998 -0.002303271

mlp.4.bias f4 [16]
00000000: 348e 843c 82c6 bfbc 0b16 4e3d 8486 ea3d
00000010: ac01 e6bd e384 233e 8d41 ca3d 59c0 b6bd
00000020: 399b 2f3e e2f1 4cbe 279c f5bd a99b ab3e
00000030: fc8d 133e f08a f0bc 8847 76be 4fa3 363d
0.016181089 -0.023410086 0.05031399 0.11451438 -0.11230788 0.15968661 0.09875784 -0.08923406
0.17149056 -0.20014146 -0.11992674 0.33517197 0.14409631 -0.029363126 -0.24050725 0.044589337

mlp.6.weight f4 [3, 16]
00000000: 3c14 5cbe 64d9 1b3b 1e01 08be 48e9 db3d
00000010: a948 c0bd d5f2 b2bd 55c7 a7bd 677f debd
00000020: e828 423e 5f33 a03b c4ce 6abe bc21 0cbe
00000030: 6b1d ab3e c0c6 6f3e 2926 973e 722a 63bd
00000040: 53f7 d2bd 4ebf e6bd 8a46 e13c e985 3f3e
00000050: 0f95 4cbc 1adb ecbd 432d 443d d848 6a3d
00000060: 57d8 c9bc ef02 bf3d c024 d8bd 9ad3 d73e
00000070: f086 8abd 4cfa 883d d6ab febd 9d48 35be
00000080: 7f8a 37be 9156 a83e a44e 8dbd a43c 5a3e
00000090: 08dd a93d 79a1 f73d 32d9 1dbe f5d0 513d
000000a0: 35c4 833e 1ab0 293e 21ad 643e 3015 823e
000000b0: 8873 933e f4f3 f4bc 9964 e0bd 647c 3abe
-0.21492094 0.0023780698 -0.13281676 0.10737854 -0.09388859 -0.08737723 -0.081923164 -0.10864144
0.18960917 0.0048889364 -0.22930437 -0.13684744 0.33420882 0.23415661 0.295213 -0.0554604
-0.103010796 -0.11266957 0.027499456 0.18703426 -0.01248671 -0.11565228 0.047894727 0.057198375
-0.024639292 0.093267314 -0.105538845 0.42153627 -0.067640185 0.06688365 -0.12435119 -0.17703481
-0.17923926 0.32878545 -0.06899765 0.21312195 0.082941115 0.12091345 -0.15414885 0.051224668
0.25735632 0.16571084 0.22331668 0.2540679 0.2879908 -0.029901482 -0.109566875 -0.18211514

mlp.6.bias f4 [3]
00000000: 6dc9 55bd 668a a8be 6ba1 c63d
-0.052194048 -0.3291809 0.09698757
