EUSIPCO/Nested Array/saved_models/da_music_-10.0dB_ula_8.pth (torch, 47122 bytes, 18 tensors)

bn.weight f4 [16]
0.501431 0.5530143 0.7145775 0.7089309 0.589319 0.53729504 0.6323681 0.4999613
0.5428806 0.5777441 0.6435172 0.61846447 0.599174 0.59094936 0.645408 0.48421356
00000000: c85d 003f 5892 0d3f 8dee 363f 7f7c 353f
00000010: 9cdd 163f 2b8c 093f e0e2 213f edfa ff3e
00000020: 39fa 0a3f 0ae7 133f 8bbd 243f b053 1e3f
00000030: 7863 193f 7548 173f 7539 253f d7ea f73e

bn.bias f4 [16]
0.033767458 -0.09114021 -0.07916658 0.030216092 0.08325338 0.007747648 -0.060412504 0.041085336
0.039156113 0.1589621 -0.030526418 -0.08650434 -0.16243242 -0.0056059505 0.022499714 -0.01763653
00000000: bf4f 0a3d b8a7 babd 1722 a2bd bd87 f73c
00000010: c080 aa3d fbdf fd3b 1a73 77bd 1949 283d
00000020: 2962 203d f6c6 223e 8a12 fabc 3029 b1bd
00000030: af54 26be 1fb2 b7bb 5251 b83c 7c7a 90bc

bn.running_mean f4 [16]
-0.0035227751 -0.0014938544 0.0017140965 -0.0025571696 0.003411191 0.0013116957 0.0048866626 -0.0016665644
-0.00083357934 -0.0019578543 0.0005351705 -0.0041580983 -0.0037597716 0.0005690531 -0.00046149342 0.0021607094
00000000: 5cde 66bb 70cd c3ba 89ab e03a 3096 27bb
00000010: 4a8e 5f3b 34ed ab3a 4c20 a03b 9f70 daba
00000020: 9084 5aba 584f 00bb af4a 0c3a a840 88bb
00000030: 8066 76bb 822c 153a 99f4 f1b9 b09a 0d3b

bn.running_var f4 [16]
6.4912963 6.477581 6.502863 6.520015 6.4989786 6.518537 6.516773 6.5100727
6.4855294 6.493405 6.5098324 6.5008254 6.501143 6.5022945 6.4905844 6.5062404
00000000: b3b8 cf40 5848 cf40 7417 d040 f6a3 d040
00000010: a2f7 cf40 db97 d040 6889 d040 8452 d040
00000020: 7589 cf40 f9c9 cf40 8c50 d040 c306 d040
00000030: 5d09 d040 cc12 d040 deb2 cf40 1f33 d040

rnn.weight_ih_l0 f4 [48, 16]
0.1860643 -0.24317338 -0.2268641 -0.2619179 0.53963 -0.20053071 0.75045425 0.1625074
0.87325585 0.11877499 -0.83574617 -0.5772054 0.16398194 -0.36801308 -0.06810584 0.6413008
-0.91324407 0.6710395 0.17323828 -0.54021275 0.44569013 -0.4752722 1.5430498 1.0789965
0.18508965 -1.5208306 0.29122102 -0.057736617 -0.2153566 0.49211487 -0.58002466 0.9201405
-0.7881432 0.09669191 0.2259928 0.5952896 -0.33082044 -0.65847945 -0.36988598 -0.08813204
0.18201643 -0.30980298 -0.33621606 -0.3305079 0.46710628 -0.6645547 0.2561534 -0.27042297
0.26344514 -0.8750473 0.8184741 -0.6029252 -0.751148 0.16034035 -0.101585016 0.09871628
1.1215948 -0.7203423 -0.23265146 1.4310949 -0.58927876 -1.5057433 0.74987197 -0.80753934
0.41977543 -0.031707287 -0.33563873 -0.51761943 0.09869984 0.5420415 0.39054266 0.3156773
0.4511179 0.02016107 0.35185045 0.9425736 0.3005794 0.43508136 0.64047843 -0.5858019
-0.7461718 0.42813578 0.90320665 -0.46298617 1.0279603 0.7639987 1.2086892 0.521714
-0.5089721 0.03181757 -0.28661782 0.5132832 0.36349323 0.42447576 0.13792782 -0.9162805
0.07952776 0.0063627325 0.1186269 0.33099657 0.14251947 0.23547731 -0.13665229 -0.58270156
0.47633097 0.42896858 0.23031312 0.6129417 0.2047947 0.68256027 0.5133417 0.65440375
-0.3236765 0.54419523 0.35487768 -0.7855015 -0.63873523 0.2120778 -0.35882282 -0.17701782
-0.34615678 0.65824753 -0.22782952 -0.810289 -0.03248592 0.59141934 -0.43125647 0.25134957
-0.15708394 -0.7383257 0.7136014 -0.63735735 -0.2229913 0.6487124 -0.16173804 0.47610307
0.32278156 -0.50721455 0.38355204 0.6220423 -1.3445102 0.29817298 -0.012009771 0.35561126
0.07246658 -0.5686648 0.41567668 0.5100368 -0.7830287 -0.36645657 0.69337064 -0.660593
0.8601025 -0.29080236 -0.6514272 0.76194096 0.4782216 -0.2891078 0.3400008 0.49953824
-0.968092 0.8467868 -0.47234473 0.55456865 -0.11455851 0.60265636 -0.31925675 0.9260904
0.25796753 -1.5369328 0.47617903 -0.46069044 -0.004814028 0.55846256 -0.75318635 0.6904651
-1.20009 0.27367118 0.6655501 0.092364185 0.18906622 0.03279922 -0.15621586 0.5509112
0.10604619 -0.12777002 -0.117831156 0.036816347 -0.13657784 -0.14214778 -0.3141438 -0.953469
-0.5762026 0.39745498 -0.3824523 1.0140071 0.50105906 -0.43710262 -1.4268337 0.7389917
0.05333882 -0.7319558 -0.39088976 0.59398365 0.4271015 -0.26064625 -0.037817508 0.13930863
-0.30558562 -0.49806294 0.0055147335 0.5053035 0.43434638 -0.4651345 1.290125 -1.2011492
-1.6329637 0.9331727 -0.7593011 0.5169986 0.2952668 0.36513886 -0.24924298 0.871996
-0.30137873 -0.5506256 0.07775385 -0.11356146 -0.37520435 -1.1834067 -0.12522374 0.054649316
-0.2337676 -0.10741793 -0.6809926 0.19320689 1.5144843 -1.0269545 -0.28898275 -0.17402086
0.35805482 -0.19190988 -0.06418416 0.53191847 0.26720026 -0.31031778 0.18781573 0.36825255
-0.8202321 -0.080062546 -0.28168663 -1.6703728 -0.46839535 0.19237888 -0.9264039 -0.2825148
00000000: a487 3e3e 7102 79be 104f 68be 1a1a 86be
00000010: 3125 0a3f ec57 4dbe c51d 403f 5768 263e
00000020: b28d 5f3f 4d40 f33d 76f3 55bf bcc3 13bf
00000030: e2ea 273e 366c bcbe 137b 8bbd 4a2c 243f
00000040: 5dca 69bf 3fc9 2b3f 6065 313e 624b 0abf
00000050: 7f31 e43e e156 f3be a882 c53f 8f1c 8a3f
00000060: 2488 3d3e 94aa c2bf ec1a 953e 3b7d 6cbd
00000070: 7186 5cbe 7bf6 fb3e 7f7c 14bf 548e 6b3f
00000080: c1c3 49bf 6806 c63d a86a 673e e664 183f
00000090: 4c61 a9be 1c92 28bf b261 bdbe 927e b4bd
000000a0: 8462 3a3e 7f9e 9ebe 8324 acbe 5538 a9be
000000b0: 8e28 ef3e 4220 2abf 8a26 833e e174 8abe
000000c0: 48e2 863e 1a03 60bf 8587 513f 4e59 1abf
000000d0: 3c4b 40bf 4330 243e ce0b d0bd c32b ca3d
000000e0: 6b90 8f3f 5a68 38bf 2f3c 6ebe 1e2e b73f
000000f0: f9da 16bf 32bc c0bf 9cf7 3f3f e6ba 4ebf
00000100: ceec d63e 80df 01bd d7d8 abbe b582 04bf
00000110: 2423 ca3d 3bc3 0a3f 35f5 c73e 74a0 a13e
00000120: edf8 e63e d428 a53c be25 b43e 814c 713f
00000130: 8be5 993e fcc2 de3e 65f6 233f 1df7 15bf
00000140: 1d05 3fbf 9d34 db3e 8d38 673f 860c edbe
00000150: 3494 833f 6b95 433f 54b6 9a3f 0c8f 053f
00000160: ff4b 02bf 2453 023d 92bf 92be 8766 033f
00000170: c91b ba3e e354 d93e f33c 0d3e 5c91 6abf
00000180: 73df a23d 787e d03b a9f2 f23d 6278 a93e
00000190: a0f0 113e f720 713e 94ee 0bbe ee2b 15bf
000001a0: a7e1 f33e c5a1 db3e 34d7 6b3e bfe9 1c3f
000001b0: b4b5 513e 45bc 2e3f 5d6a 033f 0187 273f
000001c0: edb8 a5be 6150 0b3f 87b2 b53e a016 49bf
000001d0: 2784 23bf ec2a 593e a0b7 b7be 2944 35be
000001e0: 763b b1be e982 283f 244c 69be 1a6f 4fbf
000001f0: f50f 05bd 4267 173f a6cd dcbe e4b0 803e
00000200: 9dda 20be ea02 3dbf 95ae 363f da29 23bf
00000210: d557 64be 0412 263f a89e 25be c8c3 f33e
00000220: a043 a53e d0d8 01bf ef60 c43e 2a3e 1f3f
00000230: e918 acbf 21aa 983e a1c4 44bc ae12 b63e
00000240: 5c69 943d 0494 11bf 93d3 d43e c691 023f
00000250: 9274 48bf 32a0 bbbe bd80 313f 9f1c 29bf
00000260: ad2f 5c3f 0ce4 94be efc3 26bf 900e 433f
00000270: 76d9 f43e f005 94be 9614 ae3e 7ac3 ff3e
00000280: e1d4 77bf 05c7 583f 2bd7 f1be 36f8 0d3f
00000290: a79d eabd b047 1a3f 9f75 a3be 4314 6d3f
000002a0: 5214 843e 37ba c4bf bdcd f33e 9edf ebbe
000002b0: febe 9dbb 67f7 0e3f d2d0 40bf 52c2 303f
000002c0: 8d9c 99bf a11e 8c3e 7e61 2a3f 6f29 bd3d
000002d0: 939a 413e 7a58 063d 0df7 1fbe 8408 0d3f
000002e0: bf2e d93d 25d6 02be 7651 f1bd bdcc 163d
000002f0: 10db 0bbe 308f 11be 75d7 a0be 8b16 74bf
00000300: 0382 13bf 387f cb3e cad0 c3be fcca 813f
00000310: 6845 003f eacb dfbe 7da2 b6bf 8f2e 3d3f
00000320: ce79 5a3d 7561 3bbf b422 c8be 500f 183f
00000330: 0cad da3e 6d73 85be 88e6 1abd eca6 0e3e
00000340: b875 9cbe 1b02 ffbe f0b4 b43b 925b 013f
00000350: a662 de3e 1c26 eebe d122 a53f 42bf 99bf
00000360: f404 d1bf 68e4 6e3f 8f61 42bf 055a 043f
00000370: 362d 973e 7bf3 ba3e 8d39 7fbe 213b 5f3f
00000380: 504e 9abe cdf5 0cbf 693d 9f3d e992 e8bd
00000390: c91a c0be df79 97bf a73a 00be f6d7 5f3d
000003a0: c660 6fbe effd dbbd 8855 2ebf 07d8 453e
000003b0: 9fda c13f 3f73 83bf 8cf5 93be 8632 32be
000003c0: f652 b73e 0684 44be fc72 83bd cf2b 083f
000003d0: 79ce 883e f9e1 9ebe c452 403e 998b bc3e
000003e0: bbfa 51bf d5f7 a3bd 3b39 90be c7ce d5bf
000003f0: 84d1 efbe f8fe 443e ce28 6dbf c8a5 90be

rnn.weight_hh_l0 f4 [48, 16]
1.5289445 -0.294838 0.4402001 -0.27667844 -0.38172767 0.3191405 0.14198436 0.83675504
-0.32208112 0.14743775 -0.41002387 -0.17355508 0.8222634 -0.10018341 0.5291825 0.0074600233
0.43432423 -0.435528 -0.77078205 -0.03986042 0.9079477 -1.1587485 -0.16897789 0.93044126
-0.74094176 -0.04807556 -0.60609806 0.6298743 -0.5064587 0.61031795 -0.111983165 -0.04963631
-0.4526944 0.09279465 0.04545246 -0.13113078 -0.24291562 0.113360174 0.78111804 -0.37497318
-0.15924892 0.2022016 -0.5843567 0.3893814 0.16719143 0.360264 0.39906234 0.6071993
-0.24693647 0.33922848 0.93621635 -0.15050064 -0.60574204 -0.56706285 -1.754118 0.39433306
1.0754544 0.1368853 0.70017123 0.7102691 -0.360213 -0.41094926 -0.2014467 0.31518543
-0.47245923 1.1154505 0.7361511 -0.052503135 -1.4544036 0.38471243 -0.087728806 -1.7065058
0.7609966 0.3325986 0.45772797 -0.35757244 0.31691533 -1.2828461 0.39304537 0.15269518
-0.81817544 -0.068927705 0.22771299 0.5335245 -0.29390466 -0.11193879 0.55328834 -0.40590233
0.16981083 0.117183276 0.36753315 0.03456259 0.31639543 -0.5756168 0.32829288 1.1595403
-0.2683353 -0.3330614 0.62287617 -0.73991 -0.353613 0.93540406 0.8458004 0.34588012
0.022282045 0.38755947 0.28086665 0.19861484 0.007979985 -0.18313825 0.6310713 0.994647
-0.37416363 0.23471257 -1.2272193 -0.44814637 -0.27775043 -0.43331832 -1.00113 -0.58822143
0.21460307 -0.28629825 -0.31722423 0.40370005 -0.29814705 -0.15322483 -0.5244453 0.00821968
0.65420616 -0.75304294 -0.5738382 0.38742098 0.76261526 -0.8960497 0.1390476 1.2043122
-0.7102876 0.28594124 -0.120013446 0.18012333 -0.25325653 0.29990143 -1.0648137 -0.4188018
0.19435947 -0.5982686 0.24905735 0.33059973 -0.06799052 0.15200372 0.84976727 -0.5352435
-0.529013 0.5159607 0.22470202 -0.085196234 0.31388894 -0.52861625 -0.13792951 -0.1131479
-0.95726764 0.18500905 -1.0739254 -0.59692454 0.044219133 -0.26947236 -0.40632257 -0.7574415
0.3672205 -0.085911945 -0.7491589 -0.16706446 0.38135707 0.65162545 -0.32491657 -0.060386296
0.16978645 -0.1375553 0.036766976 -0.18798982 0.37695643 -0.17822252 0.68117344 -0.19141692
-0.93446374 0.3937233 -0.31357765 -0.5508343 0.4979657 -0.49365586 0.10250586 -0.16598405
-0.5389673 0.7350876 -0.19549021 0.23847918 -1.025748 0.104971394 -0.65939337 -0.415836
0.31776327 -0.6075221 0.8349936 0.473942 0.12371042 -0.8359064 -0.16881058 -0.56348485
-0.31754583 0.2966066 -1.0972261 -0.73490626 0.43110472 -0.37908563 -0.30760628 -0.757074
0.4737864 -0.05717422 -0.49578094 0.05134546 -0.044557843 -0.04149878 -0.2367022 0.14881139
-0.008301237 0.6595061 -1.10039 -0.50855553 0.4658311 -0.8013067 -0.96424544 -0.4177628
0.36739585 -0.4065982 -0.2281129 0.8162353 -0.10563733 -0.19112962 -0.55166453 -0.10790141
0.8664709 0.3848828 -0.02470453 -0.38160956 0.6826407 -0.5025651 -1.0782292 -0.47705495
-0.057620555 -0.32381397 -0.2378316 0.37415582 0.49922475 0.18022843 -0.59129393 -0.61506236
00000000: 74b4 c33f 02f5 96be e861 e13e cca8 8dbe
00000010: cf71 c3be 6266 a33e 5964 113e 9435 563f
00000020: d1e7 a4be ecf9 163e a6ee d1be 6cb8 31be
00000030: db7f 523f f62c cdbd 8178 073f 3673 f43b
00000040: bf5f de3e 87fd debe f951 45bf ae44 23bd
00000050: 436f 683f df51 94bf 8a08 2dbe 6631 6e3f
00000060: 5cae 3dbf e1ea 44bd 3e29 1bbf 713f 213f
00000070: 47a7 01bf cc3d 1c3f 6e57 e5bd 724f 4bbd
00000080: 8fc7 e7be 1f0b be3d 5c2c 3a3d 2647 06be
00000090: dfbe 78be 6129 e83d 5af7 473f 7cfc bfbe
000000a0: 2612 23be f00d 4f3e 6798 15bf 005d c73e
000000b0: 3b34 2b3e 8674 b83e e651 cc3e 6a71 1b3f
000000c0: eadc 7cbe 5baf ad3e e0ab 6f3f d71c 1abe
000000d0: e911 1bbf 082b 11bf f086 e0bf 06e6 c93e
000000e0: 7da8 893f a92b 0c3e 6c3e 333f 32d4 353f
000000f0: d76d b8be f167 d2be 0b48 4ebe fc5f a13e
00000100: 2de6 f1be 15c7 8e3f 6674 3c3f 870d 57bd
00000110: e629 babf 07f9 c43e 29ab b3bd c86e dabf
00000120: acd0 423f 5d4a aa3e 525b ea3e bc13 b7be
00000130: ba42 a23e 4d34 a4bf 3e3d c93e 205c 1c3e
00000140: f273 51bf f829 8dbd 982d 693e 1095 083f
00000150: ac7a 96be 2a40 e5bd 4ea4 0d3f 6ed2 cfbe
00000160: e4e2 2d3e c9fd ef3d 4e2d bc3e 8191 0d3d
00000170: 95fe a13e 9f5b 13bf 0116 a83e d16b 943f
00000180: 3f63 89be 0687 aabe d074 1f3f be6a 3dbf
00000190: c30c b5be a476 6f3f 6086 583f 3317 b13e
000001a0: d688 b63c 326e c63e c1cd 8f3e b061 4b3e
000001b0: 7cbe 023c 9888 3bbe e48d 213f 30a1 7e3f
000001c0: 6092 bfbe 7e58 703e 8615 9dbf 7173 e5be
000001d0: 4e35 8ebe e6db ddbe 0725 80bf ae95 16bf
000001e0: e8c0 5b3e af95 92be 376b a2be c6b1 ce3e
000001f0: bba6 98be f8e6 1cbe 0c42 06bf d6ab 063c
00000200: 0e7a 273f 6cc7 40bf 0fe7 12bf 0b5c c63e
00000210: c13a 433f 8363 65bf 7e62 0e3e e726 9a3f
00000220: 68d5 35bf e466 923e 9cc9 f5bd 4072 383e
00000230: d7aa 81be ae8c 993e d14b 88bf 316d d6be
00000240: 2b06 473e 2228 19bf e408 7f3e 5e44 a93e
00000250: 9d3e 8bbd dda6 1b3e 598a 593f b805 09bf
00000260: 656d 07bf 0016 043f 4918 663e 5d7b aebd
00000270: 0db6 a03e 6553 07bf 653d 0dbe 16ba e7bd
00000280: 7e0f 75bf 0373 3d3e 6376 89bf 0cd0 18bf
00000290: 1f1f 353d 48f8 89be 8309 d0be b0e7 41bf
000002a0: 5304 bc3e 9af2 afbd e1c8 3fbf f212 2bbe
000002b0: 3c41 c33e edd0 263f 775b a6be 9f57 77bd
000002c0: 80dc 2d3e 4cdb 0cbe f898 163d 6780 40be
000002d0: 6f00 c13e f77f 36be 6261 2e3f cc02 44be
000002e0: 0439 6fbf 1a96 c93e 408d a0be 7a03 0dbf
000002f0: 5cf5 fe3e 76c0 fcbe 98ee d13d b9f7 29be
00000300: c3f9 09bf b32e 3c3f 962e 48be e333 743e
00000310: b64b 83bf 3efb d63d 01ce 28bf 75e8 d4be
00000320: deb1 a23e 9186 1bbf 24c2 553f 87a8 f23e
00000330: e45b fd3d f6fd 55bf aedc 2cbe 8b40 10bf
00000340: 5e95 a2be d2dc 973e e871 8cbf d122 3cbf
00000350: c2b9 dc3e 8317 c2be 927e 9dbe 9acf 41bf
00000360: 2294 f23e 842f 6abd 00d7 fdbe 9e4f 523d
00000370: 4982 36bd a0fa 29bd 1062 72be 0362 183e
00000380: e901 08bc 64d5 283f 94d9 8cbf b230 02bf
00000390: 6a81 ee3e 7022 4dbf cad8 76bf 01e5 d5be
000003a0: 4f1b bc3e a42d d0be 6e96 69be ccf4 503f
000003b0: 6258 d8bd 7cb7 43be e339 0dbf 6afb dcbd
000003c0: 09d1 5d3f 5c0f c53e 2861 cabc 5462 c3be
000003d0: 8ac1 2e3f 1ba8 00bf 6a03 8abf 8c40 f4be
000003e0: 8803 6cbd f2ca a5be 208a 73be 5a91 bf3e
000003f0: 639a ff3e cd8d 383e 0a5f 17bf ba74 1dbf

rnn.bias_ih_l0 f4 [48]
0.13111788 0.010998112 -0.4029717 -0.4567486 -0.08827855 -0.08331391 0.15588163 -0.47852
0.08713739 0.2600672 0.14577733 1.1306919 -0.109984264 0.0900822 -0.564859 -0.4674005
1.5610734 1.545935 1.0773867 1.2565773 1.3667794 1.4230787 1.194344 1.6092901
1.6185704 1.2557935 1.2568657 -1.6225619 1.5251688 1.2571979 1.0893294 1.5156305
0.12971815 -0.25938737 -0.33164576 0.10120994 0.023680197 -0.0061470917 -0.053373463 0.24942368
-0.18962987 0.4809008 -0.3012456 -1.1649442 0.28595084 0.30823734 -0.06903298 -0.19987716
00000000: c443 063e 6d31 343c 4f52 cebe f4da e9be
00000010: 62cb b4bd 7ca0 aabd 6f9f 1f3e 9300 f5be
00000020: 1775 b23d 8727 853e a746 153e 83ba 903f
00000030: 6e3f e1bd 047d b83d 999a 10bf 1e4f efbe
00000040: 41d1 c73f 33e1 c53f cfe7 893f 86d7 a03f
00000050: a1f2 ae3f 7127 b63f 44e0 983f 38fd cd3f
00000060: 512d cf3f d7bd a03f fae0 a03f 1cb0 cfbf
00000070: bb38 c33f dceb a03f 256f 8b3f 2e00 c23f
00000080: d6d4 043e 6cce 84be 79cd a9be 2847 cf3d
00000090: f9fc c13c 8b6d c9bb 229e 5abd ec68 7f3e
000000a0: 552e 42be a138 f63e dd3c 9abe e41c 95bf
000000b0: 2668 923e 49d1 9d3e 2a61 8dbd 99ac 4cbe

rnn.bias_hh_l0 f4 [48]
0.31260952 -0.10940392 -0.36285907 -0.5932495 0.117614865 -0.099866316 0.0420183 -0.40391916
-0.21795696 0.0729581 0.010001235 0.9612138 -0.49451348 -0.037284672 -0.5440458 -0.29462576
1.4254526 1.1715667 1.4179486 1.3677001 1.3491015 1.5364321 1.4099743 1.3927828
1.5251086 1.1598053 1.3466983 -1.5482923 1.2240554 1.1314234 1.4130026 1.5807511
-0.04672611 -0.38476986 0.056254935 0.017472697 -0.08307212 -0.18889236 0.1148148 0.30838495
-0.33159623 0.46126568 -0.3363603 -1.4718549 0.050830435 0.22302094 -0.3031257 -0.3050021
00000000: 5b0e a03e 2a0f e0bd aac8 b9be 33df 17bf
00000010: 10e0 f03d b686 ccbd 621b 2c3d 7ece cebe
00000020: 1c30 5fbe 0e6b 953d 38dc 233c 1c12 763f
00000030: df30 fdbe d0b7 18bd 9646 0bbf 30d9 96be
00000040: 3b75 b63f e6f5 953f 577f b53f cc10 af3f
00000050: 5caf ac3f cfa9 c43f 0a7a b43f b546 b23f
00000060: c236 c33f 8074 943f 9c60 ac3f 712e c6bf
00000070: d9ad 9c3f 7bd2 903f 45dd b43f 0d56 ca3f
00000080: e163 3fbd 8e00 c5be 936b 663d e722 8f3c
00000090: b721 aabd 006d 41be 0624 eb3d a2e4 9d3e
000000a0: fbc6 a9be 042b ec3e 6b37 acbe be65 bcbf
000000b0: 9333 503d 9a5f 643e 4b33 9bbe 3c29 9cbe

fc.weight f4 [128, 16]
0.079825655 -0.3280908 0.103092425 0.41124663 -0.06667408 -0.41147774 -0.3554568 0.016324671
-0.6201837 0.1910059 0.14342257 -0.6087485 0.38670453 -0.25804564 -0.7666135 -0.80553657
0.5739044 -0.6259462 0.0834544 -0.4092058 0.09941027 -0.33051068 0.0014758046 0.6209648
-0.33584815 -0.07771633 -0.5586032 -0.037691526 0.029736409 0.5585076 -0.18095528 0.51742595
0.6548543 0.3674624 -0.0075809914 -0.25727698 0.5525984 0.12271199 0.023031877 -0.14369701
0.11374468 -0.25989386 -0.5241221 0.28638545 -0.26875192 0.44689018 0.20670293 0.4507204
0.20848888 -1.0645276 -0.42875576 0.37791136 0.6880278 -0.8123894 0.5551552 -0.13708039
-1.414065 0.66368616 -0.8273018 -0.14362268 0.1212221 0.62766623 -0.43171257 -0.30880344
0.1307084 0.11561539 -0.047543593 -0.24289286 -0.040687386 0.50247973 0.37954572 0.12448936
0.4646177 0.079171285 -0.18729073 0.21342254 -0.28134352 0.41162157 0.76410294 0.6879773
0.10560656 -0.6080027 -0.6924488 0.007908935 0.48611552 -0.8071076 0.37760305 0.9129988
-0.23005444 -0.09195745 -0.8508906 0.41739798 -1.512803 0.45638323 0.2830137 1.3791928
-0.059579536 -0.16812584 0.12604861 -0.42597428 0.069947086 0.35437554 -0.5009894 0.2771796
0.25862363 0.12936275 -0.033086896 -0.1736836 -0.15491466 0.03200882 -0.46987864 -0.45473218
-0.26770476 0.47442678 -0.1457339 -0.5001252 -0.33987087 0.22904304 -0.7324157 -0.5212823
0.29586583 -0.18496937 -0.2570215 0.34826738 0.63789684 0.05537856 -0.33896378 -0.52047664
0.9504068 0.010427808 -1.1746796 -0.29876253 1.2267011 -1.109609 -0.3123357 0.41195014
-0.97125286 -0.3209164 -1.3109022 0.8885997 -0.13882516 1.0399152 -0.54511863 0.1507589
0.48263764 -0.018337833 -0.12265853 -0.38634026 0.6419178 0.029855382 -0.22435696 0.37159047
0.03920118 -0.46545383 -0.3224566 0.3309099 -0.43989298 0.5248326 0.31101507 0.49473983
-0.8242189 -0.13703117 -0.44453737 0.14208443 0.2068815 -0.2850018 -0.0471313 -0.19776544
-0.42042628 0.33629018 0.18143514 0.111488976 0.27633965 0.024678268 -0.27991334 -0.15806086
-0.116672896 -0.212833 -0.4168366 0.25448272 0.21505478 -0.18249871 0.40858173 0.29556894
-0.23603939 -0.009098834 -0.15542851 0.50396967 -0.8605931 -0.16631691 0.119693235 0.6902482
-0.3843213 0.28438553 -0.2290239 -0.4182139 -0.018021734 0.12084849 -0.19371372 -0.29206523
0.3354207 -0.2540435 0.071082965 0.5947064 -0.44391134 -0.015555788 0.15647353 0.43411678
-2.009127 0.2135402 -0.85206395 -0.76017237 0.6593462 -0.8323956 -1.1015182 -0.7830915
0.16954108 -0.38369772 -0.030212272 -0.30944812 0.21053247 0.35376137 -1.2558892 -0.85543317
0.82298607 0.058710393 -0.15619966 0.16787302 0.50728995 -0.847566 -0.7195456 -0.0027411003
0.18288168 -0.58672184 -1.0767895 0.7523351 -0.62171674 0.5991293 -0.687435 -0.42080194
0.14474036 -0.029656576 -0.15043502 -0.4917189 0.25796232 -0.3384715 -0.37858543 0.14795224
-0.41522214 0.34818685 -0.13877107 0.094764516 0.0092613455 0.17638381 -0.47501394 0.14381842
00000000: a27b a33d 84fb a7be 1f22 d33d eb8e d23e
00000010: 6c8c 88bd 36ad d2be 6ffe b5be 51bb 853c
00000020: 5cc4 1ebf 0d97 433e 5edd 123e f1d6 1bbf
00000030: 23fe c53e 8f1e 84be c840 44bf a537 4ebf
00000040: 66eb 123f 033e 20bf 24ea aa3d 6c83 d1be
00000050: 9d97 cb3d b238 a9be c96f c13a 8df7 1e3f
00000060: 4af4 abbe bd29 9fbd 9f00 0fbf 6e62 1abd
00000070: c599 f33c 5bfa 0e3f 574c 39be 0776 043f
00000080: 88a4 273f 0824 bc3e f769 f8bb cfb9 83be
00000090: 1777 0d3f 6c50 fb3d 59ad bc3c 4f25 13be
000000a0: f9f2 e83d cf10 85be de2c 06bf 1da1 923e
000000b0: da99 89be cace e43e efa9 533e d3c4 e63e
000000c0: 1c7e 553e 7142 88bf e085 dbbe 997d c13e
000000d0: 9722 303f c0f8 4fbf a71e 0e3f cd5e 0cbe
000000e0: 1500 b5bf 56e7 293f 0dca 53bf d311 13be
000000f0: 4b43 f83d bcae 203f 6e09 ddbe 7c1b 9ebe
00000100: 6cd8 053e c3c7 ec3d 12bd 42bd e8b8 78be
00000110: d1a7 26bd 83a2 003f d153 c23e 47f4 fe3d
00000120: 5fe2 ed3e 8e24 a23d 24c9 3fbe 708b 5a3e
00000130: 420c 90be 10c0 d23e 409c 433f 481f 303f
00000140: 4148 d83d 11a6 1bbf 5344 31bf 7a94 013c
00000150: 22e4 f83e 9b9e 4ebf 3055 c13e 4aba 693f
00000160: 6493 6bbe 3054 bcbd f7d3 59bf 30b5 d53e
00000170: 87a3 c1bf 10ab e93e 2ce7 903e 6489 b03f
00000180: ac09 74bd 2e29 2cbe e312 013e 4d19 dabe
00000190: 6b40 8f3d b670 b53e d740 00bf 7cea 8d3e
000001a0: 516a 843e ab77 043e 2086 07bd 1dda 31be
000001b0: f3a1 1ebe ae1b 033d ef93 f0be a8d2 e8be
000001c0: 9910 89be 11e8 f23e 443b 15be 3508 00bf
000001d0: 8e03 aebe 428a 6a3e 987f 3bbf c272 05bf
000001e0: ba7b 973e 9c68 3dbe 5298 83be 1a50 b23e
000001f0: 354d 233f a1d4 623d a98c adbe f53d 05bf
00000200: dc4d 733f 66d9 2a3c e75b 96bf 67f7 98be
00000210: 8b04 9d3f ab07 8ebf 77ea 9fbe 21eb d23e
00000220: 07a4 78bf 284f a4be a5cb a7bf 457b 633f
00000230: 2f28 0ebe f11b 853f e58c 0bbf 8b60 1a3e
00000240: 481c f73e 3939 96bc 6534 fbbd 64ce c5be
00000250: ba54 243f 4693 f43c d5bd 65be 1b41 be3e
00000260: 6b91 203d f74f eebe 0819 a5be 066d a93e
00000270: a739 e1be 6e5b 063f 5e3d 9f3e 8a4e fd3e
00000280: 0300 53bf e651 0cbe 679a e3be 957e 113e
00000290: bed8 533e c2eb 91be c00c 41bd 0683 4abe
000002a0: 1d42 d7be 3a2e ac3e 22ca 393e 5554 e43d
000002b0: 647c 8d3e 142a ca3c cd50 8fbe b5da 21be
000002c0: 33f2 eebd e5f0 59be 9b6b d5be 8f4b 823e
000002d0: 5237 5c3e f1e0 3abe a031 d13e d054 973e
000002e0: 4fb4 71be 4713 15bc a728 1fbe 2804 013f
000002f0: d44f 5cbf fb4e 2abe ba21 f53d 1bb4 303f
00000300: c3c5 c4be fb9a 913e 3e85 6abe 2220 d6be
00000310: 51a2 93bc 6a7f f73d e45c 46be 9389 95be
00000320: 43bc ab3e fd11 82be f293 913d ae3e 183f
00000330: 5948 e3be b4dd 7ebc 993a 203e 8e44 de3e
00000340: 8995 00c0 48aa 5a3e dd20 5abf a89a 42bf
00000350: eaca 283f e117 55bf 8cfe 8cbf af78 48bf
00000360: 2d9c 2d3e 0774 c4be ba7f f7bc fc6f 9ebe
00000370: d395 573e 3620 b53e fac0 a0bf abfd 5abf
00000380: 37af 523f 4f7a 703d cef2 1fbe e8e6 2b3e
00000390: c1dd 013f 16fa 58bf 2434 38bf 08a4 33bb
000003a0: 5645 3b3e 6733 16bf 3dd4 89bf 0899 403f
000003b0: d428 1fbf 8a60 193f bdfb 2fbf 5a73 d7be
000003c0: d136 143e 59f2 f2bc a30b 1abe 94c2 fbbe
000003d0: a313 843e 234c adbe f3d5 c1be cb80 173e
000003e0: ff97 d4be 8c45 b23e 011a 0ebe e613 c23d
000003f0: e6bc 173c f59d 343e 0735 f3be 2345 133e

fc.bias f4 [128]
0.32587588 -0.2779645 -0.38067845 0.24704605 -0.19663827 -0.4168422 0.11511763 -0.19556187
-0.5452632 -0.49749637 0.27072185 -0.352008 -0.25055355 0.33439907 -0.716403 -0.0032493793
0.0057875197 0.29983634 -0.19431429 -0.1793167 -0.5709929 0.26597777 -0.11937643 0.38475844
0.22161624 0.5324141 0.11320914 0.14942814 -0.2469413 -0.004818108 -0.55363727 0.08341457
-0.08896978 0.11022894 0.16134787 0.20936942 -0.27593002 0.39047003 0.19238605 -0.18471786
-0.28219905 0.047200557 -0.24236634 -0.33570457 -0.40915155 0.50684994 0.12998906 -0.52420217
0.11671756 -0.08756881 0.089643106 -0.1663265 0.0016573598 -0.6302486 0.2884806 -0.211456
-0.2317159 -0.41493437 0.6096611 0.32711202 -0.62072587 0.5986009 0.454265 0.087077014
0.46934372 -0.46253496 -0.459446 -0.33938292 0.09344846 -0.63374615 0.16052872 -0.13234372
-0.032746427 -0.39792332 0.17436028 0.3989226 -0.527752 0.51618046 0.15364856 -0.46315432
0.0061447676 0.23594414 0.027355395 -0.66817325 0.03304305 0.6610857 -0.25843543 0.16270131
0.5095637 -0.51513326 0.49488506 0.027597377 -0.09004758 -0.15155128 0.31155664 0.08054536
0.023612158 -0.14416526 -0.15181358 0.16916047 0.06988239 -0.0057233553 0.5897843 0.45635137
0.83073634 -0.06911647 0.14832374 0.4717068 -0.3723524 0.39666408 -0.2708608 -0.06573143
0.0883504 0.22189786 0.53076327 0.33476582 -0.15724124 -0.090855904 0.07408515 0.20238577
-0.33811456 0.09966785 -0.109651096 -0.21830931 -0.7423325 -0.3015385 -0.14431563 -0.5160848
00000000: 34d9 a63e 5d51 8ebe 49e8 c2be a4f9 7c3e
00000010: 8b5b 49be 576c d5be cbc2 eb3d 5f41 48be
00000020: 5e96 0bbf d8b7 febe 0e9c 8a3e 643a b4be
00000030: 8e48 80be 5b36 ab3e 3066 37bf 8af3 54bb
00000040: 3ca5 bd3b 2684 993e 53fa 46be cc9e 37be
00000050: 972c 12bf 3d2e 883e a17b f4bd 0fff c43e
00000060: 5eef 623e 4a4c 083f 32da e73d b103 193e
00000070: 2ede 7cbe 38e1 9dbb 2cbb 0dbf 42d5 aa3d
00000080: ca35 b6bd b6bf e13d 6038 253e f064 563e
00000090: b346 8dbe b0eb c73e d900 453e ae26 3dbe
000000a0: 657c 90be 5f55 413d e22e 78be 78e1 abbe
000000b0: 507c d1be ebc0 013f da1b 053e 1d32 06bf
000000c0: 9e09 ef3d 4757 b3bd ce96 b73d 7e51 2abe
000000d0: c43b d93a f957 21bf bbb3 933e ec87 58be
000000e0: ef46 6dbe 4772 d4be c012 1c3f 3a7b a73e
000000f0: e4e7 1ebf e93d 193f 6c95 e83e 6f55 b23d
00000100: d24d f03e 62d1 ecbe 823c ebbe 99c3 adbe
00000110: e861 bf3d 303d 22bf a461 243e 1d85 07be
00000120: 1e21 06bd 9bbc cbbe 808b 323e 953f cc3e
00000130: c11a 07bf 6724 043f 0c56 1d3e 9022 edbe
00000140: 0c5a c93b 579b 713e 6c18 e03c 670d 2bbf
00000150: 2658 073d ea3c 293f a651 84be 2c9b 263e
00000160: c472 023f c6df 03bf 9361 fd3e e513 e23c
00000170: de6a b8bd 4230 1bbe 5a84 9f3e f7f4 a43d
00000180: 496e c13c 0fa0 13be 0575 1bbe 6738 2d3e
00000190: 801e 8f3d fc8a bbbb 1bfc 163f e3a6 e93e
000001a0: 23ab 543f f08c 8dbd 2ee2 173e 8e83 f13e
000001b0: f9a4 bebe 8e17 cb3e 44ae 8abe 339e 86bd
000001c0: 0ef1 b43d 3139 633e 1ae0 073f 6d66 ab3e
000001d0: d903 21be a912 babd f5b9 973d 373e 4f3e
000001e0: 5a1d adbe a81e cc3d c190 e0bd 7a8c 5fbe
000001f0: 8109 3ebf 4163 9abe 7ac7 13be 221e 04bf

mlp.0.weight f4 [16, 360]
-0.038566414 -0.040597707 -0.08585745 -0.076898746 -0.009137703 -0.03404884 -0.081841424 -0.06045081
-0.045176297 -0.07204728 -0.072927095 -0.016166251 -0.04830772 -0.040837083 -0.041736238 -0.085592344
-0.06819898 -0.07258931 -0.084103264 -0.02962826 -0.055133495 -0.07401873 -0.039747793 -0.042734545
-0.0359953 -0.099471346 -0.05072506 -0.023535054 -0.102409534 -0.086938925 -0.008649438 -0.02316212
-0.031408653 -0.013251359 -0.02670671 -0.08474084 -0.010455469 -0.01055728 -0.040281475 -0.11066415
-0.06471617 -0.023696864 -0.08622125 -0.076398194 -0.0461576 -0.03789888 -0.02219983 -0.03151245
-0.10155796 -0.038815368 -0.10636976 -0.040985156 -0.01192812 -0.11122028 -0.09106948 -0.101348095
-0.0077740513 -0.088720374 -0.11079352 -0.06999699 -0.03131419 -0.10747541 -0.09624564 -0.10814758
-0.029885173 -0.017141016 -0.01192456 -0.10752536 -0.090155184 -0.03172101 -0.091306955 -0.045942597
-0.016865151 -0.032290112 -0.04705761 -0.019838536 -0.054426745 -0.06206333 -0.047137562 -0.0718036
-0.08765181 -0.017070055 -0.10632965 -0.08258384 -0.015936824 -0.042199776 -0.03923715 -0.053681687
-0.04709418 -0.107268654 -0.1100498 -0.022003768 -0.010175269 -0.016218884 -0.05100429 -0.07021005
-0.036892407 -0.061462283 -0.053928163 -0.09076546 -0.014024457 -0.036935266 -0.01522758 -0.10410315
-0.012548256 -0.037947726 -0.05485231 -0.023825198 -0.09056359 -0.09387626 -0.09586056 -0.09259612
-0.0962236 -0.07357494 -0.08281963 -0.07855595 -0.013470612 -0.022812096 -0.07703445 -0.09433533
-0.06376042 -0.041954525 -0.07484498 -0.0470483 -0.03204674 -0.08620283 -0.0641832 -0.053922296
-0.031093145 -0.015605994 -0.09555045 -0.04281875 -0.09820206 -0.10131693 -0.09804358 -0.04307115
-0.05485963 -0.072545275 -0.11002009 -0.04371677 -0.0744625 -0.0530906 -0.08689773 -0.10568438
-0.021499 -0.03686917 -0.047792185 -0.05983666 -0.05845836 -0.04913714 -0.07444505 -0.07158979
-0.056440294 -0.10626322 -0.066758074 -0.109410204 -0.04293049 -0.09476367 -0.07925167 -0.02234486
-0.048579946 -0.09130946 -0.042732622 -0.039522815 -0.11075589 -0.051784273 -0.08183383 -0.0421022
-0.013311178 -0.08448488 -0.08918922 -0.04894867 -0.036153134 -0.09516441 -0.08427084 -0.075518526
-0.07592491 -0.10416691 -0.0267975 -0.040250987 -0.06518348 -0.10666721 -0.05886256 -0.10286466
-0.0692904 -0.04717457 -0.055410158 -0.009051482 -0.052798145 -0.107868366 -0.071576715 -0.074319854
-0.06795969 -0.021389028 -0.012726938 -0.0154870115 -0.04008969 -0.08325227 -0.103234045 -0.096693195
-0.0901234 -0.038569834 -0.059137736 -0.017411007 -0.06681184 -0.07057632 -0.06040403 -0.039407186
-0.013013062 -0.091654085 -0.04579098 -0.072170176 -0.029301912 -0.03528815 -0.06261715 -0.09301075
-0.0647006 -0.024606287 -0.1071657 -0.011702879 -0.06916813 -0.054232463 -0.049621277 -0.10543782
-0.098552726 -0.07951032 -0.024061346 -0.023737505 -0.070991665 -0.09098558 -0.03387744 -0.05513435
-0.020151457 -0.11145579 -0.04559958 -0.093138434 -0.09539141 -0.06552848 -0.09537258 -0.03875382
-0.10469471 -0.009472781 -0.040021118 -0.071385205 -0.059527185 -0.10958335 -0.077747785 -0.02958151
-0.04711319 -0.017019466 -0.028710207 -0.098254904 -0.07882488 -0.09884204 -0.024386972 -0.03602613
00000000: d1f7 1dbd c849 26bd 08d6 afbd 177d 9dbd
00000010: 4eb6 15bc cc76 0bbd 7a9c a7bd 459b 77bd
00000020: c80a 39bd 868d 93bd cd5a 95bd 166f 84bc
00000030: 51de 45bd c944 27bd 9ef3 2abd 0a4b afbd
00000040: e8ab 8bbd b4a9 94bd 553e acbd f7b6 f2bc
00000050: a9d3 61bd 2297 97bd 95ce 22bd 6b0a 2fbd
00000060: cf6f 13bd a2b7 cbbd 15c5 4fbd 96cc c0bc
00000070: 17bc d1bd 090d b2bd 5fb6 0dbc 7cbe bdbc
00000080: 5ca6 00bd 3a1c 59bc 08c8 dabc 9b8c adbd
00000090: 6a4d 2bbc 71f8 2cbc 30fe 24bd e3a3 e2bd
000000a0: e989 84bd ed1f c2bc c494 b0bd a876 9cbd
000000b0: c00f 3dbd db3b 1bbd 6bdc b5bc 3313 01bd
000000c0: 9ffd cfbd ddfc 1ebd 64d8 d9bd 0de0 27bd
000000d0: 296e 43bc 75c7 e3bd a382 babd 978f cfbd
000000e0: 78bd febb 07b3 b5bd b7e7 e2bd 955a 8fbd
000000f0: 4f43 00bd 111c dcbd 6f1c c5bd 7a7c ddbd
00000100: c0d1 f4bc 516b 8cbc 3b5f 43bc 4236 dcbd
00000110: 48a3 b8bd e4ed 01bd 24ff babd 4e2e 3cbd
00000120: c928 8abc a342 04bd 7bbf 40bd 6d84 a2bc
00000130: 94ee 5ebd 1e36 7ebd 5113 41bd c40d 93bd
00000140: cb82 b3bd 80d6 8bbc 5cc3 d9bd b721 a9bd
00000150: f18d 82bc acd9 2cbd 22b7 20bd 54e1 5bbd
00000160: d4e5 40bd abaf dbbd ca61 e1bd 3f41 b4bc
00000170: 2cb6 26bc 77dd 84bc e0e9 50bd 49ca 8fbd
00000180: 7e1c 17bd e0bf 7bbd c7e3 5cbd 3ee3 b9bd
00000190: d6c6 65bc 6f49 17bd 1a7d 79bc 0834 d5bd
000001a0: 3397 4dbc 136f 1bbd d1ac 60bd 102d c3bc
000001b0: 6779 b9bd 3242 c0bd 8b52 c4bd 09a3 bdbd
000001c0: e110 c5bd 75ae 96bd 579d a9bd f1e1 a0bd
000001d0: d7b3 5cbc 6fe0 babc 3dc4 9dbd e232 c1bd
000001e0: d394 82bd 82d8 2bbd 5348 99bd b8b5 40bd
000001f0: 7143 03bd 1c8b b0bd 7b72 83bd a0dd 5cbd
00000200: 0db7 febc 48b0 7fbc f4af c3bd b762 2fbd
00000210: 291e c9bd 407f cfbd 13cb c8bd 606b 30bd
00000220: 7eb4 60bd 9e92 94bd 3752 e1bd 5b10 33bd
00000230: cc7f 98bd 8775 59bd 70f7 b1bd 0d71 d8bd
00000240: ac1e b0bc 2004 17bd bdc1 43bd 4917 75bd
00000250: 0972 6fbd 0744 49bd a576 98bd ab9d 92bd
00000260: f02d 67bd 88a0 d9bd 75b8 88bd 7512 e0bd
00000270: e2d7 2fbd 7413 c2bd b34e a2bd 910c b7bc
00000280: c4fb 46bd 7400 bbbd 6708 2fbd ade2 21bd
00000290: fcd3 e2bd bf1b 54bd 7f98 a7bd 5b73 2cbd
000002a0: 2117 5abc 6906 adbd d6a8 b6bd 677e 48bd
000002b0: 4f15 14bd 8fe5 c2bd 3196 acbd 75a9 9abd
000002c0: 857e 9bbd 7655 d5bd 6e86 dbbc 38de 24bd
000002d0: eb7e 85bd 5774 dabd de19 71bd b5aa d2bd
000002e0: 20e8 8dbd 1f3a 41bd c3f5 62bd ab4c 14bc
000002f0: de42 58bd 17ea dcbd d096 92bd 0235 98bd
00000300: 732e 8bbd 0b38 afbc a684 50bc 3cbd 7dbc
00000310: 1635 24bd 2b80 aabd 5f6c d3bd 1507 c6bd
00000320: 9e92 b8bd 67fb 1dbd 693a 72bd 87a1 8ebc
00000330: a5d4 88bd 518a 90bd 376a 77bd 6e69 21bd
00000340: bd34 55bc 23b5 bbbd 538f 3bbd f5cd 93bd
00000350: 900a f0bc 4f8a 10bd 6c3d 80bd 6c7c bebd
00000360: c081 84bd 2093 c9bc b179 dbbd 6fbd 3fbc
00000370: 05a8 8dbd dc22 5ebd ae3f 4bbd c9ef d7bd
00000380: 03d6 c9bd 4fd6 a2bd 4d1c c5bc 2875 c2bc
00000390: 1464 91bd a656 babd 12c3 0abd 8ed4 61bd
000003a0: ab14 a5bc ef42 e4bd a0c6 3abd 5dbf bebd
000003b0: 925c c3bd cc33 86bd b352 c3bd 53bc 1ebd
000003c0: 2e6a d6bd b933 1bbc 2fed 23bd 6832 92bd
000003d0: c7d2 73bd 3c6d e0bd 3b3a 9fbd ec54 f2bc
000003e0: c3f9 40bd 686c 8bbc ab31 ebbc de39 c9bd
000003f0: f06e a1bd b26d cabd 30c7 c7bc 2390 13bd

mlp.0.bias f4 [16]
-0.06840104 -0.016887398 -0.008551482 0.37807593 0.006234809 -0.06916123 -0.07739014 0.17049251
0.039053608 -0.03777373 -0.04971718 0.31428897 0.18977533 -0.09789671 -0.07651361 -0.10617117
00000000: d815 8cbd 7157 8abc 841b 0cbc 2b93 c13e
00000010: 5e4d cc3b 67a4 8dbd b97e 9ebd 9795 2e3e
00000020: adf6 1f3d a0b8 1abd 3ea4 4bbd 7cea a03e
00000030: 7754 423e 127e c8bd 2bb3 9cbd 4570 d9bd

mlp.2.weight f4 [16, 16]
-0.16173546 0.25878924 -0.009601501 0.22582194 -0.32467765 -0.44849548 -0.056014113 -0.16821675
0.005904039 0.05751252 -0.24086303 0.3561601 -0.42325285 -0.12729226 -0.1678312 0.25632313
0.10587857 -0.12505277 -0.021671835 0.21470563 0.17806867 -0.09089476 -0.053743187 0.07977966
0.01804308 0.08624317 0.19928075 0.33199918 -0.085916504 -0.032495894 0.05080066 -0.044016715
-0.042641252 0.08578328 0.024290854 -0.49084052 -0.21782695 0.2965366 0.07358101 -0.4132277
-0.20694591 0.12514265 0.15119159 -0.48382622 -0.564582 -0.005025683 -0.14015383 -0.009083671
-0.25708592 0.13033527 0.07062183 -0.12122385 -0.45050457 -0.25652757 -0.1042802 -0.10017395
-0.16035411 -0.25510797 0.06821863 -0.1085899 -0.30596754 0.15948372 0.046726603 0.016993511
-0.022390986 0.008714953 -0.012786702 -0.24306597 -0.0649004 -0.20974308 0.012473326 -0.29481497
0.019629009 0.09342067 0.0081314705 -0.15705058 -0.04338792 -0.018612469 -0.01752219 0.021244733
-0.09945926 0.18934177 0.06177717 0.28732318 -0.2848004 -0.10408673 0.17507738 0.02728437
-0.07299364 -0.39454567 -0.082162306 0.01866255 0.280076 -0.1156198 0.020000665 0.14652444
-0.029700754 -0.28977937 -0.100216314 -0.16442186 -0.17105281 0.17557774 0.10376352 -0.5015706
-0.13478006 0.07647614 -0.0061436305 0.19628029 0.10257442 0.06632352 -0.18644947 0.068572484
-0.022830721 -0.004648796 0.1358935 -0.42469326 0.044848606 -0.2597123 0.016802438 -0.31722364
-0.26030606 -0.22428742 -0.0075564357 -0.12044424 0.016320305 0.013409647 -0.2025108 -0.0159593
-0.032078892 -0.09002566 -0.27101225 0.37540483 -1.3152663 0.40052742 0.1267257 -0.030187942
-0.03910013 0.24025734 -0.11519691 -0.26207373 -0.27319565 0.12572941 0.031389423 -0.07768434
-0.008784621 0.00933415 -0.010810817 -0.184621 0.0047273654 -0.29161036 0.0001001607 -0.071163855
-0.020356774 -0.023858748 0.023590641 -0.023715341 -0.007451022 0.015814373 0.0080001205 -0.005868518
-0.04245272 -0.05926871 0.009177468 -0.19337766 -0.013248609 -0.008153161 -0.023147326 0.081641264
0.012759211 -0.38699335 -0.032905903 -0.26885128 -0.23759247 0.03784402 -0.12892392 0.07654204
0.15488777 -0.17184493 0.12988947 0.17216127 -0.30834025 0.1364509 -0.02008019 0.20456263
-0.042675547 -0.33393556 -0.16682234 -0.08969968 0.18926746 -0.049476974 0.010045365 -0.1501775
-0.021215364 0.037631333 -0.18940856 -0.066769935 0.25739542 -0.06934566 -0.021374444 0.0244003
-0.19964735 -0.05897892 0.011518548 0.2568641 0.20596662 0.014680451 -0.06880724 -0.0071566445
0.008573495 0.059116043 0.18440571 -0.1966022 -0.055477418 -0.2878858 0.002961963 -0.09492973
0.13235725 -0.11618158 -0.0032318812 -0.021165755 0.1503103 0.018827327 -0.055406824 0.004398524
0.0167613 0.0040995833 -0.0031175425 -0.06797159 0.022224767 -0.09753737 0.016013337 -0.010228403
-0.023947012 -0.02176201 -0.0027225062 -0.019529263 0.0014806929 0.023246143 0.008366781 -0.0029844877
-0.1542132 0.07715816 -0.11056929 -0.3 -0.16772795 -0.38568878 0.12893301 0.25413188
0.09405781 0.41948223 0.045060337 0.001087432 0.3504969 -0.11701524 0.12751494 0.18306251
00000000: fb9d 25be 0680 843e 9d4f 1dbc de3d 673e
00000010: 263c a6be 33a1 e5be 0e6f 65bd 0341 2cbe
00000020: ab76 c13b 4092 6b3d cca4 76be 9e5a b63e
00000030: 99b4 d8be e758 02be f1db 2bbe c93c 833e
00000040: ddd6 d83d d50d 00be 2289 b1bc cbdb 5b3e
00000050: a257 363e 0827 babd d121 5cbd 8563 a33d
00000060: 15cf 933c 42a0 b03d 4110 4c3e ccfb a93e
00000070: fef4 afbd 6a1a 05bd 5a14 503d df4a 34bd
00000080: 98a8 2ebd 25af af3d 9dfd c63c 734f fbbe
00000090: 070e 5fbe a5d3 973e a4b1 963d 9592 d3be
000000a0: a1e9 53be 6525 003e f8d1 1a3e 12b8 f7be
000000b0: 7288 10bf 7cae a4bb 7c84 0fbe add3 14bc
000000c0: c4a0 83be 9c76 053e 2ea2 903d 3644 f8bd
000000d0: 89a8 e6be 9557 83be dc90 d5bd 0028 cdbd
000000e0: de33 24be 839d 82be 36b6 8b3d 6264 debd
000000f0: c7a7 9cbe b34f 233e 6564 3f3d fa35 8b3c
00000100: 4d6d b7bc 2ac9 0e3c 517f 51bc 49e6 78be
00000110: 80ea 84bd e4c6 56be ec5c 4c3c fdf1 96be
00000120: 04cd a03c 5653 bf3d dc39 053c ded1 20be
00000130: 88b7 31bd 2d79 98bc b28a 8fbc 6f09 ae3c
00000140: 4cb1 cbbd cfe2 413e 0f0a 7d3d 061c 933e
00000150: 5cd1 91be 6c2b d5bd 7c47 333e 7983 df3c
00000160: b17d 95bd e401 cabe b644 a8bd 34e2 983c
00000170: 1f66 8f3e 13ca ecbd 6fd8 a33c 810a 163e
00000180: ff4e f3bc f65d 94be 363e cdbd 345e 28be
00000190: 7828 2fbe a7ca 333e f881 d43d ee66 00bf
000001a0: c903 0abe 869f 9c3d 8250 c9bb b3fd 483e
000001b0: 8a12 d23d a0d4 873d 9cec 3ebe bb6f 8c3d
000001c0: 7e07 bbbc ed54 98bb aa27 0b3e 6571 d9be
000001d0: 2cb3 373d 03f9 84be 44a5 893c 236b a2be
000001e0: d646 85be 9aab 65be fa9b f7bb 78ab f6bd
000001f0: 29b2 853c 23b4 5b3c fe5e 4fbe 14bd 82bc
00000200: 2865 03bd 605f b8bd 1ec2 8abe 1035 c03e
00000210: a55a a8bf ee11 cd3e 62c4 013e b44c f7bc
00000220: 7527 20bd 0506 763e 5cec ebbd 872e 86be
00000230: 4de0 8bbe 36bf 003e 3292 003d f818 9fbd
00000240: 5fed 0fbc 43ee 183c da1f 31bc 4a0d 3dbe
00000250: 04e8 9a3b f44d 95be 5e0d d238 5bbe 91bd
00000260: 40c3 a6bc 6c73 c3bc 2941 c13c ad46 c2bc
00000270: b427 f4bb 258d 813c f012 033c b24c c0bb
00000280: e7e2 2dbd bfc3 72bd 175d 163c cb04 46be
00000290: b210 59bc d694 05bc 769f bdbc 8933 a73d
000002a0: 020c 513c fe23 c6be 57c8 06bd e0a6 89be
000002b0: 714b 73be 5502 1b3d a204 04be 13c2 9c3d
000002c0: e69a 1e3e 1ef8 2fbe bf01 053e 0b4b 303e
000002d0: c6de 9dbe c9b9 0b3e 367f a4bc de78 513e
000002e0: 8ecc 2ebd 9af9 aabe 7ad3 2abe 77b4 b7bd
000002f0: 54cf 413e 5ea8 4abd 5195 243c 21c8 19be
00000300: d8cb adbc 5023 1a3d 51f4 41be adbe 88bd
00000310: 55c9 833e 1905 8ebd 7519 afbc 23e3 c73c
00000320: 5b70 4cbe e193 71bd 4bb8 3c3c b183 833e
00000330: eae8 523e 4686 703c cfea 8cbd 4982 eabb
00000340: d877 0c3c aa23 723d dad4 3c3e 1652 49be
00000350: 4a3c 63bd c465 93be 7e1d 423b 856a c2bd
00000360: a988 073e 9cf0 edbd f8cd 53bb ce63 adbc
00000370: f1ea 193e c43b 9a3c 44f2 62bd 7e21 903b
00000380: fe4e 893c cc55 863b af4f 4cbb b034 8bbd
00000390: b710 b63c acc1 c7bd 672e 833c 0895 27bc
000003a0: 862c c4bc 3e46 b2bc 136c 32bb d5fb 9fbc
000003b0: cf13 c23a b26e be3c d314 093c 6597 43bb
000003c0: 11ea 1dbe 1905 9e3d 2772 e2bd 9a99 99be
000003d0: e0c0 2bbe 0079 c5be 0407 043e 931d 823e
000003e0: 62a1 c03d 60c6 d63e 3091 383d 2a88 8e3a
000003f0: 5474 b33e b0a5 efbd 4793 023e bd74 3b3e

mlp.2.bias f4 [16]
0.31919995 0.23418789 -0.34529987 -0.2850744 -0.3396848 0.0781146 0.8128644 -0.51732236
0.6595735 -0.45002118 -0.15480357 0.11507187 -0.2312017 -0.31582844 -0.3167786 -0.16216445
00000000: 2d6e a33e f3ce 6f3e 25cb b0be 46f5 91be
00000010: 2beb adbe 8cfa 9f3d e217 503f 3d6f 04bf
00000020: cfd9 283f 2d69 e6be d484 1ebe cdaa eb3d
00000030: 23c0 6cbe 44b4 a1be ce30 a2be 700e 26be

mlp.4.weight f4 [16, 16]
0.43963313 0.041225217 -0.1016197 0.1687815 -0.5004284 0.1313093 -0.65768015 -0.091398455
0.21851991 0.16138768 -0.2847202 0.14306325 0.11952942 -0.20898217 0.027494533 -0.1614467
-0.050929733 -0.37830082 0.494609 -0.061300855 -0.095362365 0.05835544 0.28079626 0.03284274
-0.06327138 0.028389644 0.12368257 -0.0005518128 -0.047879066 0.1444106 -0.025119202 -0.016323479
-0.20110229 0.0039010318 -0.0063957586 0.0058952747 0.015334156 -0.22177783 -0.17485547 0.0038541222
-0.24849755 -0.01287966 -0.008343258 -0.26241004 -0.33016187 0.010815223 0.0018145937 0.009452798
-0.00193706 -0.01079698 -0.018165756 -0.019586448 -0.009695878 0.013134768 -0.019616447 -0.003366569
-0.010906704 -0.02219546 -0.01810064 -0.013269548 -0.018582176 -0.01967781 0.0022821703 -0.013199373
-0.33907437 -0.17632252 0.21093893 -0.1634906 0.0076022125 -0.46500674 -0.09706889 0.04039438
-0.33242667 0.006873883 -0.017860152 -0.48569492 -0.5103207 -0.10540316 -0.018836679 -0.14702956
-0.08125582 -0.2196281 0.015481711 -0.003204602 0.009211615 -0.34340692 -0.019402543 -0.020185309
-0.014149338 -0.023430588 0.014472854 -0.2285559 -0.069649324 0.011121478 0.019949246 -0.20635052
0.0018676943 -0.18944521 -0.24090403 -0.023676524 -0.043841586 0.12649071 0.16362463 0.10040967
0.36889765 0.1295399 0.17583856 0.1316951 -0.32119232 0.22074978 -0.22877686 -1.4725964
-0.04208776 -0.21026918 0.0135314055 -0.02085298 -0.015233647 -0.081559785 -0.021588065 0.004095941
-0.1566055 0.015853286 0.02337932 0.008477489 0.053095024 -0.18509729 -0.012584814 0.08361301
-0.14867638 0.24794506 -0.24179648 0.112384 -0.12358259 0.27849704 -0.38816008 0.3034245
-0.5757604 -0.0024030318 0.0073968857 0.36397284 0.22284089 -0.06653261 0.0205161 -0.21009517
-0.18624108 0.045081027 -0.070032544 -0.22915372 -0.0042978143 -0.34376875 0.088345654 0.0011648759
-0.40551358 -0.016455833 0.010844124 -0.3297819 -0.39080402 -0.015615139 -0.00084316917 -0.06828267
-0.21961042 0.38375786 -0.15589596 -0.04570633 -0.16371927 0.30376998 -0.14322639 -0.04104035
0.026205625 -0.12911645 0.08486669 0.18339537 0.12699232 0.12966552 0.24767405 0.17996551
-0.27603143 -0.26959014 -0.15322717 0.28086606 -0.0010154931 -0.15791419 0.029926151 -0.14259088
-0.09329465 0.013548228 0.0032504934 -0.052944105 -0.59616244 -0.34388572 -0.2019389 -0.34789348
-0.013693439 -0.011032699 0.0031138514 -0.0012211386 0.01732173 -0.0043282467 -0.023903541 0.012112566
-0.0076377015 -0.011980187 -0.015906356 0.010494998 0.010600584 -0.017566059 0.018508254 -0.020613978
-0.2039872 -0.15928246 -0.12628464 -0.0028551433 0.022956725 0.150225 -0.1244191 -0.12024775
-0.28957465 0.009562589 -0.013459864 -0.010555574 -0.18358363 0.098742075 0.009418359 -0.11733802
0.40088034 0.10397379 -0.28768948 -0.16933718 0.26893574 -0.17823423 -0.05312583 0.005573364
-2.4342551 0.016192274 0.011082721 0.12216864 0.15739283 0.079103746 0.017570263 -0.13400842
-0.073284246 -0.1811192 0.016912274 0.021772766 0.017013093 0.078043796 0.0616392 0.011870968
-0.11896557 0.006886817 0.020384932 -0.20310225 -0.5754752 -0.014055805 0.022494627 -0.13902652
00000000: 9817 e13e c6db 283d fd1d d0bd 0fd5 2c3e
00000010: 131c 00bf f275 063e ba5d 28bf 1d2f bbbd
00000020: afc3 5f3e d042 253e d9c6 91be 2c7f 123e
00000030: d7cb f43d 6cff 55be 373c e13c 4952 25be
00000040: b29b 50bd a5b0 c1be 643d fd3e 9b16 7bbd
00000050: 584d c3bd 1d06 6f3d 87c4 8f3e 1c86 063d
00000060: 6d94 81bd 6691 e83c 4a4d fd3d 88a7 10ba
00000070: d71c 44bd 5fe0 133e c9c6 cdbc d1b8 85bc
00000080: c2ed 4dbe 74a8 7f3b 8393 d1bb 262d c13b
00000090: 1d3c 7b3c ba19 63be 500d 33be 7195 7c3b
000000a0: 2476 7ebe 3605 53bc 29b2 08bc 9c5a 86be
000000b0: fa0a a9be 5532 313c a9d7 ed3a e9df 1a3c
000000c0: f3e4 fdba d1e5 30bc 5ad0 94bc c273 a0bc
000000d0: 76db 1ebc 3633 573c acb2 a0bc a8a1 5cbb
000000e0: 08b2 32bc 41d3 b5bc cb47 94bc 8568 59bc
000000f0: a639 98bc 5c33 a1bc 7790 153b 2f42 58bc
00000100: 289b adbe e48d 34be 6000 583e 146a 27be
00000110: fb1b f93b 5d15 eebe 0ecc c6bd 9474 253d
00000120: d433 aabe 4f3e e13b 744f 92bc 01ad f8be
00000130: 61a4 02bf 9ddd d7bd 614f 9abc eb8e 16be
00000140: 7469 a6bd 30e6 60be 01a7 7d3c 4d04 52bb
00000150: 50ec 163c 08d3 afbe 15f2 9ebc a95b a5bc
00000160: a0d2 67bc 81f1 bfbc 8d1f 6d3c 8f0a 6abe
00000170: 4ea4 8ebd dc36 363c 9a6c a33c 8d4d 53be
00000180: 6ccd f43a edfd 41be 8caf 76be 45f5 c1bc
00000190: 3c93 33bd c886 013e 378d 273e 96a3 cd3d
000001a0: 27e0 bc3e 1ca6 043e 060f 343e 15db 063e
000001b0: 5273 a4be 3b0c 623e 7b44 6abe 0a7e bcbf
000001c0: 3764 2cbd ce50 57be d4b2 5d3c ded3 aabc
000001d0: 8c96 79bc d108 a7bd 74d9 b0bc 3e37 863b
000001e0: 315d 20be c0de 813c fd85 bf3c 2be5 0a3c
000001f0: 2b7a 593d 258a 3dbe 8930 4ebc 4c3d ab3d
00000200: 9f3e 18be 4fe5 7d3e 7f99 77be 9529 e63d
00000210: de18 fdbd 2a97 8e3e ebbc c6be 755a 9b3e
00000220: 0965 13bf 2f7c 1dbb 9361 f23b a65a ba3e
00000230: 6730 643e 4042 88bd 6111 a83c 3023 57be
00000240: fbb5 3ebe e2a6 383d 396d 8fbd 46a7 6abe
00000250: aed4 8cbb 7502 b0be 91ee b43d c0ae 983a
00000260: 7a9f cfbe 62ce 86bc 8dab 313c 2cd9 a8be
00000270: 7717 c8be a4d6 7fbc 2008 5dba c9d7 8bbd
00000280: 8ee1 60be e97b c43e 31a3 1fbe 9036 3bbd
00000290: 06a6 27be bd87 9b3e f0a9 12be ed19 28bd
000002a0: 2ead d63c 1a37 04be 96ce ad3d ffcb 3b3e
000002b0: 460a 023e 0ac7 043e 449e 7d3e e148 383e
000002c0: fe53 8dbe b807 8abe 95e7 1cbe adcd 8f3e
000002d0: 4b1a 85ba 42b4 21be b027 f53c 5803 12be
000002e0: 4411 bfbd 63f9 5d3c 3b06 553b ebdb 58bd
000002f0: 1a9e 18bf ca11 b0be 12c9 4ebe 181f b2be
00000300: 725a 60bc 7ec2 34bc c211 4c3b 9d0e a0ba
00000310: 4de6 8d3c f7d3 8dbb 5cd1 c3bc c973 463c
00000320: af45 fabb 8c48 44bc 0c4e 82bc 36f3 2b3c
00000330: 12ae 2d3c b2e6 8fbc 9f9e 973c a5de a8bc
00000340: 05e2 50be f11a 23be c350 01be 5b1d 3bbb
00000350: be0f bc3c 95d4 193e 71cf febd 7444 f6bd
00000360: 2143 94be 68ac 1c3c c386 5cbc 49f1 2cbc
00000370: 59fd 3bbe 4939 ca3d 764f 1a3c ea4e f0bd
00000380: 3040 cd3e 36f0 d43d 094c 93be ba66 2dbe
00000390: f2b1 893e 0983 36be 789a 59bd c4a0 b63b
000003a0: d6ca 1bc0 a9a5 843c 4d94 353c 8d33 fa3d
000003b0: 962b 213e 2501 a23d 83ef 8f3c 8139 09be
000003c0: 0d16 96bd 5077 39be 9c8b 8a3c cd5c b23c
000003d0: 0b5f 8b3c 6dd5 9f3d 6379 7c3d 737e 423c
000003e0: 39a4 f3bd cfaa e13b 4dfe a63c 09fa 4fbe
000003f0: 5852 13bf 524a 66bc a746 b83c f85c 0ebe

mlp.4.bias f4 [16]
0.7827461 0.44853964 -0.14489959 -0.020840483 -0.49214685 -0.11827311 0.23401888 -0.28135365
0.36989775 0.0043503633 0.24789758 0.061278332 -0.01569545 -0.17273307 -0.24204956 -0.09877958
00000000: 0c62 483f fda6 e53e 8f60 14be a9b9 aabc
00000010: acfa fbbe 2c39 f2bd a5a2 6f3e 960d 90be
00000020: 3d63 bd3e 7e8d 8e3b ddd8 7d3e fdfe 7a3d
00000030: bf93 80bc f0e0 30be d7db 77be f34c cabd

mlp.6.weight f4 [3, 16]
0.03639924 -0.042833146 0.3085717 0.021602677 0.15297131 -0.25215024 -0.43879282 0.13015161
-0.29042011 -0.16319135 0.39497384 0.09198277 -0.012449924 -0.08647815 -0.0502339 -0.028093819
0.21309014 -0.29975182 -0.0053631514 -0.02008233 0.18140532 -0.1286156 -0.016340565 -0.11834628
0.030935481 0.056302913 0.32489684 0.094531216 -0.009889982 -0.07804843 -0.21039157 0.011708687
0.30972418 -0.10666508 -0.270397 -0.014863109 0.0024059275 0.0042237593 -0.3377039 0.011411781
-0.0866278 -0.026675662 -0.15986611 -0.12453275 -0.02002516 0.1857537 -0.7745374 -0.030427497
00000000: 5f17 153d cf71 2fbd 1cfd 9d3e 19f8 b03c
00000010: 83a4 1c3e d619 81be 74a9 e0be 7746 053e
00000020: f2b1 94be a21b 27be 033a ca3e 7661 bc3d
00000030: c4fa 4bbc 751b b1bd 10c2 4dbd 0225 e6bc
00000040: 4d34 5a3e 1279 99be 60bd afbb b383 a4bc
00000050: 51c2 393e cfb3 03be a6dc 85bc 895f f2bd
00000060: 686c fd3c e29d 663d e158 a63e 9599 c13d
00000070: 9709 22bc dbd7 9fbd e370 57be cbd5 3f3c
00000080: 2b94 9e3e 3973 dabd 7a71 8abe 6684 73bc
00000090: c4ac 1d3b 7667 8a3b 87e7 acbe 7bf8 3a3c
000000a0: ea69 b1bd eb86 dabc f1b3 23be 070b ffbd
000000b0: ce0b a4bc 3836 3e3e 1548 46bf 1643 f9bc

mlp.6.bias f4 [3]
0.2910652 0.23403043 -0.09324687
00000000: 7f06 953e aca5 6f3e 37f8 bebd
