EUSIPCO/Nested Array/saved_models/da_music_v2_20.0dB_ula_4.pth (torch, 47162 bytes, 18 tensors)

bn.weight f4 [16]
000000 78 27 fd 3e f8 d5 28 3f 1e 2a 68 3f b8 ef 85 3f
       0.49444175 0.6595149 0.90689266 1.0463781
000010 97 d2 9e 3f 41 dd 79 3f ac 6a 3c 3f 82 e9 31 3f
       1.2408017 0.9760323 0.7360027 0.6949693
000020 93 83 0d 3f b6 c2 22 3f d8 f6 5b 3f de e8 88 3f
       0.5527889 0.63578355 0.8592353 1.0696065
000030 e8 6e 90 3f 78 f2 8c 3f b1 20 70 3f 8c 8d 15 3f
       1.1283846 1.1011496 0.93799883 0.5841911

bn.bias f4 [16]
000000 ed 7e 3b 3e df 24 8b 3e ee 12 1a be 07 6d 51 be
       0.18310137 0.27176568 -0.15046284 -0.20451747
000010 0f e6 fe bd c1 9b 80 bd 21 8e 98 3e af b3 68 bd
       -0.12446224 -0.06279708 0.29795936 -0.056811985
000020 32 a9 68 be 02 0a 00 be 2e 02 b6 be 6e a9 8b 3e
       -0.22720793 -0.12503818 -0.35548538 0.27277702
000030 c1 48 c6 be ea 49 23 3e 1e e3 98 be 58 8b 70 bd
       -0.38727382 0.15946165 -0.29860777 -0.05872664

bn.running_mean f4 [16]
000000 ac 9b 99 39 66 38 cb b9 25 82 a7 3a a5 b5 19 3b
       0.0002929842 -0.00038761197 0.0012779875 0.0023454216
000010 55 e0 b3 3a 35 f9 27 3a 22 ea 81 ba 1b 16 47 3b
       0.0013723472 0.0006407679 -0.0009911696 0.0030378166
000020 18 98 c0 37 59 1e e7 ba 33 dd 71 38 64 e2 83 ba
       2.2959008e-05 -0.0017632946 5.7664885e-05 -0.0010061976
000030 86 39 c5 ba a9 db b9 3a 98 21 1a 39 11 fc 1b ba
       -0.001504705 0.0014179844 0.00014699099 -0.00059503416

bn.running_var f4 [16]
000000 f7 25 c0 3f f0 1a c0 3f a5 36 c0 3f da 6e c0 3f
       1.5011586 1.5008221 1.5016676 1.5033829
000010 a0 85 c0 3f 23 2e c0 3f 11 69 c0 3f ad 27 c0 3f
       1.5040779 1.501408 1.5032064 1.5012108
000020 19 4b c0 3f 61 39 c0 3f 97 8c c0 3f 82 30 c0 3f
       1.5022918 1.5017511 1.5042905 1.5014803
000030 57 74 c0 3f fd 40 c0 3f 04 bc c0 3f e2 8d c0 3f
       1.5035504 1.5019833 1.5057378 1.5043299

rnn.weight_ih_l0 f4 [48, 16]
000000 3e c8 8b 3e 5f dd 0a 3e 93 1b 32 be 25 24 0d be
       0.2730121 0.13561009 -0.17393331 -0.1378332
000010 e3 fb 4d bd af 94 30 3c 65 c5 ec 3e c8 12 0c be
       -0.050289046 0.010777636 0.4624435 -0.1367904
000020 ab 3f bd be e4 0a 45 bd 01 8b 9b be 94 5f 38 bd
       -0.36962637 -0.04810609 -0.3037949 -0.045013025
000030 f1 56 9c bd 86 b0 67 bd 4d 66 7f be 56 24 0a 3e
       -0.0763377 -0.05656483 -0.24941368 0.13490424
000040 a3 e9 d0 3d 3e ab 96 bc c1 f3 fd 3d 52 57 5c 3e
       0.10200813 -0.018392202 0.12400008 0.21517685
000050 1a 4b 8f be fe a2 71 bd d7 10 23 be 9d 26 1e bf
       -0.27986985 -0.058993332 -0.15924393 -0.6177767
000060 67 41 27 bf 0f 72 7d be 71 85 58 be 3c fe 45 be
       -0.6533417 -0.24750541 -0.21144654 -0.19335264
000070 14 3c 84 3e f7 60 d5 3e 34 11 87 be 0e 51 5d be
       0.25827086 0.4167554 -0.26380312 -0.21612951
000080 18 74 67 bf 24 ed 6d be 97 97 88 3f d3 21 4a bf
       -0.9041152 -0.23234993 1.0671262 -0.7895786
000090 fe 68 af 3e a2 c5 99 bf f4 eb a0 3f 55 1c 5c be
       0.3425979 -1.2013438 1.2572007 -0.21495183
0000a0 98 58 f4 be 69 ba a3 3f 2e be a0 be 02 9b af 3e
       -0.47723842 1.2791263 -0.31395096 0.3429795
0000b0 54 db a2 3e 67 a6 d9 3e 25 ab 4a be 2d 18 8a bf
       0.3180796 0.42509767 -0.19791849 -1.0788628
0000c0 9d b9 46 3e 62 01 28 be 6f 36 73 3d b6 15 75 3e
       0.19406743 -0.16406778 0.059378084 0.23934063
0000d0 15 77 83 3f 36 78 bb bc b5 72 a2 bf 7b 62 79 bf
       1.0270716 -0.02288447 -1.2691256 -0.97415894
0000e0 61 72 27 bf da 24 9e 3c b6 d6 e7 be fa 1a 5a bf
       -0.65408903 0.019304682 -0.45281 -0.8519741
0000f0 41 35 1b bf 64 01 03 3f 52 0a 92 3e d4 00 b9 be
       -0.60628134 0.51173997 0.285235 -0.36133444
000100 73 82 98 bf 27 7a b7 be be d4 8b bf 6c b5 61 bf
       -1.191481 -0.35835382 -1.0924299 -0.8816745
000110 ca f3 03 bf e2 8e fd 3e 74 43 d0 bd 45 16 80 be
       -0.5154387 0.49523073 -0.10169116 -0.2501699
000120 d3 5f 3a 3e 19 66 19 3f 34 3e df 3c 12 c9 bb 3e
       0.18200617 0.59921414 0.02725134 0.36676842
000130 74 51 37 bd cf 21 a8 be d6 e1 82 bf 8f 03 b0 3e
       -0.044755414 -0.32838294 -1.022517 0.34377715
000140 b8 cf 30 3f 27 11 ad be 9c 65 49 3d c9 39 50 bd
       0.69066954 -0.3380215 0.049169168 -0.05083636
000150 7c 64 a7 be 88 7e 10 3d c7 fc 3b be 8d d0 38 3f
       -0.3269385 0.03527692 -0.18358146 0.72193223
000160 73 d1 bf 3e ef 54 69 3e 04 7e 9e 3e 21 a0 fb be
       0.37464485 0.22786306 0.30955517 -0.49145606
000170 a2 d2 38 3f c5 e1 02 bf 3d a8 23 3f 4d 61 7d be
       0.721964 -0.51125747 0.63928586 -0.24744149
000180 c3 71 08 bf 12 85 0a 3e 1f f5 d5 3e 0f 1e 68 bd
       -0.53298587 0.13527325 0.41788575 -0.05666929
000190 5d 0e 85 be 6d 8b 48 be 5b 6d ec 3d c9 f6 cd be
       -0.2598752 -0.19584437 0.115442954 -0.40227345
0001a0 d4 4e a8 be b6 a5 aa 3e 42 83 04 bf 35 59 2d be
       -0.3287264 0.33329552 -0.51762784 -0.16928561
0001b0 18 73 0c 3e e8 0a 2d 3f 44 35 48 3e b7 4c 29 be
       0.1371578 0.67594767 0.19551569 -0.1653317
0001c0 1e c8 bf bf e7 96 83 3e 4c 97 6b 3f 37 9e 2f be
       -1.4982946 0.25701067 0.92027736 -0.17150198
0001d0 cc 9d 5f bc 9b 61 e8 bf 20 fd a0 3d b6 49 0b 3f
       -0.013648462 -1.8154787 0.0786078 0.5440935
0001e0 5e b6 69 be c7 d6 ae 3f 75 f5 83 be 70 95 18 bd
       -0.22823474 1.3659295 -0.25773206 -0.03725189
0001f0 20 43 35 bf dd c4 0b bd b9 89 9e 3f c1 23 97 be
       -0.7080555 -0.03412329 1.238578 -0.29519466
000200 a0 2d c3 bf 34 ba fd bc c1 46 28 3f bd 18 3f bf
       -1.5248299 -0.030972578 0.6573296 -0.7464712
000210 c3 7a 30 3e e2 b0 5b bf 18 b5 9d 3f c0 48 aa 3e
       0.1723433 -0.85816777 1.232089 0.3325863
000220 22 eb 53 3f b9 84 5a bf 08 fe bc 3e 2d d0 af bd
       0.8278066 -0.8535877 0.3691256 -0.08584628
000230 cf 20 ac 3e f3 60 a3 be 52 d9 12 bf 67 17 94 3f
       0.3361878 -0.31909904 -0.57362854 1.1569642
000240 a6 53 15 bd ab 2d 04 bf 98 a1 9f 3e 7b ae 9d 3e
       -0.036456726 -0.51632184 0.31177974 0.3079718
000250 d2 b6 37 be 39 1d 5f 3e 95 0e dd 3e a4 7b e7 be
       -0.17940834 0.21788491 0.43175188 -0.45211518
000260 60 60 89 3e 5b d9 57 3e a2 bd 98 bd 61 16 ae be
       0.2683134 0.21079008 -0.074580446 -0.3400145
000270 5f 9b 14 3d 6f 48 b3 3e 06 d5 10 bf 26 83 c0 be
       0.036280986 0.350162 -0.5657505 -0.37600058
000280 59 25 0e be 02 63 55 3d 48 48 c8 bd fd a0 3c bd
       -0.13881435 0.052096374 -0.097794116 -0.046051968
000290 82 a9 a8 be 6d 2d 7a bf 8f 78 11 be 93 5c a0 be
       -0.32941824 -0.97725564 -0.14206146 -0.3132063
0002a0 b1 e1 58 bf df 89 cb be ba f1 14 bf b7 a0 7e bf
       -0.8471938 -0.39753625 -0.58181345 -0.9946398
0002b0 4f 97 3c bf 65 08 11 bf f6 21 e1 be f7 8c 4b 3e
       -0.7366838 -0.56653434 -0.43971223 0.19877993
0002c0 b2 3d 55 be d0 98 7d bb d4 ea d3 3f 43 55 4d bf
       -0.20824316 -0.003869582 1.6556039 -0.80208224
0002d0 69 3b 75 3f eb 24 6b 3f 2b 92 0a 3f 5f b9 a3 bd
       0.9579378 0.9185321 0.54129285 -0.07994341
0002e0 7e 0d 2f 3e b3 d5 43 3f c4 bf 07 be 31 59 97 3f
       0.1709499 0.76497954 -0.13256747 1.1824094
0002f0 04 f8 7f 3e 1a 9c 5c 3f a1 fd 03 bf 11 cc 26 3e
       0.24996954 0.8617569 -0.5155888 0.16288783
000300 71 6e 4f bf ba f2 cc 3d a7 50 0b 3f ac e8 1b 3f
       -0.81027895 0.10007234 0.5441994 0.60901904
000310 72 ed 56 bf 86 59 ab bd 47 df 4f 3f 04 3b 2c be
       -0.8395606 -0.083666846 0.8120007 -0.16819388
000320 6f 5e fd 3c 9b 79 54 bf d9 3d 28 3f d7 57 2c 3f
       0.030928819 -0.82998055 0.6571937 0.6732153
000330 2a 0f dc 3e f9 17 19 3f 22 a3 c2 3e 54 31 52 3e
       0.4298032 0.59802204 0.38015085 0.2052663
000340 0a e7 41 3f 2f 2b 49 bf d8 ab 93 3c cd 88 c9 3e
       0.7574316 -0.7858152 0.018026277 0.39362183
000350 2f 76 d2 3d a9 bb 26 3f 06 8e 81 bf 05 d0 d4 3f
       0.10276448 0.65130097 -1.0121467 1.6625983
000360 e7 e6 3d bf 65 41 0d 3f 90 bb 71 bf 82 0f d0 3d
       -0.74180454 0.5517791 -0.9442682 0.10159208
000370 c7 ea e8 bd bf 85 fb be 84 24 c7 bd 5d 4a e8 be
       -0.11372905 -0.49125478 -0.09723762 -0.45369235
000380 74 a6 a1 bf a4 23 18 3f 1a 99 50 bf 9c 41 5d 3e
       -1.2628922 0.59429383 -0.81483614 0.21607059
000390 2b d5 fb be 59 1f b1 bd 72 23 a7 3e bd 13 77 be
       -0.49186072 -0.08648557 0.3264423 -0.24128623
0003a0 c4 58 be be 3d 71 64 3f 70 f7 24 bd 36 4c d3 3e
       -0.37177098 0.8923529 -0.040275037 0.41269082
0003b0 83 86 2f bf 34 ec 8a 3f 48 61 64 bf d6 5b 4d 3f
       -0.68564624 1.0853333 -0.8921094 0.80218256
0003c0 01 5f 09 bf dc 96 fd 3c ae a2 dc 3e 48 a8 e7 be
       -0.5366059 0.030955724 0.43092865 -0.45245576
0003d0 e5 90 4f 3d 14 11 84 3f e9 c2 78 bf f4 26 0b 3f
       0.05067529 1.0317712 -0.9717241 0.5435631
0003e0 16 82 6e bf ac 3f e4 3f ec 51 6c bf 81 e4 2b bf
       -0.93167245 1.7831931 -0.923125 -0.67145544
0003f0 21 4f 69 3f 2a 49 5f bf 95 5d 85 bd 71 d3 13 3f
       0.91136366 -0.87221014 -0.0651199 0.5774451

rnn.weight_hh_l0 f4 [48, 16]
000000 68 e0 8f bf d2 60 71 bf 8c 64 1a bf 3b 62 61 bf
       -1.1240358 -0.9428836 -0.6030967 -0.8804051
000010 7a 63 bf be f6 1b bd 3d 93 a9 6e bf 8a 06 21 bf
       -0.37380582 0.09233849 -0.932275 -0.629006
000020 9d 49 05 bf 15 9f 6d 3f 0f da 7b 3d 18 88 90 3e
       -0.5206545 0.92820865 0.061487254 0.2822883
000030 ea eb b8 3e 92 21 4a be 99 df 27 bf a1 36 08 be
       0.36117488 -0.19739369 -0.6557556 -0.1330209
000040 b0 32 78 bf a5 bf 35 bf 4d 94 2d bf 9c 9e 70 bf
       -0.96952343 -0.7099555 -0.67804414 -0.9399202
000050 8a 55 11 bf d9 43 d2 3e 74 a4 26 bf 26 58 76 be
       -0.5677115 0.4106739 -0.65094686 -0.24057063
000060 42 04 36 bf a3 db 76 3f e3 eb 80 be 84 13 17 3f
       -0.71100247 0.9642889 -0.25179967 0.59014153
000070 c2 8b 2d 3e a7 50 ed 3e 97 f8 d3 be 99 a0 e3 3e
       0.16947845 0.46350595 -0.41400596 0.44458464
000080 d8 d7 93 3d 9f bb d5 bd 1a c2 e1 be b0 87 5d 3c
       0.07218903 -0.104361765 -0.440934 0.01352112
000090 36 7f cf be 05 0e 98 3e 40 00 b4 3c f7 33 5e be
       -0.40526742 0.29698196 0.021972775 -0.2169951
0000a0 91 36 7f be d8 79 f9 bd af ea ac 3e f9 b2 3e be
       -0.24923159 -0.12181443 0.337728 -0.1862296
0000b0 36 05 e0 3d 95 ab fa 3e 62 1d 41 be 24 47 8f bf
       0.10938494 0.48959032 -0.18858865 -1.1193585
0000c0 ea 26 72 3e b0 96 ae 3e 83 f1 d5 3e 1e 03 03 c0
       0.23647657 0.3409934 0.4178582 -2.0470653
0000d0 f4 ea d3 3f 1d dd 69 3f ac 89 94 3e 9d ab 86 3f
       1.6556077 0.9135302 0.29011285 1.0521122
0000e0 9c 80 7e bf bd 5a 17 bf e6 81 fd 3e de 2a ab bb
       -0.9941499 -0.5912283 0.49513167 -0.005223616
0000f0 53 95 15 40 ec ac ff 3f 46 28 83 3e f9 8e fe be
       2.337239 1.9974647 0.25616664 -0.49718454
000100 9c 56 ce 3e b5 67 18 3f 5a 23 00 3f c0 b7 8a be
       0.40300453 0.59533244 0.5005394 -0.27093315
000110 98 72 ee 3e bb 75 04 be fd e8 c9 3e 98 64 a4 3f
       0.46571803 -0.12935536 0.39435568 1.2843199
000120 34 54 24 3e f5 a4 43 bf 9b 4b 0a 3f 15 db 3e bc
       0.16047746 -0.7642358 0.54021615 -0.011648913
000130 39 ad ec bd 6f 77 03 3b 26 31 f8 3e ac 0f bb be
       -0.11556477 0.0020060202 0.48474997 -0.36535394
000140 9b 92 17 3f f0 10 c4 3e 8d e4 33 3e 9d 3d 59 3f
       0.5920808 0.38294172 0.17567654 0.8485964
000150 49 3c 40 3f 55 0e 32 be 3a 44 c5 3e 73 dd 2d 3f
       0.7509199 -0.1738828 0.38528615 0.6791603
000160 ea c7 19 3f 1d 13 5f bf a6 cd 20 bd 6a d0 53 3e
       0.6007067 -0.8713854 -0.03925862 0.20684972
000170 fc 91 9f 3e 4d e9 67 3e 32 51 1a 3d 45 c2 ed bd
       0.31166065 0.22647591 0.03767509 -0.116093196
000180 7d 14 6e bf cc ef 19 be 2c 9b 55 bf 1b 5f 11 bf
       -0.9300001 -0.15032881 -0.834399 -0.56785744
000190 f8 eb 57 be 02 a3 4e 3f 41 b5 dc be e4 71 a3 3e
       -0.21086109 0.8071748 -0.43107036 0.3192283
0001a0 d4 37 10 3e 68 75 9c 3e c8 61 c9 be f1 31 36 bf
       0.14083797 0.30558324 -0.39332414 -0.71169955
0001b0 f1 df 51 3f 01 e0 0f 3e 6e 3d 15 bf b8 ff d6 3e
       0.8198233 0.14050294 -0.5829686 0.41991973
0001c0 38 db 80 3d 47 31 85 3f 3e 3d 80 3f 68 65 57 3e
       0.06291813 1.0405663 1.001869 0.21034777
0001d0 e8 79 0e 3f 9d 80 35 3c 1d 65 5c 3f 02 cc ae 3f
       0.55654764 0.011078027 0.86091787 1.3656008
0001e0 4e a2 84 bd 5c 7e ea be 2b 22 f8 3e fc 95 cf be
       -0.0647627 -0.4579953 0.48463568 -0.40544116
0001f0 fb 2e 98 3e 2c 9e 07 bf 9b fc 6e 3e 9d 1f 18 3f
       0.29723343 -0.52975726 0.23338549 0.5942324
000200 2c 78 cf 3e 08 6f 0b 3f 0c 61 3c be 86 cd dc bf
       0.4052137 0.54466295 -0.18396395 -1.7250221
000210 04 70 52 3f a3 e8 de 3e 74 6b 4e 3d 7a ee c6 3e
       0.8220217 0.43536863 0.050395444 0.38853818
000220 f5 8d 7c bf a8 c0 0f bf 2d db 1e be e6 57 7c be
       -0.9865411 -0.56153345 -0.15513296 -0.24642906
000230 05 e8 02 3f 3d f7 1f 40 cc f2 75 be f1 e0 0e bf
       0.51135284 2.4994652 -0.24018401 -0.55811983
000240 40 4a 09 bf 4e f5 9a be 97 5a b7 bf 4f 6e 9c bf
       -0.5362892 -0.30265278 -1.4324521 -1.2221164
000250 bd 40 aa be f7 ec aa bd 17 5d 27 bf 60 f8 25 3e
       -0.33252516 -0.08345979 -0.6537642 0.16208029
000260 78 01 b2 3e f1 85 29 3f 18 a1 60 3e 69 b0 3d be
       0.34766746 0.66220003 0.21936452 -0.18524326
000270 51 98 67 3f 2f 82 8d 3f 81 88 d0 bd 50 2f c2 bc
       0.9046679 1.1055354 -0.10182286 -0.023704201
000280 07 78 c1 b9 09 90 9a be 4c 8d 54 3f cb 07 87 3e
       -0.00036901256 -0.30188015 0.830281 0.26373133
000290 99 37 2f bf 83 e6 91 bf 34 88 f2 be 6c a9 4f bf
       -0.6844421 -1.1398472 -0.4736954 -0.8111789
0002a0 5c 0b 38 be 74 a3 ca 3e 3a ef a0 bf d3 24 d5 be
       -0.17973083 0.3957783 -1.2573006 -0.41629657
0002b0 d4 3a c3 bf b0 d6 31 bf f4 7c 48 3f 9c 53 3b 3f
       -1.5252328 -0.6946821 0.78315663 0.7317445
0002c0 b3 bd 26 3e d9 c2 47 3f 45 59 0b 3e 30 b0 67 3e
       0.16283302 0.7803169 0.13608272 0.22625804
0002d0 ea b9 5e be 8d 44 ad 3e e7 a0 0c 3f cb e1 9a 3e
       -0.21750608 0.33841363 0.5493302 0.3025039
0002e0 27 e8 d6 3d 3e d2 12 bf a3 0b b7 3e 58 e0 5c 3d
       0.10493498 -0.57352054 0.35751066 0.05392489
0002f0 a1 58 98 3e fe 47 13 3f c5 47 36 bc 93 46 6e be
       0.29755118 0.57531726 -0.01112551 -0.2326911
000300 a1 71 c0 3e 05 33 cf 3e ba 33 08 bf 05 4a 1b 3f
       0.37586692 0.40468612 -0.5320393 0.6065982
000310 47 89 f6 3e 72 47 ac be de d1 84 3e 65 6e 90 3e
       0.4815161 -0.33648258 0.25941366 0.28209224
000320 fb fc 0f 3f bc 90 cd be 75 ce 4a bd 09 d2 2c be
       0.5624539 -0.40149486 -0.0495133 -0.16876997
000330 8b db c2 3d fe fc 2e 3e 7e 03 0c bf 2a a8 a0 be
       0.09514531 0.17088696 -0.5469283 -0.313783
000340 1c c3 9b 3e 66 c3 84 3e 6c d5 4b bd c0 0a 48 bf
       0.30422294 0.25930327 -0.04976408 -0.78141403
000350 7d 4f a5 3d b7 64 09 3e bb 49 3b 3e d5 06 2b bf
       0.08071802 0.13417326 0.18289845 -0.668073
000360 68 b8 c5 bd 67 d5 33 be 79 e9 1f 3f 2c 8e 36 3f
       -0.09654313 -0.17561875 0.62465626 0.7131069
000370 eb 79 92 3f 15 ea dd 3f eb f6 43 3e 00 71 5e 3e
       1.1443456 1.7337061 0.1913716 0.21722794
000380 49 2d 38 3e a9 bd 2f 3f 4a e4 69 bf 4e 55 9c be
       0.17986025 0.68648773 -0.91363966 -0.30533832
000390 50 30 39 bf 0e 38 02 3f 0b 05 84 3e cd db a2 bd
       -0.72339344 0.5086678 0.25785097 -0.0795208
0003a0 d8 4b 3b bf c3 52 26 be 20 6f e9 3e dc 01 3a 3e
       -0.73162603 -0.16242509 0.45592594 0.18164772
0003b0 d2 ce 08 be d6 00 34 3e 9e a1 a6 be 40 78 c7 bc
       -0.13360146 0.17578444 -0.3254518 -0.024349332
0003c0 d2 13 d5 3e 3b 0b 1d 3f a9 3f 59 3f 81 05 48 3e
       0.41616684 0.6134526 0.8486276 0.1953335
0003d0 bd a0 c7 3e 89 53 30 bd a8 ce 01 3a cc d8 0a bf
       0.3898982 -0.043048415 0.00049517537 -0.54237056
0003e0 0e 3d 6b be f9 85 fa 3e 43 03 d4 3d c9 d7 8d 3e
       -0.2297251 0.48930338 0.103521846 0.27703694
0003f0 80 6b 8a bc de a7 d5 3e a1 02 23 3d 56 8d b5 3e
       -0.016896963 0.41729635 0.03979743 0.35459393

rnn.bias_ih_l0 f4 [48]
000000 40 69 da 3e 6d 7d 57 3f 76 63 8f be 9c e6 d5 be
       0.42658424 0.8417576 -0.2800557 -0.41777503
000010 2b 87 0a bf 57 ff eb bd fd d1 63 3f e9 e8 c6 be
       -0.541125 -0.115233116 0.8899229 -0.3884957
000020 35 9f 24 3d c3 d5 a5 3e 3e 14 30 be a8 0e 00 bf
       0.040190894 0.3238965 -0.17195222 -0.50022364
000030 81 f7 61 3e da d6 b1 be 9d d6 8a 3d 3b 90 d1 be
       0.22067071 -0.3473423 0.067792155 -0.40930352
000040 60 9a 8e 3d 6e d3 55 3e 85 0e 30 3f f5 b3 6b 3f
       0.069630384 0.20881435 0.68772155 0.9207147
000050 b8 a2 84 3f 1c 89 6d 3f 6d 5f c3 3e 62 88 58 3f
       1.0362158 0.9278734 0.38158742 0.84583104
000060 08 9f 9a 3f 51 b9 27 3f bb 19 c7 3f b2 bf a5 3f
       1.2079782 0.65517145 1.5554727 1.2949126
000070 8f 51 9b 3f cd f9 9c 3f 3a 00 b8 3f 3a 27 f2 3f
       1.2134265 1.2263733 1.4375069 1.8918221
000080 4d 1b d0 be 31 0e e8 be 8a 0a c5 3d 75 72 db 3e
       -0.4064583 -0.45323327 0.09621151 0.4286076
000090 e2 91 13 bd c4 49 6e 3e 07 2a 7a be 38 1e 0b 3e
       -0.036027797 0.23270327 -0.24430095 0.13585746
0000a0 b7 b7 a4 be 96 09 e7 3e bf b5 0a be ce 47 12 3d
       -0.32171413 0.451245 -0.13545893 0.03571301
0000b0 f3 be 59 be dc 85 80 3e c6 15 9c be f8 d3 41 3e
       -0.21264248 0.25102127 -0.30485362 0.18928516

rnn.bias_hh_l0 f4 [48]
000000 a3 d9 19 3f 66 8f 43 3f dc 73 31 3d 6d a2 ae be
       0.6009771 0.76390684 0.043323383 -0.34108296
000010 40 4b 1e be a8 c0 72 be 91 1c 82 3f 25 ce 25 bf
       -0.15458393 -0.23706305 1.0164968 -0.64767677
000020 70 32 23 3e 8c 6e eb 3e 05 a2 00 bf a4 28 17 bf
       0.15937209 0.45982778 -0.5024722 -0.5904639
000030 d5 ad 8c 3e 36 04 65 be 48 14 a5 3c 41 c6 f7 bd
       0.27476373 -0.22364888 0.020151272 -0.12098361
000040 8b c7 18 3e 1c 16 88 3d bf 8b 88 3f 2a 0f 57 3f
       0.1491987 0.06644842 1.0667647 0.84007514
000050 2d 10 a3 3f 29 1b 92 3f 71 49 f7 3e c2 ee a3 3f
       1.2739311 1.1414539 0.4829822 1.2807238
000060 a0 21 9c 3f 7b 91 3b 3f 60 61 b9 3f 5f 52 a4 3f
       1.2197762 0.7326886 1.4482841 1.2837638
000070 5b 07 a9 3f bb 8e 7c 3f 7f 89 b1 3f 90 2a c5 3f
       1.320537 0.9865529 1.3870085 1.5403614
000080 0d fc b5 be bd 75 f3 be e0 db 35 be 61 f8 b8 bd
       -0.35543862 -0.47550765 -0.17759657 -0.090317495
000090 ee 0d 84 be 44 96 7a be bd 42 56 be ed 68 cb 3d
       -0.25791878 -0.24471384 -0.20923896 0.099321224
0000a0 98 7e f1 3c e4 d7 5e 3e 6b 09 a6 bd f6 e6 ab 3e
       0.02947931 0.21762043 -0.08107265 0.33574647
0000b0 de 66 26 be 63 19 c2 3e 96 c6 03 bf f6 34 e4 3e
       -0.16250178 0.37909994 -0.51474893 0.44571656

fc.weight f4 [128, 16]
000000 ed 90 d5 3e 0d 87 03 3f ee 08 95 3d 3f cd 07 be
       0.41712132 0.51377946 0.07277094 -0.13261889
000010 94 34 d5 be 7f f5 65 3e 7d f5 4a 3e bd 6e 1e 3e
       -0.41641676 0.2245693 0.19820209 0.15471931
000020 f7 ff d7 be 51 2e 6b be a9 d8 e7 3e 29 59 f8 3e
       -0.42187473 -0.22966887 0.45282486 0.48505524
000030 d3 19 d9 bd f5 79 1e 3f 09 19 85 be 37 c6 65 bf
       -0.10600629 0.6190484 -0.25995663 -0.89755577
000040 1a c6 b3 bd 69 59 01 be 89 6c 8e 3c 2c f5 65 be
       -0.08778019 -0.12631764 0.017385738 -0.22456807
000050 be 6f 7d be 73 23 5f be 3c c3 98 3e 09 29 5d 3e
       -0.24749658 -0.21790867 0.29836452 0.21597685
000060 49 f6 ac be e4 08 ca 3c 61 87 bc 3e 16 ac 34 3f
       -0.3378165 0.024662443 0.36822036 0.7057508
000070 7c 18 1c bf d0 0c d3 3e a8 9b 38 be 7a a6 60 be
       -0.6097486 0.41220713 -0.18028128 -0.21938506
000080 40 24 47 3c 5c c5 5c bd 41 59 b5 3c b9 ff b4 3d
       0.012154639 -0.053899154 0.022137286 0.08837838
000090 38 1e fe be 28 9e 2c be 20 27 d3 3d 9c 8b 42 bd
       -0.4963243 -0.16857207 0.10310197 -0.047496423
0000a0 0b fd 70 be 45 ea c8 bd 32 11 84 3c 77 af 33 bd
       -0.23534028 -0.09810308 0.01612148 -0.04386851
0000b0 ad 6c f7 bd 4b 21 9b bb cd e3 8a 3a 77 0b 0f 3f
       -0.12081275 -0.0047341934 0.0010596454 0.5587687
0000c0 9c b0 18 bd b7 0f 91 bd e5 7f e5 3e e7 49 36 3f
       -0.037277803 -0.070830755 0.44824138 0.71206516
0000d0 e6 22 70 be 4f 7b f0 be 5b 48 7d be e2 bd 98 b9
       -0.23450813 -0.46969077 -0.24734633 -0.00029133173
0000e0 dc c2 ab bd 27 05 b1 bd 32 d5 75 be f2 c1 ec be
       -0.08386776 -0.08643561 -0.24007109 -0.4624172
0000f0 0f 40 47 bf 79 cc 2e bf cb 37 9b 3d 0d 9e 98 bc
       -0.7783212 -0.6828075 0.07579001 -0.018630052
000100 11 5f 98 3e b4 77 37 3d 92 75 94 be db 9c 83 3e
       0.2976003 0.044791892 -0.2899595 0.2570561
000110 1c 4f eb bd 18 ee 82 3d b3 1e 92 bb e5 aa 42 bd
       -0.11489698 0.06393069 -0.004459226 -0.04752626
000120 db 03 80 3e 6e 53 8e be f6 e2 8d 3e 35 66 4a 3d
       0.2500294 -0.27798027 0.2771222 0.04941388
000130 77 4b 0a 3e ad 2c a7 bd 65 d5 84 3e fe e1 1a bf
       0.1350535 -0.08162818 0.25944057 -0.60501087
000140 08 7c 81 3d 07 35 0b be f4 a9 54 be 66 3e d2 bd
       0.06322485 -0.13594447 -0.20767957 -0.10265808
000150 4e 16 c3 3c f1 99 b4 3d 1d 99 13 bd 1d b4 be bd
       0.023814347 0.088184245 -0.036034692 -0.09311698
000160 3d 9a ab be e1 c5 e3 3c 08 d3 9c bd e6 d7 24 bd
       -0.33516112 0.027804317 -0.076574385 -0.04024496
000170 0e 46 d5 be 33 ca 2b 3f 42 d7 70 3c 1a 5e 4c 3c
       -0.4165501 0.67105407 0.014699759 0.012473607
000180 64 1e 87 3e bf 32 92 3c fb 24 b4 be 4f 64 18 bf
       0.26390374 0.017846463 -0.35184464 -0.5952806
000190 4f f9 d2 bd ea 6b 50 3d 2c 84 e3 bd 5b b3 d7 bc
       -0.10301458 0.050884165 -0.11109194 -0.02633064
0001a0 9b 13 b4 bd 6c 9b 9b 3d 91 76 96 3e a1 fe 94 3e
       -0.08792802 0.07598004 0.29387334 0.29100516
0001b0 0b 62 e9 3d f1 9f 8b 3e 33 a3 55 3e 3f c6 8e be
       0.11395653 0.27270463 0.20863037 -0.27885625
0001c0 2f a2 ea bc a0 b7 e0 3d a4 a2 b9 3d 7a 17 60 3e
       -0.028641788 0.10972524 0.09064224 0.21883956
0001d0 dd ef 38 3e cb 53 8b 3e 74 33 b8 3d e2 af 1b 3e
       0.1806025 0.27212366 0.08994189 0.15203813
0001e0 3b 56 1f be 2b 3e a9 be 40 8d 90 be 76 b2 51 be
       -0.15560238 -0.33055243 -0.28232765 -0.20478234
0001f0 e6 b2 11 bf 2d 8e 4e be db 45 aa 3e c0 40 37 3e
       -0.569136 -0.20171423 0.3325642 0.17895794
000200 29 d0 b4 3e c3 58 53 3e 81 36 b6 3c 00 ed c6 3d
       0.35315064 0.20639329 0.022242786 0.09713173
000210 11 f2 c4 bd 7d 80 31 be 1e 02 f8 3d 7d c8 5f be
       -0.09616483 -0.1733417 0.12109779 -0.21853824
000220 58 90 d4 bd 19 fd 80 bc 5a 39 af 3e a5 49 2c 3d
       -0.10379094 -0.015745686 0.34223443 0.04206242
000230 df a1 26 3c 99 ee 95 be f6 c6 c8 bd 7e 27 34 3d
       0.010170429 -0.29283598 -0.09803574 0.043982975
000240 6d d2 a1 3e e6 2d 9a 3d 44 87 4b be 2c 65 8a 3e
       0.31605855 0.07528286 -0.19875818 0.27030313
000250 b3 b9 24 3e 12 94 d1 bc 4a 1e 1a 3e 46 03 fa be
       0.16086464 -0.0255833 0.15050617 -0.48830622
000260 b8 79 00 3e fc 0f 96 be 0c f9 19 3d 89 d2 13 3e
       0.12546432 -0.2930907 0.037591025 0.14435782
000270 da 7f 12 bf d5 cb 9d bd f6 1b 9d 3e ea 88 6a be
       -0.57226336 -0.077048935 0.30685395 -0.22903791
000280 c3 a5 e3 bd bb c0 b2 be 9f 76 14 be 51 4e a6 be
       -0.11115601 -0.34912667 -0.14498375 -0.32481626
000290 b2 18 fc be 3e 0f 9f bd da 36 63 3d 27 7d f7 bd
       -0.4923759 -0.07766579 0.055472232 -0.12084418
0002a0 9d 7d 3e 3e 61 e9 ac 3e 3e 5d 71 be e8 cf c9 bd
       0.18602605 0.33771804 -0.23570725 -0.09854108
0002b0 66 74 82 3e 1a c4 21 be 44 74 9e be 92 94 e6 bc
       0.2547943 -0.15797463 -0.3094808 -0.028147016
0002c0 fe 45 84 3e 3e 3a 0b bd 05 91 27 be 07 bf 33 3e
       0.2583465 -0.03399109 -0.16363914 0.1755334
0002d0 71 5e 17 3e 1f e0 8d bd 66 94 95 3c ad ff c7 bd
       0.1478212 -0.06927513 0.018259238 -0.09765563
0002e0 83 5c b2 bc 13 b3 06 3e 0c b5 b1 3d b5 53 b0 bd
       -0.021772629 0.13154249 0.0867711 -0.08609716
0002f0 58 4e 8e 3e 20 34 de bd 8c a0 1e 3d 03 2a ed bd
       0.27794147 -0.10849786 0.03872733 -0.11580279
000300 d0 96 46 bd 91 02 a5 bc c1 d5 6c be b7 84 04 be
       -0.04848367 -0.020142825 -0.23128416 -0.12941252
000310 0a cb 07 be cc 3f ed bc c8 f0 0e 3e c5 27 56 3e
       -0.13261047 -0.028961085 0.13959038 0.20913608
000320 80 e5 02 be ce 01 bd 3d e2 be 69 3e dd 2e b2 3e
       -0.1278286 0.0922886 0.22826722 0.3480138
000330 56 59 83 be ff 8f 73 3e d6 26 dd 3d 3f c8 98 be
       -0.25654095 0.23785399 0.10798423 -0.29840276
000340 23 db 3d bc 09 66 2e 3e 26 8a a5 3b af d3 10 be
       -0.011587891 0.17031111 0.005051869 -0.14143251
000350 58 9c e0 3c d4 8c 61 3d e8 cb 4b 3e ad 38 b7 3e
       0.0274183 0.055065945 0.19902003 0.35785428
000360 f2 04 57 be d8 37 78 bd c8 96 9a bd ce aa 3f bd
       -0.2099798 -0.06060013 -0.075482905 -0.04679375
000370 d9 7f 4a bd 45 5a 90 3c 44 19 07 3e fb c9 8a 3d
       -0.04943833 0.017621169 0.13193232 0.06776806
000380 18 69 94 3d 09 5f 2a be 1a e5 03 be df 77 fe be
       0.072466075 -0.16637816 -0.12880364 -0.4970083
000390 c0 9b d2 bd 2f 4d d7 3d 63 2a 4a be 5b 4a 55 3e
       -0.10283613 0.105127685 -0.19742732 0.20829146
0003a0 da 36 e0 be cf 69 cc 3d 54 ed b8 bd 50 fe 5f 3d
       -0.43791848 0.09981119 -0.09029642 0.05468589
0003b0 d2 cc 98 bd bc 78 74 3a 9c 30 32 3e 2a a9 d0 be
       -0.074609414 0.0009325852 0.17401356 -0.40754062
0003c0 33 99 b4 3e a4 78 4a 3d 38 ba 6c 3d 23 c6 f5 bd
       0.35273132 0.049431458 0.05779478 -0.12000682
0003d0 17 e0 7c 3e 44 93 43 3d b9 99 da 3e 37 11 58 be
       0.24694858 0.047747865 0.42695406 -0.21100317
0003e0 92 c5 af be ac 35 4d be c8 3a 20 be 44 cd 30 3e
       -0.34330422 -0.20040005 -0.15647423 0.17265803
0003f0 cd 39 8c bd 15 28 df 3e b2 4b 3b be a5 b5 70 3e
       -0.06846962 0.43585268 -0.18290594 0.23506792

fc.bias f4 [128]
000000 dd a9 84 be 28 bf 1a be 24 ee 1d 3e 5d 84 cd 3d
       -0.25910845 -0.15111983 0.15422875 0.10035012
000010 25 e7 28 3e 21 9f 53 bd af b1 c4 3b 53 5b 9d be
       0.16494425 -0.05166543 0.006002627 -0.30733737
000020 ec 34 fe 3d 2c cf c9 bd 05 bb dc 3e 62 11 1b be
       0.12412438 -0.09853968 0.43111435 -0.1514335
000030 77 bf 92 be 07 72 9d bc 4a 63 90 3e e3 3d bb bd
       -0.286617 -0.019219412 0.28200752 -0.09142663
000040 9a 0b b3 be ad aa 46 bc a9 5a e8 bc 5b 50 58 be
       -0.3496979 -0.012125653 -0.028363543 -0.21124403
000050 fc 45 05 bf 9a bc ad 3b 3d b1 97 3e 28 07 1c be
       -0.5205991 0.005302024 0.2962741 -0.15237105
000060 12 86 e7 3c 3b a9 6a 3e 1a 3d b9 3e 6a fd 20 3f
       0.028262172 0.22916119 0.3617943 0.6288668
000070 02 78 c2 3e 53 ce 91 be 61 34 4a 3c 3a d4 a7 bc
       0.37982184 -0.28477725 0.01234159 -0.02048694
000080 4e 8c be 3d b8 2c e1 bd c1 59 4f 3d 68 b3 8b be
       0.09304105 -0.109948575 0.050622705 -0.27285314
000090 57 97 9a bc 16 d4 2e be 50 f3 5a 3e c1 ac 00 be
       -0.018870993 -0.17073092 0.21381879 -0.125659
0000a0 56 14 0f 3f e9 de 96 3d 46 af 45 3e bb fb 98 be
       0.55890405 0.073667355 0.19305143 -0.29879555
0000b0 da 57 b6 3c f3 f2 0d be 58 52 ee be dc 31 03 bf
       0.022258688 -0.13862209 -0.46547198 -0.51247954
0000c0 8e 0c 9e 3e 28 81 2d be 3b 33 b9 3e f7 ae 49 be
       0.30868953 -0.169438 0.36171898 -0.1969565
0000d0 b9 3a 9f 3d 3b cc 7b 3e 25 4c cb 3e 15 d2 17 be
       0.07774872 0.24589626 0.3970653 -0.14826234
0000e0 cb be a6 be f6 54 06 3d 78 d5 35 bc 22 ec 81 3e
       -0.32567438 0.03279587 -0.011098258 0.25375468
0000f0 f9 87 b6 be c4 cc 0a 3d a7 d7 48 3e 48 f6 cd be
       -0.35650614 0.033886686 0.19613515 -0.4022696
000100 b4 76 9c 3c 2a 36 a3 be ee b6 96 3e 10 89 1a 3e
       0.01909957 -0.3187726 0.2943644 0.15091348
000110 94 d8 9b be 94 ff 15 be 40 9a 1b be 0d c2 d0 bd
       -0.30438673 -0.14648277 -0.1519556 -0.10193262
000120 d6 02 af 3e c3 90 bb bd f1 4b 76 be c4 bf ae 3e
       0.3418185 -0.091584705 -0.24052407 0.3413068
000130 ea ce d2 bd d6 c4 4f 3d 8c 5b 20 3d 83 66 8a 3d
       -0.10293372 0.050724827 0.039149806 0.06757834
000140 b2 79 54 bd 00 28 b0 bd 69 2c cd 3e 3a 6b 15 be
       -0.05187387 -0.086013794 0.40072945 -0.14591685
000150 21 a0 db 3e 69 73 a4 3e e0 37 8b 3e 3f 6a 5b 3d
       0.42895606 0.321193 0.27191067 0.05356812
000160 c4 57 ac 3e 25 76 09 bf 6f 29 66 bd af 0b 3a 3d
       0.3366071 -0.536959 -0.056191858 0.0454213
000170 8b e9 13 be 9e 1d 9e 3d 45 46 aa be 80 24 b9 be
       -0.14444558 0.07720493 -0.33256736 -0.3616066
000180 e8 3a 85 be df 46 1b be 12 f2 a0 3d 6e c9 09 be
       -0.26021504 -0.15163754 0.07858671 -0.13455746
000190 81 85 fa bd f7 a5 0e 3f b2 d6 6c 3d 91 25 30 be
       -0.12232495 0.5572199 0.057821937 -0.1720183
0001a0 4b 2e 88 be fc 6a 71 bd a4 c5 60 3d bf c7 04 bf
       -0.2659782 -0.05893992 0.054875985 -0.5186729
0001b0 0c 55 bf be 31 25 1d 3e 62 c2 01 3e e2 94 b6 bd
       -0.37369573 0.15346219 0.12671807 -0.08915116
0001c0 00 ab 63 bd bb de 01 bf 5a e0 f5 3d 22 a2 a7 3e
       -0.055583 -0.50730485 0.12005682 0.32740885
0001d0 f7 9b f0 be f0 8e 8a 3c a2 79 24 be 9e 32 6b be
       -0.46993992 0.016913861 -0.16062024 -0.22968528
0001e0 a0 14 9a be 2f 80 3b 3d 70 dc 63 bd 63 53 53 be
       -0.3009386 0.045776542 -0.055630147 -0.20637278
0001f0 ca 14 cc 3e 80 41 70 be d7 44 56 3d 38 33 47 3e
       0.3985961 -0.23462486 0.052311745 0.19453132

mlp.0.weight f4 [16, 360]
000000 ad f9 32 3e db 19 3f 3e 3f 53 bd 3d c9 01 00 3e
       0.17478056 0.18662207 0.092443936 0.12500681
000010 e6 12 f8 3d 91 38 18 3e ca 6d 1e 3e 7b 5b 2a 3e
       0.121129796 0.14865328 0.15471569 0.1663646
000020 42 cc ba 3d 7e df f7 3d 24 6f f6 3d 5f ab 45 3e
       0.0912099 0.121031746 0.12032917 0.19303654
000030 61 54 18 3e ad e0 16 3e c7 63 d1 3d 8f c4 05 3e
       0.14875938 0.14734145 0.10224109 0.13063262
000040 4f 09 43 3e da 89 ee 3d 07 d5 2d 3e fc e1 20 3e
       0.1904652 0.11647387 0.16975795 0.15711206
000050 56 18 c8 3d 8a 20 1b 3e 00 93 11 3e 7f aa f0 3d
       0.09770267 0.15149131 0.14216232 0.117512695
000060 d5 61 d0 3d 4a 41 d7 3d d3 6b ef 3d 74 2a 1c 3e
       0.1017491 0.105105 0.11690488 0.1525057
000070 dd 04 2d 3e 8a d5 06 3e 40 5b 01 3e d4 30 16 3e
       0.16896386 0.13167396 0.12632465 0.14667064
000080 9c 21 da 3d 81 0d ff 3d c4 9d 40 3e 24 c6 43 3e
       0.10650942 0.124537475 0.18810183 0.19118553
000090 34 15 de 3d 5d bb 3e 3e 24 b4 3f 3e 3a 65 0d 3e
       0.10843888 0.18626161 0.18721062 0.13808146
0000a0 72 0e e6 3d d2 06 07 3e 4a 2a 17 3e 63 0c a4 3d
       0.11233224 0.13186195 0.14762226 0.08010175
0000b0 b3 ec 78 3d 34 69 eb 3d e0 ae fa 3d 41 02 39 3d
       0.06077261 0.11494675 0.12240386 0.045168165
0000c0 c8 bb 9f 3d 1a a2 64 3d a9 a3 93 3d b7 9b 5a 3c
       0.07799488 0.055818655 0.0720895 0.013342789
0000d0 2e b3 ce 3d 11 b0 f1 3c cf 7a b1 3d 52 2c 80 3d
       0.100927696 0.0295029 0.08666002 0.062584534
0000e0 46 d8 82 3d 2e 38 95 3d 8f 55 a7 3d c9 b4 c7 3d
       0.06388907 0.07286106 0.08170616 0.09751279
0000f0 66 dd 89 3d f0 e6 70 3d ef b8 00 3d b4 c6 19 3c
       0.067316815 0.05881399 0.031426366 0.009385753
000100 a8 f1 9f 3d 18 05 1e 3d 7a 13 ad 3b a7 3d 86 3d
       0.07809764 0.038579077 0.005281863 0.06554728
000110 86 1b 7a 3d 43 28 99 3c ae 5a a4 bb 9b 40 92 bc
       0.061061405 0.018695956 -0.0050156927 -0.017853072
000120 1d 24 0e bd 1b c6 ec bc 05 e7 26 bd 2b ae ff bc
       -0.03470241 -0.028903058 -0.04074766 -0.03121098
000130 1f 88 9a 3c 9f 14 94 bd 8c eb 84 3c 6a 5e 8d 3b
       0.018863736 -0.07230496 0.016225599 0.0043142335
000140 da 37 24 bd 63 37 77 bd ee 44 85 bd 9d 02 f5 bc
       -0.040092327 -0.060355555 -0.06507288 -0.029908473
000150 a7 59 5a bd 2e e5 eb bc 7f f0 3e bd f4 d6 1b ba
       -0.053308155 -0.028795805 -0.046616074 -0.0005944811
000160 a3 e0 ad bc 98 64 85 3d cb ec 19 3d 07 f4 e3 3c
       -0.02122528 0.06513327 0.03757934 0.027826322
000170 61 80 cd 3d 30 2b e4 3d 58 c3 15 3e c7 03 1c 3e
       0.10034252 0.1114105 0.14625299 0.15235816
000180 d5 80 1d 3e 4f 78 10 3e 6a 63 3d 3e c2 e0 23 3e
       0.15381177 0.14108394 0.18494955 0.16003707
000190 8f 77 30 3e fb 01 16 3e a9 5a 18 3e 27 d6 0e 3e
       0.17233108 0.14649193 0.14878334 0.1394888
0001a0 97 1e ff 3d 8d e8 d7 3d 64 4a b7 3d 89 3b c3 3d
       0.124570064 0.105424024 0.08949736 0.0953284
0001b0 3e 23 97 3d b8 1b b3 3d 30 56 05 3e bc ba 23 3e
       0.07379769 0.08745521 0.13021159 0.15989202
0001c0 02 1f ca 3d 8d ae 25 3e d8 eb 1e 3e eb 73 22 3e
       0.098691955 0.16179867 0.15519655 0.15864532
0001d0 84 df 13 3e 9f e9 07 3e ac b4 79 3e 4f e9 64 3e
       0.14440733 0.13272713 0.24385327 0.22354625
0001e0 b4 5c 22 3e 42 e4 37 3e 5d c4 30 3e ed 1d 42 3e
       0.15855676 0.17958167 0.17262407 0.18956728
0001f0 a1 87 5e 3e d3 5f 38 3e 1c 5d 49 3e eb 21 25 3e
       0.21731426 0.18005304 0.19664425 0.1612622
000200 8f 35 35 3e 02 09 3e 3e b3 4e a4 3d 42 22 27 3e
       0.17696212 0.18558124 0.08022823 0.16321662
000210 5c 63 f8 3d 56 a0 04 3e 96 20 44 3d 92 62 57 3d
       0.12128326 0.12951788 0.04788264 0.05258424
000220 b1 c2 23 3d 72 45 63 3d 28 99 ab 3d 3f cb f8 3c
       0.039980594 0.05548615 0.083788216 0.030370353
000230 97 1f eb 3c fb 4a aa 3d 63 2a 60 3c cc 8d d8 3d
       0.028701587 0.08315083 0.013681981 0.105739206
000240 94 e4 e8 3d e9 3d 07 3e 06 6b 0e 3d 64 bf 8c 3d
       0.11371723 0.1320721 0.034770034 0.06872442
000250 ec 4a 02 3e b8 de d5 3d 0b 0b 19 3e d5 e1 af 3d
       0.12723893 0.10442871 0.14945619 0.08587996
000260 3d 0f 30 3e f9 2a c8 3d d6 f3 30 3e f9 36 c7 3d
       0.17193313 0.097738214 0.17280516 0.09727282
000270 3b 25 42 3e 86 f8 0d 3e 9c d7 c8 3d 48 22 26 3e
       0.18959515 0.13864335 0.09806749 0.16224015
000280 94 e1 43 3e d0 57 cf 3d 8c 73 28 3e 8b 8f 00 3e
       0.1912902 0.10124171 0.16450328 0.12554757
000290 cf 81 14 3e 44 c6 4b 3e b6 28 eb 3d ff 0a 4b 3e
       0.14502643 0.19899851 0.11482374 0.19828413
0002a0 ec 8c 4a 3e ee 30 0b 3e 04 9c 50 3e 2c 8b 2e 3e
       0.1978032 0.13592884 0.20372015 0.17045277
0002b0 45 11 71 3e 59 f3 53 3e f1 6e 52 3e 6c 70 84 3e
       0.23541744 0.20698299 0.20550133 0.2586702
0002c0 d9 c8 83 3e f4 f6 6f 3e ff 37 63 3e 90 1a 23 3e
       0.25739172 0.23434049 0.2218933 0.15928102
0002d0 4c f6 6b 3e ac 40 44 3e d9 f5 fd 3d bd b9 29 3e
       0.23043174 0.19165295 0.12400407 0.1657476
0002e0 85 c2 eb 3d c2 f0 5d 3d 45 87 25 3d e0 17 e1 3b
       0.11511711 0.054184683 0.040412206 0.006869301
0002f0 c6 1f 08 bd bd 04 0d 3c 14 44 9c bc ea 9e 90 bc
       -0.033233427 0.008607087 -0.01907543 -0.017653901
000300 12 22 90 bd 36 ea 89 3c 3d 30 5e 3d 01 16 c5 bc
       -0.070377484 0.016835313 0.054245222 -0.024058344
000310 86 f6 fa 3c c4 02 63 3d 8f 84 78 3c c8 45 22 3d
       0.03063513 0.05542256 0.015168323 0.03961733
000320 34 21 89 3d 37 51 7b 3d 69 36 79 3c 36 51 32 bd
       0.06695786 0.06135675 0.015210726 -0.04353448
000330 82 40 ab bc 9a 3f d5 3b 47 c4 36 bd c6 d1 04 be
       -0.020904783 0.006507826 -0.04462078 -0.12970647
000340 e2 4b c2 bd fc 78 c2 bd ed 03 18 be 10 e9 3a be
       -0.0948713 -0.09495732 -0.14845248 -0.18252969
000350 1d 14 21 be 23 18 56 be 7e 2c 4c be 81 50 66 be
       -0.15730329 -0.20907645 -0.19938847 -0.22491647
000360 05 27 5e be 24 57 84 be 5c 9d 54 be a0 6c 2e be
       -0.21694572 -0.25847733 -0.20763153 -0.17033625
000370 9b 5b 35 be 51 27 45 be 09 96 09 be a1 f0 0a be
       -0.17710726 -0.1925328 -0.1343614 -0.13568355
000380 cd 86 cb bd 27 b8 8c bd 9c 50 c3 bd 0b cc fb bd
       -0.099378206 -0.06871062 -0.095368594 -0.122947775
000390 14 a5 2a be 98 4b 1b be ed 06 50 be 17 b8 5c be
       -0.16664535 -0.15165555 -0.20315142 -0.215546
0003a0 d5 8c 62 be 43 22 2c be b7 69 14 be af 1f 4c be
       -0.22124036 -0.16809945 -0.14493452 -0.19933961
0003b0 74 f8 1e be 4a 49 29 be a5 ef 33 be d6 12 47 be
       -0.15524465 -0.16531864 -0.17571886 -0.19440779
0003c0 03 bc 1c be bf a9 34 be 00 68 36 be 03 b6 d5 bd
       -0.15306096 -0.17642878 -0.1781311 -0.104351066
0003d0 2a 22 b3 bd 9d b1 32 be 2b 80 31 be 68 76 d1 bd
       -0.08746751 -0.17450567 -0.17334048 -0.10227662
0003e0 53 f5 fe bd 2e 4a 07 be 69 6d 27 be da dc 87 be
       -0.12449136 -0.13211891 -0.1635033 -0.26535684
0003f0 6a f9 86 be e1 44 72 be ad 7b a4 be 3d 59 84 be
       -0.26362163 -0.23659088 -0.32125607 -0.25849333

mlp.0.bias f4 [16]
000000 25 b7 6d 3d 3e c0 df 3d e2 98 7a bd b8 66 e6 3d
       0.05803599 0.10925339 -0.061180957 0.11250061
000010 f2 16 46 bd c9 f1 23 be a9 a4 14 bd b4 54 46 bd
       -0.048361726 -0.16010202 -0.036289845 -0.048420623
000020 ef ef 6b bd 18 16 01 3d fc 77 ab bd 1a 87 4c 3c
       -0.057601865 0.03151521 -0.083724946 0.012483383
000030 3c 2c cd bd a5 95 b3 3b ab 50 07 bd 8d e8 be bd
       -0.10018203 0.0054804855 -0.033035915 -0.09321699

mlp.2.weight f4 [16, 16]
000000 bd 43 66 be 32 7c a2 3e d5 0b 80 3b 14 06 1d 3e
       -0.22486778 0.31735379 0.0039076605 0.1533435
000010 4d 3c 32 3c 70 b3 2e bd d0 89 a5 bc 7b 70 a8 3c
       0.010878635 -0.042651594 -0.020207316 0.020561447
000020 07 48 e6 3b 8c 6d 7c bd 18 48 ae 3a a3 43 09 3e
       0.0070276293 -0.06162791 0.0013296632 0.13404708
000030 10 38 a9 3c a3 91 a1 3d 18 ac 1a 3c 8c d8 48 3c
       0.020656615 0.07889106 0.009440444 0.01225866
000040 79 a5 c0 3c 1b b1 fd bb 6f 07 50 3d 0a c9 11 3e
       0.023516404 -0.00774206 0.05078834 0.14236847
000050 ad 2a 1f be e1 df 9f bc 28 99 94 be e9 ab 6d 3d
       -0.15543623 -0.019515933 -0.290231 0.058025274
000060 6a c0 06 3d 41 37 a4 be a9 e9 26 be 2e a6 a7 be
       0.032898344 -0.32073405 -0.16300072 -0.32743973
000070 04 bd b9 3c ca 13 e2 3d 54 05 97 bd 85 cb ca 3d
       0.022673137 0.11038931 -0.07374063 0.099020995
000080 be 72 b8 bd a8 51 f9 bc ed bd 98 3e b6 fc 62 be
       -0.0900626 -0.030434445 0.29832402 -0.22166714
000090 f5 44 03 bd 5e 65 b6 3b 81 16 e5 bd 83 a4 0e 3b
       -0.032048184 0.005566283 -0.11185933 0.0021765537
0000a0 bd 6d d9 3c ce b2 1a be bb eb 1f 3e 60 99 c7 bd
       0.026541585 -0.15107271 0.15617268 -0.09746051
0000b0 5a 67 16 bd 19 2d 55 3c 29 51 6c 3d ff 83 3f 3e
       -0.036719657 0.01301124 0.057694588 0.18702696
0000c0 4b c4 98 be 86 71 14 3e 7f 13 06 bb 57 30 d8 be
       -0.2983726 0.14496431 -0.0020458398 -0.4222438
0000d0 c4 5e c0 bc e8 f9 6b bc c8 87 21 3c 86 44 cf bb
       -0.023482688 -0.014402844 0.009859033 -0.0063253073
0000e0 ca 52 bd bc 92 1c ae be 74 2d 35 bc cc 03 9f bb
       -0.023110766 -0.34006172 -0.0110582 -0.0048527475
0000f0 f5 34 48 3c 20 6d 1f 3e 6f 25 a9 3a 9e 82 3a ba
       0.012219657 0.15568972 0.0012904833 -0.00071148004
000100 7e 6f 74 3e 33 b0 b0 3e f1 8b 8b 3e 36 d1 ad bc
       0.23870656 0.3450943 0.27255204 -0.021217924
000110 4e 40 47 3e 76 4e 10 3d 0f 66 6c 3e b8 51 fd bd
       0.19458124 0.035231076 0.23085807 -0.12369102
000120 0b 33 fc 39 3c e6 55 3e 2b 93 16 be 94 1e 2a be
       0.00048103216 0.20888609 -0.14704578 -0.16613227
000130 fb 13 02 be 70 25 0a 3e 9a 35 a7 3d db 3c 90 3e
       -0.12702934 0.13490844 0.081645206 0.2817143
000140 d1 c9 09 bd dd 70 c1 3e f0 a9 12 bc 81 41 90 3e
       -0.033639733 0.3778142 -0.008951649 0.28174976
000150 19 5e 29 bc cc 78 73 bd 52 e9 7c 3c 5a ed 8e bc
       -0.010337376 -0.059441373 0.015436487 -0.017447162
000160 f6 20 5b b9 45 d6 8f be 0e c8 ca bb 85 29 28 3e
       -0.00020897746 -0.28093162 -0.006188399 0.16422088
000170 d6 b4 5a 3c d4 a6 4f 3e d6 68 8f 3b a4 ba 8d 3c
       0.013348779 0.20278484 0.004376511 0.017300911
000180 19 6e 07 3c b7 f5 15 bf 7e 2c 0c 3e 4e cc bd 3d
       0.008265995 -0.58578056 0.13688847 0.09267484
000190 99 e9 25 be 21 38 62 be ac 1b 3f 3d 80 13 7f bd
       -0.16202392 -0.22091724 0.04665725 -0.062274456
0001a0 94 99 27 3d 30 2b 9a 3e a6 55 15 3e 82 ad d2 be
       0.040917948 0.30111074 0.14583454 -0.41148
0001b0 20 94 81 be ff a1 a9 bc f5 6c 91 bd 10 9d 30 3e
       -0.25308323 -0.020707129 -0.0710086 0.17247415
0001c0 90 a2 34 be 1b 15 31 be 86 62 c0 3d c4 1d 2c be
       -0.17640138 -0.17293207 0.09393792 -0.1680823
0001d0 55 42 10 be 20 dd 1c bd 9c 05 68 3d 20 3e d1 bc
       -0.14087804 -0.03829682 0.056645975 -0.025542319
0001e0 14 40 f4 3b 41 2d ba be 3c 16 52 3e 08 81 45 be
       0.007453928 -0.3636265 0.20516294 -0.19287503
0001f0 18 70 90 bd db 18 3b bc 92 df 76 3e 60 8d 26 be
       -0.0705263 -0.0114195 0.24108723 -0.16264868
000200 9f ee 39 3e c4 05 eb bd 2b 60 2c 3d 70 bb 32 be
       0.18157433 -0.11475709 0.0420839 -0.17454314
000210 32 b5 1a be ba 3f 84 3c 71 b4 8b be 9a 60 a5 3d
       -0.15108183 0.016143668 -0.27286103 0.08075066
000220 8e c8 03 bd 1f 9a 9d be bb 66 45 be e7 b7 5c be
       -0.032173686 -0.30781648 -0.1927747 -0.21554528
000230 05 78 2d 3e a1 ae 89 3a 1c 17 99 be a6 d5 8b bc
       0.16940315 0.0010504314 -0.29900444 -0.017069649
000240 fe 62 3c bf 9d 0a 37 3a 4e ed 7e 3e 2b 83 81 be
       -0.7358855 0.00069824775 0.24895212 -0.25295386
000250 49 73 0f 3b 75 f1 52 bd b5 c2 18 be 68 cb f2 bd
       0.0021888784 -0.051499803 -0.14918025 -0.11855203
000260 65 81 ff 3b 64 ae 49 be 85 36 e7 bc 28 85 0a be
       0.0077974075 -0.19695431 -0.02822424 -0.13527358
000270 00 de 19 3e a8 4d 92 3c be 69 88 3e 6a 9f 44 3e
       0.15026093 0.017859295 0.26643175 0.19201437
000280 de af 04 bf 7a c6 3b bf 2a 57 8b bd eb 06 68 bd
       -0.5183085 -0.73349726 -0.068037346 -0.056647222
000290 f4 b2 d0 bd bc 79 0e bd 9c 67 30 be f3 cd 66 3a
       -0.101903826 -0.034784064 -0.17227024 0.00088044925
0002a0 eb 90 ab 3c 14 91 4b 3e 5e 69 4a bd d9 fb 0a be
       0.020943126 0.19879562 -0.049416892 -0.13572635
0002b0 24 c7 c7 3c 20 b0 87 3c 08 49 79 be 95 45 88 3d
       0.02438695 0.016563475 -0.24344265 0.06653897
0002c0 bc f7 71 bc e3 ed 10 ba 7b 8a 69 3c b0 83 01 bc
       -0.014768537 -0.0005528612 0.014254208 -0.007904932
0002d0 53 27 87 3c 26 32 6c bb ea b9 ab bc 9e cf e2 bb
       0.016498243 -0.0036040633 -0.020962674 -0.0069217226
0002e0 c1 2e 37 bb 2c 20 77 bc 6e 45 b6 bc 70 b2 a1 bc
       -0.0027951451 -0.015083354 -0.022249904 -0.019738406
0002f0 a3 90 9e 3b 6a ae a3 3c 70 09 44 bc 32 ef 2d bc
       0.0048390194 0.019980628 -0.011965141 -0.010616111
000300 26 b0 23 3d b9 d5 a0 bd 16 00 24 be 9a f6 5e 3e
       0.03996291 -0.07853264 -0.16015658 0.21773759
000310 77 5c 12 be 7d da f1 bc e4 22 5d 3d 9b 64 04 3e
       -0.14293085 -0.029523129 0.053988352 0.12929003
000320 03 09 66 3c d5 ce 83 3e c2 79 74 3e 41 eb 70 3d
       0.0140402345 0.25743738 0.23874572 0.058818106
000330 6a 67 6a bd 99 44 58 be 74 9c fa bd 2e 8c 30 be
       -0.05722753 -0.21119918 -0.12236872 -0.17240974
000340 d4 ba 2a bd 7f 5d 46 bd c5 be 94 bc 48 44 b3 3e
       -0.04168208 -0.04842901 -0.018157372 0.35013032
000350 f7 3e 23 3c 7b 08 15 3e a7 26 b4 3c 9f ea a6 bc
       0.009963742 0.14554016 0.021991087 -0.020375548
000360 21 78 35 bc fe 13 0f 3e 0c 10 a6 3c 9b 37 49 3e
       -0.011076004 0.1397247 0.020271324 0.19650118
000370 84 72 a3 3b 02 3c 1a 3e 27 ce 76 3b 49 1a 22 bb
       0.0049880166 0.15061954 0.0037659497 -0.0024734905
000380 4b 99 05 bf b8 13 9f 3c 91 8c 26 3d 87 60 0b be
       -0.5218703 0.019418582 0.0406614 -0.13611041
000390 99 45 22 3e 5f 15 2a bd ff a0 5e 3e c5 26 7b 3b
       0.15846862 -0.041524287 0.21741103 0.003832267
0003a0 53 87 8f bc be 6a f2 3d 28 24 55 3c d6 89 56 be
       -0.017520582 0.11836766 0.013009109 -0.20951018
0003b0 48 a7 0a 3d cc cb fc 3d 26 64 2e be 53 81 a3 bd
       0.033850938 0.12343559 -0.17030391 -0.07983651
0003c0 ae 3b 35 3e aa 69 5c be 2a 10 2c 3e bf 5b 24 bf
       0.17698547 -0.21524683 0.16803041 -0.64202493
0003d0 f9 b2 4f 3c 3d 2a 98 bd 6e bc b4 bc 75 cc 59 be
       0.012676948 -0.07429931 -0.022062507 -0.212694
0003e0 01 99 f0 bc 9e b0 b4 bd 12 d0 30 3e fc b2 b6 be
       -0.029369833 -0.088227496 0.17266873 -0.3568343
0003f0 3d 98 0a 3e a6 5e a6 bb 48 3c 37 3e 1b 15 38 be
       0.13534637 -0.005077201 0.17894089 -0.17976801

mlp.2.bias f4 [16]
000000 35 e5 7b be 0c 99 d5 bd aa c6 d5 3d 2a 02 73 be
       -0.24599154 -0.10429582 0.10438283 -0.23731294
000010 cd ad 1c 3e c6 1c 07 bf f6 57 6b 3e 9d ec a4 3e
       0.15300675 -0.5277828 0.22982773 0.32211772
000020 cd 41 d1 bd 96 b8 aa 3e a8 17 9e 3d 94 75 ab bc
       -0.10217629 0.33343953 0.07719356 -0.020930089
000030 51 f0 6b 3e 6c 3b 31 be 31 9d b4 3e 47 b4 9e bc
       0.23040892 -0.17307824 0.35276178 -0.019373072
