EUSIPCO/Nested Array/saved_models/da_music_-10.0dB_nested_0.pth (torch, 47182 bytes, 18 tensors)

bn.weight f4 [16]
0.61723304 0.688452 0.70275325 0.66918284 0.56125265 0.37213257 0.28922364 0.19516699
0.60222405 0.6912285 0.7036321 0.67902845 0.74552554 0.4842523 0.2632363 0.18953495
00000000: fc02 1e3f 643e 303f a3e7 333f 914f 2b3f
00000010: 41ae 0f3f 2988 be3e 1f15 943e dbd9 473e
00000020: 5b2b 1a3f 5af4 303f 3c21 343f cfd4 2d3f
00000030: c3da 3e3f ebef f73e e9c6 863e 7315 423e

bn.bias f4 [16]
0.003976192 0.047242973 -0.14274387 0.108805574 -0.08581423 0.04593336 -0.016288018 -0.0104662115
0.038912274 0.0031314015 -0.04585486 -0.074628696 -0.003890047 0.01373193 0.004532891 0.006043591
00000000: b74a 823b d981 413d 732b 12be 75d5 de3d
00000010: 5fbf afbd 9e24 3c3d 736e 85bc 797a 2bbc
00000020: 7a62 1f3d 3338 4d3b 4ed2 3bbd eed6 98bd
00000030: 29f0 7ebb e4fb 603c a588 943b 5109 c63b

bn.running_mean f4 [16]
-0.0010535113 0.0016254882 -7.571027e-05 0.0002187658 -0.0016752373 -0.0014519403 0.0004255524 0.0032325084
-0.0053281314 0.002432778 -0.0026006983 0.00046700725 0.0010222545 -0.00017521513 0.0015073653 0.0077761905
00000000: f915 8aba 550e d53a a4c6 9eb8 7f64 6539
00000010: a393 dbba 084f beba ad1c df39 7ed8 533b
00000020: 9b97 aebb 3e6f 1f3b 7a70 2abb a7d8 f439
00000030: 2bfd 853a f4b9 37b9 c992 c53a 6acf fe3b

bn.running_var f4 [16]
6.5119634 6.4861503 6.513249 6.4974375 6.4998403 6.496684 6.4938054 6.5123715
6.5009627 6.5011897 6.487009 6.5074034 6.5100155 6.509485 6.5026855 6.4906225
00000000: 0162 d040 8b8e cf40 896c d040 02eb cf40
00000010: b1fe cf40 d6e4 cf40 41cd cf40 5965 d040
00000020: e307 d040 bf09 d040 9495 cf40 a63c d040
00000030: 0c52 d040 b34d d040 0016 d040 2eb3 cf40

rnn.weight_ih_l0 f4 [48, 16]
-1.4252436 0.6099634 -0.43162292 0.06689339 0.6738321 -1.252199 0.047032367 0.8605016
0.45311764 -0.015121163 -0.5064579 0.7482988 -0.58294904 0.4119847 -1.1894046 0.023432104
0.22543538 -0.045302406 0.06753435 -0.48962632 -0.2666069 0.47735152 -1.0459733 0.51042974
-0.059188347 0.74629074 -0.8066716 0.7314653 -0.9983618 0.22296357 0.39659193 -0.6250126
0.39644185 -0.010967906 0.2809661 -0.041009605 0.55588365 0.28664425 -0.73602396 1.6878831
2.0573533 -0.54572153 0.6006115 -0.82482034 0.55591327 1.0461307 -1.1864843 0.7835464
-0.49034572 0.55112183 -0.35821548 0.50920033 -0.53892666 0.59452766 0.043460295 0.50219357
0.51488155 -0.48744935 0.55535275 -0.46080753 0.5376586 -0.40526405 1.0604132 -0.7850495
0.2730065 -0.23617508 -0.5310342 0.28073183 -0.4173029 0.3321203 0.35151684 -0.58251256
0.20590013 -0.00022102887 -0.1779624 -0.15144894 0.25655374 0.21179968 0.14669739 -0.2658413
0.06313487 0.3495081 -0.14846341 0.031385873 -0.37415865 0.12798637 0.64150643 0.1145411
0.08173889 0.13097094 0.00024162386 -0.19854522 -0.11810265 -0.31047142 0.5649163 -0.22634248
-0.59595907 0.8894234 -0.57674813 -0.062783316 -0.16654891 -0.36876005 -0.44553414 0.8377911
0.60078263 -0.044587217 -0.1294757 0.52372223 -0.5875812 1.686141 -1.430187 0.6287268
-0.24773814 -0.37753695 0.79307926 -0.60290855 -0.86937654 -0.07434852 0.79704994 -1.1913563
-0.35416085 0.7203804 0.34535286 -0.34018534 0.48074105 -1.2886631 -0.11338012 -0.03314578
0.9220405 0.4939346 -0.45422006 -0.4777212 0.57292944 -0.19604117 -0.17584144 1.5560035
-1.1314415 0.3946577 0.2971015 -0.23890437 0.3029118 0.12240975 -0.78525543 0.32710072
0.019765522 -0.24383312 -1.1886353 -0.11801387 -0.23561488 0.2828546 0.59161055 -0.4329758
0.41570228 0.3405705 0.26765323 -0.18190856 -0.73686373 -0.21094301 -0.24653436 -0.32352263
-0.64367354 -0.32389793 -0.09878385 -0.70216334 0.6261416 -0.27940348 -0.30944008 0.42786792
0.14056294 -0.750303 0.81052977 -0.8281337 -0.8371622 -0.34474874 0.035331275 0.20754756
0.5919838 -0.44552973 0.64768136 -0.6148893 -0.020284146 -0.30412126 0.45232272 -0.07752686
0.024354419 0.16613218 -0.29941332 0.035803534 -0.19250354 -0.2964463 -0.69535613 0.36537126
-0.5815789 0.19909802 0.172117 -0.44663364 0.6195637 -1.43014 1.8962525 -0.9129731
-0.2149774 0.51142246 -0.27065614 -0.0692352 0.23010434 -1.1573908 -0.8302549 1.0209383
0.54477495 -0.57403725 -0.016659763 0.5804504 -0.391008 1.2602693 -2.048753 0.35104507
0.26817697 -0.9795858 0.22510946 -0.024202235 -0.7057954 0.8134278 0.8158406 -1.1291833
0.36833766 -0.45584252 0.07537143 -1.5288996 1.2576867 0.3276283 -1.4260887 0.37878257
-0.19800568 -0.18005522 0.7910354 0.55662143 -0.51206243 1.2021049 0.36631688 -0.97834164
0.86298704 -1.087501 0.0036182126 0.093893126 0.114272915 0.21733032 1.5007746 -0.45881453
-0.42103544 0.0023186922 0.33463332 0.19093978 0.56357455 -2.4175315 1.0644387 0.42332813
00000000: 626e b6bf 9026 1c3f aefd dcbe 67ff 883d
00000010: 4380 2c3f 0f48 a0bf 03a5 403d d549 5c3f
00000020: 09ff e73e c1be 77bc 3aa7 01bf 8390 3f3f
00000030: 263c 15bf a9ef d23e 693e 98bf aff4 bf3c
00000040: 88d8 663e 048f 39bd 734f 8a3d 4db0 fabe
00000050: b380 88be 6b67 f43e 74e2 85bf 86ab 023f
00000060: 7b6f 72bd e90c 3f3f 0882 4ebf 4f41 3b3f
00000070: a494 7fbf 9050 643e 190e cb3e d300 20bf
00000080: 6dfa ca3e bbb2 33bc cada 8f3e b0f9 27bd
00000090: 644e 0e3f 09c3 923e 116c 3cbf 8e0c d83f
000000a0: adab 0340 68b4 0bbf adc1 193f 6d27 53bf
000000b0: 5550 0e3f 9ce7 853f b8de 97bf 7f96 483f
000000c0: 980e fbbe 5216 0d3f 0568 b7be f45a 023f
000000d0: 19f7 09bf f732 183f 6c03 323d c28f 003f
000000e0: 47cf 033f f692 f9be 992b 0e3f f7ee ebbe
000000f0: fea3 093f c57e cfbe 9fbb 873f 01f9 48bf
00000100: 82c7 8b3e e1d7 71be dbf1 07bf 15bc 8f3e
00000110: baa8 d5be ac0b aa3e 04fa b33e 8b1f 15bf
00000120: 7cd7 523e fcc3 67b9 c63b 36be 6e15 1bbe
00000130: 035b 833e 04e2 583e d737 163e 5a1c 88be
00000140: db4c 813d baf2 b23e cb06 18be 798e 003d
00000150: b991 bfbe dc0e 033e c439 243f 8694 ea3d
00000160: b866 a73d 3f1d 063e 695c 7d39 704f 4bbe
00000170: cddf f1bd 1cf6 9ebe 5b9e 103f 53c6 67be
00000180: c690 18bf 40b1 633f c4a5 13bf 8a94 80bd
00000190: cc8b 2abe 1ece bcbe 0d1d e4be 7a79 563f
000001a0: e4cc 193f 16a1 36bd 4795 04be a912 063f
000001b0: b96b 16bf 78d3 d73f 5e10 b7bf 3df4 203f
000001c0: 11af 7dbe 864c c1be 3e07 4b3f 3758 1abf
000001d0: 768f 5ebf 0944 98bd 770b 4c3f 5d7e 98bf
000001e0: 9254 b5be da6a 383f 17d2 b03e c62c aebe
000001f0: b123 f63e eaf2 a4bf d633 e8bd dfc3 07bd
00000200: d90a 6c3f ffe4 fc3e 888f e8be e097 f4be
00000210: 81ab 123f 04bf 48be c70f 34be 1f2b c73f
00000220: 13d3 90bf 9310 ca3e b01d 983e 59a3 74be
00000230: 4117 9b3e f7b1 fa3d 8006 49bf bf79 a73e
00000240: 4eeb a13c 64af 79be 3425 98bf 42b1 f1bd
00000250: 0745 71be 51d2 903e ca73 173f 01af ddbe
00000260: eed6 d43e 425f ae3e d809 893e 3d46 3abe
00000270: 1aa3 3cbf 7201 58be 8173 7cbe c2a4 a5be
00000280: cac7 24bf f3d5 a5be 304f cabd fac0 33bf
00000290: d14a 203f f90d 8fbe ee6e 9ebe 8111 db3e
000002a0: bbef 0f3e db13 40bf e17e 4f3f 9200 54bf
000002b0: 4350 56bf e882 b0be 87b7 103d 5987 543e
000002c0: 408c 173f 791c e4be 72ce 253f 6369 1dbf
000002d0: f02a a6bc c8b5 9bbe d896 e73e 67c6 9ebd
000002e0: eb82 c73c 8e1e 2a3e b44c 99be baa6 123d
000002f0: a61f 45be cfc7 97be dc02 32bf f111 bb3e
00000300: 5be2 14bf 5ae0 4b3e 703f 303e 2aad e4be
00000310: ba9b 1e3f d40e b7bf 67b8 f23f 9bb8 69bf
00000320: 0923 5cbe 95ec 023f 7193 8abe 2fcb 8dbd
00000330: 79a0 6b3e 6225 94bf 968b 54bf 1bae 823f
00000340: 5f76 0b3f 1bf4 12bf 0e7a 88bc 6698 143f
00000350: 3332 c8be 8150 a13f c51e 03c0 2ebc b33e
00000360: 7e4e 893e 23c6 7abf 1883 663e c443 c6bc
00000370: 02af 34bf ce3c 503f eeda 503f 1489 90bf
00000380: c196 bc3e 3164 e9be 565c 9a3d fbb2 c3bf
00000390: e1fb a03f e6be a73e 138a b6bf caef c13e
000003a0: 00c2 4abe 6560 38be 4c81 4a3f be7e 0e3f
000003b0: 8616 03bf 93de 993f e38d bb3e 9974 7abf
000003c0: b8ec 5c3f 3c33 8bbf 891f 6d3b 0a4b c03d
000003d0: eb07 ea3d d78b 5e3e 6219 c03f bde9 eabe
000003e0: f591 d7be 33f5 173b 0f55 ab3e b885 433e
000003f0: 6c46 103f d6b8 1ac0 873f 883f 77be d83e

rnn.weight_hh_l0 f4 [48, 16]
0.5021923 0.13651511 -0.11377746 -0.27621183 0.00012415322 -0.15239163 0.069294706 -0.7196513
0.09545825 -0.05870364 -0.1621094 -0.14278936 -0.11813833 -0.9577524 -0.18947284 -0.05391052
-1.1584016 -0.76687527 -0.10195237 0.68665814 0.1581945 0.09094468 0.4941601 0.09432511
0.19781478 0.48162988 0.2867141 -0.060623936 0.5870182 0.5423262 0.06651796 0.36149484
-0.26594198 0.134047 -0.1175109 -0.41224003 -0.18921174 -0.2513988 -0.7757127 0.82860094
-0.12130462 -0.60987103 -1.5035747 1.1335956 -0.05779912 1.0658205 -0.058287196 -0.08598048
-0.4742926 -0.26962873 -0.7399333 0.74401915 -0.036857784 0.23485707 0.3434032 1.0658404
0.1954447 -0.7445199 0.63978994 -0.057490304 -0.28514877 0.70397514 -0.022338146 -0.6243671
0.2334937 -0.5704068 -0.25692475 0.27585787 0.3821684 0.5233812 0.23883097 0.26606518
0.5544162 -0.064720444 0.20223208 -0.23008631 0.068827406 0.06657163 -0.377396 -0.33536616
0.40903968 -0.6677698 -0.17848502 0.20013112 0.7774371 0.81278527 0.28302637 0.45715705
0.7927127 0.19148491 0.5573559 0.102798186 0.029290939 -0.22271863 -0.18850987 -0.14614014
0.472317 -0.011900146 -0.24590115 0.04192565 -0.14792053 -0.16525309 0.03101532 0.23454684
0.24690203 0.11531751 -0.14809263 -0.23845954 -0.42412633 -0.21860074 -0.32726765 -0.23061188
-0.19480234 -0.22503233 -0.3705865 0.0041806838 -0.1154087 -0.096635714 -0.09116731 -0.29022124
-0.38085836 1.0217097 -0.11009011 0.2936677 -0.057910725 -0.43004623 -0.1367184 0.20971395
-0.037776053 0.06598536 1.2609328 0.32054147 -0.07365106 -0.33023384 -0.04970673 0.7420448
0.11706701 -0.64792055 0.227136 -0.5836998 0.50473607 0.12635717 0.9824394 0.0947898
0.068980016 -0.3822071 -0.02292756 0.48873824 -0.11287771 -0.05657507 0.32978627 1.5116194
0.22938766 -0.8382789 0.44913372 0.2673354 -0.4256645 0.8721212 0.3935818 -0.54128873
0.13941027 -0.38177332 0.3669634 0.50714356 -0.06137074 -0.32802072 0.5903143 0.15194158
0.41706768 -0.1803611 0.4175034 -0.93425083 0.36760673 -0.13743171 0.7601214 -0.10379145
0.4514747 -0.42400467 0.13011986 0.360008 0.23886338 0.11151134 -0.19507536 0.06664734
0.6503883 0.42023644 0.3375812 -0.48249814 0.42249507 0.072756566 0.37732062 -0.035318527
0.59642017 0.22292466 -0.52950597 0.063574895 -0.21158564 0.0007660961 0.22436771 -0.2616111
0.055535752 -0.07110742 -0.4501962 0.08924962 -0.89261013 -1.0189943 -0.21195017 -0.7249996
-0.12171752 -0.18545538 -0.40312663 -0.32743323 -0.08009807 -0.038307644 -0.23091352 -0.206243
-0.26306024 1.2913945 0.17167991 -0.25344044 0.12794922 -0.14998743 0.12407538 0.22259197
-0.14702845 0.5133624 -0.3560757 -0.39966577 -0.6996419 -0.4840732 0.015306036 -0.19164304
-0.3332449 -0.80143094 -1.264983 0.860439 -0.30280295 -0.029826943 -0.54869694 -0.4308575
0.14642246 0.40208822 -0.3643709 0.27133566 -0.2678895 -0.2451454 -0.2882316 0.97566384
-0.0405571 -0.6578545 -0.2469541 -0.13696352 -0.7779102 -0.31544015 0.2437627 -0.7173435
00000000: ad8f 003f 9eca 0b3e 2804 e9bd a36b 8dbe
00000010: 202f 0239 8d0c 1cbe 62ea 8d3d 113b 38bf
00000020: 9d7f c33d 3a73 70bd 0200 26be 6037 12be
00000030: 82f2 f1bd 432f 75bf 2b05 42be 47d1 5cbd
00000040: 8146 94bf f051 44bf 67cc d0bd d4c8 2f3f
00000050: bdfd 213e 3441 ba3d 8d02 fd3e 862d c13d
00000060: f58f 4a3e 3198 f63e 31cc 923e ce50 78bd
00000070: d346 163f e4d5 0a3f 913a 883d da15 b93e
00000080: 8c29 88be 9e43 093e 8ea9 f0bd 2011 d3be
00000090: b9c0 41be 58b7 80be 1c95 46bf 311f 543f
000000a0: 8e6e f8bd 8220 1cbf 2375 c0bf a919 913f
000000b0: c5be 6cbd ce6c 883f 8ebe 6ebd 8916 b0bd
000000c0: 7bd6 f2be c70c 8abe 456c 3dbf 0a78 3e3f
000000d0: 30f8 16bd 5f7e 703e 8bd2 af3e 756d 883f
000000e0: a822 483e db98 3ebf 46c9 233f f47a 6bbd
000000f0: 05ff 91be b737 343f 7dfe b6bc 86d6 1fbf
00000100: f918 6f3e 2e06 12bf a48b 83be 3e3d 8d3e
00000110: 94ab c33e 4ffc 053f 1b90 743e b239 883e
00000120: 38ee 0d3f 278c 84bd ed15 4f3e bf9b 6bbe
00000130: 62f5 8c3d b556 883d 0c3a c1be 1db5 abbe
00000140: a66d d13e f6f2 2abf c7c4 36be 2cef 4c3e
00000150: 1e06 473f b212 503f d5e8 903e 7d10 ea3e
00000160: 38ef 4a3f 9f14 443e e0ae 0e3f db87 d23d
00000170: 8df3 ef3c 5a10 64be bb08 41be c3a5 15be
00000180: 89d3 f13e d4f8 42bc 83cd 7bbe 3bba 2b3d
00000190: 7b78 17be 1b38 29be d713 fe3c 0c2d 703e
000001a0: e3d3 7c3e 962b ec3d 98a5 17be bd2e 74be
000001b0: 1627 d9be dfd8 5fbe a08f a7be 8525 6cbe
000001c0: 447a 47be e06e 66be 84bd bdbe 1efe 883b
000001d0: 665b ecbd f2e8 c5bd edb5 babd e197 94be
000001e0: deff c2be 62c7 823f ec76 e1bd 9d5b 963e
000001f0: cc33 6dbd 052f dcbe e9ff 0bbe 41bf 563e
00000200: 10bb 1abd 5523 873d 3f66 a13f 031e a43e
00000210: 5ed6 96bd 6914 a9be 4999 4bbd a6f6 3d3f
00000220: d4c0 ef3d 1fde 25bf 5796 683e 5a6d 15bf
00000230: 6236 013f c663 013e 2681 7b3f 2821 c23d
00000240: 6545 8d3d a6b0 c3be 94d2 bbbc e63b fa3e
00000250: 6e2c e7bd 43bb 67bd bfd9 a83e bf7c c13f
00000260: 99e4 6a3e 7299 56bf dbf4 e53e 30e0 883e
00000270: b3f0 d9be 5643 5f3f 8e83 c93e e691 0abf
00000280: 91c1 0e3e cb77 c3be a0e2 bb3e 29d4 013f
00000290: e35f 7bbd 55f2 a7be d71e 173f 9396 1b3e
000002a0: e589 d53e 95b0 38be 01c3 d53e 102b 6fbf
000002b0: f336 bc3e e6ba 0cbe 5197 423f 9d90 d4bd
000002c0: b127 e73e 2417 d9be 243e 053e f852 b83e
000002d0: 9a98 743e 0f60 e43d d6c1 47be 677e 883d
000002e0: d97f 263f 3b29 d73e 71d7 ac3e ff09 f7be
000002f0: 4651 d83e 6501 953d 2b30 c13e 29aa 10bd
00000300: feae 183f 5d46 643e b48d 07bf 8e33 823d
00000310: e8a9 58be d7d3 483a a6c0 653e e4f1 85be
00000320: 7579 633d c4a0 91bd 1e80 e6be 81c8 b63d
00000330: 1982 64bf 686e 82bf 7709 59be 9399 39bf
00000340: 0947 f9bd 04e8 3dbe 9d66 cebe 54a5 a7be
00000350: 750a a4bd 7ae8 1cbd 9874 6cbe 5d31 53be
00000360: d5af 86be 6a4c a53f dccc 2f3e f2c2 81be
00000370: 1f05 033e 4e96 19be 3c1b fe3d 26ef 633e
00000380: a08e 16be b86b 033f 8e4f b6be fea0 ccbe
00000390: bb1b 33bf 71d8 f7be 2bc6 7a3c 133e 44be
000003a0: 139f aabe 942a 4dbf f7ea a1bf bb45 5c3f
000003b0: fd08 9bbe a257 f4bc 6777 0cbf 5b99 dcbe
000003c0: c5ef 153e 82de cd3e d38e babe 82ec 8a3e
000003d0: d028 89be 6507 7bbe 1893 93be 1bc5 793f
000003e0: 341f 26bd 2769 28bf 89e1 7cbe 2a40 0cbe
000003f0: 1f25 47bf 5f81 a1be ee9c 793e d3a3 37bf

rnn.bias_ih_l0 f4 [48]
-0.17038053 0.08525492 -0.05164304 0.20847298 0.6881776 0.8434147 -0.07442778 -0.12191481
-0.47389615 -0.14193699 -0.07855305 -0.14137846 0.014364929 -0.34984607 -0.314348 -0.23092918
0.82279027 1.1443478 1.3896605 1.2151918 -0.6577384 -1.201192 1.1484047 0.81520283
1.0561686 1.3436128 1.0169437 1.2107133 0.8374034 1.3315386 1.5247505 1.2903634
0.17631449 -0.28063485 0.25132987 -0.057304773 0.5508592 0.9006355 0.062494762 0.07352345
0.1183213 0.1790989 0.29186448 -0.11876077 -0.14714134 0.018975552 0.14848004 -0.2664563
00000000: 3c78 2ebe 229a ae3d a787 53bd f179 553e
00000010: 682c 303f 07ea 573f 986d 98bd 79ae f9bd
00000020: 84a2 f2be ee57 11be 6ce0 a0bd 84c5 10be
00000030: e15a 6b3c 061f b3be 39f2 a0be b378 6cbe
00000040: 62a2 523f fd79 923f 65e0 b13f 688b 9b3f
00000050: 8b61 28bf a9c0 99bf edfe 923f 22b1 503f
00000060: 8830 873f 81fb ab3f 362b 823f a7f8 9a3f
00000070: 1260 563f db6f aa3f 062b c33f a12a a53f
00000080: c98b 343e 5faf 8fbe 4fae 803e 69b8 6abd
00000090: 1c05 0d3f 0c90 663f 82fa 7f3d 7693 963d
000000a0: 7052 f23d b465 373e 436f 953e d938 f3bd
000000b0: 38ac 16be 9e72 9b3c 270b 183e f66c 88be

rnn.bias_hh_l0 f4 [48]
-0.20289639 0.069001384 -0.13226491 -0.042292636 0.72019947 1.1858698 -0.03797602 -0.33233923
-0.12448914 -0.008358714 -0.15987864 0.09670996 -0.21554264 -0.2833904 -0.57474977 -0.23049435
0.75581485 1.5011747 1.2692618 1.268829 -1.0774959 -1.5225602 1.0203108 0.8139551
1.2762128 1.3244228 1.0613385 1.4638637 1.165444 1.2860346 1.2544581 1.0363522
-0.097480915 -0.20773079 0.20738344 -0.06821674 0.66968435 0.7721619 -0.19784117 0.17218724
-0.053447735 -0.14527647 0.037555423 -0.11160154 -0.10370579 -0.19306967 -0.23259911 0.0051038396
00000000: 12c4 4fbe 9950 8d3d 7470 07be 0b3b 2dbd
00000010: fe5e 383f 95ca 973f be8c 1bbd 5e28 aabe
00000020: 2af4 febd fdf2 08bc 3ab7 23be df0f c63d
00000030: 36b7 5cbe 8c18 91be cd22 13bf b606 6cbe
00000040: 157d 413f 7e26 c03f 2c77 a23f fd68 a23f
00000050: 63eb 89bf 41e3 c2bf 8b99 823f 5d5f 503f
00000060: f15a a33f b086 a93f f1d9 873f e35f bb3f
00000070: 452d 953f c89c a43f 1592 a03f 30a7 843f
00000080: 13a4 c7bd 61b7 54be 535c 543e 38b5 8bbd
00000090: 6f70 2b3f 67ac 453f e096 4abe da51 303e
000000a0: 03ec 5abd 5bc3 14be b7d3 193d 598f e4bd
000000b0: b463 d4bd 0eb4 45be 762e 6ebe 1c3e a73b

fc.weight f4 [128, 16]
0.3413371 0.5043485 -0.34285948 -0.36536795 0.038719427 0.34236348 0.15410398 0.19080904
-0.27336153 -0.19525233 -0.663423 0.6070052 -0.19269267 0.14366397 -0.6607531 -0.54854256
0.47273865 -0.16618438 -0.5524113 0.43970913 0.48674673 0.3188444 0.27105367 -0.28959167
0.09353153 0.5341423 0.44297126 -0.40533394 0.023120118 -0.38113087 -0.21259792 -0.2862586
-0.1731866 -0.23512466 0.6109732 0.37014663 -0.4470239 -0.16520105 0.34220275 0.3546104
0.20688306 -0.0756661 0.056417376 -0.286041 -0.15270449 0.035888825 -0.27862448 -0.06137319
-0.2844924 0.10599222 1.3314081 -0.59973735 0.14673795 0.12073518 -0.90707266 0.58688176
0.3565545 -0.43369135 0.34378055 -0.0041075666 0.52503335 0.45750758 0.72578895 0.8173315
0.1408141 -0.055485483 0.118565746 0.38591167 -0.08981365 -0.014534513 0.15768601 0.11795652
-0.12847562 -0.21017694 0.30292606 0.1033581 -0.19319226 0.014662858 -0.103939846 -0.08223093
0.91566896 0.36534852 -0.18613453 -0.27389374 -0.20273869 -0.28522688 0.51735723 -0.5392453
-0.13682312 -0.18079321 -0.119640715 -0.17193587 -0.5279272 -1.3679019 -0.09955348 -0.2560703
-0.2460172 -0.7057939 -0.36754704 0.8639761 0.7620783 0.90266263 0.1730655 0.3654494
0.6556844 -0.8038319 0.48224545 -0.3738215 -0.16723578 0.2506009 -0.522461 -0.38949388
-0.45544353 0.14316674 0.31808785 -0.10791509 0.21411462 0.18969938 -0.44456798 0.5056388
0.024269372 -0.59784937 -0.11309727 0.41873327 0.21685527 0.8839212 0.037282832 0.045155443
-0.01271309 -0.11375921 -0.51170516 0.9161009 -0.36583218 -0.27964818 0.7023876 -0.39867193
-0.0068945596 0.22344017 0.08274893 -0.30682313 -0.36871266 -0.38343796 -0.393844 -0.36069843
-0.43164665 -0.3117891 -0.29664928 0.4463044 -0.35171503 -0.14640653 0.084396556 -0.31724724
-0.07086984 -0.030046107 0.18011047 0.09540548 0.5159839 0.3794039 -0.22240484 0.2435062
-0.034502547 0.7389183 -0.18745114 -0.3446261 -0.14697321 -0.033463642 -0.9256468 0.22748017
-0.33073515 -0.5020867 -0.6405716 0.85896957 0.41685283 0.20770614 0.17115854 0.0770664
-0.42462876 0.0035546822 0.1261814 0.48511934 -0.14970173 -0.35642052 0.056280836 0.40845093
0.17669764 0.24472158 -0.0870604 0.26479957 -0.1068046 0.09213705 -0.058730073 -0.16078082
-0.09310372 -0.09893353 0.25276846 -0.28634802 0.21526922 0.5234657 -0.09557359 0.17927657
0.14594416 -0.24617545 0.048481397 -0.37316394 -0.048759654 0.056049734 0.5059133 0.029971926
-0.12572557 0.21724887 0.9647592 -0.19974647 -0.33815497 -0.072651796 -0.04584367 1.0880473
0.57700634 -1.1741388 0.7331114 -0.61073315 0.12478185 0.46588436 1.0035948 0.0503016
0.06923075 0.46957326 1.1323624 -0.2338486 -0.114040844 -0.19183579 0.5584323 0.112552635
0.2672964 -0.67063403 -0.23475046 -0.29122424 -0.33584124 -0.39299774 0.9063641 -0.32283503
-0.32232314 0.27670023 1.2282857 -0.032504242 -0.43725756 -0.54977745 -0.086490355 0.7811835
0.14856689 -1.5010557 0.27086672 0.051923674 -0.078066364 0.20852295 1.1217328 0.0737492
00000000: bdc3 ae3e fc1c 013f 478b afbe 8211 bbbe
00000010: 4398 1e3d 444a af3e 6fcd 1d3e 7263 433e
00000020: 0bf6 8bbe 3af0 47be 17d6 29bf b164 1b3f
00000030: 3a51 45be a61c 133e 1d27 29bf 496d 0cbf
00000040: cd0a f23e 3d2c 2abe d46a 0dbf 8e21 e13e
00000050: de36 f93e 933f a33e 8cc7 8a3e 5c45 94be
00000060: 758d bf3d 8dbd 083f 21cd e23e ee87 cfbe
00000070: 6766 bd3c 9623 c3be 45b3 59be 7d90 92be
00000080: d457 31be 85c4 70be bd68 1c3f dc83 bd3e
00000090: 51e0 e4be 772a 29be 3335 af3e 7f8f b53e
000000a0: 27d9 533e d4f6 9abd e815 673d f773 92be
000000b0: 915e 1cbe 2900 133d dea7 8ebe 7462 7bbd
000000c0: fda8 91be 7312 d93d 956b aa3f 6388 19bf
000000d0: 7942 163e 0244 f73d ea35 68bf e23d 163f
000000e0: 508e b63e cb0c debe 0104 b03e c498 86bb
000000f0: 9668 063f 6f3e ea3e 4ecd 393f a33c 513f
00000100: 9231 103e bf44 63bd 99d2 f23d 3796 c53e
00000110: 38f0 b7bd 2a22 6ebc 7178 213e 3093 f13d
00000120: 1d8f 03be a038 57be 2019 9b3e 69ad d33d
00000130: 31d4 45be 7c3c 703c 6ade d4bd b168 a8bd
00000140: 4869 6a3f f60e bb3e 0d9a 3ebe cd3b 8cbe
00000150: bb9a 4fbe 4209 92be 8671 043f fb0b 0abf
00000160: 5c1b 0cbe db21 39be 3106 f5bd f50f 30be
00000170: 3d26 07bf 6917 afbf b2e2 cbbd a51b 83be
00000180: efeb 7bbe e9ae 34bf 202f bcbe 8a2d 5d3f
00000190: 9017 433f e614 673f 1538 313e 2f1c bb3e
000001a0: efda 273f edc7 4dbf e0e8 f63e 8865 bfbe
000001b0: db3f 2bbe c34e 803e 01c0 05bf be6b c7be
000001c0: e52f e9be 4d9a 123e 69dc a23e 9602 ddbd
000001d0: dd40 5b3e 8e40 423e 6a9e e3be 8b71 013f
000001e0: 90d0 c63c a80c 19bf 8b9f e7bd 3564 d63e
000001f0: 4f0f 5e3e a948 623f e2b5 183d eaf4 383d
00000200: 904a 50bc 97fa e8bd 1cff 02bf 9785 6a3f
00000210: 5b4e bbbe 0c2e 8fbe accf 333f ba1e ccbe
00000220: c2eb e1bb 80cd 643e 4578 a93d ec17 9dbe
00000230: e8c7 bcbe fb51 c4be eca5 c9be 77ad b8be
00000240: ca00 ddbe d2a2 9fbe 6ae2 97be 0382 e43e
00000250: fe13 b4be 98eb 15be 1ad8 ac3d 3b6e a2be
00000260: 3524 91bd 4123 f6bc e16e 383e f363 c33d
00000270: 8517 043f 3a41 c23e 18be 63be b059 793e
00000280: 8b52 0dbd c029 3d3f 31f3 3fbe d572 b0be
00000290: 2580 16be 2c11 09bd 30f7 6cbf 90f0 683e
000002a0: 1e56 a9be c188 00bf 80fc 23bf 6ee5 5b3f
000002b0: bc6d d53e ebb0 543e 2f44 2f3e fdd4 9d3d
000002c0: f168 d9be acf5 683b b235 013e 9061 f83e
000002d0: 694b 19be c07c b6be bc86 663d 7b20 d13e
000002e0: 3af0 343e 4b98 7a3e b94c b2bd cf93 873e
000002f0: 5fbc dabd 5ab2 bc3d f28e 70bd baa3 24be
00000300: 2aad bebd aa9d cabd de6a 813e 359c 92be
00000310: 896f 5c3e d901 063f 16bc c3bd 4794 373e
00000320: 6372 153e 6b15 7cbe 6e94 463d 580f bfbe
00000330: 34b8 47bd 6894 653d 8983 013f af87 f53c
00000340: 34be 00be 7d76 5e3e 75fa 763f 578a 4cbe
00000350: a622 adbe 77ca 94bd 92c6 3bbd 2245 8b3f
00000360: b0b6 133f 2e4a 96bf 30ad 3b3f 0259 1cbf
00000370: a08d ff3d 6588 ee3e cb75 803f 0d09 4e3d
00000380: dac8 8d3d e86b f03e 40f1 903f 0276 6fbe
00000390: 3f8e e9bd 9a70 44be 6bf5 0e3f ff81 e63d
000003a0: 13db 883e acae 2bbf 6d62 70be 581b 95be
000003b0: 62f3 abbe 0037 c9be 7a07 683f a24a a5be
000003c0: 8a07 a5be a7ab 8d3e 7738 9d3f 2b23 05bd
000003d0: 39e0 dfbe 37be 0cbf db21 b1bd a4fb 473f
000003e0: eb21 183e 9822 c0bf 0baf 8a3e ebad 543d
000003f0: 42e1 9fbd 0a87 553e f194 8f3f d209 973d

fc.bias f4 [128]
0.17439897 0.10773681 -0.32836708 0.05966244 0.18407744 -0.37152794 0.7615566 0.3764836
-0.20599064 -0.06183813 -0.022951 0.0144939795 0.17631693 -0.38427088 0.32127964 -0.513047
0.5545174 0.67695946 0.31432128 0.5187912 -0.073791385 -0.09783084 0.17627886 -0.15529476
-0.09329385 -0.058586214 -0.37651595 -0.34968793 -0.0070622284 -0.31394756 0.22229792 0.16470867
0.12015023 0.20117353 0.1043451 -0.3938436 0.029771728 0.32731766 -0.11064171 0.28688648
-0.08993218 -0.5292234 -0.36115995 0.17958272 -0.025333086 -0.40261784 -0.0125229545 0.32579845
-0.19375594 -0.47919658 0.12788644 0.1832735 -0.00028647002 -0.3987713 0.050895244 -0.62616646
0.12561008 0.07847664 0.09939168 0.18817396 -0.41751367 0.36820891 0.4205266 -0.15404321
-0.24313918 0.1365386 -0.56255716 -0.08494353 -0.5218636 -0.26326078 0.33678463 -0.36090273
-0.35723594 0.40338606 -0.9255932 0.36094147 0.5374578 0.08456065 0.22956899 0.016648445
0.63053745 0.010053199 -0.11239274 -0.17725965 0.36941892 0.17712 -0.3355669 -0.3302601
0.422863 -0.5624311 -0.3942292 0.079819225 -0.1486345 -0.07074179 0.36410677 -0.14566907
-0.29958227 0.34181377 -0.38961214 0.2526134 0.15588605 0.36495012 -0.43663868 -0.04746861
-0.5191313 0.1876863 -0.044205505 0.2990297 0.50431293 -0.0010561704 0.32801718 -0.40406168
0.47887337 0.0972138 -0.0006106279 -0.27564368 -0.35598424 -0.28006834 -0.683097 0.19095944
0.052108772 -0.22465093 -0.19538948 0.109220624 0.46087447 -0.11303617 0.08880019 0.29821715
00000000: a595 323e 1ea5 dc3d bb1f a8be 9a60 743d
00000010: cc7e 3c3e e938 bebe 60f5 423f 75c2 c03e
00000020: 36ef 52be fb49 7dbd bc03 bcbc 2878 6d3c
00000030: 6d8c 343e 27bf c4be c47e a43e 0c57 03bf
00000040: daf4 0d3f 374d 2d3f b8ee a03e 80cf 043f
00000050: f01f 97bd 895b c8bd 7282 343e 9705 1fbe
00000060: d910 bfbd 19f8 6fbd b3c6 c0be 4c0a b3be
00000070: 446a e7bb bcbd a0be 11a2 633e 64a9 283e
00000080: 5311 f63d 6f00 4e3e e2b2 d53d dea5 c9be
00000090: d7e3 f33c 2e96 a73e 1f98 e2bd c9e2 923e
000000a0: 5d2e b8bd 2f7b 07bf f5e9 b8be 88e4 373e
000000b0: 5587 cfbc ed23 cebe 142d 4dbc 0ecf a63e
000000c0: f567 46be 4159 f5be aaf4 023e 0cac 3b3e
000000d0: 5b31 96b9 c02b ccbe 8877 503d 724c 20bf
000000e0: ee9f 003e 5cb8 a03d dd8d cb3d adb0 403e
000000f0: 5ac4 d5be e185 bc3e 434f d73e 81bd 1dbe
00000100: 7af9 78be c6d0 0b3e bf03 10bf e0f6 adbd
00000110: da98 05bf 1eca 86be 096f ac3e 3ec8 b8be
00000120: a1e7 b6be 9e88 ce3e adf3 6cbf 52cd b83e
00000130: d696 093f 222e ad3d 2214 6b3e 5262 883c
00000140: e76a 213f 2cb6 243c 2a2e e6bd 8e83 35be
00000150: 7a24 bd3e f25e 353e 6dcf abbe da17 a9be
00000160: 8081 d83e 7cfb 0fbf 69d8 c9be 4378 a33d
00000170: a433 18be 12e1 90bd 346c ba3e 462a 15be
00000180: d962 99be 3702 af3e 3e7b c7be 8b56 813e
00000190: 98a0 1f3e beda ba3e 1b8f dfbe 726e 42bd
000001a0: cae5 04bf d630 403e d510 35bd 6c1a 993e
000001b0: a71a 013f 336f 8aba def1 a73e 2ce1 cebe
000001c0: e42e f53e 0718 c73d 8b12 20ba 2b21 8dbe
000001d0: 9143 b6be 1e65 8fbe 72df 2ebf df8a 433e
000001e0: 0270 553d e50a 66be 2e14 48be 10af df3d
000001f0: bdf7 eb3e 827f e7bd e0dc b53d ebaf 983e

mlp.0.weight f4 [16, 360]
-0.042845134 -0.058393188 -0.10301767 -0.113652855 -0.099833265 -0.103827395 -0.053656258 -0.054479156
-0.051078483 -0.08065415 -0.042494655 -0.07534512 -0.10364795 -0.08654033 -0.052359566 -0.09659103
-0.06980087 -0.023244612 -0.024956442 -0.110180445 -0.11100879 -0.11698163 -0.05309128 -0.062207427
-0.030238373 -0.072317995 -0.09482972 -0.07281052 -0.057205625 -0.103644036 -0.082135975 -0.06341631
-0.09374488 -0.05531443 -0.09861018 -0.06275504 -0.053467166 -0.012909369 -0.026486088 -0.019397847
-0.0977944 -0.010455873 -0.096721 -0.09701886 -0.074965365 -0.05756636 -0.03342134 -0.09523919
-0.101242 -0.07820014 -0.06797059 -0.093552 -0.021448618 -0.0010774137 -0.023969628 -0.0096716
-0.08492233 -0.018813139 -0.08566866 -0.077211164 -0.11433172 -0.037838057 -0.06640834 -0.027175525
-0.037441492 -0.021684607 0.0048105586 -0.07486882 -0.04606865 -0.09018422 -0.08812205 0.0011772573
-0.09345316 -0.076506875 -0.033830408 -0.016664986 -0.036697872 -0.059617136 -0.040836666 -0.008882613
-0.023126032 -0.07710874 -0.014124454 -0.018730355 -0.074970566 -0.026020603 -0.082837775 -0.021182228
-0.07758174 -0.06566999 -0.041677423 -0.06580308 -0.020112058 -0.00992727 -0.0803009 -0.0011152956
-0.048645075 -0.034493234 -0.0074542076 -0.08617848 -0.053080197 -0.0034677493 -0.036814813 -0.076992676
-0.0025252334 -0.06991384 -0.016665686 -0.0592259 -0.09020242 -0.018366553 -0.07119376 -0.02877818
-0.0035627668 -0.068425745 -0.027618678 0.014967882 -0.044260416 -0.02632557 -0.026279073 -0.08658587
-0.022644453 -0.06295533 0.002960685 -0.07413121 -0.09675172 -0.019662604 -0.019421156 -0.083315745
0.0048221843 -0.0350863 -0.084931746 -0.04330668 -0.022559464 -0.03576068 -0.023704527 -0.021650484
-0.015868044 -0.026726311 -0.018170103 -0.07863591 -0.00042000823 -0.08416506 -0.06352754 -0.06503774
0.003680424 -0.038670916 -0.07537497 -0.06710962 -0.06950043 -0.084788404 -0.031247836 -0.06377687
-0.0717415 -0.061123718 -0.07624742 -0.013409334 -0.033535726 -0.07276246 -0.073351584 -0.03965701
-0.049791873 -0.015726568 -0.017826369 -0.060265318 -0.07472548 -0.021403544 -0.055400454 -0.013618576
-0.02481208 -0.076545246 -0.00018133828 -0.04779281 -0.028002633 0.0047890027 0.001697667 -0.030146172
-0.08925921 0.0041625104 -0.09697874 -0.006498258 -0.0035290988 -0.07786699 -0.027111439 -0.026037091
-0.02971997 -0.069798544 -0.038186174 -0.030348828 -0.00150915 -0.029259393 -0.0424682 -0.081982374
-0.015405853 -0.020752244 -0.04396449 -0.024712885 -0.07278267 -0.040469628 -0.057573166 -0.06588512
-0.04915271 -0.011151851 -0.07982473 -0.052598473 -0.02621166 -0.061100855 -0.063349836 -0.009486843
-0.09583159 -0.06542007 -0.057292856 -0.054017015 -0.039536532 -0.08124462 -0.04558061 -0.09305404
-0.045491595 -0.06719024 -0.10567017 -0.08640272 -0.026252624 -0.0680208 -0.07145303 -0.045264512
-0.020855606 -0.025538415 -0.013277029 -0.10210296 -0.025374401 -0.020771766 -0.035107568 -0.030219909
-0.050380733 -0.074939966 -0.05746687 -0.0107816635 -0.0704722 -0.034656618 -0.085142665 -0.047279213
-0.07523543 -0.019756498 -0.04048051 -0.045870975 -0.03943078 0.00910866 -0.015806213 -0.005436459
0.013778603 -0.008461024 -0.047185007 -0.06256331 -0.04863963 -0.03541159 -0.05794288 -0.010787302
00000000: 617e 2fbd b22d 6fbd eefa d2bd d4c2 e8bd
00000010: 6275 ccbd 75a3 d4bd aac6 5bbd 8925 5fbd
00000020: ac37 51bd 012e a5bd e00e 2ebd 8b4e 9abd
00000030: 6045 d4bd 0e3c b1bd fc76 56bd 85d1 c5bd
00000040: c2f3 8ebd 7c6b bebc 7471 ccbc 49a6 e1bd
00000050: 9458 e3bd 1194 efbd 3e76 59bd 37cd 7ebd
00000060: 77b6 f7bc 751b 94bd 1636 c2bd af1d 95bd
00000070: 7250 6abd 5343 d4bd e836 a8bd 69e0 81bd
00000080: 51fd bfbd 6291 62bd 22f4 c9bd b785 80bd
00000090: 6300 5bbd d181 53bc 5af9 d8bc 3ce8 9ebc
000000a0: 6e48 c8bd 1c4f 2bbc a915 c6bd d3b1 c6bd
000000b0: 7187 99bd b4ca 6bbd d1e4 08bd c40c c3bd
000000c0: f757 cfbd 6527 a0bd 2a34 8bbd 3198 bfbd
000000d0: 03b5 afbc 0138 8dba f45b c4bc a175 1ebc
000000e0: c2eb adbd 031e 9abc 0d73 afbd e320 9ebd
000000f0: c026 eabd 14fc 1abd 1901 88bd 359f debc
00000100: 405c 19bd eba3 b1bc e4a1 9d3b d354 99bd
00000110: 7bb2 3cbd 81b2 b8bd 5579 b4bd 334e 9a3a
00000120: 5f64 bfbd a3af 9cbd c191 0abd 0285 88bc
00000130: 8250 16bd 1931 74bd 5944 27bd 6188 11bc
00000140: ce72 bdbc 30eb 9dbd 416a 67bc 6770 99bc
00000150: 2b8a 99bd 2929 d5bc daa6 a9bd 5a86 adbc
00000160: 2de3 9ebd fd7d 86bd f2b5 2abd c4c3 86bd
00000170: 0bc2 a4bc fda5 22bc cc74 a4bd 1c2f 92ba
00000180: 0f40 47bd c748 0dbd 6d42 f4bb 587e b0bd
00000190: 9f6a 59bd 2e43 63bb 21cb 16bd 56ae 9dbd
000001a0: 637e 25bb fd2e 8fbd 7a86 88bc db96 72bd
000001b0: 0cbc b8bd 7475 96bc 09ce 91bd 38c0 ebbc
000001c0: 4f7d 69bb cc22 8cbd 9140 e2bc d93b 753c
000001d0: 694a 35bd b9a8 d7bc 3647 d7bc ef53 b1bd
000001e0: dc80 b9bc b9ee 80bd 0d08 423b 1bd2 97bd
000001f0: c425 c6bd 7813 a1bc 1e19 9fbc 72a1 aabd
00000200: 6a03 9e3b a7b6 0fbd b2f0 adbd 5862 31bd
00000210: a0ce b8bc ca79 12bd ff2f c2bc 5b5c b1bc
00000220: b3fd 81bc 23f1 dabc 78d9 94bc dd0b a1bd
00000230: 8d34 dcb9 bb5e acbd ba1a 82bd 8232 85bd
00000240: 4533 713b 6565 1ebd 315e 9abd c570 89bd
00000250: 3e56 8ebd 8ba5 adbd 76fb ffbc 739d 82bd
00000260: 35ed 92bd dd5c 7abd 9b27 9cbd d3b2 5bbc
00000270: c25c 09bd 7c04 95bd 5b39 96bd 646f 22bd
00000280: 90f2 4bbd 01d5 80bc 9b08 92bc c4d8 76bd
00000290: ac09 99bd 7c56 afbc 96eb 62bd 7320 5fbc
000002a0: b442 cbbc c1c3 9cbd a025 3eb9 65c2 43bd
000002b0: c765 e5bc 11ed 9c3b 4084 de3a 1bf5 f6bc
000002c0: 88cd b6bd ab65 883b ca9c c6bd 57ef d4bb
000002d0: 7448 67bb ba78 9fbd cf18 debc bd4b d5bc
000002e0: 4b77 f3bc 8af2 8ebd 1b69 1cbd 1b9e f8bc
000002f0: acce c5ba 65b1 efbc 23f3 2dbd 60e6 a7bd
00000300: d568 7cbc 9c00 aabc 1c14 34bd ad72 cabc
00000310: 150f 95bd 7bc3 25bd d7d1 6bbd c7ee 86bd
00000320: 5a54 49bd 41b6 36bc 267b a3bd 7f71 57bd
00000330: d6b9 d6bc e444 7abd 8fbd 81bd b46e 1bbc
00000340: 5a43 c4bd f5fa 85bd eaab 6abd f240 5dbd
00000350: 0ff1 21bd 9463 a6bd bcb2 3abd 1e93 bebd
00000360: 6555 3abd 099b 89bd 9a69 d8bd e9f3 b0bd
00000370: be0f d7bc 7d4e 8bbd f755 92bd 4867 39bd
00000380: 60d9 aabc f035 d1bc e587 59bc 5b1b d1bd
00000390: fadd cfbc 8d29 aabc f4cc 0fbd be8f f7bc
000003a0: 075c 4ebd 207a 99bd 6162 6bbd 93a5 30bc
000003b0: bb53 90bd 19f4 0dbd 475f aebd d9a7 41bd
000003c0: 0815 9abd 61d8 a1bc e4ce 25bd 34e3 3bbd
000003d0: 2b82 21bd 7d3c 153c 087c 81bc 5324 b2bb
000003e0: a6bf 613c 1ba0 0abc 1145 41bd 3121 80bd
000003f0: 593a 47bd be0b 11bd 8355 6dbd 39bd 30bc

mlp.0.bias f4 [16]
0.0017310047 -0.093681574 -0.025119442 0.016985243 -0.061387487 -0.037881877 0.085753284 -0.024547929
-0.02018236 -0.09562378 -0.09943853 -0.046488684 -0.046795357 0.08141339 -0.106550895 0.072273314
00000000: e1e2 e23a 20dc bfbd 4ac7 cdbc a324 8b3c
00000010: 7271 7bbd 072a 1bbd 6b9f af3d bd18 c9bc
00000020: 7a55 a5bc 66d6 c3bd 6ea6 cbbd eb6a 3ebd
00000030: 7dac 3fbd 10bc a63d 5b37 dabd 0804 943d

mlp.2.weight f4 [16, 16]
-0.022115504 0.023394689 0.0016084067 -0.30582154 0.0026379116 0.000992424 -0.32884583 -0.015158955
0.0036131884 -0.014903109 0.013567612 -0.012115653 -0.013797009 -0.12129996 0.004537134 -0.1692941
-0.15806954 -0.117508665 0.120865114 0.07340424 0.25628895 -0.24777178 -0.07144146 -0.22544031
-0.048324004 0.00829513 -0.06701983 0.09384578 0.036352813 -0.120965935 0.10422612 0.046541184
-0.00517329 -0.0107336035 -0.01922071 -0.29106563 -0.01300336 0.020087225 -0.0036092089 0.009136147
0.022688385 0.008095756 0.0076930327 0.0062073544 -0.021117134 -0.35219687 -0.14916295 -0.22087415
0.25798982 0.0057378155 -0.019727066 0.039577078 0.5435854 0.016942512 0.2854611 -0.010437049
0.015239993 -0.021236245 -0.0024013992 -0.023048807 -0.014693366 -0.13525552 0.299489 0.028816521
0.008212378 0.008041824 0.004748687 -1.8519223 -0.13923633 0.020554524 0.16070588 0.0023262722
-0.017828014 0.0016344115 0.00024538787 0.011270037 0.015774418 -0.40617722 0.022703737 -0.18848303
-0.07214905 0.18137524 -0.15130197 -0.404779 -0.014803976 0.06698032 0.3993843 0.07330115
0.14536977 -0.019132953 -0.022081083 -0.07393715 0.023469537 0.15113439 -0.072420985 -0.26411328
0.21597302 -0.08976142 -0.12043415 -0.017202899 0.20025916 -0.18424971 0.32826927 0.0046010646
-0.045107577 -0.17976998 -0.16465025 0.15994735 -0.007372548 -0.2595452 -0.09042992 -0.1597624
0.10885473 0.023124604 0.2498817 0.06749936 -0.067892395 0.3063572 -0.23024932 0.047602393
0.06109361 -0.10995442 0.14148799 0.16753261 -0.026266139 -0.0058047418 0.18926881 -0.018973164
0.18388948 -0.014577967 0.019195514 0.08167564 -0.24768294 5.8324338e-05 -0.38069668 -0.014936641
-0.0043150913 0.008698553 -0.019555526 0.0062455027 -0.016671713 -0.087908916 0.04952279 -0.0010469131
-0.18468872 0.09659737 -0.0473967 0.28105882 -0.5184806 -0.048497997 -0.3816855 0.16648419
-0.18433197 0.29090887 0.18487005 -0.1705019 -0.09054464 -0.004079986 -0.43100074 0.24524228
0.12022552 -0.08151026 0.11131084 -0.24214959 -0.08346756 -0.13125494 0.38916355 0.05068629
0.069607355 -0.05101845 0.043080147 -0.11321682 0.032128144 -0.18725814 -0.4986537 -0.07384983
0.17689013 -0.018970633 -0.021569557 0.0077481307 0.106418304 0.0013839408 -0.30216414 0.022261912
-0.009922348 0.0074474127 0.011430931 0.0105290385 0.01682225 -0.14597513 -0.19496097 0.12808584
-0.06314491 0.12170771 0.21864156 -0.10214434 0.7437166 0.27833566 0.27553082 0.026673531
-0.09636352 -0.039523236 0.07597765 0.0654665 0.037732527 -0.3315689 -0.03306892 0.2652597
0.15205954 0.008936132 -0.019768726 -0.02192892 -0.14928553 0.017482193 -0.06615881 -0.011720048
-0.001888341 0.007011739 -0.007365291 -0.00951758 0.017496813 -0.033508264 0.110809475 -0.23458703
0.0016429615 -0.021240572 -0.0060535246 -0.111128084 -0.14325371 -0.023678351 -0.38408136 -0.022700302
-0.022670284 -0.0037062569 0.0113055585 -0.00039473752 -8.701413e-05 -0.049796097 -0.33608976 -0.11631889
0.06084801 -0.039737828 0.28340843 0.43806657 -0.5187197 -0.042579934 0.42266953 0.047610804
-0.005854939 0.059351675 0.07318166 -0.03280179 -0.00164248 0.11321854 -0.2670675 0.2143993
00000000: 932b b5bc 38a6 bf3c 2cd1 d23a a494 9cbe
00000010: d0e0 2c3b 3914 823a 7b5e a8be 445d 78bc
00000020: 3ecb 6c3b 2b2c 74bc b04a 5e3c bb80 46bc
00000030: da0c 62bc 1d6c f8bd 3dac 943b 6f5b 2dbe
00000040: fbdc 21be 62a8 f0bd 2188 f73d f654 963d
00000050: 4e38 833e e3b7 7dbe e64f 92bd d3d9 66be
00000060: 64ef 45bd 4ce8 073c b141 89bd 3732 c03d
00000070: b0e6 143d fdbc f7bd 8174 d53d f8a1 3e3d
00000080: b484 a9bb ffdb 2fbc c074 9dbc 8e06 95be
00000090: 0b0c 55bc f78d a43c 7a88 6cbb c7af 153c
000000a0: fedc b93c 10a4 043c d615 fc3b 1067 cb3b
000000b0: d7fd acbc 2653 b4be 2cbe 18be d52c 62be
000000c0: 3e17 843e 4904 bc3b a89a a1bc 931b 223d
000000d0: 6a28 0b3f 06cb 8a3c f527 923e 2800 2bbc
000000e0: 2ab1 793c a2f7 adbc cb60 1dbb dad0 bcbc
000000f0: 72bc 70bc 6c80 0abe 9f56 993e a010 ec3c
00000100: 368d 063c dbc1 033c e09a 9b3b ca0b edbf
00000110: f893 0ebe f661 a83c 1590 243e 5f74 183b
00000120: 0e0c 92bc c039 d63a 67a7 8039 f6a5 383c
00000130: 5a39 813c 76f6 cfbe 30fd b93c b201 41be
00000140: e2c2 93bd 6eba 393e e7ee 1abe 313f cfbe
00000150: 608c 72bc fa2c 893d 197c cc3e ea1e 963d
00000160: d0db 143e b6bc 9cbc 63e3 b4bc 5c6c 97bd
00000170: 3043 c03c f9c2 1a3e 7451 94bd db39 87be
00000180: 0828 5d3e d6d4 b7bd 2ea6 f6bd 18ed 8cbc
00000190: bd10 4d3e f5ab 3cbe e912 a83e 87c4 963b
000001a0: b9c2 38bd 9f15 38be 139a 28be 3dc9 233e
000001b0: 6a95 f1bb 1ce3 84be 5233 b9bd c198 23be
000001c0: 3bef de3d cf6f bd3c fde0 7f3e 1b3d 8a3d
000001d0: 2b0b 8bbd dada 9c3e 7ac6 6bbe bafa 423d
000001e0: 4b3d 7a3d c82f e1bd 3ae2 103e ab8d 2b3e
000001f0: 162c d7bc b435 bebb afcf 413e 9c6d 9bbc
00000200: 864d 3c3e 6dd8 6ebc e93f 9d3c 8f45 a73d
00000210: 99a0 7dbe 48a1 7438 adea c2be d0b8 74bc
00000220: 9c65 8dbb 6084 0e3c e932 a0bc 13a7 cc3b
00000230: 1e93 88bc 9709 b4bd 69d8 4a3d 9338 89ba
00000240: 0a1f 3dbe d8d4 c53d 0b23 42bd f1e6 8f3e
00000250: 25bb 04bf d6a5 46bd 486c c3be d57a 2a3e
00000260: 85c1 3cbe 02f2 943e 934e 3d3e 0d98 2ebe
00000270: 786f b9bd 67b1 85bb 21ac dcbe cb20 7b3e
00000280: cc38 f63d daee a6bd f0f6 e33d 10f6 77be
00000290: 0af1 aabd b267 06be 7240 c73e 6d9c 4f3d
000002a0: 4d8e 8e3d b9f8 50bd cf74 303d 38de e7bd
000002b0: cd98 033d 99c0 3fbe 8a4f ffbe 943e 97bd
000002c0: b022 353e 4d68 9bbc a4b2 b0bc 08e4 fd3b
000002d0: d7f1 d93d 5965 b53a 42b5 9abe 9d5e b63c
000002e0: 5891 22bc 6d09 f43b cd48 3b3c fd81 2c3c
000002f0: d1ce 893c 817a 15be d9a3 47be ef28 033e
00000300: 1e52 81bd e441 f93d 93e3 5f3e 0d31 d1bd
00000310: 3664 3e3f 0382 8e3e 6012 8d3e 7382 da3c
00000320: 3d5a c5bd 1ee3 21bd 2c9a 9b3d 4d13 863d
00000330: 6c8d 1a3d 66c3 a9be 4773 07bd 1fd0 873e
00000340: 7fb5 1b3e db68 123c 06f2 a1bc 47a4 b3bc
00000350: 4ede 18be d136 8f3c 457e 87bd 7205 40bc
00000360: 3682 f7ba bbc2 e53b 8a58 f1bb a0ef 1bbc
00000370: 7a55 8f3c f63f 09bd 14f0 e23d 9537 70be
00000380: a458 d73a b500 aebc a55c c6bb 1f97 e3bd
00000390: 1ab1 12be 1af9 c1bc 50a6 c4be fcf5 b9bc
000003a0: 08b7 b9bc ace4 72bb f33a 393c c6f4 ceb9
000003b0: 5b7b b6b8 fef6 4bbd f513 acbe 9938 eebd
000003c0: c33b 793d 22c4 22bd e91a 913e 434a e03e
000003d0: d0ca 04bf 4c68 2ebd 2468 d83e 8c03 433d
000003e0: cada bfbb be1a 733d 44e0 953d 2b5b 06bd
000003f0: 7c48 d7ba 1fdf e73d 12bd 88be 7d8b 5b3e

mlp.2.bias f4 [16]
-0.3297068 1.0490257 -0.23798944 -0.036219466 0.69395596 -0.7665397 -0.043966964 -0.075396374
-0.23242655 0.2842258 0.87048614 -0.29933158 0.13180403 -0.34352174 -0.2997289 -0.07807742
00000000: 54cf a8be 7946 863f 81b3 73be dd5a 14bd
00000010: 19a7 313f f23b 44bf b416 34bd 6a69 9abd
00000020: 3a01 6ebe 0b86 913e 2ed8 5e3f fd41 99be
00000030: a3f7 063e 15e2 afbe 1176 99be 0ee7 9fbd

mlp.4.weight f4 [16, 16]
-0.30742633 -0.04995148 0.008564002 -0.21032217 0.43019685 0.68286896 0.06711312 -0.12028583
-0.16844633 -0.3202574 0.27558777 0.041344874 -0.5323568 0.20478934 -0.34483442 -0.1195011
0.014439119 -0.04110632 -0.021500695 -0.16438721 -0.19308694 0.12608923 -0.09943553 0.016112458
0.0006568281 -0.082004875 0.08086665 0.011333722 -0.078074686 -0.00436721 -0.0033646245 -0.3680611
0.014378284 -0.18790297 -0.078927346 -0.43646422 0.035208993 -0.28826463 -0.061460268 -0.04514452
0.17780535 -0.27027968 -0.90232795 0.043593697 0.026669072 -0.20645164 -0.003443773 -0.13155788
0.021995483 -0.17059617 0.0061056726 -0.2873906 -0.1897587 -0.3123729 0.03575473 -0.11137341
0.01754795 -0.054062553 -0.13598374 -0.22271243 -0.2381936 0.10083209 -0.0014504906 -0.14514709
-0.018778697 -0.22172315 -0.021872127 -0.23613748 -0.25478992 -0.026184892 -0.10965017 -0.014599217
-0.0065877605 -0.028178062 -0.17836541 -0.008581214 -0.26808992 -0.0006891393 0.0011505552 -0.043834325
-0.047176972 -0.008957982 0.03426917 -0.26613903 0.5370304 0.14211133 0.060340237 0.19435869
0.04834448 0.07981958 0.60138845 0.203318 -0.08801898 -0.095336266 0.21954645 -0.26769897
0.0026401102 -0.024557518 -0.009065703 0.042076845 -0.16612193 -0.053213578 -0.13922475 0.13943608
-0.06493807 0.09399309 0.090092935 -0.0517972 -0.09917097 0.10094345 -0.019086665 -0.27040577
0.002947858 -0.0032498678 0.0064515397 -0.08063675 -0.111173734 0.011394594 0.052930143 -0.24088709
-0.02082411 -0.2250083 -0.044101987 -0.0076729604 -0.18884857 -0.00030394955 0.022166794 -0.21722764
0.019988673 -0.2587699 0.006600979 -0.18065137 -0.02203601 -0.098849066 -0.19663143 0.23232278
0.2603793 -0.3075144 -0.04345383 0.16837488 -0.2624405 -0.04619048 0.00061941106 0.055235047
0.10887555 -0.2204931 -0.033286408 -0.3441722 0.65041035 0.28636408 0.19982602 0.04533169
0.10271574 0.4963634 -0.45166644 0.023532817 -0.6018984 0.15842177 -0.18907209 0.45178574
0.22570413 -0.26805842 0.017960168 0.20731738 -0.8286017 0.030648932 0.050252646 -0.017477576
-0.08152314 -0.21512198 0.20653959 -0.11005376 0.16703904 0.049940933 0.28290018 0.356816
-0.007721252 -0.30971366 0.008231344 -0.13255803 -0.085403614 0.12638082 -0.051506337 -0.20363833
0.004881377 -0.15026635 -0.26968032 0.13907917 0.06415008 0.0059442515 0.017777301 -0.040119458
-0.20526452 0.650626 -0.089573614 -0.17105332 0.2697057 -0.42278 -0.4212053 0.1313637
-0.19128035 0.32785654 0.32050014 0.08420196 0.062221657 -0.16005933 0.027047478 -0.014627739
0.009816594 -0.41836184 -0.014334955 -0.11425904 0.1109676 -0.11475502 0.16477048 -0.0057031536
0.5022635 -0.41250387 -0.03545937 0.012573599 0.0030749354 0.0019208327 0.016778607 0.03346493
-0.25383726 0.1316497 -0.16219483 -0.22826427 0.6445307 -0.1005728 -0.6019706 -0.22634448
-0.38191742 0.089561515 0.11791277 0.009980698 -0.22533756 0.484887 -0.16795038 -0.35176742
0.01304685 -0.2576523 -0.0037712336 -0.27640125 -0.098120466 -0.11089806 -0.43822992 -0.23290466
0.009353989 -0.13324879 -0.1961415 -0.01201798 -0.21755809 0.0006493837 0.01294004 -0.2260309
00000000: fc66 9dbe ec99 4cbd 0750 0c3c b25e 57be
00000010: c342 dc3e 80d0 2e3f 9a72 893d 6b58 f6bd
00000020: 327d 2cbe c7f8 a3be d719 8d3e 3e59 293d
00000030: 8948 08bf 4cb4 513e 238e b0be febc f4bd
00000040: 0e92 6c3c 1a5f 28bd 3a22 b0bc 1f55 28be
00000050: 95b8 45be 891d 013e dba4 cbbd 46fe 833c
00000060: fd2e 2c3a 2cf2 a7bd 6a9d a53d 13b1 393c
00000070: 9fe5 9fbd d01a 8fbb 0881 5cbb 8172 bcbe
00000080: e592 6b3c a369 40be a9a4 a1bd 3d78 dfbe
00000090: 4e37 103d 6c97 93be c3bd 7bbd 76e9 38bd
000000a0: 9b12 363e 1962 8abe f7fe 66bf 4e8f 323d
000000b0: 1979 da3c 0f68 53be ecb0 61bb 1cb7 06be
000000c0: df2f b43c c3b0 2ebe 1812 c83b dc24 93be
000000d0: 1b50 42be 57ef 9fbe 8d73 123d be17 e4bd
000000e0: b8c0 8f3c b270 5dbd 523f 0bbe ba0e 64be
000000f0: 06e9 73be 0e81 ce3d 631e beba 70a1 14be
00000100: c8d5 99bc 650b 63be 2d2d b3bc 06ce 71be
00000110: d373 82be b381 d6bc 4590 e0bd 8e31 6fbc
00000120: 24de d7bb aed5 e6bc 6ca5 36be 3898 0cbc
00000130: 1543 89be 5ba7 34ba 3ace 963a 9f8b 33bd
00000140: a43c 41bd 80c4 12bc d45d 0c3d 6043 88be
00000150: d37a 093f a285 113e 5327 773d f705 473e
00000160: dd04 463d 7378 a33d 98f4 193f 9832 503e
00000170: 4c43 b4bd a93f c3bd c9d0 603e d70f 89be
00000180: b305 2d3b d92c c9bc 5088 14bc c558 2c3d
00000190: de1b 2abe 7bf6 59bd ef90 0ebe 55c8 0e3e
000001a0: 40fe 84bd 737f c03d a582 b83d 4d29 54bd
000001b0: 261a cbbd 71bb ce3d a35b 9cbc a072 8abe
000001c0: da30 413b bcfb 54bb 7067 d33b e124 a5bd
000001d0: 0eaf e3bd 64b0 3a3c 47cd 583d 1bab 76be
000001e0: 5397 aabc 9368 66be 49a4 34bd 756d fbbb
000001f0: 8561 41be 6b5b 9fb9 2397 b53c ec70 5ebe
00000200: 49bf a33c 7d7d 84be 064d d83b acfc 38be
00000210: dd84 b4bc 6171 cabd c059 49be 06e6 6d3e
00000220: 7050 853e 8772 9dbe a5fc 31bd 776a 2c3e
00000230: 9a5e 86be 3b32 3dbd f95f 223a 253e 623d
00000240: 25fa de3d f1c8 61be 5457 08bd 5737 b0be
00000250: 4b81 263f 509e 923e 319f 4c3e b9ad 393d
00000260: a15c d23d 5823 fe3e d340 e7be e5c7 c03c
00000270: 0316 1abf 5139 223e 1d9c 41be 7650 e73e
00000280: fc1e 673e f43e 89be 3421 933c 024b 543e
00000290: 3e1f 54bf 7813 fb3c b8d5 4d3d 222d 8fbc
000002a0: 9bf5 a6bd f048 5cbe 1d7f 533e de63 e1bd
000002b0: 480c 2b3e dd8e 4c3d 4bd8 903e 96b0 b63e
000002c0: 8e02 fdbb ca92 9ebe c2dc 063c 4bbd 07be
000002d0: 17e8 aebd f969 013e 4ff8 52bd 9186 50be
000002e0: f5f3 9f3b 6cdf 19be 8a13 8abe c56a 0e3e
000002f0: 1e61 833d ffc7 c23b b4a1 913c 4d54 24bd
00000300: dd30 52be 6d8f 263f 5f72 b7bd 9a28 2fbe
00000310: de16 8a3e 9f76 d8be 39a8 d7be 3584 063e
00000320: ffde 43be d0dc a73e 9818 a43e 1472 ac3d
00000330: 23dc 7e3d 98e6 23be ac92 dd3c 2fa9 6fbc
00000340: c8d5 203c 8633 d6be 29dd 6abc a500 eabd
00000350: fb42 e33d ae04 ebbd 98b9 283e 85e1 babb
00000360: 5794 003f b533 d3be d83d 11bd 7f01 4e3c
00000370: db84 493b 73c4 fb3a 4a73 893c 8612 093d
00000380: f5f6 81be 2ecf 063e 6716 26be 1cbe 69be
00000390: f7ff 243f 1df9 cdbd bf1a 1abf d9c6 67be
000003a0: ae8a c3be 076c b73d 407c f13d 1586 233c
000003b0: e4be 66be 1c43 f83e 2ffb 2bbe dc1a b4be
000003c0: 75c2 553c 01eb 83be cd26 77bb 7784 8dbe
000003d0: 62f3 c8bd 861e e3bd ac5f e0be 8f7e 6ebe
000003e0: 7941 193c 5f72 08be 51d9 48be 10e7 44bc
000003f0: 8cc7 5ebe 673b 2a3a 7602 543c a574 67be

mlp.4.bias f4 [16]
-0.05628921 0.014897613 -0.045312136 0.10198346 -0.13594513 0.40092874 -0.13369888 -0.33421493
-0.2686386 0.31345743 0.07689982 -0.06961002 0.6896794 -0.2336466 0.5003908 -0.03948601
00000000: 848f 66bd 1e15 743c 3899 39bd b4dc d03d
00000010: 3335 0bbe 8846 cd3e 5ce8 08be 381e abbe
00000020: 008b 89be 7e7d a03e a77d 9d3d b38f 8ebd
00000030: d48e 303f 0e41 6fbe 9d19 003f 15bc 21bd

mlp.6.weight f4 [3, 16]
0.07405995 0.13121298 -0.015046223 0.16322303 -0.05675478 -0.07632024 0.20191637 -0.133592
0.25551662 0.12271305 0.35950804 -0.14156775 -0.36493707 0.021389332 -0.40575865 -0.0008379832
-0.3662956 0.2369263 0.13172826 0.20182353 0.22241703 -0.35813645 -0.112880886 -0.05823715
-0.15785557 0.15648153 0.36157903 0.20220053 -0.069235004 0.051575787 -0.122391164 0.06596176
-0.10832681 -0.01743397 -0.020928094 0.15031208 0.0018572243 -0.21939625 0.1416505 -0.04808962
0.18259418 0.49204624 -0.11787531 0.12007523 -0.26187563 0.079612814 -0.044595428 0.04878372
00000000: beac 973d b25c 063e 6f84 76bc f023 273e
00000010: b377 68bd c94d 9cbd 2ac3 4e3e 57cc 08be
00000020: 13d3 823e fb50 fb3d 7011 b83e 23f7 10be
00000030: 08d9 babe ae38 af3c 99bf cfbe 1aac 5bba
00000040: 198b bbbe cf9c 723e c6e3 063e d4aa 4e3e
00000050: 4ac1 633e a95d b7be 182e e7bd 148a 6ebd
00000060: e4a4 21be b23c 203e e320 b93e a80d 4f3e
00000070: 15cb 8dbd 2241 533d 38a8 fabd f616 873d
00000080: 72da ddbd afd1 8ebc 6571 abbc 69eb 193e
00000090: 1b6e f33a 69a9 60be d40c 113e 9ff9 44bd
000000a0: f8f9 3a3e 7ced fb3e 9c68 f1bd 01ea f53d
000000b0: 9014 86be 0b0c a33d b2a9 36bd 70d1 473d

mlp.6.bias f4 [3]
0.48511586 -0.20103285 -0.4378856
00000000: 1b61 f83e 8edb 4dbe 8b32 e0be
