EUSIPCO/Nested Array/saved_models/rnn_10.0dB_nested_3.pth (torch, 87922 bytes, 14 tensors)

bn.weight f4 [16]
000000 35 65 3b 3f cf 3d 78 3f f1 21 5c 3f 02 c3 32 3f
       0.73201305 0.9696931 0.8598929 0.6982881
000010 6e a1 4d 3f 5d a2 44 3f cf 96 5b 3e bd e0 06 3f
       0.8032445 0.76810247 0.21444248 0.52686673
000020 39 2e 89 3f a7 22 81 3f a4 12 cb 3f 56 1e 93 3f
       1.0717231 1.00887 1.5865064 1.1493633
000030 3c e6 4b 3f 43 7f 09 3f d9 6a cd 3e 5f 1c f4 3d
       0.79648185 0.5370981 0.4012058 0.11919474

bn.bias f4 [16]
000000 e3 38 ad bd 9d a0 e2 be a9 9b 5e be 44 6d 92 bd
       -0.08458116 -0.44263163 -0.21739067 -0.07149747
000010 05 a8 61 bc dd 47 57 3e 02 df 55 be ca 0c 2e bd
       -0.013772969 0.21023507 -0.20885852 -0.042492665
000020 c8 97 e1 3d 42 99 b0 3e f6 74 b1 3e 9e 1f fb 3d
       0.11015278 0.34491926 0.34659547 0.1226189
000030 44 48 a0 bc 4a df 67 bd d2 48 c8 bc e6 14 1c 3e
       -0.019565709 -0.05660943 -0.024448786 0.15242347

bn.running_mean f4 [16]
000000 6c 85 b0 ba f1 50 99 b9 eb 2c b7 ba 90 ce 97 38
       -0.0013467497 -0.0002924274 -0.0013975179 7.238716e-05
000010 06 8f c1 ba c2 d4 e1 b9 5b f3 86 b6 38 11 cc b8
       -0.0014767356 -0.0004307386 -4.0218415e-06 -9.730685e-05
000020 9d da 86 b9 7b 06 16 3b 51 64 9c ba 36 3a a9 b8
       -0.0002572135 0.0022892046 -0.0011931752 -8.0693906e-05
000030 ec 99 fe b9 6e 46 03 ba ba 36 b0 38 a3 86 64 39
       -0.00048561336 -0.0005007748 8.4025276e-05 0.0002179393

bn.running_var f4 [16]
000000 bf f8 c6 3f 04 c5 c6 3f c7 57 c6 3f 14 7a c6 3f
       1.5544661 1.5528874 1.5495538 1.5506005
000010 45 b0 c6 3f 0a 88 c6 3f cf b7 c6 3f e1 b6 c6 3f
       1.5522543 1.5510266 1.5524844 1.552456
000020 9f d9 c6 3f 0e c0 c6 3f 10 5d c6 3f db 54 c6 3f
       1.5535163 1.552736 1.549715 1.5494646
000030 5b a5 c6 3f 41 00 c7 3f b0 c3 c6 3f ca 90 c6 3f
       1.5519212 1.5546952 1.5528469 1.5512936

rnn.weight_ih_l0 f4 [48, 16]
000000 53 78 da 3d 76 75 3a bf 22 12 ec be 60 8c 9d be
       0.10667481 -0.7283548 -0.46107584 -0.3077116
000010 72 4b 29 3f 66 7e 5b be cd 2d 1b be 0c f2 e9 bd
       0.66130745 -0.21434936 -0.1515419 -0.1142312
000020 06 b7 04 3f 4f 47 d2 3e 53 d5 a6 bf 04 74 a6 3d
       0.5184177 0.4107003 -1.3033851 0.08127597
000030 7f c6 38 bf 23 7a 3f bf f6 92 c9 3d 91 a7 ab be
       -0.7217788 -0.7479574 0.09842484 -0.3352628
000040 ef 02 68 3e 3a 73 63 3e c5 21 ab bd 83 1b 88 be
       0.22657369 0.22211924 -0.083560504 -0.2658349
000050 30 2f 84 bc 9e 22 91 3c 0f a8 5c 3d d4 37 01 bf
       -0.016135782 0.017716702 0.05387121 -0.5047581
000060 8b 40 a8 bd 9d 6b 98 3d ef 56 f7 3d e5 ff 3a 3e
       -0.082154356 0.074424006 0.12077128 0.18261679
000070 ba b0 7f 3e 49 25 6e bd c4 af b2 3d 9e 95 d1 be
       0.2496976 -0.058141027 0.08724931 -0.4093446
000080 ba 9a c1 bf 21 7b ea 3d 49 ad 28 3f d1 dc c0 be
       -1.5125344 0.11449266 0.6588941 -0.3766847
000090 79 6c 7d bf 07 41 1b 3f 70 31 72 be c0 fc e2 3d
       -0.9899364 0.606461 -0.23651671 0.110833645
0000a0 d0 38 8b bd 50 d4 07 3f 65 56 a4 be fa 45 25 bf
       -0.067979455 0.5305834 -0.32097164 -0.645599
0000b0 c6 4a 1f 3f 23 9d 1a 3f 72 aa 82 bf 87 c1 50 3f
       0.6222347 0.6039602 -1.0208266 0.815453
0000c0 12 8c 32 be 2e c6 b9 3f e6 33 01 3e 01 02 17 3f
       -0.17436245 1.4513605 0.12617454 0.5898743
0000d0 ad 41 18 bf bd be d1 3e 68 0f 1b bf 5a 14 94 3e
       -0.59475213 0.40965834 -0.60570383 0.28921777
0000e0 07 db 6a bf af e9 0e bd bb 77 57 3f 76 8c 95 bd
       -0.9174046 -0.034890827 0.8416707 -0.073021814
0000f0 f3 2d 25 be dc 82 a6 be c8 8b e3 3d ef ae 1a bf
       -0.1613081 -0.32521713 0.111106455 -0.6042318
000100 9d 4d 93 3f 30 ac 9e bf aa 55 5c 3f e5 0f 6e 3e
       1.1508061 -1.2396297 0.86068213 0.23248251
000110 99 e3 27 bf 30 35 ab 3e 44 b6 17 bf 5e 17 41 3f
       -0.6558166 0.33439016 -0.5926249 0.7542628
000120 4c 08 42 3f 5f 9c 97 bc 59 33 72 bf ae a3 3c 3f
       0.7579391 -0.01850718 -0.946096 0.73687255
000130 5c f4 10 3e 54 aa df 3e a8 c9 c3 be 29 81 82 3d
       0.14155716 0.43684638 -0.3823979 0.063722916
000140 2b c2 81 bf c4 25 1a 3f 34 9c b0 bf a7 af fc 3e
       -1.013738 0.60213876 -1.379767 0.49352762
000150 22 b5 d8 3d 4c 27 bb 3e 4c d7 e5 3e 8d df ec be
       0.10581423 0.3655342 0.4489082 -0.46264306
000160 0d d7 54 3f 56 64 cc bd c6 c7 9d 3c ed 3c 20 be
       0.8314064 -0.09980075 0.019260298 -0.15648241
000170 88 5c 9c bd 1f 3f 87 bd d5 c9 96 be f6 3f c3 3e
       -0.076348364 -0.06603836 -0.2945086 0.38134736
000180 c4 ec 24 3f 1d d1 68 3f 85 af b9 bf da 84 61 3f
       0.64423776 0.9094408 -1.4506689 0.8809334
000190 e2 4e c3 3f 6a 64 8b be aa 36 86 3f 3b c6 23 bf
       1.5258448 -0.27225047 1.0485432 -0.6397435
0001a0 94 31 43 bf 4b 6f 53 3f 3d cb 43 3e 58 1a 9a bf
       -0.76247525 0.82591695 0.19120498 -1.203929
0001b0 2f 42 46 3f 45 db 4c 3e f7 25 5b be d4 17 eb be
       0.7744474 0.2000552 -0.21401201 -0.45916617
0001c0 6e 98 a6 3f b3 0b 19 bf fb 59 1f 3f a9 10 0e be
       1.3015268 -0.59783477 0.62246674 -0.13873543
0001d0 b3 d8 0f bf 2a 76 d3 3e 49 9a 08 3f 1d b8 55 bf
       -0.5619003 0.4130109 0.5336042 -0.8348406
0001e0 83 bb 9e 3d 78 2f dc be 71 7d 65 3e 47 1f 48 3b
       0.07750609 -0.43004966 0.22411133 0.003053622
0001f0 c7 d2 31 bf d0 79 76 bf 36 82 88 3e b6 ae 2e bf
       -0.69462246 -0.9627962 0.26661843 -0.6823534
000200 c4 cf 19 3f 98 11 b4 3e 72 2c 05 3f 1d cf 10 3f
       0.6008265 0.35169673 0.52020943 0.5656603
000210 6f e1 ac 3c 86 66 92 3f 14 0b 3d bf c5 24 62 3f
       0.021103589 1.1437538 -0.7384503 0.88337356
000220 03 77 0b 3d 36 17 38 3e 4a ac ac be a3 46 ce 3e
       0.034049045 0.17977604 -0.33725196 0.40288267
000230 29 8b 0d bf a8 96 c5 3e f7 cc 47 bf d3 10 96 3c
       -0.55290467 0.38591504 -0.78047127 0.01831857
000240 ee 31 cb be e0 78 b8 bf 0a f3 bf be 99 36 f5 3e
       -0.3968653 -1.4411888 -0.37490112 0.47893217
000250 d4 9f 52 3e 40 21 71 3e ca a1 0e be 63 ab b3 be
       0.20568782 0.2354784 -0.13928905 -0.35091695
000260 0e 6f 37 be 95 15 25 3f 35 37 61 3f ac 18 a4 3f
       -0.17913458 0.64486057 0.87974864 1.2820029
000270 94 09 fc be 3c 36 0e bd 0b 8b 77 3d d0 39 f1 be
       -0.49226058 -0.03471969 0.060435336 -0.4711442
000280 16 e6 42 3f 7e 5f d1 3d c2 03 09 be b1 a3 9d be
       0.76132333 0.10223292 -0.1338034 -0.3078895
000290 03 a3 0c bf 89 ca c2 be b7 fb c3 3d 5b 72 28 3f
       -0.54936236 -0.38045147 0.09569495 0.6579949
0002a0 62 71 82 be ee 6f 9e be 9e e2 f2 be fb 9d cf bf
       -0.2547713 -0.3094477 -0.4743852 -1.6220087
0002b0 7d b9 a5 bf d6 52 a9 be 55 cd 83 3f 75 fb f6 bb
       -1.2947232 -0.3307101 1.0297037 -0.0075373
0002c0 f8 50 61 be 8e 83 48 be fc f4 3a 3f 1d 0c b0 bd
       -0.22003543 -0.19581434 0.73030066 -0.085960604
0002d0 3c 86 04 bf cf 0b d7 3e 72 9e 11 bf 21 be e6 3e
       -0.51767325 0.42001197 -0.56882393 0.45066932
0002e0 a5 31 71 3f bc 4e 8f bf 19 6e d1 3e c4 4e 89 3f
       0.94216377 -1.1195903 0.4090431 1.0727162
0002f0 0d fe cc bd 1a 6a 7a 3e d4 35 06 3e d9 d4 0a bf
       -0.10009394 0.24454537 0.13106471 -0.5423103
000300 06 ef 81 bf 49 87 76 3f 13 32 26 3f 2d 5b a9 be
       -1.0151069 0.9630018 0.6492016 -0.33077374
000310 bb 6a 0d 3f f2 58 d6 3e bd dc 02 bf f5 8d eb 3e
       0.5524098 0.41864735 -0.5111807 0.46006742
000320 e3 63 c8 3e ec f2 40 bf a7 59 60 bd 34 f9 93 3f
       0.39138708 -0.7537067 -0.054773 1.1560426
000330 a7 37 62 bf 1a 83 a7 3e 47 19 92 3e 44 84 90 be
       -0.8836617 0.3271721 0.2853491 -0.2822591
000340 f5 49 c6 be bb 52 a1 be 35 49 f3 3e ad fb 4d be
       -0.387283 -0.3150843 0.4751679 -0.20115538
000350 c4 68 ae bb 00 09 0d be 0b e6 4f 3f 1c 06 f1 be
       -0.0053225476 -0.13772964 0.8121039 -0.47074974
000360 48 06 84 bb 67 33 c3 3e 7d 5c 40 bf 8e 35 9f be
       -0.004029069 0.38125154 -0.75141126 -0.31095546
000370 8a 69 32 3f 0d 66 29 bf 42 bc 1f 3f f1 a9 15 bf
       0.6969229 -0.6617134 0.62396634 -0.58462435
000380 f8 d4 0f bf e9 9b 63 3f 1b ab b4 3e e9 d6 17 be
       -0.5618434 0.88909775 0.35286793 -0.14828075
000390 7f be 60 3f 07 d0 b6 be cd 33 20 3f 92 b2 cb be
       0.87790674 -0.35705587 0.6257904 -0.39784676
0003a0 0a a0 78 bd 27 b8 2e bf e4 3a 25 3f de 1d a4 3e
       -0.0606995 -0.68249744 0.64542985 0.32054037
0003b0 b8 8f b7 be 45 4f f8 3e 0e 48 e2 bc 4b b2 4c 3e
       -0.35851836 0.48497978 -0.027622249 0.19989888
0003c0 73 c0 36 3e ed 75 d8 bf 25 cb 0b 3f e0 20 60 3f
       0.17846851 -1.6910988 0.5460685 0.87550163
0003d0 15 7a af be 93 a4 a7 be a0 67 7d 3e 42 53 eb 3e
       -0.3427283 -0.32742748 0.24746561 0.45961958
0003e0 92 99 2d 3e 68 67 af 3d f6 dd 8a 3f 13 92 a0 3e
       0.16953114 0.08564645 1.0848987 0.31361446
0003f0 14 16 0a bf 11 ec c3 3e fd 3e ab be 3d f6 b1 be
       -0.5393994 0.38266042 -0.33446494 -0.34758177

rnn.weight_hh_l0 f4 [48, 16]
000000 51 a6 22 3f 71 7c 13 3f 41 63 6b be 00 e4 17 bf
       0.6353503 0.5761176 -0.22987081 -0.59332275
000010 af 4a a4 bd 34 36 b4 3e b9 ed ad bc 33 21 66 be
       -0.08022057 0.35197604 -0.021231519 -0.22473602
000020 cc 55 2e 3f 52 e7 41 3f c0 0d d5 3e b4 cc 2f 3f
       0.68099666 0.7574359 0.41612053 0.6867173
000030 b0 7c 3d bf 5b be ea bd f7 ac b0 be 1a 90 a4 3e
       -0.74018383 -0.11462089 -0.34506962 0.3214119
000040 bb bc 83 3f e4 12 bf be 67 47 b6 bf dd 06 33 bf
       1.0291971 -0.373191 -1.424054 -0.6993235
000050 6b 73 6b bf 17 f0 91 be 0b 97 9d 3e 21 f2 bf 3f
       -0.9197299 -0.28503487 0.307793 1.4995767
000060 de 61 35 be cb 99 c4 3f 45 6a e2 bf 4c 49 64 3d
       -0.17713115 1.5359434 -1.7688681 0.055733964
000070 d3 d1 d0 bf 76 1c 60 be 7a e0 c4 bd bc a8 33 be
       -1.6314033 -0.21885857 -0.09613128 -0.17544836
000080 93 ab fb bd 94 3e e5 3f ba 8e f3 be 6a 57 56 bf
       -0.122885846 1.7909722 -0.4756983 -0.83727133
000090 9d 63 ab be db 18 2b 3f a3 68 96 be 6b 82 2f 3e
       -0.33474436 0.668348 -0.29376706 0.17139594
0000a0 d2 ef a0 3f 1b 14 0a bf 3e f4 dc be 5c d0 98 3f
       1.2573187 -0.5393693 -0.43155092 1.1938586
0000b0 ee 83 db bf 91 d9 19 3f c9 9a f5 bd 02 4f 0b 40
       -1.7149637 0.60097605 -0.119924136 2.1766973
0000c0 a1 22 09 3e e1 cc 4a 3e 8a 0c 88 3d 1d a0 25 3e
       0.13392116 0.19804718 0.06643017 0.1617436
0000d0 02 15 87 3e 91 e9 2e be 5a 2f 91 3e 46 62 c6 be
       0.26383215 -0.17081286 0.2835644 -0.38746852
0000e0 ba b6 5a be a2 31 ec 3e 1f de 98 3c fb b9 6d 3d
       -0.21358767 0.46131617 0.018660603 0.058038693
0000f0 90 f7 cd be c0 92 d0 be a0 e1 01 3f 8a 06 7b 3e
       -0.40227938 -0.4073696 0.507349 0.24514213
000100 fa a1 ed be ae 88 57 be 88 14 94 be 1c 9e 54 3f
       -0.4641264 -0.21048233 -0.28921914 0.83053756
000110 de a5 89 bf 52 12 90 bf aa 1d b0 bf a0 34 12 3f
       -1.0753744 -1.1255591 -1.3759053 0.5711155
000120 e3 5d 8b bf 68 d1 27 bf bc 56 ff bc e7 98 e0 bf
       -1.0888027 -0.65553904 -0.031169288 -1.7546662
000130 30 5f ab be 1b 83 1a bf c8 2f 44 3f b7 61 04 bf
       -0.3347106 -0.603563 0.7663541 -0.517116
000140 97 22 43 bf 32 3a 21 3f 32 af 25 3f 4d df d5 be
       -0.76224655 0.62979424 0.6472045 -0.41771927
000150 86 9b 5c be 0f 68 81 3e 86 32 ee be 6d ef 82 3b
       -0.21543702 0.25274703 -0.4652292 0.003995827
000160 de 66 12 be ea 9d 86 3d ed 6e 71 3e 08 42 a6 3e
       -0.14297053 0.065730885 0.23577471 0.32472253
000170 61 b9 0a be 39 54 f3 bd fa e2 e5 be e9 5b 94 3c
       -0.13547279 -0.118812986 -0.44899732 0.018110232
000180 96 83 f5 3d 0a 4b e2 bd 3a 15 2b bf e0 6b 0d 3f
       0.11987989 -0.11049469 -0.66829264 0.5524273
000190 e4 02 58 bf 6e 93 25 bf c5 e5 a8 bf 46 63 30 3f
       -0.8437941 -0.64678085 -1.319512 0.6890148
0001a0 b5 e8 ad bf a4 31 95 3e 09 0d 8b 3c 91 62 9f bf
       -1.3586642 0.29139435 0.01697399 -1.2451955
0001b0 cb ee bd bf b2 33 8e bf e9 aa a3 bd 31 48 f3 be
       -1.4838499 -1.1109526 -0.07991583 -0.47516015
0001c0 45 4b af 3e 15 87 4a 3f 32 5d 03 3c d6 40 c8 3e
       0.34237114 0.7911237 0.008017825 0.39111966
0001d0 83 fd 1d bf 37 b4 bb be 5f 4c 91 bf a0 c1 24 bf
       -0.61714953 -0.3666093 -1.1351432 -0.6435795
0001e0 e8 ff 8e bb d9 9b 21 3f 10 e4 75 be 25 ee bb be
       -0.0043640025 0.6312843 -0.2401278 -0.36705127
0001f0 e6 92 6d bf 35 ff 15 bf d0 f9 5c 3e 90 56 4b bc
       -0.92802274 -0.5859254 0.21579671 -0.012410775
000200 e9 8d a1 3e 9d 08 c5 3e 9e af 02 3f 71 dd 90 be
       0.3155358 0.38483134 0.5104922 -0.28293946
000210 6e a1 27 3f 97 0d 21 3e a7 41 b7 3e 62 2b 41 3d
       0.654807 0.1572784 0.35792276 0.047160514
000220 3a 98 b8 3e 76 a7 bb 3e 68 31 d4 3e bc 7b bd 3e
       0.3605364 0.366512 0.41443944 0.37008464
000230 b4 2c 75 be 9a d8 e1 be 7e e8 03 bf ac d9 0c 3e
       -0.23942834 -0.44110566 -0.5152663 0.1375491
000240 52 c0 7a bf a0 93 82 3d 9a 1f 02 bf 98 56 4c bf
       -0.9794971 0.063758135 -0.5082947 -0.7981963
000250 48 cf 00 bf f3 d5 1a 3f 45 7a 02 3f d3 a0 29 be
       -0.50316286 0.6048271 0.5096782 -0.16565256
000260 ba a2 21 3f d3 59 8a 3f 83 43 9c 3f ae 60 f8 3e
       0.63138926 1.0808662 1.2208103 0.4851126
000270 3e 87 71 3f 2a 32 46 3f 52 f1 0b bf b7 a0 c2 3f
       0.9434699 0.77420294 -0.546651 1.5205296
000280 88 eb 24 be bd f7 32 3f 80 0f 43 bf 67 56 b1 bf
       -0.16105473 0.6990927 -0.76195526 -1.3854493
000290 21 1c 0d bf ad ab 1a 3f 68 5d 9d 3d 4b 3b 11 3f
       -0.55121046 0.60418206 0.076838315 0.567311
0002a0 52 5c 82 3f 8b a6 d7 3f 92 bf b2 3e e4 c8 5d 3f
       1.0184424 1.68477 0.34911782 0.8663466
0002b0 cc 21 b8 3e a3 48 7e 3f 2a f1 31 be 92 1c 17 3f
       0.35963285 0.99329585 -0.17377153 0.5902797
0002c0 04 7e 1b 3e 94 98 36 3f 56 54 67 3e a2 2c bd be
       0.1518479 0.71326566 0.22590765 -0.36948115
0002d0 25 27 53 be 7e c2 a2 bd fa c7 4f be e2 b3 88 3e
       -0.20620401 -0.07947253 -0.20291129 0.2669974
0002e0 32 db 8b 3e 57 2e 3e 3e 8b b7 3a 3f d0 31 e6 3e
       0.2731567 0.18572365 0.72936314 0.4495988
0002f0 a8 70 c4 be ca 68 1f 3e 94 30 19 bd be 93 40 3f
       -0.383672 0.15567318 -0.037399843 0.75225437
000300 f9 b5 a2 3d e6 ae 18 3f 5d a6 04 3c 2c c2 1d bd
       0.07944865 0.59641874 0.008096305 -0.038515255
000310 fe 8d f8 be 3e 19 e8 3e 50 b6 5e be 2f d5 b9 3e
       -0.4854583 0.45331758 -0.21749234 0.3629546
000320 33 56 66 3e 80 8c 1a bf 96 94 55 be 27 11 86 3e
       0.2249382 -0.60370636 -0.20857462 0.2618496
000330 24 b0 2f bf 48 27 ff bd 5e c2 70 be e8 c6 4f 3f
       -0.68628144 -0.12458664 -0.23511645 0.8116288
000340 38 56 79 bf 25 87 bb 3e 4a 6e 83 3c c4 6e ae be
       -0.97397184 0.36626545 0.0160438 -0.34068882
000350 42 02 f6 3e 94 17 12 3f 03 8a 4c 3f ca 38 e9 3d
       0.48048598 0.5706723 0.7989809 0.11387785
000360 43 26 fb 3e b2 b5 14 3d b6 53 39 3c fd 07 ad 3e
       0.4905263 0.03630609 0.011311462 0.33795157
000370 51 1f 09 bb 15 bc 9d 3d eb 8c 94 bd b2 2e 9b 3e
       -0.0020923207 0.077018894 -0.072534405 0.30309063
000380 b3 47 3d be f9 54 ab 3e ac 7a b1 be bc c4 d3 3e
       -0.18484382 0.33463266 -0.34663904 0.41361034
000390 08 d1 93 be 4c f0 7d bd 1e 10 76 3d 7a e4 bf 3e
       -0.28870416 -0.061996743 0.060073964 0.37479
0003a0 52 4e 10 bf 3e cd cf 3e c6 3c 75 be be df b6 bd
       -0.5636951 0.40586275 -0.23948964 -0.08929394
0003b0 71 a6 07 bf 07 31 ed be f0 d4 2a 3f 93 42 1c 3f
       -0.52988344 -0.46326467 0.66731167 0.61039084
0003c0 09 c1 8d 3e 9d ef d7 3d 95 5a bb 3e 02 45 7c 3e
       0.27686337 0.105437495 0.36592546 0.246357
0003d0 67 ee 90 be 96 74 4c be 63 dd 7c be 28 32 12 3e
       -0.28306887 -0.19966349 -0.24693827 0.14276946
0003e0 11 98 2e bd d5 60 09 3f c0 eb 1b bd 20 3c bb be
       -0.04262549 0.5366338 -0.038066626 -0.3656931
0003f0 33 90 8c bd cd 33 40 3d 9f 34 95 3e c6 d5 d9 be
       -0.06863441 0.0469244 0.2914171 -0.4254591

rnn.bias_ih_l0 f4 [48]
000000 31 d9 20 3d bb 2b 1f 3d c1 28 23 3f 0b 7b 93 be
       0.03926963 0.038860064 0.6373406 -0.28804812
000010 d8 ac 0c 3e 38 cc b2 be 5b 6f 00 bf 07 37 28 bf
       0.1373781 -0.34921432 -0.50169915 -0.65708965
000020 b1 0e b9 be 4f 4d b8 be e1 b2 de 3d f7 54 a5 be
       -0.3614402 -0.35996482 0.10873962 -0.32291386
000030 3c 1f c8 be b3 7e d6 be b6 ce f9 be fc c0 c1 be
       -0.3908633 -0.4189354 -0.4879052 -0.37842548
000040 83 6b 71 3f 00 1f db 3f 45 c6 95 3f 65 20 a6 3f
       0.94304675 1.7118835 1.1701132 1.2978636
000050 de ec 75 3f 0f 5f 88 3f 1f ab 08 40 5e 97 8c 3f
       0.96064556 1.065401 2.1354444 1.0983694
000060 87 cc cd 3f 49 a6 78 3f 23 11 a6 3f 37 41 e4 3f
       1.6078042 0.9712873 1.297398 1.7832402
000070 47 b3 bd 3f a3 e8 02 40 3d 13 dd 3f 25 af cb 3f
       1.4820336 2.045449 1.7271496 1.5912825
000080 3a ce c2 3e 8e a2 1e bf a9 b1 d7 3e 9c 6c 04 be
       0.38047963 -0.6196679 0.4212773 -0.12932056
000090 b7 c8 a3 be 6f 1b fc 3d e4 f2 ad bd 53 70 7b be
       -0.3198907 0.1230992 -0.08493593 -0.24554567
0000a0 b9 5d c0 be 64 e2 b9 3d b2 2e 9c be 4c a4 8d be
       -0.37571505 0.09076384 -0.30504376 -0.2766441
0000b0 12 f6 3b be bc df 27 3e 6f 4a a0 3e ee 3f 3e be
       -0.18355587 0.16393942 0.31306788 -0.18579075

rnn.bias_hh_l0 f4 [48]
000000 a6 01 5c be 8b 2f a1 be 1d 22 a0 3e 29 53 9e be
       -0.21485004 -0.31481585 0.31276026 -0.3092282
000010 d6 27 98 be 59 00 78 be d8 63 3a bf e2 38 f8 be
       -0.29717892 -0.24218883 -0.728086 -0.48480898
000020 ac 97 d0 be 97 30 9c be dc a2 cc 3e 77 17 d4 be
       -0.40740716 -0.3050582 0.39968002 -0.41424152
000030 28 ce c8 be 12 07 77 be b7 6e ef be f3 2e 25 bf
       -0.39219785 -0.24123791 -0.46764156 -0.64524764
000040 f1 57 61 3f 99 62 ee 3f 97 ce c5 3f 16 ca c1 3f
       0.8802481 1.862384 1.5453671 1.5139797
000050 7e c7 8e 3f 5b 68 98 3f b7 0c ec 3f 40 7c 89 3f
       1.115463 1.1906847 1.844138 1.0741043
000060 06 c2 b2 3f 2d 3b 63 3f 11 47 88 3f cf fe e4 3f
       1.3965461 0.8876217 1.0646688 1.7890261
000070 20 7b a8 3f df 25 02 40 fe b8 e2 3f e6 b3 fb 3f
       1.3162575 2.0335615 1.7712705 1.9664276
000080 4f b4 91 3d a4 93 36 3e 7c 2c c9 3c d2 8d 53 3e
       0.07114469 0.17829758 0.024557345 0.20659569
000090 4f f2 76 be a9 2b 18 3e a6 cb f8 be 78 8b ff bd
       -0.24115871 0.14860405 -0.4859287 -0.124777734
0000a0 6b d6 1e be 32 0b 08 3e 21 49 3f be 0b d8 74 3e
       -0.15511481 0.1328552 -0.1868024 0.23910539
0000b0 a7 f3 0b 3d d9 03 63 3e e7 23 0a 3e 0d 4d 30 3e
       0.03416791 0.22169437 0.13490258 0.17216893

mlp.0.weight f4 [128, 16]
000000 04 bf d5 bd 66 87 1b 3e b4 04 72 3c 2a 14 cb be
       -0.10436824 0.15188369 0.014771629 -0.3966382
000010 c6 3a 71 be b3 a8 36 be 16 4a 56 be 21 a6 29 bd
       -0.23557577 -0.17837791 -0.20926699 -0.0414182
000020 c0 bf 14 bf 08 9d 89 3e 54 3d ae 3e b1 d0 22 3e
       -0.5810509 0.26877618 0.34031165 0.15899922
000030 02 d5 87 3e 2e 88 80 3e eb 2a 4c 3f ef b9 31 3d
       0.265297 0.25103897 0.7975299 0.04339021
000040 c9 6e 64 be d9 62 e2 3e 8f 16 af bd 17 ff d6 3e
       -0.22307886 0.4421604 -0.085492246 0.41991493
000050 4d eb 5b 3d 7b 12 ae 3d bf 41 a3 bd 97 82 45 be
       0.053691197 0.084996186 -0.079715244 -0.19288097
000060 db e8 02 3e ce d5 e1 3c a6 92 1c 3e d0 05 1b 3e
       0.1278414 0.02756777 0.15290317 0.15138936
000070 30 20 e6 3c e2 85 72 be 32 45 a6 3c ed f5 b6 3d
       0.02809152 -0.23683885 0.020296667 0.08933625
000080 95 2e bd 3d 07 e1 2e 3e 06 38 55 3e 66 a5 11 3e
       0.092374004 0.17078029 0.20822152 0.14223251
000090 e6 29 fb bd 55 2b 54 be 97 52 da 3c 18 0a be bd
       -0.12263851 -0.20719655 0.02665071 -0.09279269
0000a0 fd cf b5 3c 42 26 72 3e 73 ba 36 3e 77 11 ba bd
       0.022193903 0.23647407 0.17844562 -0.090853624
0000b0 e1 7c 96 3e 10 3d 20 be bb 51 1c bb ad 5a 28 bb
       0.2939215 -0.15648293 -0.0023852426 -0.0025688813
0000c0 d5 e9 10 3f 89 2c 91 3e b4 3a cb bd b0 64 a9 bd
       0.566068 0.2835429 -0.09923306 -0.08271158
0000d0 2e 9f 8e bd 95 c4 0e be c6 fc 0f bd 54 40 d5 3c
       -0.06963955 -0.13942178 -0.035153173 0.02603165
0000e0 62 e8 c5 3d dd 26 9e 3d 57 ea 3c be 26 4a 9e bb
       0.09663464 0.07722256 -0.18448769 -0.0048306165
0000f0 0a c5 95 3d 01 36 ad be 42 02 bb bd 05 a4 b3 be
       0.07312973 -0.33830264 -0.0913129 -0.35086074
000100 7e ed ad bc ab 62 0f 3f e8 d1 87 be ba 51 62 3d
       -0.02123141 0.5600993 -0.26527333 0.05525372
000110 c5 35 f0 bb 02 35 6e bc bf 87 70 be 00 05 d8 3d
       -0.0073306286 -0.014539005 -0.23489283 0.10547829
000120 b3 0c 9a 3e 8b a8 3e 3e 5a 53 1a be 64 8e 8a 3d
       0.30087814 0.18618982 -0.15070859 0.0676544
000130 93 fc 73 be 59 45 e1 bd 22 88 a9 bc 2b 34 ce 3d
       -0.23826818 -0.10999555 -0.020694796 0.10068544
000140 80 1d d0 3d 54 a5 d4 be 66 a5 fc bd 47 d1 73 be
       0.10161877 -0.41532385 -0.12336235 -0.23810302
000150 14 ee 88 3d b3 a9 74 bd 19 a6 a1 3c cb 86 15 bd
       0.06686035 -0.05973215 0.019732522 -0.0365055
000160 95 ea dc be 12 b4 ff 3e 28 b1 d8 3e b6 1a 06 be
       -0.43147722 0.4994207 0.4232266 -0.13096127
000170 32 4c 0a 3e 88 81 16 bf c4 2c c4 3e 1c 14 9f bf
       0.13505629 -0.587914 0.38315403 -1.2428012
000180 f1 8f 32 3d b5 96 9d 3e 6a e6 18 3f 78 58 0e 3d
       0.043594304 0.30779043 0.59726584 0.03475234
000190 f6 4a 8d bc 77 ce 7c be d1 23 84 3d a4 b9 0d 3e
       -0.017247658 -0.24688135 0.06452144 0.13840348
0001a0 c2 94 7b 3c 0e 35 c8 bd 29 7b 18 3e 07 dc 84 be
       0.015355291 -0.097757444 0.14890732 -0.25949118
0001b0 8b 2c ab be b3 39 40 be 84 60 ab be e2 87 b4 3d
       -0.3343242 -0.1877201 -0.33472073 0.0881498
0001c0 aa 29 89 3d 56 5e bf 3d 8e 3d 5e 3e 79 18 08 bd
       0.066974 0.09344165 0.21703169 -0.033226464
0001d0 f4 ec 61 3d 12 ee 82 3b 5f 31 c6 bd 08 b3 19 3d
       0.055157617 0.0039956653 -0.096773855 0.037524253
0001e0 b8 e5 89 bd 4f 28 ff 3d ca d1 a1 3e 54 65 8f be
       -0.067332685 0.1245886 0.3160537 -0.28006995
0001f0 2c 4b 1e 3e eb b4 07 bf fc 6c 81 3c 71 4f 5e bd
       0.15458363 -0.53010434 0.015799038 -0.05427498
000200 07 a7 36 3d 99 58 c1 be d7 4b 4c be 0c d1 49 be
       0.044592883 -0.37762907 -0.19950806 -0.19708651
000210 a3 54 51 be 92 01 6c 3e 4d c8 74 be b1 d1 30 3d
       -0.20442443 0.23047474 -0.23904534 0.043168727
000220 27 3b 8a 3e c4 37 08 3f 13 b9 a8 3e a9 4c 2c 3e
       0.26998255 0.5321009 0.329537 0.16826119
000230 88 51 3d 3e cd 5f 84 be 62 22 bb 3d 02 b4 8e 3d
       0.18488133 -0.2585434 0.091374174 0.069679275
000240 65 11 36 be 77 bf 50 3f 20 0e ec be c5 48 48 3e
       -0.17780073 0.8154215 -0.46104527 0.1955901
000250 47 e2 84 3e 6d 7e 98 3d 92 b6 98 3d f0 d7 01 be
       0.25953886 0.07445989 0.074566975 -0.1268003
000260 17 25 63 3e c1 63 e6 3e 41 b8 e2 3d 4d 1a a9 3d
       0.22182117 0.4499798 0.110703 0.082569696
000270 59 b7 19 be 2c e2 b2 3d 68 6a 89 3e 6c 25 3f 3f
       -0.15011348 0.08734545 0.26838994 0.74666476
000280 31 56 f5 3d a7 98 f0 3e 71 29 97 3e f7 dd 03 3a
       0.1197933 0.46991464 0.29523805 0.0005030329
000290 27 3b c4 3c bf 4c ea 3c a0 08 31 bd e0 72 33 3e
       0.023953987 0.028601049 -0.043221116 0.1752429
0002a0 20 0b a8 3e ba c2 dd 3e 32 d1 d7 3e b0 df f4 bc
       0.32820988 0.43312627 0.4215179 -0.029891819
0002b0 2c b1 a2 3e b5 71 0f be a6 ca a4 3e dc ba d8 be
       0.31775796 -0.1400822 0.32185858 -0.42330062
0002c0 47 bc 68 3e 09 0d 8e 3f 3b 9f dc 3e 49 66 81 be
       0.22728072 1.1097728 0.43090233 -0.2527335
0002d0 62 03 3b 3d bf ee ef bb 6f 46 31 3e b5 44 b5 bc
       0.045657523 -0.007322162 0.17312025 -0.022127489
0002e0 47 bd cd 3e bb 8d 85 3e 7d 4c 10 3f 3e a3 fe 3d
       0.4018347 0.26084694 0.5636671 0.1243348
0002f0 db 5c 3c 3e 10 59 af be ba 64 c7 bd 32 6e 0a bd
       0.18394797 -0.34247637 -0.09736009 -0.033796497
000300 9d 56 b5 bd 69 22 fd 3e a3 e7 30 3d 94 ce d4 3e
       -0.08854411 0.49440315 0.043189656 0.41563857
000310 14 4a 35 bd 4b 14 ef bd c4 6e 60 3e 1e 4b 37 3d
       -0.0442601 -0.116737925 0.21917254 0.04474937
000320 54 b7 20 be b6 89 94 3e c6 3a fe bc b2 75 7a 3e
       -0.15694934 0.29011315 -0.031033885 0.2445896
000330 44 78 02 3f 8a da d2 3d 7f ed 2d 3f 61 ad 3b be
       0.5096476 0.10295589 0.67940515 -0.18327858
000340 34 db 03 3e cf 0b 3b 3e 7a 82 fb 3d e0 bc 2b be
       0.12876588 0.18266223 0.12280746 -0.16771269
000350 6a 89 42 3c 5e 7a 25 3d f1 38 a0 bd 4e 49 0f 3e
       0.011873582 0.0403999 -0.07823361 0.13992807
000360 8d 3c cc bd 88 4e bc 3d 29 f2 a8 3e d4 bf 11 be
       -0.09972487 0.09194666 0.32997254 -0.14233333
000370 df e9 01 bf a8 51 ce be e9 e4 08 bd 3e a6 fa 3d
       -0.50747484 -0.40296674 -0.03342143 0.122387394
000380 d8 10 02 bd 4f c0 92 bd 93 2e 2b bd 59 ec e9 3e
       -0.031754345 -0.07165586 -0.041792464 0.4568813
000390 1d 5c 33 3d e6 89 b2 3d 22 d6 13 be 5c 70 65 bd
       0.043789018 0.08717708 -0.14437154 -0.056015357
0003a0 f7 3c 5f bf 03 87 17 3d ed 51 5d 3d b4 43 57 3c
       -0.872024 0.03699399 0.05403321 0.0131387
0003b0 0c 19 02 3e 86 a1 1a bf 7c a1 0f 3f d6 a9 ce bd
       0.12704867 -0.60402715 0.5610578 -0.100909874
0003c0 da 1e a8 bd 44 33 b4 bd 4d 42 54 3d 6d b4 23 3e
       -0.082090095 -0.08798841 0.05182104 0.15986796
0003d0 06 0c 67 3e 7e 5a 83 be 47 8e 8c bd 7f 13 e0 bc
       0.2256318 -0.25654978 -0.06863075 -0.027353046
0003e0 10 47 dc bd 4a f8 a4 3e b4 4e c4 3e 33 c2 e1 3e
       -0.107557416 0.3222068 0.38341296 0.44093475
0003f0 14 c6 a1 bd 84 d2 88 be 59 7f da be 98 62 05 3f
       -0.078991085 -0.2672311 -0.42675284 0.5210357

mlp.0.bias f4 [128]
000000 00 89 93 be c4 f2 ce be df 68 43 be a1 41 45 be
       -0.2881546 -0.4041959 -0.19082974 -0.19263317
000010 52 de 93 3e 08 5c 01 bf b4 bb 8a bd 6f 21 2c be
       0.28880554 -0.50531054 -0.06774083 -0.16809629
000020 21 92 14 3b af 24 c2 be fb 84 dc bc 17 e0 1d bf
       0.0022670107 -0.37918612 -0.026918879 -0.6167006
000030 4e c2 c0 be 52 48 22 3e b1 b4 8d be 3e 57 a1 bd
       -0.37648243 0.158479 -0.2767692 -0.07877968
000040 6c bd 2e be 23 de 04 3e c3 14 a9 be 49 dc 26 3d
       -0.17064446 0.12975363 -0.33023652 0.040737424
000050 7b ff 50 3e 16 84 0b be 70 c4 c0 be 88 d1 ab be
       0.20409958 -0.13624606 -0.3764987 -0.33558297
000060 c8 22 ae be e5 d1 fe bd f1 57 d8 be b0 95 a2 be
       -0.3401091 -0.12442378 -0.42254594 -0.31754827
000070 4d 4a c6 be b0 5e e7 be 9f 6a b0 be f8 92 a4 be
       -0.38728562 -0.45189428 -0.34456345 -0.32143378
000080 86 f2 e4 3e 04 9b 09 be 61 d6 a4 be 97 c7 55 3e
       0.4471628 -0.1343804 -0.32194808 0.20876919
000090 74 9c 34 3e c7 e7 11 bf 41 59 d8 be f1 0b f2 be
       0.17637807 -0.5699429 -0.42255595 -0.47274736
0000a0 24 8b 1a be cb 4a cd be ce b2 57 bc ef 31 0b bf
       -0.1509214 -0.40096125 -0.013165189 -0.5437307
0000b0 10 58 58 3e e2 f3 b7 be 3e 2a d0 be e3 be 8b be
       0.21127343 -0.35928255 -0.40657228 -0.27294073
0000c0 b2 e9 38 bf 31 a1 cb 3e e6 30 b4 be 92 9f 09 bf
       -0.7223159 0.39771417 -0.35193557 -0.5375911
0000d0 40 00 25 bf 3b 6c 81 be 92 31 a7 be a3 24 0a bf
       -0.64453506 -0.25277886 -0.32655007 -0.53962153
0000e0 43 0f 30 3e 1d 3f 8f be 73 dc d0 3e 5e 0d 10 bf
       0.17193322 -0.2797784 0.4079319 -0.56270397
0000f0 b0 74 7b be 1e 1e ab be d9 37 ae bd 39 f5 eb be
       -0.24556231 -0.33421415 -0.08506746 -0.46085528
000100 45 5c 16 be 94 b9 0f bf 53 c6 28 3d ab 8e f7 bb
       -0.14683636 -0.56142545 0.04120476 -0.007554849
000110 c8 87 3a be d4 02 6c be 5a cd 9f be 1d 23 0f be
       -0.18215859 -0.23047954 -0.31211358 -0.13978238
000120 af 87 e4 be 56 ce 14 bf 84 9c 6c be cc 6c 6a 3e
       -0.44634768 -0.58127344 -0.23106581 0.22893065
000130 91 66 00 3d 71 7a ed be c6 c1 3e bf 64 49 a4 3e
       0.031347815 -0.46382478 -0.74514425 0.32087243
000140 2d e1 0f 3d c6 0d dc be ca 59 7a be cb ad 10 bd
       0.035126854 -0.42979258 -0.24448314 -0.035321992
000150 c6 92 15 be e5 54 a0 3e 2e 3f 2e bf 44 8f be be
       -0.14606771 0.3131477 -0.68065155 -0.37218678
000160 84 ac d7 be f0 1a cc 3d ff 44 93 be 6f ce fa 3d
       -0.42123806 0.099660754 -0.28763577 0.12246405
000170 bf 00 03 bf 35 3b 47 3e cc 02 ac 3e 78 77 90 be
       -0.51173013 0.1945618 0.33595884 -0.28216147
000180 ea d4 1e bf 5c 8c bf be 2d 2d 5c be 20 0f 61 bd
       -0.6204363 -0.37411773 -0.21501608 -0.054946065
000190 10 66 e8 bc 9b b2 59 be 97 3d 31 3d cf 0a 98 be
       -0.02836898 -0.21259539 0.043271627 -0.29695746
0001a0 b0 5b d6 be 66 0e 35 bf 12 fb 94 be a3 32 da be
       -0.41866827 -0.70725095 -0.290978 -0.42616758
0001b0 f9 c8 9c 3e e4 04 1b bf 53 41 84 3e 60 66 4d bf
       0.3062208 -0.6055434 0.25831088 -0.80234337
0001c0 0e ff f9 3d 46 08 e0 3d 13 75 2e bf 6a 99 df be
       0.12206851 0.10939078 -0.6814739 -0.43671733
0001d0 5b 43 fd be 83 81 03 be 11 4b 5a be a3 ae 8b bd
       -0.4946545 -0.12842374 -0.21317698 -0.06820419
0001e0 dd 53 af 3d f5 b1 a2 be e2 85 58 be 4e c3 b1 be
       0.085609175 -0.31776395 -0.21144822 -0.34719318
0001f0 fd a5 0a be 39 23 55 be 96 61 44 be a1 b7 01 bd
       -0.13539882 -0.20814218 -0.19177851 -0.031669263

mlp.2.weight f4 [128, 128]
000000 6e 3a b4 be 44 2d 37 bd 18 29 c3 3c 80 e3 4c bc
       -0.35200828 -0.044720903 0.023823306 -0.012505412
000010 c4 3f 60 3d a4 be 79 3d 4b 6c 80 3d aa f4 3e 3d
       0.05474831 0.060972825 0.06270655 0.04662005
000020 a2 ab 2a 3e 08 94 1d bd 4c 13 6a bc c3 3a e1 3d
       0.16667035 -0.03847125 -0.014286827 0.10997536
000030 cf d8 9d 3d 09 3c 23 bd 37 da 9b be a5 ce 27 be
       0.077073686 -0.039852176 -0.30439922 -0.16387422
000040 49 c7 4e 3c 6f 7f ef bd 82 a3 1b 3e 2f 53 4d 3e
       0.0126207555 -0.11694228 0.15199092 0.20051263
000050 c5 44 30 3e 7c 71 01 bc 57 f8 3f be 46 96 ba 3d
       0.17213733 -0.007900592 -0.18747078 0.09110694
000060 2f d4 09 be 64 8e c9 3b d1 d4 e8 3d 1e b8 d5 3d
       -0.13459848 0.0061510075 0.113687165 0.10435508
000070 fc bc 95 3c e0 fa 24 3e 9a b9 99 3d ca 7b d7 3d
       0.018278591 0.16111326 0.07506104 0.10521658
000080 f8 86 20 3e f7 c2 fa bc 49 5c 40 bd 74 45 82 3d
       0.15676486 -0.030610545 -0.04696301 0.063609034
000090 05 bd a3 3e 16 df ff bd 4b 41 1c be 74 0e 52 3e
       0.31980148 -0.12493722 -0.15259282 0.20513326
0000a0 21 3d 99 3d 90 84 ce 3d cb 87 a6 bd 87 05 e4 bf
       0.074823625 0.10083878 -0.08131369 -1.7814187
0000b0 99 1c e1 3d 7e 14 4f bd 62 4e 5a 3c 78 8b 61 3c
       0.10991783 -0.050556652 0.013324352 0.013766162
0000c0 ce 48 02 3e b3 41 bc bd f3 48 96 bd 3c ba 74 3c
       0.12723085 -0.09192219 -0.07338133 0.01493698
0000d0 39 e1 e8 3d 99 42 98 3b f2 13 78 be 6e ab a6 3d
       0.11371083 0.004646611 -0.24226359 0.08138166
0000e0 4a 4a c6 be a8 d8 7e 3c 95 72 2e 3e 30 e7 8f 3d
       -0.38728553 0.015554585 0.17035897 0.070265174
0000f0 5f 2f 86 3e b6 a7 4e be a6 c2 1e bf 78 d8 fe 3d
       0.26208016 -0.20181164 -0.6201576 0.12443632
000100 2a f4 37 3e c9 85 cf bd 3b 0b 9b 3b c2 9b 83 be
       0.17964235 -0.10132939 0.0047315634 -0.2570477
000110 c8 56 79 be 27 1c 07 be d1 53 23 bb c9 bc 70 3e
       -0.2434951 -0.13194333 -0.0024921785 0.23509516
000120 c8 69 ae be 62 5d a2 be f1 85 f9 3d 7c 96 16 3e
       -0.3406508 -0.3171187 0.121837504 0.14705843
000130 7c c7 a3 3d 08 1a 4c be e2 8a 84 3e 26 73 81 3c
       0.07997033 -0.19931805 0.2588721 0.015801977
000140 55 9e 94 3d 3a 4e 6f bf b7 25 d4 3a 38 4e 4a bc
       0.07256762 -0.9347874 0.0016185556 -0.01234775
000150 6a 86 01 be 7f 59 9c be bb 2d 40 bd 91 34 bc 3d
       -0.12648931 -0.3053703 -0.046918612 0.09189714
000160 51 7a b1 bd 43 25 03 3e 4e fa 54 3d 82 eb 13 3d
       -0.08665908 0.12807183 0.05199652 0.03611327
000170 c6 f7 19 be 7a 8b 82 3e e3 0b 90 3e 47 a5 da bc
       -0.15035924 0.25497037 0.2813407 -0.026690139
000180 fa 2e d5 be 1b 3d 81 3d ad 64 63 be b4 d6 6d bc
       -0.41637403 0.06310483 -0.22206374 -0.014516521
000190 84 01 52 bd 7e b0 d3 bd 39 f0 9d 3d 45 49 1c 3e
       -0.051270977 -0.103363976 0.077118345 0.15262325
0001a0 e4 02 5e 3d e9 f6 89 bd 29 bf d3 bc cb 99 a6 3d
       0.054201975 -0.067365475 -0.025847988 0.081348024
0001b0 15 df b1 3d 87 b5 10 3d 13 65 30 3e 7b 37 e6 bf
       0.08685128 0.035329368 0.17226057 -1.7985681
0001c0 40 a6 f5 3a f9 97 2a 3e f5 55 00 be cd 41 08 be
       0.0018741563 0.16659535 -0.1253279 -0.13306351
0001d0 ce e8 75 be f0 c4 b4 be 0c bd cc bd b5 d5 d9 bd
       -0.24014589 -0.353065 -0.09996995 -0.106364645
0001e0 58 4c 42 bd 30 2a cf 3c 66 2d b1 bd 72 0e 5e be
       -0.04743609 0.025288671 -0.08651237 -0.21685198
0001f0 8e 23 02 bc 4f 80 35 3d 5f 33 c9 3d 9b d7 4f 3e
       -0.007943047 0.044311818 0.098242514 0.2029709
000200 36 ce 47 bd 32 9b f1 bc 71 72 05 be 52 8a d8 bd
       -0.048780642 -0.029492948 -0.13031937 -0.105732575
000210 1a 8e 78 bc b7 7c 3f bd 7c 1e d3 bc 9b ef 3e bd
       -0.015170598 -0.046749797 -0.025771372 -0.046615224
000220 60 e6 87 bd a0 1e c2 bc 0d 08 c3 bc e0 d0 83 3c
       -0.066357374 -0.023696244 -0.02380755 0.01609081
000230 81 62 03 be 07 58 fc bd 00 b0 8a bd a1 3d a7 bc
       -0.12830545 -0.123214774 -0.067718506 -0.02041513
000240 44 dd 8d bd 91 0c 18 be 22 40 23 3c 03 ad 94 3c
       -0.06926969 -0.14848544 0.009964021 0.018148905
000250 eb 69 b7 bd 5a aa 77 bd 40 92 6c 3c 56 93 2f 3d
       -0.08955749 -0.060465194 0.014439166 0.04286512
000260 93 2d a3 bc cc e3 0f be ad 50 d8 3c ff 00 c4 3c
       -0.019919192 -0.14051741 0.026405657 0.023926256
000270 04 5f d7 3c 17 64 03 be ff c0 a1 bd b9 27 1a be
       0.026290424 -0.1283115 -0.07898139 -0.15054215
000280 68 53 d4 3b f5 6a fd bd 24 4c c6 3c d7 cb f7 bc
       0.0064796694 -0.12373916 0.024206229 -0.030248566
000290 00 7e 4b bb fc 42 9d bd dd 4b c4 bd d2 9e fc bb
       -0.0031050444 -0.07678792 -0.09584782 -0.0077093625
0002a0 61 d0 97 bc 10 54 a6 bc 44 a8 04 be a8 fd c8 3b
       -0.01853198 -0.020303756 -0.12954813 0.006133754
0002b0 10 36 02 3b 10 66 85 bd ab 2a bf bd 4e cd 93 bc
       0.001986865 -0.065136075 -0.0933431 -0.018042233
0002c0 db 75 a0 bd b4 23 15 3c c8 1b 9a bd 1f 98 a8 bd
       -0.07834979 0.009102751 -0.0752483 -0.0823214
0002d0 65 ac 35 bd 38 1a 05 be 5d 82 8c bc 53 66 18 bd
       -0.04435386 -0.12998283 -0.017152006 -0.03720696
0002e0 2e 39 d1 bd eb c1 4a bd 87 2c a8 3c 46 9a fa bd
       -0.10215984 -0.04950134 0.020529045 -0.122364566
0002f0 dd 8f 6f bd 9a 6b c8 bd 00 b5 ce bd ce 9d 69 bd
       -0.058486808 -0.09786148 -0.10093117 -0.05703526
000300 69 88 ac bd 36 db 0f be 49 0c 02 be 93 7d ee bc
       -0.08424456 -0.14048466 -0.12699999 -0.029112613
000310 3f 5b 1a bb 5f 4c 91 bd 8a 3f 55 3c 85 51 aa bd
       -0.0023552922 -0.07094645 0.013015637 -0.0831633
000320 98 02 83 bd 93 63 83 bd 41 0a b1 bc 5f a8 10 be
       -0.06396979 -0.06415477 -0.021611335 -0.14126728
000330 45 e4 90 3c 9d 8c b8 bb 09 12 9d bd 79 3d 0b be
       0.017686972 -0.005631997 -0.076694556 -0.13597669
000340 c5 18 cd 3c fe 9a 24 3c 66 19 94 3c 7b 3c 0d bd
       0.025036225 0.010046719 0.018078517 -0.034481507
000350 ae 02 ea bd 32 35 c5 bd 18 d2 5a bc ce 34 f6 3b
       -0.11426292 -0.09629287 -0.013355754 0.007513619
000360 23 dd d0 3c 66 76 0f be b1 66 e6 bd c6 fc 32 bb
       0.025496071 -0.14010009 -0.112500556 -0.002731131
000370 d6 39 14 38 cf 5a bf bd 39 89 97 3c c3 8c 6a bc
       3.5339814e-05 -0.09343492 0.01849805 -0.014315787
000380 39 3e d0 bb 35 66 11 bc bc 00 e7 bc e9 e6 82 bc
       -0.006355074 -0.008874466 -0.028198592 -0.015979247
000390 63 5d 6c bd d8 c8 da bd 66 32 28 bd ad 37 ec bc
       -0.057706248 -0.10682839 -0.04106369 -0.028835142
0003a0 1d 6d 9a bc 01 6c 44 bd 1c 98 32 bd ad ae 78 bc
       -0.018850857 -0.047954563 -0.043602094 -0.015178365
0003b0 2c a6 fb bd 3e 7b 99 bd e5 49 a7 bc 2f 43 50 bc
       -0.12287554 -0.0749421 -0.020420978 -0.01271133
0003c0 bb 4f ed 3b 8b aa 74 bd f2 23 0a 3c 58 45 c5 bd
       0.0072421706 -0.059732955 0.008431422 -0.09632367
0003d0 2b e9 d2 bd 0c 9e c9 bd 08 b8 06 be 05 19 30 bd
       -0.102983795 -0.09844598 -0.1315614 -0.04299261
0003e0 c6 48 2d 3c b5 31 fa bd 82 29 aa bd 56 17 10 be
       0.010576433 -0.12216512 -0.08308698 -0.14071402
0003f0 ba 86 a1 bd 7a 52 df bd 6b ee f4 bd 60 3b 0e be
       -0.07887025 -0.10904403 -0.11959537 -0.13889837

mlp.2.bias f4 [128]
000000 e9 88 00 3f 26 cd bd 3b be c1 b8 bc 10 0d 35 bc
       0.5020891 0.005792278 -0.022553321 -0.011050478
000010 8a a0 02 3f 0e 49 ab bd 3d 15 a3 bd d4 e3 98 bd
       0.51026213 -0.083635435 -0.07963035 -0.0746533
000020 fc d4 fa 3e 43 21 26 be 05 4d 9a bd 2e ee 4d 3e
       0.4899062 -0.16223626 -0.075342216 0.2011039
000030 48 f1 e0 bc 9a db e5 bd c5 16 1e be 59 86 25 be
       -0.027458802 -0.11223526 -0.15438373 -0.16164531
000040 2f c5 5d 3d 26 2f c8 bd fb d3 90 3e 58 b1 64 bd
       0.054143127 -0.09774618 0.28286728 -0.05583319
000050 fa 8c 26 bd 7c 37 94 bd ea 5f d4 bd 0d 92 78 bd
       -0.04066179 -0.07237145 -0.10369857 -0.06068616
000060 b5 95 50 bd ab 89 b5 bd 83 f2 64 3e aa b1 ec 3d
       -0.05092402 -0.08864149 0.22358136 0.11557324
000070 64 46 bb 3e c4 cf e3 bd 8e 76 c9 bd 2f 04 c0 bc
       0.3657714 -0.111236125 -0.09837066 -0.023439495
000080 14 4d 48 3a 5d bd b7 3e e9 ec 96 3e 84 70 85 bc
       0.000764088 0.3588666 0.29477623 -0.016289003
000090 dd b7 e7 3e c8 f2 36 bd 3c e8 b4 bc 62 01 f2 bd
       0.45257464 -0.044665128 -0.022083394 -0.1181667
0000a0 f6 10 35 be 71 90 95 bd f8 dd 15 be 82 52 e1 bc
       -0.17682251 -0.07302941 -0.14635456 -0.027505163
0000b0 d7 c9 6a bc 21 20 6b 3e f6 03 1e be 74 a3 b6 bd
       -0.014330349 0.22961475 -0.15431198 -0.08917895
0000c0 68 7e bf bd 5b 76 b3 bd 59 d9 04 be 28 d5 9c 3d
       -0.09350282 -0.08762809 -0.12973537 0.07657844
0000d0 ee 71 64 3e 83 30 ab 3e 31 2b 79 bc e9 17 c6 3e
       0.22309086 0.3343545 -0.015208052 0.38690117
0000e0 16 77 fd bd c7 78 90 be b6 5e ee bd ca 03 64 3c
       -0.123762295 -0.28217146 -0.116391584 0.013916919
0000f0 ce 19 bb bd bd be e2 bd cb 81 d9 3d 6d 7c fb 3d
       -0.09135781 -0.11071537 0.10620459 0.12279592
000100 c2 0e 14 be 79 62 fc bd c7 24 95 bd 94 1e c1 3e
       -0.14458755 -0.1232347 -0.07282405 0.37718642
000110 86 de a0 3e e9 73 1f bd 0e 5a f6 bd ae 24 2a 3e
       0.31419772 -0.0389289 -0.12028895 0.16615555
000120 f6 db 56 bc 04 39 6a 3c a1 2d 20 3e 20 74 0e 3e
       -0.013113966 0.01429582 0.15642406 0.13911486
000130 4f fa a3 bd 5e 5b 76 bd 42 96 6c bd c7 b6 cf bd
       -0.08006727 -0.06014573 -0.057760485 -0.10142284
000140 8c d7 b2 3e 46 8a 81 bc e6 b2 9c bd 04 04 36 bd
       0.34930074 -0.015813004 -0.0765131 -0.044437423
000150 d6 0a bb 3b a3 d1 16 be 75 96 c0 bd 7e c1 00 be
       0.005708079 -0.14728408 -0.094036974 -0.12573811
000160 74 98 cd bd 49 48 50 3e 09 ab 11 bb 72 c3 e1 bd
       -0.10038844 0.20340075 -0.002222719 -0.11023606
000170 d4 ed a0 bd c1 f9 53 3e 2d f8 0f be cf 4b 96 3c
       -0.07857862 0.20700742 -0.14059515 0.018346695
000180 1d 2d bc 3c e5 76 de bd 10 a3 7b 3c d7 b0 0d bd
       0.02297073 -0.10862521 0.015358701 -0.034592476
000190 0c d3 11 3e 7a 4a b6 bd b4 62 36 bd d0 32 9f 3e
       0.14240664 -0.08900924 -0.044527724 0.31093454
0001a0 07 53 e2 bd a3 ad 9b ba 0e 95 0b bd b1 58 99 3e
       -0.110509925 -0.0011877309 -0.034077697 0.2995048
0001b0 2a ee e0 bd 06 75 e1 bd 6f c9 fa 3e ee e7 31 3e
       -0.10982926 -0.110086486 0.48981807 0.1737363
0001c0 8e 1b c5 3e fa a7 81 bb 58 6c 10 be e4 27 b8 3e
       0.38497585 -0.003956792 -0.1410383 0.35967934
0001d0 af a9 00 be 87 2c b3 bd 58 d8 c0 bd d8 8f 4f 3e
       -0.12564729 -0.08748727 -0.09416264 0.20269716
0001e0 0a ad 9f 3e de c7 d7 bd 3a ec fa bd 24 b8 9d 3d
       0.31186706 -0.105361685 -0.12252088 0.07701138
0001f0 00 87 d5 bd dc 2c 8c 3e c9 0f e1 bd 2b 6d 8f bd
       -0.1042614 0.27377975 -0.10989339 -0.07003244

mlp.4.weight f4 [3, 128]
000000 77 75 c7 bd 77 c0 9a 3c 68 13 09 3e ab c8 47 3d
       -0.097392015 0.018890603 0.13386309 0.048775356
000010 36 b5 47 3d 8b d5 ca bb 3d 76 97 3d cf a8 fd 3b
       0.0487568 -0.006190007 0.07395599 0.007741071
000020 13 91 77 3e bd 5c 2d bc 50 36 39 3c 75 b0 5f be
       0.24176435 -0.010581193 0.011304453 -0.21844657
000030 80 88 f9 3c 61 b9 1f bd 1c e3 89 bb 52 a8 f9 3c
       0.030460596 -0.03899515 -0.0042079818 0.03047577
000040 74 94 e4 bd 2c 87 37 3d 61 c0 1f be 64 5a 54 3d
       -0.11161128 0.044806644 -0.1560073 0.051844016
000050 51 54 57 bb 3f 68 0d bd 1d 6a 33 bd e0 e3 f8 3c
       -0.0032856653 -0.034523245 -0.04380237 0.030382097
000060 f3 95 9b 3c 11 4a ab 3d a1 f4 48 be d3 d1 3b 3e
       0.0189924 0.083637364 -0.19624569 0.1834176
000070 84 8b 00 3c ec f1 7f 3c 5f 43 a1 3b cb 0c 61 3d
       0.007845763 0.0156216435 0.0049213613 0.05494384
000080 10 91 a3 bc 31 c5 9e bd cd be 94 3d 4d 67 07 3d
       -0.019966632 -0.07752455 0.07262955 0.0330575
000090 bf 96 9f 3e dd bc 8e 3d 8d 98 8a bb 40 a1 43 bc
       0.31169698 0.069696166 -0.0042296113 -0.0119403
0000a0 f0 fd d8 3d fd 74 13 3d 85 ef 41 bd 2e 2b 8b 3d
       0.1059531 0.03600024 -0.047347564 0.06795345
0000b0 32 f4 ce bb 0b 76 f3 bd 7b e8 87 3c 6f 3f 59 3d
       -0.0063157314 -0.11887749 0.016590348 0.05303901
0000c0 38 c7 9d bb 77 52 10 3d 0a 71 98 bd 91 70 8b 3a
       -0.0048150085 0.035234895 -0.074434355 0.0010638406
0000d0 ee c2 dc be 9b 04 47 3d b3 76 cd bc 3f 6a 78 3d
       -0.4311747 0.048588376 -0.025081014 0.0606482
0000e0 e8 7f 16 3d d9 48 54 bd bd a3 da 3d fa bf 61 bc
       0.036743075 -0.051827285 0.10675762 -0.013778681
0000f0 85 43 28 3d 90 6d 65 bd 61 5b 18 3d 97 6c 66 be
       0.041080017 -0.05601269 0.03719652 -0.22502361
000100 40 86 28 be f6 6c 1c 3d 64 cd 11 3c 62 db 8d bc
       -0.16457462 0.03818985 0.008899067 -0.017316524
000110 78 eb 35 bc 83 be f2 3d 0b 47 e0 bb cb 35 87 3d
       -0.011103503 0.118527435 -0.0068444065 0.06602057
000120 fa 94 a2 3c 5b 1e 9c 3d e8 6e 25 bc f8 16 eb bc
       0.019846428 0.07622977 -0.010097243 -0.028697476
000130 a8 bd ed 3c 50 6d 0e 3e 75 5d bd bc ba bd c6 3c
       0.0290211 0.13908887 -0.023115853 0.02426039
000140 d3 bb 57 3b 1b 6b 2e 3d a5 92 9e bc be 9d f7 3c
       0.0032918348 0.042582612 -0.019357035 0.030226585
000150 e0 c5 4f 3c d4 13 24 3d 39 d9 1f 3d 23 ef 7e 3d
       0.012681454 0.040057972 0.03902552 0.062239777
000160 d5 c9 e5 3c de b8 15 bd d2 9d 95 3b 84 d5 49 3d
       0.028050343 -0.036553256 0.004565933 0.04927589
000170 24 04 cd 3d e1 2b 4c be 57 a6 09 bd 1b b8 81 3b
       0.100105554 -0.19938613 -0.0336059 0.0039587147
000180 56 05 80 bc c9 c4 d2 bd f0 a2 e6 3c 17 1a 80 3d
       -0.015627544 -0.1029144 0.028153867 0.06254976
000190 83 b4 18 3e 8a ad 6e 3d 13 b1 04 3e eb 5e 52 3e
       0.1491261 0.05827097 0.12958173 0.20544021
0001a0 39 02 d3 3b c3 df 0e 3d 3e 15 b3 3c dd 49 00 3d
       0.006439474 0.034881365 0.021860715 0.03132044
0001b0 99 c5 53 bb c1 e4 a0 3d d1 52 bb bd e9 58 e1 3c
       -0.0032313822 0.07856131 -0.09146655 0.027508216
0001c0 93 59 bd bd 32 44 e4 3d 0d 3a 02 3c 2b 04 81 3d
       -0.092456006 0.1114582 0.007948411 0.06299623
0001d0 9f 33 25 bd cb 2e 82 3d 53 9c da 3d 13 53 6e bd
       -0.040332433 0.06356581 0.10674348 -0.058184694
0001e0 54 d5 63 3d 96 69 ea bc f0 ae 15 bb c1 15 c6 bd
       0.055623367 -0.0286148 -0.0022839867 -0.09672118
0001f0 41 10 e9 3c 74 3b f0 bd ea c7 01 39 81 a6 02 bd
       0.028450133 -0.1173009 0.00012376872 -0.03189707
000200 79 25 5a be 99 40 41 bc bb 90 cc 3c 63 c6 11 bd
       -0.21303357 -0.011795186 0.024971357 -0.035589587
000210 0a b5 94 3c 93 61 ef bd f3 c0 77 3c ba d7 b4 3d
       0.018152732 -0.11688533 0.015121686 0.08830209
000220 3b 13 e0 3d a9 b4 02 be e8 00 93 3e 6d 30 f8 bc
       0.10941168 -0.12764229 0.2871163 -0.030296529
000230 f3 a6 d7 3d fa 5f 03 bc 5a cd 4a bd 76 2a d7 bb
       0.1052989 -0.008018488 -0.049512245 -0.006566341
000240 d4 7a 69 be 72 cf 3e 3d e1 6a c3 bc 7b 07 2c bd
       -0.22800761 0.046584554 -0.023854675 -0.04199932
000250 6b 21 36 bd d6 6c 93 3c 59 32 db 3c d6 e9 f2 3c
       -0.044465464 0.017996233 0.026757406 0.029652517
000260 40 15 a6 3b af da a9 3d 69 f2 68 bc ef 76 35 bc
       0.005068451 0.08293664 -0.014217951 -0.011075719
000270 a2 d8 c7 bd 41 59 7c bd 35 61 f2 bd 96 b4 81 3c
       -0.09758116 -0.061608557 -0.11834947 0.01583318
000280 67 15 8f bd 8b 06 dd bd f9 71 56 3c f5 1a b0 bd
       -0.06986504 -0.107922636 0.013088697 -0.08598892
000290 c4 08 ae 3d 98 52 83 3c 4c a5 8b bc 89 37 b6 3b
       0.08497766 0.016030595 -0.017046593 0.0055608195
0002a0 d7 f4 1c bd 34 f1 43 bd 76 95 0b be ba 51 86 3b
       -0.038319435 -0.04783745 -0.13631234 0.004099098
0002b0 b0 66 ca bd 36 8b 12 be e0 8b d0 bd fe 67 ab 3c
       -0.09882867 -0.14310917 -0.10182929 0.02092361
0002c0 fa ac 0d 3d 78 3e 24 bd 9b d5 21 3c 93 0d 81 bc
       0.03458879 -0.040098637 0.009877588 -0.015753543
0002d0 68 c4 55 be 05 2e e4 bd a9 67 a2 3c ee 2d 46 3c
       -0.20875704 -0.1114159 0.01982482 0.012095911
0002e0 03 60 ed bc 85 0c 19 be cf df ce 3c ea 28 45 bd
       -0.028976446 -0.14946182 0.025253205 -0.04813472
0002f0 b7 d7 c1 bc b4 9f e6 3d 6f c8 8b bd 19 bd 3e bb
       -0.023662431 0.1126093 -0.06825339 -0.002910441
000300 b2 39 e1 bd e3 00 89 3c 41 93 00 be 78 af ec bb
       -0.10997333 0.016724056 -0.12556173 -0.007223066
000310 76 f2 f9 bc 09 1d dc 3c 29 74 c6 bc 36 30 42 bd
       -0.030511122 0.026869314 -0.024225311 -0.04740926
000320 11 d6 8e bc 3a d1 32 bd a2 fb 30 3b 9c 12 53 3e
       -0.01743606 -0.043656565 0.0027005454 0.20612568
000330 ce 73 be 3c 40 95 8d bd 54 c5 85 bc 0f 9a 86 bd
       0.02324858 -0.06913233 -0.016329445 -0.06572353
000340 b9 14 6d bd a0 77 76 bd 1e 34 92 3c 4d 30 cd bb
       -0.05788109 -0.060172677 0.017847117 -0.0062618614
000350 eb 6a 92 bc b9 0d 79 bc 5d 61 b6 bd 3e a1 8f bd
       -0.017873248 -0.015201026 -0.08905289 -0.070131764
000360 67 86 ce bc 80 22 81 3d e6 b8 e2 3b 7c 81 ba bd
       -0.025210572 0.063054085 0.0069190143 -0.091067284
000370 09 1d 91 ba 03 88 cb bb cd f5 b5 3c 75 1d d8 bc
       -0.0011071275 -0.006211282 0.022211934 -0.026381234
000380 e1 96 23 3c d7 16 59 3c ce d3 89 bd 53 8f 8f bd
       0.009984703 0.013250074 -0.06729852 -0.07009759
000390 d2 11 fb 3c b8 26 9d 3b ea c3 15 bd be 0e 8b 3c
       0.030648146 0.0047958754 -0.03656379 0.016974803
0003a0 fb 71 dc bc 16 94 6a bd 9c df 87 3d 42 21 c6 be
       -0.026909819 -0.057270132 0.06634447 -0.3869725
0003b0 72 9b 1c be 9a 6b 91 3c b8 29 b4 be cc 1f 58 3d
       -0.15293673 0.017751504 -0.3518808 0.0527647
0003c0 e2 40 5b be 50 e9 81 bb 4a ab 05 bd 39 e1 6f bc
       -0.2141147 -0.0039645806 -0.032634057 -0.0146411
0003d0 d8 97 37 bb bd fb 13 3c 09 69 6b 3d 00 65 0d bd
       -0.002801409 0.009032187 0.057473216 -0.03452015
0003e0 a0 7d 3d be 85 c5 8a bd 15 e0 55 bd 7e 4b 67 3b
       -0.18504953 -0.06775955 -0.052215654 0.00352928
0003f0 f8 5d cf bd 76 74 ad 3c 42 18 1a be d2 34 ee bc
       -0.10125345 0.021173697 -0.15048316 -0.029077921

mlp.4.bias f4 [3]
000000 be 0c 17 bd b7 36 b7 be 73 88 c0 3e
       -0.036877386 -0.35783932 0.37604102
