EUSIPCO/Nested Array/saved_models/rnn_10.0dB_nested_8.pth (torch, 87922 bytes, 14 tensors)

bn.weight f4 [16]
0.56802964 0.90181 1.191371 1.0908504 1.1959766 0.33072832 0.075410634 -0.070223145
1.1699703 0.923068 1.3066049 1.4008203 0.936174 0.4568429 0.16193406 0.18489902
00000000: 646a 113f 05dd 663f d87e 983f fca0 8b3f
00000010: c315 993f 3955 a93e e470 9a3d 27d1 8fbd
00000020: 96c1 953f 2f4e 6c3f d43e a73f 144e b33f
00000030: 19a9 6f3f 50e7 e93e 0bd2 253e 2b56 3d3e

bn.bias f4 [16]
-0.38933876 -0.053748347 -0.0933161 0.2442942 -0.34915486 -0.16537431 0.2436661 -0.19928104
-0.53847617 0.05205856 -0.6022361 0.31555 -0.17560184 -0.21147421 0.19513875 -0.28249937
00000000: 6957 c7be 3a27 5cbd 831c bfbd 4228 7a3e
00000010: 6dc4 b2be e257 29be 9b83 793e 5410 4cbe
00000020: 93d9 09bf 5b3b 553d 252c 1abf c58f a13e
00000030: f8d0 33be b28c 58be 74d2 473e c2a3 90be

bn.running_mean f4 [16]
0.0009136341 -0.00019891257 -0.0013845125 -0.0006463994 -0.0008148364 0.000110690926 0.0015898694 -0.00087299687
0.0017690981 0.0010691027 -7.2344716e-05 -0.0009856413 0.0009913708 -0.0020796377 0.00050274585 0.0002911224
00000000: f280 6f3a 3093 50b9 8878 b5ba 2173 29ba
00000010: bf9a 55ba bd22 e838 2a63 d03a d4d9 64ba
00000020: 15e1 e73a 2221 8c3a c6b7 97b8 a230 81ba
00000030: e2f0 813a 884a 08bb b4ca 033a c9a1 9839

bn.running_var f4 [16]
1.5498312 1.552252 1.5492371 1.5501235 1.5470186 1.5482482 1.5510991 1.5508586
1.5489285 1.5528915 1.5515583 1.5511842 1.5519136 1.548577 1.5513362 1.5552124
00000000: de60 c63f 32b0 c63f 674d c63f 726a c63f
00000010: b504 c63f ff2c c63f 6a8a c63f 8982 c63f
00000020: 4a43 c63f 26c5 c63f 7699 c63f 348d c63f
00000030: 1ba5 c63f c537 c63f 2f92 c63f 3311 c73f

rnn.weight_ih_l0 f4 [48, 16]
-1.4677194 0.013164596 1.2500736 -0.20139244 -0.8825046 0.37548292 -0.09107473 0.04460964
0.24173644 -1.3886219 0.27280098 1.0217075 -0.43231004 -0.3451404 0.51046044 -0.12760657
0.24562855 -0.07584444 0.090932064 -0.5797127 0.15279491 -0.07562871 -0.4088513 0.43802235
0.13372767 -0.69042873 0.9106014 -0.8291494 1.2547381 0.0042000893 -0.44161868 0.36589962
0.8210051 -1.0352925 0.46130693 -0.62643677 0.083611086 0.6643131 -0.58333266 0.43551767
0.36703208 -0.060945336 0.8456017 -1.4243448 0.3672841 0.51119626 -0.13543233 0.6339266
0.9519375 -0.21007754 -1.0947785 0.07159777 -0.0787076 -0.95189774 0.07458105 -0.37714326
-0.6940837 -0.825781 0.6354943 0.9510477 0.7139647 -0.3158011 -0.21344082 -0.14436749
0.6379163 -0.3038974 0.3475535 -0.13019104 0.47216025 -0.07812454 -0.14783923 -0.5281405
-0.8961299 0.9785287 -0.7032366 1.1656893 -0.36464345 0.3906825 -0.33876038 -0.18514249
0.20187353 -0.24385932 -0.20806186 0.6487848 -1.0486255 -1.4455794 -0.053089045 -0.15065016
-0.76554704 0.44903365 -1.4146707 -0.73769265 -0.30220023 -0.21797238 0.3020684 -0.18530622
-0.48821142 -1.021067 1.5272658 0.15789609 0.8406664 -0.6661458 0.07227579 -0.45873696
0.8159157 -1.05845 0.47518843 -0.4665443 0.6939927 0.4634268 0.2238985 -0.25726575
0.73009706 -0.5609357 0.31315544 0.014825344 0.4861783 -0.42425275 0.13275251 0.6450408
0.3719399 0.837847 -0.93318665 1.4050415 -0.5704703 0.75424224 -0.43002835 0.23372556
-0.38299853 -0.71681243 0.6367446 -0.39782622 1.3056499 0.002675772 -1.491419 1.2819911
0.3177004 0.08415971 0.15778904 -0.51786214 -0.3832869 0.450822 -0.08016938 0.2467772
0.5006812 1.2270675 -0.3573395 -1.1792746 -0.32693398 -0.021217197 -0.5110506 -0.27280802
0.48670757 0.36134934 -0.139689 -0.41456863 0.9016785 0.042622887 -0.45252746 -0.02211176
0.6322778 -1.0765896 1.1256994 -0.8438405 0.06251354 -0.07748491 0.49913853 -0.77183795
0.24282882 -0.35773915 1.0162505 -0.4985343 1.1471796 0.025607927 0.33083212 0.07509702
0.49800262 -0.048881818 -1.5455538 -1.3521717 -0.4107697 -0.252884 0.19068007 -0.7353327
-0.3687932 -2.3022823 -1.0111423 0.08961755 0.17028907 -0.35452414 0.52199423 1.0513266
-0.078977145 0.95084727 -1.1746562 -0.8193187 1.4916111 -0.12532225 0.42860618 -0.11371675
1.6749175 -0.161338 -0.79549444 0.17094268 0.39710099 -0.13182159 0.9391531 0.14878649
0.5697656 -0.4977352 0.4311906 0.16014123 -1.3709787 0.27212298 -0.69059575 0.33526346
0.020575274 1.8616823 0.78219616 0.43291292 -0.39113355 -0.09902891 -0.4378276 0.24031542
-0.5230596 -0.08609301 0.20885304 0.02329484 -0.35026982 0.28052163 -0.4744222 -0.36264554
-0.46325484 0.4139421 -0.16428693 1.0070726 -0.31868497 0.5593074 -0.36421555 -0.039802585
0.09779712 0.75133675 0.30742186 0.24690393 0.01606447 -0.68468904 0.039029457 -0.22637403
0.8434415 -0.023710687 0.8341702 -0.20709991 0.37362272 -0.89689636 0.5859384 0.09887871
00000000: 3bde bbbf 51b0 573c 6902 a03f d239 4ebe
00000010: d2eb 61bf 4c3f c03e 6385 babd 99b8 363d
00000020: c289 773e 5dbe b1bf 92ac 8b3e 50c7 823f
00000030: be57 ddbe 3eb6 b0be 89ad 023f 4cab 02be
00000040: 0d86 7b3e 5454 9bbd 973a ba3d 0d68 14bf
00000050: 4576 1c3e 3ae3 9abd f554 d1be 7744 e03e
00000060: e8ef 083e f0bf 30bf 2c1d 693f 2343 54bf
00000070: 429b a03f e7a0 893b d81b e2be 3257 bb3e
00000080: 642d 523f 7784 84bf 6c30 ec3e 295e 20bf
00000090: 4a3c ab3d 6c10 2a3f 4a55 15bf 2cfc de3e
000000a0: a1eb bb3e d1a1 79bd 5a79 583f ee50 b6bf
000000b0: a90c bc3e c2dd 023f c6ae 0abe 0349 223f
000000c0: 2db2 733f 911e 57be b421 8cbf daa1 923d
000000d0: 7331 a1bd 92af 73bf f3bd 983d ec18 c1be
000000e0: 78af 31bf 6266 53bf c1af 223f dd77 733f
000000f0: 64c6 363f afb0 a1be 3b90 5abe 12d5 13be
00000100: 7c4e 233f 7198 9bbe 88f2 b13e cd50 05be
00000110: fdbe f13e c2ff 9fbd 2b63 17be 3734 07bf
00000120: c568 65bf db80 7a3f 5007 34bf 4f35 953f
00000130: 8cb2 babe 8907 c83e 0072 adbe fe95 3dbe
00000140: efb7 4e3e 42b6 79be 2b0e 55be c316 263f
00000150: 5c39 86bf bf08 b9bf e673 59bd 0944 1abe
00000160: e4fa 43bf bde7 e53e ee13 b5bf 6dd9 3cbf
00000170: fdb9 9abe 2734 5fbe b6a8 9a3e eac0 3dbe
00000180: d9f6 f9be 53b2 82bf 727d c33f 83af 213e
00000190: ea35 573f 8888 2abf 5405 943d 92df eabe
000001a0: dadf 503f 4a7b 87bf e64b f33e e5de eebe
000001b0: 81a9 313f 4746 ed3e a645 653e 56b8 83be
000001c0: a4e7 3a3f 7b99 0fbf e955 a03e 00e6 723c
000001d0: 5dec f83e a837 d9be 46f0 073e 6521 253f
000001e0: e86e be3e 247d 563f 52e5 6ebf 66d8 b33f
000001f0: 570a 12bf 0516 413f ad2c dcbe c155 6f3e
00000200: 6218 c4be 0581 37bf b201 233f e1af cbbe
00000210: 891f a73f 015c 2f3b d1e6 bebf 4918 a43f
00000220: a0a9 a23e ed5b ac3d 7393 213e 9d92 04bf
00000230: 2e3e c4be 24d2 e63e d82f a4bd 2ab3 7c3e
00000240: a52c 003f 8c10 9d3f 34f5 b6be 78f2 96bf
00000250: e463 a7be b0cf adbc 36d4 02bf 7ead 8bbe
00000260: bc31 f93e c802 b93e a20a 0fbe 5742 d4be
00000270: 67d4 663f 5695 2e3d aeb1 e7be b923 b5bc
00000280: f5dc 213f b0cd 89bf eb16 903f ee05 58bf
00000290: 1907 803d 69b0 9ebd 168f ff3e 2c97 45bf
000002a0: 1ea8 783e 9629 b7be 7f14 823f e33f ffbe
000002b0: c8d6 923f b7c7 d13c d462 a93e 77cc 993d
000002c0: 33fa fe3e 4d38 48bd b5d4 c5bf f613 adbf
000002d0: 6850 d2be 037a 81be a341 433e c43e 3cbf
000002e0: 76d2 bcbe 9858 13c0 1c6d 81bf 6889 b73d
000002f0: 4260 2e3e 3084 b5be 6aa1 053f df91 863f
00000300: c5be a1bd ba6a 733f 225b 96bf dfbe 51bf
00000310: 1ded be3f 7a54 00be 4572 db3e 54e4 e8bd
00000320: b263 d63f ca35 25be 86a5 4bbf 990b 2f3e
00000330: d250 cb3e 3dfc 06be 566c 703f 7c5b 183e
00000340: 29dc 113f 26d7 febe 04c5 dc3e 10fc 233e
00000350: 3b7c afbf b453 8b3e e2ca 30bf a7a7 ab3e
00000360: 7a8d a83c 9b4b ee3f 023e 483f c3a6 dd3e
00000370: a842 c8be abcf cabd f02a e0be 3f15 763e
00000380: 3ce7 05bf 8851 b0bd 92dd 553e d2d4 be3c
00000390: 9156 b3be 88a0 8f3e 77e7 f2be adac b9be
000003a0: bd2f edbe 38f0 d33e d53a 28be c1e7 803f
000003b0: ad2a a3be c52e 0f3f 767a babe 0908 23bd
000003c0: db49 c83d 9b57 403f 6666 9d3e 62d4 7c3e
000003d0: a399 833c c847 2fbf 5add 1f3d 98ce 67be
000003e0: c8eb 573f ea3c c2bc 2e8c 553f 0012 54be
000003f0: 7a4b bf3e 009b 65bf 0f00 163f ec80 ca3d

rnn.weight_hh_l0 f4 [48, 16]
-2.1555476 -0.20169672 -0.08816279 0.58894044 0.29679728 -0.21228927 -0.2425074 0.16949666
0.092466526 -0.3199594 -0.48209304 -0.64451236 0.18760313 -1.3152895 -0.053006697 0.1338409
0.18499896 0.40839213 0.0038058995 -0.061459843 -0.33549595 0.6004117 1.5150294 0.2364053
0.18722138 1.1064243 0.05528974 -0.17301229 0.10780762 0.3631184 0.06665045 -0.4480418
0.22609764 0.15906376 -0.37506518 -0.2691069 -0.42775568 -0.15234818 0.5156624 0.30945984
0.57152843 0.8105973 0.77876866 -0.12302787 -1.0635153 0.4525407 0.42995477 0.20165898
0.6977964 0.53964156 -0.11215184 -0.33129865 -0.21650203 0.90708065 1.2142034 -0.11234463
-0.6403869 0.4546444 0.052683678 0.2575402 -0.117613584 0.52834666 -0.13883473 -0.0056377584
1.4195293 0.23040636 -0.4301661 -1.1429917 -1.1223701 0.5725526 1.3409418 0.4322108
-0.9471723 0.47918767 0.53580946 0.8465653 -0.28391978 1.0506078 -0.08112652 -0.719375
-0.7705798 -0.52354324 0.8676034 -0.2741514 0.45065185 0.0322399 0.4178054 -0.5995357
-0.24213111 -0.3388053 0.0007535854 0.14487448 0.67973316 -0.67481726 -0.6444283 -0.0012772406
0.03553109 0.28622204 0.625481 0.6018393 0.79572845 -0.6717623 -0.08650619 -0.27632377
0.09942155 -0.22107135 -0.07333947 -0.27669933 0.388169 -0.6180687 -0.077373035 -0.13067788
-0.2985536 -0.15587959 -0.69387114 0.06601937 -0.06440957 0.013519614 0.09915342 0.44482282
0.08081258 0.019116625 -0.025946822 0.40342855 -0.16916302 0.19052057 0.5044436 0.24053396
-0.29590365 -0.2718664 0.28995517 -0.22126633 -0.5687676 0.22729245 0.675073 -0.03453236
0.45149282 0.5234685 1.4859601 -0.16165137 0.01540374 -0.84150976 -0.21074365 -1.6472027
-0.026716838 -0.26414073 0.44208625 -0.22357005 0.20851108 -0.30095765 0.28218552 -0.6543862
0.095142804 0.81111497 0.6013877 -0.7656695 0.35746738 -0.36132577 -0.40052357 -0.3585431
0.26450562 0.32081124 -0.21350639 -0.09954538 -0.5540526 0.3682918 0.8453841 0.31619212
-0.81677896 0.6861398 0.97559154 -0.35443854 -0.10543522 0.3680792 0.122222625 -0.54145867
2.259889 0.012918539 0.47239524 -1.4801997 -0.34615478 0.3939569 -0.30048594 -0.7091142
0.7718741 -0.36024487 0.41862303 2.1232986 0.24575289 -0.32844135 -0.4182842 -0.310308
-0.12733635 0.12277607 -0.45455006 0.12798701 -0.060797147 1.0534338 0.17085464 0.45350024
0.22607465 0.4571831 0.45219234 -0.5050345 0.2946674 0.23639502 0.06873027 -0.41622588
0.37132293 -0.009704984 -0.09733265 0.04070552 0.15599646 0.2767641 0.8335119 0.20196724
-0.26132447 0.25041932 0.43020958 -0.37018326 -0.085512966 -0.53733903 -0.35835817 0.148724
0.33970067 -0.23549747 -1.1841697 -0.27091572 -1.1154824 -0.006037079 0.10328899 0.5700938
0.64391863 0.29626974 0.20095725 0.2217378 -1.1977247 0.6393437 0.98745525 -0.0485049
-0.3757086 0.52404517 0.5241493 0.2381895 0.33089235 -0.5657538 1.0604919 -0.021036152
0.040473346 -0.5376437 0.50434166 -0.09131255 0.9439412 -0.52779585 -0.670211 -0.31199166
00000000: 7ef4 09c0 9689 4ebe b18e b4bd cdc4 163f
00000010: d0f5 973e 5c62 59be dc53 78be 8890 2d3e
00000020: 175f bd3d b8d1 a3be e6d4 f6be c3fe 24bf
00000030: 091b 403e 685b a8bf 8d1d 59bd 970d 093e
00000040: 5e70 3d3e c618 d13e 666c 793b 51bd 7bbd
00000050: 20c6 abbe 95b4 193f 7cec c13f 3b14 723e
00000060: f6b6 3f3e 509f 8d3f 7f77 623d 222a 31be
00000070: 3eca dc3d a8ea b93e 0880 883d bc65 e5be
00000080: 2486 673e 9ce1 223e 8b08 c0be 61c8 89be
00000090: cb02 dbbe 2901 1cbe 7302 043f 8571 9e3e
000000a0: b04f 123f 4e83 4f3f 625d 473f 09f6 fbbd
000000b0: 4521 88bf 6ab3 e73e 0823 dc3e b17f 4e3e
000000c0: c9a2 323f f325 0a3f ddaf e5bd fa9f a9be
000000d0: b5b2 5dbe 7036 683f 046b 9b3f f114 e6bd
000000e0: 65f0 23bf 27c7 e83e d7ca 573d 4fdc 833e
000000f0: 64df f0bd ba41 073f b12a 0ebe f2bc b8bb
00000100: 23b3 b53f a5ef 6b3e bb3e dcbe 8d4d 92bf
00000110: d3a9 8fbf cf92 123f fba3 ab3f bc4a dd3e
00000120: e279 72bf 1658 f53e cf2a 093f 81b8 583f
00000130: ef5d 91be 517a 863f a925 a6bd f628 38bf
00000140: b844 45bf ee06 06bf 421b 5e3f 935d 8cbe
00000150: d7bb e63e fc0d 043d 97ea d53e 2c7b 19bf
00000160: 38f1 77be e377 adbe 438c 453a fa59 143e
00000170: fe02 2e3f d3c0 2cbf 41f9 24bf 1569 a7ba
00000180: 0c89 113d b28b 923e 861f 203f 2412 1a3f
00000190: dcb4 4b3f 9df8 2bbf 282a b1bd 4f7a 8dbe
000001a0: 879d cb3d 8760 62be 0133 96bd 89ab 8dbe
000001b0: 16be c63e c039 1ebf c175 9ebd 6cd0 05be
000001c0: 04dc 98be e69e 1fbe 8aa1 31bf 2a35 873d
000001d0: 2ae9 83bd 5f81 5d3c f310 cb3d d1bf e33e
000001e0: 1181 a53d 789a 9c3c 6e8e d4bc 308e ce3e
000001f0: 1239 2dbe d317 433e 3723 013f 894e 763e
00000200: af80 97be 1332 8bbe 0175 943e a493 62be
00000210: c19a 11bf 5abf 683e 96d1 2c3f ce71 0dbd
00000220: 112a e73e 0802 063f f133 be3f f087 25be
00000230: f85f 7c3c 2f6d 57bf 2fcd 57be 8ad7 d2bf
00000240: 45dd dabc 743d 87be 2159 e23e 8cef 64be
00000250: ee83 553e 1f17 9abe 9f7a 903e db85 27bf
00000260: 3bda c23d 3ba5 4f3f 8bf4 193f eb02 44bf
00000270: f705 b73e b1ff b8be 6d11 cdbe f692 b7be
00000280: 486d 873e 5f41 a43e 6ba1 5abe 73de cbbd
00000290: 64d6 0dbf be90 bc3e 186b 583f efe3 a13e
000002a0: 6d18 51bf dca6 2f3f 5ec0 793f f878 b5be
000002b0: 6cee d7bd e074 bc3e db4f fa3d 099d 0abf
000002c0: 05a2 1040 48a8 533c cadd f13e 2f77 bdbf
000002d0: 333b b1be b8b4 c93e 4bd9 99be 8288 35bf
000002e0: 8b99 453f 0472 b8be c255 d63e 20e4 0740
000002f0: a5a6 7b3e 7729 a8be 5929 d6be b1e0 9ebe
00000300: 7664 02be 0572 fb3d c9ba e8be 070f 033e
00000310: 6e06 79bd ebd6 863f 85f4 2e3e 2f31 e83e
00000320: 1d80 673e e713 ea3e c185 e73e f149 01bf
00000330: a5de 963e 8911 723e 75c2 8c3d 8f1b d5be
00000340: 0a1e be3e a701 1fbc 5756 c7bd d5ba 263d
00000350: 89bd 1f3e 06b4 8d3e 0961 553f 80d0 4e3e
00000360: 52cc 85be f636 803e 6e44 dc3e a988 bdbe
00000370: 6c21 afbd 0d8f 09bf b97a b7be 1b4b 183e
00000380: 3fed ad3e 4026 71be df92 97bf 77b5 8abe
00000390: 21c8 8ebf b0d2 c5bb 2e89 d33d abf1 113f
000003a0: dad7 243f abb0 973e bdc7 4d3e 3c0f 633e
000003b0: 0b4f 99bf 07ac 233f dec9 7c3f 13ad 46bd
000003c0: e15c c0be d327 063f a62e 063f f3e7 733e
000003d0: b96a a93e 3ed5 10bf 33be 873f 0254 acbc
000003e0: 61c7 253d 04a3 09bf 891c 013f 1302 bbbd
000003f0: 21a6 713f a11d 07bf f392 2bbf 5fbd 9fbe

rnn.bias_ih_l0 f4 [48]
0.118125185 0.19001135 0.24269992 0.3613841 0.06427064 -0.67308563 -0.5863168 0.43690902
-0.3229153 -0.7581089 0.12384094 -0.003608965 0.65538985 -0.02271282 0.4511826 -0.4578666
1.3230315 1.6271117 0.8494486 1.3610677 0.8220377 1.4098588 1.088576 1.0995021
1.268331 1.7119907 1.0481869 1.6971205 1.2194283 1.2010825 0.07140711 1.1987641
-0.06566797 -0.21527265 -0.4027074 -0.3153702 -0.12048017 -0.09067359 -0.6742951 0.88991404
0.039719854 -0.25285202 0.04003159 0.04723604 -0.513628 0.10547522 0.14422527 0.042630833
00000000: 9eeb f13d 5692 423e 5486 783e 5607 b93e
00000010: 53a0 833d 574f 2cbf dc18 16bf 8ab2 df3e
00000020: 2755 a5be 6d13 42bf 52a0 fd3d 6384 6cbb
00000030: a1c7 273f 3c10 babc 6801 e73e 7e6d eabe
00000040: 1959 a93f 3245 d03f 7775 593f 7737 ae3f
00000050: 1071 523f 4176 b43f 7556 8b3f 7cbc 8c3f
00000060: ac58 a23f 8322 db3f fd2a 863f 3f3b d93f
00000070: 3a16 9c3f 12bd 993f e43d 923d 1a71 993f
00000080: ee7c 86bd 6f70 5cbe aa2f cebe 3478 a1be
00000090: 4fbe f6bd 13b3 b9bd 9b9e 2cbf 68d1 633f
000000a0: 49b1 223d d275 81be 2af8 233d 947a 413d
000000b0: 207d 03bf 6403 d83d caaf 133e ab9d 2e3d

rnn.bias_hh_l0 f4 [48]
0.1968275 -0.248013 0.193789 0.41281345 0.005876875 -0.52149755 -0.29637927 0.28183082
-0.69476396 -0.6223456 0.1529079 -0.20235035 0.64282537 -0.3477797 0.25479397 -0.17267099
1.4090599 1.505226 0.83152205 1.0183207 0.8000504 1.6449739 0.8945973 1.0295783
1.3766007 1.7321057 1.1382159 1.662725 1.0775396 1.2249122 0.08330419 1.4798642
-0.19500612 -0.5792074 -0.550491 -0.6149512 -0.49629787 -0.22319569 -0.32448658 0.8503642
0.25475663 -0.18402323 0.05795037 0.33461735 -0.2903243 0.0044036037 0.5473971 0.074468575
00000000: 268d 493e 1ff7 7dbe a070 463e 495c d33e
00000010: cd92 c03b dd80 05bf 06bf 97be 214c 903e
00000020: 0ddc 31bf 0b52 1fbf e393 1c3e ee34 4fbe
00000030: 3490 243f 2e10 b2be 5b74 823e aad0 30be
00000040: 135c b43f 3fab c03f a1de 543f 5558 823f
00000050: 1ad0 4c3f 818e d23f 5404 653f 39c9 833f
00000060: 7434 b03f a4b5 dd3f 0fb1 913f 2cd4 d43f
00000070: d1ec 893f ecc9 9c3f 639b aa3d 316c bd3f
00000080: afaf 47be f046 14bf faec 0cbf 716d 1dbf
00000090: c11a febe 698d 64be 1b23 a6be 78b1 593f
000000a0: 766f 823e 9670 3cbe 5e5d 6d3d f752 ab3e
000000b0: 63a5 94be 1b4c 903b 3722 0c3f fb82 983d

mlp.0.weight f4 [128, 16]
-0.04342434 0.64091665 -0.3089768 -0.2198665 -0.36752614 -0.16427533 0.45455438 0.05986711
-0.1879032 0.20535012 0.07626081 0.2208147 0.034527503 -0.054779224 0.17844024 -0.14053373
0.14277898 0.014035272 -0.15260343 -0.37895665 0.012012428 -0.34001327 -0.074904665 -0.32301125
0.13709718 0.5120123 -0.21202926 -0.34414247 -0.19168139 -0.22511934 -0.11593247 0.15338556
-0.1704724 0.4507353 0.79842913 -0.11317687 0.005296472 0.2913067 0.20286565 -0.63189316
0.2843134 0.36152565 0.1197235 0.25374085 -0.053325884 -0.5597939 -0.46930656 -0.16855709
-0.1637764 0.059090186 0.21846262 0.514599 -0.011629198 -0.14439002 0.087905616 -0.3352804
0.033205878 -0.20978239 0.055749618 -0.01063397 -0.034712177 -0.021621976 -0.27325377 -0.24798064
0.008775266 0.20880899 -0.05353842 0.054688614 -0.102543116 -0.093513176 0.2501002 -0.3164922
-0.087422475 0.055987563 -0.06039521 0.08787841 -0.047228657 -0.105974674 0.10358186 0.07855432
-0.5554278 -0.03797611 0.075719535 0.08831302 0.064866275 -0.3101643 -0.08944819 -0.11245748
-0.13751455 -0.079544276 0.017373646 -0.15816262 -0.073047675 -0.33833742 0.1291994 -0.045939058
-0.25456035 0.12554446 0.035680167 0.01461284 -0.37401214 0.2481525 0.19910793 0.12201726
-0.74064404 -0.22182195 -0.17202228 0.07127742 0.40162873 -0.49523115 -0.0057776566 0.22346325
0.111293465 0.13026452 -0.12672994 -0.0785605 0.6760311 -0.26039943 0.3189169 -0.05209807
-0.071349196 0.5042577 0.012531874 -0.0047864104 0.33972633 0.3291258 -0.3339692 0.08837763
0.011537099 0.18331632 0.13944979 -0.07335123 0.22175859 -0.033439998 0.10039034 -0.042540047
0.06284628 -0.007619432 0.19390675 -0.10661846 -0.073985815 0.015837723 0.051904105 0.0084324675
0.1521957 -0.24975657 0.13807485 -0.07806524 -0.23375273 0.119301915 -0.34005004 -0.22113588
-0.12286183 0.106680654 -0.24183159 -0.08545787 0.021197615 -0.6443495 0.13337335 -0.31960082
0.07773772 0.024700321 0.2640437 -0.6181215 -0.07549667 0.001578687 -0.11777552 -0.18562542
-0.06952928 0.06737199 0.067774385 0.43552125 0.23555002 -0.076857105 -0.20566027 0.09068183
0.05065242 0.20847975 0.24025056 0.022889204 0.109702595 0.0018729254 0.021475604 0.1159086
-0.11352355 0.1322458 -0.11501109 0.023799164 -0.2803983 -0.0138200475 -0.2866009 -0.1060812
-0.014587957 -0.044166863 0.08339929 -0.019847786 -0.09476131 -0.10550472 -0.076962605 -0.15059067
-0.06839667 -0.06362349 0.12697057 -0.080233864 0.09344328 -0.058416422 -0.08854208 -0.17748998
-0.13269839 0.009615272 0.0317023 -0.03707544 -0.07480922 -0.1402796 0.0032450913 -0.43043426
0.06857775 0.18682702 0.09690973 0.70880795 -0.11913153 0.05124777 0.023872161 -0.037161212
0.13280465 0.031766452 0.33773604 0.31777266 0.1729971 0.23249267 -0.37162346 -0.08865606
0.19363044 0.04189891 -0.036459237 0.41041946 0.00078368734 0.11050201 0.2537173 0.07587684
0.07802563 -0.003203405 0.030980842 -0.3489007 -0.3016177 0.3657816 0.3477633 0.19938442
-0.10242311 0.4681384 0.48636445 0.21595933 -0.36460802 0.34230527 -0.07081726 -0.39238766
00000000: b9dd 31bd 1d13 243f 3532 9ebe af24 61be
00000010: 632c bcbe cb37 28be 5abb e83e 3737 753d
00000020: b269 40be 4d47 523e a12e 9c3d 401d 623e
00000030: b66c 0d3d 2e60 60bd 0ab9 363e 13e8 0fbe
00000040: a734 123e 33f4 653c 1344 1cbe 9b06 c2be
00000050: c6cf 443c 3816 aebe 9e67 99bd bb61 a5be
00000060: 3463 0c3e 3d13 033f 331e 59be 7133 b0be
00000070: 2048 44be af85 66be 016e edbd 1b11 1d3e
00000080: 5190 2ebe c7c6 e63e da65 4c3f 46c9 e7bd
00000090: 078e ad3b 2726 953e 03bc 4f3e c0c3 21bf
000000a0: 8791 913e e419 b93e 9831 f53d 52ea 813e
000000b0: 3e6c 5abd a74e 0fbf f348 f0be 3b9a 2cbe
000000c0: 00b5 27be 8d08 723d aab4 5f3e c3bc 033f
000000d0: 6488 3ebc fada 13be dc07 b43d dfa9 abbe
000000e0: e302 083d 32d1 56be b659 643d 1a3a 2ebc
000000f0: 5b2e 0ebd 9220 b1bc ebe7 8bbe a3ee 7dbe
00000100: 22c6 0f3c 06d2 553e 1a4b 5bbd 2b01 603d
00000110: 2002 d2bd d683 bfbd 220d 803e 440b a2be
00000120: 8e0a b3bd 3753 653d f860 77bd 99f9 b33d
00000130: d672 41bd 4009 d9bd ba22 d43d 16e1 a03d
00000140: 8430 0ebf d68c 1bbd d812 9b3d 75dd b43d
00000150: 9cd8 843d dbcd 9ebe 9d30 b7bd 1b50 e6bd
00000160: 9dd0 0cbe 1ce8 a2bd 2d53 8e3c 62f5 21be
00000170: 059a 95bd 903a adbe d94c 043e 982a 3cbd
00000180: bc55 82be ba8e 003e 5e25 123d b16a 6f3c
00000190: 857e bfbe b01b 7e3e f3e2 4b3e 2fe4 f93d
000001a0: d99a 3dbf 4b25 63be 9c26 30be e5f9 913d
000001b0: 48a2 cd3e f08e fdbe 7f52 bdbb 8dd3 643e
000001c0: d4ed e33d 1064 053e 7ec5 01be 54e4 a0bd
000001d0: 6010 2d3f 1353 85be 1349 a33e c964 55bd
000001e0: 871f 92bd 0817 013f 7d52 4d3c 52d7 9cbb
000001f0: 9cf0 ad3e 2d83 a83e 03fe aabe 55ff b43d
00000200: 1a06 3d3c 46b7 3b3e edcb 0e3e 2b39 96bd
00000210: af14 633e 61f8 08bd 7399 cd3d 793e 2ebd
00000220: 8db5 803d 6eac f9bb 7e8f 463e c75a dabd
00000230: e085 97bd 1dbe 813c 6699 543d 5528 0a3c
00000240: 31d9 1b3e 30c0 7fbe 7e63 0d3e abe0 9fbd
00000250: e05c 6fbe 9054 f43d 0a1b aebe 7271 62be
00000260: fc9e fbbd 637b da3d b3a2 77be 8904 afbd
00000270: 9fa6 ad3c 17f4 24bf 0693 083e b8a2 a3be
00000280: f434 9f3d 5458 ca3c bc30 873e 363d 1ebf
00000290: 009e 9abd f2eb ce3a 4b34 f1bd 9714 3ebe
000002a0: 5e65 8ebd 53fa 893d 4ccd 8a3d a4fc de3e
000002b0: 0634 713e 4267 9dbd 9b98 52be 65b7 b93d
000002c0: e978 4f3d b77b 553e 3e04 763e 2482 bb3c
000002d0: c1ab e03d f37c f53a 9bed af3c 7d61 ed3d
000002e0: 097f e8bd 716b 073e ef8a ebbd 77f6 c23c
000002f0: 5e90 8fbe 7b6d 62bc 5abd 92be 1a41 d9bd
00000300: 5402 6fbc 50e8 34bd 3fcd aa3d d397 a2bc
00000310: 3812 c2bd dc12 d8bd 929e 9dbd 7134 1abe
00000320: 8e13 8cbd 084d 82bd 9304 023e a751 a4bd
00000330: 315f bf3d 0f46 6fbd 8d55 b5bd efbf 35be
00000340: 16e2 07be 6089 1d3c 45da 013d 6bdc 17bd
00000350: 9435 99bd 75a5 0fbe 99ab 543b e161 dcbe
00000360: 7e72 8c3d 954f 3f3e 9c78 c63d 7074 353f
00000370: 3bfb f3bd 2fe9 513d 8d8f c33c 5b36 18bd
00000380: f1fd 073e 8a1d 023d bdeb ac3e 19b3 a23e
00000390: 2726 313e 8f12 6e3e 6e45 bebe 4f91 b5bd
000003a0: 0f47 463e 319e 2b3d 4856 15bd 8022 d23e
000003b0: 5e70 4d3a e14e e23d 3ce7 813e 5165 9b3d
000003c0: e7cb 9f3d 38f0 51bb 89cb fd3c 1da3 b2be
000003d0: a36d 9abe ba47 bb3e 080e b23e 6e2b 4c3e
000003e0: 35c3 d1bd d6af ef3e c304 f93e 7124 5d3e
000003f0: e7ad babe a342 af3e a408 91bd 09e7 c8be

mlp.0.bias f4 [128]
0.15812005 -0.2614908 -0.46322125 -0.40278295 -0.18310113 -0.27322048 -0.18630862 -0.030886553
-0.25970003 0.12413168 0.08359245 -0.085018866 -0.35765663 -0.1818685 -0.2748081 -0.19858906
0.1649754 -0.22930482 -0.032928985 -0.073869705 0.0775958 -0.29443902 -0.19583377 0.16718554
0.025105974 -0.21266966 -0.07394862 0.15887412 -0.19461612 0.2968251 -0.07453195 -0.4889397
0.053816903 0.24587105 0.11527084 0.009418697 0.14843306 -0.32129 -0.039338402 0.008611751
-0.12904671 -0.18149427 -0.24235785 -0.032190695 -0.15821877 -0.016283488 0.09029166 -0.3163878
0.022926345 -0.4658791 0.20193142 -0.14353067 -0.22709253 -0.20148586 -0.3988073 0.34313813
-0.17266546 -0.301091 -0.115130335 0.043712936 -0.20168303 -0.1650387 -0.2177059 -0.18948287
-0.33094734 -0.36051422 -0.5099738 0.05449633 -0.04311612 -0.25729072 -0.42927995 -0.1492859
-0.03522017 -0.00092549087 0.06693314 0.12571798 -0.2238403 -0.1126983 -0.03310739 -0.3341183
-0.09167582 0.008387501 -0.25405383 -0.3799223 -0.1843368 -0.3602679 -0.22910051 -0.26232022
0.031533126 -0.32572898 -0.08136018 0.22607638 0.10985134 -0.1714413 -0.21004826 0.06307241
-0.3972138 -0.3082141 -0.46149918 0.025467725 0.070837244 -0.17114587 -0.078496955 -0.09133948
-0.12195542 0.0146107245 -0.23009577 -0.23107368 -0.036544565 -0.21116573 -0.11442501 -0.1583883
0.13977522 -0.16531779 -0.27930382 -0.0791149 -0.18952447 -0.13677625 -0.27161238 -0.37673396
-0.18976292 -0.22449726 -0.3318904 -0.22412847 -0.033093892 0.17116544 -0.35814893 0.20801793
00000000: 39ea 213e 1fe2 85be 562b edbe 9139 cebe
00000010: dd7e 3bbe 8ee3 8bbe b0c7 3ebe cc05 fdbc
00000020: 67f7 84be c038 fe3d 8532 ab3d 5f1e aebd
00000030: c51e b7be bc3b 3abe a6b3 8cbe ee5a 4bbe
00000040: 50ef 283e e2ce 6abe 8be0 06bd 0049 97bd
00000050: 8cea 9e3d b6c0 96be a688 48be b032 2b3e
00000060: 0bab cd3c 13c6 59be 6072 97bd e6af 223e
00000070: 7349 47be 76f9 973e 35a4 98bd 4e56 fabe
00000080: 1d6f 5c3d 9fc5 7b3e 1e13 ec3d e150 1a3c
00000090: d6fe 173e 1f80 a4be 4e21 21bd 4d18 0d3c
000000a0: d224 04be a2d9 39be a82c 78be 64da 03bd
000000b0: 1a04 22be f364 85bc d5ea b83d 95fd a1be
000000c0: 08d0 bb3c b587 eebe 1cc7 4e3e b4f9 12be
000000d0: f28a 68be 4f52 4ebe 7830 ccbe cdaf af3e
000000e0: 37cf 30be 9928 9abe 74c9 ebbd 560c 333d
000000f0: ff85 4ebe e8ff 28be 4cee 5ebe cc07 42be
00000100: ee71 a9be 5295 b8be a58d 02bf 8b37 5f3d
00000110: 879a 30bd 9cbb 83be 95ca dbbe 67de 18be
00000120: 0643 10bd a49c 72ba 3e14 893d 37bc 003e
00000130: 6436 65be 5ece e6bd 9d9b 07bd 8e11 abbe
00000140: 88c0 bbbd bb6b 093c 5813 82be 2d85 c2be
00000150: c9c2 3cbe 0975 b8be 5399 6abe d64e 86be
00000160: e128 013d f3c5 a6be 2ba0 a6bd 9180 673e
00000170: bdf9 e03d 4f8e 2fbe e416 57be 1c2c 813d
00000180: 9b5f cbbe 3dce 9dbe 9f49 ecbe b1a1 d03c
00000190: 1e13 913d dd40 2fbe 03c3 a0bd 3110 bbbd
000001a0: c3c3 f9bd d261 6f3c 3a9e 6bbe 949e 6cbe
000001b0: c1af 15bd d43b 58be a957 eabd 8b30 22be
000001c0: 3c21 0f3e 1149 29be e900 8fbe fe06 a2bd
000001d0: b412 42be 130f 0cbe c710 8bbe 46e3 c0be
000001e0: 3651 42be 9ce2 65be 8aed a9be ef81 65be
000001f0: 768d 07bd fe45 2f3e 4c5f b7be a702 553e

mlp.2.weight f4 [128, 128]
-0.07104802 -0.08799596 -0.11207838 -0.052389897 0.0081932 -0.062398884 -0.05912511 -0.09687538
-0.10979702 -0.0034444663 0.010195768 -0.0066851457 -0.014876292 0.055471145 -0.15629485 -0.01995062
-0.06254351 -0.028839886 -0.14806648 -0.09662879 -0.008516625 -0.08791146 -0.03791378 -0.03088917
-0.094209544 -0.12892772 -0.045849297 -0.09721899 -0.04940659 -0.012108741 -0.047093406 -0.13344102
-0.022606371 0.01236414 -0.13690485 -0.10468315 -0.048849262 -0.07753746 -0.09714489 -0.078813024
-0.12901983 -0.15697818 -0.049504917 -0.029124202 -0.119514294 -0.10372205 -0.05636911 -0.07651002
0.016607443 -0.084256046 -0.082649395 -0.023442935 -0.033204757 -0.012076144 -0.14278263 -0.03255727
-0.0028555486 -0.06325818 -0.08707473 -0.067128986 -0.06934218 -0.01032383 -0.07855452 0.016290786
-0.08645718 -0.094979875 0.004710212 -0.12791887 -0.049599644 -0.001207527 -0.07536232 -0.12918039
-0.026470196 -0.07958138 -0.012915077 -0.07496974 -0.11201096 -0.022112913 -0.07285717 -0.052886523
-0.055975266 -0.027933339 -0.1544916 -0.06356549 0.049351208 -0.061709017 -0.069587335 -0.07057522
0.023378199 -0.04437008 -0.064674854 -0.07972594 0.0031134835 0.0035197532 0.044466507 -0.026623506
-0.102273695 -0.0372296 -0.030879263 -0.10364402 -0.04820125 -0.034646742 -0.08832048 -0.13104048
-0.059260447 -0.08602082 -0.011236314 -0.008126405 -0.13313927 -0.10536001 -0.067954555 0.0050788326
-0.1670979 -0.0721871 -0.019564096 -0.03256028 0.01219896 0.09126104 -0.05064274 -0.033722658
-0.005630194 0.022592172 -0.12204793 -0.08146514 -0.0742458 -0.026895393 -0.072357416 -0.11989312
-0.022658795 0.14380042 -0.21385261 -0.104761854 0.08007026 0.07291857 0.021501945 0.015223357
-0.056429572 0.24359158 0.090498306 -0.05855043 0.12558214 -0.07538671 -0.010850597 -0.053980015
0.111917466 0.19274701 -0.043618273 0.09707669 0.10716348 -0.06885988 -0.054374117 -0.013513322
-0.11261531 0.05960035 -0.19560283 -0.002600622 0.18838815 0.017824303 -0.03131393 -0.14585066
-0.14909817 -0.14005837 0.13788591 -0.34402075 -0.07658024 0.0686512 -0.04714122 -0.061335105
-0.014163005 0.025172962 -0.11835674 0.04472981 -0.06970721 0.038519673 0.15151882 0.00021381225
-0.15074003 -0.036330137 0.16507879 0.034899026 -0.15503551 0.0042045694 -0.06327567 -0.1088624
-0.036612734 -0.13832705 0.093502015 0.08495224 -0.12337585 -0.011156854 0.059739083 -0.007605144
-0.19575392 -0.053593718 -0.25540614 0.10234574 0.06608764 -0.0836277 0.027432408 0.011667705
-0.049561914 -0.0100308955 -0.20635732 -0.07131873 -0.06811512 0.06270834 -0.04001754 -0.026381522
-0.11224229 -0.058364835 -0.16352999 -0.011167162 -0.070976414 0.0013729659 -0.051969226 0.05996588
-0.279525 0.0059651965 -0.0017883037 -0.059847374 -0.00025689098 0.0983147 -0.13745543 -0.007384298
0.03970767 0.057179287 0.14184712 -0.031481836 0.17247593 -0.17490023 -0.08746785 -0.07489322
-0.04800451 -0.3916148 0.114097066 0.018199869 -0.043871008 -0.054330677 0.03567299 0.037412766
0.05788331 0.0057083312 -0.05037682 -0.088733576 -0.30711418 -0.014067915 0.022848215 0.023858473
-0.022209084 -0.02131039 0.007816145 -0.27820262 0.026416417 0.055617906 -0.25379366 -0.09548427
00000000: a081 91bd 3a37 b4bd 5a89 e5bd ca96 56bd
00000010: c63c 063c f995 7fbd 2c2d 72bd 9966 c6bd
00000020: 43dd e0bd 8ebc 61bb 270c 273c 110f dbbb
00000030: b1bb 73bc b635 633d c20b 20be 7c6f a3bc
00000040: d016 80bd a041 ecbc bd9e 17be 51e5 c5bd
00000050: 5089 0bbc ec0a b4bd 7b4b 1bbd 490b fdbc
00000060: eff0 c0bd a105 04be 79cc 3bbd c01a c7bd
00000070: 915e 4abd be63 46bc 04e5 40bd c3a4 08be
00000080: ff30 b9bc f692 4a3c c930 0cbe 1f64 d6bd
00000090: 2a16 48bd f6cb 9ebd e6f3 c6bd b968 a1bd
000000a0: c61d 04be e3be 20be abc5 4abd e195 eebc
000000b0: e9c3 f4bd 3a6c d4bd 4ce3 66bd 49b1 9cbd
000000c0: 550c 883c 6f8e acbd 1644 a9bd 660b c0bc
000000d0: b601 08bd 05db 45bc 9c35 12be c65a 05bd
000000e0: 2824 3bbb 818d 81bd 3c54 b2bd ec7a 89bd
000000f0: 4603 8ebd 4825 29bc 31e1 a0bd 4174 853c
00000100: 7610 b1bd cf84 c2bd 1f58 9a3b 2afd 02be
00000110: ff28 4bbd e245 9eba 8f57 9abd dd47 04be
00000120: 06d8 d8bc 90fb a2bd c299 53bc bc89 99bd
00000130: 0166 e5bd 2426 b5bc 2436 95bd 8a9f 58bd
00000140: 5246 65bd 75d4 e4bc 0c33 1ebe a02e 82bd
00000150: 7e24 4a3d 98c2 7cbd ce83 8ebd be89 90bd
00000160: a383 bf3c 67bd 35bd 4074 84bd 5b47 a3bd
00000170: 960b 4c3b a9ab 663b 8322 363d 8a19 dabc
00000180: df74 d1bd 117e 18bd 82f6 fcbc 5143 d4bd
00000190: ad6e 45bd bee9 0dbd 5ee1 b4bd 7a2f 06be
000001a0: 15bb 72bd af2b b0bd 8418 38bc 9d24 05bc
000001b0: a955 08be fdc6 d7bd c22b 8bbd 566c a63b
000001c0: b61b 2bbe d5d6 93bd e244 a0bc ee5d 05bd
000001d0: 26de 473c 11e7 ba3d c36e 4fbd c520 0abd
000001e0: 7e7d b8bb 3813 b93c 44f4 f9bd 32d7 a6bd
000001f0: 2f0e 98bd ba53 dcbc 2030 94bd 868a f5bd
00000200: f09e b9bc 6b40 133e 2efc 5abe 628d d6bd
00000210: e0fb a33d 5556 953d d924 b03c 636b 793c
00000220: b222 67bd 1270 793e 2d57 b93d 93d2 6fbd
00000230: 9b98 003e 5964 9abd b4c6 31bc 261a 5dbd
00000240: fc34 e53d 795f 453e 13a9 32bd 25d0 c63d
00000250: 8778 db3d 6906 8dbd 65b7 5ebd fb66 5dbc
00000260: dba2 e6bd 7f1f 743d 1c4c 48be 326f 2abb
00000270: d3e8 403e 4604 923c 0943 00bd e059 15be
00000280: 31ad 18be 766b 0fbe f731 0d3e 7d23 b0be
00000290: 1ad6 9cbd 0099 8c3d 2717 41bd 853a 7bbd
000002a0: f30b 68bc 8737 ce3c 0565 f2bd 9b36 373d
000002b0: a7c2 8ebd cec6 1d3d c027 1b3e ca32 6039
000002c0: 985b 1abe e9ce 14bd 6a0a 293e 48f2 0e3d
000002d0: a1c1 1ebe 7cc6 893b ad96 81bd 40f3 debd
000002e0: 3cf7 15bd 9ba5 0dbe fc7d bf3d 71fb ad3d
000002f0: 7aac fcbd 3dcb 36bc f8b0 743d 9234 f9bb
00000300: b773 48be 1685 5bbd 98c4 82be a59a d13d
00000310: f558 873d 0045 abbd eeb9 e03c e729 3f3c
00000320: 6f01 4bbd a058 24bc 554f 53be 8e0f 92bd
00000330: f17f 8bbd 3b6d 803d 6fe9 23bd 101e d8bc
00000340: 49df e5bd f70f 6fbd 6874 27be 79f6 36bc
00000350: 155c 91bd 17f5 b33a afdd 54bd c89e 753d
00000360: e71d 8fbe b277 c33b 8465 eaba 8522 75bd
00000370: 53af 86b9 3859 c93d 1ec1 0cbe fbf7 f1bb
00000380: 83a4 223d d434 6a3d 5f40 113e 19f3 00bd
00000390: 889d 303e 0c19 33be 5822 b3bd 9e61 99bd
000003a0: 61a0 44bd bc81 c8be b9ab e93d e417 953c
000003b0: 16b2 33bd d889 5ebd d71d 123d 213e 193d
000003c0: 0d17 6d3d f40c bb3b ed57 4ebd f3b9 b5bd
000003d0: 123e 9dbe 1d7d 66bc 2e2c bb3c d872 c33c
000003e0: d3ef b5bc 2193 aebc 4a0f 003c 9370 8ebe
000003f0: 3e67 d83c 9acf 633d 3ef1 81be 428d c3bd

mlp.2.bias f4 [128]
0.025870318 0.32754403 0.21343541 0.37550583 0.27854165 -0.01376573 -0.09331965 -0.06364843
-0.057082757 -0.078763455 -0.06481544 -0.17645182 -0.05861994 -0.13348183 0.2806318 0.08585419
-0.053333282 0.18438894 -0.031994563 -0.0744155 -0.09639177 0.32392022 -0.056267295 -0.011129843
0.028762896 0.409408 0.38206148 -0.06999305 -0.03276572 0.24369235 -0.11269325 -0.02152016
-0.09776486 0.0017609897 0.14143449 0.24623455 0.2256495 -0.113917954 0.03261075 0.28203622
0.06659155 0.2563481 0.11369768 0.07796808 0.08635562 0.008904861 0.18009503 -0.12298125
0.41746396 -0.011788585 -0.003424901 0.2248155 -0.09353211 -0.032371867 -0.02334313 0.3414767
-0.08322694 -0.11252864 0.0017411592 0.06983851 -0.023671402 0.20671815 -0.117938496 0.01522666
-0.12476324 0.0020413185 -0.013363719 -0.1288174 -0.15250748 -0.089020446 -0.15414366 -0.0693665
0.2480255 -0.06926926 0.089571886 0.31993246 -0.1277722 -0.07982984 0.24738933 -0.11278667
-0.115602784 0.2503213 0.09417933 0.19816446 -0.08051494 -0.009231615 0.23174427 0.014429477
-0.068509206 0.15114759 -0.056191172 0.27057844 0.26068744 -0.047828794 -0.34467587 -0.15292878
0.21077386 -0.115425035 0.16401981 -0.013908193 -0.105020575 0.112133875 0.07572264 -0.110371046
-0.10852219 -0.0448872 -0.14320432 -0.107921265 -0.1576867 0.11847191 0.018315317 -0.078686565
-0.079201944 -0.13830884 0.23072223 0.23450014 0.41975427 -0.3197024 -0.11664595 0.059831858
0.011184645 -0.07770425 0.03394612 -0.07516388 -0.36425385 0.0020855756 -0.07873369 0.015792765
00000000: fded d33c dab3 a73e d08e 5a3e 4d42 c03e
00000010: 039d 8e3e a889 61bc 5f1e bfbd 1c5a 82bd
00000020: 9ccf 69bd bc4e a1bd f5bd 84bd c9af 34be
00000030: 761b 70bd 76af 08be f9ae 8f3e 52d4 af3d
00000040: 0074 5abd 74d0 3c3e bb0c 03bd 2767 98bd
00000050: 0c69 c5bd dfd8 a53e 8978 66bd f259 36bc
00000060: 2aa0 eb3c ed9d d13e 909d c33e 8458 8fbd
00000070: 5935 06bd 7d8a 793e b8cb e6bd 0c4b b0bc
00000080: f138 c8bd 02d1 e63a 34d4 103e e924 7c3e
00000090: aa10 673e d14d e9bd da92 053d 0d67 903e
000000a0: 2761 883d 0f40 833e 54da e83d bbad 9f3d
000000b0: 37db b03d b2e5 113c d56a 383e 98dd fbbd
000000c0: d6bd d53e e924 41bc 4e74 60bb 0936 663e
000000d0: c38d bfbd 5d98 04bd 173a bfbc 09d6 ae3e
000000e0: e372 aabd 6a75 e6bd 9c37 e43a 7e07 8f3d
000000f0: 87ea c1bc ecad 533e bd89 f1bd 3e79 793c
00000100: df83 ffbd a4c7 053b 80f3 5abc b5e8 03be
00000110: ec2a 1cbe 5a50 b6bd d6d7 1dbe 0610 8ebd
00000120: 66fa 7d3e 0bdd 8dbd 7771 b73d 30ce a33e
00000130: b7d6 02be d47d a3bd a153 7d3e b3fc e6bd
00000140: 27c1 ecbd 1d2a 803e 18e1 c03d a0eb 4a3e
00000150: 04e5 a4bd 3340 17bc 5f4e 6d3e 9d69 6c3c
00000160: 8e4e 8cbd 6fc6 1a3e b728 66bd 4289 8a3e
00000170: d378 853e 20e8 43bd 5b79 b0be 5d99 1cbe
00000180: 1ad5 573e f663 ecbd cff4 273e 31df 63bc
00000190: 0715 d7bd 72a6 e53d 7914 9b3d 370a e2bd
000001a0: e240 debd a4db 37bd 27a4 12be d305 ddbd
000001b0: 9f78 21be 67a1 f23d 010a 963c 6c26 a1bd
000001c0: a134 a2bd d5a0 0dbe 7342 6c3e ce20 703e
000001d0: 08ea d63e 08b0 a3be 12e4 eebd 4012 753d
000001e0: cd3f 373c 6823 9fbd 160b 0b3d 85ef 99bd
000001f0: 7b7f babe 27ae 083b 213f a1bd d45f 813c

mlp.4.weight f4 [3, 128]
0.024293559 0.043165296 0.24437332 0.03211555 0.20474122 0.108837366 0.0056421864 -0.02244056
0.06250126 0.10716323 -0.004757266 -0.038337648 -0.11814007 0.095816605 -0.0015398777 -0.008964897
0.03696432 0.022995992 -0.1402601 -0.04881336 -0.04173573 -0.012146245 -0.023276417 0.015685353
-0.014524309 0.28918305 -0.02289756 -0.0012644441 -0.13801451 0.024983253 0.13126154 0.069695264
0.030452574 -0.089411475 -0.022196595 0.0012053432 -0.009048054 -0.15153043 0.10482426 0.019177468
0.3775142 0.012731958 -0.016524097 0.030141607 -0.017730916 -0.34064314 0.016584188 -0.0039225887
0.06872147 0.035739336 0.042148825 0.002042468 -0.0026528204 0.11724209 0.0741675 -0.20530923
0.084861994 0.13181086 0.07927433 0.08340446 0.0407409 -0.0139109455 0.0792223 0.07547177
0.044448692 -0.060542494 -0.030380946 -0.123760745 -0.09440411 0.00580033 -0.004268567 0.10701688
-0.0060720253 -0.015861109 0.029852344 0.01159691 0.040196177 0.029722134 -0.003332751 -0.12441088
0.04735978 0.10201961 -0.104932904 0.03490412 -0.058138385 0.050123654 -0.07473206 -0.03199915
0.087180786 -0.008350434 0.04467491 0.15003622 0.016160375 0.06120065 -0.2247563 -0.1116771
-0.021125782 -0.010200093 -0.0026051223 0.053605627 0.04005641 -0.0013661527 0.08679846 0.07604416
0.0710996 -0.01922514 0.06441471 -0.02288915 -0.001862535 -0.20499626 -0.017808946 0.09451574
0.12531866 0.408242 0.050985035 0.043867975 -0.0055671013 0.1328112 -0.011861517 0.11807005
-0.07525231 0.0089582065 0.08105178 -0.092588395 0.060523666 0.13221574 0.07229259 0.013531169
0.033038743 0.050010026 0.30438128 0.3883322 0.052671075 0.039466877 0.012541431 -0.01616264
0.08573 0.0033881685 -0.03866972 -0.0331412 -0.0028780878 0.034343746 0.24474181 0.07749558
0.0054580993 0.025508357 -0.0100914305 0.07101564 0.013088684 0.018564345 -0.0035778712 0.02152824
-0.37913907 0.48626712 0.15853827 -0.02644543 0.012455285 0.20807412 -0.024359258 0.007602692
-0.020146018 -0.026968954 0.024861163 -0.055841576 0.07440132 0.026684621 -0.024704121 0.025268447
0.07052424 -0.2604911 0.30789068 0.041549437 -0.5063302 -0.02901105 0.08746752 0.04248562
0.16850452 -0.00011655525 0.07699706 0.082570575 0.04988457 0.051507052 0.03296076 -0.07682927
-0.084173374 0.07722709 -0.024913017 -0.05868129 0.04921894 0.14893758 0.023454404 -0.018054316
-0.06965565 0.009171607 -0.0033085211 -0.001456823 0.110996224 0.07287215 -0.054581635 0.10475936
0.1032734 0.04664741 0.36161527 0.123583205 -0.044516187 0.08188986 0.14169998 0.0446511
-0.019317817 0.03499843 0.008227357 0.07679163 0.063170984 0.0012933216 -0.025699656 -0.17231704
0.058921304 -0.007255565 0.007831632 0.07266843 -0.10983518 0.0093455175 0.23624809 0.12668538
-0.007483506 -0.06877437 0.38218227 0.08511214 0.05255458 -0.015063584 0.14917456 -0.005022712
0.04704692 0.10571691 0.031203974 -0.054488212 0.002724428 -0.07663656 0.101205245 -0.026975987
0.0097787315 -0.07586179 0.4275413 0.33852175 0.15963323 -0.13313234 0.019683443 -0.029394066
-0.021162113 0.008535086 -0.15794538 0.0015079258 0.024836674 0.06834193 0.009948019 0.030624777
00000000: 4903 c73c 18ce 303d 003d 7a3e 988b 033d
00000010: afa7 513e 20e6 de3d 17e2 b83b 44d5 b7bc
00000020: a900 803d 6578 db3d d7e2 9bbb f007 1dbd
00000030: 6cf3 f1bd 7f3b c43d b9d5 c9ba 81e1 12bc
00000040: e667 173d 1762 bc3c 58a0 0fbe 85f0 47bd
00000050: 16f3 2abd 0b01 47bc 2fae bebc 927e 803c
00000060: 5ef7 6dbc cd0f 943e aa93 bbbc b4bb a5ba
00000070: ad53 0dbe aea9 cc3c 6d69 063e 64bc 8e3d
00000080: ad77 f93c 5d1d b7bd a2d5 b5bc 9bfc 9d3a
00000090: 4a3e 14bc cb2a 1bbe 1aae d63d 111a 9d3c
000000a0: 8b49 c13e b499 503c 8b5d 87bc 88eb f63c
000000b0: 6d40 91bc c768 aebe 90db 873c 0f89 80bb
000000c0: d8bd 8c3d 6963 123d 3fa4 2c3d edda 053b
000000d0: f1da 2dbb 9f1c f03d 21e5 973d 953c 52be
000000e0: 20cc ad3d 6df9 063e 945a a23d f5cf aa3d
000000f0: eedf 263d bcea 63bc 4d3f a23d f190 9a3d
00000100: d50f 363d 68fb 77bd 76e1 f8bc 4676 fdbd
00000110: f156 c1bd b210 be3b 56df 8bbb aa2b db3d
00000120: d7f7 c6bb 28ef 81bc e78c f43c f700 3e3c
00000130: bfa4 243d d57b f33c 496a 5abb 22cb febd
00000140: 54fc 413d a8ef d03d 10e7 d6bd 9ff7 0e3d
00000150: 8422 6ebd 764e 4d3d 1f0d 99bd 8a11 03bd
00000160: d78b b23d 42d0 08bc 0afd 363d 18a3 193e
00000170: c362 843c 88ad 7a3d 8426 66be f7b6 e4bd
00000180: fa0f adbc 4a1e 27bc b3ba 2abb 9391 5b3d
00000190: 3112 243d 7a10 b3ba 64c3 b13d 0abd 9b3d
000001a0: ab9c 913d 0a7e 9dbc dceb 833d 0782 bbbc
000001b0: 4e20 f4ba 8aea 51be 11e4 91bc 7891 c13d
000001c0: 8953 003e 1805 d13e afd5 503d e8ae 333d
000001d0: 3b6c b6bb a9ff 073e cf56 42bc b6ce f13d
000001e0: e21d 9abd 71c5 123c 7afe a53d fc9e bdbd
000001f0: aae7 773d 9063 073e 230e 943d d6b1 5d3c
00000200: a253 073d 50d7 4c3d ddd7 9b3e 7ad3 c63e
00000210: a0bd 573d 05a8 213d 937a 4d3c 8367 84bc
00000220: 3693 af3d 090c 5e3b 2464 1ebd 11bf 07bd
00000230: 4d9e 3cbb 07ac 0c3d 999d 7a3e 01b6 9e3d
00000240: dbd9 b23b e7f6 d03c 8756 25bc a670 913d
00000250: eb71 563c 4114 983c b87a 6abb fe5b b03c
00000260: 841e c2be 01f8 f83e db57 223e 16a4 d8bc
00000270: 4011 4c3c 6211 553e 118d c7bc 0120 f93b
00000280: 4309 a5bc ffed dcbc a3a9 cb3c 23ba 64bd
00000290: b85f 983d b599 da3c 4c60 cabc c6ff ce3c
000002a0: 036f 903d 175f 85be d9a3 9d3e be2f 2a3d
000002b0: db9e 01bf 95a8 edbc 2c22 b33d 6705 2e3d
000002c0: 738c 2c3e 206f f4b8 a2b0 9d3d c31a a93d
000002d0: c353 4c3d 0ff9 523d dd01 073d aa58 9dbd
000002e0: 1763 acbd 3d29 9e3d 6216 ccbc cb5b 70bd
000002f0: cd99 493d 1883 183e 7323 c03c a5e6 93bc
00000300: 9fa7 8ebd 8244 163c c6d3 58bb def2 beba
00000310: fd51 e33d fe3d 953d fe90 5fbd 138c d63d
00000320: 0181 d33d 5b11 3f3d a325 b93e 3119 fd3d
00000330: 9b56 36bd dfb5 a73d cd19 113e 12e4 363d
00000340: 6640 9ebc 845a 0f3d 09cc 063c ee44 9d3d
00000350: ca5f 813d ac84 a93a 1688 d2bc e173 30be
00000360: 7757 713d 17c0 edbb 3f50 003c 30d3 943d
00000370: 44f1 e0bd f11d 193c 05eb 713e d0b9 013e
00000380: 3338 f5bb 94d9 8cbd 65ad c33e 464f ae3d
00000390: 7943 573d 40cd 76bc 37c1 183e 9095 a4bb
000003a0: 45b4 403d 1b82 d83d 7a9f ff3c 082f 5fbd
000003b0: 518c 323b a1f3 9cbd b244 cf3d bffc dcbc
000003c0: f936 203c 6d5d 9bbd b1e6 da3e b952 ad3e
000003d0: e576 233e d853 08be 2c3f a13c d3cb f0bc
000003e0: 2b5c adbc bfd6 0b3c 6fbc 21be 98a5 c53a
000003f0: 4876 cb3c dbf6 8b3d 04fd 223c d0e0 fa3c

mlp.4.bias f4 [3]
0.1472556 0.5152305 -0.31735
00000000: 2cca 163e 25e6 033f b37b a2be
