EUSIPCO/Nested Array/saved_models/rnn_10.0dB_ula_5.pth (torch, 87874 bytes, 14 tensors)

bn.weight f4 [16]
0	0x3f30ef0d	0.6911476
1	0x3f5431c5	0.8288844
2	0x3f963505	1.173493
3	0x3f8ffcad	1.1248986
4	0x3f880945	1.0627829
5	0x3f202b5b	0.62566155
6	0x3f46d57f	0.7766952
7	0x3f7a1477	0.97687477
8	0x3f2f6b22	0.68522847
9	0x3f3be5b5	0.7339738
10	0x3f56478e	0.83702934
11	0x3fa54261	1.2910882
12	0x3f8bd3e3	1.0924038
13	0x3fae212a	1.3603871
14	0x3f7a3d48	0.9774976
15	0x3f256db1	0.646205

bn.bias f4 [16]
0	0xbea8f086	-0.32996005
1	0x3e4fbca4	0.20286804
2	0x3dd135c3	0.10215332
3	0xbdbd62b7	-0.09247344
4	0x3e1a0c30	0.15043712
5	0xbe03384d	-0.12814446
6	0xbe688b0d	-0.22709294
7	0x3e8ff89a	0.28119355
8	0x3de64528	0.11243659
9	0xbe1522a9	-0.14564003
10	0x3e5de848	0.2167064
11	0xbeab4011	-0.33447316
12	0x3d5775b9	0.052602503
13	0x3ea854f2	0.32877308
14	0xbdbfba35	-0.09361688
15	0x3eaaa6ba	0.33330327

bn.running_mean f4 [16]
0	0xbac9299a	-0.0015347481
1	0xba1efe8c	-0.0006065152
2	0x3b57019c	0.0032807356
3	0xb8b80976	-8.775566e-05
4	0x39106686	0.00013771103
5	0xba4bc8c3	-0.0007773751
6	0x3afdea68	0.0019372227
7	0xbb2544cd	-0.002521801
8	0xb9fead4d	-0.00048575774
9	0xbaca2f2f	-0.0015425439
10	0xba783ba0	-0.0009469334
11	0x3a39de1d	0.00070902874
12	0x3abfdba8	0.0014637606
13	0xba539771	-0.0008071578
14	0x3b11ffe9	0.0022277778
15	0xb9d555f8	-0.00040690578

bn.running_var f4 [16]
0	0x3fc69a22	1.5515788
1	0x3fc63cd7	1.5487317
2	0x3fc60fc2	1.5473559
3	0x3fc6b106	1.5522773
4	0x3fc61ca6	1.5477493
5	0x3fc5caad	1.5452477
6	0x3fc661bd	1.5498577
7	0x3fc65d75	1.5497271
8	0x3fc6bb1b	1.552585
9	0x3fc616d6	1.5475719
10	0x3fc60eb3	1.5473236
11	0x3fc64d6b	1.5492376
12	0x3fc681e6	1.5508392
13	0x3fc674b2	1.5504363
14	0x3fc6b6e0	1.5524559
15	0x3fc6e56c	1.5538764

rnn.weight_ih_l0 f4 [48, 16]
0	0x3e834a2b	0.25642523
1	0x3d9dbfc7	0.07702594
2	0xbf110270	-0.56644344
3	0xbeab20c4	-0.33423436
4	0xbebc38f0	-0.3676219
5	0xbed12a12	-0.4085241
6	0x3cf9c2be	0.030488368
7	0x3ad4357f	0.001619026
8	0xbee3ca0d	-0.4449009
9	0xbec7dbf2	-0.39034992
10	0xbedb3524	-0.4281398
11	0xbf05f1a5	-0.52321845
12	0x3e34202a	0.17590395
13	0x3d0b659f	0.03403246
14	0xbcac5202	-0.021035198
15	0x3da1e803	0.07905581
16	0x3f8ebb83	1.1150974
17	0xbf6375c7	-0.8885159
18	0x3ea2d87f	0.31805798
19	0x3ec79c93	0.38986644
20	0x3dbd123c	0.092319936
21	0x3ef6c305	0.48195663
22	0xbd914cae	-0.070947036
23	0xbf10be2c	-0.5654018
24	0xbe66534a	-0.2249271
25	0xbe95a4cc	-0.29227293
26	0x3f6843c6	0.90728414
27	0xbd20e550	-0.03928119
28	0x3bcb798c	0.006209558
29	0xbf1feb02	-0.6246797
30	0xbe8a8d51	-0.2706094
31	0x3e950a70	0.29109526
32	0xbe2985c0	-0.16554928
33	0xbf270140	-0.6523628
34	0x3e83e390	0.25759554
35	0x3f30d760	0.69078636
36	0xbe42eddc	-0.19036049
37	0xbf8341dc	-1.0254474
38	0xbe71dec9	-0.23620142
39	0x3f2f69b8	0.6852069
40	0x3f515622	0.81772053
41	0xbf0ca236	-0.54935014
42	0xbf92e9ab	-1.147756
43	0x3e1fa896	0.15591654
44	0x3f96045e	1.1720083
45	0x3d8a6c0e	0.06758891
46	0xbf7d244f	-0.9888353
47	0xbf1d3eb5	-0.6142381
48	0x3e917335	0.28408208
49	0xbe8105e1	-0.25199798
50	0x3fa75da7	1.3075455
51	0x3f50bd75	0.8153909
52	0x3d0541e8	0.032533556
53	0xbf487eda	-0.7831856
54	0x3e8268ae	0.2547049
55	0xbe8a2d03	-0.26987466
56	0x3eb32c56	0.34994763
57	0xbf91e7be	-1.1398847
58	0xbd9c0486	-0.0761805
59	0x3f195f49	0.5991102
60	0x3eafe893	0.34357128
61	0xbf253ab8	-0.6454272
62	0x3ef01c69	0.46896675
63	0xbdea674a	-0.11445482
64	0xbf39ba6a	-0.7255007
65	0x3e5a1bc0	0.21299648
66	0x3d3aeba6	0.045634888
67	0xbef05ea8	-0.46947217
68	0x3f3b5318	0.73173666
69	0xbf51988b	-0.8187339
70	0x3f3823e3	0.7192976
71	0xbeb7dd34	-0.35910952
72	0xbdb4eb8f	-0.08833992
73	0x3e9c3b98	0.30514216
74	0xbf3f7dfd	-0.7480162
75	0x3f521000	0.82055664
76	0xbf14aa75	-0.58072597
77	0x3eb11e0e	0.34593242
78	0xbdd3a0bf	-0.10333394
79	0xbe7fdb1f	-0.24985932
80	0x3ec60408	0.3867495
81	0xbe6b8769	-0.23000874
82	0x3f1bf92b	0.60927075
83	0xbf05d5bf	-0.52279276
84	0x3f0b5143	0.5442087
85	0xbce2678d	-0.027637267
86	0x3ec1243f	0.37722966
87	0xbf182bea	-0.5944201
88	0xbf03521a	-0.5129715
89	0xbf1dc8f0	-0.6163473
90	0x3e8962ba	0.26833135
91	0xbe9b95c6	-0.30387706
92	0x3f76431a	0.9619614
93	0xbe985c97	-0.2975814
94	0x3ea9d205	0.33168045
95	0xbe94bc11	-0.29049733
96	0xbea93d88	-0.33054757
97	0x3f724f85	0.9465259
98	0xbf051136	-0.51979387
99	0x3ce29723	0.027659958
100	0x3ca338c6	0.019924533
101	0x3cf08a66	0.029362869
102	0x3d44dd98	0.04806289
103	0xbf5f6c59	-0.872747
104	0x3ddb2361	0.10700107
105	0x3e6e4c72	0.23271349
106	0x3cc4c496	0.02401952
107	0x3ecb9c37	0.3976762
108	0xbed2929b	-0.41127476
109	0x3d625fdc	0.0552672
110	0xbf329365	-0.69756156
111	0x3e03ae37	0.12859426
112	0x3f56e73d	0.8394659
113	0x3ef092da	0.4698704
114	0xbf053e2c	-0.5204799
115	0x3c901af1	0.017590972
116	0x3f075b5f	0.52873796
117	0xbd2258c5	-0.03963544
118	0xbf4c0b46	-0.797047
119	0x3fa48c54	1.2855325
120	0xbf9f8d42	-1.2464983
121	0x3f181815	0.59411746
122	0x3e06e4d9	0.13173236
123	0xbeda0ec2	-0.42589384
124	0xbe67f4f4	-0.22652036
125	0x3f34e54b	0.70662373
126	0xbe6b3561	-0.22969581
127	0xbf8711d6	-1.0552318
128	0x3f383830	0.71960735
129	0x3ddffaa5	0.109364785
130	0xbeb6f3ad	-0.35732785
131	0x3f61d1bc	0.88210654
132	0xbf483403	-0.78204364
133	0x3f3e54bb	0.7434804
134	0xbe035a06	-0.1282731
135	0xbf3d3ecf	-0.73923963
136	0x3ec65926	0.3873989
137	0xbefcd93a	-0.4938448
138	0x3eb03dd8	0.34422183
139	0xbdfe85b7	-0.12427848
140	0xbec2f336	-0.3807618
141	0x3ed31b12	0.4123159
142	0xbebfbf2c	-0.3745054
143	0x3e752a25	0.23941858
144	0x3f1d0cd7	0.6134772
145	0x3d581071	0.052750055
146	0xbf583780	-0.84459686
147	0x3bad6f5a	0.005292815
148	0x3f8240e9	1.0176059
149	0xbf216ce0	-0.63056755
150	0x3eb8d969	0.3610337
151	0xbf5ad755	-0.8548482
152	0xbdc24d5e	-0.09487413
153	0x3ec8e5c8	0.3923781
154	0xbf57b4e1	-0.84260374
155	0x3f7f01ee	0.9961232
156	0xbe48a238	-0.19593132
157	0xbecdeed4	-0.40221274
158	0xbe1b86c5	-0.15188129
159	0xbe444738	-0.19167793
160	0x3b845c71	0.00403934
161	0x3ebc5e18	0.36790538
162	0xbf250416	-0.6445936
163	0xbeb06f35	-0.34459844
164	0xbe60cec6	-0.21953878
165	0x3f120040	0.5703163
166	0x3f8ee339	1.1163093
167	0xbe5f9e32	-0.2183769
168	0x3e922bc5	0.28549019
169	0xbe6c6be7	-0.23088036
170	0x3cef19ed	0.029187167
171	0xbde6de38	-0.112728536
172	0xbfb7ba0a	-1.435365
173	0x3e743c3f	0.23851107
174	0x3e6ec99e	0.23319098
175	0xbf1e9424	-0.61944795
176	0xbe214278	-0.15748012
177	0x3e9d3679	0.30705622
178	0xbe9bcf36	-0.30431527
179	0x3deb0ff9	0.11477656
180	0x3e111d8e	0.1417143
181	0xbefb1f56	-0.49047345
182	0xbecea0b9	-0.40356997
183	0x3ea596a5	0.32341495
184	0xbd767d2f	-0.060177978
185	0xbdd8aa16	-0.10579316
186	0x3ec63d3e	0.387186
187	0xbeeed1bf	-0.466444
188	0x3dbcb9c8	0.092151225
189	0x3f00191a	0.500383
190	0xbed28a16	-0.41120976
191	0xbe614fd7	-0.22003113
192	0x3ec9326f	0.3929629
193	0xbeaf467d	-0.34233466
194	0x3e2e08c0	0.16995525
195	0xbe66168e	-0.22469541
196	0x3ddb515c	0.107088774
197	0x3ed27e1c	0.4111184
198	0xbe49e8c1	-0.19717695
199	0x3c861fd7	0.016372604
200	0xbe5c8e03	-0.21538548
201	0x3ece8ea3	0.40343198
202	0x3d072d55	0.033002216
203	0x3f4f339f	0.8093814
204	0xbf429451	-0.7600756
205	0x3f16e999	0.5895019
206	0xbf4a4ae5	-0.7902053
207	0xbe84db2c	-0.25948465
208	0xbecf04d7	-0.4043338
209	0xbd17c36a	-0.037051596
210	0xbf06575f	-0.5247707
211	0x3edeae77	0.4349248
212	0x3f810499	1.0079528
213	0x3eb03c62	0.34421068
214	0xbe5b0d6c	-0.21391839
215	0xbeee5078	-0.46545768
216	0x3ed48d33	0.41513976
217	0xbeb262bb	-0.3484095
218	0xbed35388	-0.41274667
219	0xbf83f7b3	-1.0309967
220	0xbea8fcf4	-0.33005488
221	0xbe6c3f60	-0.2307105
222	0x3ef321a9	0.47486618
223	0xbee6b739	-0.45061663
224	0xbf1e3756	-0.61803186
225	0xbb63ffda	-0.003478995
226	0xbf000884	-0.50012994
227	0x3f3b27b3	0.7310745
228	0xbe8598f5	-0.2609326
229	0x3f357004	0.7087405
230	0x3e3b3789	0.18282904
231	0xbc178b85	-0.009249573
232	0xbe52eadd	-0.20597406
233	0x3f4e3e2e	0.8056363
234	0xbe3050c3	-0.17218308
235	0x3e04e552	0.12978104
236	0x3f080265	0.53128654
237	0x3e8def8a	0.27721816
238	0x3e2c2de8	0.16814387
239	0xbea81402	-0.32827765
240	0x3ed5979d	0.41717234
241	0xbeaa7b6b	-0.33297285
242	0xbed51aab	-0.4162191
243	0x3f369fd9	0.7133766
244	0x3f8902d7	1.0703992
245	0x3faf1b81	1.3680269
246	0x3f28084b	0.65637654
247	0x3d2f8545	0.042851705
248	0x3e64e920	0.22354555
249	0xbe809293	-0.25111827
250	0x3db17149	0.086641856
251	0x3eeb9623	0.46012983
252	0x3f98150a	1.1881421
253	0x3f989b05	1.1922308
254	0x3fbbb747	1.4665307
255	0x3ec17361	0.3778334

rnn.weight_hh_l0 f4 [48, 16]
0	0x3fdfa89f	1.7473334
1	0xbecd3bc6	-0.40084666
2	0x3eea115c	0.4571637
3	0x3f601edc	0.8754709
4	0xbe32226d	-0.17395945
5	0x3eddeb90	0.43343782
6	0x3da5e0f7	0.08099549
7	0x3fb1bd75	1.3885943
8	0x3f506e4a	0.8141829
9	0xbe9bf2f8	-0.30458808
10	0xbf86ddd1	-1.0536443
11	0xbf32e927	-0.6988701
12	0x3ea86786	0.32891482
13	0x3c125f68	0.008933879
14	0xbf397057	-0.7243704
15	0xbeded83b	-0.43524346
16	0x3f114c5a	0.5675713
17	0x3ef142a1	0.47121146
18	0x3ea7567d	0.32683173
19	0x3f5fb070	0.873786
20	0xbea2e9fb	-0.31819138
21	0x3f07e5d1	0.53085047
22	0x3e193930	0.14963222
23	0x3f326dbe	0.69698703
24	0x3f6e878e	0.9317559
25	0x3f0e9226	0.55691755
26	0xbea63cc5	-0.32468238
27	0xbf913819	-1.1345245
28	0x3f088684	0.53330255
29	0x3edb255d	0.42801943
30	0xbf02ab77	-0.51042885
31	0xbdd9db4a	-0.10637529
32	0x3dcdf14d	0.1005579
33	0x3ea1ba30	0.31587362
34	0xbfceb3e9	-1.6148654
35	0x401ac501	2.4182742
36	0xbef125e5	-0.47099224
37	0x3eeb0572	0.45902592
38	0xbc13be56	-0.009017548
39	0x3ec8eaae	0.39241546
40	0xbe7399ae	-0.23789093
41	0xbe6cb008	-0.23114026
42	0xbeca6605	-0.3953096
43	0x3e76b0a4	0.2409082
44	0x3da191ee	0.07889162
45	0xbe58c828	-0.21170104
46	0x3e8dbbef	0.27682444
47	0xbcdbed97	-0.02684669
48	0xbea98e65	-0.3311645
49	0x3e8a3531	0.26993707
50	0x3d9cc190	0.076541066
51	0x3d6b8bad	0.057506252
52	0x3e400440	0.18751621
53	0x3eaeb05f	0.34118935
54	0xbdd23415	-0.1026384
55	0x3ee0e850	0.4392724
56	0xbea42f61	-0.32067397
57	0x3e91b4b2	0.28458172
58	0xbde1bffe	-0.11022948
59	0xbec5fa22	-0.386674
60	0x3f0e50ec	0.55592227
61	0xbe0630a7	-0.13104497
62	0xbf138be4	-0.5763533
63	0x3e47595e	0.19467685
64	0x3ea3bd03	0.31980142
65	0xbcf4c249	-0.029877799
66	0x3e8c69f7	0.27424595
67	0x3d9ad8f5	0.075609125
68	0x3ff3de2d	1.9052178
69	0xbf2ff95a	-0.68739855
70	0x3d08522b	0.033281486
71	0x3bbcd778	0.0057629906
72	0xbed59aa2	-0.41719538
73	0x3e60506f	0.21905683
74	0x3f62a022	0.88525593
75	0x3e3d4835	0.18484576
76	0xbe0a1f40	-0.13488483
77	0xbe68ac5c	-0.22722
78	0x3f447199	0.76735836
79	0xbdd8db3c	-0.10588691
80	0xbdb98580	-0.09058666
81	0x3ea3e431	0.32010034
82	0x3ec831a3	0.3910037
83	0x3dd863a9	0.10565884
84	0x3eb24ee7	0.34825823
85	0xbe7fee6e	-0.24993297
86	0x3f0a3743	0.5399057
87	0xbefef397	-0.4979522
88	0xbd7dc984	-0.06195976
89	0x3eab19c2	0.3341809
90	0x3ec6593f	0.38739964
91	0xbe93a6e3	-0.28838262
92	0xbcf3f428	-0.029779509
93	0x3d59f585	0.05321266
94	0x3e2f18cc	0.17099303
95	0x3e465666	0.19368896
96	0xbec585cc	-0.3857864
97	0x3e1cf096	0.15326151
98	0x3effd814	0.49969542
99	0xbed2c6ec	-0.4116739
100	0xbd6ba83f	-0.0575335
101	0x3ed1e513	0.40995082
102	0x3e9030f4	0.28162348
103	0xbea09cd1	-0.3136964
104	0xbed8eb16	-0.42366856
105	0x3ebc6a59	0.36799887
106	0x3f0906ff	0.535263
107	0x3ea5e44e	0.32400745
108	0x3e11f9a6	0.1425539
109	0x3e7b2a0b	0.24527757
110	0xbf38c674	-0.72177815
111	0x3e9976b2	0.2997337
112	0x3f1c7909	0.61122185
113	0xbeb2ac29	-0.34896973
114	0xbf9ba771	-1.2160474
115	0x3eebfe7b	0.4609259
116	0xbebe00db	-0.37110028
117	0x3c9bd5c1	0.019022824
118	0x3e67fed7	0.22655807
119	0x4075ee56	3.8426719
120	0x3edacb2c	0.42733133
121	0xbd6b02e4	-0.057375804
122	0x3e09f009	0.13470472
123	0x3b925844	0.0044660885
124	0xbdf5a024	-0.11993435
125	0x3ed1a994	0.4094969
126	0x3ec666d9	0.38750342
127	0x3f175d89	0.591271
128	0x3f1a5fb9	0.6030231
129	0xbe82e66b	-0.2556642
130	0xbd4e8f20	-0.050429463
131	0xbe2abccb	-0.16673581
132	0xbdca898d	-0.09889517
133	0xbd5880fc	-0.052857384
134	0x3e3d26bc	0.18471807
135	0x3f342654	0.70370984
136	0xbe2ec059	-0.17065562
137	0x3f25772f	0.64634985
138	0x3d8392b4	0.06424466
139	0x3d691205	0.05690195
140	0xbe829b08	-0.25508904
141	0xbd8cf2f9	-0.06882281
142	0x3ea53aea	0.3227151
143	0xbd3f8913	-0.046761584
144	0xbc431394	-0.011906523
145	0xbe05b22e	-0.13056251
146	0x3e6b8a91	0.23002078
147	0x3f01d3cd	0.5071381
148	0x3f4a3cb7	0.78998893
149	0xbf1d8a5b	-0.6153924
150	0x3f2a176e	0.66442
151	0xbea9b126	-0.33142966
152	0xbf0327b1	-0.5123244
153	0x3dccda97	0.1000263
154	0x3e8e2579	0.27762964
155	0xbe8c3623	-0.27385053
156	0x3ba24aeb	0.0049527786
157	0x3d9a6280	0.07538319
158	0x3e098e5c	0.13433212
159	0x3d8e810e	0.06958209
160	0xbcb35c32	-0.021894548
161	0x3eaceefb	0.33776078
162	0xbec61307	-0.38686392
163	0x3dc6881a	0.09693928
164	0xbef16a14	-0.47151244
165	0x3efce60a	0.49394256
166	0xbe1cff9a	-0.1533188
167	0x3e906d04	0.28208172
168	0x3dd2b70b	0.10288819
169	0x3f80438b	1.0020612
170	0xbd859555	-0.065226234
171	0xbebda4cd	-0.37039796
172	0x3e051c54	0.12999088
173	0xbc28a035	-0.010292103
174	0xbe93e4de	-0.2888555
175	0x3d1cd6c5	0.038290758
176	0xbf18ca84	-0.59684014
177	0x3f00ad82	0.5026475
178	0xbe43ee2b	-0.19133823
179	0x3e519fd9	0.20471133
180	0x3e01a168	0.12659228
181	0x3edf0b57	0.4356334
182	0xbe9ac996	-0.30231923
183	0xbf9fe292	-1.2491019
184	0xbebb2c91	-0.3655744
185	0x3f626cd6	0.8844732
186	0x3f3adf98	0.72997427
187	0x3e316bf4	0.17326337
188	0x3f65c370	0.8975134
189	0x3d371e76	0.044706784
190	0xbf2c90c4	-0.67408395
191	0x3f99a651	1.2003881
192	0x3ea02beb	0.31283507
193	0xbe905c33	-0.28195342
194	0x3cc904bf	0.024538396
195	0x3e690060	0.2275405
196	0xbe921fb3	-0.2853981
197	0x3dd3935c	0.10330841
198	0x3e942fb9	0.2894266
199	0xbe7e27ee	-0.2481992
200	0xbd20d335	-0.039263923
201	0xbe38f098	-0.18060529
202	0xbe53b3eb	-0.20674102
203	0x3e8ab860	0.27093792
204	0xbe447696	-0.19185862
205	0xbd79dc45	-0.06100108
206	0xbe8a4fdf	-0.27014062
207	0x3dd4eb56	0.10396449
208	0xbe9f8a7d	-0.31160346
209	0x3dcbe3f1	0.09955586
210	0xbd2e1f06	-0.042510055
211	0x3c1bcc87	0.009509212
212	0x3e4a3971	0.19748475
213	0xbd915dee	-0.07097994
214	0xbdf6cc35	-0.12050668
215	0xbf25d262	-0.64774144
216	0xbe9f1bc4	-0.3107587
217	0x3ecbb739	0.39788225
218	0x3e185ca3	0.14879088
219	0x3ebde527	0.37088892
220	0x3d97dded	0.07415376
221	0x3e51b068	0.2047745
222	0xbe89cd0f	-0.2691426
223	0x3dc4622c	0.09589037
224	0x3dcc076b	0.09962352
225	0x3ee21d46	0.4416296
226	0x3f3b2316	0.7310041
227	0xbc239571	-0.00998436
228	0x3d5c88b2	0.0538413
229	0xbe843b92	-0.258267
230	0x3be33e42	0.006934912
231	0x3db1ecc2	0.08687736
232	0x3ea0d308	0.31411004
233	0x3f160b3c	0.5861089
234	0xbdaf9a1a	-0.085743144
235	0xbec675fd	-0.38761893
236	0x3f0c53e8	0.5481553
237	0x3df85e50	0.12127364
238	0x3d416f26	0.04722514
239	0x3d34248a	0.04398016
240	0xbe2d66f0	-0.16933799
241	0x3c831f8d	0.016006256
242	0x3f36b84f	0.7137498
243	0xbec80994	-0.39069808
244	0xbdf79fd0	-0.12091029
245	0x3f0b9edf	0.54539293
246	0xbe8a1f0f	-0.2697682
247	0x3d539123	0.051652085
248	0xbef0da3a	-0.47041494
249	0xbecf5da9	-0.40501145
250	0xbd1166e6	-0.035498522
251	0xbe22030e	-0.15821478
252	0x3f3b8677	0.7325205
253	0x3e0cf711	0.13766123
254	0xbf6e8d68	-0.9318452
255	0x3efde2a8	0.49586987

rnn.bias_ih_l0 f4 [48]
0	0x3d34968d	0.04408889
1	0xbf364871	-0.71204287
2	0x3d9bc6d4	0.07606283
3	0x3dd1316e	0.10214506
4	0x3d7e999d	0.062158216
5	0xbde76f6e	-0.113005504
6	0xbd410061	-0.047119502
7	0x3e6c4a62	0.2307525
8	0xbdcffeed	-0.10156045
9	0xbe0e963c	-0.13924497
10	0xbe8080c9	-0.25098255
11	0xbef40d65	-0.4766647
12	0x3e0f89bb	0.14017384
13	0x3e06732d	0.13129874
14	0xbec42564	-0.38309777
15	0x3e76e02d	0.24108954
16	0x3f8a2b53	1.0794472
17	0x3f8c0c8f	1.0941333
18	0x3f93c66f	1.1544932
19	0x3fa60540	1.2970352
20	0x3f937c30	1.1522274
21	0x3f181f27	0.59422535
22	0x3f9616cf	1.1725711
23	0x3f7a70c0	0.9782829
24	0x3fa0f229	1.2573901
25	0x3f95a1bc	1.1689982
26	0x3fa256a9	1.2682697
27	0x3f9d4506	1.2286689
28	0x3faf7381	1.3707124
29	0x3f9a8071	1.2070447
30	0x3f825cb0	1.0184536
31	0x3f2de32d	0.6792477
32	0xbdc77c35	-0.097404875
33	0xbe288aed	-0.16459246
34	0xbe684631	-0.22683026
35	0xbe035e13	-0.12828855
36	0xbd9cde14	-0.076595455
37	0xbe14f379	-0.14546002
38	0xbd4ccc39	-0.04999945
39	0x3f20525b	0.62625664
40	0xbe407762	-0.18795541
41	0xbd1c5ea5	-0.038176198
42	0xbda0327c	-0.07822129
43	0x3e285dc1	0.16442014
44	0xbedc898c	-0.4307369
45	0xbe8dffd5	-0.27734247
46	0x3e76f10b	0.24115388
47	0xbe21f08d	-0.15814419

rnn.bias_hh_l0 f4 [48]
0	0xbdcded7a	-0.10055061
1	0xbf388d10	-0.72090244
2	0xbd3439f5	-0.044000585
3	0xbe1cfe28	-0.15331328
4	0xbe0d13f8	-0.13777149
5	0xbdaf07ed	-0.085464336
6	0xbe219267	-0.15778504
7	0x3e59132c	0.2119872
8	0xbdcace6c	-0.09902653
9	0xbf0c1383	-0.5471727
10	0xbe94867f	-0.29008862
11	0xbf12d498	-0.5735564
12	0xbc995ca9	-0.018720942
13	0xbe37486d	-0.17898722
14	0xbf041190	-0.515893
15	0x3eb5b3bb	0.35488686
16	0x3f916991	1.1360341
17	0x3f78fc7d	0.97260267
18	0x3f4f27eb	0.80920285
19	0x3fbff314	1.4996057
20	0x3fa8db37	1.3191899
21	0x3f6921d8	0.91067266
22	0x3f65ee20	0.89816475
23	0x3f2d442e	0.6768216
24	0x3fa78cdf	1.3089865
25	0x3f5acbc5	0.8546718
26	0x3fb7f68d	1.4372116
27	0x3faaa544	1.3331685
28	0x3fca02ce	1.5782106
29	0x3fb118fb	1.3835748
30	0x3fa4972b	1.2858633
31	0x3f6351fa	0.8879696
32	0x3e74c6d0	0.23903966
33	0xbd9d24a4	-0.07673004
34	0xbe34801c	-0.17626995
35	0x3d6cb959	0.05779395
36	0xbc430592	-0.011903184
37	0xbe89b4f5	-0.26895872
38	0xbd8dea49	-0.06929452
39	0x3f2b5758	0.6693015
40	0x3d287bda	0.04113374
41	0xbe941eed	-0.28929844
42	0xbe8741b1	-0.26417306
43	0xbeb5e672	-0.35527378
44	0x3d962764	0.07331732
45	0xbe888340	-0.26662636
46	0xbe75537a	-0.23957625
47	0xbdbf8749	-0.093519755

mlp.0.weight f4 [128, 16]
0	0x3e949e2a	0.2902692
1	0xbcf19b9e	-0.02949315
2	0xbdad4580	-0.08460522
3	0x3d930a56	0.07179706
4	0x3bb6401f	0.005561843
5	0xbd47473a	-0.04865191
6	0x3e632660	0.22182608
7	0x3df1cb9c	0.118064135
8	0x3dd821c1	0.10553313
9	0x3e21e92e	0.15811607
10	0xbd73910d	-0.059464503
11	0xbf0e3490	-0.55548954
12	0xbd8577f1	-0.06517018
13	0xbd17a6d1	-0.037024323
14	0x3e819416	0.25308293
15	0xbe0c7712	-0.13717297
16	0xbbc19a04	-0.0059082527
17	0x3cd09b77	0.025464756
18	0x3db8fbf6	0.09032433
19	0x3e2bdfb2	0.16784552
20	0x3cfe8a63	0.031071847
21	0x3ec77346	0.38955134
22	0x3edbe6dc	0.4294957
23	0xbddccf91	-0.10781778
24	0x3cfee7ca	0.031116385
25	0x3d81fb7f	0.06346797
26	0x3e6f30f9	0.23358525
27	0xbe4d5c9d	-0.2005486
28	0x3f015e57	0.50534576
29	0x3e170c30	0.14750743
30	0xbea19349	-0.31557682
31	0xbd914afe	-0.07094382
32	0x3d224b7e	0.039622776
33	0x3c5e9380	0.013584971
34	0xbe012495	-0.12611611
35	0x3e3e40fe	0.1857948
36	0x3d126bef	0.035747465
37	0xbd72cc8a	-0.059277095
38	0x3e8c56ac	0.27409875
39	0x3e8a8ff8	0.27062964
40	0xbdb0eebd	-0.08639286
41	0xbc0068a4	-0.007837448
42	0x3e4c0c83	0.19926648
43	0xbe1fabdb	-0.15592901
44	0x3e5e1f34	0.2169159
45	0x3f009555	0.5022786
46	0xbf06cc18	-0.5265517
47	0x3eb923b9	0.36160067
48	0x3e17e855	0.14834721
49	0xbd0f4323	-0.034976136
50	0xbe2a65de	-0.16640422
51	0xbc37de2a	-0.011222402
52	0xbe158ec3	-0.1460524
53	0x3d6b02d4	0.057375744
54	0x3dbf9082	0.093537346
55	0x3da0c5f6	0.07850258
56	0x3e8d0d64	0.2754928
57	0x3d4a5e21	0.049406175
58	0xbc98fcaf	-0.018675176
59	0xbd1b1d76	-0.037869893
60	0x3c6581aa	0.014007965
61	0xbe3bd98c	-0.18344706
62	0x3e139560	0.14412451
63	0x3e3c7da5	0.18407305
64	0x3daacf47	0.08340316
65	0x3ddca846	0.10774283
66	0x3be8f0c0	0.0071087778
67	0x3e0be232	0.13660505
68	0xbeab28fe	-0.33429712
69	0x3f5e4d04	0.86836267
70	0xbe6474c7	-0.22310172
71	0x3f54f703	0.8318941
72	0x3c3cbf82	0.011520268
73	0x3db9bea8	0.09069568
74	0x3e0bf8e6	0.13669166
75	0xbe104b6f	-0.14091276
76	0x3eade9d1	0.3396745
77	0x3d1f6456	0.038914047
78	0xb91de4a0	-0.00015057856
79	0xbd0a0750	-0.03369838
80	0x3f0d2da8	0.5514779
81	0xbec0f4c6	-0.37686747
82	0xbcbffde4	-0.023436494
83	0xbc170c6d	-0.009219271
84	0xbcfd7b84	-0.030942686
85	0x3a4de867	0.000785476
86	0x3d94c3a8	0.07263881
87	0x3e7fb43d	0.24971099
88	0x3d3fdff6	0.046844445
89	0xbe366775	-0.17812903
90	0xbe2e43a5	-0.17017992
91	0xbe4cab4d	-0.19987221
92	0x3eda969a	0.42693025
93	0xbcac70a4	-0.021049805
94	0xbf00c177	-0.50295204
95	0xbe6e873c	-0.23293775
96	0x3ecbf854	0.39837897
97	0xbd4578d6	-0.04821094
98	0xbe8c67db	-0.27422985
99	0x3efb4760	0.49077892
100	0x3e3400e6	0.17578468
101	0x3e9f9564	0.31168664
102	0xbe0e2ab0	-0.13883471
103	0xbec80c7b	-0.39072022
104	0x3d031e96	0.03201159
105	0xbc093f46	-0.008376902
106	0x3d2dcd03	0.042431843
107	0x3dbaa1cd	0.09112892
108	0xbc6713a9	-0.014103808
109	0xbef4e8f0	-0.47833967
110	0xbd566dea	-0.052350916
111	0xbdaa66b6	-0.08320372
112	0x3cd2530a	0.025674362
113	0x3da31844	0.07963613
114	0x3e68e681	0.2274418
115	0x3e228da6	0.15874347
116	0xbe990534	-0.29886782
117	0xbdf84f7f	-0.12124538
118	0x3e23ae6f	0.1598451
119	0xbe4837ce	-0.19552538
120	0xbdc3bb90	-0.09557259
121	0xbe3f6a35	-0.18692859
122	0xbda96aca	-0.082723215
123	0x3d064182	0.032777317
124	0xbe57306a	-0.21014562
125	0xbd8b6d54	-0.06807962
126	0x3e0fe806	0.14053354
127	0xbd95d523	-0.07316043
128	0xbee0536e	-0.43813652
129	0xbdf3ee87	-0.1191073
130	0x3e4391f0	0.1909864
131	0x3e4b45fd	0.19850917
132	0x3e84fc78	0.25973868
133	0x3d85c4a8	0.0653165
134	0x3ebdb377	0.37050983
135	0xbd9ebe52	-0.077511445
136	0x3e228428	0.15870726
137	0x3d6056ca	0.05477027
138	0x3d688463	0.05676688
139	0xbc9f5c23	-0.019453114
140	0x3eeaa5f9	0.45829752
141	0x3e97bd17	0.29636452
142	0x3d2ec587	0.042668846
143	0x3e89b404	0.26895154
144	0x3ddf88b6	0.109147474
145	0xbdc43d5c	-0.09582016
146	0x3dc23201	0.09482194
147	0xbdc7242c	-0.09723696
148	0x3df7f998	0.12108153
149	0xbe4fa836	-0.20279011
150	0xbe0674b3	-0.13130455
151	0xbd8a2881	-0.06746007
152	0x3d0de114	0.03463848
153	0xbdb0d04b	-0.08633479
154	0xbc7e4228	-0.015518703
155	0x3c315f89	0.010826
156	0x3cc3cce4	0.02390141
157	0x3e2c967e	0.16854283
158	0xbd1c884f	-0.03821593
159	0xbe2620f3	-0.16223507
160	0xbdc21eaa	-0.09478505
161	0x3e6f79c8	0.233863
162	0x3e0508f9	0.12991704
163	0x3ec150ea	0.37757045
164	0x3df37aa0	0.11888623
165	0xbdd3382f	-0.103134505
166	0xbd347dbc	-0.044065222
167	0xbe132394	-0.1436904
168	0x3df39c62	0.11895062
169	0x3e92f13d	0.28699675
170	0x3de5fcf4	0.112298876
171	0x3d72840c	0.05920796
172	0x3c47ded1	0.01219912
173	0x3d80e9ed	0.06294618
174	0xbe141ee0	-0.14464903
175	0xbdc2e8df	-0.09517073
176	0x3f2a7341	0.66582114
177	0x3ef71789	0.48260143
178	0xbccd1829	-0.025035935
179	0x3e2bc0ec	0.16772813
180	0xbcfcd0d3	-0.030861294
181	0x3de3fa8f	0.11131775
182	0x3de4860d	0.11158381
183	0x3efd7582	0.49503714
184	0x3edd95a5	0.43278232
185	0xbdf5ae82	-0.11996175
186	0xbe9e132b	-0.30874
187	0xbed5df8d	-0.41772118
188	0x3ee4f8a9	0.44720963
189	0xbab6033d	-0.0013886463
190	0xbf4d9e59	-0.80319744
191	0xbec6a660	-0.3879881
192	0xbda77a54	-0.08177629
193	0x3d87e457	0.06635349
194	0xbdf3beb7	-0.1190161
195	0x3bc0c2b0	0.0058825836
196	0x3d33a032	0.043853946
197	0xbd17e6e0	-0.037085414
198	0x3dc499a3	0.095996164
199	0x3c2997c1	0.010351122
200	0x3e3792bc	0.17927068
201	0x3e1b236e	0.15150234
202	0x3e212284	0.15735823
203	0x3aa563d8	0.0012618257
204	0x3db57fe3	0.08862283
205	0x3daed77b	0.085371934
206	0x3c9026b2	0.017596576
207	0xbe28d0c8	-0.16485894
208	0xbe805adf	-0.2506933
209	0x3e334679	0.17507352
210	0xbed31a93	-0.41231212
211	0x3e3365ed	0.1751935
212	0xbe5887b9	-0.21145524
213	0xbde56639	-0.11201138
214	0x3e410634	0.18850023
215	0x3ed7aa23	0.42121992
216	0x3f2ab659	0.6668449
217	0x3f6d45b1	0.92684466
218	0xbe037480	-0.1283741
219	0xbf58f2da	-0.8474556
220	0x3e23b1b0	0.15985751
221	0xbd56d30d	-0.052447367
222	0xbeeccdaf	-0.46250674
223	0xbe396c40	-0.181077
224	0x3d2970ef	0.041367467
225	0x3dafeddd	0.08590291
226	0xbe1101ed	-0.14160891
227	0x3df58dbd	0.11989925
228	0x3bb31573	0.0054652034
229	0x3ddd367f	0.1080141
230	0x3e8d2b6d	0.27572194
231	0xbd937772	-0.07200517
232	0x3e0b2447	0.13588057
233	0x3dccce99	0.10000343
234	0xbdca4a34	-0.098774344
235	0xbe77db9a	-0.24204865
236	0x3ece72d5	0.40321985
237	0x3e96ceeb	0.2945474
238	0x3d47cd6a	0.048779882
239	0x3e2f542f	0.17121957
240	0xbeaf831a	-0.3427971
241	0xbe1b8459	-0.15187205
242	0xbcfed154	-0.031105675
243	0xbcba306a	-0.022728164
244	0x3e86fe3f	0.2636585
245	0x3de49d8c	0.11162862
246	0x3e87efee	0.2655024
247	0xbcad2e9f	-0.021140395
248	0x3dcc51ba	0.099765256
249	0x3e24b7d4	0.1608575
250	0x3da2cb63	0.07948949
251	0xbc845974	-0.016155936
252	0x3ec26307	0.37966177
253	0x3e987145	0.29773918
254	0xbcd43462	-0.025903884
255	0x3e90fe6e	0.28319114

mlp.0.bias f4 [128]
0	0x3e3ffd4c	0.18748969
1	0xbeaaf564	-0.33390343
2	0x3c3849e8	0.011248089
3	0x3eba97ef	0.3644404
4	0xbdfb5637	-0.122723036
5	0xbe805fff	-0.2507324
6	0xbe46a9a7	-0.19400655
7	0x3af9bd1e	0.0019053554
8	0xbe922779	-0.2854574
9	0x3eb83caa	0.35983783
10	0xbe7b1348	-0.24519074
11	0xbe703c68	-0.23460543
12	0xbe757b28	-0.23972762
13	0xbedff552	-0.43741852
14	0xbeb3863f	-0.3506336
15	0xbe856cf2	-0.2605968
16	0x3e7030a3	0.23456053
17	0xbf08400f	-0.53222746
18	0x3e937561	0.2880049
19	0xbf07c0bf	-0.5302848
20	0xbe0a4e83	-0.13506512
21	0xbd60b86a	-0.05486337
22	0xbd421553	-0.047383618
23	0xbe97d5df	-0.29655358
24	0xbe9ac2c5	-0.30226722
25	0x3cdbe648	0.026843205
26	0xbee27b0a	-0.44234496
27	0xbecc612b	-0.39917883
28	0xbe54b968	-0.20773852
29	0xbec5f42d	-0.38662854
30	0xbeaf11d0	-0.34193277
31	0xbe422f33	-0.18963318
32	0xbd9e347e	-0.07724856
33	0xbe592fcf	-0.21209644
34	0x3e18c21d	0.14917798
35	0xbe0c1879	-0.1368121
36	0xbe815e0a	-0.2526706
37	0xbe14fdb3	-0.14549904
38	0xbe8fa74a	-0.2805732
39	0xbe167b79	-0.14695539
40	0x3eb89679	0.36052302
41	0xbe0115ea	-0.12606016
42	0xbe085d6f	-0.13316892
43	0x3e1d3271	0.15351273
44	0x3e233f13	0.1594203
45	0x3e71a22d	0.23597021
46	0xbe21d4b0	-0.1580379
47	0xbed185db	-0.40922436
48	0xbe0a884f	-0.1352856
49	0xbe3a8c17	-0.18217503
50	0x3e5a0633	0.21291427
51	0xbb1914ff	-0.0023358462
52	0xbbd87d57	-0.0066067385
53	0x3e32e82a	0.17471376
54	0x3e1cc2c0	0.15308666
55	0x3e67442c	0.225846
56	0xbeba0931	-0.36335137
57	0xbdfc4883	-0.12318518
58	0x3e0f44e3	0.13991122
59	0xbcc8140d	-0.024423623
60	0xbe99be7a	-0.30028135
61	0xbe636197	-0.22205196
62	0x3d322b0b	0.04349808
63	0xbe7a1e4e	-0.24425623
64	0xbf09d375	-0.5383828
65	0xbde65080	-0.11245823
66	0xbee39b86	-0.44454592
67	0xbda7d2e6	-0.081945226
68	0xbdedf9da	-0.11619921
69	0xbd2c249e	-0.04202711
70	0xbe59fa7c	-0.21286958
71	0xbe80db9a	-0.25167543
72	0xbe3e7882	-0.18600658
73	0xbe577f14	-0.2104457
74	0xbea0df3a	-0.31420308
75	0xbd0d49f6	-0.034494363
76	0x3e3c2e86	0.18377122
77	0xbf2627fc	-0.6490476
78	0xbec6e696	-0.38847798
79	0xbdb1a157	-0.08673351
80	0xbe9070fb	-0.28211197
81	0xbe790826	-0.24319515
82	0x3dd66f73	0.10470476
83	0xbee349f4	-0.4439236
84	0xbe092c57	-0.1339582
85	0xbd67a3ac	-0.056552574
86	0xbf0ca60b	-0.5494086
87	0xbe56c892	-0.20974949
88	0xbe0d6ba9	-0.138106
89	0xbe39ba69	-0.18137516
90	0xbee532a5	-0.447652
91	0x3ed9682d	0.42462292
92	0xbe0383c1	-0.12843229
93	0x3e5aefef	0.2138059
94	0xbe24beda	-0.16088429
95	0x3ecf39b0	0.404737
96	0xbced8a49	-0.028996604
97	0xbb55c98d	-0.0032621354
98	0xbe6a7b44	-0.22898585
99	0x3dd142f1	0.10217846
100	0xbeae5bde	-0.34054464
101	0xbdf5f951	-0.12010444
102	0x3bed7cbc	0.0072475355
103	0x3eaea15c	0.34107482
104	0xbe80d76d	-0.25164357
105	0xbe85c7e2	-0.2612906
106	0xbe4eaebf	-0.20183848
107	0x3d39bce8	0.04534617
108	0xbcf1516d	-0.029457772
109	0x3e264291	0.1623633
110	0xbe88ac56	-0.26693982
111	0x3eace107	0.33765432
112	0xbe2f9164	-0.17145306
113	0xbd4187d7	-0.047248688
114	0x3da7f290	0.08200562
115	0x3e9ffe63	0.3124877
116	0x3e8dc399	0.27688292
117	0xbe0c58bf	-0.13705729
118	0x3e979484	0.29605496
119	0x3ea68f55	0.3253123
120	0x3da417fc	0.08012387
121	0xbebb8934	-0.36628115
122	0xbed7b165	-0.4212753
123	0xbd745ff9	-0.05966184
124	0x3e1e3d62	0.15453103
125	0xbdee1dbf	-0.11626767
126	0xbec5e8df	-0.3865423
127	0xbc07d062	-0.008289428

mlp.2.weight f4 [128, 128]
0	0xbdf35b6a	-0.1188267
1	0x3b659ea0	0.0035037175
2	0xbd0f55b6	-0.03499385
3	0xbdefdc53	-0.117119454
4	0xbe202dac	-0.15642422
5	0x3c2e62ab	0.010643641
6	0xbe183265	-0.14862974
7	0xbc0a3842	-0.0084362645
8	0xbdd6adf9	-0.104824014
9	0xbd627443	-0.055286657
10	0xbdbd5b22	-0.09245898
11	0xbc5a1a14	-0.013311882
12	0xbd78fbd0	-0.060787022
13	0x3ab74d1b	0.0013984771
14	0xbcfb4875	-0.030674199
15	0xbe0b280d	-0.13589497
16	0xbdcaacbf	-0.0989623
17	0xbdaae2b9	-0.08344025
18	0xbd0daade	-0.03458678
19	0xbda0ec68	-0.07857591
20	0xbde312f4	-0.110875994
21	0xbd38f02a	-0.045150913
22	0xbd8301a3	-0.063967966
23	0xbd4f9956	-0.050683342
24	0xbd3ca531	-0.046055976
25	0xbe0e0d6c	-0.13872308
26	0xbdbb96b2	-0.09159602
27	0xb9a95f94	-0.00032305403
28	0xba31c21b	-0.0006780938
29	0xbd55c19d	-0.052186597
30	0xbd34f474	-0.04417844
31	0xbe1c56e1	-0.15267517
32	0xbc0d8ede	-0.008640019
33	0xbda477ce	-0.080306634
34	0xbdbda1aa	-0.092593506
35	0xbbec653c	-0.0072142165
36	0xbdd5bfb2	-0.104369536
37	0xbd1538da	-0.03643117
38	0xbd27766b	-0.040884417
39	0xbdd264cb	-0.10273131
40	0xbd2e206c	-0.04251139
41	0xbd19e501	-0.03757191
42	0xbe17f482	-0.14839366
43	0xbd739c79	-0.059475396
44	0xbe0bc206	-0.13648233
45	0xbcb29ef1	-0.021804305
46	0xbdaf195d	-0.085497595
47	0xbd346867	-0.04404488
48	0xbe003502	-0.12520221
49	0x3bc71ba4	0.006076293
50	0xbd0254d4	-0.03181918
51	0xbd4a0831	-0.04932422
52	0xbda6870c	-0.08131227
53	0xbdbec585	-0.093150176
54	0xbdb7b04e	-0.08969174
55	0xbdd41d1c	-0.10357115
56	0xbd901ee1	-0.0703714
57	0xbd98b6d5	-0.074567474
58	0xbca79a82	-0.020459417
59	0xbcfdcd42	-0.030981664
60	0xbd9d99ca	-0.076953486
61	0xbd9f521e	-0.077793345
62	0xbc585abb	-0.013205226
63	0xbcbb59af	-0.022869913
64	0xbdc49315	-0.09598366
65	0xbdf51e32	-0.1196865
66	0x3ca1b7c5	0.019740948
67	0xbe0d368f	-0.13790344
68	0xbe183b80	-0.14866447
69	0xbcda3bec	-0.026639901
70	0xbe1ba9ec	-0.15201539
71	0xbb948e50	-0.0045335665
72	0xbd811c39	-0.06304211
73	0xbcd95977	-0.026531918
74	0xbc2a63df	-0.010399788
75	0xbcc2b6b5	-0.023768762
76	0xbe13a8e2	-0.14419892
77	0xbd1ebd99	-0.038755033
78	0x3ceba34d	0.028764391
79	0xbdf5b072	-0.11996545
80	0xbda1b03f	-0.078949444
81	0xbd8e76c9	-0.0695625
82	0xbdf88293	-0.1213428
83	0xbdc75a92	-0.09734072
84	0xbde8bd15	-0.113641895
85	0xbddf9103	-0.10916331
86	0xbd8e3209	-0.06943137
87	0xbdb32243	-0.08746769
88	0xbb3cec2e	-0.0028827298
89	0xbc861439	-0.016367065
90	0xbdc5cfec	-0.096587986
91	0xbd5593d1	-0.05214292
92	0xbd9f9953	-0.07792916
93	0xbdf8cc81	-0.12148381
94	0x3a9218eb	0.0011146342
95	0xbc9cbbf3	-0.01913259
96	0xbdc5cf90	-0.0965873
97	0xbb9429d2	-0.004521587
98	0xbd6baa71	-0.057535592
99	0x3bff0356	0.00778238
100	0xbd2cbd46	-0.042172693
101	0xbdd96065	-0.10614089
102	0xbde2f66d	-0.11082158
103	0xbdee8530	-0.11646497
104	0xbda397bc	-0.079879254
105	0xbd0a6269	-0.033785257
106	0xbd89f8e9	-0.06736929
107	0xbdfd3c19	-0.12364978
108	0xbd3f7bcf	-0.046748932
109	0xbd61e3a2	-0.05514873
110	0x3c1d21fa	0.00959062
111	0x3ca5de2f	0.020247547
112	0x3cc8cb1b	0.02451091
113	0xbd926733	-0.0714859
114	0xbdcb9ce4	-0.09942034
115	0xbde23442	-0.11045124
116	0xbd38f444	-0.045154825
117	0xbe109070	-0.14117599
118	0xbe0bf5eb	-0.13668029
119	0xbd69efb0	-0.05711335
120	0xbdd0da0d	-0.1019784
121	0xbcd0c611	-0.02548507
122	0xbdd7120d	-0.1050149
123	0x39a2951b	0.0003101014
124	0xbb82dda0	-0.003993705
125	0xbd3213c1	-0.04347587
126	0xbc656e47	-0.014003343
127	0xbb581f28	-0.0032977555
128	0xbcc26a45	-0.023732314
129	0xbe151701	-0.14559557
130	0xbf1cfdda	-0.61324847
131	0x3bae10bd	0.005312054
132	0xbd999a58	-0.07500142
133	0x3bbe0081	0.0057984
134	0x3d7fd2b7	0.062456813
135	0x3bb6750e	0.005568153
136	0x3cd88c99	0.02643423
137	0xbdbe8c26	-0.09304075
138	0xbd8b5d59	-0.06804914
139	0x3d435e50	0.047697365
140	0x3df1e527	0.118112855
141	0x3f11a7f5	0.5689691
142	0x3d14bd47	0.03631332
143	0x3d1cd2fd	0.03828715
144	0xbdaed93c	-0.08537528
145	0x3e282956	0.16422018
146	0x3e0a21d3	0.13489465
147	0x3e80b774	0.25139964
148	0xbdde212a	-0.10846169
149	0xbd07b634	-0.033132747
150	0xbe0ab20f	-0.13544486
151	0xbe11b11f	-0.14227723
152	0x3da91f85	0.08257965
153	0xbdef29b6	-0.116778776
154	0xbad1cca5	-0.0016006423
155	0xbdef6b6a	-0.116904095
156	0xbc9749f6	-0.018467885
157	0x3de6242d	0.11237369
158	0x3e58b2fd	0.21162029
159	0x3d6078ea	0.054802813
160	0x3dafae78	0.08578199
161	0xbe12314d	-0.1427662
162	0x3dd86174	0.10565463
163	0xbe243d74	-0.16039068
164	0x3e581a08	0.2110368
165	0x3dd62756	0.104567215
166	0x3debf6dc	0.11521694
167	0x3e49af6d	0.19695826
168	0x3e8595ad	0.26090756
169	0x3dcc76c6	0.09983592
170	0xbddfd15c	-0.10928604
171	0xbe157995	-0.14597161
172	0xbd92fdd9	-0.07177324
173	0xbec85f2a	-0.39135104
174	0x3d2d8d4c	0.04237108
175	0xbe1015c6	-0.14070806
176	0x3d7ce00d	0.06173711
177	0xbdea0f23	-0.11428668
178	0xbc2cb0a8	-0.010540165
179	0xbe0d182b	-0.1377875
180	0x3ce82553	0.02833811
181	0xbd7da523	-0.061925065
182	0xbcdae1b7	-0.026718957
183	0xbea1ecf0	-0.3162608
184	0xbdd206c5	-0.102551974
185	0x3ce229ca	0.027607817
186	0xbd91f462	-0.071266904
187	0xbdb79a52	-0.08964981
188	0x3c4bac8f	0.012431278
189	0x3d9862c9	0.07440717
190	0xbed63b61	-0.41842178
191	0x3d8fb066	0.07016067
192	0xbe9ebed4	-0.31004965
193	0xbb303ebd	-0.0026892864
194	0xbdbae859	-0.09126348
195	0xbcbe3255	-0.02321736
196	0xbce2c52f	-0.027681915
197	0xbe795b40	-0.24351215
198	0xbd7e682c	-0.062111065
199	0x3c5a89bb	0.013338502
200	0x3e8fdde8	0.2809899
201	0xbd46c3bf	-0.04852652
202	0x3d0a37b3	0.033744525
203	0xbca1fc61	-0.019773664
204	0xbe8787f9	-0.26470926
205	0x3dd6e452	0.104927674
206	0x3d744631	0.059637252
207	0xbdb3b2f2	-0.087743655
208	0xbd8f8f60	-0.070097685
209	0xbe8fdc5d	-0.2809781
210	0x3ecf449d	0.40482035
211	0x3d95b0be	0.073091015
212	0x3bd13459	0.006384414
213	0x3e60cac4	0.21952349
214	0xbe1e0fc5	-0.15435703
215	0x3e80e05f	0.25171182
216	0x3da63494	0.08115497
217	0x3e095bb4	0.13413888
218	0x3e9ab420	0.3021555
219	0xbe1f805e	-0.15576312
220	0xbc8d7047	-0.017265452
221	0x3ea4d2a0	0.32191944
222	0xbd1beccb	-0.03806762
223	0xbe08d5db	-0.1336283
224	0xbdb7b7d3	-0.089706086
225	0xbcc1fc2d	-0.023679817
226	0x3f297024	0.6618674
227	0xbbec62f2	-0.0072139436
228	0xbc606376	-0.013695588
229	0x3d3a9dc2	0.045560606
230	0xbc877254	-0.016534008
231	0x3b87a402	0.0041394243
232	0xbe411830	-0.18856883
233	0xbd122b1b	-0.03568564
234	0x3c369bc9	0.0111455405
235	0xbd16bc1a	-0.03680048
236	0x3db238e7	0.087022595
237	0x3d249573	0.04018159
238	0xbc448867	-0.0119954115
239	0xbd5a4629	-0.053289566
240	0xbdd985a4	-0.10621193
241	0x3ddd2a0f	0.10799038
242	0x3dea4e4a	0.11440714
243	0x3d22e25d	0.039766658
244	0xbe82f44d	-0.25577012
245	0xbe151dbf	-0.14562128
246	0x3db47358	0.088110626
247	0xbd6a7ee1	-0.057249907
248	0xbd14973e	-0.03627705
249	0xbe4d0c13	-0.20024137
250	0xbf26b5f8	-0.6512141
251	0x3dda3506	0.10654645
252	0xbf1d87f8	-0.61535597
253	0xbd6e53a1	-0.058185223
254	0xbd29b76b	-0.041434687
255	0xbde5657f	-0.112009995

mlp.2.bias f4 [128]
0	0xbb78aba4	-0.0037944103
1	0x3da8d9ad	0.08244643
2	0x3e2f9e33	0.17150192
3	0x3ee1cdf6	0.44102448
4	0xbde5072c	-0.111830086
5	0x3ea0be0b	0.3139499
6	0x3e3a0edd	0.18169732
7	0xbd66106b	-0.056168
8	0x3e01e7fd	0.12686153
9	0x398278a0	0.00024885405
10	0xbdddd4ab	-0.10831579
11	0x3e97b170	0.29627562
12	0xbd6ec035	-0.05828877
13	0xbdea6767	-0.11445504
14	0x3db4f61c	0.08836004
15	0x3e92fdd4	0.2870928
16	0x3c6caa76	0.014444938
17	0x3db3fdf7	0.08788674
18	0xbda10a5c	-0.07863304
19	0x3e4231fd	0.18964382
20	0x3e432421	0.19056751
21	0xbd52ef79	-0.05149791
22	0x3e65a571	0.22426392
23	0xbdfcbf21	-0.123411424
24	0x3dc8e929	0.09810097
25	0xbd9d0112	-0.0766622
26	0x3e0ce5f9	0.13759603
27	0x3ebaa99e	0.36457533
28	0x3c6aa47b	0.014321442
29	0xbb4c4a14	-0.0031172084
30	0xbe0cc054	-0.13745242
31	0xbe0d1fda	-0.13781682
32	0x3da4db89	0.080496855
33	0x3ebce10d	0.3689045
34	0x3db02c3c	0.08602187
35	0xbe763613	-0.24044065
36	0xbda613b0	-0.08109224
37	0xbc8b9196	-0.017037194
38	0x3e6c99d8	0.23105562
39	0x3e827060	0.2547636
40	0xbdd51749	-0.10404832
41	0x3ece30b4	0.40271533
42	0x3d1400e1	0.03613365
43	0x3e7b48dd	0.24539514
44	0xbd02d8ed	-0.031945158
45	0x3e9b0047	0.3027365
46	0x3e1ffef8	0.15624607
47	0xbda334d9	-0.07969064
48	0xbdea8ab6	-0.11452238
49	0xbad94c14	-0.0016578459
50	0xbe0ffc15	-0.14061005
51	0xbd6843b3	-0.056705188
52	0xbdd81aa0	-0.10551953
53	0xbd9c2743	-0.07624676
54	0xbdce1446	-0.100624606
55	0xbd0cf1d1	-0.0344103
56	0x3e6f930c	0.23395938
57	0xbb862ef8	-0.0040949546
58	0xbdbb8650	-0.091564775
59	0x3eab4ab8	0.33455443
60	0xbe2fc4c6	-0.17164907
61	0x3e63a099	0.22229232
62	0xbba8bb16	-0.0051492555
63	0xbd80684d	-0.06269894
64	0x3e521bfb	0.20518486
65	0xbd46855c	-0.048467025
66	0xbd8961f9	-0.0670814
67	0x3e693c73	0.22776966
68	0xbd982596	-0.07429044
69	0xbdc893f1	-0.097938426
70	0xbcb6cbfe	-0.022314068
71	0xbd35eed5	-0.04441722
72	0xbe078a88	-0.13236439
73	0xbddd6d24	-0.108118325
74	0x3e57ff8f	0.21093582
75	0xbe12619d	-0.14295049
76	0x3e9da075	0.30786481
77	0xbd01d241	-0.031694654
78	0x3ebb0f5d	0.3653516
79	0xbcd7f996	-0.026364129
80	0xbdf997c3	-0.121871494
81	0xbd95d249	-0.07315499
82	0xbd9556bc	-0.07291934
83	0x3d9c0475	0.076180376
84	0x3eb51716	0.35369176
85	0x3eaae286	0.3337595
86	0x3e9bef64	0.30456078
87	0x3e2f3eab	0.1711375
88	0xba46cb2e	-0.0007583377
89	0xbbf43d15	-0.0074535706
90	0x3e41effe	0.18939206
91	0xbdb4744d	-0.08811245
92	0x3e239fc5	0.15978916
93	0xbda691cb	-0.081332766
94	0xbd4dfe6b	-0.05029146
95	0x3ea2c78e	0.31792873
96	0x3ecbfe3e	0.3984241
97	0xbe1713a7	-0.1475359
98	0x3e0bd049	0.13653673
99	0x3ec918d4	0.39276755
100	0xbd90efc3	-0.07076981
101	0xbb7d4b3c	-0.003864958
102	0xbde2aeae	-0.11068474
103	0x3e68d3ee	0.22737095
104	0x3cdf4a9a	0.027257252
105	0xbd88a2fd	-0.066717125
106	0x3e4ca804	0.19985968
107	0x3e26f631	0.16304852
108	0xbb96df58	-0.0046042614
109	0xbd0f01d1	-0.03491384
110	0xbdd15f01	-0.10223199
111	0x3edc421d	0.4301919
112	0x3a5b970f	0.00083766965
113	0xbd14c61f	-0.036321755
114	0x3e3a5a47	0.181985
115	0x3c2dc5c8	0.010606237
116	0x3a14bb13	0.0005673628
117	0xbc047671	-0.008084879
118	0x3e2a1793	0.16610555
119	0xbd80d17f	-0.06289958
120	0x3e95e4e0	0.2927618
121	0xbd82647f	-0.06366824
122	0xbdace03f	-0.08441209
123	0xbd0f15b6	-0.034932815
124	0xbddcb594	-0.10776821
125	0xbc3e5fd1	-0.011619524
126	0xbd9b4090	-0.07580674
127	0x3e7e0c9a	0.24809495

mlp.4.weight f4 [3, 128]
0	0x3ce20f24	0.02759511
1	0x3dac7f82	0.08422758
2	0xbc03aa0a	-0.008036146
3	0x3e6136e9	0.21993603
4	0x3da78b8d	0.08180914
5	0x3d354c89	0.044262443
6	0x3d9daa43	0.076984905
7	0xbbf74601	-0.007546187
8	0x3cbb3521	0.022852482
9	0x3c00848a	0.0078441
10	0xbd27aed3	-0.04093821
11	0x3e09800b	0.13427751
12	0x3db11a04	0.0864754
13	0x3cc5ebb2	0.02416024
14	0xbd4b977a	-0.049705006
15	0x3db0b0fe	0.086275086
16	0x3d87aaa8	0.06624347
17	0x3d054f43	0.032546293
18	0x3db7649e	0.08954738
19	0x3d8031f4	0.06259528
20	0xbd35db28	-0.044398457
21	0x3d2579c0	0.040399313
22	0x3de62e0e	0.11239253
23	0x3da05b31	0.078298934
24	0x3d0519e1	0.032495383
25	0x3b4141ef	0.0029488762
26	0x3d9c38e9	0.07628042
27	0x3e131058	0.14361703
28	0x3d89e55f	0.06733202
29	0x3cf34477	0.029695733
30	0x3c95cfa5	0.01828749
31	0x3b6d02a9	0.0036164916
32	0x3d959199	0.07303161
33	0x3e30dfd1	0.17272879
34	0xbe40d1d4	-0.18830043
35	0x3c7c3020	0.015392333
36	0xbcd2c17c	-0.025727026
37	0x3c57cf4e	0.013171984
38	0x3d8703f7	0.06592553
39	0x3dbe21e2	0.092838064
40	0x3cd5c692	0.026095662
41	0x3e40fa83	0.18845563
42	0xbe90fac4	-0.2831632
43	0xbc66b446	-0.0140810665
44	0xbe22d585	-0.15901764
45	0x3d93b142	0.072115436
46	0xbde88f47	-0.11355453
47	0x3d899c4f	0.067192666
48	0x3dc6713b	0.09689566
49	0x3d67b9ec	0.056573793
50	0x3de17218	0.1100809
51	0x3d8212a6	0.06351213
52	0xbc8af314	-0.016961612
53	0x3d71aec4	0.05900456
54	0xbdd0e3f1	-0.101997264
55	0xbc82d31a	-0.015969802
56	0x3c536576	0.012902608
57	0xbeb8b597	-0.36076042
58	0xba032e44	-0.00050041475
59	0x3dc3b30e	0.09555636
60	0xbea09d9a	-0.3137024
61	0x3de27a24	0.11058453
62	0xbc9bf78f	-0.019038944
63	0x3d2c5058	0.04206881
64	0x3cb03b09	0.021512525
65	0x3c3ec5b1	0.011643813
66	0x3c3e3d76	0.011611333
67	0x3d865032	0.06558265
68	0x3a28854d	0.0006428555
69	0xbcdc73f7	-0.026910765
70	0x3dac1160	0.084017515
71	0x3d8d7201	0.0690651
72	0xbc728d80	-0.014804244
73	0xbd8cb329	-0.068701096
74	0xbdc1b00e	-0.09457408
75	0x3bf609cb	0.0075084916
76	0x3daab7d0	0.08335841
77	0x3dc9f5e0	0.0986135
78	0x3e4ca820	0.1998601
79	0x3d45301a	0.048141576
80	0x3ce2a6af	0.027667372
81	0x3df26d61	0.118372686
82	0x3adca5a6	0.0016834035
83	0x3df2bc90	0.11852372
84	0x3e02f055	0.12786992
85	0x3e5cec2e	0.2157447
86	0x3dca6927	0.098833375
87	0xb9cdc83a	-0.00039249827
88	0x3d6bd046	0.057571672
89	0x3e1e1795	0.15438683
90	0x3dd347ef	0.103164546
91	0x3c64f1d5	0.013973673
92	0x3d6f4708	0.05841735
93	0x39ee4a51	0.00045450267
94	0x3c23bf4c	0.009994339
95	0x3df2dbd4	0.11858335
96	0x3e2c6ecf	0.16839145
97	0xbc3c9c42	-0.011511864
98	0x3c82423c	0.015900724
99	0x3e3b1444	0.1826945
100	0x3c5aac9c	0.013346817
101	0x3ddfbf11	0.10925115
102	0xbe3df17f	-0.18549155
103	0xbe725a14	-0.23667175
104	0xbb18792c	-0.0023265583
105	0x3b0253a7	0.0019886286
106	0xbd2b5a41	-0.04183412
107	0xbd5691de	-0.052385204
108	0x3d2bcafc	0.041941628
109	0x3c60ea00	0.013727665
110	0x3c36425f	0.011124223
111	0x3e534fe6	0.20635948
112	0x3c28e261	0.010307879
113	0x3dadd517	0.08487909
114	0x3c7919f1	0.015203939
115	0x3d1b47f7	0.037910428
116	0x3c5b5c77	0.013388745
117	0x3bfd3d0a	0.0077282237
118	0xba91e001	-0.001112938
119	0x3cbfa770	0.02339527
120	0x3dcb60bb	0.09930559
121	0x3d4dd56e	0.05025237
122	0x3da6789c	0.08128473
123	0x3c3e2316	0.011605045
124	0x3d928e4e	0.07156049
125	0x3c9965f1	0.018725367
126	0x3d81047d	0.06299684
127	0x3dc7be0d	0.09753046
128	0xbcde667b	-0.027148476
129	0x3d6d5c68	0.057949454
130	0xbe71c71a	-0.23611107
131	0xbd83d5d3	-0.06437268
132	0x3e3c73f4	0.18403608
133	0xbe8cd334	-0.27504885
134	0x3d66a377	0.056308236
135	0x3c7421b6	0.014900615
136	0x3c165198	0.009174727
137	0xb9d799f5	-0.00041122703
138	0xbc4d5580	-0.012532592
139	0x3d8ce938	0.068804204
140	0xbce4b423	-0.027917927
141	0xbbc443d6	-0.005989532
142	0xbe409fa5	-0.188109
143	0x3cb83c68	0.022489741
144	0xbd14d69f	-0.03633749
145	0xbdd4ea39	-0.10396237
146	0x3bfd7856	0.0077352924
147	0x3dac6895	0.08418385
148	0xbb0a5ca1	-0.002111234
149	0xbdcaa476	-0.0989465
150	0xbdadeb9c	-0.084922045
151	0xbd33a5d7	-0.04385933
152	0x3c6da1fc	0.014503952
153	0xbd36b565	-0.044606585
154	0x3e2d057e	0.16896626
155	0xbc7e5d28	-0.01552514
156	0xbda1b584	-0.078959495
157	0xba2d7f5b	-0.0006618404
158	0x3c93ba34	0.018033125
159	0xbc6f4372	-0.014603483
160	0x3dc272d3	0.09494557
161	0xbd2d2fc1	-0.04228187
162	0xbe2785e6	-0.16359672
163	0xbe23d36d	-0.15998621
164	0xbd528374	-0.051394895
165	0xbc3f392b	-0.011671345
166	0xbd87e8ce	-0.06636201
167	0xbd1d4fd8	-0.038406223
168	0xbd5469d9	-0.051858757
169	0xbdcc50b1	-0.09976328
170	0xbcf89422	-0.030344073
171	0xbb80e0e1	-0.0039330577
172	0xbe34cf10	-0.17657113
173	0xbd0feb74	-0.035136655
174	0xbed0875b	-0.40728268
175	0x3cddc64d	0.027072096
176	0x3ba1cff8	0.004938122
177	0x3de1fe51	0.11034835
178	0x3c78d345	0.015187089
179	0x3ce0bdb2	0.027434204
180	0xbc7c1b17	-0.015387318
181	0xbc57b184	-0.013164882
182	0x3b8f0533	0.0043646335
183	0xbca859f8	-0.020550713
184	0xbe606c62	-0.21916345
185	0xbe3281dd	-0.17432351
186	0xbbdde128	-0.0067712255
187	0xbda04c8b	-0.078270994
188	0xbd237011	-0.039901797
189	0x3d37ae34	0.044843867
190	0xbc074ca6	-0.0082580205
191	0xbce7fde0	-0.0283193
192	0xbe8e3bd1	-0.2778001
193	0xbd5d9923	-0.05410112
194	0x3be7fce1	0.007079706
195	0xbcf2d7f9	-0.029644
196	0xbe0c3773	-0.13693027
197	0x3c88b43c	0.016687505
198	0xbcdb0c99	-0.026739405
199	0xbbeb3db0	-0.0071789846
200	0x3bdcd30e	0.006739027
201	0xbdfca016	-0.123352215
202	0xbeb6031f	-0.35549256
203	0xbccc2fb8	-0.024925098
204	0xbd8997ac	-0.06718382
205	0x3c6cd26d	0.014454466
206	0xbdad1b91	-0.084525235
207	0xbd439982	-0.04775382
208	0x3d6104e3	0.0549363
209	0xbc8688aa	-0.016422588
210	0xbdfd6c14	-0.1237413
211	0x3d9bf3ee	0.07614885
212	0xbbe853e7	-0.00709008
213	0xb9b0fc17	-0.00033757158
214	0xbdb938e1	-0.09044052
215	0xbe1610a0	-0.1465478
216	0x3ce5deee	0.028060403
217	0x3d4f9cd4	0.050686672
218	0xbe15526e	-0.14582226
219	0xbd1c719f	-0.038194295
220	0x3d650fe0	0.055923343
221	0xbb5f7f79	-0.003410308
222	0xbdb5b62e	-0.08872639
223	0xbdbea173	-0.09308138
224	0xbdb5ed87	-0.08883195
225	0x3cd94d79	0.0265262
226	0xbe1286be	-0.14309213
227	0xbdf161fa	-0.11786266
228	0xbd087504	-0.03331472
229	0x3cb80f9c	0.02246838
230	0x3d8e1a28	0.06938583
231	0xbea298c6	-0.31757182
232	0xbe03708a	-0.12835899
233	0xbd3efab9	-0.046625827
234	0xbe56d998	-0.20981443
235	0xbdf4af55	-0.119475044
236	0xbe3d8600	-0.18508148
237	0xbdc9d537	-0.09855121
238	0xba012861	-0.00049269764
239	0xbdf0981b	-0.11747762
240	0xbacf6f90	-0.0015826095
241	0x3c7b0b8c	0.015322577
242	0xbe173caf	-0.14769243
243	0xbbc2a26d	-0.005939773
244	0xbc973ed6	-0.01846258
245	0xbe327779	-0.17428388
246	0xbd9ecfa8	-0.07754451
247	0xbd0f02b1	-0.034914676
248	0xbc709abe	-0.014685331
249	0xbd44f74e	-0.04808741
250	0xbc134ed5	-0.008990963
251	0xbd7fb4e6	-0.062428378
252	0xbba2c5f0	-0.0049674436
253	0xbd84b921	-0.06480623
254	0xbb9f4b33	-0.0048612594
255	0x3e31eda1	0.17375804

mlp.4.bias f4 [3]
0	0x3f13a0dd	0.5766733
1	0xbea2bfc5	-0.31786934
2	0x3e0c40c6	0.13696584
