EUSIPCO/Nested Array/saved_models/rnn_0.0dB_ula_3.pth (torch, 87858 bytes, 14 tensors)

bn.weight f4 [16]
00000000: 02e5 433f b471 3a3f dc2d 243f 3857 603f
00000010: f6d9 433f b686 483f 7552 6d3f f0d1 333f
00000020: a434 373f 763d 5b3f 096d 493f b963 3d3f
00000030: 6789 8a3f 51b4 843f 2321 4e3f fdec 533f
0.76521313 0.7282975 0.64132476 0.87633085 0.76504457 0.7833055 0.92703944 0.70242214
0.715647 0.85640657 0.78682 0.7398029 1.0823182 1.0367528 0.8051931 0.8278349

bn.bias f4 [16]
00000000: 16f6 b43d 07fe a93d 9a42 fd3c fb00 b8be
00000010: 6897 b33d 8f68 f13d bdb6 2bbe 7aa2 0d3e
00000020: 7b9a 55be 0111 eb3c 68d6 35be 2586 82be
00000030: f80d c33d 432c 3fbe 35cc 873e 2e93 a9be
0.08836 0.08300405 0.030915547 -0.35938248 0.08769113 0.11787521 -0.16768928 0.13831511
-0.20859711 0.028694632 -0.1775757 -0.2549297 0.09524149 -0.18669228 0.26522985 -0.33120102

bn.running_mean f4 [16]
00000000: 1bc8 48b9 7aab 82ba 58f1 dc3a e84e 0a39
00000010: f4aa e7b9 b413 243a cceb bbba e66a 6f39
00000020: 20b3 7f3a 0855 583a 6f2b 5bb9 9495 04bb
00000030: 855e 07bb f3e9 f73a 05b4 463a a673 3bbb
-0.00019148031 -0.0009969317 0.0016856594 0.000131901 -0.00044187123 0.00062590395 -0.0014337241 0.00022832639
0.000975417 0.0008252417 -0.00020901648 -0.0020230757 -0.0020655703 0.0018914327 0.00075799256 -0.0028602867

bn.running_var f4 [16]
00000000: 4a75 0040 aec3 ff3f e3eb ff3f 69a8 ff3f
00000010: 7f53 0040 9c21 0040 660e 0040 769c ff3f
00000020: 2b35 0040 1428 0040 2c74 ff3f 6c35 0040
00000030: 3896 0040 784d 0040 30ae ff3f 62e7 ff3f
2.0071588 1.9981592 1.9993862 1.997327 2.0050962 2.0020514 2.0008788 1.9969623
2.003245 2.0024462 1.9957328 2.0032606 2.0091686 2.0047283 1.9975033 1.9992487

rnn.weight_ih_l0 f4 [48, 16]
00000000: f4be 41be 57c8 763e 1798 10bf 6f80 bc3e
00000010: 7df0 abbe 09ba 4c3e 5995 903e 997f 12bf
00000020: 1d92 21bf 43e5 eb3d 36a9 6a3e f95b 1d3e
00000030: 155f 4b3f 6e31 93bf 4d6d 233f 273c 1b3f
00000040: 8163 8a3f 0a33 573f bd4a 84bf 067b 82be
00000050: d14c 383f 0cc1 74bf 55e1 bcbf d5e5 19bf
00000060: 4aee 963e b7a7 ea3f 2ca1 8e3f 62ad 0abd
00000070: 4998 423f 01cb aa3f a51c 03be 3d23 f3bd
00000080: a058 36bf 600c 4e3f ceae bdbe ae48 eb3e
00000090: de99 203f 31fe d4be b9bb 6a3f c37d 7cbf
000000a0: 555a 033f 7dff a5be e58f 08be 6fea 163f
000000b0: c39c 97be 5844 123e b261 0f3e 1819 c4be
000000c0: 06fe 3ebf 7aa7 b4be fd50 bfbf 6ebb 05bf
000000d0: 47ba 083e 2ef3 32bf 6560 9dbf ae19 29bf
000000e0: ebc9 db3c 2bfa 8d3e efba b9be f13e 21bf
000000f0: 4876 dc3e 4e21 1b3f 69dc 013f e385 7f3c
00000100: da3a 173f 6097 583e 5c2b b83f 29ca c43f
00000110: 9cb4 193e 95dd 8e3e aab6 90be 2ccd 733f
00000120: 5e56 04be aa1a a53e b7f9 fabc 364b a03e
00000130: 18ae 873f 3c8d 713e f8a5 49bf aee2 e13e
00000140: f291 b3be e21b 9f3e 9c8d 693e 0746 7abe
00000150: ed24 90be b81b de3e 63fa 67bf 20bc 993f
00000160: 438b b4bd f483 0a3c 77f5 29bf ab5f 033e
00000170: 0ad1 983d 6647 23be 2f5f b4be 325a 6fbe
00000180: 5668 1a3f cd9d 61bf 23b0 05bf fcec b93e
00000190: 4ebf 67be d4b9 aabe 28ad b23d 22fe 57be
000001a0: ca6a 863f 01a5 50bf d821 8e3e 7fb0 15bf
000001b0: 5867 39bf 7dc5 c93e ada6 98bf 5767 683f
000001c0: 1fd4 b3be 79a0 54bf 144c 21be 0c37 9a3f
000001d0: a7c5 70be c654 fc3d 8ff8 b53e 1b77 b5be
000001e0: e15d febe b8bd 5e3f c2f2 38bf f990 04be
000001f0: 69b1 733f 9016 843e 11bf f7be 8fdd 9c3f
00000200: c2ab 183e be58 72bf befb 3abf 45fa 093f
00000210: 93fa 18be 7f4b 193e b1c3 1d3f 5da9 38be
00000220: 9fbd 54bf bb59 b33f b345 b1bf f700 e1be
00000230: 5ce7 453f a1a6 8d3f b35c 12bd 81ac 26bf
00000240: eed2 2bbf 8091 adbf 3efc 04bf a92d 1b3e
00000250: 198c 27bf d328 8abf 444b d2be 1df5 04bf
00000260: 715f bfbe d7f3 853d 7355 433f d8f1 133f
00000270: 9519 6cbf 9761 5e3d 75d2 8e3f 0467 16bd
00000280: e6a3 cabe 3a30 173f fae1 7bbe 2072 f33e
00000290: 6de7 c2be 848c 87bd 4994 32be 835a 83be
000002a0: d6e8 943f e3df 87be 3336 763e 5196 263c
000002b0: 2d3b 323e bfb8 debd efdd 1bbf ca9c 923f
000002c0: 14ed 1d3f 1182 75bf dafb 043f e8fa 92bf
000002d0: df54 163f 8b2b fcbe 8c70 2a3f c003 cebe
000002e0: 34c3 113e 3f00 c8be 5e16 a53e bc94 bebe
000002f0: 6912 453f 9c7d 95be bf30 833f aee6 44bf
00000300: 7608 1e3f cd75 48bf cb03 26bf 2336 653f
00000310: 16fb 063f 4ce7 18bf 182e 603d e92d fabe
00000320: 9fc3 4d3f 2fdf 1a3f 7604 4fbf d6df 01bf
00000330: 30b8 263e ed22 eabd 27cd 00bf 2d46 b03e
00000340: f217 fa3e 4ab4 00bf 2abf a1be da66 863e
00000350: 5a40 3ebe eb4d a53f b7e2 31bf 2425 01bf
00000360: 7a5e ab3e 8475 343f c5dc 00bf 6e14 22bd
00000370: 42d9 2dbf 5254 fc3e 789d 5c3f 00f2 28bf
00000380: 404c 2bbe cf53 453d fdd7 e73e 3ba9 c9bd
00000390: 2d0b 1d3e 33b9 c0be 9b69 13bf 855a fc3e
000003a0: 1fde 03bf 5960 3d3e 0e2f c8be 79bf 173f
000003b0: c5cb e83d f78e bdbd 8f2f 0cbe 9c4c 913e
000003c0: b690 b93e ea3e ea3e 2705 00bf be6b 363d
000003d0: 7115 643e 50f8 303f b299 44bf 5c2a 9bbf
000003e0: 51d7 723f 1630 fdbe 57c5 92be 6ac5 353f
000003f0: d2c3 bbbd 4a98 10bf 42ac 73bf 2035 623f
-0.18920499 0.24099861 -0.5648207 0.36816737 -0.33581915 0.19992842 0.28238943 -0.5722595
-0.63113576 0.115183376 0.22916111 0.15367116 0.7944196 -1.149946 0.63838655 0.6063866
1.0811616 0.84062254 -1.0335308 -0.25484484 0.7199221 -0.95607066 -1.4756266 -0.6011632
0.29478675 1.8332433 1.1142936 -0.033856757 0.7601362 1.3343202 -0.12803896 -0.118719555
-0.7122898 0.8048763 -0.37047428 0.45953888 0.6273478 -0.41600183 0.9169269 -0.986294
0.5130971 -0.32421485 -0.13336141 0.5895147 -0.29611787 0.14283884 0.14002112 -0.38300395
-0.7460636 -0.35284024 -1.4946591 -0.5223912 0.13352309 -0.6990231 -1.2295042 -0.6605481
0.02682968 0.27729926 -0.36275432 -0.62986666 0.4305899 0.60597694 0.50726944 0.015595886
0.59074175 0.21151495 1.4388232 1.5374194 0.15010303 0.2790343 -0.28264362 0.9523494
-0.12923571 0.32246906 -0.030636651 0.3130738 1.0600004 0.23589033 -0.78768873 0.44118255
-0.35072285 0.3107596 0.22807926 -0.24440776 -0.28153172 0.43380523 -0.90616435 1.2010536
-0.088156246 0.008454312 -0.66390175 0.12829463 0.07461746 -0.15945205 -0.3522887 -0.2337425
0.60315454 -0.8813141 -0.5222189 0.36313617 -0.2263157 -0.333449 0.08724433 -0.21093038
1.050134 -0.81501776 0.27760196 -0.58472437 -0.72423315 0.39408484 -1.1925865 0.90782684
-0.35122773 -0.8305736 -0.15751678 1.2048049 -0.23512898 0.12320857 0.35541198 -0.35442433
-0.49681 0.8700824 -0.7224542 -0.12945928 0.9519258 0.25798464 -0.4838796 1.2255114
0.1490927 -0.9466666 -0.7304038 0.53897506 -0.14939336 0.14970206 0.61626726 -0.18033357
-0.8310184 1.4011759 -1.3849396 -0.4394605 0.7730615 1.1066476 -0.035732936 -0.6510697
-0.6711873 -1.3560028 -0.5194739 0.15154137 -0.6544815 -1.0793709 -0.41073048 -0.51936513
-0.37377504 0.065406494 0.7630226 0.577909 -0.92226535 0.054292288 1.1157976 -0.036719337
-0.3957817 0.5905796 -0.24597922 0.47548008 -0.3806719 -0.06618598 -0.17439379 -0.25654992
1.1633556 -0.26538 0.24044113 0.010167674 0.17405386 -0.10875081 -0.6088552 1.1454098
0.6168988 -0.9590159 0.51946795 -1.148282 0.58723253 -0.4925197 0.6657798 -0.40237236
0.1423462 -0.39062688 0.32243627 -0.3722285 0.76981217 -0.29197395 1.0249251 -0.7691449
0.6173166 -0.7830475 -0.6484954 0.8953573 0.52726877 -0.5972793 0.05473146 -0.48863152
0.8037662 0.604968 -0.8086618 -0.5073217 0.162812 -0.11432443 -0.5031304 0.3442854
0.48846394 -0.502751 -0.3159116 0.26250345 -0.18579236 1.2914404 -0.69486564 -0.504473
0.33470517 0.70491815 -0.5033687 -0.039570265 -0.67909634 0.4928308 0.8617778 -0.6599426
-0.16728306 0.04817563 0.45281973 -0.09846731 0.15336294 -0.37641296 -0.57583016 0.4928781
-0.51510805 0.18493785 -0.390984 0.5927654 0.11366991 -0.09255784 -0.13690017 0.2837876
0.36243218 0.45751125 -0.5000786 0.044536345 0.22273804 0.69128895 -0.7679702 -1.2122302
0.94859797 -0.4945075 -0.28666183 0.71004355 -0.09168209 -0.56482375 -0.9518472 0.8836231

rnn.weight_hh_l0 f4 [48, 16]
00000000: cc90 02bf 95ba 103f a7d4 2dbc 7636 0fbf
00000010: 5d6f ea3c 9263 1e3f 2c1c 8e3e 3e6e edbe
00000020: 5836 723f 09bf c23c 27ae 713f 3470 553e
00000030: c515 f63d 7341 0cbf 45a6 edbe 56f6 afbe
00000040: ca2a 44be 0748 e03d 5a9a d5be b530 2fbe
00000050: b3a6 30be 63bb 303f 4239 e7be 55bb 873e
00000060: 6ffc c6be 9e0f 113e 4725 623e 3c8b 233f
00000070: ad11 a73c 7785 023e eb55 e8be 9260 9cbe
00000080: 33f3 853f 93e1 ff3e 303e 113e 66da e33e
00000090: 12ce 663e cd09 3fbf ae10 8d3f c440 05be
000000a0: 4cd8 c2be 007e aebd b875 93bf cf89 35be
000000b0: a38e 313e c136 e8be d629 a93e c934 c2bb
000000c0: 3d7d 513e 42c8 ce3d 31a5 8e3e b616 eebd
000000d0: 521d a7be 2139 aebd d486 e2bc db38 d13e
000000e0: fccb febe 5484 c53e defa b2bd b9f4 f9bd
000000f0: 5065 ae3e efd1 d3be 71b8 62be 170f 95bd
00000100: 255a c8be a684 a93e 5fe1 fdbe 63e8 a5be
00000110: 0252 3c3f c473 d33c 7133 ecbe 1d69 14be
00000120: 1a6c 39bc 9bbf dc3e 74ed 873e bc48 673e
00000130: 222f 713d 05ea ad3e e0a2 4dbe c0ff a23e
00000140: 97b3 b83e d7fb 5c3e a7a5 3c3f d566 1b3f
00000150: d8fc ccbd a746 99bf 83c9 e53e 6a99 1abf
00000160: ffc1 7bbe 636d e83d 81d7 a6bf dc47 4dbf
00000170: e64f e2bb 8055 2d3e 8af2 8b3f 0889 c33e
00000180: a9f5 b53c 7596 6bbf 9aab 6a3f 5ee3 ffbd
00000190: cf16 733c 6681 4bbf c5bf 2d3d 760c 5c3f
000001a0: d5fd 223f 029d 06bf 9000 28bf bda2 0fbf
000001b0: 7703 e4be a018 8c3e 4c9b fe3e e362 2cbf
000001c0: 5f44 bcbf cc90 303c ba85 34be 50ab d93c
000001d0: f0e8 68bf f439 b73d d363 efbe 2201 8fbf
000001e0: 7b4f be3e 41f3 e03e 7ce7 aa3d c84a 00bd
000001f0: bafd 1cbf b003 ec3d 3c41 6a3b 3e31 b43d
00000200: b198 76be 028e cb3e ce20 1abf 2e1c be3e
00000210: f402 4ebf ca76 583c 91d7 86bf 8f26 13bf
00000220: 912d 9d3c 1a65 b13e 241f cabd a82c 4a3f
00000230: a79d 8f3e c768 293f 7a7f c43d cba5 7b3d
00000240: 1ae4 a8be dc53 923e a8b8 01bf f8ab 24be
00000250: 0632 6ebe 9592 283f ae0f dbbd 3997 383e
00000260: df07 c3bc d286 023f 050d 313f 6e09 063f
00000270: 16d5 963d 21a1 b0bd 2d74 bfbe b6bc 3c3e
00000280: 8221 ffbf a626 fe3e 02d6 69bf d9fa 923e
00000290: 6930 ecbf 09a7 093f 417a 57bf 10e4 15c0
000002a0: c757 6e3e cbd6 b13f 53a5 c3be aeaa 313e
000002b0: dc71 b9be 6449 c3bd 5194 31bd 98d2 ec3f
000002c0: 1eaf 073f f9d9 03be 9f98 b03e 85f4 e5bc
000002d0: e118 5ebe ba0a 3ebe 4b82 093f c65a c63e
000002e0: 33ef ab3e d200 a6be 8162 3cbe 27ff e6bd
000002f0: 874c b7bd 7d5c 1cbd 4046 503e b71e 71bc
00000300: 88e7 053f fa95 ab3f f2f0 bd3c da58 cd3b
00000310: 0043 4abe 7e98 74be 9904 60bf e7fb 313e
00000320: 52a3 02bf 1edc 9d3e 507c edbd 32ba 453f
00000330: 197d 9c3f e5dc 4b3e bcaa 58be 0976 233f
00000340: e583 113f ac17 593e d1b1 8cbe 97d6 27bd
00000350: c88d a7be 3092 b63e 5fe2 2cc0 4157 5cbe
00000360: 78c6 87be 1361 8ebe af1e a73e 76fd ca3e
00000370: 08e5 22be e283 fe3f 9b5d 02bf f6bf 97bd
00000380: 047a 743f 3a19 1abd 2002 103f 0a10 fb3e
00000390: 8123 c23e e58b a0bf e591 403f 039b d93d
000003a0: 1254 96bf ba45 7cbe eea9 efbf e9e3 8ebc
000003b0: 580f 063f c6ae 4ebf 3991 243f 8465 3b3f
000003c0: 97b5 4abe 2acd 1ebf 228b 9dbe edee a83e
000003d0: b384 abbe 52ee 9abe 5986 f0be c763 b5be
000003e0: 693a 71bf ae2f c03e a5fa 59bf 7d80 883e
000003f0: 01ee a6be 0a16 ebbe 53e1 e8bd 2ab2 0d40
-0.5100219 0.565347 -0.010609782 -0.55942476 0.028617555 0.6187068 0.27755868 -0.4637317
0.9461417 0.023772733 0.9440636 0.20843583 0.12015871 -0.5478737 -0.46415916 -0.34367627
-0.19156948 0.10951238 -0.41719323 -0.17108424 -0.1725109 0.6903593 -0.45160872 0.2651011
-0.38864467 0.14166114 0.22084533 0.6388433 0.02039417 0.12746225 -0.4537805 -0.30542427
1.0464844 0.49976787 0.14183879 0.44502562 0.22539547 -0.7462433 1.1020715 -0.13012987
-0.38055646 -0.08520126 -1.15203 -0.17728351 0.17339568 -0.45354274 0.3303973 -0.0059267026
0.20457931 0.1009679 0.27860406 -0.116254255 -0.32639557 -0.0850699 -0.027652182 0.4086369
-0.49765003 0.3857752 -0.08739255 -0.1220488 0.3406167 -0.41371104 -0.22140671 -0.07278269
-0.39131275 0.33109015 -0.49586007 -0.3240386 0.73562634 0.025812037 -0.46132997 -0.14493223
-0.011317277 0.43114933 0.2654835 0.2258634 0.05888284 0.33967605 -0.20081663 0.31835747
0.36074516 0.21580444 0.73690265 0.60703784 -0.100091636 -1.1974686 0.44880304 -0.6039034
-0.24585722 0.11348989 -1.3034517 -0.80187774 -0.0069064973 0.16927147 1.0933392 0.38190484
0.022211866 -0.92026454 0.91668093 -0.12494539 0.014836981 -0.7949432 0.042419214 0.85956514
0.63668567 -0.52583325 -0.6562586 -0.56107694 -0.44533893 0.27362537 0.49727857 -0.6733839
-1.4708365 0.01077671 -0.17629138 0.026570946 -0.90980434 0.089466006 -0.46755847 -1.1172221
0.37170014 0.43935588 0.083449334 -0.031321317 -0.61324656 0.11524141 0.003574445 0.08798455
-0.24081685 0.3975678 -0.60206306 0.37130874 -0.80473256 0.013211915 -1.0534536 -0.5748071
0.019186767 0.34647447 -0.09869221 0.7897439 0.28049967 0.661755 0.09594627 0.06143741
-0.32986528 0.28579605 -0.5067239 -0.16081226 -0.2326127 0.65848666 -0.1069635 0.18026437
-0.023807464 0.5098697 0.6916049 0.5235814 0.07364862 -0.08624483 -0.37393323 0.18431363
-1.9932101 0.4963886 -0.91342175 0.28707007 -1.8452274 0.537705 -0.8417092 -2.3420448
0.23275672 1.3893675 -0.3821207 0.17350265 -0.3621968 -0.095354825 -0.043354336 1.8501768
0.5300158 -0.12876119 0.3449144 -0.028070698 -0.21689178 -0.1855878 0.53714436 0.3874113
0.33580932 -0.324225 -0.18396951 -0.11279135 -0.08950143 -0.03817414 0.20339298 -0.014716796
0.52306414 1.3405144 0.02318618 0.0062666954 -0.19752121 -0.23886296 -0.87507015 0.1738125
-0.5103046 0.30832 -0.11595976 0.77237236 1.2225677 0.19908483 -0.2115888 0.6385198
0.5684188 0.21200436 -0.27479413 -0.040976133 -0.32725358 0.35658407 -2.7013166 -0.2151766
-0.26518607 -0.27808437 0.32640597 0.396465 -0.15907681 1.9883997 -0.5092408 -0.074096605
0.9549868 -0.037621714 0.5625324 0.49035674 0.37917712 -1.2542692 0.7522262 0.10625269
-1.1744406 -0.24635974 -1.8723733 -0.01744266 0.5236716 -0.80735433 0.6428409 0.73201776
-0.19795834 -0.62031806 -0.30770212 0.32994786 -0.3349968 -0.3025995 -0.469775 -0.35427687
-0.9422975 0.37536377 -0.8514808 0.2666053 -0.32603458 -0.45915252 -0.11371102 2.2139993

rnn.bias_ih_l0 f4 [48]
00000000: 2c06 e0bc fe89 17bf 7ca6 14be 15b9 71bd
00000010: 7183 ddbe 0e71 f93e b6b5 5abd f89f 0a3d
00000020: 3779 143e c004 da3d 8a54 fc3e 40a2 79be
00000030: 4b96 60be 3c94 003d 2e23 a2be f983 abbd
00000040: 4bd0 8c3f 1f25 b93f 6d42 7a3f 4a59 a63f
00000050: 0a84 793f 7662 f43e 32bb db3f 5923 c93f
00000060: fb89 e73e af63 953f 39ad 833f c57c d73f
00000070: 806a ae3f ee70 413f f7c0 f43e fb24 3c3f
00000080: ff31 a6bc a421 123f af6b 4a3e c59b ca3d
00000090: 85bb 6d3e a1bc 79be 55cd b03d 3030 86be
000000a0: b72a 9b3d d922 e2bc 8d94 00bd 4eb4 6e3d
000000b0: b92d 5d3d 2776 8fbd f1e2 d33e b28e a63e
-0.027346693 -0.59194934 -0.14516634 -0.0590144 -0.43264344 0.48719066 -0.05339595 0.033843964
0.14499365 0.10645437 0.49283248 -0.243783 -0.21932332 0.031391367 -0.31667465 -0.08374781
1.1001066 1.4464453 0.9775761 1.2995999 0.974671 0.4773137 1.7166502 1.5713912
0.45222458 1.1671046 1.0287238 1.6834952 1.3626251 0.7556294 0.4780347 0.7349393
-0.020287512 0.5708258 0.1976764 0.09892992 0.23216064 -0.24388362 0.08632914 -0.2620864
0.075765066 -0.027604507 -0.03139167 0.05827742 0.053998683 -0.07004958 0.4138408 0.32530743

rnn.bias_hh_l0 f4 [48]
00000000: a0c6 12bc 92b0 efbe 8ac0 683e 66e0 9d3e
00000010: 2e69 14be 354c 093f b4c5 fcbb ba8d 57be
00000020: 5470 c2ba f1f5 9ebd 975d 333f ed8d 0b3e
00000030: db4c 07be 7df3 cfbb cff3 9ebd 9015 30bd
00000040: 3f85 853f 59f2 913f bddd 863f d046 833f
00000050: 3783 a83f a52e 0d3f de63 c43f a461 ac3f
00000060: b799 cc3e 1f72 6f3f c134 8a3f 95f5 c03f
00000070: 678f ad3f 0ddb 563f 91e7 1c3f 848a 453f
00000080: 5d93 2fbe db08 8cbe 0f0d 9a3e d3fd 933e
00000090: 3a00 823e aeb1 abbe fa29 373e 3a55 1d3e
000000a0: 08ee f4bd 2e0d 3a3d 5c2c 28be 1bbd b8be
000000b0: 8c53 e03d 9242 903e 8e01 b33e 3e3a c73e
-0.008958489 -0.468144 0.22729698 0.30835265 -0.14493248 0.5363191 -0.0077139977 -0.21050158
-0.0014834502 -0.07761753 0.7006468 0.13628359 -0.13212912 -0.0063461647 -0.077613465 -0.042989314
1.0431288 1.1402084 1.0536419 1.0255985 1.3165044 0.551493 1.5342977 1.3467298
0.39961025 0.9353351 1.0797349 1.5074946 1.3559388 0.83927995 0.6129084 0.77164483
-0.17146058 -0.27350506 0.30088088 0.2890459 0.25390798 -0.33533996 0.17887107 0.15364543
-0.11959463 0.045422725 -0.16423172 -0.36081776 0.10953435 0.2817579 0.34962124 0.38911623

mlp.0.weight f4 [128, 16]
00000000: 148e dfbe 1614 20be af94 b6be 805b 07bf
00000010: edec 84be 6529 943d dcc7 0c3e 1026 443e
00000020: 9212 1e3d f0e4 893e 8c0d e4bc 3acb e63d
00000030: 2e64 923e e003 e23d 9bc6 aabe a677 30be
00000040: d578 b83d 84e2 c13d 0575 c33c e4f7 9b3e
00000050: 24ec 85be 55dd f1bd 000a 573c 179c 173e
00000060: e11f 81be e42f 1cbd 6131 38be 25c0 8d3e
00000070: e1e0 653f 2c7f 07bf c184 8b3d 0f84 ff3d
00000080: be8b 383e be66 ebbe 8ca5 a1be af52 86be
00000090: 60c5 68bd c92f a73e 825d 523d 3dae 0c3e
000000a0: 3efc 533d 7549 4c3e 05b0 a4be e4be fb3e
000000b0: bab1 6cbd 221c 663e ef8a b6be 3a3d 82be
000000c0: d779 7f3e cae8 85be 2f48 16be d306 6d3d
000000d0: 6349 47be 1d8c 90bd 100e 283c e6f4 1dbd
000000e0: f3c6 5b3d c588 f1bd f423 273e 8810 b03c
000000f0: ec98 7ebd a4f6 35bc 440e 1bbe b57f 133d
00000100: 2f32 f83c 8773 66bd 9c91 1d3c c1cd a73c
00000110: 6b49 af3c 7575 0e3e f934 89bd 9579 0b3e
00000120: 2ae7 c4bc f68a 04be 3c42 b5bd 5fbd e53d
00000130: 03c5 2b3e b095 383e 1287 ef3b 937d ea3d
00000140: d117 90be 8998 70be d32e 99be 366d a6bd
00000150: b0cc 4e3e c47f e93d dca5 51be d574 903d
00000160: 8e8d 73be 4eb8 29be e535 463d 5da3 b93d
00000170: c271 ab3e fb7e 773e f66c e0be e66c 4ebe
00000180: 6b1f eebe eb71 263f 619a 263e 4202 40be
00000190: b7bf ad3e c6b8 d13d d289 77be 9d68 bf3e
000001a0: 2442 9a3e 3973 7abe c923 303e 6710 8fbe
000001b0: f1b1 bebf 72af 3c3f 2b75 ac3d 75f0 cdbe
000001c0: 235e 6c3e 241b 923e f61d a9bd 13b7 8c3e
000001d0: fc2e 243e 3b99 553e 4f5f 93be aecc c0bd
000001e0: ef57 d03d 48d6 40bd 5847 0c3e 2fa8 263b
000001f0: 036a 853d 2398 febd ee6d 0bbe ec95 abbc
00000200: cf5b 903b 9268 3ebe a406 a83c c6cf 183d
00000210: e5e9 0f3e 71cb b63d 656c dabd e51f 913e
00000220: 027f 99bd 88de 03bd 6b31 37be ddcb 95bc
00000230: 9409 403d 6cb9 e3bd dfc2 cabd 1552 e5bc
00000240: aa5a 453d 8fda 0cbf 8fc3 34be 3489 e6bd
00000250: 69ea 03bf 5488 ee3d 4aa1 ddbc c32b 51be
00000260: 1047 aa3d 9cef 49be 24ca 473e d731 ed3d
00000270: dde6 afbc 9b2f e3bc 8294 84be 201d 80bd
00000280: 33dc 9abd 848c f6bd 0373 10be 8de1 adbd
00000290: 5f04 6fbd 5615 4e3c b8db 92bd e2ef a13d
000002a0: 7e20 50bd 73fb 50bd 3d34 47bd 75db 613d
000002b0: 3b83 813d a295 98bd a6aa dc3c 4f87 13be
000002c0: f1b3 273e d0d5 78bd e463 bcbc fda6 303e
000002d0: 0b12 40be 2692 9c3e 366c cdbe f526 af3e
000002e0: 900a c1be 7dfa 39be 3168 87bd 12b8 713e
000002f0: a896 273e 93d7 a33c 1af4 49be d4b6 f23c
00000300: 16de 453e 6ca3 03be a590 9abe 3599 f4bd
00000310: 9150 153e 0605 1e3e 9667 c9be 6c05 243c
00000320: f617 8d3e d124 82be 2e9c eabb 55ac 6b3e
00000330: ab02 fdbe ed22 0b3f 5df6 cdbe 5b6b a63e
00000340: d780 823e 880c f7bd 71a1 4abe 51ae 11be
00000350: 52bb 62bc 573c f63c 733b 27be c7bc 963e
00000360: 9a51 f63d 14f7 05bd 7547 95be 10b7 4b3e
00000370: 764b 753e c148 7a3e c862 87bd 4928 183c
00000380: 6875 0f3d 66a8 a43e 05e5 3e3d 1a7b c13d
00000390: 3b63 87bd daf2 213c 7dd3 2a3e e6dc 91bd
000003a0: d568 5e3d a8ec df3e 909b 3a3b 8e39 8ebe
000003b0: ef1e 6b3f 319b 2bbc 98d3 573b c4cf d0bd
000003c0: 20e2 b93d 4607 a33e a29a c73d dbbd 7cbd
000003d0: 05d6 1f3c 6b05 653e 454f a5be 3fa0 cb3d
000003e0: cd10 4dbd b275 d53d 407f f1bd 6285 9d3d
000003f0: 2046 3abe 7fe2 eebe 809f 5a3e efb2 253e
-0.43663085 -0.15632662 -0.35660312 -0.5287399 -0.2596201 0.07234458 0.13748115 0.19155145
0.03859193 0.26932478 -0.02783849 0.11269231 0.28592056 0.11035895 -0.3335465 -0.17233142
0.09007422 0.094670326 0.02385951 0.30462563 -0.26156723 -0.11809794 0.013124943 0.14805637
-0.25219634 -0.03813161 -0.17987587 0.27685657 0.8979626 -0.52928424 0.0681243 0.1247636
0.18022057 -0.45976824 -0.31571615 -0.26234958 -0.056828856 0.32653645 0.051358707 0.13738342
0.05175423 0.19949897 -0.32165542 0.49169075 -0.05778668 0.2247167 -0.35652873 -0.25437337
0.24948822 -0.26154166 -0.14675973 0.057867836 -0.19461589 -0.070579745 0.010257259 -0.03856363
0.05365653 -0.11793665 0.16322309 0.021492258 -0.062157556 -0.011106167 -0.1514216 0.036010463
0.030297367 -0.05626252 0.0096172355 0.020483853 0.021397313 0.13911994 -0.06699557 0.13620599
-0.024036009 -0.12943634 -0.08850524 0.1121776 0.16774373 0.18025851 0.007309803 0.11449733
-0.2814317 -0.23495688 -0.29918537 -0.08126299 0.2019527 0.114013225 -0.20473427 0.07053534
-0.23784468 -0.16574213 0.04839124 0.09064362 0.33485228 0.24169533 -0.4383313 -0.20158729
-0.46508345 0.65017575 0.16269828 -0.18750861 0.3393533 0.10240321 -0.24173668 0.373845
0.30128586 -0.24458016 0.17201151 -0.27942201 -1.4898053 0.7370521 0.084207855 -0.40222517
0.23082785 0.28536332 -0.08257668 0.27483425 0.16033548 0.20859234 -0.28783652 -0.094140396
0.10173022 -0.047079355 0.1369909 0.0025429835 0.06514361 -0.124313615 -0.13616154 -0.020945512
0.0044054757 -0.18594578 0.020510979 0.037307523 0.14054067 0.08925522 -0.10665206 0.28344646
-0.07494928 -0.032194644 -0.17889945 -0.018285686 0.046884134 -0.11119351 -0.0990045 -0.027993241
0.048182167 -0.55020994 -0.17652725 -0.11256638 -0.51529557 0.11647096 -0.027054448 -0.2042685
0.08314335 -0.1972031 0.19510704 0.11581772 -0.021472389 -0.027732661 -0.25894552 -0.06255555
-0.07561531 -0.1203852 -0.14106373 -0.08490286 -0.058353778 0.012578329 -0.07170814 0.07907082
-0.050812237 -0.05102105 -0.048633803 0.05514093 0.06323858 -0.07450415 0.02693684 -0.14407085
0.16377236 -0.060750782 -0.02299685 0.17251201 -0.18756883 0.30580252 -0.4012162 0.3420941
-0.3770337 -0.1816196 -0.0661167 0.23605374 0.16366065 0.020000255 -0.19722024 0.029628195
0.19323 -0.12855309 -0.3018848 -0.119432844 0.14581515 0.15431604 -0.39336842 0.010011058
0.27557343 -0.25418714 -0.0071597314 0.23014958 -0.49416098 0.5435017 -0.40227023 0.3250378
0.25488922 -0.12062937 -0.19788148 -0.14226653 -0.013838606 0.03005807 -0.16331272 0.294409
0.12027283 -0.032706335 -0.2915608 0.19894052 0.23954567 0.24441816 -0.06610638 0.0092869485
0.035024077 0.32159728 0.04660513 0.09447308 -0.066107236 0.0098845605 0.16682239 -0.07122211
0.054299194 0.43735242 0.002847407 -0.27778286 0.91844076 -0.010474012 0.0032932516 -0.10195878
0.09076333 0.31841487 0.09746291 -0.061704498 0.009755616 0.22365348 -0.3228704 0.09942674
-0.05006485 0.10422839 -0.11791849 0.076914564 -0.18190813 -0.46657178 0.21349907 0.16181539

mlp.0.bias f4 [128]
00000000: e0d5 55be 6c2b b4be 4273 a43b 007b c1bc
00000010: 4a54 8dbe 05ea d4be 0464 ba3d 6040 f5bd
00000020: 8e43 b6be a7a6 e43d 79f5 93be d8b9 89be
00000030: 5840 1bbe 5d7c bbbc 5691 a7bd 793d 9bbd
00000040: 215e 87bc 6c64 29be 64f1 ae3b a972 20bf
00000050: 5cea c9be 541a b5be 1b7b 6f3d 07f4 1fbd
00000060: 43ba 86be 034d 11bb abfc 0cbe 8d5a b0be
00000070: d50a 513e 23fb d5bd f4a9 1bbe 0a39 4ebe
00000080: 9dd9 debe 1384 5b3e d7a8 afbe 1898 9bbe
00000090: 9e40 00bd 7d1f 8fbe df4b 7abe b540 dfbd
000000a0: 748f 1b3e 7d27 36bf 735b 75be a9c5 aa3e
000000b0: 5ba9 8fbe 14d9 b2be 5bb8 a2be d522 8ebd
000000c0: a7d8 dfbe 05e5 6abe 8fcf e6bd 2687 cc3d
000000d0: 44bb 5dbe d049 003e 4681 703e eb13 06bf
000000e0: b247 abbd 70e4 643d b9c6 133e c904 033d
000000f0: 77ae 08be 1a69 76bd 55f2 063d a620 6f3e
00000100: 697c b4bd a871 1cbe 03ad 12bf 1a42 1ebe
00000110: 2c35 4cbe d39f 0d3e 3700 79be 83c9 78be
00000120: 0407 10be d261 8ebd 1ee0 69be 84a1 f33d
00000130: 0b40 75be fcc2 723e 03e0 753e c291 bfbe
00000140: 3dc2 ff3d 0678 4dbd 30dd 323e 69a2 a3bd
00000150: b004 16be 927b f1be b84b bdbe df6e c23d
00000160: 777f 133e 8365 2b3e c948 7cbd 30a3 b2be
00000170: 476a b1bd ba48 edbe a247 30be a3cf ed3a
00000180: d647 37be 7cc7 3f3c 85a5 75bd d1ad ae3e
00000190: a97d 4d3e 3739 0fbf 32bb 283e 7a21 fbbd
000001a0: 9810 093e ddaa 4bbe ced9 af3e a910 4abe
000001b0: fbf0 bdbe 1349 82be f767 98be fe8a dbbe
000001c0: a255 19be 066d a2be 8536 b0be 8640 b93b
000001d0: 7d66 a03e 3998 62be 03bb 31be c92f b0be
000001e0: 83be 9e3e 237d b6be b908 af3d f7e7 88be
000001f0: 1b82 013e 8a24 f33c c789 593d 0e8d 56bd
-0.20882368 -0.35189378 0.0050186226 -0.023618221 -0.2760337 -0.41584793 0.09101108 -0.11975169
-0.35598415 0.11164599 -0.28898218 -0.268996 -0.15161264 -0.02288645 -0.081820175 -0.07580084
-0.016524376 -0.16542214 0.0053388346 -0.6267496 -0.39436615 -0.3537165 0.058467012 -0.039051082
-0.2631398 -0.0022171147 -0.1376826 -0.34444085 0.20414288 -0.10448291 -0.1520155 -0.20138946
-0.435254 0.21437101 -0.34308502 -0.30389476 -0.031311624 -0.2795371 -0.24443005 -0.10901014
0.15191442 -0.71154004 -0.23960666 0.33353928 -0.28058895 -0.34931242 -0.31781277 -0.069402374
-0.4371998 -0.22938927 -0.112700574 0.09986715 -0.21653467 0.12528157 0.23486814 -0.5237414
-0.08363284 0.055881917 0.14431275 0.031986985 -0.13347803 -0.060158826 0.03294595 0.23352298
-0.08812792 -0.15277731 -0.57295245 -0.15454903 -0.19942158 0.138305 -0.24316488 -0.2429562
-0.14065176 -0.069522515 -0.228394 0.11896041 -0.23950212 0.23707193 0.24011235 -0.37415892
0.1248822 -0.05016329 0.17467189 -0.07989962 -0.14650226 -0.4716459 -0.3697183 0.09493803
0.14404093 0.16737942 -0.06159285 -0.34890127 -0.08662849 -0.46344548 -0.17214826 0.0018143546
-0.17898497 0.011705276 -0.059972305 0.34116986 0.20067467 -0.5594668 0.1647766 -0.122622445
0.13385236 -0.19889398 0.3434586 -0.19732918 -0.37097916 -0.25446376 -0.2976682 -0.4287948
-0.14974073 -0.31723803 -0.34416595 0.0056534437 0.31328192 -0.22128381 -0.17356496 -0.34411457
0.31004724 -0.35642347 0.085465856 -0.26739475 0.12647288 0.02968051 0.05310991 -0.052380614

mlp.2.weight f4 [128, 128]
00000000: b9d1 923d 6bdb 3abf 9fcc da3b 61f2 f93c
00000010: 4f4e ccbb 38bc 02bd ac79 8fbf 3554 bbbd
00000020: 9f0b 993c ad55 4d3e 204b 30bc 5e53 16be
00000030: 2f54 c73c 84a9 a13c f4bd 23bc b37b b5be
00000040: 2e5b 96be 301a e2bd 5ece f9bd dd7c 003f
00000050: 2727 88bd e353 38be dfd1 20bd bcee ec3b
00000060: 2688 adbd 341c 2f3e a369 dabc 8cb9 61be
00000070: db50 ce3d 715b 01be 8dd0 2abd 2bfb 493d
00000080: b6b3 50be 8bd0 e8bf 5649 93bd 5351 4e3c
00000090: c7e7 373d 1467 a0be e610 42bb 14e1 84bd
000000a0: 4928 6fbe e666 ac3d 77f6 043d f1e7 ba3d
000000b0: a2a7 69bc 0366 cabd 3351 08be c467 3cbe
000000c0: f2f0 adbe 2ee6 c73d bc7e 18bd 0414 a7bc
000000d0: beec a23e f2c9 76bc 29b7 58be 0ae1 2b3d
000000e0: 0560 dfbf e6e1 613d 7428 dfbd b82c 60be
000000f0: 6f7b 003d 590c 013e 726b 55bd 5748 1c3d
00000100: 2808 0f3f 4059 033e 1679 46be 6000 3fbd
00000110: 398e 16bd 98eb 0abf 97cf 4cbe 53b9 883c
00000120: da4b 4bbe a6e1 9a3d 525c 4ebd dd1f cd3c
00000130: 5b6d 8abc f041 d5bc 6208 34be 8eb5 2fbf
00000140: 2ae7 81bc 3a61 433e 756b 15be 82d6 f0bd
00000150: 6ca4 113d 78aa e5be f510 c8be e405 d6bd
00000160: adf0 bb3d c672 c7bc 84a6 603e bfa9 4cbe
00000170: f245 053d 35c9 0b3e b73b 81bd 01a7 f8bc
00000180: bdc1 35c0 edaf 30be be0e 943d e05c fe3d
00000190: 4d69 503e 4015 0abe 00b1 62bd ce6c 963d
000001a0: 49ec a3be d435 3f3d ffeb e33a 0b65 3c3e
000001b0: 98d1 213d 09d6 8fbe e4ac 64bc 754a 43bd
000001c0: 3b29 56be 11d6 70bc 9110 0ebe 1889 37bb
000001d0: 5924 6d3e 3470 693d b9e0 97be 9ab9 63be
000001e0: 9513 4fbf ad77 3abd ac41 6c3e 4298 16bb
000001f0: 6e5d 58bb 7559 893e 174d 333d 3d7f 363d
00000200: 4f98 0d3d 6ec4 87bd 316b 56bd 0db2 3dbb
00000210: dc83 403d c6a2 b8bd 1c07 783c 56a0 dd3c
00000220: a5ae acbd 7f4b 51bd 785f a9bd b3b3 303d
00000230: 036f 33bc e030 103d b0bb 6abd 089b dbbd
00000240: 1b51 cbba fe2a 37ba cd8e d1bd 9665 2b3d
00000250: 3509 10be d351 a5bc 4435 3cbc f4dd b3bd
00000260: 5a46 7abc a17f 0cbe 5f66 773d 8a42 3dbe
00000270: d3aa 9abd 0031 b9bd e157 f0bd a764 a1bd
00000280: aff9 78bc 55c8 cfbd dfc5 383d dcd6 52bd
00000290: 0627 093c fbb0 a7bc cb83 c13d df96 e7bb
000002a0: 6695 a8bd 074f 353c 84fc 663d fafd bbbd
000002b0: 5808 0abe e57e f2bb 445f a9bc 3d2d 323b
000002c0: 1b8a c8bd 7f0b b6b9 9de8 6dbc 0490 27bd
000002d0: e1ed 18be 08d0 83bd f582 87bd 9a14 963c
000002e0: b664 82bd d60c 1a3c 75f1 333c b9d7 0bbe
000002f0: 9e05 8bbc 2eeb df3c f43d 12be 7162 d03b
00000300: ae7b 81bd 9fbe f8bb 86e5 c5bd c7e1 1a3c
00000310: 18d6 42bd b732 a6bd 5dee f1bd 2fed 09be
00000320: 022f 0bbc 2763 06be 9ca3 cf3b 40c9 15bc
00000330: c233 8fbd ad3a c0bd f0d9 c1bb 34ad 51bd
00000340: 6225 1bbd 938e ff3b e53a 0abe 17fc eb3b
00000350: cdbe c9bc 31c0 f53c 6632 abbd e287 5ebd
00000360: e6c7 90bd 1102 bfbd d262 95bd 48a9 663c
00000370: f46b 4e3c 5f4a c2bd 8d3a 993c c235 a9bb
00000380: 1b93 03be 4439 b53c bcc9 053d 7982 02bd
00000390: c077 aabd 44b0 babd 67ad 0b3d 99aa ef3c
000003a0: 1fbb 11be a4f6 a2bd 495c 153d 4ac2 ffbd
000003b0: b1a9 8ebc 92f2 73bc 7dd3 88bc 5803 753b
000003c0: 2252 bbbd a445 77bc cf92 cbbd 231d ecbd
000003d0: c194 a8bd 6737 70bd 2aa4 abbd c3ea 1abd
000003e0: c484 0abe 2a0d e5bd 8ffd 49bd eb1f 80bd
000003f0: 9348 0fbe 485a a1bd a533 bebd 0ee2 d5bc
0.07168908 -0.72991055 0.0066772248 0.030511083 -0.006234921 -0.03191778 -1.1209006 -0.091469206
0.0186823 0.20052214 -0.010760099 -0.1468024 0.024332134 0.019734152 -0.009994019 -0.35445938
-0.2936644 -0.11040151 -0.121975645 0.50190526 -0.06648093 -0.1800075 -0.03926265 0.007230608
-0.08473234 0.17100602 -0.0266617 -0.22043437 0.10074016 -0.12632538 -0.041702796 0.049311798
-0.20381054 -1.8188642 -0.07191722 0.012592631 0.044898774 -0.31328642 -0.0029612123 -0.06488243
-0.23355211 0.08418064 0.03246161 0.091262706 -0.014261158 -0.098827384 -0.13312225 -0.18398958
-0.3397289 0.097607 -0.03723024 -0.020395286 0.31821245 -0.015062796 -0.2116362 0.04196266
-1.7451178 0.055147074 -0.10896388 -0.21892059 0.031367715 0.12602367 -0.05210442 0.038154926
0.5587182 0.12827015 -0.19382128 -0.046631217 -0.036756728 -0.5426574 -0.20001064 0.016689932
-0.19853154 0.0756257 -0.050381012 0.025039608 -0.016897848 -0.026032418 -0.17581323 -0.68636405
-0.015857298 0.19080058 -0.14591773 -0.11759664 0.035557196 -0.4485662 -0.39075437 -0.10450342
0.09176765 -0.02434672 0.2193852 -0.19986628 0.03253741 0.13650973 -0.06310218 -0.030353071
-2.8399498 -0.1725461 0.07229374 0.12420058 0.20352669 -0.13484669 -0.05534458 0.073449716
-0.3201621 0.046682194 0.0017389058 0.1839792 0.039506525 -0.28092983 -0.013957236 -0.04767843
-0.20914166 -0.014699475 -0.13873507 -0.0028005298 0.23158397 0.05699177 -0.29663637 -0.2223877
-0.80889255 -0.045524288 0.23071927 -0.0022978936 -0.0033014673 0.26826063 0.04377469 0.044554938
0.03456908 -0.06629263 -0.05234832 -0.0028945238 0.04700075 -0.090154216 0.015138414 0.027053993
-0.08431748 -0.05109739 -0.08270162 0.043140125 -0.01095176 0.03520286 -0.0573079 -0.10722929
-0.0015511842 -0.00069873023 -0.10232315 0.041844927 -0.14066012 -0.020180618 -0.011487309 -0.087825686
-0.015275562 -0.13720562 0.060400363 -0.18482414 -0.075521134 -0.09042549 -0.117355116 -0.07880526
-0.015196248 -0.10145632 0.04511058 -0.051474437 0.00837112 -0.020470133 0.09448966 -0.007067546
-0.082316205 0.011066205 0.05639316 -0.091793016 -0.13479745 -0.007400381 -0.020675309 0.0027187609
-0.097919665 -0.0003472231 -0.014520791 -0.04090883 -0.14934494 -0.06436163 -0.06616775 0.01832037
-0.06366865 0.009402474 0.010982861 -0.1365651 -0.016970452 0.027333822 -0.14281446 0.0063593914
-0.06322418 -0.007591083 -0.09662919 0.009453244 -0.047567457 -0.08115142 -0.11813042 -0.13469385
-0.008495094 -0.13123761 0.0063366424 -0.00914222 -0.06992294 -0.093861915 -0.0059158728 -0.05119057
-0.037877448 0.0077989786 -0.13499029 0.0072016823 -0.024627114 0.02999887 -0.08359222 -0.054328807
-0.070693776 -0.09326566 -0.07294239 0.014078446 0.01259898 -0.094868414 0.018704677 -0.005163879
-0.12849085 0.022122033 0.032663092 -0.03186271 -0.08323622 -0.09115651 0.034100916 0.029256152
-0.14231537 -0.07957199 0.036464963 -0.124882296 -0.0174149 -0.014889376 -0.016702408 0.0037386026
-0.09146525 -0.015092287 -0.09940111 -0.11528995 -0.082314976 -0.058646586 -0.08380921 -0.037821542
-0.13527209 -0.111841515 -0.049314078 -0.06256088 -0.13992529 -0.07878548 -0.09287194 -0.026108768

mlp.2.bias f4 [128]
00000000: 780f 9b3e 0a28 39bd 52b1 c6bc a044 34bd
00000010: 1a6f ebbc bb5e 00bc 842e 7f3e ede1 0d3d
00000020: f574 f4be 0d73 a4bd e935 9d3e 7903 04be
00000030: c387 8a3e b9ad cfbd 164e 7dbd 4563 ba3a
00000040: 6729 a6bd 8b8c 5cbc 3a63 87bd 1c01 a13e
00000050: d9fe a9bd d5f0 ae3e fb42 6fbd 9266 32bd
00000060: 1c89 f1bd 2d83 94bd e137 dc3c cc92 31bc
00000070: 8778 3abd 459f 133e 496b 3bbb 258f 0ebe
00000080: d0e6 30be dd7e 3abd 3f1d acbd d300 b9bd
00000090: af01 2cbd 772c 2abb 1ba3 70be 6480 a53e
000000a0: e1ad ed3b 42c6 c63e 4dce e0bd 3178 23bd
000000b0: f730 b2bd d446 b3bd e06b 01be ba72 16be
000000c0: 3207 073f 312c b1bd 3f0e 293e 2d90 693e
000000d0: cbb3 403e 2ef6 d4bd 2fb2 5cbd 6d5e ee3e
000000e0: e496 cbbd 7e0a 92bd 2483 7cbd a168 d9bd
000000f0: 1422 40bd fe6c 86be 11d5 063f 6699 51bd
00000100: aebe 903c b1d7 d63e f2eb e23e d20b c5bd
00000110: 4d3c 83be 5c6a 6c3e f398 16be be46 c93e
00000120: a33d b8bd af3b ccbd d7a3 4abd 3669 f83b
00000130: 7b95 91be 11fa acbd 8848 1b3f fe39 05be
00000140: 7ebe 06be 1477 a7bd 19c1 ab3e 6aad 02be
00000150: 9e39 04bd 9aff 09be 8706 df3d 37f1 ddbd
00000160: 7f24 0d3e 0831 cbbd 41a8 23bd cf8b aebd
00000170: 89fb 273e f3a8 a5bd fac7 613e f593 f2bd
00000180: 8fd3 043e 25c6 9fbd ae7f 043e 1a70 ecbd
00000190: c995 4c3d e0c5 713c 4136 05be 42f7 04be
000001a0: 21ba 3abd a332 ebbc ffca 02be 0f6f 833d
000001b0: 2b41 10be 7929 8dbd c366 843c 2377 9ebd
000001c0: 4f62 43bd 2e62 bebd fe4a 30bc 4cd5 c23e
000001d0: f11e c03e 1974 07be 8855 c23a 7d94 b83c
000001e0: 404a fabd c158 3cbe 8579 22bd 94d4 0ebd
000001f0: 06fa acbd 7d0e afbc 697a 92be a48d cebd
0.3028524 -0.0452042 -0.024254475 -0.04401076 -0.0287395 -0.0078350855 0.24920088 0.034639288
-0.4774548 -0.08029757 0.30705193 -0.1289195 0.27056703 -0.10140557 -0.061842047 0.0014220258
-0.081133656 -0.013461242 -0.06610723 0.3144616 -0.083005615 0.34168115 -0.058413487 -0.04355485
-0.1179373 -0.07251582 0.026882114 -0.010838222 -0.0455251 0.14416225 -0.0028597882 -0.13921793
-0.17275548 -0.045531143 -0.08404016 -0.0903336 -0.041993793 -0.0025966445 -0.2349972 0.32324517
0.007253394 0.38823134 -0.10976849 -0.039909545 -0.087007456 -0.08753744 -0.12638807 -0.14692202
0.52745354 -0.08651007 0.1650934 0.22808905 0.18818586 -0.103985175 -0.053880867 0.46556416
-0.099408895 -0.071309075 -0.061648503 -0.106156595 -0.0469075 -0.2625503 0.52668864 -0.051171683
0.017669048 0.41961434 0.44320637 -0.09621395 -0.25631943 0.23087448 -0.14706783 0.39311785
-0.08996131 -0.09972321 -0.049472656 0.0075809015 -0.28434357 -0.08446134 0.6065755 -0.13010404
-0.13158605 -0.08177009 0.3354576 -0.12761465 -0.03228151 -0.1347641 0.10889917 -0.10837024
0.13783453 -0.09921461 -0.03995538 -0.0852276 0.16404547 -0.08088865 0.22048941 -0.11844627
0.12971328 -0.07801465 0.12939331 -0.11544819 0.049947534 0.01475665 -0.13008977 -0.12984946
-0.045587663 -0.028710669 -0.1277275 0.06417667 -0.1408736 -0.06892676 0.016162282 -0.07737567
-0.047701176 -0.0929607 -0.010760067 0.38053358 0.37523606 -0.13227881 0.0014826516 0.022531742
-0.12221193 -0.18393232 -0.03966667 -0.0348707 -0.08446126 -0.021369213 -0.28609017 -0.100856096

mlp.4.weight f4 [3, 128]
00000000: 70e8 d8bd ff5b 2e3d 16ef 273e 9e20 debc
00000010: 1471 e23c 977b 823d 296f cdbc 637d 773d
00000020: 0aa3 023e 4ccc cd3d 0fbe ccbc 487c 2cbd
00000030: af77 503e 482a d4bb f52a b83d 8e15 3dbd
00000040: a083 023d 334d 523d 61bd 1d3d e151 8cbd
00000050: d9bd 713d 3a15 4d3e 8961 343d bae2 853d
00000060: 87ba e9bc 14ff 1f3d f3f6 a03d 92c3 2e3d
00000070: a605 b43c e55c 513e 37cd 533d 13ad f53c
00000080: 76a2 e6bd abe5 683d db8b 12bd a808 cfbb
00000090: a4f1 b73c 688d dabc 878a 37be d497 49bc
000000a0: 35dd f5ba d1bb 193e e486 2c3d 21b5 393d
000000b0: 9bc9 023d 0d08 00be 89ee ae3d 35b2 d13d
000000c0: 6a6e 4bbc 1af5 d43c c61e 833e e121 bdbd
000000d0: 2bf7 c3bd 3b85 a63d a730 a93c 367a d73c
000000e0: 4d94 b83c d24f 23be 93d7 b83d 6be0 7d3d
000000f0: be33 1f3d 9cc8 a3bb f523 ec3c e5e7 b33d
00000100: 437e 62bd 829a 35bd ce84 023e 8760 8c3d
00000110: eb66 033e 6ea8 4b3e fef0 843d 3c57 a43b
00000120: 76dd 963c 372b 553a c03a 6f3d 5219 0f3d
00000130: b9a7 71bd 70de f73c f5a2 e23c 621e 1d3d
00000140: 85c9 ac3d 995f 5e3d 0033 e3bd 5b63 003c
00000150: e04b d83c 806f adbd 3d37 a2bc 89ff eebb
00000160: ba45 a0bd ff55 91bd a505 483d 47f0 5fbc
00000170: b8aa 1b3d ca36 773d 1096 f53c 07fd a1bc
00000180: 264f 2ebd 9cf9 773c 5de1 133e 4c6e 803d
00000190: c6bb 81bc 16fb 3bbe 7b26 763c 86b4 5b3c
000001a0: 7d40 8a3d 87fc 2c3b e93c 833b 83d8 7c3d
000001b0: 8ace 90bb 234c 943c 7c29 9e3c d87b 063d
000001c0: bf59 0d3d ba64 733d 0c00 98bb eb96 8ebe
000001d0: 7090 863e a4c0 03bd 61bc e23d aba7 efbc
000001e0: f1f3 c73c 15d8 84bc 7f1e 7dbb 6728 a0bc
000001f0: 0756 09bd b6bf 86bb 3309 eebd e349 8ebd
00000200: 7ba7 bfbe cc02 7dbc b069 22bd 2924 243d
00000210: 2ade 6c3c 6d23 d73d 1209 053e 031a a63c
00000220: a524 133e 37ad cdbc 2b46 b1be bd19 a93c
00000230: db0a 5e3d ea64 0f3e 8113 69bc 868c f53c
00000240: 82e8 063d a559 4cbd 2456 cbbc d714 ae3d
00000250: 1151 b6bd 2047 913b ccbb 253d fa75 263d
00000260: bf35 c53d 56bb 3a3c 7013 0bbd 22da f83d
00000270: 4b9a 8d3d 4958 4c3e 24e4 5bbc 1c5d 30bd
00000280: a9ea 5cbe 1768 683b b6ef be3c 7cf4 8f3d
00000290: c636 c63d 5b0e de3d 464f fb3c b473 77be
000002a0: bd5a 0d3d bd99 343d d34b eb3c 26ed 813c
000002b0: 8441 91bd 9d1f 893d 5649 623d fa43 f73c
000002c0: 8dee 90bc 59ac 823d 8b81 e5bd c337 9fbe
000002d0: a432 adbd 0238 fb3d 5128 883b 76ce 0abd
000002e0: 2f33 b73d 9207 fa3d e017 bfbc a68b 71ba
000002f0: 0bb0 943d 0d63 4c3d 324e aebd bf91 e93b
00000300: ece7 063e 1fc7 0abb 7f71 083d 13a0 92bc
00000310: 65a3 bcbd 613e a43d e2c4 133e a109 9cbe
00000320: c3e5 3dbd 0d4d ab3c ae28 10be 9d74 003b
00000330: fcdd 45bd 00eb 323c a116 85bd 2a93 07bd
00000340: c866 803d 06e5 713d ecd3 833b f9a9 653d
00000350: 6365 7b3d 0bf3 ac3c d5d0 e5bd 788a b23c
00000360: 75c7 83bd c392 843d b243 b63d 42a0 413b
00000370: 2ffa e8bd 5068 f83d 8ea8 013d 6038 97bb
00000380: e50d 1bbf c399 053d 09c8 3c3e 35bb b53b
00000390: 4083 cbbc f8de a03d 8399 a1bc f717 b7bd
000003a0: 93c3 0b3e ff3e 223c 6fc4 1bbd c764 3bbe
000003b0: a932 f5bb cf80 553d fe46 b53c 225a 493d
000003c0: c5f7 cb3d 4d66 acbc 86d6 fd3c 1a9d 0dbd
000003d0: 5b29 273e 41d2 a33c 456e 933c 2098 ed3d
000003e0: 6df0 95bb b36c e8bd 47b9 5b3c 1e23 c0bc
000003f0: e603 19bd 3fb9 1ebd 579e 92bd 3b5f 263c
-0.10591209 0.042568203 0.16399798 -0.027115162 0.02764181 0.06371229 -0.02507742 0.060422312
0.12757507 0.10048732 -0.02499297 -0.04211071 0.20358156 -0.006474767 0.089925684 -0.046163134
0.03186381 0.051343154 0.038510684 -0.06851555 0.059018943 0.20027629 0.04403833 0.06537385
-0.028531326 0.03906162 0.07859602 0.04266698 0.02197535 0.20445593 0.05170938 0.029989755
-0.11261456 0.056859653 -0.035777908 -0.0063181706 0.02245409 -0.026678756 -0.17923938 -0.012304265
-0.0018757941 0.15013053 0.04212083 0.045338754 0.031930547 -0.12503071 0.08541591 0.102390684
-0.0124164615 0.02599578 0.25609416 -0.092349775 -0.09568628 0.081308804 0.020653082 0.026303392
0.022531653 -0.15948418 0.090254925 0.0619816 0.038867705 -0.0049982797 0.02882574 0.08784465
-0.055296194 -0.044336803 0.12745973 0.06854349 0.12832229 0.1988847 0.06491278 0.005015282
0.018416148 0.00081317447 0.058405638 0.034936257 -0.058997843 0.030257434 0.027665595 0.038359053
0.08436874 0.054290388 -0.11093712 0.007836188 0.026403368 -0.084685326 -0.01980173 -0.0072936458
-0.07825799 -0.070964806 0.048833508 -0.013668126 0.038004607 0.060354985 0.029978782 -0.019773973
-0.04255595 0.015135195 0.14441438 0.062710375 -0.015836608 -0.183575 0.015023823 0.013409739
0.067505814 0.0026395635 0.004005064 0.06172992 -0.0044191526 0.018102711 0.01930689 0.03283295
0.034509417 0.059422232 -0.0046386775 -0.27849516 0.26282072 -0.03216614 0.11071087 -0.029254755
0.024408313 -0.016216317 -0.0038622913 -0.019550515 -0.033529308 -0.004112209 -0.11622848 -0.069476865
-0.37432465 -0.015442561 -0.039651573 0.040073548 0.014457265 0.10504804 0.12991741 0.020276075
0.14369448 -0.02510701 -0.34623846 0.020642156 0.05420957 0.1400334 -0.0142258415 0.029974233
0.03293658 -0.04989018 -0.024821348 0.08500069 -0.08902181 0.0044335276 0.0404623 0.040639855
0.09629392 0.011397203 -0.033954084 0.121509805 0.06914195 0.19955553 -0.013421092 -0.043057546
-0.21573891 0.0035462433 0.023307662 0.070290536 0.09678416 0.10842582 0.030677449 -0.24165231
0.034510363 0.04409193 0.02872268 0.015860151 -0.07092574 0.06695483 0.05524572 0.030183781
-0.017691875 0.06380529 -0.11206349 -0.3109723 -0.084569246 0.12266542 0.0041551967 -0.033888303
0.08945309 0.12208475 -0.023326814 -0.00092142296 0.0726014 0.04989915 -0.08511008 0.00712797
0.13174409 -0.0021175814 0.033311363 -0.017898595 -0.092108525 0.0801971 0.14430574 -0.30476096
-0.046361696 0.020910764 -0.14078018 0.0019600757 -0.048307404 0.010920286 -0.06498457 -0.03309933
0.06269604 0.059056304 0.004023066 0.0560703 0.061375987 0.021111986 -0.11221472 0.021794543
-0.06434528 0.06473305 0.088996306 0.0029544984 -0.11375844 0.12129271 0.031654887 -0.0046148747
-0.60568076 0.03261734 0.18435682 0.0055459985 -0.024842858 0.07855028 -0.01972652 -0.08940118
0.13648824 0.009902715 -0.03802913 -0.18300162 -0.007482846 0.052124795 0.022128578 0.049158223
0.09959368 -0.021044875 0.030986082 -0.03457365 0.1632437 0.019997718 0.017996917 0.11601281
-0.00457578 -0.11348858 0.013410873 -0.023454245 -0.037357233 -0.038750883 -0.07159107 0.010154541

mlp.4.bias f4 [3]
00000000: d48e 123e 2628 0cbd 9e2c 11bf
0.14312297 -0.034217976 -0.56708705
