EUSIPCO/Nested Array/saved_models/rnn_10.0dB_nested_5.pth (torch, 87922 bytes, 14 tensors)

bn.weight f4 [16]
000000 db 76 5f 3f 19 44 50 3f 64 9a 89 3f fa 5c 66 3f
       0.87290734 0.8135391 1.0750241 0.8998562
000010 30 16 1d 3f 06 77 40 3f 1f 58 ed 3e c9 c8 d1 3e
       0.6136198 0.75181615 0.46356294 0.409735
000020 a7 81 8a 3f 15 4b 92 3f f9 bf 6f 3f e5 55 75 3f
       1.0820817 1.1429163 0.936523 0.9583419
000030 14 04 56 3f 3e 35 f0 3e b0 a6 bc 3e a9 4d 00 3f
       0.8359997 0.4691562 0.36845922 0.501185

bn.bias f4 [16]
000000 e5 13 05 bf 5e 1e 69 3e ea 7f 1e be 53 5e cc 3e
       -0.5198348 0.2276549 -0.15478483 0.39915714
000010 0e d0 75 be 1e d4 4e 3e dd 95 9a bd 4a 55 cd 3d
       -0.24005148 0.20198104 -0.075481154 0.10026033
000020 ab 59 d2 3d 38 44 43 be 08 07 97 bc 44 78 4b be
       0.10271009 -0.19068992 -0.01843597 -0.19870096
000030 34 8d de bd 4d e8 b7 bd 09 b6 46 3e 5e 92 1d be
       -0.10866776 -0.08979855 0.19405378 -0.15387866

bn.running_mean f4 [16]
000000 d7 8c 91 3a a6 ab 60 ba 11 1a 9f b9 83 5c bd ba
       0.0011104596 -0.00085704995 -0.00030346264 -0.0014447126
000010 f4 bc bc b8 15 4c ca 3a 1e 0c 5e 3a 1c df f4 3a
       -8.999734e-05 0.0015434051 0.00084704335 0.0018682214
000020 50 85 3b ba 75 e8 1b ba 86 75 22 3a 6d 6b 20 39
       -0.0007153349 -0.00059474196 0.0006197322 0.00015298808
000030 c2 ff c5 39 ce e1 a1 3a 05 66 b7 ba d3 0f ab b8
       0.00037765322 0.001235062 -0.0013992196 -8.156863e-05

bn.running_var f4 [16]
000000 1a 75 c6 3f 78 53 c6 3f 36 35 c6 3f 48 27 c6 3f
       1.5504487 1.5494223 1.5484989 1.5480738
000010 98 80 c6 3f 94 7b c6 3f c1 52 c6 3f 56 e3 c5 3f
       1.5507994 1.5506463 1.5494004 1.5460002
000020 b5 1f c6 3f f1 19 c6 3f 79 6e c6 3f 86 70 c6 3f
       1.5478426 1.5476667 1.5502464 1.550309
000030 83 28 c6 3f ec 5f c6 3f 94 73 c6 3f 2d 61 c6 3f
       1.5481113 1.5498023 1.5504022 1.5498406

rnn.weight_ih_l0 f4 [48, 16]
000000 99 0a cf bc 09 89 a7 bd 4d 38 77 3f d6 70 af bd
       -0.025273608 -0.08180434 0.96570283 -0.085664436
000010 e0 f5 fd be 65 23 8e bd cf 98 6e 3d 7b a0 de 3d
       -0.4960165 -0.06940345 0.0582512 0.10870453
000020 1c 93 2e 3f 03 90 48 be 57 eb 93 3d f4 a6 1c 3e
       0.6819322 -0.19586186 0.07222622 0.15298063
000030 bb 57 e8 bd 52 27 09 bf 97 25 bc be 68 91 cb 3e
       -0.11344858 -0.53575623 -0.3674743 0.39759374
000040 b0 8e d0 3e 28 9e 42 bf dd e3 5a be 2a b2 9a bf
       0.40733862 -0.7602258 -0.21375985 -1.2085621
000050 10 04 b5 be 6a 9d b8 bd e4 3b a6 bd 30 f4 56 3f
       -0.35354662 -0.09014399 -0.08116892 0.8396635
000060 05 19 45 3f e5 18 38 3f 62 10 21 3f 13 c6 e4 3e
       0.769913 0.71912986 0.62915623 0.4468237
000070 1e 03 28 bf 00 a5 1f 3d d8 dc 69 bd 68 a1 08 3f
       -0.65629756 0.038975716 -0.05709538 0.53371286
000080 ed 45 b4 be f2 4a 9a 3f 1c 89 75 bf 4c 38 0d bd
       -0.352096 1.2054121 -0.9591234 -0.034477517
000090 88 bd a6 3e 17 28 2c bf 88 06 e2 3e 4d e5 a1 be
       0.32566476 -0.6724867 0.44145608 -0.31620255
0000a0 5b b9 58 bf 2f f4 2e 3d 23 f8 cd 3e 6e b6 14 bf
       -0.8465783 0.04271334 0.40228376 -0.58090866
0000b0 51 7c 05 3e e3 61 84 3f 7c 29 96 be ac 62 c6 3d
       0.13035704 1.0342373 -0.29328525 0.09686789
0000c0 23 b9 e9 bc 04 99 a4 3e 84 33 84 3e 30 de 0b 3f
       -0.028530663 0.32147992 0.25820553 0.54635906
0000d0 12 dd a1 3e 4c b4 0f bd b9 2a 10 3e e4 dd 1c be
       0.31613976 -0.035084054 0.14078797 -0.1531902
0000e0 e6 13 b0 be 7d 05 06 bf fb e8 69 bf 62 0c c5 3e
       -0.3439018 -0.52352124 -0.91371125 0.3848601
0000f0 8f 28 2d bd c6 f4 71 3e 7a 79 05 be d0 df c5 bd
       -0.042275008 0.2362853 -0.13034621 -0.096618295
000100 7f 52 ec be e9 bc 80 3e e4 cd 37 bd 39 d7 0f 3e
       -0.4615669 0.25144127 -0.044874087 0.14046945
000110 ce a3 da 3e 1e eb 44 bf db 7f 89 3f b8 f0 be bf
       0.42703098 -0.7692126 1.0742143 -1.4917212
000120 fe fd 16 be 2f 19 22 3f 1f d6 bb 3e 59 b3 a9 be
       -0.14745328 0.6331968 0.366868 -0.33144644
000130 c9 5b de 3c fb 80 e7 3d 89 b5 00 bf c4 74 2a be
       0.027143376 0.11303898 -0.50277 -0.16646105
000140 a5 ed cd 3f 6b 5c 82 3c 40 86 8e bf 59 a8 34 3d
       1.6088148 0.015913209 -1.113472 0.04410586
000150 d1 74 f8 3e 9c a0 2a bf 36 4f f0 3e 49 55 1a bf
       0.48526624 -0.6665132 0.46935433 -0.60286385
000160 24 db a9 3e 0e 82 2d bf 74 09 9d ba 25 2a c9 3f
       0.33175004 -0.6777657 -0.0011980967 1.5715986
000170 82 ac 2a be 30 f0 1a 3d 45 45 cb 3e 22 0f 71 bf
       -0.16667369 0.037826717 0.39701286 -0.94163716
000180 c8 25 2d bd 21 64 3e bf 69 22 a0 3e 07 b2 29 3b
       -0.04227236 -0.74371535 0.31276253 0.0025893466
000190 50 68 18 bf b8 8f 82 3e 21 a2 92 3e f4 5e 0a bf
       -0.5953417 0.25500274 0.2863932 -0.54051137
0001a0 2b f0 df bf ad 67 12 3f 8b e1 d2 3e b2 c9 57 bf
       -1.7495168 0.57189447 0.411877 -0.8429214
0001b0 65 a7 1f 3e b2 47 fa 3e 01 21 48 3e df 89 94 bf
       0.155912 0.48882824 0.1954384 -1.1604575
0001c0 d8 71 70 3e 26 22 1f bf 76 23 ac be f0 03 17 be
       0.23480928 -0.6216148 -0.33620805 -0.14747596
0001d0 7b a7 e9 be 96 41 d2 bd 5a 08 09 3e 9b c1 bb bd
       -0.4563559 -0.10266416 0.13382092 -0.09167787
0001e0 70 a2 1b be c7 7f 2d 3f 54 8b 24 bf 84 01 05 3f
       -0.15198684 0.677731 -0.642751 0.5195544
0001f0 52 32 8f 3e fb ba db 3e b5 1a 96 be 62 f0 34 be
       0.2796808 0.42916092 -0.2931725 -0.17669824
000200 b7 e4 81 bf 0b 2c 8a 3f c5 34 28 be 02 35 77 bf
       -1.0147923 1.0794691 -0.1642638 -0.9656526
000210 bc 60 5f be 8a cf 15 3e 3b 64 f6 be 8f 0b 84 3f
       -0.21814245 0.14629951 -0.48123345 1.0316027
000220 a5 30 29 bf ff 94 1f 3b 92 54 62 3e 4d e6 9b 3f
       -0.6608985 0.0024350283 0.22102574 1.2179657
000230 db 01 bb bf c3 f4 c9 3f 51 11 39 bf 0e b3 ed 3e
       -1.4609941 1.577782 -0.7229205 0.4642567
000240 a7 07 aa bf 12 65 3d 3f 31 6f b1 be 60 08 08 be
       -1.3283585 0.73982346 -0.34655145 -0.13284445
000250 10 6b 85 3e 0d 4c 10 3e 08 f5 39 bf 8c b4 05 3f
       0.26058245 0.14091511 -0.72639513 0.5222862
000260 4a d2 e3 3e cc 4a 18 3f f8 e3 21 bf 37 45 5a 3d
       0.44496375 0.5948913 -0.6323848 0.053288665
000270 ed 28 2f 3f 22 e3 43 3d 08 52 66 bf c3 e8 77 3f
       0.6842182 0.047824033 -0.8996892 0.9683954
000280 55 20 a9 be 4d 8b 24 3c 36 71 8a bc 10 f5 5a 3e
       -0.3303248 0.0100429775 -0.016899686 0.21382546
000290 6b 65 01 3e 46 ba 53 3e df e2 51 3d 85 b5 5b 3c
       0.12636344 0.20676526 0.05124175 0.013409977
0002a0 d9 db 4f bd 41 2b 57 bd d5 37 59 bd e0 da 2e 3e
       -0.050746772 -0.052531485 -0.05303176 0.17075682
0002b0 29 36 63 be 8e c5 8a be f4 d4 e9 3e b0 fb e2 bd
       -0.22188629 -0.27103847 0.45670283 -0.11083162
0002c0 02 ef 18 3e b6 f2 3e bf 79 99 b2 3f 65 bd a3 bc
       0.14934924 -0.745891 1.3953086 -0.019987771
0002d0 fc f0 08 bf f3 68 31 3e fb f8 27 bf 45 76 8d 3f
       -0.5349271 0.17325191 -0.6561429 1.1051718
0002e0 df 9a d4 3e 86 cb dd 3e 91 8f 47 3f 38 5d 9d bf
       0.41524407 0.4331934 0.7795344 -1.2294073
0002f0 60 0a 43 3d a8 e3 af bc 3a d9 db 3d cc bf a5 be
       0.047617316 -0.02147086 0.10734792 -0.32372892
000300 7d f2 bc 3f 80 c5 2d bf 29 20 1a 3e 9d 9c f6 be
       1.4761502 -0.67879486 0.1505133 -0.4816636
000310 10 18 f7 bc e3 3c 11 bf f1 60 25 bd cb 2e 2b be
       -0.030162841 -0.5673353 -0.040375654 -0.16717069
000320 40 37 d4 bc 94 71 74 3f cc 15 a9 be 33 51 9d bc
       -0.025905252 0.95485806 -0.33024442 -0.019203758
000330 c2 6b 58 3e c5 75 63 be d0 1f 42 3f 93 0e 3b be
       0.21134856 -0.22212894 0.7582979 -0.18267278
000340 d9 5c c1 3e a8 74 f7 3d d9 03 c1 bd 78 aa bd be
       0.3776615 0.12082797 -0.09424562 -0.3704412
000350 83 49 f1 3e bd 68 e6 be 2e 28 a1 3e 92 f2 5c 3e
       0.47126397 -0.45001784 0.31475967 0.21576908
000360 31 53 6b 3e 0f 17 15 3e e4 cf e0 3e a0 7a 22 3e
       0.22980954 0.14559577 0.43908608 0.1586709
000370 00 4c 08 bd e4 ad 53 3f f9 35 d1 be 6f 46 c2 3e
       -0.033275604 0.8268721 -0.4086149 0.37944362
000380 04 5a f7 3d 30 e4 91 bf fb 68 88 be 65 da 34 bf
       0.12077716 -1.1397762 -0.26642594 -0.70645744
000390 7a 52 58 3f 8b ec 80 bd 58 73 40 3e 0f c7 da 3c
       0.8450085 -0.06295117 0.18794 0.026706247
0003a0 fc d2 52 3e e6 7d 60 3e 18 46 49 be d5 53 8d bf
       0.20588297 0.21923026 -0.19655645 -1.1041209
0003b0 97 17 4d bf 02 8d 74 be 12 dc ea be e5 59 40 be
       -0.8011412 -0.23881915 -0.45871025 -0.18784292
0003c0 08 e1 cf 3e a1 2f c1 be 27 12 9a 3e 37 be 8d be
       0.40601373 -0.3773165 0.30091974 -0.27684185
0003d0 f2 42 b5 3e ec f2 24 bf 4b 9d 56 3f d5 07 b1 bf
       0.35402638 -0.6443317 0.8383376 -1.3830515
0003e0 9b 10 0c bf d4 f8 d2 3e 0f ed 5a bf 2d 2e 63 3f
       -0.5471284 0.41205466 -0.8551797 0.88742334
0003f0 d9 06 d7 be 4c ba d2 3e c3 0d 93 bf 1b 96 a9 3e
       -0.41997412 0.41157758 -1.1488575 0.33122334

rnn.weight_hh_l0 f4 [48, 16]
000000 23 38 87 3e a9 66 eb bd e8 2b b4 3d e6 00 52 bf
       0.26410016 -0.1149419 0.08797437 -0.8203262
000010 53 f7 ba bd 62 c8 ef 3d 61 6f 1e 3e 4c 0e c3 be
       -0.091292046 0.11708142 0.15472175 -0.38096845
000020 e7 7c 77 be 22 18 3a 3e a8 af 70 3e 04 5f 9a 3f
       -0.2416874 0.18173268 0.23504508 1.2060246
000030 e1 b0 89 3d 02 ce f2 bc 81 98 3e bf bd 88 95 bd
       0.0672319 -0.029639248 -0.7445145 -0.073014714
000040 46 ab 13 bd b9 ab c8 bb b8 5c 7e 3e f1 54 5e bf
       -0.03605201 -0.0061239866 0.24840057 -0.8684836
000050 f0 72 fb 3e 7d 6c bf be b1 68 95 be 5a f7 4c bd
       0.49111128 -0.37387457 -0.29181436 -0.05004058
000060 e4 8e da 3e 03 0d 0f 3e 97 29 04 be 39 06 36 3e
       0.42687142 0.13969807 -0.1290649 0.17775811
000070 53 6c de be 7f 93 30 3e e3 8f 9e be a0 bb 18 bf
       -0.4344202 0.17243765 -0.30969152 -0.59661293
000080 3d ae dd bc 12 40 41 3e 2f 0b fd 3d ea 29 d9 3e
       -0.027060622 0.18872097 0.12355649 0.4241479
000090 1e 30 9e 3d b4 f8 21 be 61 de f2 be cc 88 f1 be
       0.077240214 -0.15817529 -0.47435287 -0.4717468
0000a0 0f 24 31 3f e7 db 29 bf 63 4b 87 3e 99 95 2e 3e
       0.69195646 -0.6635117 0.26424703 0.17049254
0000b0 00 75 64 3f 18 c1 67 be db 4e a4 be 09 b6 e7 3e
       0.8924103 -0.22632253 -0.32091412 0.4525607
0000c0 20 01 5f 3e 33 06 ec be bd c1 5d bf 53 5a b1 be
       0.21777773 -0.4609848 -0.86623746 -0.34639224
0000d0 48 e1 ad 3d 13 1c 0e be cd 62 df bd f1 4f 6e bf
       0.084902346 -0.13877897 -0.10907517 -0.9309073
0000e0 0d de fa 3b ea 11 be be 44 88 77 3d 2a 97 93 be
       0.007655865 -0.37123042 0.060432687 -0.28826267
0000f0 d8 11 b4 3e f7 41 af bb 47 80 20 bf 7c b9 8e 3e
       0.35169864 -0.00534844 -0.62695736 0.27875888
000100 0d d8 12 3d 7f a0 43 bf 8c 20 c6 3e aa be c9 bd
       0.035850573 -0.7641677 0.38696706 -0.098508194
000110 9f 32 7f 3d 6c c7 07 be ce 46 79 bf 8c 68 8a bf
       0.062304135 -0.13259667 -0.97373664 -1.0813155
000120 ab eb d8 3e 15 50 31 3c de bd d0 3e 56 84 52 3f
       0.423673 0.010822316 0.40769857 0.8223318
000130 19 00 8d 3f 58 b5 0d be a3 af 2b bf 90 fc 94 be
       1.1015655 -0.13838708 -0.67064875 -0.2909894
000140 3c bd 47 3f c4 0c 96 be 7e 41 21 be c0 da 02 3e
       0.78023124 -0.29306614 -0.1574764 0.12778759
000150 2c 2f 84 3d 5b f6 d5 bf 33 b5 4b bf 14 62 4d bf
       0.0645431 -1.6715807 -0.79573363 -0.8022778
000160 4c 07 0d be ce 63 e4 be 86 9d 55 bc 8c fb ba be
       -0.13772315 -0.44607395 -0.013038045 -0.3652004
000170 67 63 17 3e ce 5f f3 be 47 81 b8 bc 41 76 3f 3e
       0.14784013 -0.4753403 -0.022522582 0.18697454
000180 01 7e 24 3f 15 78 43 bd d9 48 b2 3d 18 e9 17 bd
       0.64254767 -0.04772194 0.08705301 -0.03708753
000190 4b 67 7f 3e 16 f8 14 bd 40 5e 1c bf 24 0b 3a bf
       0.24941747 -0.036369406 -0.61081314 -0.7267325
0001a0 6d 1a 91 3e c7 fd 03 be 66 b3 f6 3d 3e 21 22 3f
       0.28340474 -0.12889777 0.12045936 0.63331974
0001b0 15 e5 38 3e 40 ea e4 3c 03 ec 51 be d1 8f 4a be
       0.18056138 0.02794373 -0.20500188 -0.19781424
0001c0 ef 22 23 bf 41 11 1a be 2e 03 b8 3f 6b 93 c8 bf
       -0.6372518 -0.15045644 1.437597 -1.5669988
0001d0 69 15 27 bf fe ab 76 be 17 43 2b 3e 3a c8 a6 3e
       -0.65267044 -0.24089047 0.16724811 0.32574636
0001e0 a8 85 d2 bc db e4 a5 3e 79 0f e9 3e 9f a3 71 3d
       -0.025698498 0.32401165 0.45519617 0.05899393
0001f0 30 9f be 3e 68 0f a5 be c1 99 1a bf ec 8b 5d bd
       0.37230825 -0.32238317 -0.6039086 -0.054088518
000200 72 86 81 be 2e 52 75 be 9b 47 9f 3f 0c e3 1e bf
       -0.25297886 -0.2395713 1.2443727 -0.62065196
000210 b8 f5 e3 be 24 8b 4f bc e2 76 b8 bf bb 48 da be
       -0.44523406 -0.012667451 -1.441128 -0.42633614
000220 ee 41 6b 3f 76 dc a4 3d fa 6c 18 3d cb d3 01 3e
       0.91897476 0.08049862 0.037213303 0.12678449
000230 0f 1a 27 3f 67 29 a4 be 38 94 28 bf 65 de ba 3d
       0.6527414 -0.32062837 -0.65851164 0.0912445
000240 f7 d4 91 bd 39 01 c6 be 89 6c bc bd 34 6b 5e bf
       -0.07120698 -0.38672808 -0.09200389 -0.8688233
000250 7d dc 16 3f 2d 1f 1f bf c1 b1 8b bf 76 9e c9 be
       0.5893019 -0.62156945 -1.0913621 -0.3937871
000260 2d c8 ce 3e bb dc a6 be 78 f4 38 3e 6e 08 6f 3f
       0.40387097 -0.3259028 0.18062007 0.9337224
000270 25 de 73 3e 7c cb c2 3e 2f a4 84 bd ed 49 86 3e
       0.2381521 0.3804587 -0.06476628 0.26228276
000280 2e 51 ac be a1 62 ef 3c 3e d3 ed 3e 51 cb 4c 3f
       -0.33655685 0.029221835 0.46450227 0.79997736
000290 55 da a0 bd c9 dc 96 ba 09 9b 03 bf 95 4a 3a 3e
       -0.078541435 -0.0011509891 -0.5140844 0.18192513
0002a0 95 10 a2 be 14 d4 95 3d f5 6e 2d bf 4c e6 10 bf
       -0.31653276 0.07315841 -0.6774743 -0.56601405
0002b0 43 9c c0 be a9 2d 4e bf 04 5b 6b bd 53 60 f9 be
       -0.37619218 -0.8053842 -0.057459846 -0.48706302
0002c0 d7 1a 3f 3f 25 23 99 bd 16 92 8c be 51 4b 15 3f
       0.7465033 -0.074774064 -0.27455205 0.5831805
0002d0 33 f2 0b bf 69 45 eb bb 8f c6 4f 3e f3 99 a7 be
       -0.5466644 -0.007179905 0.20290588 -0.3273464
0002e0 13 2a a6 3e c1 2c c5 be 62 ef fa 3c 34 81 25 bf
       0.32453975 -0.38510707 0.030631725 -0.64650273
0002f0 7d 2e c5 3e 4e 5c b2 be b5 4c 98 be df f4 cc 3d
       0.3851203 -0.34836048 -0.29746023 0.10007643
000300 4d de 3d 3e da f5 2c 3f e7 8b 55 3e c1 c8 12 3f
       0.18541832 0.6756264 0.2085415 0.57337576
000310 5c 29 73 3f ce 7d ba 3d 21 37 1b bf 99 23 53 3f
       0.94984984 0.091060266 -0.60630995 0.8247619
000320 25 64 ff 3f f1 b8 95 3e d8 b4 9b be 2a 3e 16 3f
       1.9952437 0.29242662 -0.3041141 0.58688605
000330 ac a2 88 be 3f b5 f2 3e 13 87 b9 be 41 72 8e bf
       -0.2668661 0.47403905 -0.36235866 -1.1128618
000340 1a 18 86 3e 8a 68 54 bf 93 17 ca 3f fe 32 b9 be
       0.26190263 -0.82972014 1.5788444 -0.36171716
000350 cc 97 4e bf f6 bc c5 be 59 b6 b3 bf 35 34 18 bf
       -0.80700374 -0.38620728 -1.4040023 -0.5945466
000360 74 be c0 be cc ee 96 bf b3 a8 1e 3e 65 f3 09 3f
       -0.37645304 -1.1791625 0.15494041 0.53887016
000370 93 ed 27 40 e9 4b 27 bf 1b 29 f2 be 40 a0 20 3f
       2.6238754 -0.65350205 -0.47296986 0.6274452
000380 b4 6e 0e bf a4 ac 4f 3e 3c 56 34 be c0 97 c9 be
       -0.5563767 0.20280701 -0.17611021 -0.3937359
000390 e9 e0 48 3f 1e 92 d3 3e a9 0f 0d bf ce 8d 73 3f
       0.78468186 0.41322416 -0.5510202 0.9513825
0003a0 33 65 2b 3f e2 85 db 3e 4d fd 16 3d 68 9f 79 3e
       0.6695129 0.42875582 0.03686266 0.24377215
0003b0 dd 85 d4 bc 96 d4 a2 be 3f 6b 8d be fa 33 92 be
       -0.025942737 -0.31802815 -0.27620885 -0.2855528
0003c0 bf 54 b9 3e 08 70 2e bf 2c 0d 41 be bb 20 bf be
       0.3619747 -0.68139696 -0.18852681 -0.3732966
0003d0 7e 9e 6f 3f b2 26 76 be 46 b0 17 c0 0d 72 68 bf
       0.93601215 -0.24038199 -2.3701339 -0.9079903
0003e0 02 d4 7b 3f bb be 9c 3e 39 2e 89 3e e1 c9 80 3f
       0.98370373 0.30614266 0.26793078 1.0061609
0003f0 26 83 c5 bd d1 82 f4 3d 69 c5 16 bf 37 6a 76 be
       -0.09644155 0.11939014 -0.58894974 -0.24063955

rnn.bias_ih_l0 f4 [48]
000000 49 6f 81 be 84 46 e4 bc 65 f6 cf 3d 75 60 2c be
       -0.25280216 -0.027865656 0.10154418 -0.1683367
000010 7b 7d ce bd b5 1d 67 3e 81 81 d9 be a2 f3 88 be
       -0.10082527 0.22569926 -0.42481616 -0.26748377
000020 4d 06 eb bc d0 b9 e1 be 3e 53 85 3f 96 f5 3b be
       -0.028689528 -0.44087076 1.0416028 -0.18355402
000030 98 94 45 bc 3a b5 f3 bd 0a 20 50 be 4a a9 8a be
       -0.012059353 -0.118998006 -0.20324722 -0.27082282
000040 46 fb b1 3f b6 c9 ad 3f 21 e8 af 3f ed 6d 9b 3f
       1.3904808 1.3577182 1.3742715 1.2142922
000050 cf 34 89 3f 01 b6 ae 3f 0f 4b ab 3f 29 29 a8 3f
       1.0719241 1.3649293 1.3382281 1.3137561
000060 cf e6 af 3f ad 81 c9 3f 39 b6 bf ba d7 d5 a9 3f
       1.3742312 1.5742699 -0.001462645 1.3268384
000070 95 45 75 3f 0b a5 cb 3f df 85 b9 3f 99 74 a4 3f
       0.958093 1.5909742 1.4493979 1.2848083
000080 2d 13 81 3e a2 b3 84 3e 77 4e 33 bd 61 b2 85 be
       0.25209942 0.259183 -0.043776 -0.26112655
000090 30 2e a0 bd 88 96 41 be 7f c8 af bd 5a 86 1b be
       -0.078213096 -0.1890508 -0.085831635 -0.1518797
0000a0 50 73 6f 3e 8f 04 91 3b b8 07 83 bf 10 cf 7b bd
       0.23383832 0.0044255923 -1.023673 -0.061476767
0000b0 cd d3 46 be fc cd eb bd 07 90 16 be ad 62 bd 3d
       -0.19416733 -0.11513898 -0.1470338 0.092473365

rnn.bias_hh_l0 f4 [48]
000000 fe 2c 2b be bb 66 3e be 17 e7 1d bd 23 0b c1 be
       -0.16716382 -0.18593876 -0.038550463 -0.3770381
000010 f8 3c a8 bd 19 29 53 be b8 96 9f be 77 2b fe bd
       -0.08214754 -0.20621146 -0.31169677 -0.12410634
000020 63 2c bb bd 1f 2b 0f bf dc bb 81 3f 38 98 00 3e
       -0.091393255 -0.5592517 1.0135455 0.12558067
000030 4e 5e 06 3e 79 5c 82 be 1d b7 28 3d 83 50 9a be
       0.13121912 -0.25461176 0.041190255 -0.3013955
000040 e5 8e b5 3f 45 d0 97 3f 5e c9 a6 3f a4 53 bc 3f
       1.4184233 1.1860434 1.3030202 1.4713025
000050 f5 8a ba 3f 77 82 94 3f 28 d7 a8 3f 68 81 7a 3f
       1.4573656 1.1602315 1.319066 0.9785371
000060 e8 c9 80 3f c2 78 b5 3f 6b 20 0b 3e b3 ef b4 3f
       1.0061617 1.4177477 0.13586585 1.413565
000070 19 05 7e 3f f9 b8 c2 3f 8c 1d c7 3f 5c 37 b8 3f
       0.9922653 1.5212699 1.5555892 1.4391894
000080 d9 cf 83 3e ed c0 c0 bd dc de 28 bc 4f 04 95 bd
       0.25744513 -0.09411798 -0.01030704 -0.072762124
000090 75 14 06 be 31 4a 49 be 88 94 17 be 06 a0 3f 3d
       -0.13093741 -0.19657208 -0.14802754 0.04678347
0000a0 e8 12 26 3e 54 86 1c 3d e9 34 7e bf 71 d4 f7 bd
       0.1621815 0.038214043 -0.99299484 -0.12101067
0000b0 db d8 ed be ae 28 8c bc e9 65 74 be 3f 57 bd bd
       -0.4645451 -0.017109241 -0.23867 -0.092451565

mlp.0.weight f4 [128, 16]
000000 ff a5 16 3f 48 7a 9c bc ed 10 2b bd 7e f2 74 be
       0.5884704 -0.019101277 -0.04176419 -0.23920628
000010 36 f6 68 3e d8 88 0b 3e 57 3f 7b 3d 0f 3f db bd
       0.22750172 0.1362642 0.061339702 -0.10705387
000020 f6 a0 93 3d 34 12 39 3e bb 6c 18 3e 34 d2 a9 3e
       0.07208435 0.1807335 0.14885227 0.33168185
000030 91 4b c8 3c ab d4 49 bd 0a 24 1b bd 4d 09 bc bd
       0.024450095 -0.04927508 -0.037876166 -0.091814615
000040 32 6a cc bd 55 ae 3e 3d fd d7 8f be 8d 22 45 bd
       -0.09981193 0.046552975 -0.28094473 -0.048128653
000050 f3 30 91 3d 95 1e a9 3d 4c 76 07 be 9f 0d 35 be
       0.070894144 0.08257786 -0.1322872 -0.17680977
000060 54 59 67 3e d4 72 ce bd af 2d 88 3e a1 17 1f 3e
       0.2259267 -0.100804955 0.26597354 0.15536357
000070 29 bb e7 3d 86 22 45 be 92 f0 98 3d 6a dd 41 3e
       0.11314995 -0.19251451 0.0746776 0.18932119
000080 4f c4 cb 3e 84 c1 b4 3c 32 b7 d9 bd f6 aa 8e be
       0.3979821 0.022064932 -0.10630645 -0.27864808
000090 d1 45 09 3f 13 6b 38 3f ab c0 e6 3d 3a 92 81 3d
       0.53622156 0.7203838 0.11267217 0.06326719
0000a0 69 9a 5b 3e 15 23 b6 3d 21 d9 23 3e 21 0b 23 3f
       0.21445622 0.0889341 0.16000797 0.63688856
0000b0 a7 56 a4 bd bb e3 4a bd d1 f9 be be 24 b8 30 3e
       -0.0802434 -0.049533587 -0.3729997 0.17257744
0000c0 0b 5c bb 3c 4a e2 23 3f fa a7 5e 3f 34 91 3b bf
       0.022871038 0.64017165 0.8697506 -0.7326844
0000d0 5d 53 cb 3e 2e d5 d2 bd f8 c8 fe 3e 0f fd a1 3e
       0.3971204 -0.10294567 0.49762702 0.3163838
0000e0 b0 30 51 3f 19 e4 3d 3e 46 4c c5 3e 62 d9 32 bd
       0.81714916 0.18544044 0.38534755 -0.043664344
0000f0 06 b4 99 be 67 cd 22 3f 47 29 ad 3d 43 00 aa bd
       -0.3002016 0.6359467 0.08455139 -0.08300831
000100 3f 37 11 be 70 d3 1a be e9 08 7c 3e 3d 32 b7 bd
       -0.14181231 -0.1511972 0.24612774 -0.08945129
000110 a4 72 7d be 25 0e 92 3c a7 aa 01 3e 5c 6c 96 be
       -0.24750763 0.01782901 0.12662755 -0.29379547
000120 53 2e 4f 3e e9 4b 6a be e0 e5 56 3e 9b ad 73 3f
       0.20232515 -0.2288052 0.20986128 0.95186776
000130 c9 db 4e be 1e c0 80 3e c8 a9 e0 be af 12 dc be
       -0.20201029 0.25146574 -0.43879533 -0.42983004
000140 f8 0a a7 3d 11 cf 61 be 81 2f d2 bd 56 a4 e5 bd
       0.08156389 -0.22051646 -0.10262967 -0.11212985
000150 f3 a5 9b bc c4 7e 2e 3a 97 8b 5d 3c db 1f 73 be
       -0.01900003 0.0006656463 0.01352205 -0.2374262
000160 17 97 4f 3e fc 67 a5 3b 26 08 c0 3e 43 d4 32 3e
       0.2027248 0.0050477963 0.37506217 0.17463784
000170 8c b8 3c 3e 7a d5 36 3e 26 52 84 bd 6c 02 63 3e
       0.18429774 0.17854872 -0.06460981 0.22168893
000180 d2 44 c0 3d e6 3a a1 bd a8 25 67 3e 40 8e bb bc
       0.093881264 -0.07872562 0.22572958 -0.022894979
000190 0c 70 8a 3e 46 76 cb 3c 77 aa ad be f2 36 df 3d
       0.2703861 0.02483667 -0.33919117 0.10899152
0001a0 11 8e ce 3e 43 ea 79 be 1e aa ab 3e 27 75 37 3d
       0.40342763 -0.2440577 0.33528227 0.04478946
0001b0 25 d7 fb 3e 31 37 6c be 5c a1 6d be 5a 2d 86 3e
       0.4918758 -0.23067929 -0.23206085 0.26206475
0001c0 cc 94 8a 3e d7 df 23 be 78 1f 69 3e af 77 c5 3d
       0.27066648 -0.16003357 0.2276591 0.096419685
0001d0 03 94 0d be 47 ae 97 3d 68 64 63 be 77 99 a5 3d
       -0.13825993 0.07406288 -0.2220627 0.08085912
0001e0 e5 38 da bd c2 83 f6 3b 4c 98 93 be f1 df ed 3d
       -0.10655383 0.007523031 -0.2882713 0.11614979
0001f0 5e d7 16 be 6e d5 74 3c f6 03 eb bd 86 3f 5b bd
       -0.14730594 0.014943464 -0.11475365 -0.053527378
000200 a5 ea 37 3f c3 0a da be bd 6e 6e be f7 4c 2f 3f
       0.71842414 -0.42586336 -0.23284431 0.68476814
000210 fb 40 95 be 2a 3e 34 bf 3c b8 b6 3e b3 99 6c bf
       -0.2915114 -0.70407355 0.35687435 -0.92422026
000220 f1 86 4d 3e b1 1d 5a be 26 a1 f8 3e 7b e6 b1 bd
       0.20071007 -0.21300389 0.48560447 -0.08686539
000230 a7 5d 8e bd 82 7e 30 3e 32 38 bd bc 80 e0 b5 3e
       -0.069514565 0.17235759 -0.023098085 0.35522842
000240 7b a9 88 3e 4c 5a 9f bc 0b 90 19 bd cf bd 0f 3f
       0.26691803 -0.019452237 -0.037490886 0.56149
000250 ee c5 03 bd 7c 8a ac 3c 5b c6 03 3e 0a 6a a3 be
       -0.032171182 0.021062128 0.12868635 -0.3191684
000260 71 f2 87 3d ae e0 8f bd cf c2 bc 3c 11 53 4f 3d
       0.06638039 -0.07025276 0.02304211 0.050616328
000270 32 cf a9 3d 41 80 24 3d e6 35 cc 3e 09 3c af 3d
       0.082914725 0.040161375 0.3988487 0.08556373
000280 05 65 9e 3e ef 29 c8 be 58 7e c6 3e fc 35 e3 be
       0.30936447 -0.39094493 0.38768268 -0.44377124
000290 96 7f 12 bf f9 5c 38 bf e2 4a 2e bc 9e 60 af be
       -0.5722593 -0.72016865 -0.010637971 -0.342534
0002a0 ec a7 02 be 2b 8c 98 3d 8b 6b a4 3d 70 8b 40 3f
       -0.1275937 0.0744861 0.08028325 0.75212765
0002b0 27 17 5d 3e f8 9c c3 3d de 2f a5 bd c7 dd 4b bd
       0.21590863 0.09551424 -0.080657706 -0.04977205
0002c0 d0 5c 22 3f d9 6e 9a 3e ba 95 30 3e 98 62 6b 3e
       0.6342287 0.30162695 0.17244616 0.2298683
0002d0 66 e9 b5 3e 62 48 4f be 90 49 33 3f 66 f9 79 bf
       0.3552963 -0.20242456 0.7003412 -0.97646177
0002e0 19 aa 48 3e 4f 45 88 bd f1 79 ba 3d 7e 7b 44 bd
       0.19596137 -0.066538446 0.0910529 -0.047969334
0002f0 cd 7a a9 3c e0 42 cd 3e 10 e9 07 3f cb ab 80 ba
       0.020688439 0.40090084 0.5309 -0.0009816823
000300 34 fc d8 bd 42 8f fb 3c 1b e3 82 3e 57 36 99 bd
       -0.10594979 0.03070796 0.25563893 -0.07481068
000310 f9 74 a7 bd 99 04 74 be b0 e0 aa be 6c bf f7 3d
       -0.08176608 -0.23829879 -0.33374548 0.12097058
000320 2f 8c 25 3d 27 9a 02 3e 27 ba 3a be 5e 7c 2d 3e
       0.040416893 0.12754117 -0.18235074 0.16941974
000330 66 58 e9 3d 59 69 74 be 37 04 59 3d 7a 15 ec 3d
       0.11393814 -0.23868312 0.052982535 0.11527534
000340 02 37 55 3e e6 fe 41 3e c5 8e b2 bc 74 a0 64 3c
       0.20821765 0.18944892 -0.021796593 0.013954271
000350 0a c4 83 3d d7 10 22 be ee 72 a2 be b3 9e cf 3e
       0.06433876 -0.15826736 -0.3172831 0.40550765
000360 59 3f 8a bd 5a 43 1c be 8b 2c ab bd cf f3 b7 bd
       -0.06750364 -0.15260068 -0.08358105 -0.0898205
000370 d4 27 bb bc 68 3e fb 3d 71 1f 4b 3e 18 f6 de bc
       -0.02284614 0.122677624 0.19836213 -0.027216956
000380 ff db e2 be aa 68 aa 3d 25 72 07 3e 39 67 4c bf
       -0.4430847 0.08320744 0.13227136 -0.79845005
000390 f7 37 01 3f c0 82 b9 bd d2 c7 cc 3e 87 f7 51 3e
       0.5047602 -0.09058142 0.399962 0.2050458
0003a0 96 8a bf 3e 30 a6 17 3e 61 9c 0c 3f 27 6b bd 3e
       0.3741042 0.14809489 0.54926115 0.36995813
0003b0 7e 30 51 be 2f 31 fd 3e 11 4f a5 be 61 91 23 3d
       -0.20428655 0.49451587 -0.32286885 0.039933566
0003c0 30 6c d8 3e 01 6f b3 bc da 2e 8d bd f6 3f a1 bc
       0.4227004 -0.021903517 -0.06893702 -0.01968382
0003d0 84 31 b9 bc b1 de 8f bd 14 02 3a be ed 32 b6 3b
       -0.022606619 -0.07024897 -0.18164855 0.00556027
0003e0 8c 36 5b 3e 1d 70 38 be c3 b0 1e be 66 1a 9d be
       0.21407527 -0.18011518 -0.15497117 -0.30684203
0003f0 35 a6 fa 3d c3 dd 05 3e 1d e9 4c be 38 e3 21 be
       0.12238733 0.13072877 -0.200108 -0.15809333

mlp.0.bias f4 [128]
000000 da 9d 1e 3e a1 7c 15 be 7f 31 b0 be 34 22 b6 be
       0.15489903 -0.14598323 -0.34412763 -0.3557297
000010 05 36 31 3d 49 de 88 bd 79 5c dd be 0a d7 6d 3e
       0.043264408 -0.066830225 -0.43234614 0.23226562
000020 8c 67 1c bf 5a 70 c2 bd 3c f0 ee be 03 bc 11 bf
       -0.610955 -0.094940856 -0.4666766 -0.5692751
000030 80 3a a6 3e f9 49 1c bd df ce d5 be 11 40 39 3e
       0.32466507 -0.038156483 -0.41759393 0.18090846
000040 b1 d8 fe be a2 21 fc be 02 e8 94 be 80 73 49 3d
       -0.49774697 -0.4924441 -0.29083258 0.049182415
000050 15 56 b4 be bf ce 14 be dd ac 55 be f9 ce f2 be
       -0.35221925 -0.14531992 -0.20866723 -0.47423533
000060 36 1d 43 bd 47 31 ae 3d 78 e4 f1 be 14 2b 44 3d
       -0.04763528 0.08505493 -0.4724462 0.047892645
000070 0a 53 59 bd 68 09 8f be 70 6c 34 be 95 f2 ec be
       -0.053057708 -0.27936864 -0.1761949 -0.46278825
000080 21 5d e1 3d 30 4c 89 be 14 b9 9a bd 5b f1 56 bd
       0.11004091 -0.2681594 -0.07554832 -0.05247627
000090 88 b0 b3 be ef 7b 60 bd d3 87 fa be 1b 6e 81 be
       -0.3509562 -0.054805692 -0.4893175 -0.25279316
0000a0 92 ec 6a be 03 46 85 bd cb fe ae be f8 72 68 be
       -0.22941807 -0.06507494 -0.34178767 -0.22700107
0000b0 d6 6b d3 be 4d 35 7d be b3 b4 ae be 23 43 9b 3e
       -0.4129321 -0.24727364 -0.34122238 0.3032466
0000c0 92 3b b8 bb b4 88 7b bd 67 5f 9b be b7 ec 39 3e
       -0.0056223357 -0.061409667 -0.30346224 0.18156706
0000d0 34 1f cd 3d 52 24 48 be cd 4c 1f bd 6a 2a da be
       0.10015717 -0.19545105 -0.038891602 -0.42610484
0000e0 50 06 03 3e de 0d 31 3e 90 8b cb be 57 77 35 3e
       0.12795377 0.17290446 -0.39754915 0.17721306
0000f0 2b 1f 0d 3d c2 35 cb bd bf fc 15 be d6 8b 87 be
       0.034453552 -0.09922363 -0.14647196 -0.26473874
000100 85 3b e2 be 17 61 bc 3d af dc 0e be 59 1e f9 bd
       -0.44186035 0.09198206 -0.13951372 -0.121639915
000110 55 81 27 be 81 3b 27 bd 62 e6 e6 be 2c 61 95 be
       -0.1635793 -0.04082823 -0.45097643 -0.291757
000120 2e 66 7b be 73 4f f7 bd 28 bf a7 bd 7d a8 83 3d
       -0.24550697 -0.120757006 -0.08190757 0.06428621
000130 bb e1 a3 3e c2 9c 81 3e e2 58 8f 3d 64 89 33 be
       0.32008156 0.2531491 0.06999375 -0.17532879
000140 b5 3c a6 be 72 09 29 3d 1a 3c 3d be 5b 21 92 be
       -0.3246819 0.041268773 -0.18479958 -0.28541073
000150 c0 00 c2 3d 7f c6 10 be ec d5 4b 39 12 4d 85 3d
       0.09472799 -0.1413822 0.00019439281 0.065088406
000160 09 5d 30 3d 18 5c ea bd eb 4f a0 be 99 64 ea bd
       0.043057475 -0.11443347 -0.31310973 -0.11444969
000170 ff 60 eb be 91 7c 4e 3e e1 16 f2 bb a1 da 9f be
       -0.4597244 0.20164706 -0.0073879813 -0.31221488
000180 70 dc 89 3d b6 db 03 be cc b7 ff 3a a2 b4 27 be
       0.06731498 -0.12876782 0.0019509732 -0.163775
000190 79 20 6b be dd 35 3a be c4 34 42 be 62 4a 5e be
       -0.22961606 -0.1818461 -0.18965441 -0.21708062
0001a0 49 34 52 3c db 19 08 be fc da f6 3d 7c e9 c3 3d
       0.012829849 -0.13291113 0.12053487 0.09566018
0001b0 b4 76 ae 3d 19 d1 22 be 1b 3f f9 bd 5c 98 94 3d
       0.085187346 -0.15900077 -0.121702395 0.07255623
0001c0 4a 22 b2 be e8 9d 21 be 7b 67 0e bf e1 32 20 3e
       -0.34791785 -0.15782893 -0.5562665 0.15644409
0001d0 5b c6 18 bd 8b d4 81 be 7e ff b7 3d ac 81 b4 bd
       -0.03729854 -0.2535747 0.08984278 -0.088137954
0001e0 47 fb 29 be cd 7a 69 be 9c 7f 02 bf 8e 21 a7 bd
       -0.16599761 -0.22800751 -0.50975966 -0.08160697
0001f0 88 18 f7 be 21 e6 33 3e da 26 9a be 56 18 ad be
       -0.48260903 0.17568256 -0.30107766 -0.3380763

mlp.2.weight f4 [128, 128]
000000 0f bd 7b 3d 4e 2b 96 3d 78 17 c0 ba ec 91 83 bd
       0.061459597 0.073324785 -0.0014655432 -0.06424317
000010 a3 f2 38 bd 90 e8 84 3d 2a 7a 8f bd 4d 86 89 3e
       -0.04515327 0.0648967 -0.07005723 0.26860276
000020 41 8b 27 c0 65 1b e4 3d 53 e3 71 3d 11 dc 89 3e
       -2.6178744 0.111380376 0.059054684 0.2692571
000030 7e 8c 86 3d e7 98 0f 3e ed 4b 06 bd ae 43 01 3e
       0.065697655 0.14023171 -0.032787252 0.12623474
000040 71 2a 62 c0 78 a9 da be ca 89 cf bc 64 e9 32 3d
       -3.5338404 -0.4270742 -0.025334258 0.04367961
000050 7c 1b ca 3e b0 c7 c7 3d 1b 7b e9 39 fe 58 ab bf
       0.39474094 0.09754884 0.00044532944 -1.3386533
000060 bb ce 09 3d 4c 7c 81 bd 95 08 11 be 03 fa 27 3d
       0.03364442 -0.06322536 -0.1416343 0.041009914
000070 eb 12 77 3d 59 59 b2 bc 85 90 a5 bd 26 0c a7 bd
       0.060320776 -0.02177112 -0.080842055 -0.08156614
000080 5c 85 bc 3d 81 93 22 bc a8 d9 03 bd 1b 4a 0c bb
       0.09205124 -0.009922863 -0.032189995 -0.0021406475
000090 f0 24 a9 bd 0b d2 3e 3d d2 e9 16 3d f5 61 b3 bd
       -0.082589984 0.04658703 0.036844082 -0.08758918
0000a0 8a 29 ec bc 87 a5 74 bd 83 df fa 3d aa f2 28 3d
       -0.028828401 -0.05972817 0.12249663 0.041247047
0000b0 8f 69 e2 bb 12 10 77 3c 58 87 32 3d 8d 62 04 3d
       -0.006909556 0.015079515 0.043586105 0.032320548
0000c0 70 dc 36 bd c2 a5 7a bd 8b db 36 bd cf 1d 29 3e
       -0.04464382 -0.061193235 -0.044642966 0.16515277
0000d0 78 39 11 3d ac 55 68 3d cf 74 73 3d 8d a2 70 3d
       0.035455197 0.056722328 0.05943757 0.05874877
0000e0 55 90 a3 bd 53 d0 f3 3d 14 29 3e bd 5a ee 3b 3e
       -0.079865135 0.11904969 -0.046425894 0.18352643
0000f0 87 1a 77 3d e2 21 60 be 49 6d 86 38 4f 74 2d be
       0.060328033 -0.21887925 6.409974e-05 -0.169389
000100 fa 3b 71 3e 84 4b 66 3d 65 43 43 3d a7 4e 86 3d
       0.23558035 0.05622436 0.047671694 0.065579705
000110 af b4 e4 bc 62 45 c3 3d c7 51 61 be 5c fb 68 bd
       -0.027918188 0.09534718 -0.22003852 -0.05688034
000120 cb e9 ca bc d2 90 f7 bd fc ce 41 bf 1d 08 cc 3d
       -0.024769684 -0.12088169 -0.7570646 0.09962485
000130 8c a6 02 3e 49 f0 30 3e bd 84 b8 3d fa ad 75 3c
       0.12758845 0.17279162 0.09009693 0.0149950925
000140 e6 25 15 bd ba 03 31 3d b8 bc b1 bc ff d8 e7 3c
       -0.036413096 0.043216445 -0.021696433 0.028301714
000150 b0 19 29 3d de 05 35 be 98 e3 04 3e d9 ac a9 3d
       0.041284263 -0.1767802 0.12977445 0.08284921
000160 ab c0 d8 bd ba 78 6b bd a9 7b 55 3e f8 28 62 3d
       -0.105836235 -0.05748818 0.20847954 0.055214852
000170 32 eb 5d bd 31 6b ed 3d 55 fc 11 3e 6d c9 6e 3d
       -0.054179378 0.11592711 0.14256413 0.058297563
000180 f9 f1 a0 bc 31 f1 8b 3b 63 c8 9f 3d 5f ac 48 bd
       -0.019646632 0.0042706956 0.078018926 -0.04899251
000190 ce 54 78 3d 2c af c3 bd 1f 95 14 bf 4d 9a 57 3e
       0.06062775 -0.09554896 -0.5804004 0.21054955
0001a0 43 82 d3 3d 4d 5e 7e bb 21 dd d0 bb 8b cb d9 3d
       0.1032758 -0.0038813532 -0.006374017 0.10634526
0001b0 6d f7 fe bd f7 0d 49 be 0a 66 c9 3d df 86 b7 3d
       -0.124495365 -0.19634233 0.098339155 0.089612715
0001c0 a2 fd df be 41 93 e0 3c d7 2e eb bd 93 0f 8a 3c
       -0.43748194 0.027413966 -0.11483543 0.01685313
0001d0 e5 11 95 bd ea 32 21 3d 10 6f fe 3d a1 55 49 bd
       -0.07278804 0.039355196 0.12423527 -0.049153928
0001e0 d1 66 15 3d 5f fe 4a 3e 6f 53 55 3c ce 56 0c bd
       0.036475006 0.19823597 0.01302038 -0.03426247
0001f0 b0 7d 97 bc de 91 34 3e b1 70 80 3d 74 cb 4b 3d
       -0.01849255 0.17633769 0.06271494 0.049754575
000200 72 4f 78 be 99 fc 55 3d 1e 47 12 bd 39 ce 2a be
       -0.24249056 0.05224285 -0.035712354 -0.1668023
000210 f3 56 6e be b2 5a b5 bb 16 fd 28 bd 79 2b 82 3d
       -0.23275356 -0.0055344934 -0.041256987 0.06355948
000220 ef 39 e2 bf b1 7b 0f 3e 5f 6f c5 be 64 f2 9b bd
       -1.767393 0.14012028 -0.38561532 -0.07614592
000230 18 b8 e6 3d a9 13 71 3e bb 07 50 3d c5 da 7d 3e
       0.11265582 0.23542656 0.050788622 0.24790485
000240 f8 29 35 c0 74 63 23 bf 40 35 16 3e 3d 58 20 3d
       -2.8306866 -0.6382363 0.14668751 0.03914665
000250 b0 1b ac bc 87 08 fd 3d bc 40 e6 3c d8 98 b0 bf
       -0.021009296 0.12355142 0.02810704 -1.3796644
000260 a2 17 ce 3e 70 b9 d7 bb c5 66 89 be 56 28 76 be
       0.40252405 -0.006583385 -0.2683622 -0.24038824
000270 96 4b 3a bd e4 bd cc bd 10 fb bf 3c e9 82 88 bd
       -0.04548224 -0.09997156 0.023435146 -0.06665594
000280 8e 10 00 be 8a d1 55 be 5f 4e b6 3d 3e c2 e4 3d
       -0.12506315 -0.20880714 0.08901667 0.11169861
000290 29 4d 89 bd f4 77 8c bd 03 c5 2e bd 10 d1 00 3e
       -0.0670417 -0.06858817 -0.042668354 0.12579751
0002a0 d9 10 39 be 26 4a 8b 3c 2d 79 93 be cf 04 9e 3c
       -0.18072833 0.01700313 -0.28803387 0.019289402
0002b0 c7 9f 2c 3e 7e 86 63 be 4c f8 1b bd 4a 24 20 3e
       0.16857825 -0.22219273 -0.03807859 0.15638843
0002c0 80 40 bb bd 7c f1 4f be c6 d6 c2 bd 12 ae 03 3d
       -0.09143162 -0.20306963 -0.09513621 0.03214843
0002d0 3d 9d 34 be 8a 90 95 3d 38 ec 62 3d d3 a9 34 3e
       -0.17638107 0.07302959 0.055401057 0.17642908
0002e0 e2 83 a0 bd 50 56 0d be f1 a5 d6 bc 7e e0 f8 3d
       -0.07837655 -0.13802457 -0.026202174 0.121521935
0002f0 ac 01 a2 bd 47 0b 27 be 5d d4 ad 3d 0b 3f 88 3d
       -0.07910475 -0.16312896 0.08487771 0.066526495
000300 7d 81 b6 bd 08 ec 79 bd 13 8f 86 bd 0d 3b e2 bc
       -0.08911417 -0.061016113 -0.06570258 -0.027616048
000310 2f c1 ce bc 92 cf fe bd 72 72 02 be e6 0a 8f bd
       -0.025238601 -0.12441935 -0.1273897 -0.069845006
000320 7a e5 93 be aa 8e 2f 3e e7 e7 d6 bf 44 74 d3 bd
       -0.28886014 0.17144266 -1.6789521 -0.1032491
000330 44 87 0c 3e 23 b2 8a 3e 91 64 9e 3e 2c 89 90 be
       0.13723475 0.27089033 0.309361 -0.28229654
000340 19 83 f0 bd b8 13 15 be 59 41 4f bd 28 3e 18 be
       -0.11743755 -0.14558303 -0.05059943 -0.1486746
000350 a7 9b 22 be f1 5d 09 bf 11 99 89 bf 5f 96 7a bd
       -0.15879689 -0.5365897 -1.0749837 -0.06117856
000360 a7 4e 2b bd 6b de 87 bd 34 4d 89 bc 9a 76 c6 3b
       -0.041823056 -0.0663422 -0.016760446 0.006056619
000370 e7 f3 ff bd 98 36 47 3d dd 26 b7 be 3d 0c d9 ba
       -0.124976926 0.04863605 -0.35771838 -0.0016559433
000380 1b b5 26 be cc 6a 89 bf 2e 74 05 bd e6 35 e0 bc
       -0.16280024 -1.0735717 -0.0325815 -0.02736945
000390 5d 0b 8e 3d 20 cc 3c 3e 6b e5 83 3e 79 b6 85 bd
       0.06935761 0.18437243 0.2576097 -0.065289445
0003a0 8e 5e 7a 3d b1 1c 4e bd f3 11 ba 3d ba f9 91 3e
       0.06112533 -0.05032033 0.09085455 0.2851084
0003b0 fb e2 51 be 09 70 6e be 07 50 07 bd fa 93 8c be
       -0.20496742 -0.23284926 -0.033035304 -0.27456647
0003c0 83 61 3b bd 56 ea c7 bd e2 c3 39 bd 31 49 3f 3e
       -0.04574729 -0.09761493 -0.045352824 0.18680264
0003d0 33 c7 3e bd 7d ac 94 be 43 d0 74 bd a4 84 9c bc
       -0.04657669 -0.29037848 -0.059768926 -0.019106217
0003e0 d0 c9 56 bc c4 cb 1a 3e 58 4b f5 3d c0 61 17 3d
       -0.013109639 0.15116793 0.11977261 0.036958456
0003f0 37 dc ed 3c d1 ae 97 be bf da ad 3d d5 2b 7a bd
       0.02903567 -0.29625562 0.08488988 -0.061076958

mlp.2.bias f4 [128]
000000 7e f9 c2 3e 01 ae 4d 3d 84 fd 67 bb 85 a6 2e 3e
       0.38080972 0.05021477 -0.003539891 0.1705571
000010 05 34 9e bd d8 52 30 bd 52 11 b5 bd ce 91 69 3e
       -0.07724766 -0.043047756 -0.08841194 0.22809526
000020 aa 1c da 3d 27 ae 45 bd 00 92 f9 3d b6 9b a3 3e
       0.106499985 -0.048261788 0.121860504 0.31954736
000030 24 3b c4 bb 4e e4 ff bd e2 05 8d 3e 59 d6 91 3e
       -0.0059884954 -0.124947175 0.2754355 0.28483847
000040 d7 e8 29 bd ee 47 56 bd 08 d1 54 bd 7b 36 da bc
       -0.04148182 -0.05231469 -0.05195716 -0.026637306
000050 f6 8a de bd 32 a2 c9 bd 39 fc 0b 3e ee e0 1f bb
       -0.108663484 -0.098453894 0.13670434 -0.0024395543
000060 8b 4b bd 3e 44 b5 6c be 0f 9b 89 3c d2 75 ae bd
       0.36971697 -0.23116022 0.01679757 -0.08518566
000070 0a fd 3f 3e 25 5b 0a bd 56 75 98 3c 76 46 ac 3c
       0.1874887 -0.03377833 0.018610638 0.021029692
000080 df 6d 2a bd 74 42 b0 bd 65 e0 24 3e 44 ec 5f bb
       -0.041608687 -0.08606425 0.16101225 -0.0034167925
000090 13 a3 f3 3d b6 a5 33 bc 58 3b ff bc c3 93 b9 3c
       0.11896338 -0.010964802 -0.031156227 0.022653466
0000a0 71 fd 5c 3e 45 c1 7e 3e ac 96 a8 bd fa 4d 6c bb
       0.21581055 0.24878414 -0.082318634 -0.003605722
0000b0 a7 5f c3 bd eb 9a 30 bd 00 6e 9c 3e 9f 88 ab bd
       -0.095397286 -0.04311649 0.30552673 -0.08375668
0000c0 4c c4 47 3e 45 3e 61 bd 43 56 39 bc e7 65 ea bd
       0.19508475 -0.054991025 -0.01131207 -0.114452176
0000d0 46 7c 0e be 08 15 a0 bb 81 c4 02 bd e8 89 5c 3e
       -0.13914594 -0.0048853196 -0.031925682 0.21536982
0000e0 6e 27 16 be e5 17 a0 3e 62 a5 10 bc 5a 1f d2 bc
       -0.14663479 0.3126823 -0.008828493 -0.025649715
0000f0 21 e8 05 be 50 e2 72 3e eb bf b6 bd 5f be cf bd
       -0.13076831 0.23719144 -0.08923324 -0.10143732
000100 ed bc d9 bc c0 3d 89 bd 4a 86 f7 bd 0e 13 61 bd
       -0.026579345 -0.06701231 -0.120861605 -0.054949813
000110 11 4d 86 3e f0 82 0a bb 8b 24 eb 3d 65 b4 b3 3c
       0.26230672 -0.0021135174 0.114815794 0.021936605
000120 46 77 28 bd 3b d0 16 bd f8 be b3 3d 19 6a ff 3c
       -0.041129373 -0.036819678 0.08776659 0.031178521
000130 e5 92 ac bd a7 a1 15 be 63 c9 0c be f6 a1 c7 bd
       -0.084264554 -0.14612447 -0.13748698 -0.097476885
000140 85 54 1c 3d 8f a7 b7 3e 7f 87 8f bc cc 97 9c bd
       0.03816654 0.35870025 -0.017520664 -0.076461405
000150 5f ff 6f 3e 15 a3 dd bd 9b 2e a8 bb ab 20 56 bc
       0.2343726 -0.10822121 -0.005132509 -0.013069312
000160 51 1e 84 be b4 fd a0 bd 91 15 5d bc 5d bf 37 3c
       -0.2580438 -0.0786089 -0.013493911 0.011215058
000170 8a f5 8f 3e 7b da c7 bc db 84 ba 3c f9 0c ee bd
       0.2811702 -0.024396172 0.022768429 -0.11623568
000180 d0 91 8b bb a5 1d d6 bd 10 da 79 bd df c4 a3 3d
       -0.0042593256 -0.10454873 -0.060998976 0.079965346
000190 61 6b d2 bd 4c d7 ab bd 51 7b 12 3d 94 56 12 3e
       -0.10274387 -0.08390674 0.035762135 0.1429084
0001a0 71 b7 54 bd 29 7b dd bd bd bf 68 bd f8 d3 13 be
       -0.051932756 -0.108145066 -0.05682348 -0.14436328
0001b0 2d 9c ef bc 3a 40 2a 3c a4 10 0f be 14 1a 8a 3e
       -0.029249275 0.010391289 -0.13971192 0.2697302
0001c0 56 bb 96 3d 28 bb df bb c8 14 9c 3d 08 45 92 3e
       0.0735995 -0.0068277307 0.07621151 0.28568292
0001d0 59 8b 87 bc e5 d6 14 bd 7c 8b 55 3e d3 87 41 3e
       -0.016545938 -0.036337752 0.2085399 0.18899469
0001e0 d5 66 dc bd 93 74 99 3a 97 93 3c bd 59 bc a3 bd
       -0.10761801 0.0011707715 -0.04603919 -0.07994909
0001f0 a9 fd 87 bc 5e 45 2f bc 8f 44 bb 3e c9 a9 50 bc
       -0.016600447 -0.010697691 0.36575744 -0.012735792

mlp.4.weight f4 [3, 128]
000000 ae 33 ef 3b ff a9 83 3e b6 8a 45 bd 18 89 84 3b
       0.007299862 0.25715634 -0.04822799 0.004044663
000010 ca ff 89 bc a3 2d 7b bd 83 1e fa bc 02 6b b0 3e
       -0.016845603 -0.06132282 -0.030532127 0.3445664
000020 e7 39 2c bc 33 5d ee bc f6 58 1a 3d f3 a3 47 bd
       -0.010511852 -0.029097175 0.037682496 -0.04874034
000030 a7 5e 83 bd 30 cc e0 3c b1 f9 e0 bd a9 18 1d bd
       -0.06414538 0.027441114 -0.10985125 -0.038353596
000040 2b e1 10 bd 9d ff 7e 3c b2 b7 6e bd 89 a6 4e bc
       -0.035370987 0.015563873 -0.058280654 -0.012612947
000050 d7 1c ae 3c c9 bb 0f bd 68 b6 05 3e 77 96 f4 bc
       0.021253986 -0.035091195 0.13057864 -0.029856903
000060 94 11 be 3a 75 b7 0d 3e b4 b8 a2 3b 13 97 67 bd
       0.0014501088 0.13839515 0.004965866 -0.05654056
000070 b6 4b 15 be 7f 0f a5 bd f8 9d 9a bd 2e d9 76 3c
       -0.14579663 -0.08059596 -0.075496614 0.015066428
000080 f1 70 dd 3c 0a 61 fe bd 85 d8 dc bd 40 56 71 bc
       0.027031394 -0.124208525 -0.10783485 -0.014730036
000090 0f 60 1f 3d c9 72 d3 3c 9a 0d 9c 3c 18 dd 2d bd
       0.038909968 0.02581157 0.019049454 -0.04244718
0000a0 41 b4 4a ba e1 22 bb bb 14 94 07 bc 1c 70 e3 bc
       -0.00077325484 -0.005710945 -0.008275051 -0.027763419
0000b0 00 74 db bb e1 91 06 3d 53 69 73 be 39 16 4f bd
       -0.006697178 0.032853965 -0.23770647 -0.050558303
0000c0 a3 71 5e bd 8a 32 2e bd dc 4c cb bc 35 39 f7 3a
       -0.05430759 -0.042528667 -0.024816923 0.0018861654
0000d0 c7 92 e9 3d a5 a4 a5 3b 29 7c 69 bc 41 a2 ca bd
       0.11404949 0.0050550275 -0.0142507935 -0.09894229
0000e0 d9 40 09 3d 44 ac 44 be 04 ba 1c bd bb 13 46 bc
       0.03350911 -0.19206339 -0.038263336 -0.012089665
0000f0 c9 9e 72 3d 83 9e a2 ba da ad 3b bc f8 85 72 bc
       0.05923346 -0.0012406859 -0.011455024 -0.014802448
000100 cd 0b fa bd 8f f0 ea 3c 75 8b 38 bd 18 72 8f 3c
       -0.12209282 0.02867916 -0.04505487 0.017510459
000110 7d 75 07 be 96 9f 87 bd ba 49 9d 3c 31 0b d9 bd
       -0.13228412 -0.066222355 0.019200195 -0.10597838
000120 b0 cd 6f bd 04 b4 8c bc ec 74 fa 3b 88 48 0e 3c
       -0.05854577 -0.017175682 0.0076433327 0.008684285
000130 22 5b bd 3c a7 ca 93 3c 8a 69 97 3d 0a 85 b0 3a
       0.023114745 0.018040968 0.07393177 0.0013467383
000140 d4 89 aa 3d 49 b2 68 be de db 0d 3e ef c4 8d 3b
       0.0832707 -0.2272426 0.13853404 0.004326455
000150 c9 0b 49 bd 45 ca 8e bd 55 5b 88 3c a6 08 a4 3c
       -0.049083505 -0.069721736 0.016645113 0.020023655
000160 19 8c 7b bc ff 3b 9a bc 64 cd 2e bc ed c0 08 b9
       -0.015353226 -0.018827436 -0.010669086 -0.00013041841
000170 60 05 a7 bd 6c 25 8a 3c 8f ff 6e 3d dd 22 bb bd
       -0.08155322 0.016863547 0.05834919 -0.09137509
000180 ea 96 a2 3b 7d 4f 9d bc 40 1f d6 bc 52 09 05 bd
       0.004961838 -0.019202942 -0.026137948 -0.03247959
000190 25 be aa 3d 97 76 98 bd 73 02 14 bc 61 68 e1 bd
       0.083370484 -0.07444494 -0.009033787 -0.11006237
0001a0 9f 44 a7 3c 71 95 08 bc bd 56 9d bc 9f 57 80 3a
       0.020418463 -0.008336411 -0.0192064 0.0009791738
0001b0 c4 ea fd bd ae 46 a5 3c 12 b1 8b 3c c5 25 74 be
       -0.123982936 0.020175304 0.017052207 -0.23842533
0001c0 33 5c 00 be 78 5b df 3b 7b 32 16 be 6b 00 88 3c
       -0.12535171 0.006816324 -0.14667694 0.016601762
0001d0 a0 5b fe bc 55 8e 0a bb ca 6f 30 bc 4a d2 ce bd
       -0.03104955 -0.0021141965 -0.01076884 -0.10098703
0001e0 7e dd 79 3e ca 95 20 3e 11 bb 3f be 83 41 81 3c
       0.24400899 0.1568214 -0.18723704 0.015778309
0001f0 35 7d 49 bd 8f 94 97 3b 32 18 2f 3d cf f6 5b bd
       -0.049191672 0.004625864 0.042747684 -0.053702172
000200 f2 6f 22 3e 34 6b 11 3d 94 c8 01 be e9 62 29 be
       0.15863016 0.035502627 -0.1267417 -0.16541637
000210 e4 63 de 3d 50 43 bb b9 7e f6 9b bc 8f fd 76 3e
       0.108588964 -0.0003571757 -0.019038435 0.24120162
000220 46 93 20 3c e1 d1 2c bc f3 47 0b bc 1e fd 3c bd
       0.009800738 -0.010548086 -0.008501041 -0.04613983
000230 63 00 2e 3b 3c 99 ee 3c dd 83 05 bd 82 83 21 be
       0.0026550523 0.029125802 -0.032596458 -0.15772822
000240 f2 98 76 bd 2b d2 9b bd 8c a2 ea bd 63 f4 10 3e
       -0.060204454 -0.07608446 -0.114567846 0.14155726
000250 11 c4 0f 3c 8a 7e 2e bc f2 18 b2 3c 8a 74 9e bd
       0.008774773 -0.010650286 0.02174041 -0.07737072
000260 f8 be d4 3d 60 bd 03 be 98 b5 7e bd 91 55 d8 bb
       0.10387987 -0.1286521 -0.0621849 -0.006601997
000270 cf 5f 61 bd d1 69 a8 bc ff 99 9a 3d fc 34 3d bd
       -0.05502301 -0.02055827 0.07548904 -0.046193108
000280 a3 22 a8 bd 4a 44 1b bd a0 6d 31 bc d3 6d b6 bb
       -0.082097314 -0.037906922 -0.010829359 -0.0055672913
000290 c8 86 90 3d 1a 65 c3 bd 05 87 17 bc f7 6c 00 bd
       0.070569575 -0.09540768 -0.0092485 -0.031353917
0002a0 41 65 2f bc 8e ab 5e be cd 06 3d 3d a7 25 ae bd
       -0.010705293 -0.2174513 0.046149064 -0.08503275
0002b0 d7 27 3b bd 8e 25 c8 3c c8 b1 95 bd 8b 56 3b bd
       -0.04569229 0.02443197 -0.073093 -0.04573683
0002c0 93 80 e1 bc db 2d 2a bd b8 8a 51 bd 7a 67 1e 3d
       -0.02752713 -0.041547637 -0.051157683 0.0386729
0002d0 cd f7 be 3d ef c2 d7 bc 66 86 9c bc 3b bd e7 3b
       0.09324608 -0.026338069 -0.019107055 0.0070721186
0002e0 e6 62 28 bc f9 75 79 bd 1c 6e d9 bd 9b 72 e4 bd
       -0.0102774855 -0.060903523 -0.10616705 -0.11154672
0002f0 2e 2a b4 3d 1d aa 9d 3d 6a dd 46 3c a3 a8 59 bd
       0.08797108 0.07698462 0.01213775 -0.05313934
000300 98 1a 0a 3e 35 d6 72 bd 42 35 0d bc 32 08 16 bd
       0.13486707 -0.059286315 -0.008618655 -0.03662891
000310 0b 07 b4 3b b7 02 91 bd 1e b2 3a 3e 35 6a 83 bd
       0.0054940036 -0.07080596 0.18232009 -0.06416742
000320 98 85 9a 3c ef 98 bd bd b3 74 c8 3d 07 4f 24 3e
       0.01886253 -0.092576854 0.097878836 0.16045772
000330 7e 69 10 bd d2 2b cf bb 96 39 74 3e 44 d5 fb bd
       -0.035256855 -0.0063223625 0.23850092 -0.122965366
000340 61 b4 f6 bc fc 3c 26 bc 30 fc 89 bd 89 3b 13 be
       -0.030115308 -0.010146376 -0.06737554 -0.1437818
000350 b0 03 b0 be cc 57 07 3e 59 d9 8f bd 06 b7 cd bb
       -0.34377813 0.13217086 -0.07023878 -0.0062779216
000360 9e 21 0f 3e 6d f9 b7 bc de df b4 3d 2b b8 98 bd
       0.13977668 -0.022457803 0.08831762 -0.07457002
000370 a3 4f 07 3d ec 52 ef bd 1e 4b 10 3d d5 5d 92 3c
       0.033034932 -0.11685738 0.035227887 0.017867008
000380 8c c5 8b bd 4c 5c 1b 3d 79 cd 8c 3d 2f ef 20 3c
       -0.068247885 0.037929818 0.06875128 0.009822651
000390 e8 9f e2 bc c8 ed 54 3d 5d 2f 2f bd 4b 75 dd 3c
       -0.02766414 0.05198458 -0.04276978 0.027033469
0003a0 4d 0a 5b 3d 60 7c ef 3a e4 32 e4 bc 73 c5 0a 3e
       0.05347662 0.001827132 -0.027856298 0.13551883
0003b0 85 c7 18 bd 3c e5 e5 bc 91 71 ec bd f1 91 4b bd
       -0.03729965 -0.028063409 -0.115450986 -0.049699727
0003c0 60 c2 d4 3d c3 57 e1 bd da f7 2a 3b b6 fc 93 be
       0.103886366 -0.11003067 0.0026087672 -0.2890374
0003d0 87 8c ab bd 36 5e f9 bc 65 cf c2 3d 6e b0 01 bf
       -0.08376413 -0.030440431 0.095122136 -0.50659835
0003e0 3c a2 6d 3d 9b b7 d9 3c bd c9 a7 bd 37 f5 80 bd
       0.058016047 0.026576808 -0.081927754 -0.06296771
0003f0 45 d9 7e bd 65 02 ac bd cc d4 c0 3d 9b 58 5d bd
       -0.062218923 -0.08398894 0.09415588 -0.05403958

mlp.4.bias f4 [3]
000000 c1 d2 87 be 80 b3 5b 3e 2b 89 aa 3e
       -0.2652798 0.21455193 0.33307776
