EUSIPCO/Nested Array/saved_models/rnn_20.0dB_nested_1.pth (torch, 87922 bytes, 14 tensors)

bn.weight f4 [16]
0.7961514 1.0951564 1.0907197 0.8397479 0.89666486 0.6625128 0.28487816 0.3867156
1.2211784 0.8908982 1.0458326 1.2110305 0.76712334 0.70469874 0.47152752 0.32289904
00000000: 94d0 4b3f 162e 8c3f b49c 8b3f b8f9 563f
00000010: d48b 653f 709a 293f 8ddb 913e 96ff c53e
00000020: 934f 9c3f e811 643f d8dd 853f 0c03 9b3f
00000030: 3262 443f 2367 343f 0e6c f13e 0653 a53e

bn.bias f4 [16]
-0.041871693 0.2132287 0.061554655 0.17115708 0.0025071304 0.111036904 -0.004231477 -0.047291793
0.17505813 -0.08602677 -0.024839906 -0.19946045 0.3044669 -0.05900498 0.03896204 0.0741366
00000000: a781 2bbd a058 5a3e bc20 7c3d cd43 2f3e
00000010: ab4e 243b 5167 e33d 34a8 8abb 0ab5 41bd
00000020: 7042 333e ce2e b0bd 0f7d cbbc 5c3f 4cbe
00000030: 16e3 9b3e 35af 71bd a996 1f3d eed4 973d

bn.running_mean f4 [16]
0.00035885625 -0.00045175158 -0.0020800198 -0.00062198995 -1.5455505e-05 0.0012417686 -0.0013827806 0.00064423773
0.00029605083 -0.0010692404 0.0016800531 0.0026575741 -0.0019704956 -5.1063704e-05 -0.00080311863 0.0010354578
00000000: df24 bc39 12d9 ecb9 f150 08bb 0a0d 23ba
00000010: 72a6 81b7 d7c2 a23a 6b3e b5ba 10e2 283a
00000020: 4537 9b39 c125 8cba 3a35 dc3a b22a 2e3b
00000030: 6e23 01bb 3c2d 56b8 6188 52ba 33b8 873a

bn.running_var f4 [16]
1.5039518 1.5074587 1.5006937 1.5045832 1.5092413 1.5083865 1.5050371 1.5059923
1.5099931 1.507875 1.5083088 1.5036479 1.5055908 1.5073134 1.5061272 1.508382
00000000: 7e81 c03f 68f4 c03f bb16 c03f 2f96 c03f
00000010: d22e c13f cf12 c13f 0ea5 c03f 5bc4 c03f
00000020: 7447 c13f 0c02 c13f 4310 c13f 8977 c03f
00000030: 33b7 c03f a5ef c03f c7c8 c03f a912 c13f

rnn.weight_ih_l0 f4 [48, 16]
-0.21579203 -0.6591251 0.9208632 0.95213246 -1.2948248 1.0692556 -0.30128172 0.45034352
0.94183743 -0.87486637 -1.1316202 0.24649027 -0.067571186 -0.16163215 0.93358415 -0.4271999
-0.021519355 0.3859153 -0.4726869 0.16189742 0.049497537 -0.5905888 0.93127275 -0.99815893
1.1576885 -0.5248621 0.3093542 -0.6034218 0.4571209 0.3058722 0.027778698 -0.10088756
0.5778192 0.14240558 0.5433146 0.21059395 -0.31177932 -0.41310102 0.38672754 0.4006944
-0.058969732 -0.1314163 -0.32670727 -0.57153183 0.24942462 0.32935208 0.58808124 -0.17728049
0.71314347 0.5992904 -0.6383853 -0.31877947 1.0038459 -0.3175956 0.15716839 -0.23612922
1.0398866 -0.7588009 -0.25435314 1.0017246 -0.51984817 0.2514562 0.06484915 -0.37207496
-0.08949162 1.4222375 -1.1008949 -0.20687537 1.2522186 -0.9405552 0.23673092 0.75473195
-0.6208254 0.63247985 0.4845689 -0.82910115 0.49198985 1.4323474 -1.6007721 1.0603473
-0.2906568 -0.62330997 0.6551634 -0.40032852 -0.094022855 0.2827653 -0.019338353 -0.4366339
-0.019866863 -1.1613082 0.05429316 0.64012 -0.5413915 0.6812272 -0.9842741 0.8646411
-0.08998395 -0.2635064 0.2891481 0.007693149 -0.3644453 -0.21061811 0.63760006 -0.7710133
0.47394678 -0.64198875 -0.5956493 0.54434574 -0.4285502 0.2583876 0.15740652 0.2142035
-0.14471601 -0.33445415 0.66351753 -1.1309406 1.0315086 -0.54774857 0.33291292 0.21129757
0.8709072 -0.9369184 0.10073321 0.42047524 -1.057592 -0.004879655 -0.3275243 0.44862062
0.6574114 -1.0409989 0.93765545 0.3237316 -0.2989411 0.8237852 -0.46621114 0.0076401695
-0.45029208 -0.016179416 1.5480431 -0.6132539 -0.46172243 0.4351313 0.19258326 -0.45873556
-0.24977003 -0.13924201 0.11404498 -0.19158861 -0.46664637 0.9404552 -0.6155337 1.1216639
0.39305496 -0.932342 0.39503887 -0.22977135 0.062881164 0.3649971 0.069030836 -0.38226143
-0.22373432 -0.6790432 -1.85327 -0.5464104 -0.4115226 -0.051860172 0.4074355 -0.41253608
-0.041758467 0.3065821 -0.6941244 0.76482403 0.12614673 0.18358806 0.25727737 0.30509254
0.79094154 0.19272128 -0.055825807 -0.13356611 0.035440248 -0.9952604 0.9515994 -0.053305708
0.028556887 0.31482738 -0.3449308 1.0469933 -0.58373046 -0.36369115 1.1424447 -0.4632639
-0.5777431 -0.70285875 -0.06612613 0.986436 -0.39319128 -0.47231773 -0.4755242 0.048394475
-0.14596583 -0.45727754 -0.4992192 -0.5426869 1.0992699 -0.2960785 0.04388644 0.21696754
0.330311 -0.37967864 0.31381884 0.56440574 -0.8523235 0.038129166 -0.52700895 1.2240281
-0.65039873 -0.0045296582 -0.6323042 0.7964376 -0.5796976 -0.20408203 0.2933404 0.37032637
-0.6174371 0.51392066 0.7803626 -1.4613117 0.32650372 0.09980459 -0.16667819 -0.094287306
0.54749 0.0615169 -1.1113029 -0.9229052 0.73418844 0.28926632 -0.20214562 0.14053687
-0.16413859 -0.15374242 -0.034343157 -0.21075252 0.1194078 0.009625524 -0.061173666 0.04995105
0.015225253 -0.48533306 0.018988973 0.22064474 0.4358582 0.3594128 -0.25842482 0.46933532
00000000: 96f8 5cbe 6cbc 28bf b1bd 6b3f f4be 733f
00000010: d2bc a5bf 5edd 883f 9941 9abe 6d93 e63e
00000020: 421c 713f 3ef7 5fbf eed8 90bf f267 7c3e
00000030: c362 8abd e682 25be 5fff 6e3f f2b9 dabe
00000040: 5c49 b0bc b196 c53e 0404 f2be 70c8 253e
00000050: eebd 4a3d d430 17bf e467 6e3f 5887 7fbf
00000060: 232f 943f 5d5d 06bf ac63 9e3e da79 1abf
00000070: c00b ea3e 489b 9c3e 2790 e33c 239e cebd
00000080: f6eb 133f c5d2 113e aa16 0b3f f1a5 573e
00000090: 8aa1 9fbe fa81 d3be 2701 c63e d127 cd3e
000000a0: 3f8a 71bd ff91 06be 2d46 a7be e94f 12bf
000000b0: 2b69 7f3e d6a0 a83e 7e8c 163f 0489 35be
000000c0: 9290 363f 186b 193f 386d 23bf 1037 a3be
000000d0: 067e 803f e49b a2be c0f0 203e dccb 71be
000000e0: 011b 853f c740 42bf 933a 82be 8338 803f
000000f0: c514 05bf debe 803e a2cf 843d 9c80 bebe
00000100: 6247 b7bd e10b b63f 20ea 8cbf 23d7 53be
00000110: b348 a03f 3ac8 70bf 9769 723e 1d36 413f
00000120: 6aee 1ebf 33ea 213f 6a19 f83e f93f 54bf
00000130: 18e6 fb3e 2957 b73f 1ae6 ccbf 76b9 873f
00000140: f8d0 94be 3e91 1fbf cab8 273f dcf7 ccbe
00000150: 0e8f c0bd 9dc6 903e 776b 9ebc 7b8e dfbe
00000160: d5bf a2bc bfa5 94bf 8162 5e3d e8de 233f
00000170: a298 0abf e864 2e3f 63f9 7bbf 1e59 5d3f
00000180: 8149 b8bd 50ea 86be 380b 943e d016 fc3b
00000190: 9398 babe 46ac 57be c239 233f 2161 45bf
000001a0: 27a9 f23e 6059 24bf 797c 18bf 3e5a 0b3f
000001b0: ef6a dbbe 614b 843e 2d2f 213e 2a58 5b3e
000001c0: 6f30 14be 933d abbe 49dc 293f a9c2 90bf
000001d0: 7908 843f 4039 0cbf 9073 aa3e 645e 583e
000001e0: c6f3 5e3f e2d9 6fbf 374d ce3d 8848 d73e
000001f0: 2d5f 87bf 83e5 9fbb 44b1 a7be 9ab1 e53e
00000200: 1d4c 283f 743f 85bf 300a 703f 26c0 a53e
00000210: cf0e 99be 96e3 523f 3ab3 eebe 635a fa3b
00000220: af8c e6be b28a 84bc 4726 c63f 35fe 1cbf
00000230: e266 ecbe 88c9 de3e 8c34 453e 63df eabe
00000240: b7c3 7fbe 7595 0ebe 6a90 e93d ce2f 44be
00000250: 46ec eebe acc1 703f 9e93 1dbf af92 8f3f
00000260: 803e c93e f7ad 6ebf 8942 ca3e 2e49 6bbe
00000270: d7c7 803d e6e0 ba3e 0a60 8d3d c5b7 c3be
00000280: 9c1a 65be c6d5 2dbf f437 edbf 8de1 0bbf
00000290: 17b3 d2be 556b 54bd 639b d03e ee37 d3be
000002a0: ed0a 2bbd 54f8 9c3e 23b2 31bf 82cb 433f
000002b0: 9c2c 013e 82fe 3b3e dcb9 833e 1735 9c3e
000002c0: 257b 4a3f ba58 453e 9aa9 64bd 8ec5 08be
000002d0: cb29 113d 63c9 7ebf 059c 733f 1657 5abd
000002e0: 22f0 e93c 0e31 a13e c59a b0be e003 863f
000002f0: 5c6f 15bf ba35 babe a13b 923f ed30 edbe
00000300: f9e6 13bf 8dee 33bf 236d 87bd 1287 7c3f
00000310: 5e50 c9be a1d3 f1be e877 f3be 4939 463d
00000320: 1178 15be 4820 eabe a999 ffbe 87ed 0abf
00000330: e0b4 8c3f 9a97 97be 45c2 333d bd2c 5e3e
00000340: 861e a93e 3d65 c2be ddac a03e e57c 103f
00000350: df31 5abf 542d 1c3d 0fea 06bf f4ac 9c3f
00000360: 8880 26bf 876d 94bb b0de 21bf 56e3 4b3f
00000370: 1067 14bf e1fa 50be b730 963e 6b9b bd3e
00000380: 5c10 1ebf 4e90 033f d8c5 473f 430c bbbf
00000390: 7f2b a73e 5966 cc3d b0ad 2abe b419 c1bd
000003a0: 4e28 0c3f 25f9 7b3d 2c3f 8ebf 8443 6cbf
000003b0: c6f3 3b3f b71a 943e 43ff 4ebe e6e8 0f3e
000003c0: f213 28be a76e 1dbe 69ab 0cbd 82cf 57be
000003d0: 148c f43d 60b4 1d3c 3d91 7abd 7999 4c3d
000003e0: 5773 793c 937d f8be c38e 9b3c b2f0 613e
000003f0: ce28 df3e f404 b83e 4250 84be b84c f03e

rnn.weight_hh_l0 f4 [48, 16]
0.22940826 -0.58553994 -0.5072705 -0.07965859 0.43106705 0.5540231 1.3739995 0.78864145
-0.6599181 -0.2015413 0.49023226 -0.7315041 0.70855707 -0.09664123 0.21335046 -0.11560176
-0.039851177 -0.19943586 0.05032761 -0.38191 0.096943475 -0.19653098 -0.3460889 0.007917151
-0.46231422 -0.42157593 -0.7599176 -0.22073956 -0.021196458 -1.0771921 0.2446578 0.30550796
-0.2825934 0.302089 -0.5722113 -0.7683532 0.4859661 -1.0240262 -0.86584014 0.5203453
-0.09594103 -1.1585358 -0.12134773 -0.19415039 1.1774216 -0.6702743 -2.0526226 1.558852
-0.18567413 -0.39811447 0.3263869 -0.17847054 -0.052772474 0.064146645 0.28062946 1.3238945
-0.28949955 -0.24780147 0.75919455 0.016362473 0.8027117 -0.48361838 -1.1631031 -0.2170168
1.2963275 -0.65537876 -1.403468 0.29499662 -1.0914739 2.0990756 0.9025347 1.3092409
-0.7528903 0.3882962 0.29439104 0.5456673 0.22692904 -0.48089704 0.33991608 -0.17842188
0.29062453 -0.2424639 0.5906966 -0.35073528 -0.53394735 0.5145803 0.80739546 0.5490058
0.094389394 -0.17947195 0.30950132 0.266653 0.73103195 -0.73512566 0.0707086 -0.15884711
0.22511594 -0.43420285 1.5225562 0.003945678 0.47865546 0.835205 0.52682143 0.1456626
-0.010417578 -0.2334978 -0.66919005 -0.08463127 -0.49977303 -1.4158288 -0.2800641 0.14930111
0.16215168 -0.039056696 0.2796082 -0.21660455 -0.013289326 0.1066213 -0.1082326 -0.7331172
0.39009914 0.3541018 -0.0094809495 0.45981073 -0.45063934 -0.28407755 -0.37065843 -0.5641062
-0.5356426 -0.15226524 -0.29755992 -0.69000983 0.6178596 -0.4028973 -0.059396714 0.14746086
-1.4386705 -1.2311708 -0.8479034 -1.4489595 0.454879 -0.28139815 0.37783083 0.068987206
0.9575475 -0.35641277 0.27022523 0.124286726 -0.8038366 0.9785702 0.8856911 1.3811717
-0.24834049 0.16255106 0.42718488 0.3121426 0.7105324 -0.41445944 -0.03380625 -0.27443975
0.73421246 0.45481366 -0.14834616 -0.005233677 -0.7209355 0.09866985 0.3226093 0.3203487
-0.21769135 -0.14125243 0.49891114 0.03523895 -0.08571485 0.1544789 -0.7134444 -0.03837952
-0.4543113 2.7161164e-05 0.054504506 -0.26427215 0.040680923 0.33440498 -0.06548631 0.8531859
-0.19424951 -0.36534795 -0.2766666 -0.3264265 0.33885267 -0.6800547 -0.104904704 0.35502973
-0.14682999 0.32815388 0.6034333 -0.010429609 0.41446945 -0.013149804 0.94811183 -0.16480793
-0.44656113 -0.63509375 -0.16301021 -0.47682834 -0.4989687 -0.7335212 0.23970391 0.048582498
-0.22082283 -0.060171176 0.54902434 0.101673394 -0.61028457 0.7150999 -0.39806387 -1.1916599
0.66489494 0.9669799 -0.6346238 -0.021790756 -0.4605733 -0.4873029 -0.2136915 -0.14759801
0.013516802 -0.38286397 0.2803124 -0.2113136 -0.071045086 0.7416329 0.5400753 -0.08391768
0.05520323 0.18329647 0.24172683 0.13130356 -0.25782526 -0.4129327 0.68767405 0.0702982
-0.04587488 -0.42372462 1.5595906 1.1321194 -0.71720773 0.4621742 1.7236989 1.49137
0.085454814 0.59755117 1.33989 0.68884605 0.7905755 0.19235437 0.41121092 -1.308066
00000000: 00ea 6a3e f2e5 15bf 7bdc 01bf 0b24 a3bd
00000010: d2b4 dc3e 75d4 0d3f 37df af3f 68e4 493f
00000020: 65f0 28bf d860 4ebe b9ff fa3e da43 3bbf
00000030: ff63 353f d6eb c5bd 8b78 5a3e 9ec0 ecbd
00000040: fd3a 23bd ea38 4cbe 5324 4e3d b589 c3be
00000050: 4d8a c63d 6b3f 49be 9032 b1be f0b6 013c
00000060: 73b4 ecbe cdd8 d7be f689 42bf 8d09 62be
00000070: 32a4 adbc 6ee1 89bf 9387 7a3e 8a6b 9c3e
00000080: 15b0 90be 69ab 9a3e 717c 12bf ccb2 44bf
00000090: 8cd0 f83e 4a13 83bf b3a7 5dbf 5935 053f
000000a0: bb7c c4bd e74a 94bf 2985 f8bd 5ccf 46be
000000b0: c0b5 963f 1997 2bbf 2b5e 03c0 7688 c73f
000000c0: 5c21 3ebe a9d5 cbbe 2f1c a73e fbc0 36be
000000d0: f327 58bd 515f 833d aaae 8f3e 6075 a93f
000000e0: 4939 94be abbf 7dbe 935a 423f 980a 863c
000000f0: 847e 4d3f d49c f7be 90e0 94bf a739 5ebe
00000100: 0fee a53f e7c6 27bf d7a4 b3bf cc09 973e
00000110: 6bb5 8bbf 4157 0640 840c 673f 3595 a73f
00000120: 6bbd 40bf c2ce c63e 6cba 963e dab0 0b3f
00000130: 1660 683e 2338 f6be 7b09 ae3e 3ab4 36be
00000140: bdcc 943e 7548 78be e437 173f 9393 b3be
00000150: c6b0 08bf 89bb 033f 78b1 4e3f a58b 0c3f
00000160: 3a4f c13d 7fc7 37be f576 9e3e be86 883e
00000170: e924 3b3f 3231 3cbf accf 903d d1a8 22be
00000180: cb84 663e d64f debe 1fe3 c23f bf4a 813b
00000190: 5412 f53e ffcf 553f c5dd 063f 9428 153e
000001a0: 7dae 2abc 0c1a 6fbe 0a50 2bbf 2953 adbd
000001b0: 40e2 ffbe e139 b5bf 9064 8fbe 64e2 183e
000001c0: 170b 263e eaf9 1fbd ce28 8f3e 95cd 5dbe
000001d0: 79bb 59bc 455c da3d 0ea9 ddbd 92ad 3bbf
000001e0: 13bb c73e d54c b53e fc55 1bbc 506c eb3e
000001f0: 33ba e6be 9d72 91be f1c6 bdbe 4469 10bf
00000200: e01f 09bf 6beb 1bbe c659 98be 7ca4 30bf
00000210: 0c2c 1e3f 8e48 cebe f849 73bd fbff 163e
00000220: 5b26 b8bf 0197 9dbf 3210 59bf 8177 b9bf
00000230: e6e5 e83e 6b13 90be 0b73 c13e 2a49 8d3d
00000240: d521 753f bc7b b6be f65a 8a3e 0a8a fe3d
00000250: 3cc8 4dbf 9483 7a3f a7bc 623f 3cca b03f
00000260: f84c 7ebe c973 263e fab7 da3e 28d1 9f3e
00000270: 74e5 353f 0734 d4be 6c78 0abd 5e83 8cbe
00000280: 59f5 3b3f 56dd e83e 0ee8 17be 447f abbb
00000290: 3b8f 38bf 6b13 ca3d 0c2d a53e bf04 a43e
000002a0: 7bea 5ebe 7aa4 10be 4871 ff3e b856 103d
000002b0: 448b afbd b72f 1e3e 4ba4 36bf d833 1dbd
000002c0: 7e9b e8be 28d8 e337 1e40 5f3d ae4e 87be
000002d0: 0aa1 263d 2137 ab3e b01d 86bd 646a 5a3f
000002e0: 58e9 46be e30e bbbe 3fa7 8dbe 6021 a7be
000002f0: 197e ad3e 1118 2ebf 47d8 d6bd 75c6 b53e
00000300: 9a5a 16be c903 a83e 9b7a 1a3f f3e0 2abc
00000310: 5735 d43e 4772 57bc 75b7 723f 69c3 28be
00000320: a9a3 e4be 8195 22bf 26ec 26be d822 f4be
00000330: d378 ffbe 0cc8 3bbf f174 753e 71fe 463d
00000340: 611f 62be 0d76 76bd dc8c 0c3f 243a d03d
00000350: 9c3b 1cbf c910 373f 07cf cbbe 5088 98bf
00000360: 8e36 2a3f ff8b 773f b576 22bf 8782 b2bc
00000370: 43d0 ebbe c47f f9be f2d1 5abe ef23 17be
00000380: 9475 5d3c bf06 c4be 1b85 8f3e 9862 58be
00000390: 1680 91bd a7db 3d3f 6042 0a3f 08dd abbd
000003a0: c81c 623d 12b2 3b3e 3d87 773e 7174 063e
000003b0: ac01 84be ea6b d3be 680b 303f 81f8 8f3d
000003c0: 4ce7 3bbd 6ff2 d8be aaa0 c73f 4ae9 903f
000003d0: ed9a 37bf 19a2 ec3e 2aa2 dc3f 36e5 be3f
000003e0: ef02 af3d 1df9 183f 8481 ab3f 3758 303f
000003f0: 2863 4a3f 8bf8 443e 3d8a d23e b56e a7bf

rnn.bias_ih_l0 f4 [48]
-0.28969383 -0.5860391 -0.28677538 -0.08491248 0.20635056 -0.211372 -0.89222354 0.010317547
-0.21934718 -0.124163456 -0.04379431 -0.4227107 -0.22065122 0.20013502 -0.60711026 0.15349945
1.6111766 1.1718951 1.1600157 1.3233379 1.5204033 1.6977844 1.6895556 1.761653
1.194927 1.0677058 1.5537649 1.0613893 1.5432643 0.5738952 1.5958053 1.5571581
0.41510993 0.33757085 0.09988679 -0.28709787 -0.28074726 0.17918317 0.3393099 -0.3249801
-0.15056217 0.27078062 0.23243205 0.19380896 -0.040974658 0.48456618 -0.17878921 -0.031346414
00000000: c052 94be a906 16bf 39d4 92be 98e6 adbd
00000010: 904d 533e e771 58be c368 64bf ee0a 293c
00000020: 8c9c 60be 6949 febd aa61 33bd 896d d8be
00000030: 65f2 61be 32f0 4c3e 946b 1bbf f62e 1d3e
00000040: 093b ce3f a900 963f 657b 943f 2363 a93f
00000050: 939c c23f 0051 d93f 5c43 d83f d87d e13f
00000060: 5ef3 983f 95aa 883f c5e1 c63f 9bdb 873f
00000070: af89 c53f ccea 123f 5943 cc3f f550 c73f
00000080: 4a89 d43e 16d6 ac3e 7291 cc3d 7efe 92be
00000090: 1bbe 8fbe cb7b 373e 07ba ad3e cb63 a6be
000000a0: f82c 1abe c2a3 8a3e ab02 6e3e db75 463e
000000b0: 0bd5 27bd 0f19 f83e 8514 37be 1965 00bd

rnn.bias_hh_l0 f4 [48]
-0.2410431 -0.35573304 -0.10993258 -0.0007106325 0.3595122 -0.04791087 -0.9200887 -0.05685221
-0.04055733 0.025869291 -0.13216546 -0.07036191 -0.28868237 0.039318424 -0.1822476 0.088001214
1.6001436 1.2496245 1.1511265 1.2334564 1.2771469 1.895845 1.2316571 1.7458323
1.2420626 1.0617591 1.5248097 1.2886522 1.4378487 0.7613526 1.4803642 1.3036638
0.26304314 -0.19299507 -0.022104993 -0.28416625 -0.30111706 0.119026534 -0.27769905 -0.2112008
-0.29969877 0.323176 -0.10799019 0.15430252 -0.30082622 0.67191935 -0.22193399 -0.10763247
00000000: 01d4 76be a422 b6be 5524 e1bd bd49 3aba
00000010: fc11 b83e 303e 44bd ef8a 6bbf dddd 68bd
00000020: 711f 26bd d6eb d33c 6256 07be e819 90bd
00000030: 2dce 93be 5b0c 213d 1d9f 3abe fb39 b43d
00000040: 81d1 cc3f b2f3 9f3f 1d58 933f e6e1 9d3f
00000050: 8d79 a33f 0dab f23f f1a6 9d3f 6f77 df3f
00000060: e8fb 9e3f b9e7 873f f72c c33f 8ef2 a43f
00000070: 6d0b b83f 01e8 423f 937c bd3f 75de a63f
00000080: 97ad 863e 80a0 45be 8815 b5bc 3d7e 91be
00000090: 042c 9abe 2fc4 f33d 922e 8ebe 0645 58be
000000a0: 1e72 99be 5377 a53e f629 ddbd 7b01 1e3e
000000b0: e505 9abe e802 2c3f aa42 63be 6a6e dcbd

mlp.0.weight f4 [128, 16]
0.04275594 -0.39272287 0.29919717 -0.2715833 -0.23519975 -0.024186052 -0.119106516 0.18993098
0.39948484 -0.0043154918 0.14446642 0.016363412 0.27436236 -0.044432215 -0.10515534 -0.19545867
-0.11450936 0.15252435 0.14791334 0.04473772 -0.74334896 -0.46842632 0.40425038 0.59544903
0.0041717645 -0.041059975 -0.19575995 -0.31602404 0.4624327 -0.06805379 0.007311325 -0.08180581
-0.013788218 -0.011782422 -0.07955087 -0.19279641 0.1280475 0.21911032 0.009313044 0.19567315
-0.35794267 0.10595334 0.3109895 0.15518323 -0.0401302 -0.48725912 0.08058221 0.2663407
0.3013122 -0.057230264 0.41491753 0.07922876 0.13064584 0.0674756 0.04746716 -0.0049455385
-0.20044376 -0.0933445 0.32471612 -0.22673048 -0.21773052 0.198249 -0.70497274 0.2911038
-0.18442544 -0.04657466 0.070989795 -0.1853175 -0.025203351 0.3918121 0.09601383 -0.075890206
0.0729806 -0.04884978 -0.32193083 -0.053983882 0.14321084 -0.32485777 -0.18244347 0.28844392
-0.23687448 0.0965825 -0.20207548 -0.38318765 0.18614615 -0.3264995 -0.33322793 -0.20498125
-0.24821742 -0.14524698 -0.12345134 -0.11622478 0.22790094 -0.07598138 -0.30828077 1.0305202
-0.47132224 -0.18821809 0.23679988 -0.08936232 -0.17054243 -0.1627023 0.018118693 0.09238705
0.0068577863 0.21609022 0.013131574 -0.08429369 -0.066394515 -0.33826512 0.04668906 0.28824037
0.14945269 0.012512539 0.11468301 -0.31186834 -0.028562209 0.39543697 -0.14323112 1.1540056
-0.317955 0.010386668 0.35196894 -0.08649405 0.5731504 0.011384681 -0.21714666 0.09878911
-0.10431485 -0.1917925 -0.02755124 -0.09007507 -0.1056517 0.20825279 -0.10708109 -0.063181356
0.07921597 -0.16684142 -0.1420646 0.062966846 0.06463586 -0.15064007 -0.030011646 0.06636782
0.56344014 0.17033662 0.07483655 0.18099184 0.29023775 0.5223616 0.46660227 0.2936647
-0.19275221 -0.13689224 -0.7940877 -0.03434575 -0.20738256 -0.067751415 -0.06619221 0.09783589
-0.9330912 -0.08497529 -0.088221155 0.055101562 0.07230016 -0.14391005 0.6578832 -0.73344064
-0.035424437 -0.06322574 -0.20261459 -0.11912098 0.12058229 0.34725723 -0.14352803 0.35163572
0.05828057 -0.07858074 -0.1439479 0.38710654 -1.1178899 0.2705744 0.5756121 0.8359464
0.014659517 0.10506956 -0.46928722 -0.12860538 -0.022363165 -0.22518386 0.07249711 0.18987969
-0.20527469 -0.15646058 0.14367981 0.1947096 0.05569258 0.26878914 -0.022229107 0.1587812
-0.061099228 0.07415822 -0.22943477 0.12888673 -0.08082537 -0.0459999 0.043941878 0.29610372
0.039773375 -0.24728143 0.3458379 -0.056019627 -0.2079149 0.09382377 0.22732815 0.07346352
-0.03599017 -0.05522368 -0.016711801 0.5000556 -0.23517643 -0.19539422 -0.051312562 0.6091575
-0.17119855 -0.85587883 0.22619171 -0.2514332 -0.40811738 -0.06852118 0.18617241 0.68734914
0.53843343 -0.031027898 -0.12922482 -0.121199265 0.45541278 -0.09771331 -0.013935032 0.02188986
-0.09119864 -0.083717145 0.033659063 -0.20448366 -0.03757083 0.1928698 -0.035942998 -0.024762688
-0.009596509 0.11251488 -0.03907153 -0.060506247 0.0095530255 -0.04122779 0.1934099 0.09990943
00000000: da20 2f3d f912 c9be 5f30 993e f70c 8bbe
00000010: 34d8 70be d421 c6bc 1eee f3bd 447d 423e
00000020: 4789 cc3e f868 8dbb 01ef 133e 900c 863c
00000030: 3979 8c3e 8efe 35bd af5b d7bd 5126 48be
00000040: e283 eabd 582f 1c3e 9876 173e e63e 373d
00000050: 1e4c 3ebf 93d5 efbe e8f9 ce3e 596f 183f
00000060: 4cb3 883b 812e 28bd 4c75 48be e7cd a1be
00000070: fbc3 ec3e c95f 8bbd d793 ef3b ce89 a7bd
00000080: fae7 61bc 0f0b 41bc 91eb a2bd 6c6c 45be
00000090: e21e 033e 755e 603e bd95 183c 8b5e 483e
000000a0: 4344 b7be 11fe d83d 043a 9f3e 5ae8 1e3e
000000b0: 915f 24bd 077a f9be 4908 a53d cf5d 883e
000000c0: 9845 9a3e 486a 6abd 1270 d43e b042 a23d
000000d0: 06c8 053e a630 8a3d ed6c 423d 2f0e a2bb
000000e0: 2141 4dbe 672b bfbd 3141 a63e 092c 68be
000000f0: c0f4 5ebe c901 4b3e 1879 34bf 8f0b 953e
00000100: 06da 3cbe 12c5 3ebd 1963 913d dfc3 3dbe
00000110: 4277 cebc 989b c83e e6a2 c43d 536c 9bbd
00000120: da76 953d b516 48bd 1ed4 a4be 341e 5dbd
00000130: dda5 123e c253 a6be 76d2 3abe ecae 933e
00000140: 398f 72be 0ccd c53d e0ec 4ebe 2c31 c4be
00000150: 199d 3e3e f12a a7be da9c aabe 9be6 51be
00000160: b52c 7ebe a0bb 14be 0ed4 fcbd 4207 eebd
00000170: dd5e 693e 209c 9bbd fad6 9dbe 16e8 833f
00000180: 2651 f1be 3ebc 40be ab7b 723e 9803 b7bd
00000190: ada2 2ebe 6f9b 26be a76d 943c 6c35 bd3d
000001a0: 48b7 e03b c146 5d3e d025 573c 2ca2 acbd
000001b0: d9f9 87bd 1631 adbe 073d 3f3d 3e94 933e
000001c0: 200a 193e 6401 4d3c edde ea3d 35ad 9fbe
000001d0: 4bfb e9bc b776 ca3e 2eab 12be 75b6 933f
000001e0: ffca a2be d82c 2a3c 4635 b43e cb23 b1bd
000001f0: fcb9 123f d086 3a3c b25b 5ebe f251 ca3d
00000200: 06a3 d5bd 4165 44be 23b3 e1bc 4779 b8bd
00000210: eb5f d8bd 3840 553e 554d dbbd 3a65 81bd
00000220: fc3b a23d 7ad8 2abe 6279 11be c3f4 803d
00000230: ce5f 843d 6441 1abe fcda f5bc daeb 873d
00000240: 9d3d 103f b96c 2e3e e843 993d ed55 393e
00000250: 0b9a 943e 7db9 053f 7ee6 ee3e 385b 963e
00000260: d660 45be 7b2d 0cbe 5549 4bbf 21ae 0cbd
00000270: 185c 54be 41c1 8abd c88f 87bd 2f5e c83d
00000280: 11df 6ebf 8607 aebd 4bad b4bd 2db2 613d
00000290: 1b12 943d 285d 13be 096b 283f c4c2 3bbf
000002a0: 3719 11bd 7f7c 81bd 337a 4fbe b3f5 f3bd
000002b0: d9f3 f63d b3cb b13e 03f9 12be 9909 b43e
000002c0: 9bb7 6e3d f0ee a0bd 1467 13be d432 c63e
000002d0: 0417 8fbf ba88 8a3e 515b 133f 9500 563f
000002e0: 792e 703c b62e d73d 6a46 f0be 21b1 03be
000002f0: f532 b7bc 9996 66be 5d79 943d d26f 423e
00000300: 8733 52be 3437 20be cd20 133e f461 473e
00000310: e71d 643d bb9e 893e d119 b6bc 8a97 223e
00000320: 2f43 7abd 44e0 973d f3f0 6abe e2fa 033e
00000330: c687 a5bd 646a 3cbd 66fc 333d e89a 973e
00000340: 68e9 223d 5837 7dbe aa11 b13e d674 65bd
00000350: a5e7 54be ad26 c03d b6c8 683e 0b74 963d
00000360: 6e6a 13bd 3a32 62bd 30e7 88bc a503 003f
00000370: 17d2 70be 6c15 48be 1f2d 52bd bff1 1b3f
00000380: ac4e 2fbe e01a 5bbf cd9e 673e dabb 80be
00000390: c3f4 d0be d554 8cbd fba3 3e3e 1df6 2f3f
000003a0: c6d6 093f 382e febc 8353 04be 5237 f8bd
000003b0: dd2b e93e ea1d c8bd c34f 64bc 5d52 b33c
000003c0: 5ac6 babd e573 abbd 16de 093d 2a64 51be
000003d0: dfe3 19bd a97f 453e f738 13bd 1fdb cabc
000003e0: ad3a 1dbc 346e e63d 7809 20bd 66d5 77bd
000003f0: 4b84 1c3c 79de 28bd 3f0d 463e 519d cc3d

mlp.0.bias f4 [128]
0.28500515 -0.14661647 0.15720324 0.10284451 -0.34828052 -0.13588783 -0.3734696 -0.5862422
-0.3313461 -0.025062576 -0.5021543 -0.25952542 -0.13471372 -0.35058713 -0.48093078 -0.46126342
-0.3935099 -0.33611444 -0.5007466 -0.7349723 -0.06252163 -0.24788955 -0.03193437 -0.5825764
-0.14209498 0.38758838 -0.36643532 0.018679302 -0.5100499 -0.34379387 -0.39423946 0.2821593
-0.25525257 -0.6627143 -0.3343645 -0.3738154 -0.48572636 -0.270065 0.21356829 0.0015604749
0.0035197039 -0.5877956 -0.2805105 -0.18072398 -0.3585306 -0.021141155 -0.07376887 -0.35437888
-0.23986453 -0.008162523 -0.20510927 0.2791207 0.37912604 -0.044724163 -0.2840208 -0.6514829
-0.55750567 -0.17221949 0.16514598 -0.49582845 -0.18401565 -0.28287944 0.20423287 -0.12531185
-0.112122975 -0.29552153 -0.1650074 -0.5659152 -0.50180864 0.046011385 0.31895277 0.2045287
-0.44787148 -0.22385989 -0.20155418 -0.18863328 -0.12900047 -0.3341423 -0.34582582 -0.42964917
0.21825275 0.26810798 -0.11381809 -0.3540694 -0.24178573 -0.24180654 -0.34872672 -0.3627605
0.025131049 -0.55535734 -0.15779717 0.12117688 -0.5003675 -0.38471016 0.0689615 -0.41313422
-0.10665695 -0.15189555 -0.16648392 -0.25634837 -0.2215222 -0.4673026 -0.3675197 0.32937452
0.5035623 0.1649467 0.026474763 -0.17612708 -0.12977909 -0.16141613 -0.34231448 -0.35692856
-0.116157115 -0.3361195 -0.22574455 -0.0892019 0.2505925 -0.09585187 0.028658623 0.5535231
-0.36112708 -0.6385699 0.17358798 0.21186529 0.2919263 -0.41859576 0.34074455 0.35715866
00000000: 32ec 913e a122 16be e3f9 203e 24a0 d23d
00000010: d351 b2be 2e26 0bbe 6837 bfbe f813 16bf
00000020: 32a6 a9be 0850 cdbc 2f8d 00bf 84e0 84be
00000030: 65f2 09be 2880 b3be 8f3c f6be b82a ecbe
00000040: 217a c9be 3117 acbe ee30 00bf 2527 3cbf
00000050: 570b 80bd c2d6 7dbe 9dcd 02bd ba23 15bf
00000060: 5981 11be fc71 c63e 699d bbbe 5605 993c
00000070: a192 02bf c005 b0be c1d9 c9be 2f77 903e
00000080: 77b0 82be a5a7 29bf d331 abbe bb64 bfbe
00000090: 20b1 f8be f645 8abe a5b1 5a3e d988 cc3a
000000a0: d5aa 663b c679 16bf 129f 8fbe b50f 39be
000000b0: 5391 b7be 3730 adbc 2214 97bd 2671 b5be
000000c0: 0c9f 75be 1abc 05bc 2a08 52be e9e8 8e3e
000000d0: cf1c c23e af30 37bd 2d6b 91be 95c7 26bf
000000e0: b1b8 0ebf 4e5a 30be 071c 293e 3add fdbe
000000f0: 996e 3cbe 93d5 90be 6c22 513e c051 00be
00000100: bba0 e5bd 994e 97be b3f7 28be d2df 10bf
00000110: 8876 00bf 6f76 3c3d c74d a33e f96f 513e
00000120: 694f e5be 873b 65be 3864 4ebe 1529 41be
00000130: b318 04be b314 abbe 1510 b1be fafa dbbe
00000140: a67d 5f3e 7345 893e 7519 e9bd 9648 b5be
00000150: ae96 77be 229c 77be 4f8c b2be bfbb b9be
00000160: a1df cd3c e62b 0ebf 9595 21be 962b f83d
00000170: 1618 00bf bbf8 c4be b03b 8d3d 5486 d3be
00000180: f66e dabd 828a 1bbe c37a 2abe 1840 83be
00000190: b7d6 62be 4942 efbe 8b2b bcbe c7a3 a83e
000001a0: 75e9 003f cae7 283e 9ae1 d83c a85a 34be
000001b0: cfe4 04be 454a 25be d843 afbe 57bf b6be
000001c0: c8e3 edbd db17 acbe 9429 67be 7caf b6bd
000001d0: a94d 803e fc4d c4bd 7dc5 ea3c b1b3 0d3f
000001e0: a6e5 b8be 5179 23bf 0cc1 313e 37f3 583e
000001f0: 5d77 953e 2f52 d6be 1276 ae3e 80dd b63e

mlp.2.weight f4 [128, 128]
-0.060570356 -0.00646307 -0.018473081 -0.07634076 -0.071239576 -0.084990926 0.012504776 0.022396903
-0.012766506 -0.009547045 -0.09067494 -0.11705349 -0.031144334 -0.10762573 0.00067089876 -0.001199561
-0.02707454 0.0114158075 -0.036740597 0.01935611 -0.062306404 -0.006681443 -0.036764875 -0.07054806
-0.12951778 0.011787747 -0.14457509 -0.10709456 -0.11153054 0.090354495 -0.022253506 -0.057682227
-0.039584234 -0.057114027 -0.09720739 -0.14266743 -0.12137662 -0.012308788 -0.07674345 -0.07281997
-0.08537378 -0.051423855 -0.05756247 -0.12605353 -0.0074450104 -0.1213733 -0.089646205 -0.037005227
-0.06794794 -0.07648519 -0.0783185 -0.10642397 -0.014677834 -0.01969599 -0.00610728 -0.13240775
-0.108381316 -0.057940334 -0.05394754 -0.0034744365 -0.05915715 -0.0630038 -0.055565864 -0.0093578985
-0.06682511 -0.09008244 -0.1327175 -0.12934709 -0.02032882 -0.075032994 -0.14163925 -0.039289
-0.025029413 -0.023277719 -0.057029236 -0.03377322 -0.023076879 0.01927724 -0.14268729 -0.024859337
-0.017656155 -0.057354957 0.02398433 -0.10257668 -0.0094984155 0.026890147 -0.13714656 -0.099218056
0.023777537 -0.071367934 -0.020331778 -0.11375619 0.010414787 -0.002781679 -0.034543432 0.024002708
0.0015058788 0.062007252 0.021186467 -0.0344517 -0.049486544 -0.107983515 -0.12874702 -0.09553732
-0.058143433 -0.06163255 -0.08284373 -0.10487042 0.008134856 -0.10115436 0.10972162 -0.07028306
0.024281261 0.014284175 0.002762581 -0.0394759 0.013367577 -0.091449335 -0.094821855 -0.09174373
-0.0071500205 -0.067461535 -0.05214585 0.02829817 -0.1239817 0.017583612 -0.1477547 -0.13598411
-0.0070634363 -0.005667556 -0.09932212 -0.0461417 0.0012365035 0.003169117 -0.029110208 -0.12294779
-0.051550154 -0.11491941 -0.060324788 0.008767911 0.021590406 -0.033570014 -0.074262485 -0.03473398
-0.036011767 -0.099796355 0.02508374 0.010382068 -0.022889923 -0.13938583 -0.12982927 -0.11312443
-0.09396746 0.0023379212 -0.01386199 -0.10365273 -0.036519356 -0.08739647 -0.08255947 0.01573909
-0.09040804 -0.042954057 -0.00924389 -0.0906877 -0.14787765 0.009671687 -0.08688697 -0.13121888
-0.11337586 0.027669882 0.0050691925 -0.073231496 -0.09991792 0.026100362 -0.06958421 -0.110903054
-0.0027524158 0.018774232 -0.041071996 -0.12519273 -0.039188843 -0.025574043 -0.068918884 -0.10418007
-0.0070207166 -0.075089924 -0.0012901479 -0.0043137623 -0.00831867 -0.07424697 -0.088741295 -0.13705252
-0.14303619 -0.047969453 -0.08986033 0.010224378 -0.12694669 -0.03660246 -0.06676752 0.0021020991
-0.026606 -0.13201435 -0.021085564 -0.004579952 -0.11726955 -0.061603803 -0.036156435 -0.062584445
-0.12277936 -0.025275888 -0.101566024 -0.004950307 0.027765859 -0.0844157 -0.03092172 -0.07182408
-0.1337361 0.00012018066 -0.083246276 0.0006511512 -0.061682303 -0.11030168 -0.016433237 -0.0930299
-0.04964709 -0.08647119 -0.065974854 0.015043784 0.012491182 -0.13106719 -0.04227704 -0.0795703
0.01953091 -0.029053835 -0.11167446 -0.08033752 -0.05522318 0.015356365 -0.12199368 -0.019075638
0.02657482 -0.055294976 -0.084793754 -0.092076935 -0.10959322 -0.13057923 -0.06622207 -0.07598343
0.005685394 -0.026324965 -0.13407001 -0.10352777 -0.014700469 -0.027909927 -0.017962448 -0.14104232
00000000: 9f18 78bd 29c8 d3bb dc54 97bc 8b58 9cbd
00000010: 0ee6 91bd b90f aebd d5e0 4c3c b679 b73c
00000020: 9b2a 51bc 366b 1cbc c8b3 b9bd bdb9 efbd
00000030: 6722 ffbc e16a dcbd 41df 2f3a 973a 9dba
00000040: 6dcb ddbc 5e09 3b3c 4f7d 16bd b490 9e3c
00000050: 0035 7fbd 02f0 dabb c496 16bd 807b 90bd
00000060: 4fa0 04be 6521 413c 7e0b 14be 6554 dbbd
00000070: 206a e4bd c70b b93d fc4c b6bc 3344 6cbd
00000080: 1423 22bd 66f0 69bd ab14 c7bd 6917 12be
00000090: 4e94 f8bd ccaa 49bc ab2b 9dbd a322 95bd
000000a0: 73d8 aebd d2a1 52bd a0c6 6bbd 2d14 01be
000000b0: 46f5 f3bb 9192 f8bd 6e98 b7bd cb92 17bd
000000c0: 4a28 8bbd 44a4 9cbd 7365 a0bd cff4 d9bd
000000d0: 4c7b 70bc 7c59 a1bc 941f c8bb e695 07be
000000e0: 06f7 ddbd d852 6dbd 18f8 5cbd 5fb3 63bb
000000f0: c54e 72bd 2308 81bd 0899 63bd df51 19bc
00000100: 9adb 88bd 247d b8bd 19e7 07be 9073 04be
00000110: a088 a6bc e6aa 99bd e109 11be 81ed 20bd
00000120: 7c0a cdbc eab0 bebc 7d97 69bd ca55 0abd
00000130: b90b bdbc 4deb 9d3c 9e1c 12be cfa5 cbbc
00000140: a4a3 90bc 08ed 6abd c97a c43c b913 d2bd
00000150: 3e9f 1bbc ba48 dc3c 2670 0cbe d632 cbbd
00000160: 1cc9 c23c 5a29 92bd d48e a6bc 01f9 e8bd
00000170: c8a2 2a3c d44c 36bb 6a7d 0dbd 54a1 c43c
00000180: e860 c53a 51fb 7d3d 3e8f ad3c 3a1d 0dbd
00000190: 67b2 4abd 7626 ddbd 42d6 03be 12a9 c3bd
000001a0: cf27 6ebd 6a72 7cbd f9a9 a9bd 4ec6 d6bd
000001b0: 0f48 053c 042a cfbd bbb5 e03d 91f0 8fbd
000001c0: 7fe9 c63c 2c08 6a3c 6b0c 353b 7bb1 21bd
000001d0: af03 5b3c ca49 bbbd f631 c2bd 23e4 bbbd
000001e0: b84a eabb 4629 8abd e396 55bd 90d1 e73c
000001f0: 1eea fdbd 820b 903c 024d 17be 6b3f 0bbe
00000200: 6674 e7bb e8b6 b9bb 6569 cbbd 14ff 3cbd
00000210: 2c12 a23a f6b0 4f3b 8878 eebc 0dcc fbbd
00000220: 4126 53bd de5a ebbd 2017 77bd 49a7 0f3c
00000230: 5dde b03c b680 09bd ee16 98bd 3845 0ebd
00000240: 1381 13bd 0862 ccbd 6a7c cd3c 8d19 2a3c
00000250: a683 bbbc 29bb 0ebe f7f1 04be c8ad e7bd
00000260: 0372 c0bd cf37 193b 661d 63bc e247 d4bd
00000270: 5295 15bd ecfc b2bd f014 a9bd 44ef 803c
00000280: da27 b9bd 98f0 2fbd af73 17bc 79ba b9bd
00000290: 3d6d 17be ff75 1e3c ccf1 b1bd 3e5e 06be
000002a0: 9a31 e8bd f3ab e23c 781b a63b 65fa 95bd
000002b0: c4a1 ccbd 6dd0 d53c 2b82 8ebd 2421 e3bd
000002c0: e061 34bb 6bcc 993c 1c3b 28bd 8632 00be
000002d0: 7b84 20bd a880 d1bc 5825 8dbd 5c5c d5bd
000002e0: 0a0e e6bb bfc8 99bd 2e1a a9ba 765a 8dbb
000002f0: 084b 08bc cc0e 98bd ffbd b5bd 7f57 0cbe
00000300: 1478 12be 9e7b 44bd b108 b8bd 2684 273c
00000310: 50fe 01be 76ec 15bd 69bd 88bd 5fc3 093b
00000320: d3f4 d9bc c52e 07be a2bb acbc 6c13 96bb
00000330: 052b f0bd 4554 7cbd c518 14bd 462c 80bd
00000340: bf73 fbbd 610f cfbc d901 d0bd 2f36 a2bb
00000350: 3a75 e33c 23e2 acbd 8c4f fdbc 8118 93bd
00000360: 1ef2 08be 8009 fc38 067d aabd 04b2 2a3a
00000370: 95a6 7cbd d9e5 e1bd ff9e 86bc 7686 bebd
00000380: bf5a 4bbd cf17 b1bd d31d 87bd 347a 763c
00000390: d1a7 4c3c 7a36 06be b12a 2dbd c1f5 a2bd
000003a0: 49ff 9f3c 4f02 eebc 94b5 e4bd ff87 a4bd
000003b0: b431 62bd 4399 7b3c d3d7 f9bd 8344 9cbc
000003c0: 70b3 d93c fc7c 62bd 59a8 adbd d592 bcbd
000003d0: 6972 e0bd 90b6 05be 709f 87bd 339d 9bbd
000003e0: 8b4c ba3b 74a7 d7bc a649 09be 5e06 d4bd
000003f0: 3cda 70bc 5ca3 e4bc fc25 93bc 666d 10be

mlp.2.bias f4 [128]
-0.114767626 -0.088124596 -0.08954691 0.017366476 0.03441958 0.0006897446 -0.17564969 0.18967222
-0.114601456 -0.113496795 0.18045588 0.3352862 0.08029201 0.22220595 0.16796546 -0.34133416
-0.0386697 0.01622397 -0.36483866 -0.13642542 0.35006014 0.2657742 0.416981 0.12407401
0.010057815 -0.004945937 0.28916785 -0.06966089 0.009808786 -0.0184875 -0.073979035 0.24559002
0.50147873 0.017879203 0.3331393 0.41984376 0.3801189 0.09598411 -0.14099737 0.015200616
-0.21634382 -0.014882462 0.5228406 0.3764057 -0.10737363 -0.1434641 -0.11086607 -0.0538352
0.08226582 0.025782939 -0.0119952 -0.026977194 -0.081176706 0.01485039 0.37242022 -0.046617355
-0.10832002 0.24808876 -0.1046298 -0.087043785 -0.01313891 -0.0819625 -0.19325908 0.1094581
0.2691356 -0.075609766 0.19603902 -0.056357205 -0.12688641 0.33426645 0.17547666 0.0015066484
-0.07514529 -0.116599806 -0.07451379 -0.08570186 -0.069718145 -0.075397186 -0.03246035 0.15918615
-0.04090489 0.4913227 0.2166203 -0.013226721 -0.039524544 0.006801731 -0.08251284 -0.065139145
0.022716958 0.20195575 0.17481492 0.111525245 -0.09960131 -0.054657537 0.0009599651 -0.02238879
-0.15151145 -0.060845118 -0.13134241 -0.12090285 -0.0568241 -0.058728527 0.4193659 -0.087362595
-0.032408442 -0.13658506 -0.011243896 0.30943295 -0.051637948 -0.14770038 -0.07304221 -0.12980615
0.021070004 -0.1306532 -0.030458948 -0.09431492 -0.13210148 -0.023774372 -0.11997547 -0.019426597
-0.11461803 -0.045904327 0.0522952 0.11228002 0.2270005 0.00088144216 0.44583288 -0.1367136
00000000: 4a0b ebbd ab7a b4bd 5f64 b7bd 2444 8e3c
00000010: 8cfb 0c3d facf 343a 83dd 33be 6f39 423e
00000020: 2bb4 eabd 0271 e8bd 6dc9 383e a2aa ab3e
00000030: 2370 a43d f589 633e 23ff 2b3e 5ac3 aebe
00000040: 1f64 1ebd 22e8 843c 22cc babe 1bb3 0bbe
00000050: 153b b33e 8e13 883e 897e d53e 841a fe3d
00000060: 89c9 243c 8711 a2bb cf0d 943e 5eaa 8ebd
00000070: 08b5 203c 1973 97bc 5282 97bd f37b 7b3e
00000080: e960 003f 6877 923c 3c91 aa3e c3f5 d63e
00000090: f29e c23e 5193 c43d 9d61 10be 010c 793c
000000a0: 3c89 5dbe 92d5 73bc e2d8 053f 3fb8 c03e
000000b0: b5e6 dbbd 41e8 12be c00d e3bd 4c82 5cbd
000000c0: fb7a a83d be36 d33c 8487 44bc 47ff dcbc
000000d0: f93f a6bd 0d4f 733c ddad be3e d7f1 3ebd
000000e0: e3d6 ddbd fb0a 7e3e 2648 d6bd 0344 b2bd
000000f0: 9544 57bc f5db a7bd b5e5 45be 912b e03d
00000100: 24cc 893e 4bd9 9abd 74be 483e d0d6 66bd
00000110: 83ee 01be f924 ab3e 27b0 333e bb7a c53a
00000120: c6e5 99bd e1cb eebd b09a 98bd 7584 afbd
00000130: 63c8 8ebd d769 9abd 25f5 04bd b201 233e
00000140: e38b 27bd a68e fb3e b6d1 5d3e e4b4 58bc
00000150: 7de4 21bd 0ee1 de3b 7efc a8bd ac67 85bd
00000160: ea18 ba3c 7dcd 4e3e af02 333e 5967 e43d
00000170: c6fb cbbd 95e0 5fbd 2ba6 7b3a b268 b7bc
00000180: d125 1bbe bb38 79bd a07e 06be ea9b f7bd
00000190: 63c0 68bd 538d 70bd 21b7 d63e 29eb b2bd
000001a0: b7be 04bd f4dc 0bbe 5138 38bc ff6d 9e3e
000001b0: 5082 53bd c53e 17be 2797 95bd e7eb 04be
000001c0: 009b ac3c f4c9 05be 0b85 f9bc 2e28 c1bd
000001d0: 9c45 07be 79c2 c2bc b3b5 f5bd 8724 9fbc
000001e0: dcbc eabd 2d06 3cbd 7e33 563d 11f3 e53d
000001f0: d272 683e 9510 673a 3544 e43e a6fe 0bbe

mlp.4.weight f4 [3, 128]
-0.10296067 0.0055157533 0.0031067738 0.008510109 0.021858426 0.025260825 0.22545932 -0.026112514
-0.038297955 0.025364285 -0.0021534346 -0.15218192 -0.28507787 -0.054465536 -0.021521267 0.1577015
0.009877186 0.020328684 -0.068773955 -0.07155748 0.017288903 -0.1404272 0.045734566 -0.011594879
-0.03792297 -0.053478785 0.13273779 -0.023489153 0.053848445 -0.0077589513 -0.05704603 -0.08082464
-0.25855473 -0.074312985 0.088784724 -0.08795948 -0.038791183 0.02035605 0.028084679 -0.014892435
0.0529798 -0.075346306 -0.00018741845 -0.094286904 0.0017832514 -0.024325829 0.011689395 0.0028034784
0.3116963 -0.009442761 -0.048452463 -0.0074609625 -0.018646307 -0.073520236 0.032457165 0.10128924
0.024685364 -0.071215175 -0.029887037 -0.035651226 -0.45454726 0.11889263 0.048870407 -0.25181645
-0.010571974 -0.03874067 -0.05024671 0.01324741 -0.017919835 0.0016462732 0.081084795 -0.35133085
-0.07558876 0.00379831 0.04300384 0.0034785934 0.017035585 0.053210095 -0.013125421 -0.15770115
-0.019509494 -0.16536865 -0.13580775 -0.0549961 0.08890015 -0.043439485 -0.030286752 -0.08462092
0.023784682 -0.04510437 0.031364806 -0.0034974962 0.021098524 0.14243406 -0.07132506 0.024211988
0.019920139 -0.057143684 -0.08547365 -0.06443218 0.01116703 -0.07059985 -0.263015 -0.09323735
-0.008818321 -0.06667872 -0.068824835 -0.050157655 0.0364325 0.26507938 -0.041726787 0.036103744
-0.018504066 -0.04252095 -0.0888838 0.0340945 -0.00090475415 0.013639065 -0.036617305 -0.030784324
0.0073184418 0.002450531 0.19747075 -0.04809283 0.23346181 -0.112447776 0.017491257 -0.0136014605
-0.013251118 0.016845243 0.009331987 0.08778199 0.018628532 0.002407596 0.06293068 0.20545334
0.07327545 0.012775506 -0.04182143 -0.01628066 -0.29582253 -0.19283132 -0.06479893 0.018331764
-0.011052717 0.0095136585 -0.23714991 0.031559348 0.25007358 0.0013597115 0.24747032 -0.030862713
0.041549515 0.03594785 0.07689146 0.07856213 0.039021716 0.11891211 0.0014957124 -0.07201548
0.020513851 0.031480726 0.11252159 -0.028018713 0.02191318 -0.25544032 -0.025299022 -0.010861845
0.04301828 0.009936138 0.21073657 -0.024475142 0.02241238 -0.01319114 0.05561882 0.057182197
0.13935898 -0.009002672 0.035687853 0.012921994 0.06355041 0.024965104 0.40108776 0.022833534
0.11776728 0.0061783274 -0.032077238 0.057656284 -0.07304847 -0.024331445 0.20537908 0.014544075
0.07403833 0.056598146 0.07739621 0.108164944 -0.021909004 0.11862878 0.15414168 -0.03425671
0.034632664 -0.0010631605 -0.026867133 0.0016773376 0.120834045 0.0034777229 -0.013651014 -0.10960323
0.0014499994 0.05656846 -0.040269144 0.04379278 0.04184417 0.0066598984 0.022745617 0.009583937
-0.015285563 -7.161114e-05 -0.11256165 -0.31165135 0.022818033 0.09857312 0.00031584487 0.032677043
-0.06932289 0.031942535 0.016306544 0.021604428 0.058868825 -0.029181417 -0.04280776 0.009240796
-0.0075778244 0.001741796 -0.02078043 0.050254326 -0.0036548858 -0.0061568934 -0.0231899 0.024759362
-0.05995749 0.048347544 -0.0002464591 0.12024396 0.06003055 0.006196778 -0.24337138 0.07081728
-0.02335563 -0.01357743 0.7681081 0.10778945 0.035397794 -0.13352403 0.19516599 0.024869211
00000000: 0bdd d2bd 7ebd b43b 049b 4b3b fc6d 0b3c
00000010: 7110 b33c caef ce3c cfde 663e e9e9 d5bc
00000020: 51de 1cbd c3c8 cf3c a320 0dbb 94d5 1bbe
00000030: baf5 91be 4117 5fbd 5e4d b0bc 817c 213e
00000040: ecd3 213c 5788 a63c 5cd9 8cbd ba8c 92bd
00000050: 75a1 8d3c 26cc 0fbe 2b54 3b3d 73f8 3dbc
00000060: 1e55 1bbd 920c 5bbd 6aec 073e 536c c0bc
00000070: 3090 5c3d cd3e febb 19a9 69bd 6487 a5bd
00000080: 4961 84be 6831 98bd c4d4 b53d 1a24 b4bd
00000090: 81e3 1ebd bbc1 a63c d711 e63c 66ff 73bc
000000a0: 5901 593d 2a4f 9abd c285 44b9 7e19 c1bd
000000b0: fdbb e93a f646 c7bc e084 3f3c 90ba 373b
000000c0: a896 9f3e cfb5 1abc 1776 46bd 177b f4bb
000000d0: 24c0 98bc c791 96bd cef1 043d bc70 cf3d
000000e0: f638 ca3c 43d9 91bd a9d5 f4bc 0507 12bd
000000f0: 6bba e8be fb7d f33d 562c 483d 16ee 80be
00000100: 1336 2dbc 89ae 1ebd 7fcf 4dbd aa0b 593c
00000110: 9ecc 92bc c3c7 d73a c90f a63d a3e1 b3be
00000120: 48ce 9abd 11ed 783b cb24 303d 1df9 633b
00000130: 368e 8b3c d4f2 593d 010c 57bc 697c 21be
00000140: 60d2 9fbc 6656 29be 3011 0bbe 9743 61bd
00000150: 4811 b63d 9aed 31bd ec1b f8bc bc4d adbd
00000160: 18d8 c23c 5cbf 38bd 6278 003d 4036 65bb
00000170: d0d6 ac3c 3cda 113e e012 92bd 3858 c63c
00000180: 8f2f a33c 7f0f 6abd cf0c afbd 05f5 83bd
00000190: ebf5 363c a796 90bd e7a9 86be 39f3 bebd
000001a0: b87a 10bc da8e 88bd 09f4 8cbd 1d72 4dbd
000001b0: 3f3a 153d 7cb8 873e b5e9 2abd 85e1 133d
000001c0: d795 97bc 732a 2ebd b608 b6bd ada6 0b3d
000001d0: 062d 6dba 6376 5f3c 07fc 15bd 682f fcbc
000001e0: 8acf ef3b 1799 203b c635 4a3e fdfc 44bd
000001f0: 9d10 6f3e 054b e6bd d349 8f3c a9d8 5ebc
00000200: 381b 59bc 09ff 893c 31e5 183c 0bc7 b33d
00000210: dd9a 983c c2c8 1d3b cde1 803d 5c62 523e
00000220: 7011 963d 5b50 513c f34c 2bbd 055f 85bc
00000230: 0d76 97be 9375 45be 4db5 84bd 7f2c 963c
00000240: 7516 35bc 2ddf 1b3c 6dd7 72be 6044 013d
00000250: a509 803e 5938 b23a dc68 7d3e cdd3 fcbc
00000260: d32f 2a3d 0e3e 133d 4579 9d3d 2fe5 a03d
00000270: 3cd5 1f3d 3188 f33d c80b c43a da7c 93bd
00000280: aa0c a83c eff1 003d b871 e63d 8087 e5bc
00000290: 4583 b33c 13c9 82be e53f cfbc e1f5 31bc
000002a0: f033 303d 2fcb 223c 54cb 573e 1880 c8bc
000002b0: 2b9a b73c a71f 58bc 8fd0 633d e137 6a3d
000002c0: 1fb4 0e3e f17f 13bc 6d2d 123d c5b6 533c
000002d0: b826 823d 9e83 cc3c 605b cd3e 640d bb3c
000002e0: f92f f13d 9173 ca3b 6c63 03bd ff28 6c3d
000002f0: 709a 95bd bd52 c7bc e54e 523e 464a 6e3c
00000300: 68a1 973d 75d3 673d e781 9e3d 9585 dd3d
00000310: 837a b3bc a5f3 f23d 51d7 1d3e c450 0cbd
00000320: fbda 0d3d bf59 8bba 7618 dcbc 1cda db3a
00000330: d777 f73d 82ea 633b 81a8 5fbc a977 e0bd
00000340: e80d be3a 54b4 673d 42f1 24bd 0f60 333d
00000350: cb64 2b3d 473b da3b 0455 ba3c f205 1d3c
00000360: 4c70 7abc f02d 96b8 b986 e6bd c490 9fbe
00000370: e2ec ba3c b4e0 c93d fb97 a539 5dd8 053d
00000380: 29f9 8dbd 2dd6 023d 4d95 853c c5fb b03c
00000390: 7020 713d de0d efbc 3157 2fbd b566 173c
000003a0: 664f f8bb fa4c e43a b83b aabc 7bd7 4d3d
000003b0: cf86 6fbb c4bf c9bb bff8 bdbc 25d4 ca3c
000003c0: fc95 75bd 1308 463d 2e37 81b9 7742 f63d
000003d0: 98e2 753d 570e cb3b 5936 79be a608 913d
000003e0: 4e54 bfbc de73 5ebc bca2 443f b7c0 dc3d
000003f0: 47fd 103d 86ba 08be 98d9 473e 84ba cb3c

mlp.4.bias f4 [3]
-0.28558278 0.49495468 0.052912682
00000000: e837 92be b36a fd3e f8ba 583d
