EUSIPCO/Nested Array/few_data/da_music_15.0dB_ula_1.pth (torch, 47038 bytes, 18 tensors)

bn.weight f4 [16]
0.91564983 1.0583118 1.297924 1.1899881 1.0753375 1.2582475 1.1280465 0.95741785
0.8695285 0.9660965 1.0583398 1.0151974 1.2075697 0.9846202 0.9745084 0.8446106
00000000: 0768 6a3f c376 873f 6022 a63f 8851 983f
00000010: a9a4 893f 410e a13f d463 903f 5619 753f
00000020: 6b99 5e3f 1a52 773f ae77 873f fdf1 813f
00000030: a591 9a3f 1210 7c3f 6279 793f 6638 583f

bn.bias f4 [16]
-0.009484733 -0.037369583 -0.0199164 0.16660568 -0.1688028 -0.042209048 0.07143582 0.07520794
0.031962875 0.015813299 -0.02930758 0.022987355 0.0057409913 -0.1693894 -0.0036150308 -0.07764589
00000000: db65 1bbc d910 19bd b827 a3bc ae9a 2a3e
00000010: a4da 2cbe 65e3 2cbd f14c 923d 9f06 9a3d
00000020: 81eb 023d e48a 813c 7316 f0bc fa4f bc3c
00000030: ed1e bc3b 6a74 2dbe 27ea 6cbb cf04 9fbd

bn.running_mean f4 [16]
-0.0025272218 0.002191156 0.00024446636 -0.0006880264 0.00039452978 0.0003119077 0.0005095138 -0.005329459
-0.00065102737 -0.0039302534 -0.00023660819 -3.0771203e-05 -0.0008671568 0.002680695 0.0035014004 0.00074245286
00000000: bf9f 25bb 7f99 0f3b b82b 8039 ac5c 34ba
00000010: e4d8 ce39 8b87 a339 e490 053a bea2 aebb
00000020: b5a9 2aba 5bc9 80bb 071a 78b9 5410 01b8
00000030: e851 63ba 99ae 2f3b c077 653b 2ba1 423a

bn.running_var f4 [16]
1.5177255 1.5192488 1.5134631 1.5119987 1.5240585 1.5205369 1.5190654 1.5183324
1.5212762 1.5135348 1.5209308 1.5149618 1.5174803 1.5157031 1.5116186 1.52029
00000000: d444 c23f bf76 c23f 29b9 c13f 2c89 c13f
00000010: 5914 c33f f4a0 c23f bc70 c23f b758 c23f
00000020: 2eb9 c23f 82bb c13f dcad c23f 45ea c13f
00000030: cb3c c23f 8f02 c23f b87c c13f dd98 c23f

rnn.weight_ih_l0 f4 [48, 16]
0.10098004 0.21688944 0.090745606 0.17328225 -0.032952968 -0.22337005 -0.24994038 0.02595283
-0.015899 -0.073939495 0.18650189 0.028555075 0.42600673 0.09080603 -0.18779713 0.11999318
0.04721368 -0.39417344 -0.06580893 -0.6650623 0.0030069288 -0.4899079 -0.29664138 -0.53013927
-0.16207674 -0.10525592 -0.04752773 -0.35136232 0.014115739 -0.12037943 -0.36742288 0.37070373
0.1391799 -0.17859814 0.22074296 -0.20687516 0.16754498 0.19913273 -0.011412939 -0.10568639
0.008553563 -0.41984892 -0.45774418 0.010156291 -0.0310796 0.10212506 0.026519584 0.214074
0.1282156 -0.30222917 -0.1581744 -0.690387 -0.04228667 -0.31359363 -0.2674478 0.13807684
0.6598959 -0.16506158 0.23298931 0.03530734 0.0042523593 0.22044338 -0.07970845 -0.71979535
-0.083745025 0.04638128 -0.2897561 0.10143563 0.014959141 0.27917704 0.066337176 -0.13482034
0.045368057 0.3264924 0.16008122 -0.18411972 0.24198881 -0.150606 -0.1747284 0.6503604
0.05133008 -0.0047621033 -0.05871718 -0.14238697 -0.3223105 -0.06574765 0.018502563 -0.13004947
-0.19476199 0.013478898 0.09475532 0.13703842 0.46615866 -0.062286742 -0.15093552 0.0725427
0.18617964 -0.4277129 0.14141308 -0.035395674 -0.3968752 0.070630975 0.15323517 -0.21372548
-0.1728764 -0.43955535 0.10536615 0.15467365 -0.15313508 0.015435331 -0.117652744 -0.58356196
-0.06767566 0.08841286 -0.3932258 0.2976915 -0.123034514 -0.094453596 -0.0841822 -0.0957585
0.121717185 -0.2729754 0.3443509 0.20531847 -0.28165182 0.10242974 -0.065112956 0.18013722
0.33362302 -0.25712705 0.07944217 -0.11475833 0.118157886 0.10867713 -0.20690168 0.016487105
0.11301067 -0.19975057 0.27006003 -0.12373635 -0.030310033 0.28475404 -0.3094595 0.32125846
-0.16190553 0.3470358 0.093603365 -0.06773762 -0.02204794 0.04976538 0.30713108 0.58618486
0.42813283 0.31932035 -0.07144249 -0.25100964 -0.20708358 -0.16660787 -0.23302837 -0.010110082
0.37436432 -0.13056739 0.10561632 -0.15424235 -0.054899376 0.08745975 -0.1966506 -0.043167308
0.16384387 -0.24142528 -0.13009594 -0.36019892 0.20409462 -0.025736354 -0.20738824 0.13383932
-0.28322116 -0.09726753 -0.39682722 0.3418937 0.11197494 0.21448506 0.04780832 0.32670638
-0.16333908 -0.16279513 -0.008374722 0.1724296 -0.14332332 0.12459897 0.117142536 -0.09747053
-0.051211555 -0.2864212 0.096680395 -0.063347846 0.1148105 0.43641585 0.5228661 -0.020251758
0.78447753 -0.22194724 -0.05500798 -0.21970464 -0.0903675 -0.35839516 0.1856137 0.34599924
-0.10386756 -0.0013741839 0.13414207 0.36538398 -0.063235916 -0.5121542 0.50365776 0.5219997
-0.40723696 -0.109179415 0.5042365 0.00982016 -0.27917895 -0.03706821 0.58168226 -0.2564594
0.28460944 -0.2999988 0.28642622 0.33797342 -0.041018434 0.07925701 -0.28482363 0.60041183
-0.3701883 -0.33015475 -0.6774813 0.19568965 -0.4184235 0.3468456 -0.73837894 0.08642666
-0.10148199 -0.3342618 0.08689594 -0.06739153 -0.07381803 0.24407561 0.026941845 -0.04390431
0.17939161 -0.61273617 0.43958676 -0.31985664 0.3216478 -0.46210214 -0.052909803 -0.19353437
00000000: a0ce ce3d 4418 5e3e d5d8 b93d e770 313e
00000010: b1f9 06bd 1ebb 64be 5ff0 7fbe 089b d43c
00000020: 9f3e 82bc 976d 97bd 5afa 3e3e 55ec e93c
00000030: 8e1d da3e 83f8 b93d e44d 40be fcbe f53d
00000040: 2263 413d 1ad1 c9be d5c6 86bd 8641 2abf
00000050: e50f 453b 35d5 fabe 61e1 97be 35b7 07bf
00000060: 72f7 25be 6a90 d7bd 70ac 42bd c3e5 b3be
00000070: b345 673c 7e89 f6bd da1e bcbe e1cc bd3e
00000080: 2d85 0e3e 6ee2 36be 710a 623e 15d7 53be
00000090: e990 2b3e 73e9 4b3e 56fd 3abc 1b72 d8bd
000000a0: 3e24 0c3c 70f6 d6be 725d eabe 9266 263c
000000b0: a59a febc f226 d13d 993f d93c 3736 5b3e
000000c0: f34a 033e c8bd 9abe 78f8 21be 34bd 30bf
000000d0: ca34 2dbd 588f a0be ebee 88be 0464 0d3e
000000e0: f0ee 283f e705 29be c094 6e3e 6e9e 103d
000000f0: 6057 8b3b e9bb 613e 2f3e a3bd 8244 38bf
00000100: 8382 abbd 4cfa 3d3d e95a 94be 7cbd cf3d
00000110: 2f17 753c 4bf0 8e3e c9db 873d 580e 0abe
00000120: dbd3 393d 032a a73e 55ec 233e e189 3cbe
00000130: eacb 773e 7638 1abe 00ec 32be 057e 263f
00000140: 7d3f 523d 6b0b 9cbb 6d81 70bd e4cd 11be
00000150: e205 a5be b4a6 86bd b092 973c b02b 05be
00000160: b06f 47be 99d6 5c3c 140f c23d cd53 0c3e
00000170: 59ac ee3e 6220 7fbd d78e 1abe 4491 943d
00000180: e0a5 3e3e 2ffd dabe 97ce 103e 0efb 10bd
00000190: 3a33 cbbe f9a6 903d aee9 1c3e dada 5abe
000001a0: 8306 31be 660d e1be 35ca d73d c562 1e3e
000001b0: 71cf 1cbe 78e4 7c3c ecf3 f0bd 5164 15bf
000001c0: 8999 8abd cd11 b53d e454 c9be 056b 983e
000001d0: 85f9 fbbd e370 c1bd b867 acbd 081d c4bd
000001e0: dc46 f93d 6ec3 8bbe c34e b03e 013f 523e
000001f0: ab34 90be afc6 d13d f159 85bd e475 383e
00000200: a3d0 aa3e 28a6 83be 94b2 a23d 6a06 ebbd
00000210: c3fc f13d 1d92 de3d 09de 53be f70f 873c
00000220: 2372 e73d 6a8b 4cbe 4f45 8a3e 7c69 fdbd
00000230: bf4c f8bc 48cb 913e 7a71 9ebe fd7b a43e
00000240: 90ca 25be adae b13e 1fb3 bf3d 05ba 8abd
00000250: e29d b4bc c8d6 4b3d 4940 9d3e 3610 163f
00000260: 3a34 db3e f57d a33e 7150 92bd 5684 80be
00000270: b80d 54be 419b 2abe fd9e 6ebe c2a4 25bc
00000280: aeac bf3e 75b3 05be 5f4d d83d b5f1 1dbe
00000290: 2bde 60bd 191e b33d c65e 49be 34d0 30bd
000002a0: b0c6 273e 3038 77be df37 05be fe6b b8be
000002b0: 2efe 503e 0cd5 d2bc 955d 54be 2d0d 093e
000002c0: 5d02 91be 3334 c7bd f02c cbbe b10c af3e
000002d0: 1e53 e53d f9a1 5b3e a8d2 433d 0f46 a73e
000002e0: 5c42 27be c4b3 26be 2136 09bc 6391 303e
000002f0: 59c3 12be bf2d ff3d 6de8 ef3d a19e c7bd
00000300: 35c3 51bd cda5 92be 5f00 c63d 84bc 81bd
00000310: c421 eb3d e671 df3e 8dda 053f 04e7 a5bc
00000320: 85d3 483f 2346 63be 0c50 61bd 41fa 60be
00000330: 9912 b9bd 927f b7be 8511 3e3e d026 b13e
00000340: 84b8 d4bd f61d b4ba 8a5c 093e 9c13 bb3e
00000350: d581 81bd 8a1c 03bf b7ef 003f c6a1 053f
00000360: 5d81 d0be 7599 dfbd a515 013f bde4 203c
00000370: 8bf0 8ebe d6d4 17bd 21e9 143f a54e 83be
00000380: 54b8 913e 7199 99be 75a6 923e da0a ad3e
00000390: f202 28bd 8051 a23d 67d4 91be 97b4 193f
000003a0: 5289 bdbe 0b0a a9be 6a6f 2dbf de62 483e
000003b0: 9b3b d6be bf95 b13e 6706 3dbf 7600 b13d
000003c0: cad5 cfbd 5d24 abbe 80f6 b13d 9204 8abd
000003d0: e82d 97bd f5ee 793e 25b5 dc3c 01d5 33bd
000003e0: 6fb2 373e 47dc 1cbf 8411 e13e 40c4 a3be
000003f0: 05af a43e a798 ecbe f3b7 58bd e02d 46be

rnn.weight_hh_l0 f4 [48, 16]
0.10940783 -0.018179404 -0.012533672 -0.15253727 0.1849788 0.29344928 -0.21136495 -0.11414204
0.28928596 0.35323283 -0.3746085 0.03435335 -0.19016278 -0.20200028 -0.052338846 -0.1252346
-0.27993238 0.40531084 -0.3235882 -0.2844026 -0.24947405 0.3654623 0.26316276 -0.25676638
0.37436655 0.015454264 -0.13129155 0.18539806 -0.7670446 0.45753816 -0.22776976 0.23855719
0.009585866 -0.11681148 0.24747847 0.17804493 0.22079594 0.03030311 0.1496895 -0.06956768
0.109925196 -0.40113035 0.3391035 -0.21982676 0.095574 -0.21906286 0.063791625 0.25854865
0.19055924 0.07882509 0.20556095 -0.20426247 -0.12865856 0.124657854 -0.18224129 -0.09775292
0.11256297 0.037545856 0.33277276 0.09850845 -0.19230534 0.2515111 -0.48473665 0.5738177
0.45696566 -0.1183724 -0.20899037 -0.121793136 0.19882713 0.1568597 0.27892217 -0.046577852
0.08325331 -0.27793095 -0.3362168 -0.4167674 -0.2562903 0.7704279 -0.022050515 -0.108704165
0.025932875 0.86750484 -0.6047115 -0.13677117 -0.027016867 -0.18582001 0.669349 -0.34063765
0.22791582 -0.5540005 -0.69439524 0.1505386 -0.06645655 -0.40075484 -0.21692172 -0.13931488
0.21819381 -0.39591506 0.0935127 -0.105219804 -0.014352685 0.2960458 -0.6288882 0.09638509
-0.11386845 0.005753991 0.15789838 -0.47695503 -0.008225128 -0.20149118 0.1515014 0.16196543
0.23291448 0.2684788 -0.15267217 -0.4283155 0.006323226 0.13421461 0.51452225 0.18831944
0.45414045 -0.10488626 0.39882836 -0.12877625 -0.6497875 0.18061212 -0.42741805 0.3717157
0.61820185 -0.33823663 0.07052345 0.2431628 0.26410082 -0.5839897 -0.13553062 -0.073275864
0.3757171 -0.17243892 -0.30991635 0.035020694 0.12121646 -0.18871391 0.3717211 -0.020599604
0.11631315 0.20986195 -0.3109949 -0.16831766 -0.14929976 0.04545066 -0.03757434 0.16259906
-0.14434153 0.36100227 -0.13865001 -0.47881186 0.22624823 0.00026620764 0.30306414 0.34580112
0.16049697 -0.10486285 0.14169785 0.043550845 -0.31405964 -0.035014402 -0.010703158 0.26602918
-0.11577213 0.24752617 0.76067257 0.13223484 0.028529424 -0.1729654 -0.20374708 -0.004066626
0.40976 -0.580497 0.15717201 -0.27094537 -0.14477965 -0.18770634 -0.40793073 0.3827022
-0.03412983 0.6001247 -0.20308386 0.21642278 0.48039737 -0.5017134 0.09483483 -0.533638
-0.818518 0.5791071 -0.18277268 -0.096100934 -0.49119264 0.102324806 0.1933275 -0.06310022
-0.2892764 -0.41346365 0.39216974 -0.41950932 -0.4281538 -0.05798006 0.0843557 0.14784165
-0.024778593 0.20237856 0.3397973 0.0056618284 0.49825564 -0.14831139 -0.35143372 0.09453443
0.1226947 -0.106749035 0.1880764 0.2589742 -0.14994898 0.59796333 -0.09744213 0.582885
-0.235128 0.15580012 0.29252657 -0.35478592 -0.09428152 0.06545935 -0.17022415 0.1054999
0.91359144 -0.055810228 -0.47624794 -0.26193634 -0.38952243 0.46332902 0.2458796 -0.120846435
-0.06326033 0.28990388 0.27211836 -0.31630886 0.2667239 -0.11500921 -0.12983125 -0.26970017
0.061483797 -0.22853291 -0.2709801 0.36145246 -0.1895509 0.26842132 0.1439589 0.17355463
00000000: 3611 e03d f9ec 94bc 085a 4dbc bb32 1cbe
00000010: 156b 3d3e fc3e 963e 0e70 58be 4dc3 e9bd
00000020: 4a1d 943e efda b43e afcc bfbe 19b6 0c3d
00000030: 08ba 42be 29d9 4ebe 4261 56bd 803d 00be
00000040: 4c53 8fbe e784 cf3e 5aad a5be 389d 91be
00000050: 2076 7fbe e01d bb3e 45bd 863e e276 83be
00000060: f9ac bf3e e233 7d3c 4b71 06be fdd8 3d3e
00000070: 095d 44bf 7142 ea3e 7a3c 69be 5648 743e
00000080: 090e 1d3c db3a efbd ff6a 7d3e 6951 363e
00000090: 5518 623e 3a3e f83c 3448 193e 8079 8ebd
000000a0: 7620 e13d f560 cdbe f99e ad3e 441a 61be
000000b0: 4dbc c33d 0452 60be 2fa5 823d 7d60 843e
000000c0: f621 433e 0c6f a13d 927e 523e 2e2a 51be
000000d0: 12bf 03be 9e4c ff3d 769d 3abe af32 c8bd
000000e0: 6a87 e63d afc9 193d 3161 aa3e ccbe c93d
000000f0: b1eb 44be 10c6 803e 672f f8be b7e5 123f
00000100: 67f7 e93e 3b6d f2bd 9201 56be ae6e f9bd
00000110: 5799 4b3e d49f 203e e3ce 8e3e 6bc8 3ebd
00000120: b680 aa3d f74c 8ebe 9c24 acbe 8962 d5be
00000130: 7b38 83be c33a 453f 48a3 b4bc 4aa0 debd
00000140: 2e71 d43c cc14 5e3f 5fce 1abf be0d 0cbe
00000150: 7a52 ddbc 9a47 3ebe 755a 2b3f 0f68 aebe
00000160: c462 693e fad2 0dbf e3c3 31bf ca26 1a3e
00000170: 5f1a 88bd bd2f cdbe ba20 5ebe 8fa8 0ebe
00000180: 336e 5f3e 61b5 cabe 9683 bf3d 7b7d d7bd
00000190: 8627 6bbc 5193 973e d1fe 20bf 8c65 c53d
000001a0: dd33 e9bd fa8b bc3b 1db0 213e 7333 f4be
000001b0: b0c2 06bc b453 4ebe 2f23 1b3e 44da 253e
000001c0: 2281 6e3e 0e76 893e 1856 1cbe 2b4c dbbe
000001d0: 1033 cf3b 8e6f 093e bbb7 033f d0d6 403e
000001e0: 1985 e83e 9cce d6bd 3b33 cc3e ecdd 03be
000001f0: 7958 26bf 62f2 383e 8ad6 dabe 8551 be3e
00000200: 7a42 1e3f 5a2d adbe 996e 903d abff 783e
00000210: 3938 873e 5980 15bf 8ac8 0abe a811 96bd
00000220: fe5d c03e d493 30be 5bad 9ebe dc71 0f3d
00000230: 5640 f83d 383e 41be 3a52 be3e 80c0 a8bc
00000240: 9735 ee3d 0de6 563e b93a 9fbe 775b 2cbe
00000250: 09e2 18be 792a 3a3d 8de7 19bd 5e80 263e
00000260: 44ce 13be 4ad5 b83e 45fa 0dbe d426 f5be
00000270: 9ead 673e c991 8b39 392b 9b3e d80c b13e
00000280: 5159 243e 55c2 d6bd 3e19 113e 5f62 323d
00000290: 6dcc a0be 436b 0fbd 4c5c 2fbc fa34 883e
000002a0: f019 edbd 8077 7d3e 70bb 423f 9268 073e
000002b0: 8ab6 e93c d81d 31be 13a3 50be 5541 85bb
000002c0: 10cc d13e 749b 14bf b3f1 203e 5ab9 8abe
000002d0: 1e41 14be 1736 40be 4cdc d0be 8bf1 c33e
000002e0: b8cb 0bbd c6a1 193f 37f5 4fbe ef9d 5d3e
000002f0: a5f6 f53e 4a70 00bf c338 c23d 809c 08bf
00000300: 658a 51bf 5d40 143f c328 3bbe 91d0 c4bd
00000310: 9a7d fbbe ab8f d13d a5f7 453e b03a 81bd
00000320: 091c 94be 82b1 d3be 79ca c83e edc9 d6be
00000330: fa36 dbbe 807c 6dbd aec2 ac3d cd63 173e
00000340: 7afc cabc 533c 4f3e e9f9 ad3e dc86 b93b
00000350: 5d1b ff3e f1de 17be 1fef b3be 449b c13d
00000360: 5c47 fb3d 3d9f dabd 1a97 403e 4498 843e
00000370: 3a8c 19be 2014 193f bd8f c7bd f437 153f
00000380: 65c5 70be 118a 1f3e 0bc6 953e 80a6 b5be
00000390: ab16 c1bd 8d0f 863d 3d4f 2ebe 5510 d83d
000003a0: 21e1 693f 4499 64bd c5d6 f3be 851c 86be
000003b0: 7c6f c7be 7639 ed3e ddc7 7b3e 567e f7bd
000003c0: a28e 81bd 486e 943e 1953 8b3e 3cf3 a1be
000003d0: 0990 883e f389 ebbd 7cf2 04be 2416 8abe
000003e0: 6fd6 7b3d 8804 6abe e7bd 8abe 4c10 b93e
000003f0: a219 42be 856e 893e f669 133e 4eb8 313e

rnn.bias_ih_l0 f4 [48]
-0.112528734 0.022061579 0.09771794 -0.071123235 -0.011466035 0.21119007 -0.03393273 0.34031597
-0.14830007 -0.37095505 0.041264776 -0.005649053 0.1572782 0.0064325985 0.30243707 0.003972492
-0.45659786 0.39105344 0.10297675 0.30439156 0.06740009 0.5401223 0.2526592 -0.07399306
0.18571334 -0.04905241 0.18837059 0.23243818 1.048883 0.62221575 0.5299341 0.5032901
-0.28945163 -0.27374402 0.026254855 -0.11917826 -0.19082882 0.1481861 0.20254101 -0.054517705
0.237887 -0.012127269 -0.061168317 0.080466844 0.020789066 0.20690271 0.2172339 -0.11556987
00000000: 7775 e6bd 7cba b43c 5820 c83d 0fa9 91bd
00000010: 09dc 3bbc 3642 583e 0cfd 0abd e53d ae3e
00000020: f9db 17be d2ed bdbe 4105 293d b11b b9bb
00000030: 890d 213e 8cc8 d23b 08d9 9a3e ae2b 823b
00000040: 32c7 e9be 2838 c83e 79e5 d23d 36d9 9b3e
00000050: 0f09 8a3d 7445 0a3f 8c5c 813e ac89 97bd
00000060: a32b 3e3e 2eeb 48bd 38e4 403e 4604 6e3e
00000070: cc41 863f 8849 1f3f c3a9 073f 9fd7 003f
00000080: 0133 94be 2d28 8cbe 6c14 d73c bb13 f4bd
00000090: a168 43be 19be 173e e966 4f3e f54d 5fbd
000000a0: a698 733e 74b1 46bc a18b 7abd cdcb a43d
000000b0: d54d aa3c 4ede 533e 9072 5e3e e5af ecbd

rnn.bias_hh_l0 f4 [48]
0.011976525 -0.06773092 0.03623833 0.17764418 -0.1445183 0.084978856 -0.29611507 0.13689864
-0.23168604 -0.009099287 0.17012252 -0.043299805 0.39837343 -0.28321812 -0.036326732 -0.16705811
-0.46763784 0.2938576 0.16659713 0.22410458 0.18209995 0.82763714 0.32711384 -0.18482804
0.4098555 -0.117430516 0.30727604 -0.015028287 0.8904483 0.20334522 0.5432499 0.41316596
-0.21528392 -0.0455456 0.07655536 -0.06675354 -0.057006788 -0.060788576 -0.065877065 -0.15337738
0.11484236 -0.03846538 -0.17062175 0.03214114 0.0755404 0.028727055 0.067090444 -0.043561887
00000000: 3039 443c 82b6 8abd a56e 143d 5be8 353e
00000010: 9bfc 13be 6509 ae3d 659c 97be 282f 0c3e
00000020: 1b3f 6dbe 2d15 15bc 9934 2e3e 235b 31bd
00000030: 9af7 cb3e f701 91be 57cb 14bd 4811 2bbe
00000040: 3a6e efbe 8174 963e 7098 2a3e ac7b 653e
00000050: 6978 3a3e 07e0 533f 777b a73e 9043 3dbe
00000060: 95d8 d13e 697f f0bd 4953 9d3e 3439 76bc
00000070: 6bf4 633f bb39 503e 6d12 0b3f 7d8a d33e
00000080: 6373 5cbe 068e 3abd 0ec9 9c3d 14b6 88bd
00000090: f37f 69bd 71fd 78bd 8eea 86bd f60e 1dbe
000000a0: 7932 eb3d e08d 1dbd 78b7 2ebe 6ea6 033d
000000b0: edb4 9a3d 0055 eb3c b766 893d f36d 32bd

fc.weight f4 [128, 16]
-0.23020461 0.34064493 -0.003647375 0.11565791 0.02692885 -0.12758589 0.11213516 -0.24862996
0.34111053 -0.1558097 0.050675016 0.18409298 -0.005121282 -0.108537816 0.43144166 0.08225589
0.009608278 -0.057332024 -0.17301176 -0.33405018 -0.27843738 0.14501923 -0.0066953734 -0.04525253
0.13693428 -0.093325496 -0.16817296 -0.02696455 -0.13001065 -0.062069908 -0.0444957 -0.1533592
0.021544164 0.15492977 0.10971735 0.03171716 -0.12311634 0.10665184 -0.014045525 0.29975966
-0.24733913 0.062259264 0.26063484 -0.2816148 -0.3127233 0.13935079 0.21427493 0.15886001
-0.11056666 0.12343677 0.12043623 0.10274136 -0.36411792 -0.021371275 -0.009272442 0.1927886
0.0220701 0.07007515 -0.09705529 -0.14222465 0.36905614 -0.12576267 0.15220046 0.057644308
0.068144746 0.29852474 -0.57286566 0.23236258 -0.11711641 -0.3235746 0.17946734 -0.12349887
-0.01381428 -0.13465568 0.018197563 -0.681441 -0.02302408 0.03976347 0.02551155 0.23256937
-0.22224213 -0.092771076 -0.12917562 -0.020129668 -0.16768262 -0.26317614 0.4021076 0.24950974
0.10342284 0.1795923 -0.39231032 0.025892043 0.014546793 -0.424932 0.3811085 0.1183317
0.04584352 -0.20907903 -0.30927137 0.084693566 0.21543957 -0.16245969 -0.13157797 -0.0770055
-0.48372743 -0.011294546 -0.095805794 -0.087984234 0.14832722 -0.25969195 -0.012352285 -0.27223158
0.1907096 -0.025246328 -0.2571182 -0.0030370392 0.26767167 -0.45244157 0.031453483 0.19850798
-0.06967918 0.19541225 0.22460774 0.21033518 -0.31435043 -0.33722112 -0.012768526 -0.2534071
0.18279846 0.12783353 0.057219174 0.10438857 -0.04118542 0.11764314 -0.22749102 -0.031637445
0.021595886 0.1938997 0.21482156 0.17065439 0.18562841 -0.1005624 0.059585113 -0.37259078
-0.02022403 0.06491327 0.23244621 0.28525618 0.047117654 0.011508571 0.38603953 -0.11635237
0.04882171 0.033177868 -0.052012503 -0.21617644 0.32821018 -0.119519085 -0.14272574 0.04238335
-0.19436799 0.10606951 -0.13102743 -0.0291628 0.0560742 -0.003217191 0.008592392 -0.22601756
0.2384893 0.22403312 0.10252773 0.037061084 -0.35630825 0.08647016 0.017364176 0.19342816
0.12462079 0.21590567 -0.05981626 0.16577218 -0.02874914 -0.26086366 -0.23771127 0.18003051
0.023583611 -0.12461803 -0.17834559 -0.16151498 0.18468678 -0.23570754 0.13183796 -0.21938802
0.20352742 -0.39103568 -0.055829037 -0.047819365 -0.08468104 0.10312777 0.18083245 -0.3759282
0.06256296 -0.053111173 -0.09031187 -0.026736375 -0.28255013 0.09303397 -0.029917799 -0.17901176
0.120181985 0.0013021103 -0.14679495 0.20728497 -0.031152159 0.16610245 0.10436652 0.06676714
0.08237663 0.014138052 -0.23622987 -0.1256879 -0.2510139 0.3039941 -0.09481091 -0.2042947
0.19458124 0.0033403113 0.23974055 -0.16397169 0.1371094 0.108224474 -0.27015066 0.16327466
0.33181158 0.20657983 0.050688263 -0.14114434 0.49215996 0.2597435 -0.14611128 -0.1883393
-0.018839918 0.17140825 0.2156664 0.12969707 -0.220165 -0.25177538 0.20856875 0.113977306
0.5071028 -0.17582744 -0.07196689 -0.13427603 0.3460505 0.021047892 0.33970648 -0.019891582
00000000: c2ba 6bbe 0369 ae3e cc08 6fbb 0ede ec3d
00000010: e499 dc3c e0a5 02be 1ea7 e53d da98 7ebe
00000020: 0aa6 ae3e 948c 1fbe 9b90 4f3d df82 3c3e
00000030: 6dd0 a7bb 1349 debd ece5 dc3e c775 a83d
00000040: 0a6c 1d3c fcd4 6abd ff29 31be a008 abbe
00000050: 588f 8ebe ec7f 143e dd64 dbbb b85a 39bd
00000060: 8038 0c3e 7021 bfbd 8835 2cbe c3e4 dcbc
00000070: 8321 05be 043d 7ebd 2041 36bd 320a 1dbe
00000080: 637d b03c e9a5 1e3e 7db3 e03d dae9 013d
00000090: 6b24 fcbd 486c da3d 341f 66bc 197a 993e
000000a0: 7846 7dbe 9203 7f3d ee71 853e d12f 90be
000000b0: 451d a0be f9b1 0e3e e36a 5b3e 33ac 223e
000000c0: c670 e2bd 6bcc fc3d 45a7 f63d 106a d23d
000000d0: aa6d babe d012 afbc 71eb 17bc 606a 453e
000000e0: 5bcc b43c 8f83 8f3d edc4 c6bd 57a3 11be
000000f0: edf4 bc3e eec7 00be 70da 1b3e 701c 6c3d
00000100: 798f 8b3d 3cd8 983e 53a7 12bf 75f0 6d3e
00000110: bada efbd 92ab a5be 49c6 373e faec fcbd
00000120: 4a55 62bc 2ee3 09be 0e13 953c eb72 2ebf
00000130: ff9c bcbc 05df 223d 99fd d03c aa26 6e3e
00000140: 7193 63be c3fe bdbd 9d46 04be f9e6 a4bc
00000150: feb4 2bbe 06bf 86be 0ce1 cd3e 7b7f 7f3e
00000160: 5bcf d33d 0be7 373e e6dc c8be 8d1b d43c
00000170: ac55 6e3c b090 d9be a720 c33e e457 f23d
00000180: 6ac6 3b3d d018 56be d158 9ebe d273 ad3d
00000190: 319c 5c3e d55b 26be 60bc 06be 0fb5 9dbd
000001a0: 1fab f7be c20c 39bc d435 c4bd 1431 b4bd
000001b0: 17e3 173e 58f6 84be 3d61 4abc f061 8bbe
000001c0: 6149 433e 63d1 cebc ffa4 83be 1009 47bb
000001d0: 430c 893e 6ca6 e7be 5ed5 003d ad45 4b3e
000001e0: f5b3 8ebd 261a 483e 92ff 653e 1b62 573e
000001f0: 8af2 a0be 3fa8 acbe 1433 51bc 93be 81be
00000200: 852f 3b3e cbe6 023e a75e 6a3d adc9 d53d
00000210: 0bb2 28bd e3ee f03d 68f3 68be 4496 01bd
00000220: dbe9 b03c a58d 463e 2ffa 5b3e 06c0 2e3e
00000230: 6015 3e3e a9f3 cdbd 850f 743d 38c4 bebe
00000240: ddac a5bc 40f1 843d 6106 6e3e 190d 923e
00000250: 71fe 403d 728e 3c3c f9a6 c53e 274a eebd
00000260: 46f9 473d 84e5 073d 100b 55bd 5b5d 5dbe
00000270: 2a0b a83e 6cc6 f4bd b226 12be 2a9a 2d3d
00000280: 6708 47be f93a d93d 0e2c 06be d3e6 eebc
00000290: 0fae 653d 82d7 52bb 1bc7 0c3c 2671 67be
000002a0: 8a36 743e f068 653e 0ffa d13d 5dcd 173d
000002b0: 096e b6be 4417 b13d 513f 8e3c 0812 463e
000002c0: 2f39 ff3d 6016 5d3e e501 75bd 2fc0 293e
000002d0: 5183 ebbc ec8f 85be 956a 73be eb59 383e
000002e0: 6b32 c13c bd37 ffbd 3aa0 36be 2f64 25be
000002f0: 881e 3d3e 515d 71be 8800 073e 41a7 60be
00000300: 7e69 503e d435 c8be fdac 64bd 3dde 43bd
00000310: 416d adbd a734 d33d 242c 393e a979 c0be
00000320: 0221 803d 1a8b 59bd 6ef5 b8bd 3e06 dbbc
00000330: 69aa 90be 9888 be3d 2c16 f5bc dc4e 37be
00000340: f921 f63d 92ab aa3a 6a51 16be 8342 543e
00000350: d032 ffbc c316 2a3e 1dbe d53d 36bd 883d
00000360: 14b5 a83d 4aa3 673c 3ee6 71be 54b4 00be
00000370: e584 80be 1da5 9b3e 392c c2bd a132 51be
00000380: 4e40 473e 20e9 5a3b 8c7e 753e 32e8 27be
00000390: 6866 0c3e cba4 dd3d 3051 8abe 7931 273e
000003a0: 35e3 a93e aa89 533e 7f9e 4f3d 2488 10be
000003b0: 64fc fb3e 1afd 843e 329e 15be 04dc 40be
000003c0: 2c56 9abc a585 2f3e a7d7 5c3e 4fcf 043e
000003d0: ef72 61be b4e8 80be 0c93 553e ef6c e93d
000003e0: 7dd1 013f 1c0c 34be 6063 93bd a87f 09be
000003f0: 882d b13e a16c ac3c 02ee ad3e acf3 a2bc

fc.bias f4 [128]
0.07829667 0.10405233 -0.04361771 -0.008298128 -0.121629275 -0.2080686 -0.068582825 -0.18517628
0.45549393 0.28737038 -0.24064238 -0.21812893 -0.028370213 0.05245279 0.12562925 -0.1211447
-0.35201755 0.017483102 -0.07895544 -0.2065441 -0.025876764 0.049482677 0.34638545 -0.25122455
0.10932125 0.35406154 0.08874887 0.06142956 -0.36369023 0.25025135 -0.32161722 -0.027003488
0.08636758 -0.27972892 -0.058051694 -0.017840426 -0.14661306 -0.071348324 0.2925615 -0.24419196
0.20470202 -0.27766865 -0.1841363 -0.22033973 0.23245105 -0.25846618 0.121701285 0.41287997
-0.10195777 -0.102617055 -0.32121432 0.18013415 0.28113052 -0.25931618 0.08103282 0.23110922
0.24917454 0.0847742 -0.12263568 0.30158526 -0.3929323 -0.39427 -0.4212669 -0.38040268
-0.081856996 -0.20103525 -0.22824341 -0.34585246 -0.041692372 0.4049454 -0.03429399 -0.2832369
-0.40806147 -0.23307915 0.12308117 0.2520852 0.034954756 0.17213325 0.4844832 -0.20553307
0.29350793 -0.26437008 0.11882859 0.20910926 0.027829075 -0.008123087 -0.43356204 0.014160011
-0.055813253 -0.17314515 0.25723848 0.36604434 0.19794469 0.22843128 -0.37127376 -0.17644432
0.08366344 0.046449974 0.053476546 -0.18083984 0.27803525 -0.043395996 -0.18395638 -0.36421955
-0.17696893 -0.22902952 -0.09986612 0.05277199 -0.04109796 -0.318189 -0.2096171 -0.045418482
0.32939622 0.26379353 0.17500882 -0.052940253 0.27487305 -0.50951594 -0.2774862 0.18553904
-0.10667823 -0.3019798 0.01438 0.15988031 0.2913289 0.11155872 0.031992197 0.048645966
00000000: 015a a03d 6319 d53d 7ca8 32bd dff4 07bc
00000010: c518 f9bd ef0f 55be 2775 8cbd da9e 3dbe
00000020: 8036 e93e 3622 933e f56a 76be 315d 5fbe
00000030: a668 e8bc bdd8 563d f4a4 003e b61a f8bd
00000040: a53b b4be b938 8f3c 64b3 a1bd 4c80 53be
00000050: 82fb d3bc 59ae 4a3d 6f59 b13e 81a0 80be
00000060: d2e3 df3d 8e47 b53e f8c1 b53d 909d 7b3d
00000070: 9b35 babe f220 803e 03ab a4be 6b36 ddbc
00000080: 7ce1 b03d a138 8fbe 9dc7 6dbd 1626 92bc
00000090: bc21 16be 121f 92bd 9fca 953e 750d 7abe
000000a0: 689d 513e 962a 8ebe 3a8e 3cbe bda0 61be
000000b0: a607 6e3e ae55 84be 863e f93d 0165 d33e
000000c0: 3ccf d0bd e428 d2bd 3476 a4be 1675 383e
000000d0: 57f0 8f3e 17c5 84be 89f4 a53d e5a7 6c3e
000000e0: 9c27 7f3e 199e ad3d 6a28 fbbd 6269 9a3e
000000f0: 6c2e c9be c2dd c9be 4cb0 d7be 24c4 c2be
00000100: a4a4 a7bd 2fdc 4dbe a4b8 69be 9313 b1be
00000110: 9fc5 2abd 0155 cf3e db77 0cbd 6d04 91be
00000120: 6fed d0be 4dac 6ebe fb11 fc3d 5011 813e
00000130: b82c 0f3d b343 303e 2f0e f83e 4377 52be
00000140: ac46 963e 845b 87be 675c f33d bd20 563e
00000150: cdf9 e33c b216 05bc d8fb ddbe 64ff 673c
00000160: 709c 64bd f64c 31be c3b4 833e 2a6a bb3e
00000170: 03b2 4a3e e4e9 693e 9817 bebe d2ad 34be
00000180: bd57 ab3d 5442 3e3d 390a 5b3d 142e 39be
00000190: a35a 8e3e 00c0 31bd 105f 3cbe fc7a babe
000001a0: 5837 35be b786 6abe 9c86 ccbd 7127 583d
000001b0: 5656 28bd abe9 a2be dda5 56be bb08 3abd
000001c0: 9fa6 a83e f20f 873e 8335 333e e1d7 58bd
000001d0: 29bc 8c3e a36f 02bf ac12 8ebe f2fd 3d3e
000001e0: 1e7a dabd 199d 9abe 179a 6b3c aab7 233e
000001f0: 1029 953e e678 e43d 400a 033d fe40 473d

mlp.0.weight f4 [16, 360]
-0.043171003 -0.10038773 -0.07991694 -0.057707928 -0.10820099 -0.01634272 -0.03451645 -0.07179872
-0.019985303 -0.038549233 -0.039069563 -0.06551439 -0.08088682 -0.069702335 -0.08736784 -0.07566315
-0.055453088 -0.011035563 -0.111122675 -0.0725671 -0.101719886 -0.07080334 -0.045685507 -0.047642116
-0.09435927 -0.06121713 -0.049291916 -0.040725473 -0.041917812 -0.053935494 -0.08990545 -0.060510006
-0.04263049 -0.03373763 -0.0107853245 -0.009015926 -0.10371983 -0.04327177 -0.016813925 -0.10230916
-0.07895582 -0.011754866 -0.054772615 -0.08253811 -0.024941087 -0.019173339 -0.085000865 -0.099788204
-0.021038732 -0.0511142 -0.1082813 -0.06928316 -0.036112312 -0.04854719 -0.04369359 -0.047433466
-0.010334667 -0.07754945 -0.012115388 -0.033148777 -0.09942358 -0.07993504 -0.07709506 -0.107228205
-0.026220394 -0.08356038 -0.027510306 -0.018948816 -0.03850014 -0.03344763 -0.08355647 -0.07285764
-0.10473642 -0.08102928 -0.051134855 -0.07677636 -0.07035595 -0.042076543 -0.018848272 -0.10407107
-0.019911086 -0.0899337 -0.08962328 -0.081489906 -0.07270588 -0.026916144 -0.027943589 -0.060734525
-0.012479369 -0.014623325 -0.025011761 -0.052896556 -0.02003967 -0.039725285 -0.022389721 -0.084640205
-0.078218125 -0.061354283 -0.009040173 -0.012826671 -0.08499957 -0.054210626 -0.0439679 -0.056854982
-0.00787539 -0.03029764 -0.049678296 -0.048007403 -0.09178438 -0.022356315 -0.027430108 -0.011703619
-0.10832661 -0.056131646 -0.07826029 -0.108915344 -0.014906659 -0.06727544 -0.019606106 -0.05530695
-0.091689296 -0.03140022 -0.08379302 -0.016100504 -0.030216807 -0.03812457 -0.05653983 -0.065773875
-0.047505267 -0.10875619 -0.040130835 -0.094195955 -0.111598514 -0.10798915 -0.093626425 -0.02577796
-0.041310184 -0.046158466 -0.044898175 -0.09036938 -0.062818296 -0.011091797 -0.102268346 -0.014293642
-0.048256274 -0.09989827 -0.019382935 -0.057507135 -0.030624224 -0.012393991 -0.08854754 -0.111878954
-0.051904503 -0.042789377 -0.09542596 -0.10641678 -0.08028352 -0.10986331 -0.054508474 -0.036499258
-0.035536177 -0.09423415 -0.03675169 -0.07177308 -0.025291152 -0.012931882 -0.01555931 -0.084082246
-0.10756055 -0.04128011 -0.024470031 -0.06722048 -0.07022299 -0.012530625 -0.010021155 -0.08000481
-0.067479625 -0.08776691 -0.039624207 -0.09973252 -0.03270396 -0.08355666 -0.06061384 -0.04220234
-0.06383608 -0.05220544 -0.1069527 -0.034306124 -0.023549683 -0.09050344 -0.056691587 -0.05746565
-0.09980073 -0.043673053 -0.095654905 -0.028622277 -0.015924312 -0.058481686 -0.041832447 -0.048045646
-0.06751049 -0.057365652 -0.044669136 -0.05015096 -0.03173061 -0.10644936 -0.0169793 -0.038880657
-0.073333465 -0.0996786 -0.078466594 -0.09258242 -0.1003613 -0.038948633 -0.095525175 -0.06240303
-0.021191262 -0.040823944 -0.041199956 -0.09247015 -0.0573144 -0.06271336 -0.040130403 -0.06401647
-0.085680224 -0.03982497 -0.07068137 -0.10049374 -0.011784981 -0.10620034 -0.06116466 -0.098995596
-0.012176025 -0.11203061 -0.017249323 -0.019324588 -0.080041684 -0.045065377 -0.016177425 -0.021007221
-0.07189976 -0.08801124 -0.047170166 -0.027793722 -0.06432845 -0.05409948 -0.060151443 -0.099806614
-0.06758833 -0.029490475 -0.022542397 -0.08913749 -0.06584408 -0.03626093 -0.043525003 -0.02910856
00000000: 14d4 30bd 1598 cdbd 7eab a3bd 265f 6cbd
00000010: 7b98 ddbd 2be1 85bc 1f61 0dbd 350b 93bd
00000020: 38b8 a3bc cde5 1dbd 6807 20bd 692c 86bd
00000030: fda7 a5bd 19c0 8ebd e9ed b2bd 48f5 9abd
00000040: c722 63bd 82ce 34bc 4994 e3bd 0f9e 94bd
00000050: 8452 d0bd 5701 91bd ba20 3bbd 6124 43bd
00000060: 6f3f c1bd d0be 7abd 52e6 49bd c1cf 26bd
00000070: 03b2 2bbd 77eb 5cbd 5920 b8bd 57d9 77bd
00000080: 4f9d 2ebd 7830 0abd eeb4 30bc 89b7 13bc
00000090: 106b d4bd bd3d 31bd 5bbd 89bc 7787 d1bd
000000a0: 97b3 a1bd 7b97 40bc 4059 60bd be09 a9bd
000000b0: 4051 ccbc 6811 9dbc ef14 aebd c25d ccbd
000000c0: 6b59 acbc 205d 51bd 96c2 ddbd 54e4 8dbd
000000d0: 81ea 13bd 6bd9 46bd 0df8 32bd 9849 42bd
000000e0: bc52 29bc 3fd2 9ebd 9f7f 46bc 03c7 07bd
000000f0: 979e cbbd fbb4 a3bd 04e4 9dbd 769a dbbd
00000100: 27cc d6bc b421 abbd 4b5d e1bc 8c3a 9bbc
00000110: 53b2 1dbd 6200 09bd a81f abbd 6336 95bd
00000120: 0c80 d6bd aef2 a5bd c872 51bd ed3c 9dbd
00000130: c816 90bd 7458 2cbd b167 9abc 3723 d5bd
00000140: 931c a3bc 292f b8bd 698c b7bd 2ee4 a6bd
00000150: d2e6 94bd 3f7f dcbc f4e9 e4bc c4c4 78bd
00000160: 4476 4cbc ac96 6fbc 77e5 ccbc 0faa 58bd
00000170: 3c2a a4bc fbb6 22bd a66a b7bc d857 adbd
00000180: d330 a0bd a14e 7bbd 3c1d 14bc f526 52bc
00000190: 4114 aebd f60b 5ebd af17 34bd c5e0 68bd
000001a0: c807 01bc c232 f8bc 787b 4bbd 69a3 44bd
000001b0: 73f9 bbbd 9724 b7bc 1bb5 e0bc 89c0 3fbc
000001c0: 57da ddbd 4cea 65bd ee46 a0bd 020f dfbd
000001d0: 0f3b 74bc b5c7 89bd fc9c a0bc 8a89 62bd
000001e0: 99c7 bbbd 849d 00bd ad9b abbd 34e5 83bc
000001f0: 3d89 f7bc 8228 1cbd 4f96 67bd 74b4 86bd
00000200: e294 42bd 91bb debd 3b60 24bd cfe9 c0bd
00000210: c38d e4bd 6a29 ddbd 36bf bfbd 4d2c d3bc
00000220: de34 29bd a910 3dbd 26e7 37bd 9513 b9bd
00000230: e1a6 80bd 5eba 35bc 1172 d1bd e12f 6abc
00000240: 5fa8 45bd 7797 ccbd f6c8 9ebc 9a8c 6bbd
00000250: a7df fabc 2b10 4bbc 6a58 b5bd cb20 e5bd
00000260: d199 54bd ea43 2fbd b06e c3bd 0af1 d9bd
00000270: b06b a4bd 0400 e1bd 4744 5fbd 3f80 15bd
00000280: 628e 11bd d6fd c0bd f188 16bd c4fd 92bd
00000290: 642f cfbc 3fe0 53bc 7aec 7ebc 5033 acbd
000002a0: b548 dcbd 5515 29bd 6075 c8bc e4aa 89bd
000002b0: 12d1 8fbd 404d 4dbc c52f 24bc 90d9 a3bd
000002c0: c232 8abd 23bf b3bd fe4c 22bd 9040 ccbd
000002d0: 96f4 05bd c11f abbd 3846 78bd 5cdc 2cbd
000002e0: 7ebc 82bd 5fd5 55bd 040a dbbd 9484 0cbd
000002f0: 44eb c0bc de59 b9bd 7035 68bd 1a61 6bbd
00000300: 5364 ccbd 84e2 32bd b8e6 c3bd 4479 eabc
00000310: b473 82bc 7e8a 6fbd 8058 2bbd 83cb 44bd
00000320: f142 8abd 3ff8 6abd fcf6 36bd 186b 4dbd
00000330: f5f7 01bd 1f02 dabd 2c18 8bbc 5341 1fbd
00000340: db2f 96bd 4b24 ccbd 18b3 a0bd da9b bdbd
00000350: 3a8a cdbd 9a88 1fbd b4a2 c3bd 529a 7fbd
00000360: 4c99 adbc 0237 27bd 49c1 28bd fd60 bdbd
00000370: 81c2 6abd dd6f 80bd c75f 24bd 111b 83bd
00000380: 1d79 afbd 821f 23bd 65c1 90bd a9cf cdbd
00000390: cb15 41bc 907f d9bd cb87 7abd 34be cabd
000003a0: f37d 47bc 4e70 e5bd 744e 8dbc 994e 9ebc
000003b0: e5ec a3bd 7996 38bd 8586 84bc 5617 acbc
000003c0: 2e40 93bd 3d3f b4bd 8135 41bd a9af e3bc
000003d0: a2be 83bd 6b97 5dbd 5c61 76bd 6967 ccbd
000003e0: c06b 8abd 0296 f1bc d5aa b8bc b78d b6bd
000003f0: 43d9 86bd 5786 14bd 4647 32bd 1375 eebc

mlp.0.bias f4 [16]
-0.089554116 0.019891324 0.056188717 -0.049710136 -0.10295953 -0.07963203 -0.0793148 -0.07668218
0.088250466 -0.031347446 0.059269283 -0.08057701 -0.044497322 -0.049853925 -0.10425998 -0.03339732
00000000: 2668 b7bd 21f3 a23c 2426 663d db9c 4bbd
00000010: 72dc d2bd 1e16 a3bd cc6f a2bd 8c0b 9dbd
00000020: a9bc b43d 2e66 00bd 59c4 723d 8f05 a5bd
00000030: d342 36bd a133 4cbd 4286 d5bd a1cb 08bd

mlp.2.weight f4 [16, 16]
0.06655541 0.044179782 -0.28166863 -0.17063855 0.17747211 0.08316923 -0.10127012 -0.15794829
-0.19759619 0.06650309 -0.37917405 -0.04065207 -0.09554188 0.03095923 -0.16511622 -0.02275016
-0.13773051 -0.24029337 0.05514941 -0.1285714 -0.11953759 0.0008196869 -0.2914176 -0.15994135
-0.09316669 -0.08358463 -0.06633164 0.16471341 0.012569183 0.08554803 0.06379313 0.020949867
0.22105102 0.2584625 -0.19571075 0.066736534 0.1350425 0.013736611 0.24717665 0.067368634
0.1758789 0.19577882 -0.1736657 -0.004309247 0.07678327 0.11784703 -0.008133583 -0.05827149
-0.008852418 -0.18079033 0.1174008 -0.3102985 -0.13851045 -0.019240836 -0.040464025 -0.11701451
0.03316006 0.06858055 0.24348016 0.013848327 0.2654639 -0.0387545 -0.26688156 0.153485
0.3012963 0.0231995 -0.056593224 -0.26273715 0.20740639 -0.22711606 0.04338501 -0.039861657
0.02155805 -0.116340235 -0.18424763 0.047116306 0.06756711 -0.06586068 0.011837577 -0.13775294
0.032421898 0.10536825 0.056812875 0.053432394 -0.1491654 0.0023430649 -0.043005373 0.13457422
0.02688691 0.14374162 0.21940836 0.06959757 -0.040589068 -0.11302869 0.21299602 0.014368375
0.15725641 0.12617767 -0.113240965 -0.1422574 -0.064312324 -0.20290518 0.02379893 0.10881237
0.15416904 0.18229811 0.1731929 0.00051194965 0.11215106 -0.25297084 -0.06134756 -0.20277156
0.03747375 -0.258229 -0.20670883 -0.14500642 -0.16488858 -0.07097593 -0.11521473 -0.103221476
-0.25241807 -0.0061974972 -0.12336755 -0.050682705 0.1732201 0.1292559 -0.03157274 0.04510823
0.2715604 0.04290954 0.3014926 -0.120619185 0.075409375 0.0147522725 -0.16386853 -0.13932075
0.17341581 -0.00070117635 0.096489444 0.0058340835 -0.28326818 0.003394891 -0.07447775 0.25338638
-0.046628885 -0.11030127 0.17392048 -0.025301542 0.1301713 -0.14891556 0.1226935 0.065745346
-0.23047891 0.17645346 -0.07598506 0.14023072 -0.18384357 0.037583277 -0.23808886 -0.16748041
-0.15250567 -0.014852597 -0.12069795 0.13590547 0.040134903 0.06961287 -0.009024708 -0.020658871
-0.1641818 -0.017081354 -0.24613598 -0.17804922 -0.18847886 -0.011442056 0.027545 -0.18103479
-0.02846127 -0.05695126 -0.09531486 -0.17006859 -0.110849515 0.058644358 -0.12030152 0.09717151
-0.11088598 0.09595589 -0.016473886 -0.15610419 -0.07159785 0.117396094 0.058777735 0.04854131
0.14062914 0.073701255 -0.025586732 0.17012602 -0.014482175 0.08350009 -0.11922965 0.24722205
0.035151742 -0.091913216 0.0009907706 -0.02330649 -0.08449141 -0.14327794 -0.03201837 0.086688
-0.035854757 -0.15351276 -0.13661866 0.10885609 -0.063562855 0.16211253 0.051936436 -0.040279344
-0.117090225 -0.13357243 0.040337346 0.11950079 -0.18424727 -0.18247344 -0.01941034 -0.12194827
0.10675427 0.049455777 0.2403637 -0.0026038827 0.10183596 0.03007753 0.057976693 -0.17163202
0.24234165 -0.07082365 -0.24211921 0.011086184 -0.2836937 -0.11354583 0.052904554 -0.11234813
0.18326025 -0.19532257 -0.13320974 0.1726288 -0.10865352 -0.12220334 -0.25259176 0.18810715
-0.054594707 0.16837966 -0.20381536 -0.24414213 -0.27931783 -0.15228604 0.08023345 0.05209233
00000000: 344e 883d dcf5 343d df36 90be dfbb 2ebe
00000010: 40bb 353e a154 aa3d b566 cfbd 32bd 21be
00000020: a856 4abe c632 883d 1a23 c2be c982 26bd
00000030: 76ab c3bd 369e fd3c 3a14 29be 8b5e babc
00000040: 3a09 0dbe 770f 76be 59e4 613d 39a8 03be
00000050: 20d0 f4bd 42e0 563a b034 95be aac7 23be
00000060: 2dce bebd 6b2e abbd e2d8 87bd a2aa 283e
00000070: f9ee 4d3c ce33 af3d f9a5 823d 0e9f ab3c
00000080: 335b 623e 3255 843e 6668 48be 2aad 883d
00000090: 9548 0a3e 860f 613c e01b 7d3e 91f8 893d
000000a0: 9919 343e 3e7a 483e 6cd5 31be 9534 8dbb
000000b0: 8c40 9d3d c959 f13d b842 05bc 16ae 6ebd
000000c0: bb09 11bc 1a21 39be d56f f03d 72df 9ebe
000000d0: afd5 0dbe f59e 9dbc 9bbd 25bd 4ea5 efbd
000000e0: d8d2 073d f673 8c3d dd52 793e 18e4 623c
000000f0: e2ea 873e 0abd 1ebd b3a4 88be 2c2b 1d3e
00000100: 8243 9a3e e10c be3c 4cce 67bd 7c85 86be
00000110: 5762 543e 1d91 68be 7bb4 313d fa45 23bd
00000120: 829a b03c ca43 eebd 69ab 3cbe 07fd 403d
00000130: a060 8a3d f7e1 86bd 66f2 413c 1b0f 0dbe
00000140: d3cc 043d 4fcb d73d 9eb4 683d eddb 5a3d
00000150: d1be 18be 1b8e 193b 6726 30bd d3cd 093e
00000160: f041 dc3c 0131 133e 96ac 603e 2c89 8e3d
00000170: b940 26bd 967b e7bd a11b 5a3e 5569 6b3c
00000180: d307 213e b834 013e e1ea e7bd edab 11be
00000190: 2eb6 83bd 60c6 4fbe f9f5 c23c 05d9 de3d
000001a0: 7dde 1d3e 5bac 3a3e 7b59 313e 5c34 063a
000001b0: 74af e53d 6585 81be 9447 7bbd 59a3 4fbe
000001c0: 137e 193d 9736 84be 7bab 53be 907c 14be
000001d0: 8dd8 28be d45b 91bd b3f5 ebbd c865 d3bd
000001e0: f13c 81be 6014 cbbb 20a8 fcbd ab98 4fbd
000001f0: 9c60 313e a95b 043e 6b52 01bd 68c3 383d
00000200: f709 8b3e eac1 2f3d 3d5d 9a3e 3107 f7bd
00000210: 3b70 9a3d 84b3 713c 27cd 27be 19aa 0ebe
00000220: ea93 313e 26cf 37ba 429c c53d d72b bf3b
00000230: 8708 91be d27c 5e3b ca87 98bd dcbb 813e
00000240: eefd 3ebd a2e5 e1bd 3618 323e 2e45 cfbc
00000250: a04b 053e 527d 18be bb46 fb3d 7fa5 863d
00000260: aa02 6cbe 37b0 343e 0e9e 9bbd a498 0f3e
00000270: 7d41 3cbe ecf0 193d 91cd 73be fc7f 2bbe
00000280: 722a 1cbe 4f58 73bc 7d30 f7bd ce2a 0b3e
00000290: 7f64 243d 3191 8e3d 5edc 13bc cb3c a9bc
000002a0: 461f 28be 32ee 8bbc 120b 7cbe 8952 36be
000002b0: 9a00 41be 7677 3bbc 0da6 e13c 2f61 39be
000002c0: 9c27 e9bc b945 69bd 7034 c3bd 7626 2ebe
000002d0: 1205 e3bd 1135 703d a560 f6bd db01 c73d
000002e0: 3018 e3bd 8684 c43d 3ef4 86bc c7d9 1fbe
000002f0: e5a1 92bd 5d6d f03d ecc0 703d 41d3 463d
00000300: 1601 103e aff0 963d 449b d1bc 8435 2e3e
00000310: a546 6dbc 1802 ab3d ad2e f4bd c727 7d3e
00000320: 46fb 0f3d ff3c bcbd bfdc 813a 41ed bebc
00000330: d509 adbd 74b7 12be b225 03bd 7a89 b13d
00000340: 70dc 12bd 7332 1dbe c3e5 0bbe f1ef de3d
00000350: 3e2d 82bd d400 263e 4dbb 543d f4fb 24bd
00000360: 00cd efbd 36c7 08be c638 253d d5bc f43d
00000370: 51ab 3cbe 51da 3abe 6f02 9fbc 04c0 f9bd
00000380: fca1 da3d 2492 4a3d e721 763e e7a5 2abb
00000390: 5f8f d03d 2765 f63c f878 6d3d 4ec0 2fbe
000003a0: 6928 783e fd0b 91bd 19ee 77be d3a2 353c
000003b0: 4d40 91be b78a e8bd 72b2 583d c716 e6bd
000003c0: 93a8 3b3e a402 48be 2268 08be 9bc5 303e
000003d0: bd85 debd bf45 fabd b553 81be 299f 403e
000003e0: b39e 5fbd b86b 2c3e f9b4 50be 6500 7abe
000003f0: bf02 8fbe dff0 1bbe 6f51 a43d c45e 553d

mlp.2.bias f4 [16]
-0.0079612145 -0.19636935 0.0530357 0.09659565 -0.23637438 -0.022457533 -0.019322848 -0.007889454
0.24160008 0.10838749 0.026160832 -0.09808898 0.23695692 -0.1038878 0.5815305 0.096682556
00000000: c16f 02bc 0c15 49be f63b 593d f1d3 c53d
00000010: 200c 72be dcf8 b7bc f34a 9ebc c542 01bc
00000020: 0366 773e 43fa dd3d 3e4f d63c e0e2 c8bd
00000030: d6a4 723e 20c3 d4bd 2fdf 143f 8101 c63d

mlp.4.weight f4 [16, 16]
0.05380523 -0.045145277 0.013373507 0.11075686 0.13156275 0.21524481 0.2674011 -0.13271129
0.0020665415 -0.22986865 0.21342218 -0.052958634 0.08860127 0.14021097 0.00012847157 -0.014044204
-0.0021520432 0.08104395 -0.18067032 -0.0070586186 -0.08609512 -0.039259262 -0.013401484 -0.081964925
-0.050375897 -0.14305513 -0.18132147 -0.12148525 -0.016200315 0.12413314 -0.2042371 0.1370948
0.033344585 -0.03867081 -0.21403246 0.060200952 -0.07635512 0.24348545 0.16023688 -0.16115446
0.33810735 -0.18413611 -0.040411893 -0.14460325 0.19265334 0.17542501 0.0838536 0.08666655
-0.09148123 -0.2844191 -0.16230339 -0.13158369 -0.19332212 0.07439972 0.030532535 -0.12928632
-0.121456906 0.17980927 0.05027948 0.05252557 0.17812654 0.048182942 -0.13133396 0.1877757
0.15277797 -0.07044088 -0.15299305 -0.03624016 -0.26893875 -0.1869409 0.088890694 -0.113232926
-0.0621894 0.1275664 -0.29870868 0.10458869 -0.29465815 0.03395305 0.0049663726 -0.09977382
0.13822885 -0.11454513 -0.18027206 -0.067352176 -0.053688373 -0.03352336 -0.072943024 -0.085091695
-0.15538636 0.1663641 0.008930829 -0.045765705 -0.21387176 0.11893556 0.1205548 0.16998117
0.08910511 0.13774583 0.21590579 -0.09746237 -0.05538773 0.19173321 0.17388442 0.01718818
0.19494388 0.14706463 0.020188354 0.05124656 0.14523439 -0.14707997 0.64976615 0.10714245
-0.050253443 -0.17934853 0.003224849 -0.052176915 0.09097299 -0.061867762 -0.13475822 -0.14905658
-0.13255237 0.15497571 0.09888379 0.18801597 -0.19221586 -0.045736082 -0.035581253 -0.04992548
-0.05046853 0.11253879 -0.27431712 0.36649442 -0.27688646 -0.18649234 0.04216551 -0.2764912
-0.22087471 -0.116728865 -0.09397302 -0.1343621 -0.43205702 0.031727783 -0.20797315 0.18411492
-0.041818727 0.075659275 0.063596725 0.25173682 -0.117553815 0.24961752 0.057351466 -0.027731473
0.16978107 -0.113682896 -0.12026623 -0.13657321 0.049988102 -0.09920945 -0.4380474 -0.22870155
0.04728865 -0.15423693 -0.22373106 -0.04882871 -0.23613286 -0.2808318 -0.047184445 0.06712809
0.0054096333 -0.30003685 -0.036126554 0.05655106 0.12365686 0.009863622 0.053716853 -0.05517077
-0.19651334 0.092727005 0.22911055 0.15089808 -0.2325646 -0.114055015 0.21842544 -0.36104852
-0.33206144 -0.11293596 -0.14516196 0.17189474 0.04959518 0.09971387 -0.07725893 -0.047912706
-0.24517837 -0.20149453 -0.60228753 0.31955332 -0.06538753 -0.051588994 0.15407604 0.28309977
0.07072651 -0.20194948 -0.38607964 0.1848888 -0.056684956 0.16866854 -0.32744572 -0.057254653
-0.32749826 0.01746374 0.18012412 0.22164278 0.26296297 0.26242352 0.33324304 -0.004609101
0.002645515 -0.31672275 0.090759456 0.01767117 0.07646301 0.06517647 -0.46525806 -0.45359632
-0.48577747 -0.029475171 -0.035180144 0.2453401 -0.09432287 0.18223797 0.2423387 0.1244049
0.07092391 -0.46796 -0.30681145 0.011974011 -0.17143506 -0.03239096 -0.15336584 -0.41105464
-0.23609449 -0.13029703 -0.014997417 -0.2607822 -0.14810449 -0.28103304 0.1765779 -0.05924196
-0.07064058 0.17137326 -0.19336273 0.036891993 -0.31089276 0.07518986 -0.29839382 -0.09809137
00000000: df62 5c3d 41ea 38bd 8e1c 5b3c 7ed4 e23d
00000010: 63b8 063e 2369 5c3e cce8 883e 78e5 07be
00000020: d06e 073b b062 6bbe 588b 5a3e 27eb 58bd
00000030: 9574 b53d 7793 0f3e 53b6 0639 a919 66bc
00000040: 4b09 0dbb 5ffa a53d a401 39be fc4b e7bb
00000050: a352 b0bd 52ce 20bd e691 5bbc 3add a7bd
00000060: f556 4ebd 0b7d 12be 56ac 39be 42cd f8bd
00000070: 86b6 84bc 8439 fe3d 8823 51be 9462 0c3e
00000080: 5594 083d 4965 1ebd 532b 5bbe 4695 763d
00000090: 1360 9cbd 4054 793e 2315 243e ad05 25be
000000a0: 681c ad3e 2d8e 3cbe f186 25bd e012 14be
000000b0: eb46 453e 9da2 333e 70bb ab3d 3b7e b13d
000000c0: 835a bbbd 619f 91be dc32 26be e0bd 06be
000000d0: 3cf6 45be e15e 983d 5e1f fa3c a263 04be
000000e0: 66be f8bd ec1f 383e dbf1 4d3d 0d25 573d
000000f0: ce66 363e 7a5b 453d 697c 06be 4648 403e
00000100: d471 1c3e 4f43 90bd 36aa 1cbe 9070 14bd
00000110: 57b2 89be 6f6d 3fbe 530c b63d aae6 e7bd
00000120: 50ba 7ebd c4a0 023e 58f0 98be 9832 d63d
00000130: 6fdd 96be 5a12 0b3d f4bc a23b 3756 ccbd
00000140: dd8b 0d3e a396 eabd 3d99 38be f0ef 89bd
00000150: 57e8 5bbd ca4f 09bd 2763 95bd 8e44 aebd
00000160: 9a1d 1fbe 5a5b 2a3e 9d52 123c d274 3bbd
00000170: 3301 5bbe 7d94 f33d 6fe5 f63d 8b0f 2e3e
00000180: bd7c b63d 3e0d 0d3e 6816 5d3e 5a9a c7bd
00000190: 3fde 62bd b655 443e c20e 323e 3ace 8c3c
000001a0: 5e9f 473e 1c98 163e 0c62 a53c eae7 513d
000001b0: 53b8 143e 229c 16be 1357 263f 806d db3d
000001c0: 8ed6 4dbd 24a7 37be fd57 533b 76b7 55bd
000001d0: 0c50 ba3d 0d69 7dbd 0ffe 09be 4aa2 18be
000001e0: cfbb 07be f4b1 1e3e 9683 ca3d 4287 403e
000001f0: 3cd4 44be c255 3bbd a6bd 11bd a97e 4cbd
00000200: 17b8 4ebd bd7a e63d 4b73 8cbe 28a5 bb3e
00000210: 10c4 8dbe d9f7 3ebe beb5 2c3d 4190 8dbe
00000220: fb2c 62be 8b0f efbd ed74 c0bd 3896 09be
00000230: 9436 ddbe fef4 013d eaf6 54be 9f88 3c3e
00000240: 1d4a 2bbd 40f3 9a3d 003f 823d a6e3 803e
00000250: 0ec0 f0bd bc9b 7f3e 5fe9 6a3d 1d2d e3bc
00000260: 17db 2d3e 94d2 e8bd 244e f6bd d9d9 0bbe
00000270: 53c0 4c3d 532e cbbd c047 e0be bd30 6abe
00000280: beb1 413d 49f0 1dbe c119 65be 9d00 48bd
00000290: d0cc 71be 30c9 8fbe 7a44 41bd 747a 893d
000002a0: 4b43 b13b 6e9e 99be 70f9 13bd 16a2 673d
000002b0: cf3f fd3d 079b 213c 3406 5c3d bffa 61bd
000002c0: cb3a 49be a8e7 bd3d f59b 6a3e 0785 1a3e
000002d0: 6a25 6ebe ad95 e9bd ebaa 5f3e 5adb b8be
000002e0: f503 aabe f84a e7bd 56a5 14be 2d05 303e
000002f0: 5124 4b3d c936 cc3d ee39 9ebd 1d40 44bd
00000300: 0a10 7bbe 9554 4ebe 842f 1abf 7e9c a33e
00000310: e6e9 85bd fb4e 53bd 1cc6 1d3e 74f2 903e
00000320: 0fd9 903d d8cb 4ebe 3bac c5be 7d53 3d3e
00000330: 7c2e 68bd 72b7 2c3e f7a6 a7be db83 6abd
00000340: daad a7be 1e10 8f3c 7572 383e 53f6 623e
00000350: 15a3 863e 605c 863e d59e aa3e f107 97bb
00000360: 6060 2d3b 7c29 a2be 18e0 b93d 21c3 903c
00000370: a398 9c3d 3e7b 853d 4e36 eebe c73d e8be
00000380: d3b7 f8be ea75 f1bc 0e19 10bd 6f3a 7b3e
00000390: 592c c1bd 979c 3a3e a327 783e ffc7 fe3d
000003a0: 8e40 913d 7498 efbe 6416 9dbe a42e 443c
000003b0: ac8c 2fbe 62ac 04bd ef0b 1dbe c175 d2be
000003c0: c1c2 71be 966c 05be bab7 75bc 3f85 85be
000003d0: b4a8 17be 90e3 8fbe d6d0 343e b3a7 72bd
000003e0: 02ac 90bd 797c 2f3e e100 46be 0f1c 173d
000003f0: 562d 9fbe 24fd 993d 13c7 98be 21e4 c8bd

mlp.4.bias f4 [16]
-0.06958699 0.019665223 0.36420625 -0.26744482 -0.014085704 -0.092564434 0.24820146 -0.288175
0.11482369 -0.01742341 -0.055946928 0.03375234 0.15735607 0.04580053 -0.11825466 0.10218889
00000000: a083 8ebd f618 a13c 3e79 ba3e 87ee 88be
00000010: bac7 66bc 6c92 bdbd 8628 7e3e ac8b 93be
00000020: af28 eb3d 8abb 8ebc 9b28 65bd e53f 0a3d
00000030: f321 213e 5699 3b3d 802f f2bd 6948 d13d

mlp.6.weight f4 [3, 16]
0.11814599 0.03713798 0.3026853 -0.07376666 -0.16977681 -0.16044259 0.25424698 -0.04349051
-0.32028058 -0.17649873 0.2002751 -0.27968794 -0.114470474 -0.08834852 -0.21092713 0.13675928
-0.1488366 -0.019466884 -0.15330146 0.18732747 -0.09041826 0.16621996 0.017600307 -0.004518334
0.27096048 -0.23953728 0.06262072 0.3474154 -0.30159518 -0.23002514 -0.21270607 0.18924436
-0.033743892 0.08148678 0.014313318 -0.21543653 0.03203868 -0.049231593 -0.03874696 0.2335632
-0.37339738 -0.10558942 0.04761674 -0.5629408 0.20046534 -0.24125898 -0.012544252 -0.2601783
00000000: 86f6 f13d ff1d 183d 91f9 9a3e fa12 97bd
00000010: f9d9 2dbe 104b 24be a92c 823e 1b23 32bd
00000020: d1fb a3be 15bc 34be ea14 4d3e 4233 8fbe
00000030: 7f6f eabd 12f0 b4bd 48fd 57be a00a 0c3e
00000040: 9f68 18be 0479 9fbc 0ffb 1cbe c6d2 3f3e
00000050: 352d b9bd 9135 2a3e 852e 903c 880e 94bb
00000060: 55bb 8a3e 4349 75be 4b3f 803d 6ee0 b13e
00000070: af6a 9abe b68b 6bbe 9fcf 59be 46c9 413e
00000080: 0937 0abd 8ae2 a63d 6882 6a3c 659b 5cbe
00000090: fe3a 033d 11a7 49bd 22b5 1ebd 312b 6f3e
000000a0: f12d bfbe 443f d8bd c509 433d e31c 10bf
000000b0: c946 4d3e 980c 77be 6886 4dbc 1736 85be

mlp.6.bias f4 [3]
0.45946106 -0.16869155 0.28547567
00000000: 7b3e eb3e 7abd 2cbe de29 923e
