EUSIPCO/Nested Array/few_data/da_music_v2_-10.0dB_ula_9.pth (torch, 47182 bytes, 18 tensors)

bn.weight f4 [16]
1.005851 0.9322954 1.1238413 0.9989127 1.115654 1.0696003 0.9712608 1.0373753
0.9974417 1.0113403 1.081086 0.9605477 1.0245913 0.958496 0.99199474 1.0136681
00000000: babf 803f e9aa 6e3f 08da 8f3f beb8 7f3f
00000010: c0cd 8e3f aae8 883f 8ca4 783f b7c8 843f
00000020: 5758 7f3f 9973 813f 0761 8a3f 74e6 753f
00000030: cf25 833f fe5f 753f 5ef3 7d3f e0bf 813f

bn.bias f4 [16]
0.0022332019 0.021966128 -0.007661915 -0.021843811 0.020095102 0.00839705 -0.050219957 0.008430176
-0.04609911 0.0291918 0.05595993 -0.018609975 0.0032108387 -0.024778876 0.0594934 0.01753494
00000000: e95a 123b 4ff2 b33c cd10 fbbb cbf1 b2bc
00000010: 7c9e a43c c893 093c 71b3 4dbd b91e 0a3c
00000020: 6cd2 3cbd a423 ef3c 3d36 653d f273 98bc
00000030: ef6c 523b 12fd cabc 5aaf 733d 6fa5 8f3c

bn.running_mean f4 [16]
0.0018274665 -0.001784366 -0.0010897205 -0.0050682006 -0.0045918976 0.0028872292 0.0035189649 0.0011121142
0.0026314156 -0.0009822657 0.0057033226 -0.0027611011 0.008244823 0.0009519468 -0.0016180733 -0.0012521815
00000000: 9a87 ef3a 63e1 e9ba f4d4 8eba 2613 a6bb
00000010: a177 96bb ab37 3d3b 6f9e 663b 5cc4 913a
00000020: d473 2c3b 5ebf 80ba f0e2 ba3b 97f3 34bb
00000030: 4b15 073c 118c 793a 8815 d4ba 3d20 a4ba

bn.running_var f4 [16]
6.4718237 6.474875 6.4692216 6.451593 6.4495573 6.436254 6.456186 6.4636226
6.4615154 6.4546576 6.4553933 6.477876 6.4280605 6.445582 6.473637 6.5089254
00000000: 2e19 cf40 2d32 cf40 dd03 cf40 7373 ce40
00000010: c662 ce40 cbf5 cd40 1399 ce40 ffd5 ce40
00000020: bcc4 ce40 8e8c ce40 9592 ce40 c34a cf40
00000030: acb2 cd40 3542 ce40 0928 cf40 1e49 d040

rnn.weight_ih_l0 f4 [48, 16]
0.14250596 -0.07038974 0.06450242 0.10010703 -0.32508174 -0.24856497 0.03760913 -0.22651917
0.19769797 -0.26677975 0.13332912 0.2316957 -0.008426903 -0.19612546 0.0006228425 0.05201899
-0.15324675 -0.017024621 0.050537 0.18770188 -0.268448 -0.3297948 0.15200216 -0.10686033
-0.028193947 0.07659491 0.3172073 0.111403495 0.20529129 0.14412603 0.16745543 -0.059769813
0.15308344 0.05279339 0.28415436 -0.3761699 0.02106974 0.17370597 -0.17074074 -0.001367904
0.19787575 0.07444206 0.2692677 -0.032040425 -0.12843364 -0.083018534 0.15747215 -0.12497534
-0.28781748 0.23555905 0.015392638 0.262031 0.08364313 -0.07311827 -0.28686905 -0.10216857
-0.11715725 0.0035263011 -0.2361582 -0.20585656 -0.09283707 0.13293572 0.1557992 0.019679474
-0.12669882 -0.024808649 -0.07163663 -0.020883955 -0.271211 0.016856328 0.04025755 0.06102384
-0.049466874 -0.17047973 0.28703612 0.08842509 0.18101023 -0.20331758 -0.011693609 -0.065076046
0.070880674 0.18934952 -0.09364392 -0.21210258 0.293528 0.17260674 -0.21976066 -0.1451521
-0.15788697 -0.08061585 0.07571102 0.32389605 0.013156182 0.18798433 0.0005263955 -0.23211259
-0.13421907 -0.1831171 0.2486369 -0.26208964 -0.10106524 -0.03339346 0.1405614 0.37967
0.21726948 -0.019208256 0.104535885 -0.089500345 0.08154082 -0.15266351 0.0067642103 0.12629884
0.10169824 -0.19629285 -0.0586556 -0.21502155 0.20974219 -0.12144974 -0.0314125 -0.028188206
-0.21374537 -0.07387409 -0.19732079 0.15625957 -0.0030129794 -0.21275257 -0.111645006 0.27070186
-0.018197646 0.10139763 0.014961976 -0.12618302 -0.08608757 -0.0021236737 -0.30768603 0.032296352
0.057526056 0.07674572 0.13916422 -0.24386515 -0.14476037 -0.18584512 0.1947064 0.1430725
-0.14379497 0.1273108 0.078589566 -0.079768196 -0.30455267 -0.03735385 0.18426791 -0.1804238
0.15108986 0.25088742 0.06991067 0.22843924 -0.33782852 0.18077809 0.017086929 0.19481559
-0.18068895 0.14465371 0.0046285004 -0.24824259 0.053289577 -0.0043723984 -0.04650837 -0.27804565
-0.099664606 -0.26383173 0.15291704 0.07780177 0.2153442 0.0074141966 -0.08222475 0.20989902
-0.26547194 -0.06759816 -0.05541423 -0.0112141045 0.102731116 -0.039433 0.1278409 0.018416226
0.1912617 0.019818049 0.24591284 -0.28967255 0.05909913 0.15023156 0.16831689 0.2693997
-0.100990064 -0.32254067 0.1598898 -0.19860975 0.1913424 0.10696502 -0.12473245 -0.102283515
0.029923724 0.079158336 0.14112197 0.004810422 0.027180726 -0.06648107 0.23008688 -0.16115206
0.12978566 0.09442671 0.07783692 -0.04855348 -0.23775381 0.2211437 0.16670808 0.011003114
-0.058974 0.3039911 -0.12743077 0.22690403 0.32500637 -0.27735135 -0.017689815 0.052944098
0.3468215 -0.0110156555 0.29918495 0.11588112 -0.097547196 0.082961455 0.26587924 0.05557982
0.090080634 0.16154177 0.1362641 -0.1308166 -0.19115001 -0.098778285 -0.18603678 0.20618668
-0.009418376 -0.027892418 -0.04295563 -0.041375004 0.08523295 0.006876481 0.10592393 0.030951893
0.091539614 0.099418975 -0.19967781 -0.21764465 -0.10253282 0.069390714 0.33094954 -0.23186879
00000000: 15ed 113e 7f28 90bd d819 843d ea04 cd3d
00000010: 1d71 a6be d187 7ebe 080c 1a3d a4f4 67be
00000020: 5671 4a3e 5b97 88be 6e87 083e a341 6d3e
00000030: fe10 0abc 1dd5 48be 4146 233a dd11 553d
00000040: b7ec 1cbe 3877 8bbc e3ff 4e3d ec34 403e
00000050: 0472 89be ddda a8be 74a6 1b3e 97d9 dabd
00000060: fef6 e6bc cbdd 9c3d ff68 a23e 8427 e43d
00000070: e137 523e c695 133e 7079 2b3e 31d1 74bd
00000080: e8c1 1c3e e23d 583d ae7c 913e 5799 c0be
00000090: 739a ac3c fadf 313e a9d6 2ebe 3e4b b3ba
000000a0: f19f 4a3e 1475 983d 75dd 893e d23c 03bd
000000b0: 1c84 03be 9f05 aabd 6140 213e 12f3 ffbd
000000c0: d05c 93be 6436 713e 6731 7c3c ed28 863e
000000d0: 174d ab3d 08bf 95bd 80e0 92be c13d d1bd
000000e0: 24f0 efbd 8419 673b 75d3 71be 10cc 52be
000000f0: 5d21 bebd 4d20 083e d389 1f3e d936 a13c
00000100: 56bd 01be 823b cbbc 3ab6 92bd d414 abbc
00000110: 2bdc 8abe 4816 8a3c 1ae5 243d 22f4 793d
00000120: c79d 4abd 3d92 2ebe 66f6 923e 3718 b53d
00000130: bf5a 393e 7c32 50be 8d96 3fbc 9746 85bd
00000140: e329 913d d7e4 413e 62c8 bfbd 6b31 59be
00000150: 4d49 963e d2bf 303e f008 61be c1a2 14be
00000160: 1fad 21be ec19 a5bd 610e 9b3d b4d5 a53e
00000170: 078d 573c f77e 403e cefd 093a ecae 6dbe
00000180: b970 09be 0d83 3bbe ac9a 7e3e 9d30 86be
00000190: 4bfb cebd 95c7 08bd 54ef 0f3e 1b64 c23e
000001a0: e47b 5e3e a25a 9dbc e916 d63d f54b b7bd
000001b0: e0fe a63d d353 1cbe 4fa6 dd3b 7c54 013e
000001c0: 2b47 d03d fe00 49be db40 70bd 9c2e 5cbe
000001d0: a8c6 563e a4ba f8bd 65aa 00bd f4ea e6bc
000001e0: 11e0 5abe 4d4b 97bd 760e 4abe 8202 203e
000001f0: 6875 45bb cfdb 59be 23a6 e4bd 6f99 8a3e
00000200: 3b13 95bc 90a9 cf3d 1323 753c 1f36 01be
00000210: ae4e b0bd 552d 0bbb 0689 9dbe 2e49 043d
00000220: 71a0 6b3d dc2c 9d3d 1181 0e3e c9b7 79be
00000230: 103c 14be 2f4e 3ebe 1d61 473e 9981 123e
00000240: fd3e 13be c35d 023e 91f3 a03d 825d a3bd
00000250: 54ee 9bbe 5a00 19bd bab0 3c3e 04c1 38be
00000260: 4db7 1a3e 5174 803e 532d 8f3d faeb 693e
00000270: dcf7 acbe e41d 393e e3f9 8b3c bd7d 473e
00000280: 8606 39be 1a20 143e adaa 973b 4e33 7ebe
00000290: 2c46 5a3d 5646 8fbb 907f 3ebd 005c 8ebe
000002a0: f51c ccbd f414 87be 4996 1c3e 8956 9f3d
000002b0: 3183 5c3e caf2 f23b 7365 a8bd c5ef 563e
000002c0: f0eb 87be e770 8abd 08fa 62bd 5dbb 37bc
000002d0: b164 d23d 7f84 21bd bae8 023e a0dd 963c
000002e0: 1bda 433e 7659 a23c 93d0 7b3e f64f 94be
000002f0: ee11 723d 4dd6 193e 435b 2c3e c2ee 893e
00000300: e1d3 cebd 0d24 a5be 27ba 233e 5b60 4bbe
00000310: 43ef 433e 7a10 db3d ba73 ffbd 057a d1bd
00000320: 9922 f53c c41d a23d 4782 103e bfa0 9d3b
00000330: 1daa de3c 3a27 88bd e59b 6b3e 0c05 25be
00000340: 88e6 043e ca62 c13d f768 9f3d 04e0 46bd
00000350: bc75 73be 7e73 623e 86b5 2a3e 6846 343c
00000360: b98e 71bd b9a4 9b3e 367d 02be 8859 683e
00000370: 3c67 a63e ff00 8ebe 3bea 90bc e9db 583d
00000380: 9692 b13e 027b 34bc c52e 993e 1553 ed3d
00000390: d3c6 c7bd b2e7 a93d 5321 883e aaa7 633d
000003a0: 327c b83d 356b 253e d188 0b3e c9f4 05be
000003b0: d4bc 43be 454c cabd 6d80 3ebe 9a22 533e
000003c0: 884f 1abc a47e e4bc 3ef2 2fbd d678 29bd
000003d0: 9d8e ae3d 1b54 e13b a5ee d83d d38e fd3c
000003e0: 1f79 bb3d 2d9c cb3d 5778 4cbe 3dde 5ebe
000003f0: bafc d1bd b81c 8e3d 3872 a93e 036f 6dbe

rnn.weight_hh_l0 f4 [48, 16]
-0.28615963 -0.093037404 0.009869971 0.23182976 -0.096084855 0.1956618 0.13409041 0.13786227
-0.16330631 0.25758252 -0.21042927 -0.24117458 0.091830514 0.13542077 0.23340783 0.14079227
-0.16425216 -0.1588335 0.31813282 0.030183421 0.14193052 0.022225218 -0.18800893 -0.113179855
-0.13187857 -0.09716251 -0.039746825 0.112522654 -0.14229462 0.20667681 0.07302172 0.019467361
-0.073365174 -0.033399347 0.044097744 0.022811793 -0.12102754 -0.005571475 0.27878967 -0.09037728
-0.14530145 -0.06070865 0.07054993 0.12846632 0.17645624 -0.13651404 0.33134916 0.10264408
-0.14161728 -0.1047485 -0.08825301 0.25411996 -0.032145582 0.09316005 -0.22738758 0.17402524
0.05253118 -0.15857469 0.13351472 -0.32250938 -0.091143444 -0.21062392 0.027602257 0.105085745
0.023364069 0.25019723 0.045369174 -0.064761765 0.1173609 0.1711518 0.2677081 -0.16705945
-0.17523919 -0.016413458 -0.30793244 0.018916177 0.06515221 0.10399704 0.15753126 -0.13308711
0.19928144 -0.17277585 -0.10177322 0.22140492 -0.086569265 -0.2017884 0.1966968 0.15806136
0.16062544 -0.013544349 -0.13109866 0.1358387 0.19887616 -0.21049555 -0.059377957 0.096576795
0.18321988 -0.06066629 -0.07001609 -0.010203679 0.08374105 -0.15329573 0.11159589 -0.1221162
-0.25337583 -0.15268745 -0.17173512 -0.10305257 -0.07424813 -0.1109869 -0.24019456 -0.17290841
0.15371399 0.04737335 -0.042371694 -0.071287766 -0.22560626 0.18697123 0.04834039 -0.09979531
-0.026896585 -0.14218552 0.35699728 0.3006684 -0.20485513 0.17816494 0.1242089 -0.21135926
0.121139996 0.064416304 0.123533666 -0.018463539 0.16542687 0.027880128 0.23396203 0.015089699
-0.15395364 0.081902236 0.30987626 -0.060767964 -0.27412415 -0.27199584 -0.1222005 0.29560548
-0.07718482 -0.058639903 -0.09320848 0.043075394 -0.09070523 0.19046496 0.16389583 0.13136798
0.06277588 0.016343627 0.14689028 -0.066416666 -0.0029210898 -0.032103058 0.0107250605 -0.11297433
0.25111273 0.33526716 0.005177963 -0.27194026 0.15503547 0.028989358 -0.09282154 0.05340164
0.041578673 -0.032325555 -0.08815186 0.1669487 -0.05718419 -0.09231822 -0.34546882 0.062061496
0.29148313 -0.16139935 -0.10998033 -0.26636168 0.1560239 -0.15418568 -0.21946771 -0.0796559
-0.010235041 0.1045583 0.115926094 0.12637173 -0.1503038 -0.13269676 0.22437553 -0.20093834
-0.21419305 -0.025141066 -0.19486313 -0.009157555 0.014190642 -0.21857455 -0.12559003 0.10841154
0.020635458 0.19336173 0.04086729 0.061546035 0.16105704 0.021081427 -0.23771244 -0.050702218
0.0034111901 -0.1824933 0.05666067 0.2843485 -0.14276414 0.26739654 -0.14205308 -0.25562596
-0.21753325 0.13093017 -0.012651198 -0.012678869 0.017060596 -0.15937425 0.25173122 -0.066146374
-0.19002849 0.03160002 0.2935479 -0.14931488 -0.010695665 -0.14042461 -0.040918324 -0.12944974
0.1087727 0.21045005 -0.11189637 -0.15107346 -0.2989227 0.048432354 -0.030385967 0.23359206
-0.019998265 0.04718279 0.23631814 0.20952049 0.29900196 0.03741325 0.27326816 0.108766325
0.16942374 0.04512924 0.24407054 -0.106206626 -0.019350838 -0.06241828 0.3386917 -0.14596148
00000000: 8483 92be 658a bebd a9b5 213c c864 6d3e
00000010: 23c8 c4bd 915b 483e ff4e 093e c42b 0d3e
00000020: c539 27be dbe1 833e c57a 57be 78f6 76be
00000030: a311 bc3d beab 0a3e 7602 6f3e d92b 103e
00000040: b831 28be 40a5 22be 4ee2 a23e 3943 f73c
00000050: 3c56 113e a911 b63c 6a85 40be d7ca e7bd
00000060: 2d0b 07be 23fd c6bd 91cd 22bd 4772 e63d
00000070: aeb5 11be 16a3 533e 698c 953d 047a 9f3c
00000080: 7b40 96bd c1cd 08bd d69f 343d ccdf ba3c
00000090: 49dd f7bd eb90 b6bb 85bd 8e3e b917 b9bd
000000a0: e7c9 14be a2a9 78bd 7b7c 903d ad8c 033e
000000b0: f2b0 343e 56ca 0bbe 99a6 a93e 0f37 d23d
000000c0: 1f04 11be 6286 d6bd febd b4bd 031c 823e
000000d0: 16ab 03bd b2ca be3d 4ad8 68be ac33 323e
000000e0: ef2a 573d 6761 22be 15b8 083e f31f a5be
000000f0: 6aa9 babd ccad 57be 211e e23c 3237 d73d
00000100: 0166 bf3c da19 803e 07d5 393d d1a1 84bd
00000110: e95a f03d 6b42 2f3e 0911 893e a211 2bbe
00000120: e771 33be 8475 86bc 52a9 9dbe 19f6 9a3c
00000130: 866e 853d 66fc d43d e04f 213e fd47 08be
00000140: 6f10 4c3e 27ec 30be 7a6e d0bd f9b7 623e
00000150: 3a4b b1bd 9ea1 4ebe e36a 493e d6da 213e
00000160: ff7a 243e 1ee9 5dbc ba3e 06be 4d19 0b3e
00000170: 31a6 4b3e 258c 57be 4d36 73bd 0eca c53d
00000180: fe9d 3b3e 377d 78bd 9964 8fbd 552d 27bc
00000190: 6d80 ab3d 8ef9 1cbe 638c e43d 0f18 fabd
000001a0: 7aba 81be 195a 1cbe 55db 2fbe 3a0d d3bd
000001b0: 670f 98bd 1a4d e3bd 90f5 75be e70e 31be
000001c0: 3367 1d3e 8f0a 423d f18d 2dbd 52ff 91bd
000001d0: 5405 67be 6375 3f3e 9300 463d 7c61 ccbd
000001e0: 3a56 dcbc 1599 11be 59c8 b63e 35f1 993e
000001f0: 8bc5 51be df70 363e 3c61 fe3d 906e 58be
00000200: 3f18 f83d b2ec 833d 38ff fc3d d940 97bc
00000210: a965 293e de64 e43c be93 6f3e c93a 773c
00000220: 06a6 1dbe 5cbc a73d 1aa8 9e3e d4e7 78bd
00000230: 005a 8cbe 0a43 8bbe 4144 fabd 9a59 973e
00000240: 1313 9ebd 6530 70bd 16e4 bebd d36f 303d
00000250: aac3 b9bd 3f09 433e 4fd4 273e 5485 063e
00000260: a490 803d 12e3 853c 686a 163e 7605 88bd
00000270: c16f 3fbb 7f7e 03bd 2ab8 2f3c 165f e7bd
00000280: d991 803e 23a8 ab3e e7ab a93b c13b 8bbe
00000290: 9ec1 1e3e 177b ed3c 3819 bebd aebb 5a3d
000002a0: 664e 2a3d cd67 04bd f688 b4bd 9af4 2a3e
000002b0: f839 6abd 5611 bdbd 4ae1 b0be 3234 7e3d
000002c0: 473d 953e df45 25be 5e3d e1bd 8f60 88be
000002d0: bbc4 1f3e dae2 1dbe 25bc 60be a222 a3bd
000002e0: e0b0 27bc a922 d63d a96a ed3d 9767 013e
000002f0: 3de9 19be a9e1 07be b3c2 653e c8c2 4dbe
00000300: 6c55 5bbe a3f4 cdbc 338a 47be 9209 16bc
00000310: de7f 683c 02d2 5fbe ac9a 00be df06 de3d
00000320: b10b a93c 9e00 463e 7664 273d b217 7c3d
00000330: 23ec 243e f5b2 ac3c e46a 73be 21ad 4fbd
00000340: 468e 5f3b 86df 3abe 0515 683d 2096 913e
00000350: c330 12be 33e8 883e 5d76 11be 68e1 82be
00000360: 09c1 5ebe 8f12 063e f846 4fbc 08bb 4fbc
00000370: aac2 8b3c 0133 23be eae2 803e c077 87bd
00000380: d496 42be 066f 013d e94b 963e 00e6 18be
00000390: df3c 2fbc 78cb 0fbe f999 27bd 798e 04be
000003a0: 39c4 de3d 3880 573e ed29 e5bd 00b3 1abe
000003b0: 650c 99be 0161 463d feeb f8bc c232 6f3e
000003c0: 67d3 a3bc be42 413d 62fd 713e 8a8c 563e
000003d0: c916 993e a33e 193d cee9 8b3e e1c0 de3d
000003e0: 6b7d 2d3e 70d9 383d a1ed 793e dc82 d9bd
000003f0: a685 9ebc 4faa 7fbd 0069 ad3e ed76 15be

rnn.bias_ih_l0 f4 [48]
-0.16195332 -0.08110185 -0.13423698 -0.14429481 0.1630603 -0.033681884 0.04335356 0.19806272
0.22086976 0.19760819 0.09370039 0.16307269 -0.09912596 -0.11700336 0.076125875 -0.10137399
-0.16718538 0.069161735 0.12761731 -0.16824034 -0.114816524 -0.19347261 0.22261734 -0.117158934
-0.24064963 -0.22699592 -0.089342035 -0.035182353 -0.107928775 0.13741845 0.16299982 -0.21926598
0.15164277 -0.01474158 0.014572151 -0.13881294 -0.031669993 0.049234547 0.053331833 -0.24387588
0.065269776 -0.16635258 0.04049581 0.047123726 0.18521619 0.047467798 0.16275448 -0.113048755
00000000: 17d7 25be ba18 a6bd 6b75 09be 05c2 13be
00000010: 47f9 263e 04f6 09bd 8193 313d f4d0 4a3e
00000020: af2b 623e cd59 4a3e fde5 bf3d 87fc 263e
00000030: 8d02 cbbd 759f efbd e2e7 9b3d 2b9d cfbd
00000040: a532 2bbe aba4 8d3d 1dae 023e 3247 2cbe
00000050: ed24 ebbd af1d 46be cdf5 633e 06f1 efbd
00000060: db6c 76be 9e71 68be f5f8 b6bd 5f1b 10bd
00000070: c309 ddbd 6cb7 0c3e 6de9 263e 4387 60be
00000080: 3e48 1b3e ab86 71bc 08c0 6e3c fb24 0ebe
00000090: 65b8 01bd 2aaa 493d 7b72 5a3d 99ba 79be
000000a0: 29ac 853d 5558 2abe efde 253d cf04 413d
000000b0: 50a9 3d3e 986d 423d 1ca9 263e 1b86 e7bd

rnn.bias_hh_l0 f4 [48]
-0.21139145 0.25467014 -0.07203534 0.29867524 0.15719235 -0.20503542 -0.108687736 -0.03313893
-0.2669006 0.15380697 -0.019957952 -0.17203356 -0.028130906 0.027647574 -0.26739755 -0.07105646
-0.1797281 0.09532781 -0.2213497 -0.13307294 0.03386667 0.19799586 0.093244456 0.17518897
0.055549633 -0.14903691 -0.09345333 -0.16925545 -0.27500272 0.09111376 0.25965646 -0.15250489
0.033166423 0.0935248 0.045504104 0.18841808 -0.14089634 -0.16541171 -0.050133318 -0.08945887
-0.038286924 -0.14984329 -0.016675245 0.15808253 0.06849002 -0.18157741 -0.16722487 -0.061383422
00000000: 0077 58be 2064 823e 4487 93bd f6eb 983e
00000010: 08f7 203e cef4 51be ad97 debd b0bc 07bd
00000020: 32a7 88be 937f 1d3e dc7e a3bc 9129 30be
00000030: c972 e6bc 2a7d e23c 55e8 88be 0d86 91bd
00000040: a50a 38be 3a3b c33d 7fa9 62be 4644 08be
00000050: c7b7 0a3d 6dbf 4a3e f3f6 be3d bd64 333e
00000060: 0388 633d 229d 18be 7664 bfbd 4d51 2dbe
00000070: 28cd 8cbe da99 ba3d b1f1 843e 3e2a 1cbe
00000080: 84d9 073d ee89 bf3d 8362 3a3d abf0 403e
00000090: 2147 10be b061 29be 9858 4dbd 3636 b7bd
000000a0: c0d2 1cbd 8570 19be 869a 88bc 63e0 213e
000000b0: 7f44 8c3d 6eef 39be ff3c 2bbe 2f6d 7bbd

fc.weight f4 [128, 16]
0.3173633 -0.10904355 -0.27906463 0.028637802 0.031241708 0.1429342 -0.13555397 -0.32459083
-0.1502481 -0.26108852 -0.11431388 0.1566652 -0.0027052253 -0.19840924 0.33241683 -0.013069939
0.276209 -0.15672842 -0.16108662 0.26356632 0.036602456 0.10725306 0.09381959 0.08378015
-0.009023328 -0.2644544 0.19874303 0.094494574 -0.023619773 0.095157266 0.2699376 -0.24405605
-0.044619653 0.111573376 -0.07850479 -0.007404025 -0.06833945 0.16656254 -0.16459432 0.0735777
-0.14474984 0.28568366 -0.053736698 0.11393214 -0.0914387 -0.22198583 -0.068318896 0.019408017
-0.2671557 -0.04937194 0.20246871 -0.08444446 0.21253401 0.00081568403 -0.21825235 0.25915295
0.31364524 0.27951002 0.11994897 -0.14096493 0.16404086 -0.039215814 0.08324847 -0.08494441
-0.2106261 -0.2492992 -0.10484605 -0.14694226 -0.29904932 -0.21542013 0.32565454 -0.21936858
-0.18007103 0.019240271 0.052407365 0.15744533 0.22633792 -0.05750072 -0.24571483 0.22855191
-0.28745297 -0.20749491 -0.13685931 0.23879726 0.1391837 0.09517591 -0.04598216 -0.009294443
0.16856973 -0.25198913 -0.24601936 -0.13409323 -0.08243331 0.15155992 -0.05570552 0.3333595
0.11915419 -0.12110537 -0.086399525 -0.12265904 0.32561466 -0.07150868 0.011668076 -0.003419053
0.10473477 0.058900785 -0.343457 0.02639318 0.21974784 -0.0441365 -0.117803484 -0.064854324
0.22581336 0.14849263 -0.02064476 0.09271752 0.09129516 0.14114365 0.2432964 -0.103595614
0.102515794 -0.09863014 -0.12755308 -0.032160994 -0.29912 0.11658589 -0.028449768 -0.05404578
-0.08709383 -0.051242076 0.21249492 0.17069614 0.03645406 -0.2565741 -0.097370274 -0.086936854
-0.19834606 -0.19443522 -0.11723507 0.008345773 -0.025114039 0.13341531 -0.05316519 -0.09265883
-0.09608464 -0.18193097 -0.19277905 -0.17321864 -0.11636918 -0.08342483 -0.23692054 -0.14519852
-0.21212609 0.084801264 -0.03411647 0.006659596 0.029817052 0.09575692 0.24622421 0.25441507
-0.23870006 -0.14145201 0.13093941 -0.269958 0.12555404 -0.20400915 -0.25502694 -0.065757856
0.2821303 -0.21588711 0.13767174 0.055106297 0.11793336 0.07421893 -0.16365287 -0.120399624
-0.03607911 -0.18853348 -0.25894958 0.10135727 0.02412864 -0.092952706 -0.16030203 -0.03854558
-0.27318212 0.17327778 -0.12566398 0.033154104 -0.08690229 -0.07509188 0.06039452 0.4044274
-0.16412435 0.1937183 0.13668193 -0.058657728 0.008098545 0.13967085 0.035639953 -0.23135988
0.11554832 0.099010184 -0.020183936 0.21595821 0.2356836 0.19337676 0.1103988 0.1379122
-0.10144097 -0.2531347 0.10879563 0.114377655 -0.066156544 0.062777 0.029024137 0.16054863
0.12254771 -0.16132732 0.083558805 -0.09880476 0.1439285 -0.2847148 -0.0654617 -0.1803347
0.0025819177 0.14440717 0.21114138 -0.24549772 -0.17802083 0.0652961 -0.25434807 0.14785597
0.23434521 0.23648769 -0.029503485 0.12995946 0.27061802 -0.049083687 -0.273496 -0.17849936
-0.28756568 -0.021469204 -0.23703541 -0.29997998 0.32925045 -0.148002 0.106003836 -0.0791437
-0.09144822 0.13709716 -0.10645713 0.23607448 -0.26045516 0.13985644 0.19322899 -0.22813015
00000000: 717d a23e 3a52 dfbd 8fe1 8ebe d399 ea3c
00000010: 9cee ff3c 585d 123e a9ce 0abe c530 a6be
00000020: a3da 19be 65ad 85be 651d eabd d86c 203e
00000030: 264a 31bb cb2b 4bbe 8a32 aa3e 4c23 56bc
00000040: 446b 8d3e 6a7d 20be e4f3 24be 2af2 863e
00000050: 75ec 153d 7ea7 db3d 7c24 c03d ed94 ab3d
00000060: 95d6 13bc 9166 87be 4b83 4b3e 5f86 c13d
00000070: 417e c1bc d0e1 c23d 4335 8a3e d4e9 79be
00000080: 19c3 36bd 9580 e43d 1fc7 a0bd 779d f2bb
00000090: 8ef5 8bbd 5f8f 2a3e 6a8b 28be e8af 963d
000000a0: 4d39 14be 2145 923e 031b 5cbd 4155 e93d
000000b0: 3744 bbbd 4150 63be c7ea 8bbd 90fd 9e3c
000000c0: a2c8 88be 3b3a 4abd f553 4f3e 38f1 acbd
000000d0: 84a2 593e a1d3 553a 8b7d 5fbe b2af 843e
000000e0: 1c96 a03e f01b 8f3e cea7 f53d 1c59 10be
000000f0: 54fa 273e c3a0 20bd 2d7e aa3d 56f7 adbd
00000100: 5eae 57be 4a48 7fbe 87b9 d6bd 0878 16be
00000110: fe1c 99be 1897 5cbe 31bc a63e 28a2 60be
00000120: 8a64 38be c69d 9d3c 1ba9 563d 5939 213e
00000130: 21c5 673e e085 6bbd ab9c 7bbe 8309 6a3e
00000140: 092d 93be 8c79 54be d924 0cbe 4587 743e
00000150: 2c86 0e3e 96eb c23d ca57 3cbd b847 18bc
00000160: 8b9d 2c3e b804 81be 80ec 7bbe bc4f 09be
00000170: ccd2 a8bd 8632 1b3e 792b 64bd 19ae aa3e
00000180: 1d07 f43d 1806 f8bd 3cf2 b0bd aa34 fbbd
00000190: f7b6 a63e 2573 92bd 752b 3f3c 3112 60bb
000001a0: 2f7f d63d f341 713d 99d9 afbe 8336 d83c
000001b0: 9405 613e 7ac8 34bd f442 f1bd 58d2 84bd
000001c0: 9e3b 673e 740e 183e 331f a9bc afe2 bd3d
000001d0: f5f8 ba3d f687 103e b122 793e f029 d4bd
000001e0: cdf3 d13d 99fe c9bd 469d 02be 3fbb 03bd
000001f0: 4226 99be 95c4 ee3d 7d0f e9bc 1c5f 5dbd
00000200: 405e b2bd 36e3 51bd 4598 593e f8ca 2e3e
00000210: da50 153d ae5d 83be 116a c7bd f30b b2bd
00000220: 3b1b 4bbe 071a 47be f118 f0bd b6bc 083c
00000230: f5bb cdbc 069e 083e bec3 59bd eac3 bdbd
00000240: 06c8 c4bd 1d4c 3abe df67 45be 3a60 31be
00000250: f752 eebd a3da aabd 4c9b 72be ecae 14be
00000260: 9537 59be 49ac ad3d b6bd 0bbd be38 da3b
00000270: e442 f43c 341c c43d 3322 7c3e b142 823e
00000280: ca6d 74be ccd8 10be fb14 063e ef37 8abe
00000290: 3d91 003e c6e7 50be e492 82be 0eac 86bd
000002a0: 6273 903e 8311 5dbe d2f9 0c3e 24b7 613d
000002b0: 0c87 f13d 1800 983d 9e94 27be 1494 f6bd
000002c0: b0c7 13bd ec0e 41be 0a95 84be 6694 cf3d
000002d0: 6da9 c53c fd5d bebd 3726 24be f8e1 1dbd
000002e0: 87de 8bbe bb6f 313e 0fae 00be 99cc 073d
000002f0: d4f9 b1bd c6c9 99bd 3f60 773d 1c11 cf3e
00000300: 3710 28be 175e 463e 59f6 0b3e 1643 70bd
00000310: c2af 043c e005 0f3e 33fb 113d 9be9 6cbe
00000320: 99a4 ec3d dac5 ca3d c858 a5bc 2624 5d3e
00000330: 0b57 713e 8f04 463e c418 e23d db38 0d3e
00000340: 49c0 cfbd df9a 81be 3ed0 de3d d53e ea3d
00000350: 157d 87bd 3a91 803d 07c4 ed3c dc66 243e
00000360: 4bfa fa3d fd32 25be e120 ab3d 265a cabd
00000370: fe61 133e 23c6 91be c910 86bd a9a9 38be
00000380: 6435 293b 79df 133e 7235 583e c163 7bbe
00000390: 184b 36be f6b9 853d e939 82be 8e67 173e
000003a0: 31f8 6f3e d429 723e 4bb1 f1bc 1814 053e
000003b0: 728e 8a3e fa0b 49bd ab07 8cbe 89c8 36be
000003c0: cf3b 93be 2fe0 afbc 69b9 72be fa96 99be
000003d0: 8493 a83e d68d 17be 8a18 d93d 1816 a2bd
000003e0: 3449 bbbd 3363 0c3e 3206 dabd 82bd 713e
000003f0: 615a 85be 8736 0f3e d2dd 453e f39a 69be

fc.bias f4 [128]
0.09475558 0.20478019 -0.17489256 -0.0964976 0.21336938 0.2410611 -0.25112516 0.220276
-0.0845138 -0.027675133 0.18676955 0.11734568 -0.14078006 -0.058130853 0.16820171 -0.108071044
0.27308655 0.11799393 0.028748106 -0.04824578 0.15844783 -0.07042381 -0.028333139 -0.22757852
0.13754928 0.062570155 -0.043744277 0.007656139 0.22067416 0.024049088 -0.07945013 0.14848329
-0.022590041 -0.04152177 0.15085289 -0.07098605 0.21514577 0.14634676 0.094040714 0.097773485
0.1157466 -0.14380884 -0.08035546 -0.23426391 -0.28889224 -0.067019 0.17138103 -0.22711335
-0.026032116 0.051018152 0.19666204 0.31596106 0.19150013 0.08364735 -0.12963411 -0.14192994
-0.10581907 -0.19837566 -0.2412819 -0.17222326 0.101862706 -0.11278773 -0.116100304 0.22861014
-0.2404682 -0.17818882 0.050141383 -0.1490373 0.26341793 0.040091343 0.05624744 0.23198818
-0.036151502 -0.035431664 0.00045301113 0.20791101 -0.16128755 0.032322507 -0.17560592 0.1907286
0.21336289 0.2422006 -0.0695632 -0.25436425 0.09017185 -0.09460839 0.11663444 0.0008112662
-0.20377517 -0.09830182 -0.0725878 0.15111236 0.13522738 0.25837556 -0.03807529 -0.23224485
0.30612224 0.19819194 0.13783999 0.08631355 -0.187362 -0.32214677 0.21883808 0.13941313
0.085494034 0.26252294 0.07275571 -0.19637027 -0.20432267 0.072013944 0.17254491 -0.30310404
-0.04444873 -0.121719874 -0.15987445 0.20469241 0.21362448 -0.1739545 -0.16874753 0.17372991
-0.030274965 -0.07189896 -0.007760929 0.082523696 -0.17175494 0.17009579 0.13277654 0.12299055
00000000: 370f c23d e6b1 513e 0917 33be 89a0 c5bd
00000010: 817d 5a3e b9d8 763e 7a93 80be 0890 613e
00000020: 9215 adbd f6b6 e2bc 8440 3f3e ef52 f03d
00000030: a628 10be 9e1a 6ebd 123d 2c3e 5a54 ddbd
00000040: 00d2 8b3e cda6 f13d 2681 eb3c 5e9d 45bd
00000050: 2640 223e 5c3a 90bd e61a e8bc 580a 69be
00000060: b8d9 0c3e c824 803d 332d 33bd 59e0 fa3b
00000070: 68f8 613e 9802 c53c c0b6 a2bd 010c 183e
00000080: c00e b9bc bb12 2abd 2e79 1a3e 2261 91bd
00000090: 2c4f 5c3e eddb 153e 6b98 c03d 773d c83d
000000a0: 8e0c ed3d a042 13be 6791 a4bd e1e2 6fbe
000000b0: afe9 93be 4241 89bd 827e 2f3e 6790 68be
000000c0: 4e41 d5bc 69f8 503d c661 493e a6c5 a13e
000000d0: 9c18 443e 4d4f ab3d cebe 04be 1556 11be
000000e0: abb7 d8bd fd22 4bbe 9a12 77be 4b5b 30be
000000f0: 659d d03d 41fd e6bd ffc5 edbd c718 6a3e
00000100: 4c3d 76be 2177 36be 0d61 4d3d 3c9d 18be
00000110: b7de 863e d236 243d b763 663d 4f8e 6d3e
00000120: 9913 14bd cb20 11bd 2082 ed39 a0e6 543e
00000130: 9028 25be 9b64 043d 0ad2 33be 5c4e 433e
00000140: cd7b 5a3e 6f03 783e 2777 8ebd 083c 82be
00000150: 05ac b83d 0bc2 c1bd 0ade ee3d 27ab 543a
00000160: 70aa 50be 7752 c9bd eaa8 94bd 33bd 1a3e
00000170: 0c79 0a3e cd49 843e d6f4 1bbd 98d1 6dbe
00000180: 0ebc 9c3e d4f2 4a3e ed25 0d3e 29c5 b03d
00000190: d3db 3fbe 6cf0 a4be 1717 603e 51c2 0e3e
000001a0: 7f17 af3d 6869 863e f200 953d 4a15 49be
000001b0: f639 51be 0c7c 933d 9daf 303e 7430 9bbe
000001c0: df0f 36bd 4548 f9bd 21b6 23be e39a 513e
000001d0: 60c0 5a3e 2121 32be 27cc 2cbe 41e6 313e
000001e0: 3403 f8bc c33f 93bd 644f febb 2f02 a93d
000001f0: 87e0 2fbe 972d 2e3e 93f6 073e 78e2 fb3d

mlp.0.weight f4 [16, 360]
-0.07822442 -0.06985105 -0.025722902 -0.09277187 -0.031492203 -0.10769116 -0.07025549 -0.05551777
-0.05541451 -0.08484427 -0.08390114 -0.072617956 -0.009857151 -0.037101477 -0.11079348 -0.053698868
-0.06118004 -0.03966137 -0.027150942 -0.056197636 -0.08534803 -0.040339414 -0.026537076 -0.09899525
-0.02526526 -0.07021983 -0.06373425 -0.0320917 -0.0408323 -0.0827295 -0.097924806 -0.10375518
-0.056080975 -0.010763785 -0.0076330802 -0.024688384 -0.081102036 -0.018540451 -0.048472505 -0.043564368
-0.100058906 -0.04096558 -0.085815676 -0.06751489 -0.08072659 -0.06449665 -0.07398222 -0.03916152
-0.10544211 -0.06494303 -0.079698764 -0.020671755 -0.081854984 -0.022466883 -0.006855421 -0.077022254
-0.038835004 -0.056244303 -0.042626243 -0.050682466 -0.0073443404 -0.055168394 -0.04510753 -0.025502056
-0.018730419 -0.07448626 -0.0503697 -0.012657725 -0.069917105 -0.08577916 -0.109203786 -0.07054139
-0.08481113 -0.020217573 -0.04526183 -0.017919248 -0.074141786 -0.060552876 -0.1072764 -0.05607953
-0.057688992 -0.01678439 -0.05717653 -0.05142946 -0.055394694 -0.10924351 -0.08797277 -0.064974025
-0.020867743 -0.045841176 -0.04998812 -0.09268509 -0.10450497 -0.0737914 -0.04449565 -0.022813944
-0.06850354 -0.09750834 -0.06356345 -0.051991817 -0.015892684 -0.014482975 -0.061016113 -0.031777952
-0.029878575 -0.09875906 -0.04964617 -0.029482096 -0.04957327 -0.09461649 -0.05194811 -0.0736665
-0.07731677 -0.03172521 -0.03172494 -0.0060761073 -0.056325547 -0.03719483 -0.0075950734 -0.09990663
-0.049993444 -0.10260795 -0.03385173 -0.008538106 -0.08853116 -0.10823022 -0.008470835 -0.06351043
-0.03776811 -0.06102745 -0.013552972 -0.0472817 -0.07409265 -0.08271273 -0.015070858 -0.09310901
-0.07119977 -0.07377919 -0.06953486 -0.106572844 -0.056072455 -0.06342546 -0.07456278 -0.022993995
-0.083687186 -0.06503365 -0.04596261 -0.007219456 -0.025994094 -0.08459959 -0.09273267 -0.03470542
-0.05191203 -0.007929131 -0.05899801 -0.034215484 -0.030144239 -0.018009963 -0.07108702 -0.033738904
-0.038073868 -0.022972586 -0.0924592 -0.08689179 -0.0476694 -0.052066177 -0.07653702 -0.101629764
-0.05006205 -0.053708468 -0.0074335122 -0.04166055 -0.043720353 -0.027745124 -0.10226826 -0.10207722
-0.024759477 -0.10659371 -0.056543384 -0.019403543 -0.10780573 -0.058369547 -0.07736553 -0.040659625
-0.07848134 -0.040356234 -0.08158274 -0.07570644 -0.026031258 -0.05370273 -0.10825771 -0.024053859
-0.07446425 -0.021597955 -0.091346234 -0.0359758 -0.08748159 -0.10112661 -0.015814936 -0.017125078
-0.08950234 -0.042246103 -0.026957378 -0.08175272 -0.058725134 -0.1079785 -0.014895618 -0.031366806
-0.074876845 -0.07452065 -0.034490597 -0.07793886 -0.088512436 -0.10916486 -0.06719529 -0.048672356
-0.09054448 -0.10414091 -0.09358909 -0.014151102 -0.08454585 -0.060791478 -0.078230284 -0.048158318
-0.029815836 -0.110928304 -0.08798557 -0.05745753 -0.045406524 -0.061941933 -0.09450555 -0.045444377
-0.03464114 -0.04736324 -0.09473477 -0.05584427 -0.017630048 -0.09865609 -0.06822397 -0.06469818
-0.03729012 -0.044998534 -0.09583933 -0.07937843 -0.011143709 -0.07481188 -0.05763783 -0.06304498
-0.07612372 -0.044544525 -0.010212396 -0.101747625 -0.09194468 -0.02557688 -0.091350295 -0.07883292
00000000: 2034 a0bd 110e 8fbd d6b8 d2bc 2eff bdbd
00000010: f8fd 00bd 2f8d dcbd 1ce2 8fbd 9a66 63bd
00000020: 53fa 62bd d5c2 adbd 5cd4 abbd b9b8 94bd
00000030: e37f 21bc b8f7 17bd b1e7 e2bd 58f3 5bbd
00000040: ec97 7abd f673 22bd a76b debc 7e2f 66bd
00000050: f3ca aebd f13a 25bd 4864 d9bc 06be cabd
00000060: 17f9 cebc 6acf 8fbd 1a87 82bd 9672 03bd
00000070: c53f 27bd 166e a9bd cd8c c8bd 997d d4bd
00000080: 2ab5 65bd 965a 30bc eb1e fabb 4b3f cabc
00000090: d318 a6bd 25e2 97bc 1b8b 46bd 8d70 32bd
000000a0: afeb ccbd 86cb 27bd 21c0 afbd 3f45 8abd
000000b0: fb53 a5bd d216 84bd fd83 97bd d467 20bd
000000c0: 08f2 d7bd da00 85bd 1b39 a3bd d057 a9bc
000000d0: 96a3 a7bd 780c b8bc 70a3 e0bb d8bd 9dbd
000000e0: 7411 1fbd 6d60 66bd db98 2ebd 6b98 4fbd
000000f0: cba8 f0bb 41f8 61bd acc2 38bd b0e9 d0bc
00000100: 8970 99bc 418c 98bd 7550 4ebd 5962 4fbc
00000110: b330 8fbd fcac afbd 3ca6 dfbd 0178 90bd
00000120: 75b1 adbd 539f a5bc 7864 39bd 63cb 92bc
00000130: a6d7 97bd 4b06 78bd bbb3 dbbd a6b3 65bd
00000140: 4b4b 6cbd 6b7f 89bc f031 6abd b3a7 52bd
00000150: 8ce5 62bd 10bb dfbd 112b b4bd 1a11 85bd
00000160: d4f2 aabc f5c3 3bbd 58c0 4cbd aed1 bdbd
00000170: b406 d6bd f21f 97bd 1241 36bd 4fe4 babc
00000180: 954b 8cbd 74b2 c7bd 8e2d 82bd 5ff5 54bd
00000190: 6031 82bc 004a 6dbc 08ec 79bd 9929 02bd
000001a0: eac3 f4bc 3142 cabd c859 4bbd 7084 f1bc
000001b0: 570d 4bbd 4ac6 c1bd 8bc7 54bd 76de 96bd
000001c0: 4158 9ebd 4bf2 01bd 03f2 01bd 151a c7bb
000001d0: 9eb5 66bd 9b59 18bd 18e0 f8bb d99b ccbd
000001e0: edc5 4cbd 1e24 d2bd 1da8 0abd 6ae3 0bbc
000001f0: d34f b5bd cea7 ddbd 42c9 0abc c211 82bd
00000200: bcb2 1abd ebf7 79bd 490d 5ebc 75aa 41bd
00000210: e3bd 97bd 4b65 a9bd c3eb 76bc f0af bebd
00000220: 2fd1 91bd 8b19 97bd 4b68 8ebd dd42 dabd
00000230: 3bac 65bd 35e5 81bd 5fb4 98bd e75d bcbc
00000240: 3064 abbd 5d30 85bd 4a43 3cbd 3091 ecbb
00000250: 91f1 d4bc 8d42 adbd a0ea bdbd 4527 0ebd
00000260: b5a1 54bd 30e9 01bc e6a7 71bd 8925 0cbd
00000270: 0df1 f6bc a189 93bc 1296 91bd ce31 0abd
00000280: 58f3 1bbd 0131 bcbc 405b bdbd 53f4 b1bd
00000290: fd40 43bd 5843 55bd 71bf 9cbd 4423 d0bd
000002a0: dd0d 4dbd 69fd 5bbd d294 f3bb 41a4 2abd
000002b0: 1d14 33bd be49 e3bc 0672 d1bd dd0d d1bd
000002c0: 63d4 cabc ce4d dabd 099a 67bd 2ef4 9ebc
000002d0: 40c9 dcbd e814 6fbd d271 9ebd b58a 26bd
000002e0: d3ba a0bd 944c 25bd da14 a7bd fa0b 9bbd
000002f0: 813f d5bc 65f7 5bbd 38b6 ddbd 990c c5bc
00000300: b680 98bd 32ee b0bc bc13 bbbd 5c5b 13bd
00000310: 8c29 b3bd 781b cfbd 538e 81bc e449 8cbc
00000320: 014d b7bd 400a 2dbd b8d5 dcbc f86d a7bd
00000330: c489 70bd d523 ddbd c00c 74bc 7b7a 00bd
00000340: 0859 99bd 489e 98bd 0346 0dbd 699e 9fbd
00000350: 0246 b5bd d391 dfbd af9d 89bd aa5c 47bd
00000360: 626f b9bd d447 d5bd a3ab bfbd 06da 67bc
00000370: 6026 adbd 7c00 79bd 3337 a0bd a841 45bd
00000380: 5740 f4bc 612e e3bd c731 b4bd 9658 6bbd
00000390: 31fc 39bd d3b6 7dbd 208c c1bd e223 3abd
000003a0: dee3 0dbd f5ff 41bd 4e04 c2bd f6bc 64bd
000003b0: e46c 90bc 340c cabd 02b9 8bbd 7b80 84bd
000003c0: 86bd 18bd 6250 38bd 6947 c4bd 2991 a2bd
000003d0: 1a94 36bc f936 99bd a515 6cbd ba1d 81bd
000003e0: c1e6 9bbd 5274 36bd e551 27bc 0f61 d0bd
000003f0: 7e4d bcbd 9b86 d1bc dd15 bbbd 2773 a1bd

mlp.0.bias f4 [16]
-0.077214204 -0.09579538 -0.06906377 -0.015404993 0.0058623827 -0.032351322 -0.09857205 0.0501013
-0.028705573 -0.008737116 -0.034609765 -0.065021016 0.087815896 -0.035835106 0.05837515 -0.019327482
00000000: 7b22 9ebd 5e30 c4bd 4e71 8dbd 3965 7cbc
00000010: 3b19 c03b d282 04bd 25e0 c9bd 0537 4d3d
00000020: f327 ebbc 1f26 0fbc f8c2 0dbd bd29 85bd
00000030: d2d8 b33d d5c7 12bd c81a 6f3d ab54 9ebc

mlp.2.weight f4 [16, 16]
0.009249021 0.16475806 0.09604261 0.19369388 0.17239302 -0.2756367 0.2227686 -0.067740485
-0.12909627 0.13348007 -0.16341779 -0.051633142 -0.30018273 0.14631635 -0.19958447 -0.14069621
-0.11754471 -0.2304611 0.15572688 0.24101587 0.004753534 0.23900616 -0.23621075 -0.058283307
-0.00182821 -0.099345855 -0.16635442 0.04929572 -0.10724852 -0.0624998 0.05459273 0.1083257
0.20012996 0.17611466 0.17003524 -0.22607118 -0.0617511 0.08804472 0.056417573 -0.046823442
-0.20452918 -0.081549905 0.098864764 0.09700719 -0.072821066 -0.07012351 -0.04600816 -0.097764574
-0.055735406 0.20496365 -0.117710374 -0.05494808 -0.2430666 -0.21714795 -0.15311119 -0.03665895
-0.0741355 -0.25257382 -0.041022267 0.06920538 0.008454332 -0.27482632 0.14590453 -0.27406293
-0.21504115 -0.13764215 0.0057471674 -0.16528349 0.031664696 0.02041327 0.102962896 -0.19428013
-0.14908099 0.039218172 -0.16485275 -0.2413081 -0.14064819 -0.065481804 -0.13826522 0.23031084
-0.096291386 -0.19019438 -0.034028415 0.014645869 -0.27837262 -0.17629892 -0.16911775 -0.07470564
-0.2256857 -0.044800837 -0.054642066 0.012321134 -0.14286664 0.062220808 -0.204568 -0.17598194
0.05761405 0.24315225 -0.042566046 0.09496717 -0.27551925 0.05450445 0.16329353 0.074811205
-0.15849169 0.06858663 -0.07467207 -0.15174879 -0.25977734 0.047791224 -0.17743222 -0.12781641
-0.07838831 0.10797545 0.20916568 -0.19545946 0.039823715 -0.104624026 -0.13633588 0.1151265
0.071669996 0.091768675 0.013131201 -0.07268743 -0.086447656 0.21966615 0.24357638 -0.085741214
-0.1695585 0.023816537 -0.25486743 -0.0363548 0.06392357 0.0691914 0.039251857 -0.107631914
-0.03429961 0.05319973 -0.1747751 0.18156742 -0.08001041 0.010077595 0.21215135 0.13738337
0.043004528 -0.16878636 0.02670689 0.15918344 -0.27364397 -0.2167196 0.04258226 -0.14713438
0.09822072 0.18267861 0.18535918 -0.06941099 -0.18629175 -0.16316451 0.13493645 0.20583111
-0.07754687 0.02245504 -0.026140796 0.09660464 -0.18687928 -0.055534717 0.040292665 -0.18744689
-0.028258964 -0.10272419 0.19318748 -0.03187501 -0.20281845 0.22629638 -0.13492246 -0.22052182
0.2161597 0.16671494 -0.13279861 -0.16479126 0.15771921 0.10199514 0.014578813 -0.06313528
-0.20879342 -0.029816903 -0.07260496 0.22274412 -0.19408315 -0.11257076 0.01652505 0.054468222
0.29336584 0.045895644 -0.015122557 -0.18649738 -0.10113544 0.13818848 -0.07357228 0.12355525
0.163421 0.103741676 -0.15198922 0.18299165 -0.07273827 0.04977572 0.22192551 -0.028355863
0.03972383 -0.18104793 0.13092585 -0.021409975 -0.14643732 -0.1439683 -0.046401344 -0.29205713
-0.0021328414 -0.02077812 0.028035333 -0.051529292 -0.2904845 -0.16263129 -0.19280757 -0.21012098
0.16856942 -0.15120111 0.12852457 -0.17790015 0.33978325 0.28522834 -0.24499965 -0.080781296
-0.037848305 0.29336315 -0.11536073 0.07538941 0.05287433 -0.06336075 0.1547911 -0.1361973
0.23459704 0.2039833 -0.13578717 0.2263364 0.110518984 0.21491097 0.030062001 -0.04475013
0.20850725 -0.16968964 0.17945088 -0.031545572 -0.100835904 -0.124039404 -0.09905567 0.0627532
00000000: 3589 173c 56b6 283e fdb1 c43d b057 463e
00000010: cc87 303e 4120 8dbe 741d 643e 86bb 8abd
00000020: d031 04be 00af 083e fe56 27be 467d 53bd
00000030: 8db1 99be f4d3 153e df5f 4cbe ab12 10be
00000040: 48bb f0bd fffd 6bbe de76 1f3e ddcc 763e
00000050: 89c3 9b3b 08be 743e 3be1 71be 7aba 6ebd
00000060: 8ca0 efba d775 cbbd d058 2abe 4fea 493d
00000070: 1da5 dbbd caff 7fbd a09c 5f3d ddd9 dd3d
00000080: deee 4c3e 6757 343e b81d 2e3e 347f 67be
00000090: b9ee 7cbd ca50 b43d 1d16 673d f0c9 3fbd
000000a0: 1970 51be a303 a7bd 9c79 ca3d b5ab c63d
000000b0: 3623 95bd ea9c 8fbd 0d73 3cbd cb38 c8bd
000000c0: cf4a 64bd fee1 513e 2312 f1bd 3d11 61bd
000000d0: 73e6 78be 085c 5ebe 2ec9 1cbe b227 16bd
000000e0: 5ad4 97bd 5b51 81be f706 28bd 8dbb 8d3d
000000f0: 0a84 0a3c 09b6 8cbe ff67 153e fa51 8cbe
00000100: bf33 5cbe 10f2 0cbe bc52 bc3b 1340 29be
00000110: d7b2 013d bb39 a73c 36de d23d 5ff1 46be
00000120: b0a8 18be 3ca3 203d 29cf 28be 7819 77be
00000130: 1406 10be 531b 86bd 6695 0dbe 9bd6 6b3e
00000140: 6b34 c5bd 51c2 42be 6161 0bbd 3af5 6f3c
00000150: db86 8ebe b487 34be 342d 2dbe 45ff 98bd
00000160: 271a 67be 1581 37bd 5cd0 5fbd 95de 493c
00000170: a24b 12be 3fdb 7e3d 467a 51be 9c34 34be
00000180: b6fc 6b3d e7fc 783e bc59 2ebd 267e c23d
00000190: dc10 8dbe 0f40 5f3d 6b36 273e 9e36 993d
000001a0: a54b 22be 2677 8c3d aced 98bd 0964 1bbe
000001b0: 8901 85be bbc0 433d cbb0 35be 4ee2 02be
000001c0: 0d8a a0bd 3c22 dd3d 872f 563e 8626 48be
000001d0: 311e 233d 1f45 d6bd a29b 0bbe 71c7 eb3d
000001e0: b8c7 923d 37f1 bb3d 4024 573c 26dd 94bd
000001f0: 780b b1bd 2af0 603e 166c 793e 1799 afbd
00000200: bea0 2dbe e61a c33c fc7d 82be c5e8 14bd
00000210: 5cea 823d 39b4 8d3d 8ec6 203d 1f6e dcbd
00000220: bf7d 0cbd f6e7 593d 3ef8 32be cfec 393e
00000230: 7fdc a3bd 7f1c 253c 343e 593e 3aae 0c3e
00000240: 8425 303d 55d6 2cbe 68c8 da3c fc00 233e
00000250: 101b 8cbe beeb 5dbe bc6a 2e3d 65aa 16be
00000260: f227 c93d 1a10 3b3e ccce 3d3e 5927 8ebd
00000270: 44c3 3ebe 9914 27be c82c 0a3e 64c5 523e
00000280: e5d0 9ebd a2f3 b73c 3925 d6bc a7d8 c53d
00000290: 485d 3fbe 5f78 63bd ec09 253d 14f2 3fbe
000002a0: 587f e7bc 0f61 d2bd f0d2 453e 5f8f 02bd
000002b0: a4af 4fbe 3dba 673e 1d29 0abe 79d0 61be
000002c0: f858 5d3e 52b7 2a3e 5cfc 07be 0abf 28be
000002d0: 2581 213e d4e2 d03d f9db 6e3c 124d 81bd
000002e0: f1cd 55be 9442 f4bc e9b1 94bd 0917 643e
000002f0: bcbd 46be 808b e6bd 8b5f 873c 121a 5f3d
00000300: 0c34 963e 12fd 3b3d 9ac4 77bc 2bf9 3ebe
00000310: 1920 cfbd 4881 0d3e 10ad 96bd 890a fd3d
00000320: d657 273e 8476 d43d 10a3 1bbe 2a62 3b3e
00000330: cdf7 94bd a0e1 4b3d 7140 633e 8e4a e8bc
00000340: 74b5 223d a164 39be 6d11 063e f963 afbc
00000350: aaf3 15be 6d6c 13be 560f 3ebd 8388 95be
00000360: 24c7 0bbb e036 aabc 5baa e53c 6110 53bd
00000370: 62ba 94be d188 26be 596f 45be f429 57be
00000380: 769d 2c3e 77d4 1abe f29b 033e 752b 36be
00000390: 12f8 ad3e 7309 923e 30e1 7abe aa70 a5bd
000003a0: d306 1bbd b233 963e 3f42 ecbd c365 9a3d
000003b0: c192 583d 48c3 81bd 8f81 1e3e 4e77 0bbe
000003c0: 353a 703e 00e1 503e cb0b 0bbe bbc4 673e
000003d0: c757 e23d 9f11 5c3e 9644 f63c ea4b 37bd
000003e0: ed82 553e 1fc3 2dbe f9c1 373e ee35 01bd
000003f0: 0e83 cebd 5f08 febd b3dd cabd c084 803d

mlp.2.bias f4 [16]
-0.25544614 -0.107172735 -0.15547983 -0.10113812 -0.10055913 0.144823 -0.21102528 0.2875743
-0.21251187 -0.15228432 -0.20524992 -0.25676253 0.07506816 0.023776915 0.34002808 -0.035807855
00000000: d6c9 82be 617d dbbd 1b36 1fbe 8121 cfbd
00000010: f2f1 cdbd 7b4c 143e 0317 58be f03c 933e
00000020: b69c 59be 6cf0 1bbe 092d 52be 6176 83be
00000030: 56bd 993d cec7 c23c 2918 ae3e 42ab 12bd

mlp.4.weight f4 [16, 16]
-0.28662184 -0.12154501 -0.040748145 0.21159074 0.059689622 -0.07755273 0.1050502 0.15358661
0.2246284 -0.14616284 -0.18864459 -0.002589152 0.15370136 0.02885322 -0.2517007 0.011261648
-0.27625915 -0.18398641 0.058115732 -0.09724364 -0.112907805 0.081708595 0.09778331 -0.25555083
0.12904277 0.0727624 -0.2200072 0.16461101 0.05679987 0.024123011 -0.0917326 -0.16897139
0.15845656 -0.061625876 0.10484397 -0.18079758 -0.10287258 0.037497647 -0.0038827963 -0.16989502
0.15620469 -0.101207204 0.18087272 -0.042569913 0.020195495 0.20709196 -0.12530513 0.057925902
0.23077083 0.12021267 0.16099639 -0.040665872 0.05343025 -0.2412252 -0.014471287 0.030511491
-0.32265577 0.17478834 -0.07469642 0.19933195 -0.028600328 0.09914317 -0.26805907 -0.008842096
0.19380593 0.110984415 0.06358308 0.20283741 0.16192217 -0.19267236 0.071375035 0.048753705
-0.049759533 0.09313849 -0.03486486 0.2374913 -0.102921516 0.0418178 -0.1595235 0.020663962
0.024698326 -0.007526409 -0.20223157 0.11905863 0.03522965 -0.19929335 0.0007317759 -0.17097536
0.0927311 -0.11878447 0.12336231 0.033622235 0.14315686 0.24032786 -0.20985717 0.100122444
-0.0659347 0.034000594 0.034114216 0.023383593 0.085198194 0.072408795 -0.23763645 0.00021959869
-0.25546503 -0.22151007 0.055184472 -0.0625497 -0.035264686 -0.16075343 -0.15523295 0.039801396
-0.17469811 0.073494114 0.008760993 -0.067154385 0.019633448 0.029938709 -0.06178383 0.25053596
0.16181672 -0.13581283 0.010182374 -0.05962892 -0.05563727 0.08259584 -0.17893115 -0.16605501
-0.14907058 0.057947513 0.12309612 0.049947932 -0.031229144 0.027062861 0.107083246 0.19896474
0.0115537 0.14931753 0.2000474 0.0226941 0.2506187 -0.06632646 0.16701347 0.2631988
-0.078893885 0.1891043 0.20077546 -0.1480514 0.041995317 0.06463326 0.018634656 0.076998696
0.24094786 0.034691952 -0.19378965 0.10851007 0.19572589 -0.08529683 -0.14195466 0.0063599846
-0.16277419 -0.058673944 0.03524192 -0.15624852 0.09392135 0.09073853 -0.012065478 0.062412888
-0.12676616 -0.012357232 -0.09658411 -0.03921815 0.05274192 -0.108959 0.24852452 0.21359542
0.12701327 0.18313669 -0.05404246 0.094952516 0.23843394 -0.29033306 -0.114222705 0.035306577
0.13989449 0.2808264 0.014783928 0.3004999 0.12925786 0.116268404 0.09618806 0.23710038
0.056842465 0.06504478 0.031204224 -0.09737194 -0.15623854 0.07881289 0.06807251 0.117494404
0.18255332 -0.09015958 -0.15357693 0.06249155 -0.23647028 0.15268126 0.05782591 0.15855928
-0.16559687 -0.14297415 0.07066251 0.24069473 0.20577633 -0.18572453 0.011951043 -0.103815734
0.14132333 0.10144104 -0.055638786 0.21093667 -0.23284552 -0.08588141 0.00072577 -0.19857356
0.07153547 0.06494244 0.0758525 0.22029468 -0.1841798 -0.22860682 -0.15204257 -0.13555826
-0.17995858 0.08191147 0.1911517 -0.14405704 -0.07382985 0.093507215 0.039847016 -0.05047449
-0.08191235 -0.106024474 -0.012602761 0.03852764 0.11821275 0.3071439 -0.10897284 0.09927218
-0.07986997 -0.11960543 0.09757448 -0.11751765 0.09816115 -0.13073696 -0.11265135 0.22896084
00000000: 19c0 92be 97ec f8bd 87e7 26bd 3eab 583e
00000010: 1b7d 743d f7d3 9ebd 8f24 d73d cf45 1d3e
00000020: fd04 663e b6ab 15be 0c2c 41be c3ae 29bb
00000030: e463 1d3e 975d ec3c eade 80be c682 383c
00000040: d771 8dbe ef66 3cbe c30a 6e3d ac27 c7bd
00000050: 353c e7bd d656 a73d 9e42 c83d 8fd7 82be
00000060: ca23 043e 7404 953d 9149 61be ca8f 283e
00000070: fba6 683d 9f9d c53c 4dde bbbd d606 2dbe
00000080: 7042 223e 6a6b 7cbd 6fb8 d63d 0023 39be
00000090: dcae d2bd 2297 193d 8376 7ebb f6f8 2dbe
000000a0: 1ff4 1f3e b945 cfbd b336 393e ca5d 2ebd
000000b0: 0671 a53c ea0f 543e fd4f 00be b643 6d3d
000000c0: 304f 6c3e 0f32 f63d 3ddc 243e 4291 26bd
000000d0: aed9 5a3d bd03 77be fa18 6dbc 3cf3 f93c
000000e0: 2333 a5be b7fb 323e 70fa 98bd ad1d 4c3e
000000f0: 3c4b eabc 930b cb3d 0a3f 89be 70de 10bc
00000100: 1075 463e cc4b e33d d937 823d 9cb4 4f3e
00000110: edce 253e e74b 45be 132d 923d f7b1 473d
00000120: a7d0 4bbd 65bf be3d 75ce 0ebd eb30 733e
00000130: 84c8 d2bd 2449 2b3d 215a 23be 7847 a93c
00000140: 2554 ca3c 18a0 f6bb cb15 4fbe 03d5 f33d
00000150: f74c 103d 8e13 4cbe a6d4 3f3a 2a14 2fbe
00000160: cee9 bd3d 4645 f3bd 61a5 fc3d 78b7 093d
00000170: b697 123e 8218 763e cce4 56be ff0c cd3d
00000180: c608 87bd 3544 0b3d 59bb 0b3d f38e bf3c
00000190: 647c ae3d 104b 943d f856 73be 1344 6639
000001a0: 50cc 82be 89d3 62be 1d09 623d 0f1a 80bd
000001b0: b471 10bd 8c9c 24be 63f5 1ebe ca06 233d
000001c0: 10e4 32be 1584 963d 458a 0f3c 3d88 89bd
000001d0: 53d6 a03c 0642 f53c 0b11 7dbd 4046 803e
000001e0: 48b3 253e 8512 0bbe f9d3 263c 743d 74bd
000001f0: e8e3 63bd 0228 a93d ba39 37be 530a 2abe
00000200: f5a5 18be 5f5a 6d3d d219 fc3d 3496 4c3d
00000210: 43d4 ffbc efb2 dd3c 764e db3d 6abd 4b3e
00000220: bb4b 3d3c b2e6 183e 3ad9 4c3e fae8 b93c
00000230: 1851 803e 2bd6 87bd 9405 2b3e fec1 863e
00000240: 1e93 a1bd 8fa4 413e 1598 4d3e c99a 17be
00000250: 4803 2c3d 715e 843d b5a7 983c 7eb1 9d3d
00000260: 09bb 763e 2619 0e3d cb70 46be 873a de3d
00000270: 5e6c 483e 1bb0 aebd 905c 11be 6b67 d03b
00000280: 47ae 26be 1754 70bd d559 103d 9dff 1fbe
00000290: d659 c03d 1fd5 b93d 48ae 45bc a8a4 7f3d
000002a0: fdce 01be fd75 4abc e4cd c5bd 36a3 20bd
000002b0: e907 583d e525 dfbd 367d 7e3e c2b8 5a3e
000002c0: c40f 023e 2f88 3b3e a05b 5dbd 7776 c23d
000002d0: 0728 743e 89a6 94be 98ed e9bd a19d 103d
000002e0: 8040 0f3e 7ac8 8f3e 4a38 723c 1fdb 993e
000002f0: 2c5c 043e 211e ee3d 3ffe c43d 71ca 723e
00000300: a5d3 683d 3336 853d 00a0 ff3c f16a c7bd
00000310: fffc 1fbe a768 a13d 9a69 8b3d e8a0 f03d
00000320: 42ef 3a3e 96a5 b8bd 4543 1dbe 24f7 7f3d
00000330: 4425 72be 7a58 1c3e ddda 6c3d 5d5d 223e
00000340: 3a92 29be d167 12be 82b7 903d ae78 763e
00000350: 08b7 523e 922e 3ebe 4fce 433c 589d d4bd
00000360: 10b7 103e 52c0 cf3d 7fe5 63bd c8ff 573e
00000370: 0e6f 6ebe 98e2 afbd 9a41 3e3a de56 4bbe
00000380: 3081 923d 8b00 853d 8e58 9b3d ee94 613e
00000390: a199 3cbe e817 6abe 0cb1 1bbe c9cf 0abe
000003a0: 1047 38be 33c1 a73d 45bd 433e b083 13be
000003b0: 1b34 97bd b680 bf3d a036 233d 57be 4ebd
000003c0: aac1 a7bd 5c23 d9bd d07b 4ebc 29cf 1d3d
000003d0: 8719 f23d f741 9d3e 272d dfbd 364f cb3d
000003e0: de92 a3bd b1f3 f4bd 21d5 c73d 18ad f0bd
000003f0: b708 c93d e9df 05be c0b5 e6bd b674 6a3e

mlp.4.bias f4 [16]
-0.19773419 -0.061799243 -0.13445766 0.0078055584 -0.032354347 0.10195811 0.03491699 0.029839884
0.34463438 -0.08552021 0.0638912 0.03523973 -0.19722715 -0.2071902 -0.11345196 0.06937619
00000000: d57a 4abe 3421 7dbd 45af 09be c5c5 ff3b
00000010: fe85 04bd 6acf d03d 1e05 0f3d c672 f43c
00000020: eb73 b03e 3825 afbd 64d9 823d 8957 103d
00000030: eaf5 49be ab29 54be 8059 e8bd 1b15 8e3d

mlp.6.weight f4 [3, 16]
0.023784908 -0.12275779 -0.18396915 0.08296898 0.05985603 0.23833996 0.10708347 0.16222574
0.29633224 -0.057885427 0.13069494 0.2115742 0.08146858 0.07434875 -0.13724884 0.103985876
0.12268136 0.059152365 0.18512063 -0.12178732 0.09700367 0.17257586 0.019625835 -0.19265653
-0.22545803 -0.20878431 -0.23430468 0.13415259 -0.013996113 -0.024888547 -0.22893737 -0.10339849
-0.05796226 0.054695237 0.15395631 0.042721983 -0.086571254 0.13459529 -0.039831538 0.023073098
0.20230523 -0.23932104 0.027617235 -0.12143813 0.06509894 -0.00637099 -0.14216532 0.30569986
00000000: 91d8 c23c 7068 fbbd 6962 3cbe a4eb a93d
00000010: 992b 753d 640f 743e 944e db3d 811e 263e
00000020: dcb8 973e 4519 6dbd e5d4 053e e8a6 583e
00000030: 00d9 a63d 2844 983d f68a 0cbe 8cf6 d43d
00000040: 5d40 fb3d c049 723d 4390 3d3e a16b f9bd
00000050: dca9 c63d bab7 303e 5cc6 a03c c147 45be
00000060: 78de 66be 8ecb 55be 91ed 6fbe 4c5f 093e
00000070: f44f 65bc 11e3 cbbc 8f6e 6abe 96c2 d3bd
00000080: d669 6dbd 1d08 603d b9a6 1d3e 3ffd 2e3d
00000090: 454c b1bd 59d3 093e 6526 23bd cb03 bd3c
000000a0: 1a29 4f3e 9310 75be 8a3d e23c 8eb4 f8bd
000000b0: 9852 853d bdc3 d0bb c993 11be b184 9c3e

mlp.6.bias f4 [3]
0.3399063 -0.33529314 -0.20884258
00000000: 3308 ae3e 8bab abbe d4da 55be
