EUSIPCO/Sources Counting Mutual Coupling/saved_models/damusic_10.0dB.pth (torch, 199282 bytes, 34 tensors)

bn.weight f4 [16]
00000000: adf8 733f 9450 4e3f f343 2a3f 31bf 573f
00000010: e56c 5f3f 061f 6f3f d7f3 4a3f c0ae 933f
00000020: fe09 613f e227 3f3f 96b7 343f 763b 4d3f
00000030: f8e7 663f 0ae3 7a3f d217 663f cc43 633f
0.95301324 0.805917 0.6650993 0.8427611 0.87275535 0.93406713 0.7927832 1.1537704
0.8790587 0.7467023 0.7059263 0.80168855 0.90197706 0.98002684 0.89880097 0.88775325

bn.bias f4 [16]
00000000: 98af 3bbe 374b 0e3e 2739 6e3a 7800 ea3d
00000010: edcc a73d 5c27 72bd 86aa 1a3d a366 4dbe
00000020: bbfd ecbc fe54 87bd f474 07be c2a5 93be
00000030: 5a6a 6c3d 2a82 883d 7ed4 3c3d 76d6 3b3e
-0.18328702 0.1389588 0.0009087496 0.11425871 0.08193383 -0.059119567 0.03776028 -0.20058684
-0.028929582 -0.06608008 -0.13228208 -0.288374 0.057718612 0.06665452 0.046101086 0.18343529

bn.running_mean f4 [16]
00000000: 41bd a13a cbe2 cdba 79ab f73a 01b4 773b
00000010: 21b7 6eba 4db7 7b39 5d9f 80ba dbaa 4e39
00000020: 7c5a dcba a48f e1ba a7fa 05bb fe18 8539
00000030: 54a6 47bb aa27 84bb 9ece 51ba 20c7 7b3a
0.0012339727 -0.0015707848 0.0018895707 0.00377965 -0.0009106268 0.0002400551 -0.0009813119 0.0001970934
-0.0016811634 -0.0017208946 -0.002044359 0.00025386357 -0.003046413 -0.0040330486 -0.00080035056 0.0009604562

bn.running_var f4 [16]
00000000: 1399 563f 69ea 3b3f 18d2 773f d59f 423f
00000010: 92ac 4f3f 56b2 623f d713 203f c15a 603f
00000020: d481 543f 2b3b 3a3f 010e 753f 6e57 423f
00000030: 6c47 4d3f c2c9 5e3f a8b8 1f3f ca59 5f3f
0.8382732 0.73404557 0.9680495 0.76025134 0.81122696 0.8855337 0.62530273 0.8763848
0.830106 0.72746533 0.95724493 0.7591466 0.80187106 0.8702661 0.6239114 0.8724638

rnn.weight_ih_l0 f4 [48, 16]
00000000: 7b57 b3be 28a2 f23e f41e 0abf 3037 6e3e
00000010: d7a5 00bf f927 ed3e d429 823d f9c5 2abe
00000020: aea0 f7be 33e3 b93e e221 8a3d 4e6e 7ebd
00000030: 1f8a ccbe 0d67 a1be 7d38 9b3e 51f6 49be
00000040: acba bcbe 15a2 0a3f b89e 7abf 0c22 d3be
00000050: 0257 733d c63c 04be 9d72 c23e bb4e 133f
00000060: 9266 73be 3e24 bd3e d49d 063e f111 ad3e
00000070: 9854 923e 5fab dabe 5016 c7be 44c1 c93d
00000080: b01b 913f ebda e83e ff06 24be b84c 07bf
00000090: 371c 5d3f d9cb 96be 2608 a9bf d61e a7bd
000000a0: c4c1 27bf 1346 55bf 1547 d83f c8e5 30bf
000000b0: 0d39 e53d 7ccc 86bf 2da1 613e 40e8 bfbe
000000c0: f9ca 4cbf 3de0 fe3e 8316 4c3d 724e 70bf
000000d0: 1536 acbf eb3b 01bf 33d7 213f 2a7a 2a3f
000000e0: f32c ca3f 631c 20bf 2213 87bf ecf1 4b3f
000000f0: aa35 24bf 3a6c 403f 4029 fd3d 8801 b7bf
00000100: f4b7 9b3f f83e acbf f8eb a43f 3865 353e
00000110: 27fd 07c0 637d 9b3f b512 6d3f e8a1 48bf
00000120: 3361 e0bf bfac 6d3e ef35 3f3f 62b1 4ebe
00000130: 86e7 ca3d ab9a e03e b085 803f d923 51be
00000140: 0d0f 973f ea2d 2fbf 907c 463f 9869 92bf
00000150: d482 1fbf 029f 0740 8374 8bbf 4738 f33e
00000160: dc98 ab3d 84e5 993e faef c63e 1d40 c1be
00000170: 77d1 40be 1404 f53e b1f5 10be 1412 76bf
00000180: ebcc 5a3f 2297 8d3e 26a2 00bd 22bd 303f
00000190: 2562 a7bc 4a17 45bf 627b d2be 0fa4 3d3f
000001a0: 8258 3d3e 72af a5be 1bd7 bc3f 4bcc 18bf
000001b0: a96b 473d e67d b2bf a695 8e3c a01b b9bf
000001c0: c502 6a3f c29c 56bb c98c c2be babc 9f3f
000001d0: a05d 3fc0 1b20 9f3f d931 3fbf bcf4 bc3e
000001e0: 0d59 eb3d 08c7 5ebf 7ee5 9b3f be85 d43e
000001f0: e9f6 12bf aa36 953f ad4d 0a3e 5588 d1be
00000200: de6b 1b3f 873a 953e 3740 86bf 119a f03d
00000210: 7573 9e3e bc65 963d 0e44 52bf 35b5 6fbe
00000220: 2daf 8a3f 649d 76bf c419 8a3f 4f03 3a3f
00000230: 21b0 bdbf f799 a0bb 1fb3 14be f34d 49bf
00000240: 7f14 57bf 49f3 9dbf 3d92 c13e 5f9f 92bc
00000250: dfb7 303f eba3 67bf 5bf4 d93d 4def abbe
00000260: 0601 7bbf 2e95 883f d1c3 0abf 9978 803f
00000270: 5b31 05be d4ba b4bf 7188 8bbe a674 f23e
00000280: e0f6 933f 7f6d 77be dbea 9bbe 223e d53e
00000290: 23c6 10bf 88db e63e fd48 7a3b ba11 cebe
000002a0: cb59 fbbe f67f 29bf 552b 0a3f 09a8 a83e
000002b0: 18a2 033f 1227 543f 8a3c 033f 318c 19bf
000002c0: b835 363f 7c11 b6be eeb7 38bf 07e6 d83e
000002d0: f655 ffbe 6368 a33e 60c7 c43e a01e 67bf
000002e0: e89d 393f 6c9b 723f e30e d2be 0c22 9c3f
000002f0: 4768 57bf 9ed6 e3be 0f7f a43e 0199 a93d
00000300: 8e57 513f 0c1c 173f 1309 ccbf 238d 0b3f
00000310: 8bcd 3ebf 9b9d da3e 1d91 b13e 358f adbf
00000320: 479b 603e bd60 82be 8c12 d73e 9e61 fcbe
00000330: d55f 523f 23af bc3e 48cc adbe 71da 14bf
00000340: c62d 673f d745 9abd 6418 8abe c1a2 44bf
00000350: 7435 4bbf b21e 25bf c59d ed3e 1376 3e3f
00000360: 4f6f 543f 5140 55bf 6410 d33f 72b3 64bf
00000370: 44b2 10bf c1ac 6e3e c663 89be 514c b9bd
00000380: 7661 4abf 8772 903f a4b1 cebd 5ebd aebf
00000390: 776b b73f c50d 83bf 46fc 3a3e af22 793f
000003a0: eb9a cebe a9ff 983f 04d9 7b3e 2a0d 213e
000003b0: 7797 fe3e 988d acbe d3dd a73e a27d 2fbf
000003c0: 34b8 23bf 05e3 413e cbf8 8d3e 12cf 2d3f
000003d0: 8e86 103f a0af 3c3f 2ac5 e0bd 99fe 513f
000003e0: 18f9 8c3c 251e cb3e 1395 a63f bab9 ca3d
000003f0: c115 a3bf 30f9 ffbd 0c0a c83f 48e4 e13e
-0.3502768 0.4738934 -0.5395348 0.2326324 -0.5025305 0.4631956 0.06355634 -0.16677083
-0.48364776 0.36306152 0.06744744 -0.062116913 -0.39949128 -0.31523934 0.30316535 -0.19722869
-0.3686117 0.5415357 -0.97898436 -0.41236913 0.05940915 -0.12913808 0.37978068 0.5754201
-0.23769596 0.36941713 0.13146144 0.3380275 0.28580165 -0.4270887 -0.3888421 0.098513156
1.1336575 0.4547952 -0.16018294 -0.5285144 0.8637118 -0.29452398 -1.3205612 -0.08160178
-0.6553004 -0.8331005 1.6896693 -0.6910062 0.11192522 -1.0531154 0.2203414 -0.3748188
-0.7999721 0.49780455 0.049826156 -0.938697 -1.3454005 -0.5048205 0.6321899 0.6659266
1.5794967 -0.62543315 -1.0552714 0.7966602 -0.64144385 0.7516514 0.123613834 -1.4297342
1.2165513 -1.3456717 1.2884512 0.17714393 -2.1248262 1.214764 0.9260667 -0.7837205
-1.7529663 0.23210429 0.7469167 -0.20184854 0.09907441 0.43868002 1.0040798 -0.20423831
1.1801468 -0.68429434 0.7753382 -1.1438475 -0.62309 2.11908 -1.0894932 0.47503874
0.08378765 0.3005792 0.38854963 -0.37744227 -0.18829904 0.47854674 -0.14156224 -0.96121335
0.8546893 0.27654368 -0.031404637 0.69038594 -0.020432541 -0.7698866 -0.4110976 0.7407846
0.18490794 -0.32360417 1.4753145 -0.59686726 0.048686657 -1.3944671 0.017405342 -1.4461555
0.91410476 -0.0032747244 -0.37998036 1.247947 -2.9900894 1.2431673 -0.74685436 0.36905468
0.114915945 -0.8702245 1.217941 0.41508287 -0.57408005 1.1657307 0.13506193 -0.40924326
0.6071147 0.29146215 -1.0488347 0.11748136 0.30947462 0.07343623 -0.82135093 -0.23408969
1.083471 -0.9633391 1.0789113 0.726613 -1.4819375 -0.0049011665 -0.14521454 -0.78634566
-0.8401565 -1.233987 0.37806883 -0.01789826 0.69030565 -0.90484494 0.1064231 -0.3358101
-0.98048437 1.0670526 -0.5420504 1.0036803 -0.13007109 -1.4119515 -0.27252534 0.4735462
1.1559715 -0.24162863 -0.30452618 0.41648966 -0.5655233 0.45089364 0.0038190477 -0.402479
-0.49091944 -0.6621088 0.5397237 0.329407 0.5141921 0.82872117 0.5126425 -0.5997954
0.7117572 -0.35560215 -0.72155654 0.42362997 -0.4987027 0.31915578 0.3843336 -0.90281105
0.7250657 0.94768405 -0.41026983 1.219789 -0.8414349 -0.44499677 0.32128188 0.08281136
0.8177422 0.5902717 -1.5940269 0.5451223 -0.74532384 0.42698368 0.34681025 -1.3559328
0.21934234 -0.2546443 0.42006338 -0.49293226 0.8217748 0.3685237 -0.33944917 -0.58145815
0.9030422 -0.07532852 -0.26971734 -0.7681084 -0.7937844 -0.6449996 0.4640943 0.74398917
0.82982343 -0.83301264 1.6489377 -0.8933631 -0.5652201 0.23308088 -0.26833934 -0.09047759
-0.79054964 1.1284951 -0.10092476 -1.365154 1.4329671 -1.0238577 0.18260297 0.9731855
-0.40352568 1.1953021 0.24594504 0.15727678 0.49724934 -0.33701777 0.32786426 -0.68551075
-0.63952947 0.18934257 0.27728876 0.6789409 0.56455314 0.7370548 -0.10975106 0.8202911
0.01720862 0.39671436 1.3014244 0.09898706 -1.2741014 -0.124987006 1.5628066 0.44119477

rnn.weight_hh_l0 f4 [48, 16]
00000000: ee41 cc3c 0e40 3c3e 4c71 873e 7bb6 f23f
00000010: c112 943d f478 9cbe c2d9 a93f 0c58 41be
00000020: 7584 1ebf 3183 2d3e d398 d3be fcff 48be
00000030: 40fc bfbf 4c77 163f ee43 2cbf b8e5 acbf
00000040: 2926 953d a7e7 04c0 be77 cc3d be0a 5cbe
00000050: 2388 023f 2aff 2e40 d0ea a9be 276f 53bf
00000060: f635 0e40 cf27 13c0 82d9 5c3e 9390 19bd
00000070: 235e 28be df28 2640 b95c b03e 33bc 213f
00000080: 7bf1 50be 5495 473d 5249 1d3f b954 9c3f
00000090: 7232 833b f788 5cbe 1279 b33e 70c0 b63d
000000a0: 3e08 42be 4ffa 873e f9b1 1abe 1c1e 30bd
000000b0: 30af 683e 07ab b3bd 7f74 51be 05ae 78bf
000000c0: 1017 9cbe dc73 413f 305e 323e 4a18 9e3f
000000d0: 83eb 463d 7c54 0e3e f00c 9a3f c836 80be
000000e0: b948 f93e 73d7 9a3e 8e78 5d3e e416 43bf
000000f0: df0b 173f 3796 033f 861a 1abf e9ac 1ebf
00000100: 971e 1d3f de24 6abc af01 de3e 64ec cdbe
00000110: f2a2 a13e bb64 9f3f 7b5b aabd e50b 86bf
00000120: d987 0440 863c 9b3f ee47 09be 8a46 b63f
00000130: c142 78be c571 8fbe 6445 4ebf 236a 46bd
00000140: 394a 56bf 32f7 933e 41ae 213f 7934 203e
00000150: 0d61 4e3f 0cb4 ca3d a75e 1b3f d1ef 2ec0
00000160: 6652 ce3f 373b 7a3e 0ee9 763f 5237 763f
00000170: a93b 8abd cc44 49bf 407a da3e c98c 043e
00000180: 9c93 b2bf fbf5 003f d9ce 0abf a533 bb3f
00000190: fdc5 a4bd aa19 21be 782c 0040 eeb6 43bf
000001a0: e9d9 283d 6541 823e dd82 803e 1d63 e6bd
000001b0: d732 ebbc f029 61bd 2513 5b3e daf3 42be
000001c0: 0018 1cbf 4cc7 e5be 45be 133d 09d0 513e
000001d0: 43b3 ef3e 9066 393f f447 853e 83f2 093f
000001e0: ee21 debe 9a94 383e 9b44 fabe cb29 64bd
000001f0: 7f01 afbe 08b5 89bd 76ea 743f 7677 993e
00000200: f7fd 20be 672c 8f3e f361 8b3f e0e2 a9bd
00000210: 0d71 d63f f772 8f3f d10d 7dbd 8906 f2be
00000220: f35f 88bf fa87 d6bd 5693 8b3f 05d9 20be
00000230: 4ab7 55bf 4af1 27bf d598 873f 27c8 413e
00000240: 2804 8b3c 99fe 9ebe ce23 683e c2b3 963e
00000250: 1d49 7d3f c18c 093f a431 4b3c 7c4b b0bc
00000260: 5e78 913d b84b e3bf 2e03 923f 68c9 f0be
00000270: b066 b8be 0ea8 173e 6d89 bdbe c96e 263f
00000280: 5fd8 64bf 7753 233f 1ed1 1b3f c99e 223f
00000290: 890b 543f 4a22 72bf b9d9 903f a467 0f3f
000002a0: 6b51 53bf 98a6 08bf de92 acbf 3938 14bd
000002b0: ec14 a53c ddf5 a1be 6c60 17bf 3551 a3bc
000002c0: 35ba 7b3e 5a51 11bf dba8 603f 64ff 27bf
000002d0: 1857 443f 1f70 debe fc66 9abd b692 4bbe
000002e0: 0090 c23e 9d66 e1be 6930 eabe 4710 3d3f
000002f0: 9069 b53e 981d dfbd 6fa3 303f e342 e33e
00000300: c63e d2bf b652 0abd cf17 673f e8be 54be
00000310: 60f9 eabc 029c 273f f89b 0040 73a4 82be
00000320: 85ae 1d3e 700d ddbd 2baf f7bd 03af 65bf
00000330: 6804 623f e608 9cbe 4037 4fbe fc48 7f3f
00000340: e3c1 cebd 62d8 b4be d7c2 7fbf 2c79 373f
00000350: 0d53 a7bf 80b7 303f 8871 523e d2b4 06be
00000360: 121f d63f a192 983f 98bb 90be 03d8 be3e
00000370: 8eaa 7c3e 3afd 143f b6c2 24bf 97e1 9f3d
00000380: db3a 2cbf f16e 813e daf4 993f c763 f0bd
00000390: 32c5 e53d bd58 92be 9eb9 ac3f a2d5 76bf
000003a0: 1360 a73f 38ea 2c3e 0aa6 36bd 2574 81be
000003b0: 6579 893f 7762 6a3c 6cc6 5c3d 7a53 c1be
000003c0: bb98 98be 23d2 433d a6a7 ab3d 875f 833e
000003d0: a9a4 773e 536f 9abd 0f43 a43e 54fd 9cbe
000003e0: 22b6 89be 5298 89bf 07a3 cfbe 959e 803e
000003f0: 97f5 edbd 49a5 ea3e d5d9 a83e e77d 1b3f
0.024933781 0.1838381 0.26453626 1.8961939 0.072301395 -0.3056103 1.326958 -0.18881243
-0.61920863 0.16944577 -0.41327533 -0.196289 -1.4998856 0.5877578 -0.6729115 -1.3507605
0.07282669 -2.076639 0.099837765 -0.21488473 0.5098898 2.734324 -0.3318696 -0.8259148
2.2220435 -2.2993047 0.21567348 -0.037491392 -0.1644216 2.5962446 0.34445742 0.63177794
-0.20404617 0.048726395 0.6144 1.2213355 0.0040038163 -0.21536623 0.35053307 0.08923423
-0.18948457 0.26558158 -0.15106954 -0.042997465 0.22723079 -0.08772855 -0.20454596 -0.9714053
-0.30486345 0.7556741 0.17418742 1.2351162 0.048564445 0.13899416 1.2035198 -0.25041795
0.48688295 0.302425 0.21628019 -0.76206803 0.5900249 0.51401085 -0.6019672 -0.6198259
0.613748 -0.014291016 0.4336066 -0.40219414 0.3156963 1.2452615 -0.0831823 -1.047238
2.0707915 1.2127845 -0.13406345 1.4240277 -0.24244215 -0.28016487 -0.8057463 -0.048441064
-0.83707005 0.28899533 0.63156515 0.15645017 0.8061684 0.098976225 0.60691303 -2.7333872
1.6118896 0.24436651 0.96449363 0.9617816 -0.067496605 -0.786206 0.42671394 0.1294433
-1.3951297 0.50375336 -0.54221874 1.4625136 -0.08045576 -0.15732446 2.0027142 -0.76451004
0.04122344 0.25440517 0.2509984 -0.11249373 -0.028710766 -0.054971635 0.21394022 -0.19038334
-0.6097412 -0.44878614 0.036070127 0.20489515 0.46816453 0.7242212 0.26031458 0.5388567
-0.4338526 0.18025437 -0.48880467 -0.05570392 -0.3418083 -0.06723982 0.9567026 0.29973954
-0.1572188 0.27963564 1.0889267 -0.08295226 1.675325 1.120696 -0.061780754 -0.4727061
-1.0654281 -0.10475154 1.0904338 -0.15707786 -0.834828 -0.6560255 1.0593516 0.18924008
0.016969755 -0.31053618 0.22669908 0.2943402 0.98939687 0.537304 0.012401972 -0.021520369
0.07103036 -1.7757483 1.140722 -0.4702866 -0.36015844 0.14810202 -0.3701891 0.65012795
-0.89392656 0.6379923 0.6086596 0.63523537 0.828301 -0.9458357 1.1316444 0.5601752
-0.8254611 -0.533792 -1.348232 -0.03618643 0.020151578 -0.3163289 -0.59131503 -0.019936183
0.24582751 -0.5676476 0.87757653 -0.6562407 0.76695395 -0.43444917 -0.07539174 -0.19880185
0.38000488 -0.440236 -0.4574006 0.7385296 0.354321 -0.108943164 0.6899938 0.44386968
-1.6425407 -0.033770286 0.90270704 -0.2077595 -0.028683364 0.65472424 2.0095196 -0.2551609
0.15398605 -0.107935786 -0.120939575 -0.8972017 0.88287973 -0.3047554 -0.2023592 0.9972074
-0.10095575 -0.35321337 -0.99906677 0.7166927 -1.307222 0.6903 0.20551121 -0.13154915
1.6728232 1.1919748 -0.28268123 0.3727418 0.24674436 0.58198893 -0.64359605 0.078067
-0.67277306 0.25279954 1.2027848 -0.11737781 0.11219253 -0.28583327 1.3494146 -0.9641973
1.3076195 0.16886222 -0.04459194 -0.25283924 1.0740172 0.014305702 0.053900167 -0.37759
-0.29804024 0.047807824 0.08381586 0.2565882 0.24183907 -0.07540765 0.32082412 -0.30662024
-0.2689677 -1.074961 -0.40554067 0.25120988 -0.11619108 0.45829228 0.32978693 0.60738987

rnn.bias_ih_l0 f4 [48]
00000000: 1f5d 11bf 18d7 54be 3efd 163e bffc 20bf
00000010: c8e8 91be 950a 27bf b85a 57bf b2c9 8dbd
00000020: 8aa2 2cbf 2f24 1dbf 6e2d 683d 2c93 e5bd
00000030: 012b d2be 5d17 f13c eda5 02bf 21fc 3bbe
00000040: 11b6 d13f d762 853f 9687 db3f 0cb9 923f
00000050: 228f 883f c3ce a43f 2727 853f 0fcf 8b3f
00000060: 47f1 b63f 5173 ce3f 93ff ae3f 20f1 0540
00000070: 1947 933f 1dec c13f 2f57 963f e2dc a93f
00000080: 1bb8 bcbe d531 f8be dabd 00bf 8ceb e83e
00000090: 3ed5 42be 2c7c b73e cdc8 073f e95d e03c
000000a0: d532 dd3e 6407 c4be 5fe3 2fbf cdc9 11be
000000b0: f89d 0a3f 7ef3 e23e c263 f2be eff6 a4be
-0.56782717 -0.20785177 0.14745042 -0.6288566 -0.2849791 -0.6525052 -0.841228 -0.06923236
-0.67435515 -0.61383337 0.05668395 -0.112097114 -0.41048434 0.029430086 -0.5103443 -0.18357898
1.6383687 1.0420789 1.7150753 1.1462722 1.0668681 1.2875599 1.0402573 1.0922564
1.4292382 1.6128942 1.3671745 2.092842 1.1506072 1.5150181 1.1745356 1.3270533
-0.3685921 -0.4847552 -0.5028969 0.45492208 -0.19026658 0.35836923 0.5304077 0.02738853
0.43202844 -0.3828689 -0.68706316 -0.14237137 0.5414729 0.44326395 -0.47341734 -0.32219645

rnn.bias_hh_l0 f4 [48]
00000000: 74af 14bf 6352 f4be abff 303d 92df 27bf
00000010: faea 793d 3bfc f8be 2efd 70bf fde6 22bd
00000020: cf74 55bf 366a 27bf 58a4 b83e cef5 e1be
00000030: 56a1 0dbf 220f 00ba 30d0 19be 773b 4bbe
00000040: 3686 fe3f 2eaa 8c3f 1f6d a03f 8513 a13f
00000050: 9fc1 893f f013 b83f 24ba 873f b2df a13f
00000060: 5a62 9f3f cf53 c63f e17f b23f b56d 0240
00000070: a3d0 a53f 35ce 9f3f d60e a13f 20d4 903f
00000080: d110 883d 42c9 b4be 71fb 35be ea92 aabe
00000090: 41a7 a0be 179b 81bd 8013 fdbd 146d 1e3f
000000a0: d898 85be 0edf 0bbe 2ef8 24be 25ee 373b
000000b0: 1cc2 f1bd 5292 c43e c910 9ebd 04fd 6dbe
-0.5808022 -0.47719106 0.043212574 -0.65575516 0.061015107 -0.48629937 -0.9413632 -0.03977107
-0.8338136 -0.6539644 0.36062884 -0.44132847 -0.55324304 -0.00048850675 -0.15020823 -0.19846903
1.9884708 1.0989435 1.2533301 1.2584082 1.0762213 1.4381084 1.0603681 1.2646391
1.245189 1.5494326 1.3945276 2.037946 1.2954296 1.2484804 1.2582653 1.1314735
0.066438325 -0.35309798 -0.17771699 -0.33315212 -0.31377605 -0.06328409 -0.12357235 0.6188519
-0.26093173 -0.13659307 -0.16110298 0.002806553 -0.118046016 0.38392884 -0.07718045 -0.23241049

fc.weight f4 [128, 16]
00000000: 3faa 7fbf 9cbe 853e 3aae 31bf 97c0 fa3e
00000010: e454 cf3e fefe fcbe d83e 1e3f 512c 04bd
00000020: 28a8 9cbe 9564 793e 018b 10be 8f8a f03d
00000030: 1cd6 c03d e836 09bf 3507 353d 99f5 fcbc
00000040: 8950 cabe 2d04 71bf 768a 213e 1931 32be
00000050: abcd 8bbe b9c8 fb3e 956e 1f3f e00d 02bf
00000060: 5b68 733f 82d4 b6be da7b dc3e 79ee f5be
00000070: 65f5 a23e bc92 833d 98f0 24bf a824 90bd
00000080: 57e3 babe 2193 2fbe c6c6 4b3f 49c0 d5bd
00000090: 9de5 073e f457 413f 2400 a53e 590d 6cbe
000000a0: 03b5 253f e153 e83d 8321 343f 3bf2 63bf
000000b0: 6aee ba3e 6a12 c9bc 4eca e33d e96a b33d
000000c0: 519a 613f fd43 f43c 9836 e73b e158 3a3e
000000d0: a3e7 8abf 71a0 32be f868 3dbe 871f 413e
000000e0: 6898 843e 486a 753e 390f 54be 1bb4 203f
000000f0: 1e54 02bf a5ad 90bc 128a f63d 3dbe d5be
00000100: da8f d13c a07a 6cbe 1ef6 d7ba 4e72 f83c
00000110: f633 11bf 270f 12bf 359f 4b3e fa8d 043f
00000120: 85b2 233e cb3c 68be e7d7 6ebf 360d 123f
00000130: 9a29 393f fbe7 bb3e 3e9e fdbe 65d0 85be
00000140: 4490 52bf 3fd9 003d 76ba dcbe 97e7 433f
00000150: f505 3cbc ba9c 2a3c 4afb 003f 46cc f5bd
00000160: 28a5 1bbd 6115 03bf c071 ad3c ef68 7abe
00000170: a277 913e f2a9 05bd 4d63 e4bc 6a58 4ebe
00000180: ab44 0bbe 7268 23be 3fe7 b93f 030f 82be
00000190: 8769 4d3f 0a3d f53d d91a b93e 68c1 3abf
000001a0: ede8 aa3e 5ecf 12bf e7c5 8b3e 5081 e0be
000001b0: b5c1 c9bc d152 e0bd 64aa ac3e 98ed 233f
000001c0: a7be 2ebd c162 233e 54bf 463b 7a56 a83e
000001d0: c7c3 de3e 6007 073e b5b8 e93d 1d96 34bd
000001e0: 0854 713d d2a0 35be 648f 4abd ed29 87be
000001f0: 50c2 39bf cb94 39bc 966e b3bd a1ee 7b3d
00000200: cf1b 84bd 1b42 5e3f aa8b 0f3e 9ecc 4f3e
00000210: 5421 cebe aa43 dcbe 23d0 ef3e 9209 b3be
00000220: 5990 42be 0177 2a3e 8d2b 45bf 24d6 003e
00000230: 7b11 b73e b68a 07bf 3298 de3e d557 e2be
00000240: 688a b8be 2907 453f 65cd 1a3f 6261 633e
00000250: 2e9f 0b3f 3d4c 113e 7ac2 c63e 72f8 e3be
00000260: 918d 22be f9f4 333e 88b3 393e a510 26be
00000270: 5bcd 053f 219e 81be c7a7 b03d 2a6e b3bd
00000280: d441 043f f083 5cbe 749f ea3e 6107 22be
00000290: 7deb f6be 145d a7be a59c 603e 2b2f fb3e
000002a0: 442b 7abd d65e b4bd 747b cbbe 9490 9fbe
000002b0: 09fa 26bf f68c ee3e 7f36 36bc 4be7 323e
000002c0: 9426 8b3e fbdb efbe cbc3 19bf 2a6f e03d
000002d0: 39b3 d93b 0c19 42be 4e4d 593e 6638 bb3e
000002e0: 6ba6 b8be e133 d5bd e2f1 e6bb ade5 c53b
000002f0: 09b8 4bbd a1fb e53e f8e2 8d3e 61de 9fbe
00000300: 67c6 c3bf 9b02 e53e 3f1d f0bc 4a48 bd3f
00000310: 3982 e93e a80e 8abe 98f7 6e3f 7269 d3be
00000320: 91e1 ec3e 4508 313e ea24 113e 1d2f e0be
00000330: e946 d9be 1394 8cbe a6dd 493d e187 86bf
00000340: 0c03 893d b1ed a23e 18d8 14bf fcf0 72be
00000350: ea5c 4f3e e761 10bf 51c2 dabe badb d33e
00000360: 88e4 62bf 2b26 6a3e aec1 a1bc b72c 7fbd
00000370: ca9e 9bbe d166 003e 2f6c 2abe fba8 b43e
00000380: fc24 143f c4d5 1ebe 1871 b4be 3881 1cbe
00000390: 4d0c 69be bdaa e9bd ccb8 90be fc20 12be
000003a0: 9ffa 97bd 7749 9cbb 7100 19be 81ab 773f
000003b0: ce21 873e 7407 b5be 5463 2f3e b0db 0dbe
000003c0: 2d6a a0be 11dc 453d 3262 5abd 3b60 373d
000003d0: 1e9e edbd 3e0b 2dbf 57b2 2b3f ea02 93be
000003e0: 4d91 ac3e ddde 0cbc 7657 99bf a0cf 833c
000003f0: 3878 0c3f badd 373e 066c 9abf 0cb7 61bf
-0.9986915 0.26121986 -0.69406474 0.4897506 0.40494454 -0.49413294 0.6181464 -0.032268826
-0.30597043 0.24354775 -0.14115526 0.11745178 0.09415838 -0.53599405 0.044196326 -0.030878829
-0.39514568 -0.94146997 0.15775475 -0.17401542 -0.2730535 0.49176577 0.6227811 -0.5080242
0.9508111 -0.35709006 0.4306324 -0.48033503 0.31827846 0.06424472 -0.64429617 -0.070382416
-0.36501572 -0.17145969 0.7960018 -0.10437066 0.13271184 0.7552483 0.3222667 -0.23051967
0.64729327 0.11344124 0.70363635 -0.8904149 0.3651002 -0.024544913 0.11122571 0.08760626
0.88126093 0.029817576 0.0070560686 0.18197967 -1.085194 -0.17444016 -0.18497074 0.18859683
0.25897527 0.23966324 -0.20708932 0.6277482 -0.509096 -0.017660925 0.120380536 -0.41746703
0.02558129 -0.23093653 -0.0016476547 0.030327942 -0.5671991 -0.5705437 0.19884951 0.5177914
0.15986069 -0.2267944 -0.9329819 0.5705141 0.72329104 0.36700425 -0.49534792 -0.26135555
-0.8225138 0.031457182 -0.43111008 0.76525253 -0.01147603 0.010413343 0.50383437 -0.12001853
-0.037999302 -0.51204497 0.021172404 -0.24454091 0.28411585 -0.032632776 -0.027879382 -0.20150915
-0.13600414 -0.15957811 1.4523696 -0.25402078 0.80239147 0.11974533 0.36153296 -0.72951365
0.33380833 -0.5734767 0.27299425 -0.43848658 -0.0246285 -0.10953296 0.33723748 0.64034414
-0.04266229 0.1595564 0.0030326443 0.32878476 0.4350874 0.13186407 0.11412183 -0.04408847
0.05891803 -0.1773713 -0.049453154 -0.26399174 -0.7256212 -0.011326979 -0.08761327 0.06150687
-0.064506166 0.8681962 0.14018121 0.20292899 -0.40259802 -0.43020374 0.46838483 -0.3496824
-0.19000377 0.16646959 -0.7701958 0.12581688 0.35755524 -0.5294603 0.4347549 -0.44207636
-0.36043096 0.7696405 0.6046966 0.22205117 0.54539764 0.14189239 0.3882025 -0.44525486
-0.15874316 0.17573918 0.18134892 -0.16217287 0.5226647 -0.25315955 0.08625751 -0.087612465
0.51662946 -0.21534705 0.45824778 -0.15823127 -0.48226538 -0.326882 0.21934755 0.49059424
-0.061076418 -0.08807151 -0.39742625 -0.31164992 -0.65225273 0.4659192 -0.011121391 0.17471044
0.2717787 -0.4684752 -0.6006438 0.10958703 0.0066436795 -0.18954867 0.21220896 0.36566466
-0.36064467 -0.10410286 -0.0070478776 0.0060393424 -0.049736056 0.4491854 0.27712226 -0.3122435
-1.5294923 0.4472855 -0.02931082 1.4787686 0.45607165 -0.26964307 0.9334655 -0.41291386
0.46265844 0.17288311 0.14174238 -0.43785945 -0.42436913 -0.27456722 0.049283646 -1.0510217
0.06690034 0.3182197 -0.5814223 -0.2372474 0.20250288 -0.5639939 -0.42726377 0.41378576
-0.8862996 0.22866122 -0.019745674 -0.062298503 -0.30394584 0.12539221 -0.16642831 0.35285172
0.57868934 -0.15511233 -0.35242534 -0.15283668 -0.22758599 -0.11409519 -0.2826599 -0.14270395
-0.07420849 -0.0047695 -0.14941575 0.9674607 0.26392978 -0.3535725 0.17127734 -0.13853335
-0.31331006 0.048305575 -0.053316303 0.044769507 -0.11602424 -0.6759528 0.67069 -0.2871316
0.33704606 -0.008598057 -1.1979816 0.016090214 0.5487094 0.17955676 -1.2064216 -0.8816993

fc.bias f4 [128]
00000000: 4056 703e b531 a0be 7ffb 18bf 3bae ce3e
00000010: 3d7e 1d3e c224 843c ffef 88be 0a21 153d
00000020: a8f7 a1be 7a44 0fbf 27cf 143f 2ff7 40bd
00000030: 8346 46bf d269 b33e 3cb5 913e e153 0d3f
00000040: 9349 0f3f 502e ebbd 76b0 77be 5afb 773d
00000050: 250e 08be 4e00 75bd 4853 7a3d b67a 193e
00000060: b302 9f3d d8ea 63be 6615 903e 980f 773f
00000070: e018 5d3e bf62 83be 9b2e 283f b115 0cbf
00000080: 5405 733d ce7f 6e3d 46f7 a1be 280a 643d
00000090: ee9c 173e 5540 6c3e 6ae8 0f3e 0563 6b3d
000000a0: 0959 243f cadd 4bbf e1d5 7e3e 0192 e3be
000000b0: 2d47 82bf 5466 05bf a3bd 66bf bb78 1bbf
000000c0: 7f30 8ebe 4d9c 143e ae4e 293e 927b f73e
000000d0: 63a0 0b3e 244a dfbe eafa 0fbf 88a4 983e
000000e0: 3744 7ebe d148 a8be 6f50 6a3e 8bfd 883e
000000f0: a178 d63e 1bf7 3ebf 633d c0be 5bb3 c53e
00000100: d147 59be d371 78bf 3e03 a33c ce19 8e3f
00000110: 3a29 71bf cb2b 793a 4aa4 a73e 3a33 473f
00000120: 96ee b83e 0c53 00bb 2b6c cebe 1cf7 1bbf
00000130: d3ec dfbe 2336 41bf a0a1 863e 704d 2a3d
00000140: 198b c9be 2524 f2be d9a8 24bf 9949 e7be
00000150: 81bf c9be ac80 593f 127b d6be 685e 503d
00000160: b86c 45bd d7cc ce3d aa5b 163d 6429 dabc
00000170: 3ee0 843e 6ddb a3be a59c 45be 230c b83e
00000180: 743c 07bf f7f0 f3bd 1cf0 a33e 4fab 84be
00000190: f223 413f 290f 73bf 5622 b63e 2c2b 12be
000001a0: dc0d 213f ca16 0e3f 1ed7 0b3f 1394 f9be
000001b0: 148b 0fbb e82c adbe f934 383f d945 60be
000001c0: 41c4 90bf 3112 e63e 3f4e 54be 3971 4b3e
000001d0: c17e 1bbf cbb2 f03d c69a 8a3e 7c95 ebbe
000001e0: 9106 523e 5881 bebd c273 00be 66a7 2bbf
000001f0: fc2d 893f 1d64 d73e 3a65 393e 05ea 253f
0.23470402 -0.31287923 -0.5975875 0.40367302 0.15380187 0.016130809 -0.26745602 0.03640846
-0.3163426 -0.5596386 0.5812859 -0.047110733 -0.7745134 0.35041672 0.28458583 0.55206114
0.5597164 -0.11483443 -0.24188408 0.060542442 -0.13286646 -0.059814744 0.06111458 0.14988217
0.07764187 -0.22257555 0.28141326 0.9650817 0.2159152 -0.25661275 0.65696114 -0.547206
0.059331253 0.058227353 -0.31633967 0.05567375 0.14805958 0.23071416 0.14053503 0.05746748
0.64198357 -0.796353 0.24886276 -0.4444733 -1.0177971 -0.52109265 -0.9013311 -0.60731095
-0.27771375 0.14512749 0.1653392 0.48336464 0.13635401 -0.43611252 -0.5624224 0.29813027
-0.2483071 -0.32868055 0.22882245 0.26755938 0.41888908 -0.74595803 -0.37546834 0.386134
-0.21218802 -0.9704868 0.019899007 1.1101625 -0.9420353 0.0009505122 0.3274253 0.7781254
0.36119527 -0.001958075 -0.403169 -0.60923934 -0.4373537 -0.7547323 0.26295185 0.041577756
-0.39363936 -0.472932 -0.6432014 -0.45173338 -0.39403918 0.8496196 -0.4189077 0.050871283
-0.048199385 0.10097664 0.03670851 -0.026631065 0.25952333 -0.32003346 -0.19298036 0.3594676
-0.5282662 -0.11911195 0.32019126 -0.25911948 0.75445473 -0.9494501 0.3557307 -0.14274281
0.6291177 0.55503523 0.5462512 -0.48745784 -0.0021902965 -0.33823323 0.7195583 -0.21901645
-1.1309892 0.44935754 -0.20732974 0.1986741 -0.60740286 0.11752852 0.27071208 -0.46012485
0.20510317 -0.09302014 -0.12544158 -0.67052305 1.0717158 0.42068568 0.18105021 0.6481021

mlp_selection.0.weight f4 [16, 16]
00000000: 7fdd 9e3e 42ed 44bb 0f79 67be 84a9 f63c
00000010: 899c 923e 23ee 46be 9139 203f 14fc e7be
00000020: 2467 1f3f f515 80be 5801 58bd f423 8ebf
00000030: 5dcc 4d3e 0677 2e3e 5d11 a23e 2bd1 9abd
00000040: 8b69 85bf 964b 9bbf 95f6 e43e 775e 543e
00000050: cd16 a4bd efee 02be 2314 a53e 6fde f23e
00000060: 9b31 8fbe 2a86 1dbf 2340 8c3e d139 923e
00000070: b05b cd3d 4715 28be 6e36 103e f384 13be
00000080: 86b6 9d3f 7ba9 783e 92da 73bf bb56 7cbe
00000090: bbee 6e3e a503 e6be 2ccb ef3e 7411 083f
000000a0: d394 eabd b3df a6be b5a8 f03e d84b 043f
000000b0: 5d45 2fbf efd5 f03e a6c3 963d 6db7 0abf
000000c0: 3621 0e3c 0657 c43e 3768 c8bc f07c c83c
000000d0: e701 c6be ac59 e5be d05e 063f 53fe 9a3d
000000e0: 2000 40bc 6132 4cbe efdf 90be c4d4 dbbe
000000f0: 8350 d13c f8cd 00bd 5a53 e33e b437 f9ba
00000100: c258 973e 8fed 323e 2ea8 3d3f 6c1f 39bf
00000110: d19e 1abe e612 7cbe 2016 5cbe 2c43 003f
00000120: ab35 c8bd 3039 ff3e 0b68 55be 62d9 bd3f
00000130: 342a d53d a404 4d3d fdba be3e 7099 12bf
00000140: 48bb 78bf 73ba d43e f293 b13e da35 fc3e
00000150: 81ab 89be 3590 cf3e 4054 20bf 0f36 f7be
00000160: 974d 223e 445b b63d 31f2 663b 84a0 48be
00000170: 2af2 f6be e88a 4cbf 553c 803f 1af5 b23d
00000180: 6c40 5c3f 8b1a ffbb 5c19 3dbd da76 8e3e
00000190: 2532 7ebd a056 66be 44a8 04be 33f0 d13d
000001a0: b2ba 2c3e e715 3a3f 06f2 09bf dab6 463d
000001b0: 4830 1abf 1158 09be 81b4 5f3f a48e 9bbe
000001c0: b52b e33e 8e78 1e3e ad34 08bf 9dbe 0f3e
000001d0: e21c babe 8144 973e 9e64 0f3f 1cd1 88be
000001e0: 00f8 b4bf f43a dc3e 46b0 dcbd f2be e83d
000001f0: af42 ccbd 7514 ac3e 64c0 893e 4305 30be
00000200: 60b4 70be 9c3d 213f e07c 05bf 9237 cf3b
00000210: 4121 a83d aba5 d13d 2027 9d3e 0c8a 153f
00000220: b64b 75bd 3282 fabd 7c67 813f d134 a6be
00000230: 4a0b 3d3f bd45 4dbd 9faf 55bd f4ad adbe
00000240: 3584 16bf df5e 35bf 79cd ce3d 19e9 d9bd
00000250: 6aac 763e 13d4 0fbe 0754 1b3e 399e 9c3d
00000260: cb71 08bb c0cd 483e 00d7 35be 076e 5d3f
00000270: 5200 0e3e f8cd 71bd fc78 82bf 156a ab3e
00000280: b2ae ebbd c7b8 2a3f c402 40bf a5ed b0be
00000290: f4e6 13be b26b 1cbe 8b6e b93e 14a7 043f
000002a0: b4e6 753e 77e7 e23e d1c0 153f 9f4c 0b3f
000002b0: 2d6f 97be b623 23bf 977c 423e f3ba debe
000002c0: 33e1 a0bf 2f8e ea3e ca43 d53e 3b5a 983e
000002d0: 9673 90be b438 dbbe f972 273e be1b fc3d
000002e0: 6bf4 c1bd 9210 a43e e72e 1b3e 17f4 783e
000002f0: a608 afbe 616f 863f c7fc 09bf cd94 12be
00000300: 2af4 6e3f 793d e63d 1650 4cbe 7f26 163f
00000310: 73af 903d f5ee 9e3e 1a06 15bf 2e17 3fbf
00000320: 1438 49bf 3c44 2dbf 9bdf 8e3e efa0 9b3f
00000330: 1692 2cbf 580c dcbe 1bc0 8e3e ec09 6dbe
00000340: e421 293f 6d21 de3e b4bc b03e b114 353e
00000350: b4a9 f0bd 56ff dcbe e80b 1c3d d52e ec3e
00000360: cbe8 36bf b017 0ebf f2ff 213e fe9c ea3e
00000370: 49a7 203f a2bb 8bbe f216 253d 6ae1 92be
00000380: f9ea 08bf b021 d73c 3f1f 84be af44 cabe
00000390: 3244 83be 7c9e f63e 5044 0b3f 659d 083f
000003a0: a263 1fbf d974 8c3e 67be 013f 714f 2e3f
000003b0: 72f0 57bd 0278 74be de87 bbbe 8dbc 0fbe
000003c0: c354 35be 6735 a3be d73a bbbe 339d d53d
000003d0: 4cbf 153d ef8d d93d 4654 0ebc 1dcc e33d
000003e0: 27bc 1cbe 9660 7f3c 517d 723e c5e9 4b3e
000003f0: e1dd 073e dbd1 893e fec0 79bf 0bdc a43e
0.31028363 -0.0030048643 -0.22604774 0.030110128 0.28635052 -0.1942678 0.6258784 -0.45309508
0.62266755 -0.25016752 -0.052735656 -1.1104722 0.2009749 0.17037591 0.31653872 -0.07559427
-1.0422834 -1.2132442 0.44719377 0.2073916 -0.080121614 -0.12786458 0.32241926 0.47435328
-0.27967533 -0.61532843 0.27392682 0.28559735 0.10027254 -0.16414367 0.14083263 -0.14406185
1.2321327 0.24283402 -0.95255387 -0.2464246 0.23333256 -0.44924656 0.46834695 0.5315163
-0.11454167 -0.32592544 0.47003713 0.5167823 -0.68465215 0.47038218 0.07361536 -0.54186136
0.00867491 0.38347644 -0.024463756 0.024473637 -0.38673326 -0.44794977 0.5248842 0.0756804
-0.01171878 -0.19941093 -0.28295848 -0.42935765 0.025551086 -0.031446427 0.4439953 -0.0019013793
0.29559904 0.17473434 0.74084747 -0.7231357 -0.15099646 -0.24616584 -0.21492815 0.50102496
-0.09775861 0.49848318 -0.2084047 1.4831965 0.1040844 0.050053254 0.37252036 -0.5726538
-0.9716077 0.415485 0.34683186 0.49259835 -0.2688866 0.4053971 -0.62628555 -0.4828343
0.1584991 0.08904126 0.0035239572 -0.19592482 -0.48231632 -0.79899454 1.0018412 0.08738156
0.860358 -0.0077851466 -0.046166763 0.27825052 -0.06205954 -0.22493982 -0.12954813 0.102508925
0.16868094 0.7268967 -0.53884923 0.048514225 -0.6022992 -0.13412501 0.873848 -0.30382264
0.44369283 0.15475675 -0.53205377 0.14037557 -0.3635016 0.29544452 0.56012905 -0.26722038
-1.4138184 0.43013728 -0.10775809 0.11364545 -0.099736564 0.33609357 0.26904595 -0.17189507
-0.23506308 0.62984633 -0.5214367 0.006323763 0.08209468 0.10236677 0.30693913 0.5841377
-0.059886657 -0.12231864 1.0109706 -0.3246217 0.7384535 -0.050115336 -0.05216944 -0.33921778
-0.5879548 -0.70847887 0.100977845 -0.10640163 0.24089208 -0.14045744 0.15168773 0.07647366
-0.002081978 0.19609737 -0.17757797 0.86496013 0.1386731 -0.059034318 -1.0193172 0.33479372
-0.1150793 0.666882 -0.7500422 -0.34556308 -0.1444357 -0.15275458 0.3621715 0.5181744
0.24013788 0.4431722 0.5849734 0.5441379 -0.29577008 -0.63726366 0.1899284 -0.43502006
-1.2568725 0.45811602 0.4165328 0.2975634 -0.28213185 -0.428167 0.16352452 0.12309979
-0.09470447 0.32043892 0.1515461 0.24311863 -0.34186286 1.050274 -0.5390133 -0.14314575
0.93341315 0.11242194 -0.19952425 0.5865249 0.07064714 0.31041685 -0.58212435 -0.74644744
-0.78601193 -0.6768224 0.27904972 1.2158488 -0.6741041 -0.42978168 0.2788094 -0.23148316
0.6606734 0.43384877 0.3451897 0.17683674 -0.11751118 -0.43163556 0.038097292 0.4612948
-0.71448964 -0.55504894 0.15820292 0.458229 0.62755257 -0.2729159 0.040305085 -0.28687602
-0.5348354 0.02626118 -0.2580509 -0.39505526 -0.25637966 0.4816779 0.5440111 0.53365165
-0.622614 0.27432898 0.50681156 0.6808997 -0.05271954 -0.23873904 -0.36627096 -0.1403677
-0.17708115 -0.3187668 -0.3656833 0.10430374 0.036559388 0.10622775 -0.008687085 0.11122916
-0.1530615 0.015586993 0.23680617 0.19913395 0.13268234 0.2691792 -0.9756011 0.3219913

mlp_selection.0.bias f4 [16]
00000000: bd9a 94be 8eac 96be 1d0c 8dbe a834 48be
00000010: 5e64 933b 602c a83b b515 35bc 1e3a 243d
00000020: e5d7 50bf 8045 01bf 9c49 cd3c 5d47 e93d
00000030: 2968 093f 01d2 bb3d 2f09 79bf 54ff 6fbf
-0.29024306 -0.29428524 -0.27548304 -0.19551337 0.0044980487 0.005132243 -0.011052539 0.040094487
-0.8157943 -0.50496674 0.025059514 0.113905646 0.5367456 0.091709144 -0.9727964 -0.93748975

mlp_selection.2.weight f4 [16, 16]
00000000: 5377 66bf 8fed 0e3e ba31 a9be e28e 6cbe
00000010: 8da1 76be 5449 9ebe a3a1 c0be a32d a1be
00000020: cf07 013f bd4e 043e 8736 083e 307a 9ebf
00000030: 49a5 b1be 4630 30be 292c b23d 967d cb3d
00000040: 8ac9 5eb4 e653 82b2 902c 95b3 1624 8c32
00000050: f4a1 edb2 8761 4fb3 5b63 6cb3 f32e 54b3
00000060: 40eb 01b4 e961 63b4 41f0 41b2 a034 f1b2
00000070: ed7d 4831 236f 16b3 a98b f1b2 c8a5 33b4
00000080: ad5e 18bf 849c a1bd 6db1 73bd e391 ff3d
00000090: 84e3 ee3e 1491 94bd 6c7c 5c3e 8d13 d53d
000000a0: 1ea0 2dbe 64ee 87bf e9aa 0a3f 14e7 0a3f
000000b0: 3345 203f 26cd 923e 0007 063d b95e 79bf
000000c0: 8e87 29bf 2529 91be bd60 c6be aec7 f7bd
000000d0: 82da 263f 370a 1cbe e86a 663d e81c 19bf
000000e0: 7658 a1be 7d14 123e f256 8ebe 94f0 4abf
000000f0: 8c88 cbbe 0c2e 99bf e450 103e d08a 0abf
00000100: 3537 15be 20bb 03be e9dc 8e3e 95c2 cd3d
00000110: dfb1 8d3e aec6 3cbe ff61 3c3e dbfc af3e
00000120: 72d0 a43e 2cc5 f2be b69b 66be 263b ad3e
00000130: adf1 913c 934e 083f fa9f 8bbf d963 84be
00000140: 015a 6cb1 ec2e 57b0 53e1 a2af d258 71b1
00000150: 9d48 86b0 70ad 68b0 2129 0ab1 4e38 88b1
00000160: 9756 8fb0 cf71 e62c ef19 a32f 41c3 83b1
00000170: f0e3 07b0 568d 46b1 8038 99af 9b36 9fb0
00000180: dfa0 f5af 94b9 98af 031a d0b0 8c56 7cb1
00000190: e6e8 58b1 7844 c0af 293b 6cb1 944f a0b1
000001a0: cd33 98b0 7069 e6af 51f1 fcb0 fc99 81b1
000001b0: 9579 9aaf ab1d 592f de02 43b1 801e 15b0
000001c0: 0b7a 94be 6758 bf3e 2724 aebf a918 92bf
000001d0: 3d6a 753e 4e04 4cbf a5c5 07bf 67cf a3be
000001e0: 96ce 983e 896c d63d 19e5 0abf b7e3 78bd
000001f0: 5220 d7be 2bf9 0abe dc67 e53c 4eb5 8c3e
00000200: 51b4 bfb4 7927 2d35 60cc 1436 336a 99b6
00000210: 038f c4b5 5835 9db6 9b4c 8bb4 4188 46b6
00000220: 3d88 2b35 b3bc 15b6 7d6c f9b5 dcae 0eb6
00000230: 627d 78b4 c829 08b6 a8dd c7b5 c94c 43b6
00000240: 3332 b03e 238f b7bc 89e1 393f 48c8 16bf
00000250: 658a 99be 71b6 cd3d feec 28bf 76db 1bbf
00000260: 52dc e43e 4677 90bf eb64 e5be f222 bf3c
00000270: ffd9 1f3f e2fb dfbd e620 2a3d 5d42 46bd
00000280: 066b a4be 8f38 08bf e8db f0be 6fa2 27bf
00000290: f835 93be 87a1 3fbe 1375 ae3d 8383 3fbd
000002a0: f9c8 063f 5384 06bf eedc 50be 8e98 55be
000002b0: 987a f6be 197d fcbe 3c01 d43e acc3 113e
000002c0: e974 fcbd 10f1 58bf 1238 733d 1f6b a23e
000002d0: e826 ce3e de08 89be 6a90 60bc 1978 26be
000002e0: 86f4 32bd 9630 b1be f470 8d3e 6fec 6fbe
000002f0: a702 5dbe e03b 793e e509 1f3e 709f f2be
00000300: 89a1 02b7 e50f 2fb7 9163 1eb7 0347 edb7
00000310: ae07 c3b6 2e61 62b7 5c5c c1b6 08a2 92b7
00000320: eb77 21b6 9c69 edb7 3e9e 0036 8207 ce37
00000330: 6fc0 2935 793a beb7 8b36 1c36 a995 0cb8
00000340: b6f9 1fb0 71ef d1b1 dec6 04af ae34 e0b1
00000350: 113a 8ab1 a0e6 d2b1 ff06 bbb1 daab 71af
00000360: 9622 aab1 6756 c5b0 4474 a8b1 b748 8baf
00000370: 89de 7eb0 8dbb 0fb1 21c4 9caf 26f0 8030
00000380: b6a0 8bb8 f275 28b9 fde6 77b8 e44d 9db8
00000390: f281 78b7 78df beb8 60f4 b2b8 77a8 46b8
000003a0: a83d beb8 23dc 1fb9 0dda 2839 b71a 6bb7
000003b0: 600a 93b8 d96b d0b8 a5ac ebb8 2c82 eeb7
000003c0: 18b7 9db8 fe94 a6b7 ed97 33b8 c12d 00b8
000003d0: 205d bab7 65da ceb7 3d27 44b7 28d5 ec36
000003e0: 5e30 81b8 f3b2 01b8 90be fab5 20b6 57b8
000003f0: decc efb7 9bdf 4935 7e1c 95b8 255f 4cb8
-0.90025824 0.13957809 -0.3304575 -0.2310138 -0.24085064 -0.3091532 -0.3762332 -0.3148013
0.5040254 0.12920661 0.1330205 -1.2381039 -0.34696415 -0.17205915 0.08699829 0.09936063
-2.074868e-07 -1.5172144e-08 -6.946459e-08 1.6314555e-08 -2.7664079e-08 -4.8284644e-08 -5.5038395e-08 -4.9402797e-08
-1.2099645e-07 -2.1176642e-07 -1.1288706e-08 -2.8080024e-08 2.917541e-09 -3.5025675e-08 -2.8119603e-08 -1.6730985e-07
-0.59519464 -0.07891181 -0.05949538 0.124789976 0.46657956 -0.07254234 0.21531838 0.1040412
-0.16955611 -1.0619626 0.5416704 0.5425885 0.6260559 0.2867214 0.03272152 -0.9741016
-0.66222465 -0.28351703 -0.3874568 -0.12098633 0.65177166 -0.15238272 0.056254297 -0.5980973
-0.31512803 0.14265628 -0.2780071 -0.79273343 -0.39752614 -1.1967177 0.14093357 -0.5411806
-0.14571841 -0.12864351 0.27902916 0.10046879 0.27674767 -0.18435165 0.18396758 0.343726
0.3219028 -0.47416055 -0.22520337 0.3383419 0.017815435 0.53244895 -1.0908196 -0.25857428
-3.4393681e-09 -7.8283224e-10 -2.962773e-10 -3.5120604e-09 -9.770421e-10 -8.464758e-10 -2.0105022e-09 -3.964522e-09
-1.042923e-09 6.5496285e-12 2.9667954e-10 -3.8347996e-09 -4.943663e-10 -2.8893132e-09 -2.7870684e-10 -1.1584292e-09
-4.4679546e-10 -2.77805e-10 -1.5141385e-09 -3.6720023e-09 -3.1564524e-09 -3.4973247e-10 -3.4376149e-09 -4.66566e-09
-1.1074178e-09 -4.1911674e-10 -1.8403999e-09 -3.7719e-09 -2.8098826e-10 1.9746575e-10 -2.8377865e-09 -5.424923e-10
-0.2899936 0.37372133 -1.3604783 -1.1413776 0.23966308 -0.7969407 -0.53035957 -0.31994173
0.29845113 0.1046992 -0.54255825 -0.06076404 -0.42016846 -0.13571613 0.028003626 0.27482074
-3.570772e-07 6.450496e-07 2.217268e-06 -4.5721185e-06 -1.464476e-06 -4.6851746e-06 -2.5946505e-07 -2.958361e-06
6.3900717e-07 -2.2312568e-06 -1.858352e-06 -2.126143e-06 -2.3142414e-07 -2.02899e-06 -1.4891166e-06 -2.910196e-06
0.344133 -0.02240712 0.72609764 -0.58899355 -0.299884 0.100445636 -0.6598662 -0.60881746
0.4469934 -1.1286399 -0.44803557 0.023332093 0.6244201 -0.10936715 0.04153528 -0.048403133
-0.32112902 -0.532113 -0.47042775 -0.6548223 -0.28752112 -0.18713962 0.08518424 -0.04675628
0.5265041 -0.5254566 -0.20396778 -0.20858976 -0.48140407 -0.49314192 0.41407192 0.14234799
-0.12326986 -0.8474283 0.059379645 0.31722352 0.40264058 -0.26764578 -0.013706306 -0.16256751
-0.043690227 -0.3460738 0.2762524 -0.23430036 -0.21583043 0.24339247 0.15531118 -0.47387266
-7.786214e-06 -1.0434514e-05 -9.440716e-06 -2.8285669e-05 -5.812347e-06 -1.3493276e-05 -5.7626003e-06 -1.7480008e-05
-2.406067e-06 -2.830178e-05 1.9165595e-06 2.456061e-05 6.3237434e-07 -2.2676993e-05 2.327756e-06 -3.3517983e-05
-5.8198724e-10 -6.109922e-09 -1.2075982e-10 -6.525247e-09 -4.02293e-09 -6.1380234e-09 -5.4432117e-09 -2.1979876e-10
-4.951583e-09 -1.4358194e-09 -4.9026614e-09 -2.533562e-10 -9.2720903e-10 -2.091585e-09 -2.8515593e-10 9.38148e-10
-6.657971e-05 -0.00016065667 -5.9104514e-05 -7.500852e-05 -1.4812207e-05 -9.10153e-05 -8.53322e-05 -4.7363774e-05
-9.0713904e-05 -0.00015245429 0.00016102959 -1.4013312e-05 -7.011439e-05 -9.938301e-05 -0.00011237831 -2.8432427e-05
-7.520447e-05 -1.9858122e-05 -4.2818418e-05 -3.056019e-05 -2.2216293e-05 -2.4658812e-05 -1.1691646e-05 7.0581627e-06
-6.1602084e-05 -3.0922656e-05 -1.8681912e-06 -5.142961e-05 -2.8586419e-05 7.5203724e-07 -7.110181e-05 -4.8726e-05

mlp_selection.2.bias f4 [16]
00000000: c156 16bf 7f7a 84b4 7bff 0a3d 9b11 45bf
00000010: 0a57 8f3e 31b5 93b1 3c20 58b1 2ebb bbbe
00000020: 92b2 92b6 b188 8f3e e9c6 6d3b f550 2dbe
00000030: 2a06 edb8 4f1f 6db2 896f 84b9 3ea2 69b9
-0.58726126 -2.4676044e-07 0.03393505 -0.7697999 0.27996093 -4.298862e-09 -3.145046e-09 -0.36666244
-4.3719274e-06 0.28033975 0.003628189 -0.16925414 -0.00011302189 -1.3802334e-08 -0.00025260102 -0.00022281051

mlp_selection.4.weight f4 [16, 16]
00000000: 5037 90af 498e e7ab 84fd 5ab7 85db f0ac
00000010: ef2b 65af 839f 492e d515 d9ae 6d0e d6ae
00000020: b551 97ae a683 4baf cdbe adae 5bb3 5baf
00000030: 6e05 34af 95d8 55ae d231 152f da76 362f
00000040: 6a67 1ab1 d957 07af e881 1db0 7c9e d5b2
00000050: 5955 e0b0 ca8b e22c acf0 25ae 9aab 2ab0
00000060: b1af fd2f 3afe 25b3 747a 4eb1 a4b3 44b3
00000070: 6ec1 bdb2 d6c5 af2d 1957 5cb3 6773 7cb0
00000080: 303a 173e 44b1 a034 e80a 64be 3e01 debd
00000090: ee23 293d 1946 24b0 843f 372e cf6e 2e3e
000000a0: f04e a634 a4af 8abf 0ec1 563e 6e59 febe
000000b0: e90d dfb6 6f15 762f b5de e7b5 8593 2f37
000000c0: e198 1eb2 3cdd b02b 0252 88b1 4bfc 46af
000000d0: b45d 13b0 736f 6a2e c7b3 77ad d1b0 c5af
000000e0: 9501 2db0 88cb 28af a74c 81af 1e97 a0af
000000f0: d312 8ab0 3ce2 a32d bf25 40b2 3ef1 fb2e
00000100: 4e0d 8abe d9de 2db4 f29c c8be 1b9e a03d
00000110: 0b41 24be 6709 1131 b580 e130 810c 533e
00000120: ac03 adb4 5931 24be c50a a03d ec79 253e
00000130: c381 07b7 9dcc 62b1 a043 1e38 9392 b437
00000140: 920c d8bd c1ac 46b1 8836 17bf f522 1e3f
00000150: a2ff 33bf 03ea 3c30 f6fe d02e b03e dabe
00000160: c6e3 c234 cb72 80bc efa1 8fbd f592 5b3d
00000170: dc54 8fb6 0d91 952e 171b 7fb8 8dd2 a7b4
00000180: a402 95b6 b314 1732 5b63 d3b5 0120 96b4
00000190: 5ad4 62b7 cf0e 8faf cd70 25af cc4a b4b6
000001a0: 7c7f 86b0 e133 9db6 4958 34b6 a58d 88b5
000001b0: c0ee a634 5fbf 86af 824c 0bb7 9d53 ff31
000001c0: 9599 e6af fc1d 63af 638d 0bb2 6080 08b0
000001d0: b85f 26b3 a482 242f feee b9ac 961c a5af
000001e0: eb51 932f 2d10 a1b3 b798 15b0 91bd 04b3
000001f0: fe53 2eb0 f6bd 562e 2d15 cf2e cb63 d12f
00000200: c8ee 04be e631 f0b2 5050 10be 4a96 e73e
00000210: ca30 2ebe 796a 3130 608f 332f 6141 28be
00000220: 3c88 c635 4425 8bbb 399a 77bc a7a5 29bf
00000230: a4d3 e7b5 5ed6 17ae 16d0 43b7 98e5 e232
00000240: a287 39af edbd adaf eebc 5bb0 eb04 852f
00000250: 777f 4db4 833c 752f 46ff 862f 1dc9 992e
00000260: 72fe d6af 18b2 a6af ef7a 15b0 170b e0af
00000270: a4c6 90af 59d9 812e 98a5 8cae d51e 7caf
00000280: 02f8 85be 0424 e332 cce2 ccbe 1e6d 243e
00000290: e20d 8ebd 37fc 15b0 6fb5 6aae 9236 11bf
000002a0: 18b7 0835 7016 3ebe 5deb dfbe 9d6a d0be
000002b0: 079b 9c36 b5d4 a031 1bb2 cfb8 f3d3 3db7
000002c0: 2266 cdaf d31f 9cad 0c0f 08ae df6e 4fad
000002d0: d380 4fb0 8d83 402e 4a59 0fad cac9 01ac
000002e0: 49f9 1ab0 ea31 2a2f 33bc 6dae f198 8ab0
000002f0: a2e5 67b0 bfe9 c1ab ae79 e52d 3ab4 d6af
00000300: 4e0e 3ab6 681e 89ae a9cd 19b7 f39a 53b6
00000310: 9123 aeb7 abc0 102e 97d9 4bae ec55 c8b6
00000320: 5bb0 212f e2f3 b8b7 aaf3 fbb6 c8bb be34
00000330: b93f 372e 25e9 de2d cfd4 b5ad acd5 a3b5
00000340: 2b36 80b3 f8ab 4231 cc0e d3b4 961d c1b4
00000350: d398 c6b2 30c5 9dae 5894 822f c7aa 7b31
00000360: c632 a130 a023 4cb1 9461 b332 f77a f5b4
00000370: caa0 c332 7406 ecae 4f6e 20af e4ca 19b1
00000380: 72e2 c7af 12d6 53b0 b9bf 09af f079 aeae
00000390: 182a 82b0 6899 812e 831b dbad cc7e 52b3
000003a0: 3ea2 87af 51da dbb0 0b1c eeb1 3659 a8af
000003b0: 05af 90b0 7d52 7cae faff 4fb0 d189 722e
000003c0: 40d0 523d 157c 3fb0 6301 9abb a4fc bbbb
000003d0: ffcd 65bd 3bdd 94ae 6e65 a52f aaee 60bd
000003e0: 6e42 a832 2de2 52bd 4437 1cbd 4a87 02bd
000003f0: 44df 1db7 9258 a031 3d1b 98b6 8ed9 ba35
-2.623275e-10 -1.6453029e-12 -1.3052839e-05 -6.845582e-12 -2.0843037e-10 4.5843784e-11 -9.871896e-11 -9.734156e-11
-6.881199e-11 -1.8509513e-10 -7.901022e-11 -1.9981654e-10 -1.6372834e-10 -4.8622956e-11 1.3569171e-10 1.6595028e-10
-2.2468734e-09 -1.2309388e-10 -5.7300875e-10 -2.4868534e-08 -1.6322402e-09 6.438826e-12 -3.7730416e-11 -6.20895e-10
4.6145268e-10 -3.8648274e-08 -3.0046552e-09 -4.579819e-08 -2.2090457e-08 1.9983053e-11 -5.1301956e-08 -9.184106e-10
0.1476829 2.99313e-07 -0.22269785 -0.10840081 0.04129403 -5.9762467e-10 4.1665796e-11 0.17034458
3.0977344e-07 -1.0834851 0.20972082 -0.49677604 -6.6475372e-06 2.2381184e-10 -1.7275657e-06 1.046516e-05
-9.231571e-09 1.2566957e-12 -3.967444e-09 -1.8097628e-10 -5.361145e-10 5.3304427e-11 -1.4080243e-11 -3.5959727e-10
-6.293928e-10 -1.535182e-10 -2.3519428e-10 -2.9211206e-10 -1.0046172e-09 1.8631423e-11 -1.1184453e-08 1.1457012e-10
-0.26963276 -1.6192952e-07 -0.3918224 0.07842656 -0.16040437 2.1105622e-09 1.6407485e-09 0.20610239
-3.2226433e-07 -0.1603445 0.07814554 0.16159791 -8.07684e-06 -3.3003638e-09 3.7733116e-05 2.1525926e-05
-0.105492726 -2.8910991e-09 -0.59067583 0.6177209 -0.7031194 6.872655e-10 9.504035e-11 -0.42625952
3.6301043e-07 -0.015679738 -0.07013308 0.053606946 -4.271611e-06 6.801502e-11 -6.0821967e-05 -3.125937e-07
-4.4408534e-06 8.794063e-09 -1.5749641e-06 -2.7962963e-07 -1.3520092e-05 -2.602207e-10 -1.5046737e-10 -5.3731255e-06
-9.786016e-10 -4.685004e-06 -2.687348e-06 -1.0174014e-06 3.1093623e-07 -2.4510435e-10 -8.302859e-06 7.4309825e-09
-4.1945883e-10 -2.0656182e-10 -8.1230125e-09 -4.9658944e-10 -3.8736943e-08 1.4962126e-10 -5.2845497e-12 -3.0033637e-10
2.679735e-10 -7.500089e-08 -5.4422905e-10 -3.0906055e-08 -6.342019e-10 4.8826686e-11 9.417032e-11 3.8087786e-10
-0.12981713 -2.7962368e-08 -0.14093137 0.4523185 -0.17010799 6.454353e-10 1.6330892e-10 -0.1643119
1.4791799e-06 -0.004246386 -0.015112453 -0.6626839 -1.7272437e-06 -3.452382e-11 -1.16713545e-05 2.641427e-08
-1.6873838e-10 -3.1603467e-10 -7.994022e-10 2.4196053e-10 -1.9138484e-07 2.2304118e-10 2.455584e-10 6.9933594e-11
-3.9107168e-10 -3.0321767e-10 -5.4380583e-10 -4.0753242e-10 -2.633459e-10 5.9048495e-11 -6.395878e-11 -2.293022e-10
-0.26165777 2.6442656e-08 -0.40016782 0.1605725 -0.06936242 -5.4564303e-10 -5.3366585e-11 -0.5672389
5.0930385e-07 -0.18563247 -0.43734255 -0.4070634 4.66721e-06 4.680795e-09 -9.903704e-05 -1.1314626e-05
-3.7361853e-10 -1.774928e-11 -3.0936184e-11 -1.1791206e-11 -7.548923e-10 4.3772586e-11 -8.148435e-12 -1.8444018e-12
-5.637913e-10 1.5479143e-10 -5.4054716e-11 -1.008429e-09 -8.436364e-10 -1.3778352e-12 2.6088322e-11 -3.9054432e-10
-2.7724486e-06 -6.23544e-11 -9.167395e-06 -3.1531642e-06 -2.0758978e-05 3.2912933e-11 -4.6350115e-11 -5.970467e-06
1.4705519e-10 -2.2048076e-05 -7.508749e-06 3.5526887e-07 4.166598e-11 2.5342015e-11 -2.0671824e-11 -1.2206633e-06
-5.9703176e-08 2.8328468e-09 -3.931258e-07 -3.5970578e-07 -2.311973e-08 -7.174561e-11 2.3752267e-10 3.6622383e-09
1.1728722e-09 -2.9706158e-09 2.0882716e-08 -4.5724275e-07 2.2774106e-08 -1.0733184e-10 -1.4591105e-10 -2.237976e-09
-3.6358788e-10 -7.7065565e-10 -1.2528191e-10 -7.9342644e-11 -9.470709e-10 5.893491e-11 -2.4909635e-11 -4.9009756e-08
-2.4671637e-10 -1.5996396e-09 -6.9298998e-09 -3.062241e-10 -1.0527123e-09 -5.737143e-11 -7.5669926e-10 5.5146835e-11
0.051468134 -6.9661726e-10 -0.0046998723 -0.005736904 -0.056104656 -6.769559e-11 3.0085395e-10 -0.054915108
1.9587983e-08 -0.05148523 -0.038138643 -0.031867303 -9.409912e-06 4.666682e-09 -4.533124e-06 1.3921397e-06

mlp_selection.4.bias f4 [16]
00000000: af14 38b5 80a0 deb3 9a7f 8bbe af4a 5eb2
00000010: dd36 a3be 7cf3 a0be bd9a 9fb7 705b 35b4
00000020: 0626 89be 1b05 18b4 1fcb 5c3d 0c03 1cb1
00000030: ab72 66b7 aa7e 16b5 1627 20b3 d566 babd
-6.857544e-07 -1.03668754e-07 -0.2724579 -1.2939082e-08 -0.31877795 -0.31435764 -1.9026333e-05 -1.6890203e-07
-0.26786822 -1.415796e-07 0.05390465 -2.270272e-09 -1.37357665e-05 -5.6063675e-07 -3.728845e-08 -0.09101645

mlp_selection.6.weight f4 [8, 16]
00000000: 9567 5131 8bd9 72b2 ef6b b0be 7c6e 4f31
00000010: 6f19 943e 8a72 8bbe 0d24 0737 2c80 9132
00000020: 3987 62be 4e04 a033 6eca 243e a95e 2230
00000030: e606 ebb5 68f3 1a33 412e e432 4020 793c
00000040: c9da 7b33 cb0e a232 4e04 6a3e 01ef 1db2
00000050: cbfd d5bb 9f8d 9dbe d862 acb5 ee62 a732
00000060: 2dd4 08bf 581f 6033 b35e 48be 5e50 1bb0
00000070: 6f1f b3b5 e3a4 e4b2 5edb b932 a0f1 bebc
00000080: aae8 a033 45c1 c732 ae48 6f3e 0e55 08b2
00000090: f34b 85bb a06b 5e3f 4b9f 51b4 4148 b332
000000a0: 3f13 c43d 1491 77b3 4290 e13e 1bb8 b12e
000000b0: 6168 5036 d5a9 3f33 b3c1 fc32 5333 0cbe
000000c0: 9460 e032 6191 9d31 2c2e 593e 323e 1c32
000000d0: 3ac9 26bc 7740 2cbf c64e 99b6 edc6 c232
000000e0: 9d60 43bf 9e53 9933 5678 12bd e528 732f
000000f0: 0a01 e637 a7e0 8d31 517f ff32 f5b1 efbd
00000100: 050d ad31 0803 e3b2 6733 c43d 2468 02b2
00000110: 0b47 cd3c cf32 b93e e961 32b7 891a e632
00000120: 8580 e43e 32fc 94b3 09f0 5c3e 2219 d92f
00000130: 9ded 0338 2248 8eb2 c53d 0f32 6007 8f3e
00000140: ec04 0332 7ab4 ee31 502d 533d 62c7 1932
00000150: adc2 9fbe db3c 283e d6c7 4136 4ba9 3d33
00000160: 2aa5 fa3e 591d 31b3 25ba 8fbe ed8b 2fb0
00000170: d01d aab6 ad12 6f31 222d 0333 a3d2 38bd
00000180: 0250 2733 0e21 bc30 d533 87be 64fc 0db2
00000190: e524 1dbc 46e5 fc3d dfba ae36 12b4 7731
000001a0: 3637 0cbd 38ea aeb3 4cd8 2bbe 04e4 08ae
000001b0: fd94 29b6 acc3 af32 8ea9 e9b1 d3fa 15bd
000001c0: eb17 bd33 ac6f d3b2 e869 cc3c f9a1 33b2
000001d0: 9515 90bb 9893 503d 0e43 a5b6 0565 8832
000001e0: b549 623e 5625 8f33 a909 2f3e de86 8b2f
000001f0: 56ba 4737 3c6c e0b1 c41e 1233 195e 39be
3.0472382e-09 -1.41357175e-08 -0.34457347 3.0185268e-09 0.28925654 -0.27235824 8.055021e-06 1.6938507e-08
-0.22121896 7.4513636e-08 0.16092846 5.9069777e-10 -1.7510872e-06 3.6077296e-08 2.6563727e-08 0.015205443
5.8639475e-08 1.886601e-08 0.22853205 -9.192946e-09 -0.0065304986 -0.3077211 -1.2843766e-06 1.9486347e-08
-0.53448755 5.218257e-08 -0.19567375 -5.650288e-10 -1.3345688e-06 -2.6617675e-08 2.1636591e-08 -0.023308575
7.492902e-08 2.3254538e-08 0.23367569 -7.935581e-09 -0.0040678917 0.8688297 -1.9522592e-07 2.08712e-08
0.095739834 -5.7641117e-08 0.44055372 8.081732e-11 3.1055172e-06 4.4625114e-08 2.9424745e-08 -0.13691454
2.612095e-08 4.585829e-09 0.2120902 9.094537e-09 -0.010179812 -0.67285866 -4.5689258e-06 2.2675033e-08
-0.76319295 7.1398276e-08 -0.035759293 2.211525e-10 2.741862e-05 4.12918e-09 2.9743804e-08 -0.117038645
5.036443e-09 -2.6427657e-08 0.09580117 -7.590675e-09 0.02505829 0.36171576 -1.0632423e-05 2.678759e-08
0.44629303 -6.937661e-08 0.21575941 3.9489928e-10 3.145413e-05 -1.6563778e-08 8.33774e-09 0.27935314
7.626323e-09 6.9472295e-09 0.051556885 8.9511065e-09 -0.31203213 0.16429465 2.887556e-06 4.4158963e-08
0.48954135 -4.1237715e-08 -0.28071705 -6.3863476e-10 -5.0698654e-06 3.4789693e-09 3.0541862e-08 -0.045122754
3.8955484e-08 1.3688195e-09 -0.26406732 -8.264667e-09 -0.009591316 0.12348418 5.2073588e-06 3.6045589e-09
-0.03423234 -8.1451105e-08 -0.1678173 -3.112534e-11 -2.5269685e-06 2.0461663e-08 -6.8004686e-09 -0.036616158
8.805349e-08 -2.4614415e-08 0.024952844 -1.0456e-08 -0.004397104 0.050922006 -4.9251894e-06 1.5878422e-08
0.2209843 6.665748e-08 0.17093529 2.5379782e-10 1.1904709e-05 -6.531563e-09 3.4021255e-08 -0.18102302

mlp_selection.6.bias f4 [8]
00000000: d106 3d3f 8f7a 363f 699f 373f c6e1 373f
00000010: afc3 343f 72ef 313f d1b1 2f3f 6999 2f3f
0.73838526 0.7128076 0.71727616 0.7182888 0.7061109 0.6950599 0.686307 0.6859346
