EUSIPCO/5 sources/saved_models_rmspe/rnn2_10dB.pth (torch, 85071 bytes, 14 tensors)

bn.weight f4 [16]
00000000: a94a 6c3f f498 303f c7e9 d53e 17ca 583f
00000010: 4d25 743f a0f0 7c3f 32c8 373f 9fd7 4b3f
00000020: 058f 283c dedd 0d3f b917 163f 06f9 253f
00000030: 4067 e13e b386 833f 021f 553f 6487 3b3f
0.9230142 0.6898339 0.4177992 0.84683365 0.95369416 0.98804665 0.7178985 0.79625887
0.010288005 0.5541667 0.5862995 0.64833105 0.44024086 1.0275482 0.8325044 0.73253465

bn.bias f4 [16]
00000000: c714 25be 7595 2b3e 70b2 923f d7d4 533d
00000010: 49f4 7c3e 920a 6f3d d48b 96be 2a02 8dbd
00000020: 5eac 0540 e464 023e e67c 89be 0dab 4dbf
00000030: 5ae8 a5bf 5cb4 bd3e e3d7 4fbe 0995 063d
-0.16121207 0.16756232 1.1460705 0.05171665 0.24702562 0.05835969 -0.29403555 -0.068851784
2.0886455 0.12733799 -0.26853102 -0.8033913 -1.2961533 0.37051666 -0.20297198 0.032856975

bn.running_mean f4 [16]
00000000: 228f f9b9 b216 d53a cad7 92ba d380 413b
00000010: 8cb0 8b39 e5bf da39 0369 2f3b 09e0 2aba
00000020: d77c 78bb 991c 40ba 50d0 b4b9 1806 803b
00000030: 8922 beb9 e977 56ba c3b2 7b3a f778 953a
-0.00047599623 0.0016257374 -0.0011203226 0.0029526248 0.00026643684 0.00041723173 0.0026765473 -0.0006518369
-0.0037916207 -0.000732848 -0.0003448748 0.0039069764 -0.00036265355 -0.000818132 0.00096015277 0.0011403848

bn.running_var f4 [16]
00000000: 319e 2240 17a2 2340 9f4e 2340 88bc 2240
00000010: 750f 2340 ae34 2340 4389 2240 1850 2340
00000020: e611 2340 c717 2340 241f 2340 6508 2340
00000030: fb0f 2340 d432 2340 7cb8 2340 c1fe 2240
2.5409052 2.5567682 2.5516737 2.542757 2.5478184 2.5500903 2.5396278 2.5517635
2.5479674 2.5483263 2.5487757 2.5473874 2.5478504 2.5499773 2.558135 2.546799

rnn.linear_h.weight f4 [16, 16]
00000000: 1123 a53f 723d 7fbf 93f9 1b3f ad33 60be
00000010: f31b d03d 1fc1 d83e 09e7 50be 42de a13f
00000020: 1d25 02bf 8c35 5bbf 0bdb 823e f67a 17bf
00000030: 36b4 093f 3513 afbf 38a7 743f 6d76 29bf
00000040: e971 113f e575 38bf 5c60 e5be 9f0e 6a3f
00000050: efc1 92bf 6156 773f 85a6 84be 0a29 72be
00000060: 7d35 b33d 4fef 5ebf 6c9a 953f 75fa b3be
00000070: a7d9 173e 31fb 283e 9f04 43bf 441e f73e
00000080: 6b3b 2dbd aea2 a93e acca 433f 3f57 483f
00000090: 9864 01bf 7aa2 ccbf ede2 cebe bd1b 1e3f
000000a0: 93e6 06be 99e6 98be 0e1a 57bc 394a f93e
000000b0: 08ff 9d3e 473a 683e 62d3 71bf b44e 55bf
000000c0: 38eb 843f 21f8 4cbf b8ea ca3c 0a2e 953e
000000d0: ecef 82be 0363 633f 8626 f7be 3c58 8f3f
000000e0: ca7f eebe 11ad a63f d6c4 4cbf a271 c33e
000000f0: 0c99 65be 66af d93e 8a36 b4be 95f8 79bf
00000100: 604c afbf 597a a63f 054c 0abf 6f16 753f
00000110: a24a efbe 504c 2abd 55da fc3e 9d2f 61bf
00000120: 8cd7 b73d c36d d7be 1b68 6c3f 1ae2 2abf
00000130: d7ef 323f 2ff5 babf 005e 953f 753d 65bf
00000140: 9909 05be dd6e 1a3e 8739 24be e21b d03e
00000150: 998a b6bf af30 743e 7f62 023c 343b de3f
00000160: 296f 17bf c4c5 403f 11a5 94be 0c93 8f3e
00000170: 41b9 0abf ebbc 2a3f 2b2d 82be 21b3 493e
00000180: c18f 63be 29e2 06bf 740c 3f3f ce3a 8d3e
00000190: 5d34 90bf a010 2f3f 0fd1 e23f ae71 12bf
000001a0: 08ff f43b 8ecc 56be d7ef f1be ba14 1e3f
000001b0: 5777 ddbe 24b1 9cbf cc5d 3e3f 271d 573f
000001c0: 01d3 f43e 737d 4bbf 15a3 ad3e 6b18 b53c
000001d0: f2cf a13e 1ff4 03bf ee93 fe3e 9275 d9be
000001e0: d707 92be b3cc 303e 9371 cbbe dc2a e3bd
000001f0: 993c bcbe 328a 24bf 44d5 a2bf fdd7 44bf
00000200: f45d f93e 109e 17be 52fc 28bf 7d2a 933f
00000210: ac3e 3b3e f5c5 48bf 8632 973e ad11 013f
00000220: dd28 513e 6604 7dbf b986 2c3e f3c9 203f
00000230: 29a5 84bf 81a1 7ebd ab5a d43e 8f94 b9be
00000240: ceff 27be 7e43 3cbf 0735 52bf b8d6 81bf
00000250: 8aa6 5fbf 0655 9fbe 108b cd3c 5f76 2d3d
00000260: 66e7 0d3e 5c63 c33e d685 b8be 97e7 e1be
00000270: 2f52 4cbf 10b1 59bf 91d7 13bf b0eb 4ebe
00000280: f91a 97bf f66f 3e3f f934 e23e 8653 f2be
00000290: 503d 21bf 7e82 4a3f 8f44 5dbf b2e0 ccbe
000002a0: a30a 1bbf ddcf a73e 4da7 5fbe ef22 143f
000002b0: 3a32 27be 92d8 e9bd a1f1 83bf 02dc 883b
000002c0: e112 33bf 5056 bf3d 420c ce3e 3fe7 9cbf
000002d0: c315 8f3e fe3c 60bf e8fb 763f 179f 4a3f
000002e0: 84d5 90be 4962 cc3f c2d5 89bf e3c9 333f
000002f0: 5641 b63c 0814 d3bf 99c1 51be bbf3 32bf
00000300: caad 91bf e09f c23f 6f07 d6be 17eb 823e
00000310: a0e0 febd 5a20 a5be 13e6 b73f a669 99bf
00000320: 08e0 05bf f8e5 123f 055c 34bf 93f1 793f
00000330: db41 16bf b1de 633f bd9b 0fbf d1c5 92be
00000340: 7eb6 3d3f e203 2fbf 7736 8a3d 03ac a53f
00000350: 4d91 39bf 4646 8e3f 63f4 9bbe 96c1 9bbd
00000360: 57e1 423e 96ae d43f 1074 dbbf cf58 8b3e
00000370: ece6 62bd f200 2ebf f0d9 a23f 6173 7cbf
00000380: cb14 04bf b9b6 843e a3fc 033f f698 4dbf
00000390: 6064 f3bf 5718 c3be 7d5b db3f 0158 3f3f
000003a0: 494f debe e9f5 403f 19c3 30bf a221 02bf
000003b0: a711 823e 0646 753f 561b 0f3f 73e7 24bf
000003c0: ff26 fc3d f97c 5abe 8dab 863e a47b 713f
000003d0: 4a4c 993f 74e4 a73f d9dd 923f 555e af3d
000003e0: a2d1 383e efa9 a73e ed10 133f 2e43 313f
000003f0: 52ad 4f3e d98f a5be 28de 5bbf 3946 51bf
1.2901326 -0.99703133 0.60927695 -0.21894713 0.10161581 0.4233484 -0.20400633 1.2645953
-0.5083788 -0.8562858 0.25557742 -0.59172 0.53790605 -1.3677737 0.95567656 -0.6619633
0.5681444 -0.7205489 -0.4480008 0.9142856 -1.1465434 0.9661618 -0.25908294 -0.23648468
0.087504365 -0.87083906 1.1687751 -0.3515202 0.14829122 0.16502072 -0.76178926 0.48265278
-0.042292994 0.33131927 0.7648113 0.78258127 -0.5054412 -1.5987084 -0.40407506 0.61761075
-0.13173895 -0.29863432 -0.0131287705 0.4868944 0.30858636 0.22678481 -0.9446317 -0.83323216
1.0384283 -0.80066115 0.024770126 0.29136688 -0.2557367 0.88822955 -0.4827158 1.1198802
-0.4658187 1.3021566 -0.7998785 0.38172632 -0.22421664 0.4251663 -0.3519786 -0.9764493
-1.3695183 1.3006088 -0.54022247 0.95737356 -0.46736628 -0.041576684 0.49385324 -0.8796328
0.08976659 -0.4207593 0.9234635 -0.66751254 0.69897217 -1.4606074 1.1669312 -0.895469
-0.12991942 0.15081353 -0.1603757 0.40646273 -1.4261047 0.23846696 0.007958054 1.7361817
-0.5915399 0.75301766 -0.29032186 0.28041875 -0.54188925 0.66694516 -0.25425085 0.19697239
-0.22222807 -0.52688843 0.74628377 0.27583927 -1.126598 0.6838474 1.772005 -0.5720471
0.007476691 -0.20976469 -0.47253296 0.61750376 -0.43255112 -1.2241559 0.7436187 0.8402886
0.47817233 -0.79488295 0.33913484 0.02210637 0.31603962 -0.51544374 0.49722236 -0.42472512
-0.28521606 0.17265587 -0.39735088 -0.11092159 -0.36764982 -0.6427337 -1.2721334 -0.7689207
0.48704493 -0.1480639 -0.6601001 1.1497341 0.18285626 -0.7842706 0.29530734 0.50417596
0.20425744 -0.98834836 0.16848268 0.6280815 -1.0362903 -0.06216574 0.41475424 -0.36246154
-0.16406175 -0.73540485 -0.82112163 -1.0143652 -0.87363493 -0.31119555 0.025090724 0.042349216
0.13857803 0.38161743 -0.3603961 -0.44122002 -0.798129 -0.850358 -0.57750803 -0.20207095
-1.1805106 0.7438959 0.4418104 -0.47329348 -0.6298418 0.79105365 -0.8643274 -0.4001518
-0.60563105 0.32775775 -0.21841164 0.57865804 -0.16327754 -0.11418261 -1.0308114 0.0041766176
-0.6995068 0.09342635 0.40243727 -1.2258071 0.2794629 -0.87593067 0.9647813 0.79149
-0.282879 1.5967494 -1.0768359 0.7022993 0.022247951 -1.6490488 -0.20484008 -0.69903153
-1.1381161 1.520504 -0.41802546 0.25569984 -0.124451876 -0.32251245 1.4367088 -1.1985366
-0.5229497 0.57382154 -0.7045291 0.9763424 -0.5869424 0.89011675 -0.5609701 -0.28666547
0.74106586 -0.683653 0.067486696 1.2943119 -0.72487336 1.1115196 -0.3045989 -0.07605283
0.19031273 1.6615779 -1.7144794 0.27216193 -0.055396006 -0.6797019 1.2722759 -0.98613554
-0.5159423 0.25920656 0.5155737 -0.80311525 -1.9015007 -0.38104507 1.7137295 0.7474366
-0.43419865 0.7537523 -0.69047695 -0.5083257 0.25404093 0.9580997 0.55901086 -0.64415663
0.123121254 -0.21336736 0.26302758 0.94329286 1.1976407 1.3116593 1.1473953 0.08562914
0.18048719 0.32746837 0.574477 0.69243133 0.2028096 -0.3233631 -0.8588586 -0.81747776

rnn.linear_h.bias f4 [16]
00000000: 21f3 81be 5bc6 7dbe 59d9 8abe b3ca fbbd
00000010: 7ee9 af3e 18cf 50be 9969 bbbe 7b18 9cbe
00000020: 5497 86be 9173 d6be 9a3a 70be 3744 71bd
00000030: 8f67 c8be 3670 953e be4b e0be 3b9d 67be
-0.25380805 -0.24782698 -0.27118948 -0.12294521 0.34357828 -0.203915 -0.36604002 -0.30487427
-0.2628733 -0.41885045 -0.23459855 -0.058902945 -0.3914151 0.29187173 -0.43807787 -0.22618572

rnn.linear_z.weight f4 [16, 16]
00000000: 53be 603e 2068 aabe 2f9b 0abe b34e debc
00000010: c6d4 9cbc 8c68 e1bd 3472 96be 6d15 60bd
00000020: 4045 11bf f58e 89bd 970a fd3e 647d 5d3d
00000030: 07ac 5b3f e7df b73d f844 253e 8c26 c7be
00000040: 26d2 1a3e 336f 21be 204e a5be 9d22 bcbd
00000050: 55aa c7bd 2a44 8bbd f39e 423d db4d d93c
00000060: 4e9c 48bf 102c 4fbe 4aba c13e a621 2cbe
00000070: bd1c ef3e bd4d 433e 6bf1 29be 6e1a 473e
00000080: a43e 443b 4a1e 92bd 3bc7 593d 482b f2bc
00000090: 363b 23bd deab 6d3a 5df7 ddbd 55ef 9f3a
000000a0: 0664 70bf 3e5c 28bd 3a77 063d 9899 e13e
000000b0: 5182 933f 6e2c 62bd d8b1 42be f7db 6fbc
000000c0: 2961 82bb aaf5 8abd b9bb e0bd fd37 183c
000000d0: 239b 03bd 2178 9dbd 9cb8 8dbe 9dad 103e
000000e0: c2ca e3bf a979 cc3d 4f69 71be eaf9 8c3e
000000f0: 81f4 22be 23f3 80bd 3ae1 333e aa26 313e
00000100: bee8 49be a5ae 4d3e 6f8b 3bbf f6fe b03c
00000110: 80d5 c23d ab52 973b e332 a7bd 07b7 7dbc
00000120: 06c7 4cbf 9d17 afbd ee70 d13d b1a0 35be
00000130: efaf 263f 0b97 853d ac4c aa3d 1fd3 bebe
00000140: 104c 64be 0841 da3d 03aa d5be 5822 8e3d
00000150: f553 9b3e 07fa e33d 90aa b6be 05cc 94be
00000160: ee93 95bf 6f9a 633d 55e0 25be 7bc8 803e
00000170: 4c3a 4f3e b93c f5bd 6a67 dd3b 4456 0e3e
00000180: 9302 ac3d 0936 a4bd 5aba fabd f23b 183d
00000190: 2c1a 4abe 2b8e 00bc a145 573d 9e1d 0fbe
000001a0: 4fd6 4abf 91c7 30be 1bfa 36bd 9b20 073f
000001b0: 1717 8e3e 50be e3bd 1e69 813d f3e4 853d
000001c0: 7f26 7f3d 1ee0 5cbc d3a6 c6bd 59fb 59be
000001d0: 6acc 9dbd 32e2 c93d 5a43 453e 478f 38be
000001e0: f53f 8abf 6192 85bc b507 853e 590e 9e3e
000001f0: 773e f43e dafb ca3e e2b5 193f 1915 f33e
00000200: 2f5e 743d c29c b2bd 2e03 63bf 485a 15be
00000210: f79a 30bb b597 14bd 3f6b 273e b4b5 d3bc
00000220: a71d 31bf 2868 57be 93b1 cf3e c5aa d63e
00000230: a85c 49be fc73 983d 2c50 553e 30dc e2bd
00000240: b82a b43d 0cbe b3bd 9080 62bf 37c0 5fbe
00000250: d200 d1bd 1b51 83bd 149a 0a3d d85a 013d
00000260: ca3f a2bf 1edf 56be 25ef ca3d 6429 813b
00000270: 9c39 98be 874f c7bd 1700 01be 08dd bdbd
00000280: c304 743c 4f5b e9bd f771 0ebf b5de 9a3d
00000290: 47bb 4c3e 9e86 bebb a420 013f b2af cebe
000002a0: cf55 9fbf 4003 8cbd b36b edbd 2620 fabe
000002b0: 6fd9 6b3f ce77 2c3e 57ee 1abe 3c33 913f
000002c0: 1470 0c3d d806 0dbc 09c0 bb3d 769c 433c
000002d0: 2170 c63e 09aa 0a3e 614e a2be d6df 2cbe
000002e0: 781a d1bf 8db6 82bc a566 62be ff35 aa3e
000002f0: 6768 763e 25b8 c83e 12b2 083f 4e3b cebd
00000300: fbb2 05be 1e91 09bd 4d25 40bf 8920 ff3d
00000310: 853e 3c3e 1088 8ebd 1e22 c1bd 18e7 79be
00000320: e064 e7bf 1c6f ce3e f86f 8abe eb1a 903e
00000330: 150d cabe 07f6 97bd f3a3 c3bd 0e03 1d3f
00000340: 1537 7bbe 8b13 993e f885 093c 0065 1dbf
00000350: 1329 0c3f 3461 c8be a20f b5bd c430 d53e
00000360: daf5 efbf 8454 16bf cc61 783f 3c5d e9be
00000370: 0225 253e ccc9 aa3e 43cc 18bf e90c c03e
00000380: 8a44 e53c 9296 573d b84b 503e b5eb 09bd
00000390: ce0f 523d 898f 1b3c 7b29 383e bc24 1c3e
000003a0: 5602 8bbf 4be6 b03d 553a c8bd 721d debe
000003b0: e18a a53e 549a a23e caaf a03d 248e 2ebe
000003c0: 11a8 003d 54e6 323d 0875 06be 07ee 953d
000003d0: e68a f43d 9a16 093e 94ef 323e e571 7c3d
000003e0: c905 84bf 97b0 573d 8df2 283e 25cf 923e
000003f0: 4d21 b13e b632 a9bd 9f5d 4fbe 4d75 1dbe
0.21947603 -0.33282566 -0.1353576 -0.027137136 -0.019144427 -0.11006269 -0.29384005 -0.054707933
-0.5674629 -0.0671672 0.49422142 0.05407466 0.8580937 0.08978253 0.1613959 -0.38896596
0.15119228 -0.15765075 -0.32286167 -0.091862895 -0.09749285 -0.06800111 0.047514867 0.026526382
-0.783635 -0.20231652 0.3783744 -0.16809711 0.46701613 0.19072624 -0.16596 0.19443676
0.0029944563 -0.071346834 0.053168517 -0.029561654 -0.03985139 0.0009066443 -0.108381964 0.0012202064
-0.93902624 -0.041103594 0.032828547 0.44062495 1.1524144 -0.055218153 -0.19013155 -0.014639846
-0.0039788675 -0.06785138 -0.10973305 0.009290692 -0.03213037 -0.076889284 -0.27679908 0.14128728
-1.7796252 0.09984142 -0.23575328 0.2753442 -0.15913583 -0.06296375 0.17566386 0.17299905
-0.1971769 0.20086153 -0.73259634 0.02160595 0.09513378 0.004618009 -0.08164003 -0.015485532
-0.79991186 -0.08549426 0.10226618 -0.1773708 0.65112203 0.0652295 0.08315405 -0.37270448
-0.2229464 0.10656935 -0.4173127 0.06940144 0.30337492 0.11131673 -0.35677004 -0.29061905
-1.168577 0.0555672 -0.16198857 0.25152954 0.20237082 -0.119744726 0.0067567127 0.13900095
0.083989285 -0.08018119 -0.12242575 0.037166543 -0.19736546 -0.0078463955 0.052556638 -0.13976142
-0.7923326 -0.17263629 -0.044672113 0.52784127 0.2775199 -0.111202836 0.06318878 0.06537809
0.062292572 -0.013481168 -0.09699788 -0.21287288 -0.077050045 0.098575965 0.19263974 -0.18023406
-1.0800768 -0.01630515 0.25982442 0.3087032 0.47703907 0.39645272 0.60043156 0.47477034
0.059660133 -0.087213054 -0.88676727 -0.14585221 -0.0026947835 -0.03627749 0.16349505 -0.025843479
-0.6918587 -0.21035826 0.40565166 0.41927162 -0.19664252 0.07443997 0.20831364 -0.11077154
0.087972105 -0.08776483 -0.8847742 -0.21850668 -0.102052346 -0.06411954 0.033838347 0.031580776
-1.2675717 -0.2098355 0.099088944 0.0039417017 -0.29731452 -0.097319655 -0.1259769 -0.09270674
0.014893713 -0.11394369 -0.55642647 0.07562009 0.19993316 -0.0058143875 0.5044043 -0.4036842
-1.2448062 -0.068365574 -0.115928076 -0.48852652 0.9212865 0.16842577 -0.15129982 1.134376
0.034286574 -0.008607589 0.09167487 0.011939159 0.38757423 0.13541426 -0.31700423 -0.16882262
-1.6336203 -0.015956188 -0.22109468 0.3324432 0.24063264 0.3920299 0.53396714 -0.10069905
-0.13056557 -0.03358566 -0.75056916 0.124573775 0.18383224 -0.069595456 -0.094303355 -0.24404562
-1.807766 0.40319145 -0.2703855 0.28145537 -0.39463106 -0.07419973 -0.09552755 0.61332786
-0.24532731 0.29897723 0.008393757 -0.6148224 0.54750174 -0.3913666 -0.08840872 0.41638768
-1.8746903 -0.5872271 0.97024226 -0.45578945 0.16127399 0.33357084 -0.5968668 0.3750985
0.027986784 0.05263383 0.20341384 -0.033672053 0.051284604 0.009494671 0.17984574 0.15248388
-1.0860088 0.08637675 -0.09776751 -0.4338184 0.3233252 0.31758368 0.07846029 -0.1704641
0.03141028 0.04367669 -0.13130581 0.07320791 0.11940555 0.13387528 0.17474204 0.061632056
-1.0314265 0.052658644 0.16498776 0.28673664 0.3459572 -0.082616255 -0.20250557 -0.15376778

rnn.linear_z.bias f4 [16]
00000000: 36c5 2ac0 2ecd 22c0 8e4d d0bf c554 debf
00000010: 11a0 07c0 2cb2 15c0 bf3a 24c0 375e 0ac0
00000020: 3918 16c0 52e3 edbf ece7 e4bf 9056 e6bf
00000030: 7cae a6bf b617 2ac0 2156 5bc0 b0db 11c0
-2.6682868 -2.5437732 -1.6273668 -1.736962 -2.1191447 -2.3389997 -2.5660856 -2.1620004
-2.3452284 -1.8584998 -1.7883277 -1.7995167 -1.3021998 -2.6576972 -3.427132 -2.2790337

mlp.0.weight f4 [128, 16]
00000000: 2199 e7be fcdb cabe dc8a c6be 2cef 6ebe
00000010: c4e0 cf3c fd62 d6be 8889 b7be 6421 38bd
00000020: 4a01 c9bc 8938 c7be f585 c1be afe1 b6bd
00000030: c02e abbe 6e85 54be 5c07 173e 9dd6 22be
00000040: 6a01 9d3c f493 653c a9e5 5bbe 9d3e a3be
00000050: 310f d8bd e5b9 cebd 3f45 c33d 23cf 83be
00000060: e1a3 c13c e8d2 b4be 840c 69be 15f8 97be
00000070: d69d 88be d471 adbe 7720 9e3c 042b f9bd
00000080: 3bd3 833d 881e 88bd 5f7d b0bb c073 f5bd
00000090: 0368 6ebe 80e7 043d 76ca 0c3c e300 193e
000000a0: 68dd 99be eea3 873d 05e5 65be f8bb 62be
000000b0: a3ec 3ebe 664d 2b3e 150f 5dbe 6220 db3d
000000c0: 9c85 843d b7c5 2bbe 386b 54be 489e a1bd
000000d0: cd97 0ebe bc58 66be 20b8 f0bd d35d f53d
000000e0: f241 a83d b626 0f3d 9bef f2bd d769 97be
000000f0: c581 bf3c 6917 073e 6ecf a0bc 19ce fc3d
00000100: bddd 85bd a505 23be 44cb a63d 6e15 b2bd
00000110: 97e5 43be 05ec d0bd 97cd 3fbe cf5b 38be
00000120: 69b9 e8bd 889a 01be 66d2 333c 8bc6 21be
00000130: 75ce f1bd 7af3 5f3d 64c8 babd 3bf6 bb3c
00000140: 5739 34bd 2755 4cbe 7846 bc3d f47e 3fbd
00000150: 1394 bfbd 5ad7 20be ed97 f5bb 5bf5 323d
00000160: b78f 1dbe c6ab 35be b3ea 46be f550 23be
00000170: 122e 29be a5c9 58be 39a3 a63d 4008 c7bd
00000180: beb9 65be d406 b33a 6ef7 273e 5934 e0bd
00000190: 8134 323c 7677 043e e527 73be ab09 cd3d
000001a0: 5729 30be 418c 75be 234f ae3d 44ab 953c
000001b0: e2a4 41be c875 d3bc b925 5cbe 6869 803b
000001c0: 56e0 e8bd 57a0 06be 319e b5bc 082e 743d
000001d0: 8975 32be edf9 21bd f46b 70bb 9155 603c
000001e0: 562c 31be beaa e7bd 2b88 c2bd 5522 823d
000001f0: 209d 2fbe f52d 77bd 481e 1ebe 00fd 07be
00000200: 4b90 ab3d 00e0 7f3d 64b0 903e 18ec cfbe
00000210: 7848 97be 81dd 04bf 1038 8f3e db63 10bf
00000220: e032 153d 09a7 703d 8cb5 533e c4b6 fc3b
00000230: faea 8b3d 3599 543f bcbe ac3d d50b cc3d
00000240: 9e5f c5be 52ee 933a f5af 263e 8fe0 0cbe
00000250: b235 a5bd 87cd a9bd dd09 61be c830 e6be
00000260: 3b8a 77be f93c c7be 6c98 afbe 8a18 aebe
00000270: e507 95bc 7864 79bd 5dfd e2bd 1561 e9bd
00000280: 1b46 92bd 3e5a 5d3c c67b 41bd 0dbf f8bd
00000290: 47fc 4abd fc05 ebbd 7f29 ac3d d130 cabd
000002a0: 780a b53d a49b 1fbe f4e4 38be 5397 68be
000002b0: 7e6f 43be 1763 d93d fb38 aebd ba3c 1dbe
000002c0: a76c b2bd f503 f0bd e82e 0f3e 8307 9abe
000002d0: 3193 8e3d e335 133f c30b 0c3e 21d2 f83e
000002e0: 936a e6bd 0235 6dbe 39c4 08be 0542 4bbd
000002f0: 1f37 e1bd eba4 363f 2fa2 1abe 4557 23be
00000300: 88e2 aabe 162b a2be fb60 533f a08a 0d3f
00000310: 69bd b73e f700 473e 34c5 383f 0de5 a13e
00000320: 38fb ddbe a0ed 733f fd25 22bf 0fc7 f4be
00000330: 0917 35be 226f ccbe f3fd 2cbf 12d5 7bbf
00000340: 5626 5ebe 9d83 babe c77a 38be 84a3 c5bd
00000350: 8934 d0bd fed2 e5be 5d71 a9be 3c73 34be
00000360: ac1b b9be f0b2 76be 2be0 fbbd 6d49 3cbe
00000370: 6361 83be ec9b 52be 6798 a0be 5e3e a5be
00000380: b962 4c3e 695c b43d 41f1 0ebd 65ac d93c
00000390: c307 80bd 17eb 3e3d bad9 61bd f504 d1bd
000003a0: c513 45bf 9883 bfbd 8b91 ba3d 66f5 223e
000003b0: 33e8 3a3e c21f b53d 9860 29bf 902d 27be
000003c0: 78af 17be 7193 67bc c7b6 0d3d 1c5b 94bc
000003d0: 3f9c 6dbd b9fd 3e3e d2eb 66be f582 f4bd
000003e0: 6766 f93d 04e5 20be aaf9 1ebe c9f7 a5b9
000003f0: 7372 56be d10b 87be a1ac 35be 600f 63be
-0.45234016 -0.3962096 -0.38777816 -0.23333424 0.025375731 -0.41872397 -0.35847116 -0.04495372
-0.024536747 -0.3891032 -0.37797514 -0.089297645 -0.33434105 -0.20754024 0.14748901 -0.15902181
0.019165713 0.014012326 -0.21474327 -0.31883708 -0.105497725 -0.1009405 0.09534692 -0.2574397
0.023637714 -0.3531716 -0.2275868 -0.2968146 -0.2668292 -0.33875906 0.01930259 -0.12166408
0.064367734 -0.066464484 -0.005386039 -0.11984968 -0.23281865 0.032447338 0.008593192 0.14941745
-0.30051732 0.06623064 -0.22450645 -0.22142017 -0.18644957 0.16728744 -0.21587785 0.10699536
0.064707965 -0.16774641 -0.20744026 -0.07891518 -0.13925095 -0.22494787 -0.11753869 0.11980786
0.08215703 0.034949027 -0.11862107 -0.29572937 0.023377309 0.13192524 -0.01963016 0.123439975
-0.06536434 -0.15920122 0.081442386 -0.08695494 -0.1913055 -0.10201267 -0.1873077 -0.18003772
-0.11363489 -0.12656605 0.010975456 -0.15798394 -0.11806957 0.054675557 -0.09120253 0.02294456
-0.043999996 -0.19954358 0.09193128 -0.04675193 -0.09354415 -0.1570715 -0.0074949176 0.04369102
-0.15386854 -0.17741308 -0.19425468 -0.15948851 -0.1652148 -0.21170671 0.08136601 -0.097183704
-0.22434136 0.0013658651 0.1640298 -0.109474845 0.010876776 0.12936196 -0.23745687 0.1001161
-0.1720327 -0.23979284 0.08511188 0.018270142 -0.18910554 -0.025812998 -0.21498765 0.0039188154
-0.11370914 -0.13147102 -0.022170158 0.05961421 -0.17427649 -0.03954499 -0.0036685439 0.013692276
-0.17302069 -0.11311863 -0.09498628 0.063542046 -0.17149782 -0.060346562 -0.15441239 -0.13280106
0.08377131 0.062469482 0.28259575 -0.40609813 -0.29547477 -0.5190049 0.2797246 -0.5640237
0.03642547 0.058753047 0.20674723 0.007712217 0.068319276 0.83046275 0.08434817 0.09963194
-0.38549513 0.0011286235 0.1627806 -0.13757537 -0.08066882 -0.08291154 -0.21976419 -0.44959092
-0.24173824 -0.38913706 -0.34295976 -0.34003097 -0.018192241 -0.06088683 -0.110834815 -0.1139547
-0.07142278 0.013510285 -0.04723718 -0.12145815 -0.049556997 -0.11475751 0.08406352 -0.09872592
0.088398874 -0.15586716 -0.18056089 -0.22713976 -0.190855 0.10614603 -0.08506962 -0.15355197
-0.0871213 -0.11719505 0.13982737 -0.30083856 0.06961668 0.575041 0.13676362 0.48597816
-0.11250796 -0.23164752 -0.13356103 -0.049623508 -0.10996842 0.71345395 -0.1510093 -0.1595126
-0.33375955 -0.31673497 0.82569855 0.5528965 0.35886696 0.19433962 0.7217591 0.31620064
-0.43355727 0.9528446 -0.63339216 -0.4780812 -0.17684568 -0.39928538 -0.67574996 -0.98371994
-0.21694311 -0.36428538 -0.18015586 -0.09650329 -0.1016627 -0.44887537 -0.33094302 -0.17622083
-0.36153924 -0.24091697 -0.12298616 -0.18387385 -0.25660238 -0.20567292 -0.31366274 -0.32274145
0.19959535 0.08806688 -0.034898046 0.026571462 -0.062514804 0.046610918 -0.05513928 -0.102060236
-0.7698329 -0.093512714 0.09109791 0.15913925 0.1825264 0.08843948 -0.66163015 -0.16325974
-0.1481303 -0.014134274 0.03459814 -0.01810985 -0.058010336 0.18651475 -0.22550896 -0.119390406
0.12177735 -0.15712363 -0.15524927 -0.00031655867 -0.20942096 -0.26376203 -0.17741634 -0.22173834

mlp.0.bias f4 [128]
00000000: 1e48 9abe f18a 8cbe 46c0 21be f900 81be
00000010: 4eaa 88bd 5f79 a23d ec20 80be e065 45be
00000020: 92d6 8a3e 92c1 13be 2d49 843d 2076 bb3c
00000030: 7b0a 923e 43b7 b8be 3940 2b3f 23bd d63d
00000040: 27b0 97be 575c c43e 61ee fd3e 2e43 9bbd
00000050: 75ff 7f3e ed49 f8bd c105 2dbe 9f46 23bd
00000060: 4d9b 81be 8b7f 46bc f16f ea3c ca37 e23e
00000070: 9640 aabe e5dd 6c3d 27a7 acbd 70df 79be
00000080: 19dd 613d cfe1 febe fad6 b2be 26cd a53e
00000090: bc0d bf3d 3862 293f d033 0e3f c618 d63d
000000a0: 6b28 5ebe edfd ba3e b7a9 c33d 064a 8b3d
000000b0: fd45 bd3d 877b a3be 2922 8a3c 45bc 8bbd
000000c0: e9de c13e 059d 49be 2ed5 4fbe ffb9 e0bd
000000d0: bd7d 9dbe d191 98be e481 b9be 1089 203f
000000e0: 2251 49be 6123 4abe 1547 e4bd e376 5f3e
000000f0: 0ce6 92bd e6f0 9b3e ef4d 05be 86a8 34be
00000100: c4fd e9be 558c 34be 03c9 3ebe a0ff 5abe
00000110: 2e41 c2bd e365 8a3d 1416 073e eecd 03bc
00000120: f0c9 75be 4144 84be 9a52 8bbe 9333 f23d
00000130: 017d f7bd cf4e f73d 28f6 02bf a62e ea3d
00000140: 2a86 0bbe 2caf 6fbe 65f6 a5be c382 cabd
00000150: a1a2 8fbd dcfb 383d 20a9 4cbe 11e0 3dbe
00000160: 5df0 40be 19d6 45be 5530 52bc 47ba f6bd
00000170: 060e c9bd 0af0 9cbe ed10 aa3c a3b6 183e
00000180: f4ed 93be 2675 e33e 0853 88be b8cd 0f3f
00000190: 6ad8 1dbe e868 6fbe f489 213e cb43 83be
000001a0: 6d56 343c e0e0 27bc ce23 5dbd 0d56 1ebd
000001b0: a148 a83d 2b2b 89be 422b 8c3e f42a c83e
000001c0: 2202 b5be abad a0be a5f0 983e f2fc 153e
000001d0: 10c7 2dbe 539e 76be a5b1 873d cf2c 23bd
000001e0: dd0b 5bbe e772 d53b 70cb 2abe 605c cdbe
000001f0: cc66 74be 8974 b2bd 4a63 b73e 81d6 b9bd
-0.30133146 -0.27449754 -0.15796003 -0.25196055 -0.06673108 0.07933306 -0.25025117 -0.19277143
0.2711683 -0.1442931 0.0645927 0.022883475 0.2852362 -0.36077318 0.6689487 0.10485294
-0.2962658 0.383517 0.4959593 -0.07581173 0.24999793 -0.12123475 -0.16896726 -0.03986227
-0.25313798 -0.01211537 0.028617831 0.4418319 -0.332524 0.057828803 -0.08430319 -0.24401641
0.055142496 -0.49781653 -0.3492964 0.32383078 0.093287915 0.66165495 0.5554781 0.10453944
-0.21695106 0.36521855 0.09553855 0.06801228 0.09241865 -0.3193018 0.016861992 -0.06823019
0.3786538 -0.19688804 -0.20296165 -0.10972976 -0.30759993 -0.2979875 -0.3623191 0.6270914
-0.19659856 -0.19740058 -0.1114637 0.21822695 -0.07172784 0.30457228 -0.1301801 -0.17642412
-0.4570142 -0.17631657 -0.18631367 -0.21386576 -0.09485088 0.067577146 0.13192016 -0.008044703
-0.24002814 -0.25833324 -0.27211457 0.11826243 -0.120843895 0.120755784 -0.51156855 0.11434679
-0.13625398 -0.23406667 -0.32414547 -0.09888222 -0.07013441 0.045162067 -0.19986391 -0.18542506
-0.18841691 -0.19319953 -0.012828906 -0.12047248 -0.09817128 -0.30651885 0.020760024 0.1491342
-0.2889248 0.44425315 -0.26625848 0.56173277 -0.15414587 -0.23379862 0.15775281 -0.2563766
0.011006934 -0.0102464855 -0.053989224 -0.038656283 0.08216978 -0.26790747 0.27376753 0.3909527
-0.3535319 -0.31382498 0.29871097 0.14647272 -0.16970468 -0.24083833 0.0662568 -0.039837655
-0.21391244 0.0065139416 -0.16679168 -0.4010954 -0.23867339 -0.087136336 0.3581794 -0.090741165

mlp.2.weight f4 [128, 128]
00000000: 6112 a03e 20e5 4bbd f7fb 4a3d dad5 cf3d
00000010: aa33 803a ad59 823d f08c 033d 0e59 54bc
00000020: d8eb d2be 1b08 013e 1071 353a f813 dc3d
00000030: 5c51 58bd 30a4 c63d 1b79 b0bd 767f 8b3d
00000040: 2b7c ed3d a0ae 90c0 412b 68bc 693d 463d
00000050: 3200 f6bd fd83 953d bc9f b93d a86d debc
00000060: d8d8 90bc c93b b9bb 5bc4 b0bc 4f66 b2be
00000070: dd69 91bc a811 3f3c 51c6 d03c 08e9 853c
00000080: d04f f63c 19ab df3c 5a49 1a3d d3a3 80bd
00000090: 9548 643d c784 2ebe e25d 703e e160 8cbf
000000a0: 00bf de3d da0c a73e 048c bb3c e235 4f3d
000000b0: 5b30 85bb d348 1d3c dc22 94be 152d 5c3d
000000c0: b64e 9ebe 9e74 cc3d 87ef aab9 e2ee 01bd
000000d0: 95ca f0bc a6c3 173e 499d 823d 7e7f a4c0
000000e0: 7f1e 25bc 504d 8d3a 6f82 d23c d52a 2ebf
000000f0: c682 393d 1e89 7abe 83db abbd 7d8d 883d
00000100: 62c9 4a3d 974d d33d 7a47 4b3b 0241 e9bd
00000110: 5a98 89bd 93ac d53d 3446 c83d 0d1b 6b3d
00000120: 6f68 bc3d d625 79be b804 9cbc 617b a33d
00000130: efc6 0e3d 0610 0c3e fbe2 cc3c f331 31bc
00000140: 490b f0bd 26d7 29ba 001d 13bd 865b 073e
00000150: ab8e 8e3d 9c5c 2fbd 5e4b 8bbd d57c f63d
00000160: 7829 84bc 5552 333d a9f7 ff3d 49ed 18bb
00000170: eb41 503d ae66 69bb 719a bc3d 2ff3 253d
00000180: f575 b13d 9c90 71be 117c 783d 8052 033e
00000190: 672d d43c 36da 94bb bd99 deb9 5900 af3c
000001a0: 7927 6c3d 4fdb 013e cfba e33c 4f17 d53b
000001b0: 3a78 d83c 4abd ac3d 3b6f 7cbe afb1 adbd
000001c0: 3976 da3e d93d 4ebc c485 713d d6a5 7b3d
000001d0: df36 cb3d f44d a73d b894 42bc a566 e7bd
000001e0: 181b 03be bc9b 23be 89ad d0bb e9ca e73d
000001f0: 50ec 9a3d 0ed4 0c3d f656 43be 2180 6c3d
00000200: 41a9 fbb9 f0cc 74bb 14e5 8cbd f452 a6bd
00000210: a6fd 4fba ed45 22bd f538 35bd 96f1 42ba
00000220: 7a55 1ebd 85b6 a0bd 41bf 1b38 1202 cfbd
00000230: 35fa 48bc f60c 3fba 4a32 11bc 4452 3c37
00000240: 1019 85bc c28a a4bd 8276 c5bc 8c3e d93c
00000250: 3b36 353c 6965 e239 a704 ccbc ea84 62bd
00000260: 2d80 2439 75d2 a6bd 1b70 19ba f89e d2bd
00000270: fd09 09be 976e 12be 32b5 debc 7510 1eba
00000280: 7f36 12be d626 613b 824a 213c b449 8abd
00000290: acec afbb 2f6c 6cbd ea75 a6bd 662a babd
000002a0: 81cc 76bc 8cf3 12be daab 4cbd 2b38 05be
000002b0: 5f34 b439 9c30 073a d20b 89bd 708a ccbd
000002c0: 17f1 aebd 93ca 6239 85aa 3b3a d882 49bd
000002d0: 0cd9 40bc b3f5 9ebd d900 2ebd ece0 fbbd
000002e0: 3b01 ddbb f1b5 7abb 4fad 85b9 2c57 c5bd
000002f0: 82e6 80bd 0382 8dbb ac2a a3b8 91fc e2bd
00000300: 24a8 cab9 d95c c9bb a4e9 feb9 00bb 5dbd
00000310: 8a29 6d39 4145 c2bd 1700 9f3c 64e4 bebd
00000320: 1b98 3dbd db7a d339 4498 8dbc 7994 e1bd
00000330: 12a5 1fbd 9b66 bdbd 06d1 1aba 5d02 eebd
00000340: 326f 9fb9 a349 ea39 430f cdbd 7b94 0ebd
00000350: 71a4 a938 76ea a5bd 5d61 4eb9 b976 bfbc
00000360: a31c 153a e9fc 0dbe b581 a43c c16e d0bd
00000370: d298 82bd 5e02 2cbc 7b42 eebd d8a9 06be
00000380: 1b63 3cb9 b429 da3c eb25 3ab9 dd2f 4fbd
00000390: a592 d7ba 70c9 b2bd a6c9 b8bd da0d a6bd
000003a0: a1e6 9bbd 56f4 53bc af33 1a3a 86a1 17bd
000003b0: d5a8 c9bd 3e37 d139 0975 59bd 178e efbd
000003c0: 6a69 09be 903a 94bd df3f 2abd fc96 cbbd
000003d0: 2367 3b3c 5529 12be c6a0 17bc 6d05 f2b9
000003e0: 2f4f 9fbd a84c d13c 42a2 9ebb d4aa 8cbc
000003f0: aaf7 ebbc 6159 9ebc 07a4 f7bd 9c53 29bd
0.31264022 -0.049779058 0.0495567 0.10148211 0.0009781022 0.063647605 0.03211683 -0.012960685
-0.4119556 0.12600748 0.00069214497 0.10745996 -0.052811965 0.09699285 -0.08616849 0.068114206
0.11595949 -4.5213165 -0.014170469 0.04839841 -0.12011756 0.073005654 0.0906367 -0.027151898
-0.017681524 -0.005652879 -0.021578005 -0.3484368 -0.017750675 0.011661924 0.02548519 0.01634647
0.030067354 0.027303265 0.03766761 -0.06281247 0.055733282 -0.17042838 0.23473313 -1.0967065
0.10876274 0.32626992 0.022893913 0.050588496 -0.0040646023 0.009599882 -0.28932846 0.05375393
-0.30919427 0.099831805 -0.00032603389 -0.031721957 -0.029393474 0.14820728 0.06377656 -5.140563
-0.010078072 0.0010780487 0.025696961 -0.68034106 0.04529073 -0.24466369 -0.08391478 0.06667612
0.04950846 0.103175335 0.0031017945 -0.113893524 -0.06718512 0.104333065 0.09779015 0.057398845
0.091996066 -0.2433084 -0.019045219 0.07982517 0.034857687 0.13677987 0.025010576 -0.0108151315
-0.117209025 -0.0006478898 -0.03591633 0.13218507 0.069608055 -0.04281293 -0.068014845 0.120355286
-0.016133055 0.04377969 0.12498409 -0.0023334792 0.050844114 -0.003561418 0.09209145 0.04051512
0.08665077 -0.2359032 0.060665194 0.1282444 0.025900556 -0.0045426143 -0.00042457684 0.02136247
0.05765483 0.12681316 0.027799038 0.0065030227 0.026424516 0.084345415 -0.24651806 -0.08481156
0.42668322 -0.012587988 0.05896546 0.06143745 0.09922575 0.08169165 -0.011876278 -0.11298875
-0.12803304 -0.15977377 -0.0063683433 0.11317999 0.07564604 0.03438192 -0.19076142 0.05773938
-0.00048000555 -0.0037353598 -0.06879631 -0.08121291 -0.000793422 -0.039617468 -0.04424377 -0.0007436512
-0.038655736 -0.07847313 3.7133e-05 -0.10107817 -0.012266685 -0.0007288003 -0.0088620875 1.1224827e-05
-0.016247302 -0.080342785 -0.02410436 0.026519082 0.011060293 0.00043181636 -0.024904562 -0.055302538
0.00015688008 -0.0814561 -0.0005853192 -0.10284227 -0.13382716 -0.14299999 -0.02718601 -0.0006029674
-0.14278601 0.0034355423 0.009844424 -0.06752339 -0.0053687897 -0.05772036 -0.08127959 -0.09090118
-0.015063406 -0.14350718 -0.049968578 -0.13009708 0.00034371295 0.00051570847 -0.06691708 -0.09987342
-0.08542078 0.00021628504 0.0007158893 -0.049197048 -0.011770498 -0.07761707 -0.042481277 -0.1229876
-0.0067445314 -0.0038255418 -0.00025496862 -0.09635767 -0.06293966 -0.004318477 -7.780394e-05 -0.110833295
-0.00038653717 -0.0061451015 -0.0004862073 -0.054133415 0.00022617556 -0.094858654 0.019409223 -0.09320906
-0.046287637 0.0004033659 -0.01728452 -0.11014647 -0.038975783 -0.09248086 -0.00059057807 -0.116215445
-0.0003040969 0.00044686822 -0.100126766 -0.03480957 8.0891776e-05 -0.081013605 -0.00019681962 -0.023372041
0.0005688166 -0.13866009 0.02008138 -0.10177375 -0.063768044 -0.010498611 -0.11633774 -0.13150728
-0.00017965997 0.026631214 -0.00017752468 -0.050582755 -0.0016446902 -0.087298274 -0.090228364 -0.08108111
-0.07612348 -0.012936672 0.0005882335 -0.037019275 -0.09846655 0.00039904745 -0.05309013 -0.11697023
-0.13419119 -0.072377324 -0.04156482 -0.09940907 0.011438164 -0.1427358 -0.00925464 -0.0004616188
-0.07778775 0.025549248 -0.00484112 -0.017171301 -0.028804619 -0.019329729 -0.120918326 -0.0413395

mlp.2.bias f4 [128]
00000000: 9502 683e 2ba3 82bd adaa b9bd ea82 95bd
00000010: 9f61 ad3e 7c8c 3cbd 970f 6ebd f849 15bd
00000020: 4cd0 dfbd 659c 60bd bb5f 9abd 5ffd 9d3e
00000030: 971c 173f 2a47 cf3d dee5 993e 1a6a 433e
00000040: 0b17 f53e a05c b9be 7372 f6bd 7aa3 23be
00000050: f57d 8bbc 3717 83bd 6882 b1bd f78c 86bd
00000060: 7928 87bd cc33 9fbe 159e 8f3e 464a 4dbd
00000070: 0e0e 943e 0b1a b0bd 8f9d ef3e 6bd0 103d
00000080: 96fc 77bd df36 61be 15bf af3e 0a04 08bd
00000090: 9cd0 613e a180 7fbd 9acb 343d f784 69bd
000000a0: e403 13be cca6 04be 4cfa 45be e397 61bd
000000b0: 1b73 b03b 587b 8cbd 0042 0dbe c674 cf3b
000000c0: f3ba 32be eb13 58bd 5919 d0bc e53a bbbd
000000d0: 37b8 17be 01b5 34be 283b 55bd b7f4 e53d
000000e0: 2d01 163d 27b3 dbbd 8ede b4bb 9dd3 abbd
000000f0: 604b 09be 4fb8 023e 984d b5bc 7b21 c8bd
00000100: 5bd7 e1bd f92a 46be a087 81bd b35b 42bc
00000110: f0a2 b23e ff2d c03d 81a3 f3bd d6c2 c13e
00000120: 7516 b53e 373e 10bd e57e fdbd e5cf 123f
00000130: 58b8 0ebe 7332 123c af41 903e 8374 0bbe
00000140: 82e9 6eba df0e 8bbd d43b abbd 1d4b f2bd
00000150: f37b edbd 95c7 eebc e290 dbbd b193 813c
00000160: 46ec 48bc 8e46 e1bd 2ad0 8e3e 6dc9 1f3f
00000170: 6bf8 fb3e fdd7 e4bc fed1 07be ccc4 3cbc
00000180: 588d 82bd aa4c 8cbd 4282 993e 572a 13be
00000190: 0679 92be b53b bf3e a862 09bd ed2d 6dbe
000001a0: 2104 003e b759 f03d 1855 7ebb 1671 96bd
000001b0: e97f 9dbc fae5 033f 4019 bbbd 94dc 9bbd
000001c0: e24a 423c 1b37 4abd 8ea1 16be 7b55 163c
000001d0: 0066 d2be 0f71 a2bd 95e6 db3e 8262 103e
000001e0: 4c9c 00bd d745 e23e aa31 713c 20e3 c93c
000001f0: 5c59 433e d98a 40bb 2790 fbbd 8dfd a9bd
0.22657235 -0.06378778 -0.09065757 -0.073003605 0.3386354 -0.046032414 -0.058120336 -0.036447495
-0.10928401 -0.05483665 -0.075377904 0.3085737 0.59028 0.10120995 0.30058187 0.19083443
0.47869143 -0.3620348 -0.12033548 -0.1598033 -0.017027834 -0.06400912 -0.08667451 -0.06569856
-0.065995164 -0.31094205 0.28050295 -0.05011966 0.28916973 -0.08598717 0.46799895 0.035355013
-0.06054362 -0.21993588 0.34325472 -0.033206977 0.22052234 -0.06237853 0.044139482 -0.05701157
-0.14356953 -0.12954253 -0.19333762 -0.05507649 0.0053848154 -0.068594635 -0.13794708 0.006331059
-0.17454128 -0.05275337 -0.025402712 -0.091420926 -0.14816366 -0.17647173 -0.05205837 0.11228316
0.036622215 -0.1072753 -0.0055196946 -0.083899714 -0.1340766 0.1276562 -0.022131726 -0.09772011
-0.11027404 -0.1935233 -0.063246965 -0.011862683 0.34889936 0.09383773 -0.1189642 0.3784396
0.35368696 -0.035215583 -0.12377719 0.5734847 -0.13937509 0.008923161 0.28175113 -0.13618664
-0.0009113775 -0.06789946 -0.08361021 -0.11830733 -0.11595907 -0.029147903 -0.107209936 0.015817495
-0.012263363 -0.10999785 0.27893192 0.62416726 0.49212965 -0.027935022 -0.132637 -0.011521529
-0.063746154 -0.0685056 0.2998219 -0.1437162 -0.2860796 0.3735024 -0.03354135 -0.2316205
0.12501575 0.11735862 -0.0038808044 -0.07345788 -0.019226031 0.5152279 -0.091356754 -0.07610431
0.011858674 -0.04936896 -0.14710066 0.009175654 -0.41093445 -0.079317205 0.42949358 0.14100078
-0.031399056 0.4419391 0.0147213135 0.024644434 0.19077057 -0.0029379635 -0.12283354 -0.08300314

mlp.4.weight f4 [5, 128]
00000000: 5aeb 273f db0d 083e 1d26 263d e507 6bbe
00000010: f31c 933c 5e70 87bd 793d 29bd d52d aabd
00000020: f682 59bd 25e6 90bd b835 12bd 515f 903d
00000030: f2d2 04bc a3b4 953c a580 333d 13c7 043f
00000040: 561e 803e 8550 91bb 183c d2bd 34fa d4bd
00000050: 221b 8dbb f10f e2bd ef1f 9d3c 5a52 0abd
00000060: d41c 64ba 976c 803c 9472 133d bc47 3c3d
00000070: 2a7e e53d 1a8b 18bd 8503 0abe b515 293c
00000080: 4fa4 cf3a f6dd 133c 2bb2 7b3f 4a64 f5bd
00000090: d0eb 663f e091 f8bd 2011 f13d 453a 823c
000000a0: 10cb 573c 6d0d 803c 866b 6cbf c5e2 08bc
000000b0: 5058 d5bd 56af 36bd 1b2d d7ba abe4 ebbd
000000c0: d6ad 973e bec5 cc3c ebb5 cdbe 0ca9 763d
000000d0: ee56 aabd cde4 b5bb 46ec daba 237c b5be
000000e0: 9cec bb3d 1a6c 8d3d 842b 5cbd c498 46bd
000000f0: 8791 7d3d 1e0e bbbd e03d f43d 6ae3 27b9
00000100: 1852 863c 47e5 eb3d 966b e53b 6277 04be
00000110: e9f1 2fbe 086f 703e bd13 4d3b 79d4 40be
00000120: 1391 7dbe 30f8 60bd c762 24bd a317 17be
00000130: 3bd3 f3bd ec16 923c 80cb 433e adb1 7fbc
00000140: d4ed a43d 3ed9 cb3c ff65 883c fdf5 643d
00000150: 2ed2 95bd 69f6 76bd 3135 b9bc cbf8 fbbd
00000160: f2ce 28bd 182f 14bd 024b 46bc e199 24be
00000170: a0b0 5ebe 28ca e0bc 6f1e 04bd 16f9 0cbd
00000180: 1d5d 92bd 747d 5dbc bd40 f1bd 092d 083d
00000190: a93e 823e a19f d23d 9aca c9bd cb4e 623e
000001a0: f08c 2d3e 5757 53be 01a1 a03e c944 1e3c
000001b0: 26a9 d7bd bbce 283d df91 87bc 8666 92bc
000001c0: 26d6 e7bd 79bb a8ba b4ce 43bd 59af b3bd
000001d0: 5366 b1bc 81f8 28bd 652c edbd 19bd 293e
000001e0: da1f f33c b62f febd 0757 9dbc 98d8 f63c
000001f0: dc0f 7a3c 4ae4 683a ca17 55bc 2a97 c3bc
00000200: 32e8 a0bd 15d0 e7bc 6ff8 733c e2d4 cabc
00000210: b1a8 f23e 781d 723d 20d5 0dbd f49e c43c
00000220: 1a19 383c aee5 96bd db79 b83c 9641 6d3c
00000230: b7f8 19be 36cc 253e 88a2 5c3e ffd8 983f
00000240: 8303 0bbd 077b 85bd 7ee7 2abd 5c3b dbbd
00000250: 3de5 bb3d e3a6 2dbd bb28 67bd 37b2 533b
00000260: 3e57 b53a 0d02 533d 8744 86be b445 cfbd
00000270: 7d4a 95bd af9d fe3b afcc c33c aaaa ab3d
00000280: 4e61 02bc 1543 c63c a548 ebbd 7c19 4dbd
00000290: 7a85 d63e 9e88 37bd e40a 253e f048 96bd
000002a0: ced4 623d eaa3 a33d db31 d5be 9598 0dbd
000002b0: a953 bcbd a404 34bd 8553 babc 9c03 f2bd
000002c0: 342c bd3e f696 babd da7b e03d 8ebe 90bc
000002d0: 1e27 b63d 35a3 06bc f062 24bc ff6a e33b
000002e0: 65b4 a53f b2d9 7b3d afb4 0abe a9b4 01bd
000002f0: 6733 0a3e b5ba 8cbd 08bd ce3b 616e 59bd
00000300: 14b2 83bc b4c6 8cbd 2bdd e03c 34e6 8cbd
00000310: 1d48 cdbe 13b5 e73e daaa 6b3c 46eb 86be
00000320: ff73 373d 73ba 9dbc 3227 89bd eb74 9bbd
00000330: 6ae6 73bd 5a1b b6bb 73b9 96bd 6b1e c13b
00000340: 3029 89bd 62ac 8d3d 0ecd 7c3d 1172 8bbd
00000350: 1dfb ab3c 4014 80bd 6f89 093c 4fb5 c63b
00000360: f13a 6a3c bcca be3c 5607 e7be 0178 d13d
00000370: 4a89 81bd 4fd0 813d 1d33 513c fd4f 383c
00000380: 5ec3 d4bb eb68 25bd f548 71bd 5e9a b73c
00000390: 17c9 07bd ef42 143e 4768 0f3d 0e60 2cbc
000003a0: 8172 863e e8c5 973d e702 373e 04d2 bdbd
000003b0: 79ce 28bb 741f ea3d ddbd 083e 8bd1 423e
000003c0: 3ff9 59bf ee9a 99bc 9d9e c6be cfa6 edbc
000003d0: e580 35bd acae 82bd a771 2f3e 0944 573e
000003e0: 9d6d 40be 7613 edbb b452 d4bd 4ba2 453c
000003f0: cbcb 71be 0ecb 283d 4d09 17bd dc14 bcbd
0.65593493 0.13286535 0.04056369 -0.2295223 0.01795814 -0.06613229 -0.04131839 -0.08309523
-0.05310341 -0.070751466 -0.03569576 0.0704943 -0.008106934 0.01827461 0.043823857 0.51866263
0.25023144 -0.0044346475 -0.10265368 -0.10399285 -0.004306213 -0.11038197 0.019180266 -0.033769943
-0.00087018055 0.01567678 0.035997942 0.04596685 0.112057045 -0.037242033 -0.13477905 0.010320117
0.0015841814 0.009025088 0.9831874 -0.11982019 0.9020357 -0.121371984 0.117708445 0.015896926
0.0131709725 0.015631402 -0.9235157 -0.008354847 -0.10417235 -0.044600807 -0.0016416641 -0.11518224
0.29624814 0.024996635 -0.40177855 0.06021981 -0.08317362 -0.005550957 -0.0016702495 -0.3544627
0.09175989 0.06905384 -0.053752437 -0.048485532 0.061906364 -0.09133552 0.11925864 -0.0001601108
0.016396567 0.115183406 0.0070013506 -0.12936166 -0.17182125 0.23479855 0.0031292283 -0.18831052
-0.24762373 -0.05492419 -0.040133264 -0.1475511 -0.119055234 0.017833196 0.19120598 -0.015606326
0.080531746 0.024883863 0.016650198 0.055898655 -0.07315479 -0.06029359 -0.022608371 -0.12303313
-0.041212983 -0.036177725 -0.012102844 -0.16074325 -0.21747065 -0.027440146 -0.032255586 -0.034417234
-0.07146666 -0.01351868 -0.11779926 0.033246074 0.2543843 0.10284353 -0.09853096 0.2210037
0.16948295 -0.20638786 0.31372836 0.009659954 -0.105303094 0.04121278 -0.016549049 -0.017871153
-0.113201424 -0.0012873254 -0.04780455 -0.08773679 -0.021655237 -0.041252617 -0.11580733 0.16576041
0.029678274 -0.12411444 -0.019206537 0.030132577 0.01526257 0.00088841154 -0.01300616 -0.023875792
-0.07856788 -0.028297463 0.014890774 -0.024759714 0.47394326 0.059110135 -0.03462708 0.024001576
0.011236453 -0.07368027 0.022519043 0.014480969 -0.15036283 0.16191182 0.21546376 1.1941222
-0.033938896 -0.06517606 -0.041724674 -0.10704681 0.09174583 -0.042395484 -0.056435328 0.003230227
0.0013835204 0.051515628 -0.26224157 -0.10120717 -0.07289598 0.007770262 0.023901312 0.08382161
-0.00795777 0.02420191 -0.11488465 -0.050073132 0.4189871 -0.044808023 0.16117436 -0.073381305
0.055378728 0.079902485 -0.416396 -0.03456934 -0.091956444 -0.04394974 -0.022744903 -0.11817095
0.36947787 -0.09110825 0.10961123 -0.017668989 0.0889418 -0.0082176225 -0.010033354 0.006940245
1.2945677 0.061486907 -0.13545488 -0.03166643 0.13496171 -0.06871549 0.0063091554 -0.05308378
-0.016076125 -0.06873837 0.027449211 -0.06879845 -0.4009408 0.45255336 0.014383996 -0.26351374
0.044788357 -0.019253945 -0.06696929 -0.0759066 -0.05954591 -0.00555746 -0.073595904 0.0058935187
-0.06697309 0.06917645 0.061718993 -0.06808866 0.020993764 -0.062538624 0.008394583 0.006064094
0.014296279 0.02329003 -0.45122784 0.10227967 -0.06325014 0.0633856 0.012768534 0.011249539
-0.006493016 -0.04038326 -0.058907468 0.022412475 -0.03315076 0.14478658 0.035011556 -0.010520948
0.26259235 0.074107945 0.17872201 -0.09268573 -0.0025757833 0.114317805 0.13353677 0.19025247
-0.85145944 -0.018750634 -0.38792887 -0.029010205 -0.044312377 -0.06380972 0.17133199 0.21022047
-0.18791814 -0.007234986 -0.10367337 0.012062619 -0.23612897 0.041209273 -0.036874104 -0.09183666

mlp.4.bias f4 [5]
00000000: eaf2 c4be ca0b 12bd 383e 40bf ea50 d33e
00000010: a570 e83e
-0.3846658 -0.035655774 -0.7509494 0.4127267 0.4539844
