EUSIPCO/CoherentSourcesModified/saved_models/da_music_10.0dB_0.pth (torch, 46958 bytes, 18 tensors)

bn.weight f4 [16]
0.7563028 0.9597426 1.7444795 1.4031348 1.4516982 1.3506448 0.9740597 0.96862155
0.9230453 0.7545377 1.035681 1.4070171 1.1469696 0.91781265 1.0428895 0.7387513
00000000: 0f9d 413f b1b1 753f 1b4b df3f ec99 b33f
00000010: 3fd1 b93f eee1 ac3f fa5b 793f 95f7 773f
00000020: b24c 6c3f 6229 413f 3291 843f 2319 b43f
00000030: e6cf 923f c5f5 6a3f 677d 853f ce1e 3d3f

bn.bias f4 [16]
-0.22899537 -0.059996847 0.20228481 -0.3647452 0.18293561 -0.13972534 0.20732364 0.22572021
-0.19777547 0.37126842 -0.26690963 0.022937471 -0.2689071 -0.022542967 0.3410631 -0.2335159
00000000: c37d 6abe 41bf 75bd c023 4f3e e2bf babe
00000010: 7953 3b3e 2914 0fbe a64c 543e 3323 673e
00000020: a785 4abe e516 be3e 61a8 88be 5de7 bb3c
00000030: 31ae 89be 07ac b8bc d39f ae3e cb1e 6fbe

bn.running_mean f4 [16]
-0.0008060078 -0.0010661831 -0.0004796658 0.0009348377 -0.00047709807 -0.0001281947 0.00086194725 -0.00030177418
0.00027484668 0.0014838609 0.0015950553 0.0006169049 -0.0007627262 0.001410978 -0.0026189245 0.0005201326
00000000: 454a 53ba 2bbf 8bba a77b fbb9 e50f 753a
00000010: 0523 fab9 016c 06b9 4df4 613a 7237 9eb9
00000020: 4c19 9039 1c7e c23a 2d11 d13a c9b7 213a
00000030: b0f1 47ba 91f0 b83a 43a2 2bbb 8259 083a

bn.running_var f4 [16]
1.5282831 1.5955302 1.6210395 1.5757155 1.5811645 1.5798037 1.5554838 1.5775012
1.5282413 1.5856217 1.6199142 1.572862 1.5814016 1.572876 1.5557221 1.5776266
00000000: c89e c33f 553a cc3f 397e cf3f 0cb1 c93f
00000010: 9963 ca3f 0237 ca3f 181a c73f 8feb c93f
00000020: 699d c33f a7f5 ca3f 5959 cf3f 8b53 c93f
00000030: 5e6b ca3f 0054 c93f e721 c73f abef c93f

rnn.weight_ih_l0 f4 [48, 16]
-0.09775875 -0.3575453 -0.05308488 0.77456075 0.7232881 -0.048252106 0.22190595 0.44981956
0.4242053 0.16148451 0.6608703 0.28053734 0.7500685 -0.9694093 -0.9013552 -0.43137708
0.47766975 -0.11123691 -0.36055055 -0.43496686 0.30543205 -0.41749325 0.20676236 0.19418898
0.82243264 -0.14194545 0.30897075 -0.41423693 0.6203806 0.58548236 0.12776849 -0.63976294
-0.12835485 -0.39149022 -0.64821076 -0.45167613 0.20944092 -1.177037 -0.8979318 -0.46967998
-0.013947566 1.1737063 0.6641904 -0.18063162 0.28974015 -0.21978492 -0.7007228 -0.8622273
0.5565013 -0.18458906 0.30182427 -0.950925 0.8884283 0.3035489 -1.1892313 -0.021882016
-0.056279816 -0.54260075 0.6206658 -0.07953446 -1.2811295 2.0506763 -0.20329182 0.06267331
0.17529638 1.0199538 -1.0218984 -0.14052375 -0.50296813 0.2695237 -0.2111369 0.47079688
0.2652067 -0.9035199 -0.37190917 0.34020698 0.5248532 1.0021027 0.93153834 0.6267992
0.397292 0.78978646 -0.8598283 0.26400113 0.75888276 -0.7647966 -0.14655033 0.31670743
0.24587935 -0.41128 -0.009590698 1.1446136 -0.3356054 -0.014704987 0.11526658 -0.17785126
0.35711735 -0.06338552 0.7426482 0.7094137 0.41442975 0.65295804 0.33138394 0.34483904
0.53612226 -0.24562746 0.75950074 0.4028076 -0.23309365 -0.2663656 0.36892554 -0.73844165
0.1445525 0.4021771 -0.17763662 -0.48625502 0.25024393 0.41856015 -0.18475227 -0.016044885
0.38040522 -1.141225 -0.30900213 0.9918391 0.1266402 -0.95637625 -0.51295143 0.8336551
0.10730686 -0.26092657 -0.77570194 -0.37103844 0.15984601 0.36945325 0.06793377 -0.056023534
-0.25130078 0.8557202 -0.45268568 -0.31434473 0.9469016 0.37044394 -0.08168556 -0.014927607
-0.13001566 0.41002938 -0.4572646 0.40477154 -0.13857295 0.62508893 -0.23114501 -0.44407296
-0.26102293 -0.25852787 0.3225758 0.39090127 0.20823146 -0.36026895 0.25551975 0.22274838
0.67262477 0.03658419 -0.2296277 0.36250487 -0.008612688 0.47984016 0.086184256 -0.20585665
0.59983927 -1.0559142 0.65045017 -0.6589165 0.33149782 -0.03619948 -0.7127559 0.74599713
0.04400235 0.03917985 -0.59656096 -0.39776516 -0.11361159 0.4878454 -0.042952 -0.18370807
-0.27767396 0.08833018 -0.29996115 -0.63380724 0.71022147 -0.15130214 0.16819917 -0.7095574
-0.047172144 -0.3459696 0.077517115 0.19482711 -0.17285351 0.058354586 -0.5415005 0.7498674
-0.34722003 0.6017173 0.13939007 0.06954352 0.031728186 0.24556747 -0.16037658 -0.8063608
0.0619194 -0.49042395 -0.6158241 -0.4210238 0.48292047 0.44791105 0.24169575 -0.32525337
0.17995721 0.48257124 -0.7436951 -0.8861993 -0.9993516 0.062163074 0.4681463 0.41626817
-0.4095536 0.09790907 -0.15540782 0.73034775 -0.5575399 -0.45749056 1.413614 -0.4508841
0.14198327 0.6937361 0.6523893 -0.20530047 -0.7569353 1.430668 0.11127138 -0.53112966
-0.6413597 -0.12994064 0.6222989 -0.27977464 0.42354453 -0.3342075 0.69678843 -0.04709703
-1.1470447 -0.426291 -0.0959461 -0.024049683 -0.32908326 0.696297 0.3673201 0.8283849
00000000: bd35 c8bd 2d10 b7be 886f 59bd 9d49 463f
00000010: 6929 393f 00a4 45bd 503b 633e c04e e63e
00000020: 7031 d93e 325c 253e cc2e 293f 97a2 8f3e
00000030: 7d04 403f 352b 78bf 37bf 66bf 75dd dcbe
00000040: 2191 f43e 2dd0 e3bd 159a b8be fab3 debe
00000050: 9761 9c3e adc1 d5be 83b9 533e 7ad9 463e
00000060: f28a 523f 265a 11be 6a31 9e3e dd16 d4be
00000070: 43d1 1e3f 2ce2 153f bed5 023e 81c7 23bf
00000080: 746f 03be 6871 c8be 24f1 25bf 1842 e7be
00000090: ae77 563e 26a9 96bf dcde 65bf e579 f0be
000000a0: 5584 64bc 023c 963f 6208 2a3f 7ff7 38be
000000b0: d258 943e 4c0f 61be 9262 33bf eeba 5cbf
000000c0: df76 0e3f ea04 3dbe b688 9a3e d26f 73bf
000000d0: 0970 633f c36a 9b3e bb38 98bf ea41 b3bc
000000e0: aa85 66bd e2e7 0abf f4e3 1e3f f7e2 a2bd
000000f0: 0dfc a3bf 483e 0340 bb2b 50be dd5a 803d
00000100: e580 333e d98d 823f 91cd 82bf 75e5 0fbe
00000110: 85c2 00bf 03ff 893e 4634 58be 4a0c f13e
00000120: 2cc9 873e 154d 67bf e16a bebe 9c2f ae3e
00000130: c85c 063f e744 803f 4c79 6e3f ea75 203f
00000140: db69 cb3e 722f 4a3f b51d 5cbf 282b 873e
00000150: 2446 423f b6c9 43bf 4a11 16be 7a27 a23e
00000160: ccc7 7b3e 4b93 d2be 4e22 1dbc b382 923f
00000170: 79d4 abbe 30ed 70bc e210 ec3d a41e 36be
00000180: 16d8 b63e 44d0 81bd 311e 3e3f 239c 353f
00000190: 2330 d43e 4228 273f 28ab a93e be8e b03e
000001a0: 4f3f 093f c485 7bbe a46e 423f cc3c ce3e
000001b0: 1ab0 6ebe 1261 88be cfe3 bc3e 830a 3dbf
000001c0: 9205 143e 28ea cd3e 60e6 35be 6bf6 f8be
000001d0: f91f 803e 844d d63e b32f 3dbe 9070 83bc
000001e0: 79c4 c23e a913 92bf 8735 9ebe 2be9 7d3f
000001f0: f8ad 013e 13d5 74bf c950 03bf 6c6a 553f
00000200: b3c3 db3d 2b98 85be 6794 46bf c0f8 bdbe
00000210: acae 233e fa28 bd3e dc20 8b3d ef78 65bd
00000220: 7faa 80be 7b10 5b3f 6bc6 e7be cbf1 a0be
00000230: 2568 723f d4aa bd3e c24a a7bd ec92 74bc
00000240: d322 05be 5fef d13e 961e eabe 373e cf3e
00000250: 11e6 0dbe d405 203f 47b1 6cbe 885d e3be
00000260: cca4 85be c45d 84be a828 a53e 3624 c83e
00000270: a13a 553e 2c75 b8be 7cd3 823e 2718 643e
00000280: 2331 2c3f 4ed9 153d 8623 6bbe 3d9a b93e
00000290: 3b1c 0dbc 9cad f53e 5f81 b03d 16cc 52be
000002a0: 118f 193f 3228 87bf e783 263f c0ae 28bf
000002b0: 15ba a93e e845 14bd 2c77 36bf abf9 3e3f
000002c0: cf3b 343d 0d7b 203d 38b8 18bf e0a7 cbbe
000002d0: 31ad e8bd dfc6 f93e 70ee 2fbd f81d 3cbe
000002e0: 482b 8ebe 74e6 b43d 8294 99be 3141 22bf
000002f0: 13d1 353f f3ee 1abe 673c 2c3e 8ea5 35bf
00000300: 9437 41bd ed22 b1be 4bc1 9e3d c280 473e
00000310: 8300 31be 3805 6f3d c79f 0abf 4ff7 3f3f
00000320: d3c6 b1be 250a 1a3f 45bc 0e3e d56c 8e3d
00000330: 6af5 013d 0a76 7b3e c239 24be a96d 4ebf
00000340: 329f 7d3d d918 fbbe a6a6 1dbf 6e90 d7be
00000350: 5a41 f73e 9954 e53e 177f 773e 9c87 a6be
00000360: b446 383e 9413 f73e cd62 3ebf f5dd 62bf
00000370: 82d5 7fbf b59e 7e3d dfb0 ef3e 1a21 d53e
00000380: 02b1 d1be 8d84 c83d 3a23 1fbe 12f8 3a3f
00000390: efba 0ebf 343c eabe 4ef1 b43f 48da e6be
000003a0: 1064 113e b098 313f fc02 273f 493a 52be
000003b0: 83c6 41bf 2120 b73f 40e2 e33d 1df8 07bf
000003c0: 2630 24bf 290f 05be fb4e 1f3f 9f3e 8fbe
000003d0: d4da d83e 3f1d abbe ba60 323f d1e8 40bd
000003e0: 5cd2 92bf d042 dabe 647f c4bd d703 c5bc
000003f0: 9a7d a8be 8540 323f 6111 bc3e 0811 543f

rnn.weight_hh_l0 f4 [48, 16]
0.1516127 -0.8202809 0.07778711 0.38033086 0.30411482 0.14684273 0.18650372 -0.09127933
-0.696198 0.18834664 -0.45762107 -0.29984626 -0.12993616 -0.4805757 -0.43944272 0.06704347
-0.5628793 -0.7780071 0.149872 -0.11160305 -0.17834124 0.23979323 0.33845654 0.8034764
0.6569754 -0.29024068 -1.1283208 -0.3508195 -0.7760583 -1.3377539 -0.28404605 -0.08306045
-0.8461739 -0.11097363 -2.3883476 0.26578265 -0.47256234 -0.4433286 -1.6502708 -0.37289223
-0.23154718 -0.1828505 -0.3047896 0.067975484 -0.10162365 1.0258354 0.4967883 0.038317017
-0.06318862 0.060429677 0.40343893 -0.9762651 0.5350957 0.042258468 0.076403536 0.027420824
0.6126714 0.030142896 -0.07256169 0.2182942 0.26243892 -0.39833224 -0.38339683 -0.16487373
0.924544 0.95970047 0.28565115 -0.09015876 1.1380997 -0.10661946 -0.04980154 0.37864
-0.16084622 0.2796661 0.6291876 0.10967843 1.0277805 -0.11722463 -0.5179089 0.17619827
-0.13027547 -0.71158147 -0.34683377 -0.036851086 -0.48629928 1.1183875 -0.3615134 0.13141829
0.13557492 -0.094640315 -0.5790433 0.6264061 -0.37927917 -0.1541777 -0.5412192 -0.02321777
-0.21646942 0.13168038 0.8416592 -0.5473972 0.55997336 -0.33583432 0.80824375 0.06132352
0.35433653 -0.12136781 -0.049106877 -0.28297797 0.1654793 -0.76870096 -0.21799617 -0.2600123
-1.1964974 -0.6440345 -0.19802225 0.04229191 -0.82590574 0.33476168 -0.35085154 -0.014999848
0.68868434 -1.0443985 -0.7726948 0.52141553 -0.2963551 -0.079142444 -0.042900775 0.20393349
0.072107725 -0.5466493 0.5015222 -0.8823759 -0.05414098 -0.13627227 0.32495117 0.46999678
-0.42652676 -0.31668332 -0.6463261 -0.38398656 -0.9029861 -0.22823286 0.21915574 0.4557251
0.740164 0.48778352 -0.25894004 0.48752895 0.829015 -0.5495251 0.6952626 0.18686086
-0.24773937 0.5275748 0.21108642 -0.74436134 0.44032356 0.16001333 -0.70623684 -0.7458
0.95367545 0.51268756 -0.42173585 1.1172963 0.21362561 0.7513807 -0.053163845 0.18054017
-0.8291362 1.187988 0.2900395 -0.025969455 1.0461558 0.19248122 -1.135409 -0.47322723
0.5374386 -0.40963364 0.29278943 -1.052254 -0.19140883 0.14225058 0.13762783 -0.16557437
-0.22535962 -0.35382688 -0.42767227 1.1936691 -0.32349628 -0.5986855 -0.32327244 0.021326084
-0.6559899 0.28937703 -0.048314374 0.6452269 0.5593798 0.25882852 0.65561604 -0.12105098
-0.17961226 0.77839833 0.060436644 -0.4837761 0.4671927 -0.037809737 -0.5502601 -1.0240866
-0.50651515 0.13681582 -0.46777743 0.7321333 -0.39062262 0.67042094 -0.32347387 0.19653927
0.0046500545 -0.501888 -0.7234808 0.38789335 -0.22287165 0.27012375 -0.31514376 -0.36921167
0.110883765 -0.123450026 0.63685524 0.6576177 0.3204828 0.7625693 -0.006787861 1.3436334
0.098714754 -0.048501898 0.14047556 -0.4814632 0.052357756 -0.2594161 -1.3779869 -0.3059979
-0.5021423 0.027813403 -0.22548862 -2.1757634 -0.55896324 -0.45147976 -0.7309581 -0.9581058
0.28431368 0.09038509 0.05238543 -0.012770398 0.19232577 0.19824032 1.6570374 0.5733878
00000000: 5c40 1b3e eefd 51bf d94e 9f3d baba c23e
00000010: f0b4 9b3e f15d 163e d5fa 3e3e a8f0 babd
00000020: 083a 32bf f1dd 403e 4f4d eabe 7385 99be
00000030: fc0d 05be 050e f6be a3fe e0be 164e 893d
00000040: dc18 10bf 792b 47bf 0c78 193e 2490 e4bd
00000050: 169f 36be 5b8c 753e 2d4a ad3e a1b0 4d3f
00000060: 8a2f 283f 6d9a 94be d16c 90bf 9d9e b3be
00000070: c2ab 46bf 853b abbf 7c6e 91be 991b aabd
00000080: da9e 58bf 2446 e3bd b0da 18c0 aa14 883e
00000090: b1f3 f1be f7fb e2be 133c d3bf bbeb bebe
000000a0: b41a 6dbe 293d 3bbe 620d 9cbe bb36 8b3d
000000b0: 0f20 d0bd 934e 833f 095b fe3e 4ef2 1c3d
000000c0: 0969 81bd 1c85 773d 8c8f ce3e 82ec 79bf
000000d0: 08fc 083f 3717 2d3d 7579 9c3d a3a1 e03c
000000e0: 08d8 1c3f 3cee f63c 399b 94bd 8488 5f3e
000000f0: 655e 863e 34f2 cbbe 974c c4be a9d4 28be
00000100: eaae 6c3f eeae 753f de40 923e 28a5 b8bd
00000110: 40ad 913f 4e5b dabd b3fc 4bbd 1add c13e
00000120: dfb4 24be 6530 8f3e 7012 213f 169f e03d
00000130: 508e 833f 7813 f0bd ad95 04bf 526d 343e
00000140: ef66 05be 342a 36bf 3294 b1be 2af1 16bd
00000150: 38fc f8be 5227 8f3f 4918 b9be 8492 063e
00000160: 27d4 0a3e c8d2 c1bd 2f3c 14bf 265c 203f
00000170: e130 c2be c2e0 1dbe 578d 0abf 3133 bebc
00000180: 29aa 5dbe 39d7 063e fa76 573f 3922 0cbf
00000190: 6a5a 0f3f 7af2 abbe 10e9 4e3f 5f2e 7b3d
000001a0: 996b b53e b08f f8bd 4b24 49bd 7de2 90be
000001b0: 6873 293e 96c9 44bf 633a 5fbe 5520 85be
000001c0: d426 99bf 72df 24bf 58c6 4abe 483a 2d3d
000001d0: 8f6e 53bf e265 ab3e d0a2 b3be ecc1 75bc
000001e0: 9e4d 303f daae 85bf 54cf 45bf 7d7b 053f
000001f0: dbbb 97be 6f15 a2bd b9b8 2fbd f1d3 503e
00000200: 37ad 933d 35f1 0bbf c263 003f 63e3 61bf
00000210: efc2 5dbd f58a 0bbe 0060 a63e 6ba3 f03e
00000220: b761 dabe 5124 a2be a175 25bf e399 c4be
00000230: 192a 67bf e0b5 69be 5d6a 603e cd54 e93e
00000240: 637b 3d3f c3be f93e ca93 84be 659d f93e
00000250: 543a 543f adad 0cbf bbfc 313f 7458 3f3e
00000260: 64af 7dbe 240f 073f 0a27 583e 778e 3ebf
00000270: 1772 e13e 89da 233e f0cb 34bf c0ec 3ebf
00000280: 1324 743f 7e3f 033f c3ed d7be 9103 8f3f
00000290: acc0 5a3e 7c5a 403f 55c2 59bd 86df 383e
000002a0: 4542 54bf fe0f 983f 0f80 943e e5bd d4bc
000002b0: 6fe8 853f cc19 453e 1555 91bf d74a f2be
000002c0: 9395 093f 80bb d1be 7fe8 953e 42b0 86bf
000002d0: ad00 44be 23aa 113e 4fee 0c3e 548c 29be
000002e0: acc4 66be cc28 b5be dcf7 dabe 26ca 983f
000002f0: 4ea1 a5be 7443 19bf f783 a5be 0ab4 ae3c
00000300: f4ee 27bf 3a29 943e 4be5 45bd 972d 253f
00000310: 8433 0f3f 2c85 843e 74d6 273f 94e9 f7bd
00000320: 47ec 37be 1d45 473f 6a8c 773d 80b1 f7be
00000330: e233 ef3e 62de 1abd d9dd 0cbf 4515 83bf
00000340: faaa 01bf 7219 0c3e 8680 efbe 176d 3b3f
00000350: b0ff c7be b5a0 2b3f 5e9e a5be 9741 493e
00000360: 7c5f 983b bb7b 00bf 0a36 39bf f599 c63e
00000370: 7738 64be a94d 8a3e 865a a1be 5009 bdbe
00000380: 0717 e33d 5ed3 fcbd f208 233f a259 283f
00000390: 5216 a43e be37 433f b56c debb 2efc ab3f
000003a0: f62a ca3d eda9 46bd d3d8 0f3e 5882 f6be
000003b0: 1675 563d 30d2 84be e061 b0bf c2ab 9cbe
000003c0: 668c 00bf efd8 e33c 7de6 66be b53f 0bc0
000003d0: 3718 0fbf 5b28 e7be 1220 3bbf 6c46 75bf
000003e0: 9091 913e d11b b93d 1b92 563d ee3a 51bc
000003f0: 0cf1 443e 83ff 4a3e cd19 d43f 8bc9 123f

rnn.bias_ih_l0 f4 [48]
0.52546155 -0.0050687445 -0.019305024 0.16547273 -0.17803787 -0.36347 0.3956928 -0.35079503
-0.15926562 0.617123 0.50263673 0.0060682194 0.45967814 -0.18762821 -0.093822174 -0.33383706
1.1030457 0.5735816 0.9164974 1.4557278 1.1348714 1.1242588 1.147938 0.6440414
0.5933283 0.3400914 0.41795477 0.5081978 1.3356652 0.45987144 1.0125132 1.1916414
0.08944879 0.214933 -0.31236035 0.13375692 0.21434093 -0.10083338 0.17471884 -0.14701886
-0.35433435 0.060279317 0.06877469 -0.5909876 -0.15549909 0.34618562 0.06606204 -0.08100706
00000000: a684 063f b617 a6bb 9225 9ebc af71 293e
00000010: 8f4f 36be bd18 babe 3f98 ca3e 689b b3be
00000020: 8716 23be c6fb 1d3f cdac 003f ead7 c63b
00000030: ef5a eb3e 9c21 40be d725 c0bd b1ec aabe
00000040: 9a30 8d3f 3ed6 123f 939f 6a3f 4a55 ba3f
00000050: 7743 913f b6e7 8f3f a2ef 923f e6df 243f
00000060: 5de4 173f 7620 ae3e 2bfe d53e 4019 023f
00000070: 14f7 aa3f 4574 eb3e 089a 813f b587 983f
00000080: ed30 b73d 6517 5c3e b2ed 9fbe 93f7 083e
00000090: 307c 5b3e bb81 cebd 7fe9 323e 1d8c 16be
000000a0: 506b b5be 72e7 763d bfd9 8c3d f74a 17bf
000000b0: 273b 1fbe 3e3f b13e 894b 873d 08e7 a5bd

rnn.bias_hh_l0 f4 [48]
0.46924502 0.07178281 -0.2968711 0.17213264 -0.50049907 -0.5419151 0.5366306 -0.16614822
0.1737914 0.23182955 0.15049161 0.05268141 0.5664548 0.22837467 -0.11081379 -0.46309975
1.202293 0.53305554 0.92411697 1.4426776 1.4237944 1.1814463 0.8833276 0.5640333
0.7452701 0.58765554 0.42027643 0.5585383 0.98017716 0.5518601 0.7354033 1.2498281
-0.0751203 -0.060933623 -0.15383033 -0.37531546 -0.00028699936 -0.29830575 0.3917413 -0.364088
0.035753235 0.22830468 0.17890519 -0.3779783 0.14964426 0.5620588 -0.14592068 0.097676605
00000000: e240 f03e de02 933d 7dff 97be 8a43 303e
00000010: b520 00bf f3ba 0abf 9f60 093f c222 2abe
00000020: 5ff6 313e ba64 6d3e 791a 1a3e 76c8 573d
00000030: 2f03 113f 0ddb 693e 57f2 e2bd 691b edbe
00000040: bde4 993f 5476 083f ee92 6c3f a9a9 b83f
00000050: e53e b63f a239 973f c221 623f 7d64 103f
00000060: 05ca 3e3f 9870 163f 792e d73e 5efc 0e3f
00000070: e4ec 7a3f b446 0d3f 6443 3c3f 5efa 9f3f
00000080: acd8 99bd 8995 79bd b385 1dbe 5929 c0be
00000090: 6778 96b9 88bb 98be 5192 c83e be69 babe
000000a0: fc71 123d b4c8 693e ec32 373e 5f86 c1be
000000b0: 583c 193e 16e3 0f3f 3b6c 15be ac0a c83d

fc.weight f4 [128, 16]
-0.16713463 0.0999041 0.035812832 0.1349217 0.07274247 -0.113780424 0.35710633 0.09350856
0.08492326 0.12904394 0.46782112 -0.17165653 0.3909295 0.08251474 0.021028457 -0.1706943
-0.050081007 -0.0050424286 0.09884679 0.07352227 0.36179113 -0.18331672 0.53767115 -0.1015303
-0.17374906 0.5216176 0.28146276 -0.12536095 0.38535053 -0.044558454 0.007121059 -0.4446683
-0.15457977 0.13291305 0.3322932 0.19516648 -0.12601341 -0.14447524 1.0664158 0.08023511
0.46465594 0.30086482 0.084489346 -0.0048825955 0.20945238 0.3568035 -0.06336641 0.11050606
-0.6987944 -0.32665315 0.5388664 -0.4359383 -0.5212029 0.07240141 0.11730789 0.13239849
0.04172101 -0.48170826 -0.14164063 -0.38544264 -0.026123047 0.14984034 0.3716145 0.3237563
0.17231406 0.060422774 0.8075672 -0.09716811 -0.69541097 0.04536876 -0.015868947 0.22999743
-0.28460488 -0.20478065 -0.264656 0.5279673 -0.19982593 0.0009886924 -0.63894653 0.16546293
-0.2454683 0.14236763 0.04046286 -0.017015174 -0.2954631 0.5619491 -0.72072995 0.056854166
0.24812345 -0.3446127 -0.0013537846 0.4128561 -0.4229514 -0.17519616 0.47876835 0.5138189
-0.25016433 -0.062278595 -0.21845259 -0.6536431 -0.2610287 0.25949207 -0.7158869 -0.15494488
-0.19624569 -0.14017048 -0.20284277 0.4288558 -0.19776876 0.15928118 0.43293723 0.23677343
0.20848402 -0.07068307 0.09028321 0.11996267 -0.20215712 -0.08556896 0.06129523 0.3231796
0.35747647 0.12154551 -0.333796 -0.16224748 0.013063484 0.11838764 -0.23138273 -0.121634424
0.23671868 0.044450227 0.012708111 -0.5301253 -0.16698296 -0.4519069 0.32315278 0.13588871
0.0054947874 -0.14967866 0.27852735 -0.23267646 0.07707208 0.014393371 0.07523092 0.4311799
0.50692 -0.05653128 -0.64924634 -0.4061182 0.4596576 0.21042444 0.5223775 -0.27210847
0.18772368 -0.14904484 0.32150272 -0.24520725 0.25082502 -0.20528299 -0.40309045 0.017385583
-0.122134015 -0.057281166 0.46461937 -0.62712806 -0.3747435 0.44957957 -0.4070519 0.07131964
-0.16765971 -0.3581507 -0.45020974 0.36536822 -0.5476297 -0.14315856 0.2732661 0.63077676
-0.040266156 -0.1513228 0.5516836 -0.33452666 -0.46609855 -0.35041916 -0.6506019 -0.27374595
-0.42696133 -0.28324136 -0.16436428 0.45359713 -0.3549724 0.23950386 -0.35175914 0.12832373
0.13681747 -0.24332048 0.0026863206 -0.103627004 0.1982915 -0.5897737 0.093434334 -0.38319013
0.09849079 0.17997146 0.35737577 -0.30328047 0.47456223 -0.04895366 0.17332204 -0.44308722
0.23360266 0.18873385 -0.20913339 0.47858515 -0.26210687 0.27583373 -0.08307374 -0.36912197
-0.100986235 -0.009798067 0.16654098 0.09687743 0.24540693 -0.013912734 0.6028042 -0.4699217
-0.20077236 -0.3874843 0.1246233 0.057508692 -0.55133647 1.1651893 0.029088246 0.41611183
0.51317036 -0.42554033 -0.59339416 0.18835829 -0.42200917 -0.23404354 0.18011126 0.20941071
0.31567806 0.18432134 -0.5757085 -1.2131639 0.20988426 0.17166197 -0.24992083 0.006989102
-0.75252813 0.1264681 -0.073467135 0.27574015 0.12209779 -0.035863988 -0.07042514 -0.09426134
00000000: 5725 2bbe 859a cc3d 7ab0 123d ea28 0a3e
00000010: 01fa 943d b605 e9bd a4d6 b63e 6a81 bf3d
00000020: 3fec ad3d 1824 043e 4086 ef3e bbc6 2fbe
00000030: e927 c83e 7dfd a83d df43 ac3c 7dca 2ebe
00000040: be21 4dbd f53a a5bb 3070 ca3d d892 963d
00000050: b03c b93e 61b7 3bbe d1a4 093f 1eef cfbd
00000060: 46eb 31be bb88 053f e31b 903e 9f5e 00be
00000070: aa4c c53e ed82 36bd c657 e93b 90ab e3be
00000080: 294a 1ebe 5c1a 083e 5622 aa3e b9d9 473e
00000090: a909 01be 51f1 13be 5080 883f 4e52 a43d
000000a0: 62e7 ed3e f40a 9a3e c008 ad3d 2efe 9fbb
000000b0: af7a 563e f3ae b63e 40c6 81bd 0051 e23d
000000c0: 31e4 32bf 153f a7be 26f3 093f 4e33 dfbe
000000d0: 8e6d 05bf 3147 943d 1e3f f03d 7893 073e
000000e0: a6e3 2a3d 77a2 f6be 3e0a 11be bd58 c5be
000000f0: 0000 d6bc bf6f 193e 4144 be3e 63c3 a53e
00000100: 1973 303e df7d 773d b9bc 4e3f 1300 c7bd
00000110: 7406 32bf 98d4 393d 98ff 81bc 7284 6b3e
00000120: bbb7 91be 05b2 51be fe80 87be dd28 073f
00000130: 2b9f 4cbe 0397 813a 0092 23bf 1d6f 293e
00000140: 0b5c 7bbe d2c8 113e 62bc 253d 6863 8bbc
00000150: f046 97be e5db 0f3f c281 38bf eadf 683d
00000160: 1314 7e3e 1371 b0be 7971 b1ba e061 d33e
00000170: 168d d8be 9f66 33be 2021 f53e a389 033f
00000180: 8a15 80be d717 7fbd 09b2 5fbe 2755 27bf
00000190: 8ea5 85be 25dc 843e 5d44 37bf dfa9 1ebe
000001a0: a1f4 48be da88 0fbe 04b6 4fbe fd92 db3e
000001b0: e583 4abe 9b1a 233e f3a9 dd3e bc74 723e
000001c0: d67c 553e 49c2 90bd 67e6 b83d fdae f53d
000001d0: 4702 4fbe c73e afbd b510 7b3d cc77 a53e
000001e0: 2807 b73e daec f83d 4fe7 aabe 3424 26be
000001f0: 3908 563c 3875 f23d 98ef 6cbe 781b f9bd
00000200: 6266 723e 7111 363d ae35 503c 4bb6 07bf
00000210: 95fd 2abe 5760 e7be 4874 a53e 6926 0b3e
00000220: 9e0d b43b 5d45 19be 239b 8e3e bd42 6ebe
00000230: f7d7 9d3d 2cd2 6b3c ab12 9a3d 9dc3 dc3e
00000240: 82c5 013f 588d 67bd 0235 26bf baee cfbe
00000250: 3e58 eb3e 8179 573e 88ba 053f cd51 8bbe
00000260: a33a 403e 369f 18be 019c a43e 9c17 7bbe
00000270: 236c 803e b435 52be df61 cebe 366c 8e3c
00000280: 6621 fabd a89f 6abd 97e2 ed3e 778b 20bf
00000290: 61de bfbe 4b2f e63e 1b69 d0be 0810 923d
000002a0: fdae 2bbe 875f b7be e481 e6be 8b11 bb3e
000002b0: 7631 0cbf 2898 12be 89e9 8b3e 967a 213f
000002c0: 20ee 24bd 5df4 1abe 233b 0d3f 1447 abbe
000002d0: 78a4 eebe 246a b3be d98d 26bf 6e28 8cbe
000002e0: ad9a dabe 0305 91be 1c4f 28be e23d e83e
000002f0: f1be b5be 8040 753e c619 b4be 4c67 033e
00000300: e119 0c3e 0129 79be fb0c 303b 653a d4bd
00000310: ed0c 4b3e 69fb 16bf 805a bf3d 7f31 c4be
00000320: 8ab5 c93d 704a 383e f5f9 b63e 9447 9bbe
00000330: d2f9 f23e a283 48bd 557b 313e 54dc e2be
00000340: 8935 6f3e 7243 413e 1027 56be 1d09 f53e
00000350: df32 86be 143a 8d3e 9122 aabd 8efd bcbe
00000360: dfd1 cebd 1288 20bc b889 2a3e ad67 c63d
00000370: f44b 7b3e 3cf2 63bc 6051 1a3f 9499 f0be
00000380: 4597 4dbe 5864 c6be 803a ff3d 3c8e 6b3d
00000390: 6324 0dbf ec24 953f 794a ee3c 9c0c d53e
000003a0: 225f 033f 6ce0 d9be aee8 17bf ffe0 403e
000003b0: 9611 d8be 1ca9 6fbe 166f 383e c36f 563e
000003c0: 8ea0 a13e bcbe 3c3e a261 13bf f448 9bbf
000003d0: e6eb 563e 28c8 2f3e 3feb 7fbe d604 e53b
000003e0: afa5 40bf db80 013e f075 96bd d02d 8d3e
000003f0: 680e fa3d 1ee6 12bd 0e3b 90bd 170c c1bd

fc.bias f4 [128]
0.22513543 0.07386513 0.56704706 0.28159449 -0.37463018 -0.22752285 -0.23540467 0.12378086
-0.15221944 0.50707525 -0.79260564 -0.46748373 0.37531346 0.26028368 0.06946174 -0.5605096
0.027386429 -0.7288124 0.20974877 -0.59494644 0.42450395 -0.103352904 -0.010874943 -0.2839612
0.39519197 -0.27509975 -0.4865923 0.050631035 -0.22230028 0.0625424 -0.12881508 -0.2312893
-0.02835939 0.13512656 0.30556032 0.62088263 -0.18766792 0.24454322 0.655526 0.31763008
-0.16764408 -0.60631937 -0.47343835 0.18997794 0.1782306 -0.39055192 -0.56884474 0.02601702
0.48154444 0.0135379825 -0.56775844 -0.02050936 0.121117115 0.57299 -0.33590215 -0.02175155
-0.018526727 0.54369485 0.0054258946 -0.19484 0.28662562 0.47037297 0.092141986 -0.017509364
0.03048222 0.32243687 -0.26200965 0.3543726 0.5587376 0.3141222 0.22406597 -0.093240075
0.3910384 -0.20056716 0.18370557 0.62903035 -0.17681433 0.27293321 0.3686882 -0.4121474
0.16514237 -0.40864787 0.005711194 0.020187773 0.42876643 0.06216095 0.046966534 0.3616554
0.30333287 1.1150181 -0.34403452 -0.38003424 -0.3045428 -0.15140529 -0.013953934 0.670728
-0.013960199 -0.23030375 -0.31112018 0.25461534 -0.39939407 0.1526768 -0.45891726 -0.02111947
0.27060872 0.32595575 0.6084889 -0.32108653 -0.93725896 0.45636633 -0.11437693 -0.36008734
-0.07426189 -0.1175265 -0.17560467 0.43683454 0.44422114 -0.44558004 0.2683505 -0.11993024
0.12028999 0.400436 -0.5919247 -0.1973557 -0.6060704 0.2679786 0.0664764 -0.34180778
00000000: e789 663e 9a46 973d ff29 113f 272d 903e
00000010: 87cf bfbe c0fb 68be ec0d 71be d280 fd3d
00000020: 6adf 1bbe afcf 013f 34e8 4abf 075a efbe
00000030: 1629 c03e e743 853e f541 8e3d 8f7d 0fbf
00000040: 8159 e03c 7393 3abf 62c8 563e 694e 18bf
00000050: 9558 d93e b0aa d3bd d12c 32bc 5d63 91be
00000060: 9a56 ca3e e0d9 8cbe a022 f9be 7d62 4f3d
00000070: afa2 63be 3b16 803d 1ae8 03be 1ad7 6cbe
00000080: f451 e8bc 9e5e 0a3e 6772 9c3e 2af2 1e3f
00000090: 052c 40be 8a69 7a3e 8dd0 273f 69a0 a23e
000000a0: e4aa 2bbe bf37 1bbf 8366 f2be 9489 423e
000000b0: 1582 363e 6cf6 c7be cf9f 11bf a521 d53c
000000c0: fe8c f63e 6ace 5d3c 9e58 11bf 3f03 a8bc
000000d0: 400c f83d 79af 123f 5efb abbe 4e30 b2bc
000000e0: 5dc5 97bc 962f 0b3f b4cb b13b 2384 47be
000000f0: 98c0 923e bad4 f03e f0b4 bc3d cc6f 8fbc
00000100: d9b5 f93c 7216 a53e 2126 86be 5370 b53e
00000110: 6d09 0f3f a0d4 a03e 8d71 653e a7f4 bebd
00000120: 2f36 c83e 7a61 4dbe 501d 3c3e 2208 213f
00000130: d10e 35be e7bd 8b3e b3c4 bc3e fc04 d3be
00000140: 151b 293e 4b3a d1be f824 bb3b d460 a53c
00000150: 4687 db3e 7b9c 7e3d fb5f 403d e62a b93e
00000160: 724e 9b3e eab8 8e3f 4b25 b0be d993 c2be
00000170: 09ed 9bbe fd09 1bbe 0b9f 64bc d5b4 2b3f
00000180: 52b9 64bc bfd4 6bbe 254b 9fbe f15c 823e
00000190: 617d ccbe 4f57 1c3e 34f7 eabe bd02 adbc
000001a0: 3a8d 8a3e ace3 a63e eec5 1b3f 7465 a4be
000001b0: 34f0 6fbf d9a8 e93e 743e eabd 5e5d b8be
000001c0: 9e16 98bd bcb1 f0bd b6d1 33be c7a8 df3e
000001d0: f470 e33e 1123 e4be 3d65 893e fc9d f5bd
000001e0: 995a f63d f305 cd3e 6188 17bf 9d17 4abe
000001f0: 6e27 1bbf 7e34 893e c724 883d 6e01 afbe

mlp.0.weight f4 [16, 360]
0.092363454 0.044484857 0.094494045 0.022775799 0.07292135 0.06945175 0.015314927 0.09397584
0.07938188 0.11006762 0.09203685 0.09436156 0.013623898 0.0059040566 0.0666909 0.006946274
0.037916213 0.0550522 0.030504834 0.044341102 0.072881594 0.009033086 0.08261562 0.001955401
0.08647263 0.05678011 0.0107206525 0.024310632 0.06341891 0.1021777 0.07588502 0.13517503
0.053912543 0.12442493 0.08408238 0.06728127 0.13869756 0.11634567 0.15053527 0.14175883
0.11161056 0.117147624 0.14595644 0.15852289 0.21108304 0.2060541 0.17978072 0.20446825
0.12045092 0.19301465 0.19283265 0.20163387 0.18708354 0.1959273 0.17406844 0.21555685
0.22543418 0.21243438 0.2255607 0.23310275 0.22447315 0.18634567 0.17518772 0.08317833
0.10859692 0.103515975 0.094332576 0.031864814 0.050181292 0.048871607 -0.009379718 0.004002574
-0.03389737 0.027996425 0.013132404 0.019924512 0.070374444 0.064052776 0.030188577 0.077344656
0.035635423 0.04766541 0.030369822 0.05565997 0.05205435 0.08832451 0.079734445 0.13104083
0.09733522 0.1952142 0.11398829 0.19863544 0.18014324 0.1984581 0.20130025 0.26355377
0.22786097 0.3002683 0.31423387 0.27864075 0.3019531 0.29188788 0.33961648 0.24994172
0.29218253 0.28207174 0.24348366 0.19620761 0.13785674 0.15074803 0.071174406 0.0045328466
-0.05952257 -0.1381 -0.19843797 -0.20370017 -0.23483445 -0.16357765 -0.14957778 -0.09165743
-0.12714732 -0.039904486 -0.012749649 -0.041486196 0.05960876 0.19905895 0.36373824 0.24702166
0.12245702 -0.047907252 -0.10248113 -0.10180738 -0.033771787 -0.14115368 -0.0661128 -0.122879595
-0.16863845 -0.16508177 -0.10288234 -0.15421271 -0.112885654 -0.16090773 -0.12876152 -0.101093866
-0.18318623 -0.100753546 -0.15178218 -0.043042354 -0.09205043 -0.04643579 -0.017971447 0.07215275
0.084762365 0.023982223 0.05321573 0.033333644 0.08322373 0.07580618 0.004508957 0.018572519
0.05021385 0.106464304 0.08573014 0.16047555 0.18314062 0.099385604 0.09685973 0.16127576
0.14750242 0.10459986 0.116864555 0.11148156 0.0674808 -0.0076581407 -0.0037073444 -0.031466782
0.024219321 -0.052047707 -0.0104788225 0.05114542 0.046548028 0.0095854765 0.07116949 0.060864866
0.058693595 0.017072255 -0.019528376 -0.07103543 -0.094764896 -0.21268722 -0.24487539 -0.24367917
-0.25438574 -0.33765677 -0.24204382 -0.26456305 -0.24769296 -0.2956674 -0.27274576 -0.23745327
-0.28928998 -0.22903548 -0.23332688 -0.31422934 -0.26082882 -0.27950358 -0.25313097 -0.24429509
-0.19474138 -0.2133107 -0.16415167 -0.068081796 -0.036690373 0.005459395 0.026777068 0.05467563
0.08903474 0.04925847 0.08855039 0.015191819 0.11355219 0.08661907 0.08061036 0.05613497
0.075704314 0.13582562 0.083944626 0.16842043 0.12728482 0.07561096 0.11706141 0.06052601
0.11161853 0.063859366 0.13669226 0.06616667 0.06078271 0.1069439 0.061671525 0.044704944
0.06798677 0.11858404 0.1356128 0.2146121 0.25199354 0.23487067 0.31012288 0.2747173
0.2540372 0.27056572 0.3108613 0.28511748 0.22558863 0.19915996 0.23946692 0.20155282
00000000: 0d29 bd3d c135 363d 1886 c13d 5094 ba3c
00000010: ca57 953d b83c 8e3d 76eb 7a3c 6876 c03d
00000020: f892 a23d 226b e13d d17d bc3d a240 c13d
00000030: c536 5f3c d176 c13b 3d95 883d 929d e33b
00000040: 084e 1b3d 6a7e 613d 46e5 f93c 049f 353d
00000050: f242 953d 82ff 133c 6132 a93d 2f26 003b
00000060: 9018 b13d 4392 683d ada5 2f3c 1727 c73c
00000070: c6e1 813d 8b42 d13d 9b69 9b3d 536b 0a3e
00000080: 66d3 5c3d 7fd2 fe3d 6233 ac3d c3ca 893d
00000090: bc06 0e3e a346 ee3d eb25 1a3e 3a29 113e
000000a0: 1494 e43d 18eb ef3d 9b75 153e d353 223e
000000b0: 2726 583e d9ff 523e 7018 383e 2060 513e
000000c0: f9ae f63d a2a5 453e ec75 453e 1c79 4e3e
000000d0: d492 3f3e 2ba1 483e ff3e 323e efba 5c3e
000000e0: 38d8 663e 6688 593e 62f9 663e 7db2 6e3e
000000f0: 4adc 653e 66d1 3e3e 6964 333e 6659 aa3d
00000100: 1068 de3d 2f00 d43d 7031 c13d ae84 023d
00000110: e68a 4d3d 982d 483d 64ad 19bc 0628 833b
00000120: f8d7 0abd c258 e53c 4b29 573c bb38 a33c
00000130: 7a20 903d 1a2e 833d 094e f73c e066 9e3d
00000140: 73f6 113d ce3c 433d 22ca f83c b5fb 633d
00000150: f136 553d 7be3 b43d d04b a33d 912f 063e
00000160: b057 c73d 3be6 473e b172 e93d 1767 4b3e
00000170: 7877 383e 9a38 4b3e a721 4e3e 85f0 863e
00000180: 6354 693e c4bc 993e 43e3 a03e 00aa 8e3e
00000190: 9999 9a3e 5472 953e 36e2 ad3e b9f0 7f3e
000001a0: f398 953e b56b 903e c853 793e a6ea 483e
000001b0: 512a 0d3e b15d 1a3e e3c3 913d 4688 943b
000001c0: f0cd 73bd 166a 0dbe 5333 4bbe c796 50be
000001d0: 7178 70be e680 27be eb2a 19be e4b6 bbbd
000001e0: e832 02be e372 23bd e7e3 50bc 6eed 29bd
000001f0: 5128 743d 1cd6 4b3e e63b ba3e 3ff3 7c3e
00000200: bfca fa3d 653a 44bd a0e1 d1bd 6380 d0bd
00000210: 4954 0abd 978a 10be 2666 87bd 4ca8 fbbd
00000220: 8faf 2cbe 320b 29be fab3 d2bd f0e9 1dbe
00000230: 9830 e7bd ffc4 24be 0fda 03be 4d0a cfbd
00000240: 2c95 3bbe e057 cebd ca6c 1bbe 2e4d 30bd
00000250: f084 bcbd 7433 3ebd db38 93bc d2c4 933d
00000260: e497 ad3d 5e76 c43c bdf8 593d dc88 083d
00000270: 3471 aa3d 4540 9b3d dfbf 933b 6525 983c
00000280: 0aad 4d3d f509 da3d 4993 af3d b453 243e
00000290: 3789 3b3e ae8a cb3d 655e c63d 7925 253e
000002a0: e00a 173e 7438 d63d af56 ef3d 7250 e43d
000002b0: 6033 8a3d 24f1 fabb ebf6 72bb 50e3 00bd
000002c0: 9967 c63c fa2f 55bd 5eaf 2bbc dc7d 513d
000002d0: 25a9 3e3d 670c 1d3c 4fc1 913d 704d 793d
000002e0: b268 703d 1ddb 8b3c f9f9 9fbc 067b 91bd
000002f0: 1914 c2bd aeca 59be 9dc0 7abe 0887 79be
00000300: d93e 82be 59e1 acbe 56da 77be cf74 87be
00000310: 39a3 7dbe b861 97be 55a5 8bbe f326 73be
00000320: d11d 94be 4788 6abe 3eed 6ebe abe2 a0be
00000330: 5b8b 85be 181b 8fbe 629a 81be 7e28 7abe
00000340: 496a 47be 1f6e 5abe 6017 28be 786e 8bbd
00000350: a548 16bd b9e4 b23b 955b db3c 8ef3 5f3d
00000360: d957 b63d 40c3 493d e859 b53d 1be7 783c
00000370: 0d8e e83d 5765 b13d 0b17 a53d c8ed 653d
00000380: dd0a 9b3d df15 0b3e 29eb ab3d 6876 2c3e
00000390: f456 023e ebd9 9a3d e4bd ef3d 1fea 773d
000003a0: 4198 e43d b3c8 823d 0ef9 0b3e 6482 873d
000003b0: 4af7 783d 6705 db3d 489b 7c3d 881c 373d
000003c0: a63c 8b3d 30dc f23d 15de 0a3e 46c3 5b3e
000003d0: 4c05 813e f081 703e 6dc8 9e3e bfa7 8c3e
000003e0: 2a11 823e 9787 8a3e 3629 9f3e ebfa 913e
000003f0: b500 673e 97f0 4b3e d136 753e dd63 4e3e

mlp.0.bias f4 [16]
0.1258622 0.20152359 -0.046525836 -0.06979401 -0.010870402 -0.09053545 0.18533608 -0.09124625
0.003295044 0.06390548 0.16887106 -0.075059526 -0.05456715 -0.03619316 -0.071482785 -0.111248486
00000000: 05e2 003e 335c 4e3e e091 3ebd 29f0 8ebd
00000010: c519 32bc a66a b9bd bec8 3d3e 50df babd
00000020: aaf1 573b e0e0 823d 89ec 2c3e cfb8 99bd
00000030: ce81 5fbd 473f 14bd 9165 92bd 3fd6 e3bd

mlp.2.weight f4 [16, 16]
0.21093334 0.097358085 0.07078245 -0.029800098 0.23908533 -0.109186314 0.2499841 -0.13134666
0.035947964 0.10888242 -0.15415727 -0.15215181 0.29615074 0.15684782 0.10865591 -0.13486347
-0.114836745 -0.04891238 -0.29955974 -0.14100058 0.05188705 0.0019910124 -0.08568291 -0.013420215
-0.20698203 0.0026852977 -0.049756948 0.020757109 -0.2005978 -0.30679926 -0.012479457 -0.053972736
-0.30594152 -0.12546939 -0.074433096 -0.06438623 0.14865424 -0.04634545 -0.03777198 0.11597042
-0.2239242 -0.24880493 0.21108119 -0.2331215 0.064141095 -0.14859502 -0.024061682 -0.061017685
-0.090829 0.04873118 0.08682907 0.15751731 -0.14472434 0.16908109 0.3099834 -0.15459237
0.008299444 -0.4116538 0.23847775 0.18118179 0.0268891 0.032633737 0.2627942 0.24271621
-0.031654533 -0.18247902 -0.0085050985 -0.08341046 -0.07912876 -0.010825272 -0.079555646 0.24328904
0.1322436 0.0005127919 -0.06593248 -0.09196946 0.1141646 0.070471875 0.12296163 -0.00861479
-0.0041893334 -0.060428232 0.3061019 -0.09069267 -0.1687598 0.05184687 0.21179153 -0.06919012
0.13773447 -0.13460323 -0.4932542 0.14090705 0.124606386 -0.07728247 -0.1747059 -0.00050969335
-0.06815251 -0.13782464 -0.059570316 0.21056522 0.08773179 0.1345556 0.21027313 -0.06456289
0.29724523 0.23055826 -0.050543822 -0.009845832 0.017314246 0.050304163 0.048018347 0.22116311
-0.21468851 0.2110453 -0.015298943 -0.050154902 0.07948597 -0.00312341 0.27568695 -0.031689636
-0.047359157 -0.13839167 -0.47376946 0.054872815 0.17776519 -0.069476 0.009689921 0.12973534
-0.4434933 -0.13247086 -0.040792223 0.114379786 0.23701996 0.1537833 0.08649009 0.18770014
0.1781764 -0.1600773 -0.3784705 -0.04805726 0.13952586 -0.004161743 -0.049167067 -0.060890146
-0.053474013 -0.0021953443 0.18354096 -8.932006e-05 -0.085404724 -0.017646002 -0.19567496 -0.15196054
0.08638772 0.43783584 0.043794718 -0.30522436 0.17067303 0.04387483 0.04110449 -0.21873398
-0.051783755 -0.21294075 -0.040971126 0.2865947 0.04705025 0.09207746 0.21693054 0.011935354
0.27373543 0.030728672 -0.3823639 -0.0040894677 0.039389517 -0.043295253 -0.10289392 -0.04463979
0.22519036 0.31028843 0.17878564 -0.2513718 -0.11552769 0.1714226 -0.09364324 0.06659279
0.024931906 0.052646745 0.11919826 0.18370819 0.10969165 0.18694606 -0.01318043 -0.07172926
0.23328033 0.021502087 0.11881888 -0.07670231 -0.08658264 -0.07413977 -0.006941103 -0.261388
-0.0025988542 0.11543565 -0.22547027 0.15645885 -0.0028069126 0.006462117 0.013427146 -0.017121684
-0.13244735 -0.29249007 -0.058063008 -0.26762757 -0.27347875 -0.042041857 -0.07920357 0.023770195
0.07143076 -0.33858997 -0.24608843 -0.120366305 0.08038457 0.049185134 0.0028942067 0.11450199
0.18614691 -0.016243143 0.1633037 0.03835454 -0.07957676 0.21724522 0.14767495 0.079580575
-0.046484813 -0.08517511 -0.15256543 -0.1829773 0.16297162 -0.15945551 -0.0604805 -0.03324126
0.08717582 -0.23545514 -0.17159027 -0.0016434938 0.17778589 0.030447818 -0.26320937 -0.109842025
-0.10791436 -0.1949114 -0.26636437 -0.18575078 0.13985027 0.09021538 0.049806762 -0.24034768
00000000: e9fe 573e ad63 c73d 64f6 903d 561f f4bc
00000010: c9d2 743e 139d dfbd d5fb 7f3e bd7f 06be
00000020: 2c3e 133d bffd de3d 67db 1dbe afcd 1bbe
00000030: 12a1 973e b79c 203e fd86 de3d a619 0abe
00000040: 872f ebbd 5958 48bd e55f 99be 7562 10be
00000050: 8487 543d a57b 023b 867a afbd 76e0 5bbc
00000060: 19f3 53be d2fb 2f3b f1cd 4bbd d00a aa3c
00000070: 8269 4dbe cb14 9dbe a376 4cbc 8412 5dbd
00000080: 5ea4 9cbe 0c7b 00be 6170 98bd eedc 83bd
00000090: d138 183e bad4 3dbd cbb6 1abd e681 ed3d
000000a0: 634c 65be b8c6 7ebe ab25 583e 67b7 6ebe
000000b0: 685c 833d 4b29 18be 011d c5bc aeed 79bd
000000c0: 8e04 babd 599a 473d 70d3 b13d 384c 213e
000000d0: 9e32 14be 9823 2d3e 25b6 9e3e 764d 1ebe
000000e0: 64fa 073c 49c4 d2be 8333 743e b887 393e
000000f0: 8846 dc3c f4aa 053d f68c 863e 998a 783e
00000100: 2fa8 01bd c8db 3abe f858 0bbc 1ad3 aabd
00000110: 420e a2bd 7b5c 31bc 12ee a2bd c320 793e
00000120: de6a 073e e26c 063a 9c07 87bd 7c5a bcbd
00000130: 21cf e93d 8f53 903d 4fd3 fb3d 0c25 0dbc
00000140: ad46 89bb 9883 77bd 63b9 9c3e 14bd b9bd
00000150: 5ecf 2cbe 625d 543d e1df 583e 8db3 8dbd
00000160: 440a 0d3e 6ed5 09be d18b fcbe f049 103e
00000170: a231 ff3d 4646 9ebd 1ae6 32be f19c 05ba
00000180: 8b93 8bbd e721 0dbe 0100 74bd 699e 573e
00000190: baac b33d f1c8 093e d751 573e 8c39 84bd
000001a0: 8730 983e 7717 6c3e 0a07 4fbd 6a50 21bc
000001b0: 9bd6 8d3c bd0b 4e3d e3ae 443d 9578 623e
000001c0: 4ed7 5bbe 421c 583e 6ba8 7abc 3a6f 4dbd
000001d0: 8ac9 a23d 20b2 4cbb d726 8d3e fecc 01bd
000001e0: adfb 41bd 8cb6 0dbe e991 f2be 51c2 603d
000001f0: 1408 363e 6f49 8ebd 79c2 1e3c 57d9 043e
00000200: 8e11 e3be 71a6 07be bf15 27bd f33f ea3d
00000210: 5cb5 723e 5f79 1d3e b721 b13d 7734 403e
00000220: e073 363e 4eeb 23be e3c6 c1be b1d7 44bd
00000230: dedf 0e3e 3b5f 88bb 6863 49bd f267 79bd
00000240: 9107 5bbd c4df 0fbb 29f2 3b3e 5851 bbb8
00000250: ace8 aebd 598e 90bc 045f 48be 8b9b 1bbe
00000260: 0cec b03d 052c e03e 1762 333d 5e46 9cbe
00000270: e9c4 2e3e 18b6 333d 2f5d 283d cdfb 5fbe
00000280: 341b 54bd 240d 5abe 57d1 27bd 8abc 923e
00000290: c3b7 403d 1b93 bc3d 0a23 5e3e 818c 433c
000002a0: 0d27 8c3e b2ba fb3c 33c5 c3be f100 86bb
000002b0: e756 213d 5d56 31bd 0cba d2bd 36d8 36bd
000002c0: 4d98 663e 20de 9e3e 9513 373e ceb3 80be
000002d0: c899 ecbd 6889 2f3e 07c8 bfbd cd61 883d
000002e0: ff3d cc3c 1da4 573d 381e f43d 001e 3c3e
000002f0: 04a6 e03d ca6e 3f3e bbf2 57bc cae6 92bd
00000300: 0ae1 6e3e 2525 b03c 5057 f33d 1a16 9dbd
00000310: 3d52 b1bd 97d6 97bd 3172 e3bb a6d4 85be
00000320: 8a51 2abb 8769 ec3d aee1 66be c036 203e
00000330: 2ef4 37bb 2bc0 d33b 88fd 5b3c c642 8cbc
00000340: 47a0 07be 42c1 95be 7ad3 6dbd 7b06 89be
00000350: 6805 8cbe 1534 2cbd 7b35 a2bd b6b9 c23c
00000360: 4a4a 923d aa5b adbe 9bfe 7bbe 9c82 f6bd
00000370: aaa0 a43d 5a76 493d bbac 3d3b 0580 ea3d
00000380: 4c9d 3e3e 5710 85bc 1639 273e a619 1d3d
00000390: 24f9 a2bd 8875 5e3e 1a38 173e 24fb a23d
000003a0: dc66 3ebd 4a70 aebd 1d3a 1cbe 675e 3bbe
000003b0: 08e2 263e 4e48 23be 67ba 77bd fd27 08bd
000003c0: 3c89 b23d 271b 71be 5cb5 2fbe 806a d7ba
000003d0: 810d 363e b46d f93c 61c3 86be dbf4 e0bd
000003e0: 3402 ddbd db96 47be e960 88be 7435 3ebe
000003f0: e934 0f3e d7c2 b83d 2d02 4c3d b41d 76be

mlp.2.bias f4 [16]
0.3525253 -0.18367119 -0.37235358 0.16330497 -0.009963997 0.15514122 0.3348147 0.28745702
0.32015675 0.24264678 -0.43004912 -0.12052334 0.1501322 -0.03001075 0.19733958 0.118827775
00000000: 327e b43e 4d14 3cbe 21a5 bebe 6b39 273e
00000010: 0840 23bc 57dd 1e3e d56c ab3e 912d 933e
00000020: 96eb a33e 6678 783e 662f dcbe f1d4 f6bd
00000030: 41bc 193e 1bd9 f5bc 6313 4a3e fa5b f33d

mlp.4.weight f4 [16, 16]
0.31389147 -0.17863165 -0.121874526 0.1433926 0.20925431 -0.27212575 -0.16058943 -0.0307625
-0.006257666 0.008875527 0.009180595 0.3143356 0.24522951 -0.0027957053 -0.107328296 0.00059947424
-0.059401654 -0.031207457 0.05022962 -0.006419093 0.03555297 -0.024743645 -0.010027925 0.009751336
0.051688205 -0.013132297 -0.022980671 -0.052467853 0.043040074 0.021527681 -0.009567516 0.049603406
-0.124956764 0.04049337 0.19641028 0.25670567 0.12285358 0.26327115 0.11017495 0.19420731
0.11882028 -0.34846723 0.22404917 -0.31983444 -0.03710393 0.23793031 -0.016597189 -0.18774998
-0.0613084 0.04079608 -0.19380975 -0.17897356 -0.24948235 -0.05135263 -0.24389578 -0.13705912
0.09913012 -0.0519195 0.0541798 -0.0037543825 -0.2773621 0.1417919 -0.29175448 0.092061535
-0.018988026 0.029948948 -0.009668975 -0.052701186 -0.004193705 -0.00253085 -0.010554041 0.024370445
-0.056015365 -0.032833118 0.04431769 -0.036308456 0.0198606 -0.0386932 -0.038697403 -0.0066566896
0.1775792 0.16440897 -0.2871022 -0.14632115 -0.079093486 0.24915552 0.24859378 -0.036274545
-0.5851706 0.19635051 0.19768563 0.05312163 0.21032047 -0.27559942 0.24751607 0.17601377
-0.26288006 -0.12795731 -0.06234767 -0.07742048 -0.23425849 -0.10768706 -0.20106262 -0.27065137
0.110801764 -0.02548174 0.04495278 -0.14027879 -0.029215777 -0.08613113 -0.22038008 -0.07406786
0.035529103 0.036138974 -0.6648508 -0.044971716 0.14343515 0.28376248 0.07370384 0.30407438
-0.0700734 -0.45537418 -0.047441464 -0.11402328 -0.08489587 0.028289227 0.10393707 0.20357402
-0.06818567 -0.17331274 0.046534304 -0.51105464 -0.16051649 0.28291175 -0.07949365 0.086215675
-0.030373506 -0.10236941 0.1766431 0.28298128 0.30645454 -0.044981956 0.021373805 0.02567487
-0.24953079 -0.013320267 -0.2786327 -0.26577735 -0.03712301 -0.047354966 -0.27913707 0.030454816
0.054639038 -0.31014282 0.033274446 -0.21664543 -0.01035648 0.020358248 -0.3149928 -0.03925892
-0.26830658 0.16213156 0.013799325 -0.13434458 0.14650807 0.061240025 -0.03841563 0.42471302
0.25384954 0.4117189 -0.5204993 -0.31961384 -0.022475667 0.15320644 -0.29021415 0.20047066
0.1661531 -0.14429744 -0.10991774 0.04276034 0.11721501 -0.023796765 0.013364235 -0.06299884
0.059831586 -0.14525232 -0.15497175 0.10974265 -0.038516276 -0.06515067 0.15146556 0.06606299
-0.048980024 0.15363425 0.15013461 0.33732578 0.12687384 -0.09638329 0.20505731 -0.3530064
-0.36454535 -0.2414969 -0.82271904 -0.14401086 -0.40716875 -0.054771066 0.07291587 0.09163886
0.15970922 -0.20882224 -0.2128155 0.2596169 -0.1965089 0.11344351 -0.26318046 0.38928697
0.11963597 -0.28679308 -0.23048523 -0.16446851 -0.015524058 -0.14263003 0.15575261 0.008790459
0.30841222 0.06140292 -0.51289475 -0.1342416 0.07930584 0.12551673 0.34794432 0.23847298
0.0631056 -0.0088422755 0.11856554 -0.38774267 0.2627336 -0.0118773645 -0.0004884571 0.23060885
-0.14563414 0.014470167 -0.20861427 -0.31682366 0.06764662 -0.13820656 -0.37070462 -0.13570783
-0.020423213 0.028169295 -0.25769338 0.043606885 -0.15630944 0.09367871 -0.049227756 -0.003190541
00000000: 62b6 a03e 37eb 36be 5a99 f9bd 82d5 123e
00000010: c346 563e 1154 8bbe 8e71 24be a301 fcbc
00000020: 1b0d cdbb a96a 113c 356a 163c 99f0 a03e
00000030: 721d 7b3e 2738 37bb f0ce dbbd 0926 1d3a
00000040: 264f 73bd c8a6 ffbc 93bd 4d3d 4157 d2bb
00000050: fe9f 113d 2fb3 cabc 2a4c 24bc 11c4 1f3c
00000060: 03b7 533d d928 57bc f641 bcbc 88e8 56bd
00000070: ca4a 303d d25a b03c 12c1 1cbc f12c 4b3d
00000080: 55e9 ffbd 60dc 253d c71f 493e ed6e 833e
00000090: a89a fb3d 7acb 863e 67a3 e13d 48de 463e
000000a0: 0c58 f33d 4c6a b2be 256d 653e 57c1 a3be
000000b0: 4afa 17bd 01a4 733e d4f6 87bc 8841 40be
000000c0: 841e 7bbd ca19 273d 1076 46be d844 37be
000000d0: 4d78 7fbe 2357 52bd d1bf 79be 3a59 0cbe
000000e0: bb04 cb3d 8ba9 54bd a3eb 5d3d 160c 76bb
000000f0: 6802 8ebe e531 113e d860 95be c28a bc3d
00000100: c78c 9bbc 7f57 f53c 9f6a 1ebc 33dd 57bd
00000110: 596b 89bb 9edc 25bb dbea 2cbc 87a4 c73c
00000120: 5e70 65bd 057c 06bd 7786 353d 2db8 14bd
00000130: b2b2 a23c c37c 1ebd 2b81 1ebd 5c20 dabb
00000140: 52d7 353e d35a 283e 0fff 92be 36d5 15be
00000150: c4fb a1bd a022 7f3e 5e8f 7e3e 9e94 14bd
00000160: becd 15bf 1c10 493e 1a6e 4a3e 1196 593d
00000170: 405e 573e 5e1b 8dbe da74 7d3e f43c 343e
00000180: 3798 86be 3e07 03be 4560 7fbd a18e 9ebd
00000190: 75e1 6fbe 098b dcbd 5ce3 4dbe d192 8abe
000001a0: 09ec e23d 15bf d0bc 6820 383d 3ea5 0fbe
000001b0: ed55 efbc 8565 b0bd 51ab 61be e4b0 97bd
000001c0: f786 113d 7606 143d a933 2abf 4334 38bd
000001d0: aae0 123e 5149 913e 0af2 963d a3af 9b3e
000001e0: a582 8fbd ce26 e9be fb51 42bd 0a85 e9bd
000001f0: e3dd adbd cfbe e73c f5dc d43d b575 503e
00000200: eea4 8bbd e578 31be c19a 3e3d 7ad4 02bf
00000210: 6f5e 24be cfd9 903e 91cd a2bd d891 b03d
00000220: dcd1 f8bc 0ea7 d1bd eee1 343e ece2 903e
00000230: 9ce7 9c3e 003f 38bd 1e18 af3c 1b54 d23c
00000240: 0085 7fbe 403d 5abc f2a8 8ebe f813 88be
00000250: 4c0e 18bd 48f7 41bd 0eeb 8ebe 617c f93c
00000260: 2fcd 5f3d 0acb 9ebe c94a 083d 4dd8 5dbe
00000270: 3aae 29bc 57c6 a63c bc46 a1be f6cd 20bd
00000280: 7b5f 89be d105 263e 9016 623c a091 09be
00000290: 3606 163e d2d6 7a3d b559 1dbd fc73 d93e
000002a0: 91f8 813e d2cc d23e 713f 05bf 6da4 a3be
000002b0: e41e b8bc 26e2 1c3e f396 94be 2e48 4d3e
000002c0: 0a24 2a3e b5c2 13be 8d1c e1bd 7725 2f3d
000002d0: 6c0e f03d 6ff1 c2bc aaf5 5a3c 8905 81bd
000002e0: f711 753d 06bd 14be eab0 1ebe c1c0 e03d
000002f0: 3ec3 1dbd b76d 85bd ca19 1b3e 084c 873d
00000300: 479f 48bd 4c52 1d3e e3bc 193e f7b5 ac3e
00000310: 37eb 013e 9a64 c5bd 8bfa 513e 41bd b4be
00000320: b0a5 babe f74a 77be b79d 52bf 9577 13be
00000330: 6c78 d0be a057 60bd ea54 953d 28ad bb3d
00000340: d08a 233e 7fd5 55be 4eec 59be 82ec 843e
00000350: a139 49be 1255 e83d 97bf 86be 9f50 c73e
00000360: b403 f53d 8bd6 92be 5204 6cbe 6f6a 28be
00000370: 9e58 7ebc 9b0d 12be 9d7d 1f3e db05 103c
00000380: 35e8 9d3e a181 7b3d 124d 03bf a176 09be
00000390: 1a6b a23d 7587 003e c225 b23e 4332 743e
000003a0: 823d 813d 31df 10bc 7dd2 f23d 3586 c6be
000003b0: 0585 863e 4799 42bc cd0b 00ba ba24 6c3e
000003c0: 1e21 15be 4814 6d3c fb9e 55be b636 a2be
000003d0: 508a 8a3d 0586 0dbe ffcc bdbe fef6 0abe
000003e0: 954e a7bc 4bc3 e63c 63f0 83be 229d 323d
000003f0: 950f 20be a0da bf3d 0ba3 49bd 6518 51bb

mlp.4.bias f4 [16]
-0.095267765 -0.04511115 -0.47466478 0.116526015 -0.033959463 0.02444177 -0.018154874 0.46061063
-0.23309869 -0.26376808 0.32853678 0.12451941 0.043276615 0.39092016 0.53980505 0.14801262
00000000: bf1b c3bd 78c6 38bd 4307 f3be 31a5 ee3d
00000010: 1419 0bbd 1b3a c83c 88b9 94bc 28d5 eb3e
00000020: 6cb1 6ebe 9c0c 87be f935 a83e 0804 ff3d
00000030: d242 313d b026 c83e aa30 0a3f 9f90 173e

mlp.6.weight f4 [3, 16]
0.027030509 0.032876056 0.0882018 0.0649862 0.038404156 0.2876478 0.022775719 -0.065877244
-0.22078666 -0.18458427 -0.0847348 0.0063965176 -0.26735833 -0.21987222 0.2669747 -0.1818107
-0.016328461 0.043216474 -0.22509925 -0.01745762 0.020101085 0.173567 0.06596665 0.26051673
-0.09285519 0.16055617 -0.18880136 0.080492675 -0.24220298 0.26999763 0.3689923 0.054013163
-0.24697171 0.053119637 0.106676 0.18061674 0.053245407 -0.17281444 0.18796372 0.045998782
-0.22333235 -0.2960164 0.18834342 -0.16680342 -0.0629223 -0.109539695 0.22490793 -0.008494312
00000000: 166f dd3c 0ba9 063d 25a3 b43d 7c17 853d
00000010: ad4d 1d3d 9346 933e 2594 ba3c a6ea 86bd
00000020: e615 62be a903 3dbe 7089 adbd e199 d13b
00000030: 31e3 88be 2f26 61be e8b0 883e 962c 3abe
00000040: 44c3 85bc c203 313d 6b80 66be 4803 8fbc
00000050: 08ab a43c 8cbb 313e 8619 873d 7362 853e
00000060: dd2a bebd d668 243e 2555 41be 58d9 a43d
00000070: 0f04 78be 213d 8a3e 8fec bc3e e83c 5d3d
00000080: 27e6 7cbe fa93 593d f278 da3d 98f3 383e
00000090: db17 5a3d 45f6 30be 9079 403e 3869 3c3d
000000a0: 3cb1 64be 768f 97be 19dd 403e 84ce 2abe
000000b0: 68dd 80bd 5956 e0bd 444e 663e ba2b 0bbc

mlp.6.bias f4 [3]
0.022350991 0.30771086 -0.17636643
00000000: 6d19 b73c 478c 9d3e 6799 34be
