EUSIPCO/CoherentSourcesModified/saved_models/rnn_5.0dB_2.pth (torch, 87794 bytes, 14 tensors)

bn.weight f4 [16]
00000000: e1a0 903f 351c 4e3f 9975 373f 4b78 8d3f
00000010: 18bd a03f 22f7 963f cfaa 803f 9993 373f
00000020: 9619 553f fa8c 8d3f 2126 a93f 8e86 9d3f
00000030: 569d 763f 316f 853f 811a 7b3f 0697 993f
1.1299096 0.8051179 0.71663815 1.1052336 1.2557707 1.1794169 1.0052127 0.7170959
0.83242166 1.1058648 1.3214761 1.2306688 0.96333826 1.0424558 0.98087317 1.1999214

bn.bias f4 [16]
00000000: 6da8 6dbd 67dc 063e e07c 4fbe 6bd4 dabd
00000010: 52af 18be 20f4 b2bb 0c33 80bd 36ff a73d
00000020: 7271 ec3d e148 f83d 646f 0bbe 5e3d a3be
00000030: 928b f0be 8b36 19be c91e 90bd b0ce ea3e
-0.05802195 0.13170014 -0.2026248 -0.10685047 -0.1491063 -0.005461231 -0.062597364 0.082029745
0.115450755 0.121232755 -0.13616711 -0.31882757 -0.46981484 -0.14962213 -0.07037122 0.45860815

bn.running_mean f4 [16]
00000000: eb31 52ba 4c08 d3b9 2c3e d33a d14e e0ba
00000010: c882 713a 4da8 5bb8 0db9 0a39 bb7e c4ba
00000020: cec3 753a 0491 28bb dfe8 5e3a 0fad 133a
00000030: 21c1 3d3b 0828 66bb 6011 393a 27e2 b8b9
-0.00080183026 -0.00040251238 0.0016116551 -0.0017113333 0.00092129083 -5.237041e-05 0.00013229642 -0.0014991382
0.00093751855 -0.0025721202 0.00085033284 0.0005633393 0.0028954225 -0.0035119075 0.0007059779 -0.00035263711

bn.running_var f4 [16]
00000000: aee6 d33f 4574 d43f 0701 d63f 2f54 d23f
00000010: 9d15 d63f 4978 da3f 9b51 d63f 52d9 d73f
00000020: 755d d33f d260 d53f 36f5 d53f f126 d23f
00000030: 735d d63f 9276 da3f b3d2 d63f db51 d83f
1.6554773 1.6597983 1.6719064 1.6431941 1.6725346 1.7067958 1.6743654 1.6863196
1.6512896 1.6670172 1.6715457 1.6418134 1.6747268 1.7067435 1.678305 1.689998

rnn.weight_ih_l0 f4 [48, 16]
00000000: 2891 4a3d ab6f 00be 7ee6 01be 3587 49bd
00000010: 990e 773f 517c 5bbe a520 febd ccbd f5be
00000020: 7666 da3e a2b1 a5be 4dd3 03be b924 6d3d
00000030: c387 f63e 9bd4 0bbf 31ff 523d 07df 5d3e
00000040: 8287 4f3e 86bc 703d 5854 92bd 2488 12bf
00000050: 7afa 8dbe 9a93 283f e2b2 2c3d a717 463f
00000060: ec63 733e 7732 963e 633e a83e 7a8f bbbd
00000070: 3cfd b3be e79b 80be a089 883e 4278 c03d
00000080: 930d 4ebf 11db 79be 0597 42bf 3a81 ac3e
00000090: 2bb1 353d c937 663f a51f 8f3e 84c4 be3d
000000a0: c631 12bf fea0 bbbb cd65 edbe 1eb3 fd3d
000000b0: 196b 14bf ede1 553d 9b75 95bf b509 e63e
000000c0: 4d53 e2be d469 603e 551e 30bf 6fef 1abf
000000d0: 2fcd a5bd 9940 fabe afee fbbe 6a83 d6be
000000e0: f87c 7fbc 54e3 323f 2cc6 8ebc d4a8 053f
000000f0: a549 a3be 56aa 353d 37ec 00bd e784 84bf
00000100: 0462 f93e 7028 743e f835 babe 2ff8 43be
00000110: 3eff 68bd 0a75 de3e e40f 273f e417 443f
00000120: 0857 cabe c6c2 e2bf 39d2 d5bf f794 68bf
00000130: 7635 1d3f 5aef c53f cb7a 9d3f 5f89 4d3e
00000140: 6145 a53d 96e1 5ebf 2c23 503f 33a6 8dbe
00000150: 8d56 513d 5084 c93e 08c3 d83d 5cac 6bbf
00000160: 471e a13f 3929 cdbe 8d99 c13b de56 573f
00000170: f699 8fbc 6213 4abf 6db7 463f a68d 34be
00000180: 3bca 2cbd 1e6d c1be 9942 46bf ab45 c03f
00000190: cd9b 84bf 902d ba3f e637 2cbf 9574 dbbd
000001a0: 29cb 423e 1641 11bf 8e00 a03f 222e 86bf
000001b0: 5958 fb3e 47fe 703e b61e 09bf 20b8 033f
000001c0: 9f51 c93e 9171 88bf 99e7 6e3f 0ec8 56bf
000001d0: 1bd8 cdbe defd 583f 22a6 75bf 8e9a 5a3f
000001e0: b191 8a3f f1c5 0dbf 3b7e c3bd ddc4 ad3f
000001f0: 7361 cdbf 1067 603f 1162 a73c 1797 a2bf
00000200: 69be 653f 084d 28bf 50a9 d0be c1e2 9b3f
00000210: 44e6 693e d61e acbf f37a 4c3f dbc5 c13e
00000220: 0f5c 803e 3ee5 e13e cda0 82bf 9130 90bd
00000230: 3f6e a93f f083 37be 954a 3cbf 6646 0c3f
00000240: df44 033f 3729 183f 9c06 bd3d a3e6 9fbf
00000250: 5b14 b13f b3d5 22bf bf3b 73bd 0c5b e33e
00000260: 9e61 b3bc d9cd bcbd 2cac 0b3f c92f 43bf
00000270: 88df 363d 6eff 813f 7e0e 9dbf ba29 a23e
00000280: 12f1 d0be 785d 763f 42ca 98be fbf0 703e
00000290: cf96 933e 18f5 24be 3e96 8d3f 417f c4be
000002a0: 74c1 cdbe 9343 0b3f 946e 35bf 044a 853e
000002b0: 5249 fdbe fa5e 0f3f e621 f73d e529 cabf
000002c0: 276b 06be cb54 3d3f c121 963d 515e a83f
000002d0: 156e 5cbe d00c a53e 5e08 953d 040e ae3e
000002e0: d12a 08be e8e3 0f3f 7749 0fbe 0a9f 08bf
000002f0: a6a0 c03e 8be7 853d 7412 8e3b 4a38 02bf
00000300: 3329 ac3e 9c14 33be dc8b 6a3e e18e 79be
00000310: 082f 45bf 990e 373f cfae 31bf 736d cb3e
00000320: b187 3e3f ca08 223d 1455 5fbe 85a0 7c3f
00000330: b111 29bf a458 143d 5745 603e 4f07 37bf
00000340: dd93 75be 2f59 d4be 3c1d f0be 4b4f b23e
00000350: 0ee0 573f 5ceb 0c3f 1ba5 213e c3e1 1c3e
00000360: d7b9 9f3e 0909 3b3e 269e ee3e bf35 8dbe
00000370: 1bda a3be b4e5 133f 09d2 803f b9b5 493c
00000380: f2c7 333f 6b09 8cbf 0e6a 9cbe cacf a43e
00000390: c74f 1dbf d2af b63e f8fe c53e 7258 52bf
000003a0: 464c 0abf 83c1 ddbe 6480 3e3f bd16 583c
000003b0: b8ec 60bf 75e9 853f 325a e2be 0d8e d6bd
000003c0: eb0b 21be 6522 8c3f bff7 d7ba 0855 3f3f
000003d0: 9c70 a93d 4f0f 5c3d d9a5 843e 2d35 033f
000003e0: 6dee 6dbf be05 4c3e c329 8e3c c2bf a7be
000003f0: 9c0d 623a e985 373f 919e 12bf 2a18 8a3f
0.049454838 -0.12542598 -0.12685582 -0.04920121 0.9650665 -0.21434142 -0.1240857 -0.47996366
0.42656296 -0.32362086 -0.12873574 0.05789635 0.48150453 -0.54621285 0.0515129 0.2166711
0.20266536 0.05877354 -0.071449935 -0.57238984 -0.2773016 0.6585022 0.042162783 0.7737984
0.23768586 0.29335377 0.32860097 -0.09158225 -0.3515414 -0.25118944 0.266675 0.09397937
-0.8048946 -0.24399973 -0.7601169 0.33692342 0.044358414 0.8992887 0.2795383 0.09314826
-0.571072 -0.005725979 -0.4636673 0.123876795 -0.5797592 0.052217413 -1.1676515 0.4492928
-0.44204178 0.2191537 -0.68796283 -0.60521597 -0.08095776 -0.4887741 -0.4920554 -0.41897136
-0.01559376 0.69878125 -0.01742848 0.52210736 -0.31892124 0.044351898 -0.031475272 -1.0353059
0.48707592 0.2384355 -0.363693 -0.19137643 -0.056884043 0.4344867 0.6525862 0.76598954
-0.39519525 -1.771569 -1.670478 -0.908523 0.614097 1.5463669 1.2303098 0.20071934
0.080698736 -0.87062967 0.8130367 -0.27665862 0.051107932 0.3935876 0.10584074 -0.92059875
1.2587365 -0.40070513 0.0059081973 0.84116924 -0.017529469 -0.78935826 0.77623636 -0.1763216
-0.04218505 -0.37778562 -0.7744537 1.5021261 -1.0360047 1.4545155 -0.67272794 -0.10715596
0.19022812 -0.5673994 1.2500169 -1.0482829 0.4909084 0.23534499 -0.53562486 0.5145283
0.39320084 -1.0659658 0.9332214 -0.8389901 -0.40203938 0.8476237 -0.95956624 0.8539208
1.0825711 -0.5538016 -0.09545561 1.3575703 -1.6045364 0.8765726 0.020432504 -1.2702359
0.8974367 -0.6574254 -0.40754175 1.2178575 0.22841746 -1.344691 0.79875106 0.37846264
0.25070235 0.4412021 -1.0205323 -0.07040513 1.323677 -0.17921424 -0.73551303 0.5479492
0.51276964 0.5943789 0.09229776 -1.249226 1.3834337 -0.6360733 -0.05938315 0.444054
-0.021897133 -0.0921895 0.5455959 -0.7624479 0.04464677 1.0156076 -1.2270048 0.3167246
-0.40808922 0.9623637 -0.2984181 0.23529427 0.28825995 -0.16109121 1.1061475 -0.38378337
-0.40186656 0.54399985 -0.70871854 0.26033032 -0.4947 0.560043 0.120670125 -1.5794035
-0.13126813 0.7395751 0.07330657 1.3153783 -0.21526368 0.32236338 0.072769865 0.33995068
-0.13297583 0.5620713 -0.13992868 -0.53367674 0.37622565 0.06538304 0.004335696 -0.5086714
0.33625183 -0.1748833 0.22904915 -0.2437091 -0.7702489 0.7150665 -0.6940736 0.3973194
0.744258 0.039559163 -0.21809798 0.98682433 -0.6604262 0.036217347 0.21901451 -0.7149553
-0.23982187 -0.41474292 -0.46897304 0.3482612 0.84326255 0.5504663 0.15785639 0.15320496
0.31196472 0.18265165 0.46605033 -0.27580068 -0.3200234 0.57772374 1.0064098 0.012311392
0.7022697 -1.0940374 -0.30549663 0.3218978 -0.61449856 0.35681015 0.38671088 -0.82166207
-0.54022634 -0.433117 0.7441466 0.013189015 -0.87861204 1.046187 -0.4420944 -0.10476313
-0.15727203 1.0947996 -0.0016477032 0.7473912 0.08273432 0.053725537 0.25907782 0.51253015
-0.92941934 0.19924065 0.017353898 -0.32763487 0.0008623244 0.71688706 -0.57273203 1.0788624

rnn.weight_hh_l0 f4 [48, 16]
00000000: 5d0d 1bbe 6255 5e3e b3df 303e 9c5a 87bf
00000010: d0ea b03e fdc3 c9bd b1f9 9a3e d5d3 d23e
00000020: 9162 0b3f 256e fcbe 00ba 1dbd ce88 cd3e
00000030: caff 263f 19d5 dbbe 4f0a d53e e7b8 8fbe
00000040: f1ca 003f 8433 ae3f 5726 bbbe 2a2d 11bf
00000050: 3327 773f 7b89 5fbe f5a1 e8bd ead3 20bc
00000060: 5575 083e cb92 553f dce8 11bf 6f14 0e3e
00000070: 9c8a 053e 48a9 fcbe ebb9 0b3e 6505 88bc
00000080: 631d 533d 7b9e cdbe 56a8 513e a9cd fdbe
00000090: 85db 413f a07b 00bf 2aa5 a4be ed20 bdbf
000000a0: a56a e63e 9315 ddbd 3b6b 38bf 8fac 783e
000000b0: dfff 053e a387 84bf a4fe 7fbe 15a1 f13c
000000c0: 6adb 253e d536 833e 2954 c8be 51b4 f0bd
000000d0: 84b5 ec3f d99c 1a3d 5192 64bf e332 be3e
000000e0: c908 b33e c766 2c3f 0392 6bbf f55f 363f
000000f0: 4c96 edbe 04db 79bf a7ac 96be dfb7 e5bd
00000100: 8f04 473f e56b 153f 4acb 0abf bfa8 2c3e
00000110: 0567 473f 9dfd 0ebf 50ed a8bc bc9e a23e
00000120: f5c7 703d 8b6a 8abe 4926 903c 1826 3c3d
00000130: 22c1 ffbd ec5a 753f f30c 093d 1304 2abe
00000140: 5e6f 8ebd bcff 21bd 4f3b e83e 657d 1dbf
00000150: e99c ab3c 46bc 12c0 8a1d 373f 0003 89bf
00000160: 010b 0540 8151 f7be 87fa fabc 3e7d 5f3f
00000170: c694 213f f66d a0be 899c a33f d8eb 16bf
00000180: 03d0 d4be 4adf babe 0a3b 233f ccff 56bd
00000190: 7767 fabe 5d99 5f3f 7b76 69bf 8f91 2abd
000001a0: 98b4 9dbf a476 9e3e 8e83 38bf 7ea5 1d3e
000001b0: 1c8e 9a3e e1ee e1bd dda8 8a3e 157d 1abd
000001c0: 5d29 4e3d 3474 6d3e d130 59bd 68e2 01bf
000001d0: 9b72 3cbd 2cc5 623e 86f4 6a3e 6014 2abf
000001e0: be0f 3abe 679b c73b 6f2d c6be 655a 3a3e
000001f0: df6f c73e 824e 99bd 5ebb 81be e3a1 f63d
00000200: 00a0 ae3c a9b2 c73e 417c 063f 13c1 f6be
00000210: 26c1 92bd 05ba 75bf 4188 fc3e 1452 aabf
00000220: eb7a 0a40 2b9d 09bf d825 7a3d 53a9 493f
00000230: 3ec1 8d3d 3fb8 cdbd 73de 853e 461d eabe
00000240: 73e7 0cbe 07ae 473c f0a7 12be 581a 3abc
00000250: a260 5b3d 3a24 ecbe 4f94 073e c52f 8cbf
00000260: 7837 243e 9115 52ba 83d5 0bbe e391 54be
00000270: 670f af3c cfe7 d3bc b8fe e23d 5863 133f
00000280: f13d 343f 93db 0a3e a333 1ebf 73ec 06bf
00000290: 8c51 ec3e 93c2 003f fa6e dbbe 1e43 cebe
000002a0: 8943 15be 3660 b3be 47ea 85bf 6142 063e
000002b0: 2d01 94be 545a fd3e cb0e cebe 2b3a 553f
000002c0: 6550 8f3e 6665 4abf 14ab bfbc 4a80 9e3e
000002d0: 9802 26bf dbcc 62be fef7 6ebf 1f8b 7f3f
000002e0: 8fa8 13bf 22a6 203f 7481 2ac0 a7b8 07bf
000002f0: 5acf 623f 5758 023f 8864 67be 63d6 fa3d
00000300: e801 aebe 5be0 2abd bba5 283d d565 a53d
00000310: 41ea 31bf 3978 a9bf 17ef 4e3f def7 a5be
00000320: 0422 043f 6de0 37bf 6b56 0cbe 26c5 b2bd
00000330: 33a2 c63e d244 1dbf efff a13e 0e60 093e
00000340: 7ee8 5f3e 41f8 1e3e 36c0 9e3c e204 c43d
00000350: 9018 403f a44e d8be c04f 2b3f 6731 dabe
00000360: 3cc1 b63f c308 01bf 6077 0a3f 7b9d 653f
00000370: a740 e6be 7008 6b3f 489e 113f 4865 80be
00000380: 7b5b 0dbd 8d2d 4ebf 3e16 7ebe 4c2f 983e
00000390: 6763 79be 19af 9fbe cb8c dabf 2091 2ebf
000003a0: 942d 17bf 19e0 fa3e 3f4a 99bf 9969 dcbe
000003b0: 88a4 0b3b 2709 ca3e ba28 c2bf 7036 6d3e
000003c0: 779a a03e 5976 4dbe f4c6 0e3f 80e7 0ebf
000003d0: 4034 9d3d 3b59 1cc0 39a4 5a3e b588 00bf
000003e0: 4937 6e3f d57b 7dbf 0b38 66be 9853 893e
000003f0: c2fb d33e 0450 88be aeb7 813f 01c1 10bf
-0.15141816 0.21712258 0.17272834 -1.0574527 0.34554148 -0.09851835 0.30268624 0.4117724
0.54447275 -0.49302784 -0.03850746 0.40143436 0.65234053 -0.42936018 0.41609427 -0.28070757
0.50309664 1.3609471 -0.36552688 -0.5670954 0.9654419 -0.21829788 -0.11359016 -0.009816149
0.13326009 0.83427113 -0.5699594 0.13874982 0.13041157 -0.493479 0.13645141 -0.016604135
0.051541697 -0.40159974 0.20474371 -0.4957097 0.75725585 -0.50188637 -0.3215726 -1.4775673
0.45003238 -0.107951306 -0.7203862 0.24284576 0.13085888 -1.0353893 -0.24999481 0.029495755
0.16196981 0.2562777 -0.3912671 -0.117531426 1.8492894 0.037747238 -0.8928576 0.37148198
0.3496764 0.67344326 -0.9201967 0.7124017 -0.4640373 -0.97599816 -0.29428598 -0.11216711
0.7774133 0.5836776 -0.54216444 0.16861247 0.7789157 -0.55855733 -0.020620972 0.3176173
0.058784444 -0.2703441 0.01759638 0.045934767 -0.12488009 0.9584186 0.033459615 -0.16603117
-0.06954835 -0.039550528 0.4535775 -0.6151946 0.020948844 -2.2927413 0.7152945 -1.070404
2.0787966 -0.4830437 -0.030637039 0.8730048 0.63117635 -0.31333894 1.2782146 -0.5895362
-0.4156495 -0.3649848 0.6376196 -0.05249004 -0.48907062 0.8734339 -0.9119641 -0.04164272
-1.2320738 0.3094989 -0.72075737 0.15395162 0.30186546 -0.11031891 0.27081957 -0.037716944
0.050332416 0.23188859 -0.05302507 -0.50736094 -0.046007734 0.22145528 0.22944841 -0.6643734
-0.18170068 0.0060915234 -0.38706538 0.18198545 0.38952538 -0.07485677 -0.25338262 0.12042596
0.021316528 0.39003494 0.52533346 -0.4819418 -0.071657464 -0.9598697 0.49322703 -1.3306298
2.1637523 -0.53755444 0.061071247 0.78773993 0.06921624 -0.10044908 0.26146278 -0.4572546
-0.13760166 0.012187487 -0.14321876 -0.01135882 0.053558953 -0.4612139 0.13240169 -1.0952078
0.16036785 -0.0008014078 -0.13655667 -0.20758776 0.02136965 -0.02586737 0.1108374 0.5757346
0.70407015 0.13560323 -0.6179754 -0.5270454 0.46155965 0.50296897 -0.42858106 -0.4028558
-0.14576544 -0.3503434 -1.0462121 0.13111259 -0.28907147 0.49482977 -0.4024566 0.8329188
0.27991024 -0.7906097 -0.023397006 0.30957252 -0.6484771 -0.22148459 -0.93347156 0.99821657
-0.57679075 0.627535 -2.6641512 -0.5301613 0.88597643 0.50916046 -0.22596943 0.12247922
-0.3398583 -0.04171787 0.041173678 0.080760635 -0.6949807 -1.3239814 0.8083357 -0.3241567
0.51614404 -0.7182682 -0.13704841 -0.08729009 0.38795623 -0.61433136 0.31640574 0.13415548
0.21866032 0.15524389 0.019378763 0.09571244 0.7503748 -0.42247498 0.66918564 -0.42615816
1.427772 -0.50403994 0.540884 0.8969342 -0.449712 0.9180975 0.56882143 -0.2507727
-0.03451107 -0.80538255 -0.24813172 0.29723585 -0.24354325 -0.31188276 -1.7074217 -0.68190193
-0.5905392 0.48999098 -1.1975783 -0.43049315 0.0021307785 0.39460108 -1.5168679 0.23165298
0.31367847 -0.20064677 0.5577233 -0.5582199 0.076759815 -2.4429462 0.21351708 -0.502086
0.9305311 -0.9901708 -0.22482316 0.2682159 0.41403013 -0.26623547 1.013418 -0.565445

rnn.bias_ih_l0 f4 [48]
00000000: d31d ea3e 51c9 093e f78b ff3e 9869 b33e
00000010: ccb4 1ebf 9255 35be 8a76 aa3d dbab 243e
00000020: a46f ca3e 64a9 633d 60f6 9ebe c2f6 3d3d
00000030: 5c0c fd3e e850 e4bd 6055 a3be b161 06be
00000040: ab41 c23f 2ecf c83f 3e2b 473f 56bd af3f
00000050: cc06 ad3f 1e01 8b3f bfee a53f 4f45 a73f
00000060: af10 a13f ea60 813f 2734 b83f 145c 9e3f
00000070: 9fc8 7e3f eeca 7a3f 5340 9f3f c393 4e3f
00000080: dca1 22be a51d 8abb 7be7 32be 377b 213e
00000090: bd16 9b3d 21e6 5cbe 9a1d 89be 13cf 263f
000000a0: d802 b83e 3dae 933d ff61 c6bd fd9c 81be
000000b0: a2aa 4f3d 030e 20bf c2c1 413c e56d a2be
0.4572588 0.13455702 0.49911472 0.350415 -0.61994624 -0.17708424 0.08323391 0.16081183
0.395383 0.055581465 -0.31047344 0.046377905 0.49423492 -0.11148244 -0.31901073 -0.13123204
1.517629 1.5688226 0.7780036 1.3729656 1.3517699 1.0859716 1.2963485 1.3068026
1.2583216 1.0107701 1.4390916 1.237185 0.99524873 0.97965896 1.2441505 0.80694216
-0.15882057 -0.0042149597 -0.17471115 0.15769659 0.07572696 -0.21572162 -0.26780397 0.6515972
0.3593967 0.07210968 -0.0968666 -0.25315085 0.050699838 -0.6252138 0.011825981 -0.31724468

rnn.bias_hh_l0 f4 [48]
00000000: 5064 e73e fe66 a1bd 139e d53e 41bf 933d
00000010: c724 41bf 51fd a8bd b508 15be bd17 25bd
00000020: 75b5 bd3e c098 233e 6e8b 88be f934 7ebe
00000030: b644 c53e 1703 abbe 05a4 b6bd ef0a 2ebe
00000040: d9fa b83f 0f0e b73f 7407 813f 5072 8f3f
00000050: 79de b13f 13d2 913f 28f3 c53f 0289 a03f
00000060: ca86 953f 3eec 8a3f 1b33 ad3f 1d3c d33f
00000070: 3225 543f 6d58 923f 2c0b a23f ac1a 793f
00000080: 0c37 a63d 8527 703e e1c8 403c 7ada 48be
00000090: a7a1 e6be 4f82 0bbf ac98 3ebe 4afd f53e
000000a0: 1f51 3a3f 9892 fbbe dc30 b7ba a736 753d
000000b0: 1cdb 903e 001e bcbe 4170 f13d 5a88 04be
0.4519372 -0.07880972 0.41722164 0.07214213 -0.7544674 -0.08251441 -0.14554103 -0.04030584
0.37052503 0.15976238 -0.26668876 -0.24824895 0.38528985 -0.33400795 -0.08918003 -0.16996358
1.4451553 1.4301165 1.00804 1.120676 1.3896018 1.1392235 1.546483 1.2541811
1.1681759 1.0853345 1.3531221 1.650272 0.82869256 1.1433235 1.2659659 0.97306323
0.08115968 0.23452576 0.011766643 -0.19614592 -0.45045206 -0.5449571 -0.18612927 0.48044807
0.7278003 -0.4913528 -0.0013976353 0.059866574 0.28292167 -0.36741638 0.11788989 -0.12942639

mlp.0.weight f4 [128, 16]
00000000: d54b 923e df19 acbe 7a82 48bc 559f 94bd
00000010: 3f66 88be b847 ecbe 0c23 c8be 5ef8 533d
00000020: f0c8 73bd 6735 19be 389a 2fbf da09 5a3f
00000030: 36eb 2c3e 2c71 6f3e c4c5 643e dd4d efbc
00000040: 11fa 08bd 1496 a7be 0c61 80bd 1663 1e3f
00000050: acb1 7d3e 0260 34bc fd2c f73d 4ef1 ca3e
00000060: 0b62 dabe 39b5 083e c755 503d 927d 143f
00000070: b3e1 003e 1360 143f 5504 12be 6c1c 513d
00000080: 8103 2e3f a005 893e d48b e93d 602b e33d
00000090: 1a61 963e 46d4 cabd ec93 e83c d2c9 4fbe
000000a0: 36ce a7bd d282 24bc bb07 a13e 66e5 da3d
000000b0: 4c5f 5e3a 368a 8e3e 9a8b bbbc 69e2 69be
000000c0: 2145 983e e699 e13e f945 9fbd 7eff 0bbe
000000d0: ca3d c43d c192 b4be a3fb f13d b612 f9bd
000000e0: 30cf 0ebf 6e1a 033c bc55 bcbe 1352 793e
000000f0: 123c 7c3e b5f6 173f 9894 8c3e 8a84 0a3d
00000100: bb2b 07be 31e9 95bd 4bd5 b23c 9c61 efbc
00000110: 599c 80be 2266 06be 2236 84bd 5d93 80bd
00000120: 28bc b1bd c315 8c3c 16d9 1c3e 9b35 e5bd
00000130: 1bc6 003d 4a90 d43a 0ad7 a63d c3d9 bfbd
00000140: 99a0 d43e 75f0 09bc ac7c 84bd 3696 d93d
00000150: fe31 ab3e c936 7bbd ae85 07be 2458 c23d
00000160: 7729 f03d b1b6 9bbe 78d3 6d3b 474b 8c3d
00000170: bf83 adbc 328f 663e 7b53 fb3d 77ff 9e3d
00000180: 6fc9 9a3e 1612 e13d faa8 263c 05e3 aebd
00000190: 1b02 113e c74c 423e 37e9 a23d 970c aa3d
000001a0: 73d3 eebd c758 1f3a 87b8 bdbd ea3c a33e
000001b0: 23cd 833d 9426 dc3e af24 9b3b faf8 6cbd
000001c0: 2a1e 663d d8a5 163d d44b adbd af76 7bbd
000001d0: 34fe 363e e300 ee3c a437 763c fa37 13bd
000001e0: 12d5 df3b 2b33 fdbd aa83 b2bd 0f34 a03c
000001f0: 1015 323d 5fa6 073e eaa9 933d f438 cc3d
00000200: 3714 e4bb 336f 9bbd 2719 383c f5a2 a23d
00000210: d26a cebd b885 20be b26b 653e 9633 0f3f
00000220: bfe8 abbd be53 e43c 22ad 163f e490 8fbd
00000230: 7930 8bbd 1f4b bcbd 3214 40be 7d3e 95bc
00000240: afbb 2b3e bb22 953d e793 91bd 771b b13c
00000250: 290d fe3d b1ab c2bd f11b 423d 105d 88bc
00000260: 4936 52bc aba0 03be 838e bb3b 1ea2 5b3e
00000270: 49bc 1d3c c083 d03d 1004 bdbd c2e2 00be
00000280: 8322 ac3e 0276 55be 1dd8 51be 438f 0ebe
00000290: e2ad f23e 219f 2abe e46e c0bd a990 9e3d
000002a0: ad42 debb 1d8e 82bd 8793 0ebe b62c d83d
000002b0: 00b2 f4bc 2581 583e f756 46be 0f3f 0bbd
000002c0: 96ca a7bd 9c86 dfbb 691a 67be e37d 22be
000002d0: 12bb 19be a9ce 51bd 2e74 e63d 914a 283e
000002e0: 5ae6 353e 6dcf be3d 5d59 7bbd a0c9 b83d
000002f0: 4520 3c3e c7a5 28bd 5073 68be a22e 923d
00000300: 0c74 783e 4919 323e 177e a53d ef1e f73d
00000310: e2e2 85bb 1f9e 033e e7e9 59bb 4c2a 053e
00000320: fc7b 83bd ae71 78bd 9cc8 eeba 39c4 cd3e
00000330: 4d37 59be 37f0 093f 7588 08be 3692 7b3c
00000340: 6a15 3a3d 2343 38bd fd33 2ebe 1834 fe3c
00000350: cf7a fb3d ada7 0ebd 13b0 223d c470 d13d
00000360: e57a f4be a234 613e c85e e2be 0195 32be
00000370: 632b b2bb 1084 67bd 262c 1e3d 1527 afbc
00000380: cb8b a73c 1f9b f4bc 6273 023e ce58 a1bd
00000390: 14cb e5bd 6600 bd3e 58a1 8a3e 022d 683d
000003a0: 0519 85be b32a 683e 1a27 e43e 8166 853e
000003b0: 688c f5bd fa51 983c c506 123e e6f2 1dbd
000003c0: 2a4c c4be d86e ce3d 9aa4 c1bc 3f9f bfbd
000003d0: f354 61be b332 9abe 7842 87be 3f94 c2be
000003e0: c1f6 013e 19c1 583e c731 653f f32b 803e
000003f0: 77e8 c9bb 1d04 e43d 6796 0abe 645d a6bc
0.2857348 -0.33613488 -0.012238139 -0.07256953 -0.26640508 -0.46148467 -0.3908924 0.051750533
-0.0595178 -0.14961778 -0.68594694 0.8517128 0.16886601 0.23383015 0.22341067 -0.029211933
-0.033441607 -0.32731688 -0.0626851 0.61869943 0.24774808 -0.011009218 0.12069128 0.39637226
-0.42652926 0.13350381 0.050863054 0.58004105 0.12586097 0.579591 -0.14259465 0.051052496
0.67974097 0.26762104 0.11403623 0.110922575 0.29370958 -0.09903769 0.028390847 -0.20291832
-0.081936285 -0.010040956 0.3145121 0.106882855 0.0008482828 0.27839822 -0.022893716 -0.22840275
0.2974024 0.44062728 -0.07777018 -0.13671681 0.09582098 -0.35268214 0.11815574 -0.12161772
-0.55784893 0.008001907 -0.3678416 0.24347715 0.2463229 0.5936082 0.27457118 0.033817805
-0.13200276 -0.07319868 0.021830222 -0.029221348 -0.25119284 -0.13124898 -0.064556375 -0.06278107
-0.08678466 0.01710022 0.15317187 -0.11191865 0.031438928 0.0016217318 0.08146484 -0.093677066
0.41528776 -0.008419146 -0.06469092 0.106243536 0.3343658 -0.061331544 -0.13234589 0.09489468
0.11726659 -0.3041282 0.0036289375 0.068502955 -0.021180985 0.22515562 0.12271782 0.0776357
0.30231807 0.10989778 0.010172123 -0.08539394 0.1416096 0.189746 0.079546385 0.083031826
-0.116614245 0.00060785975 -0.092637114 0.3188241 0.06435611 0.42998183 0.0047345976 -0.05785463
0.05618111 0.036779255 -0.08461729 -0.061392482 0.17870408 0.029053157 0.015027914 -0.035942055
0.00683082 -0.12363275 -0.08716519 0.019556073 0.043477118 0.1324706 0.07210143 0.099718004
-0.0069604176 -0.07589569 0.011236466 0.07941238 -0.10078968 -0.1567601 0.22404364 0.5593809
-0.08394002 0.027871963 0.5885793 -0.070100576 -0.06796355 -0.09194016 -0.18757704 -0.018218273
0.16770814 0.07282015 -0.07108288 0.021619542 0.12404854 -0.09505404 0.04738993 -0.016645938
-0.012830325 -0.12854259 0.005723776 0.21448562 0.00962741 0.10181379 -0.092292905 -0.12586501
0.3362008 -0.20845798 -0.20492597 -0.13921838 0.47398287 -0.16662265 -0.09396151 0.077424355
-0.0067828507 -0.06374762 -0.13923465 0.10555403 -0.029870033 0.21143015 -0.19369112 -0.033995684
-0.08192937 -0.0068214666 -0.22568668 -0.15868334 -0.15012768 -0.051222477 0.11252628 0.16434695
0.17763653 0.09316907 -0.06136452 0.09022832 0.18371685 -0.041173723 -0.22700238 0.07137801
0.24263018 0.17392458 0.0808069 0.12066447 -0.0040858844 0.12853287 -0.003325099 0.13004416
-0.064201325 -0.06065529 -0.0018217745 0.40188769 -0.21212502 0.53882164 -0.13333304 0.015354684
0.04543058 -0.0449859 -0.1701202 0.0310307 0.12279283 -0.034827877 0.0397187 0.102265865
-0.4775001 0.21992734 -0.44212937 -0.17439653 -0.005437301 -0.05652243 0.038616322 -0.02138094
0.0204524 -0.029859124 0.12739328 -0.07878266 -0.11220375 0.36914366 0.2707622 0.056683548
-0.2599565 0.22672538 0.44561082 0.26054767 -0.11989671 0.018593777 0.14260395 -0.038561724
-0.3833936 0.100797355 -0.023638058 -0.09356546 -0.22005062 -0.30116805 -0.264179 -0.38003728
0.12691785 0.21167411 0.8952908 0.2503353 -0.006161745 0.11133597 -0.13533936 -0.020308204

mlp.0.bias f4 [128]
00000000: d86c 0abe 2335 cbbe 2116 afbe cfca 9bbe
00000010: f7eb cd3e 5443 d0be e537 09bf c931 efbe
00000020: c2b8 34bf 11c6 75be d5ce 133e 5098 ec3e
00000030: 5cdd 10bf 2a4d d9be 6b3a d4be 90e3 22bf
00000040: 1bb0 a4be f2af bcbe 9fc7 e5be 9157 053f
00000050: a9ab b1bd 201e 98be a240 853c 743c 92be
00000060: bffb 04bf f1d4 44be 6396 e2be 0b29 883e
00000070: 2586 95be 6389 3cbe 4fba 36bf 6f44 a23d
00000080: cc22 3ebf ae4f 86be 5768 d73e 54a4 1abf
00000090: d25c a7be 80d0 b33e bcd4 05bf 044e 683d
000000a0: 02df d4be 5e30 903e e1c4 06bf c50c e8be
000000b0: bfbe 63bf 3996 f13d 9819 44be 63aa a73e
000000c0: 71f9 c7be 4525 c5be fdb9 82be bebe 84bd
000000d0: 29cb f13e 3dfe bbbe 3647 bc3d 667b ae3e
000000e0: c737 84be b504 b93e c2a2 41be 970a f3be
000000f0: 027a d7be a2ef b53e 3523 bd3e b59d 29be
00000100: 9f2b 5f3e d2f0 0bbf 7024 84bd cc44 a3be
00000110: 5787 ba3c 4333 b43e 9c61 03be 7998 b53d
00000120: e0a2 ce3e 7c88 aabe 7cdb 24be 8550 b2be
00000130: 46f6 a0bd a7b6 f5be 3735 23be 02f5 2ebf
00000140: bad5 31be 2c9d ba3c 4f9d f7bc 70cd d6be
00000150: 3081 533e d7d1 4bbe bf76 3f3c 4d7c e3be
00000160: c5aa bebe af41 efbe 17af 3dbe 671a 193c
00000170: 5dbf f7be b2cf b73e 5fcb 77be ec5c e8be
00000180: 831b dbbe f9a5 d3be 2de5 d7be f7fe e2be
00000190: 97d1 66bf daa4 16bf 3a14 ccbe 90b6 9a3e
000001a0: 0dd2 0ebf 0d69 4e3e 810e 3bbd e065 b2be
000001b0: a327 a8bd 6633 683e 1373 c5bc 708d 4d3e
000001c0: 9e7e ddbe 0fc4 973e 79bd 1abf 0a6b a5bd
000001d0: 83ff 28bf 9103 5c3d 48e5 ff3e 3c16 d53d
000001e0: bece a6be 1498 013e dca4 febe 985a b6be
000001f0: a94c 86bd 6b63 9bbc 001c 4e3b bbfe 18be
-0.13518083 -0.39688978 -0.3419657 -0.30428168 0.4021909 -0.40676367 -0.53600913 -0.4671767
-0.7059442 -0.24001338 0.14434369 0.46209955 -0.5658777 -0.42441684 -0.4145082 -0.6362848
-0.32165608 -0.36852986 -0.4487886 0.5208674 -0.0867532 -0.29710484 0.01626617 -0.28561747
-0.51946634 -0.19221856 -0.4425536 0.26593813 -0.29203907 -0.18411784 -0.71378034 0.07923209
-0.74271846 -0.26232666 0.42071792 -0.60406995 -0.32688004 0.3512001 -0.5227773 0.056715026
-0.4157639 0.281619 -0.52644163 -0.45322242 -0.8896293 0.11796231 -0.19150388 0.32747182
-0.39057496 -0.38504997 -0.25532523 -0.06481694 0.4722531 -0.36717406 0.0919327 0.3407852
-0.25823805 0.36136404 -0.18909743 -0.47469017 -0.42085272 0.35534388 0.36940923 -0.16564067
0.21793984 -0.5466434 -0.064522624 -0.31888425 0.022769613 0.3519536 -0.12830204 0.088669725
0.4035864 -0.33307254 -0.16099352 -0.34827057 -0.07859473 -0.47990915 -0.15938269 -0.683426
-0.17366686 0.022780024 -0.030226378 -0.4195361 0.2065475 -0.19904266 0.011686026 -0.4443077
-0.37239662 -0.467298 -0.18523823 0.009344674 -0.48388186 0.35900646 -0.24198674 -0.45383394
-0.42794427 -0.41337565 -0.42167035 -0.44335148 -0.9016356 -0.58845294 -0.39859182 0.3021741
-0.5578926 0.20157261 -0.04566813 -0.3484335 -0.08210685 0.22675857 -0.024102723 0.20073485
-0.43260664 0.29641768 -0.6044536 -0.08077057 -0.6601488 0.05371434 0.49979615 0.104046315
-0.32579607 0.1265567 -0.49735153 -0.35615993 -0.065575905 -0.018968305 0.0031449795 -0.14940922

mlp.2.weight f4 [128, 128]
00000000: ac91 e8bd b6d2 643d 57cc e6bc 6ae5 66bd
00000010: f2a5 c23d f4f8 37bc 73ba 393d 2986 463d
00000020: 6441 5d3d eb7b 7b3d f86d b83d 1ccc 2e3e
00000030: 5629 03bd 309b 0d3e af13 bfbc 8734 04bd
00000040: 5375 1abd 0b98 edba d9bc c3bd 6965 ac3d
00000050: b384 4abb 10da a33e d601 f13c 8e13 4ebd
00000060: c112 de3d 0e87 54bd 737c 93bd 0408 553e
00000070: 88c0 633d 4dc5 ce3c fe25 4cbe 4628 c5bc
00000080: 5484 ce3c 0192 a2bd 1c92 8f3d f2bd 493e
00000090: f688 c2bd e287 98bd a002 d4bc 16a2 dfbc
000000a0: 0b79 bfbb 9114 8bbc c918 afbd 9964 b1bd
000000b0: 6802 773b 5d0d 87bd ddb7 7dbd 359b a23d
000000c0: efd6 c43d 8f43 5cbe 592d 053e 183a c1bd
000000d0: b408 0e3d d8ee 433d e4ba b83d 3ce3 5e3b
000000e0: 39a5 0e3d 8b5d 1c3e e4b9 cbbd 194f be3c
000000f0: 9363 ad3e f19e 22bc 8915 95bd 9ed3 03be
00000100: 3fd4 733d 2c8c 143e 5724 f53c 37bd 863e
00000110: 1159 e73c d628 0f3e d753 2d3e 8807 5b3e
00000120: 8a35 abbc 33c2 a4bd fa69 483e 1237 69bc
00000130: 2114 323e 6183 17bd 5d53 f8bb 5e51 10be
00000140: 0f4c 9abd 0762 9dbd e840 36be d299 c2bd
00000150: c88c 7f3e 1899 ee3d 889d a53c 10d9 87bc
00000160: 91d3 423d fd9a 703e fa04 413d 52ed 8e3b
00000170: 00fb 30bd 2f2f 783d 467d 6b3e ef3a bdbe
00000180: 91e3 4abe ade6 afbc 90dc c83d 037e 71bd
00000190: fdb4 88be 2750 2bbe 6997 053e dc13 e2bc
000001a0: 1f87 f7bd 7bcd 2dbd d3d5 d1bc 61f5 893e
000001b0: 776a 573d c4d9 80bd 8e9c 0cbc af70 04bc
000001c0: 675e 06bc 39fb e43a 52d1 4cbe 2692 0c3e
000001d0: e7e4 c93d bed2 8b3e b769 c83d d14a 89bd
000001e0: 8472 5dbd fd48 28bb 0e40 85bd 6533 183e
000001f0: 5f80 563d d172 dcbd 3aa3 82bd 0ad6 8dbd
00000200: 337b 223e fd4e 6e3c bee7 603d cbc8 5a3e
00000210: 556f be3d 3508 543e 5912 1dbe 4650 1a3e
00000220: e489 45bf f5ca 82bc 44e2 22bd 00a5 1c3e
00000230: 8c9e 113d bfa1 d23d 5d6c 53bf e103 ccbd
00000240: 48f0 8e3a 2f6c d6bd 3c7e d0bf 9d2b 623c
00000250: 5663 083e 3c1e b83e 8c55 883c 38c4 80bd
00000260: 9cb5 18be dccc 0dbe 96f7 c6bc 7a28 b13a
00000270: b1f4 563d e7e7 173e 6bd1 143d 2406 03bd
00000280: 9698 24be e564 efbd 74ae 823c 5232 b8be
00000290: ce9a a63e a0ad 57c0 c990 dfbd 46d9 983c
000002a0: e05f 9abd b632 4c3e ca2c 30bd f0c7 d9be
000002b0: b7d8 263f d569 a8bd fa2d 183e a297 c23d
000002c0: 2e17 f4bd 80aa 653d d2d0 59be 1ccb c83d
000002d0: 700f b13e d224 39be 5742 233e b7cd cebd
000002e0: 3948 97bd 6f54 92bd dd3c 1cc0 826e 3dbe
000002f0: 88d2 cf3c 4e94 353e 35b6 983e 6825 1dbd
00000300: 97e3 c13c 6de0 a03b de4d 3ebe 71ca f23d
00000310: 90da a7be 1c54 f0be 880c 033e 42f5 0fbc
00000320: a2c2 543e c338 263e 6e7c 393d bcb1 673e
00000330: 4853 7bbd c23e 43be 4be6 05bb b457 093e
00000340: 15c0 263e c439 ebbf 0416 58be aef0 38bd
00000350: 5032 b5be a8f0 f4bc 2312 28bd a8e3 a53d
00000360: 7019 653d 7675 453e a687 afbc d869 073e
00000370: dfc7 fe3d a3dd c63d c386 adbe 40a0 d73b
00000380: b12a f83d f14e 163e 76f2 113f 94e0 51be
00000390: 0bbf 893e bf2e 3dbc 7a15 8ebf 2539 e53d
000003a0: 89e7 b33d 0ca5 87c0 c945 0ebb 7b0e edbd
000003b0: 77ef 3a3e d10c c63e f477 54bf b4d4 6a3c
000003c0: ca9b b1bd 0489 083e 9502 47bc ed5d 52be
000003d0: e22b 72bd c585 983d 224d b33e 2a83 76bc
000003e0: 6e20 413e add8 a83d c07a a2be dc90 cf3c
000003f0: 9b29 5bbe 4127 b53d 061a e4bc 83c9 643e
-0.1135591 0.055865012 -0.028173609 -0.05637113 0.09504308 -0.011228789 0.045343827 0.04846779
0.05401744 0.061397474 0.0900535 0.17070049 -0.032021843 0.1382873 -0.023324816 -0.032276656
-0.037709545 -0.0018126977 -0.09557504 0.0841778 -0.0030901849 0.32002306 0.02941982 -0.050311618
0.10843421 -0.05188661 -0.07201471 0.20803839 0.055603534 0.025240565 -0.19936368 -0.024067055
0.025209583 -0.07938004 0.0701029 0.19701365 -0.094987795 -0.074477926 -0.025880158 -0.027298968
-0.005843287 -0.01697758 -0.08549649 -0.086617656 0.0037690643 -0.06594346 -0.061942924 0.0793976
0.09611308 -0.21510147 0.1300558 -0.09434909 0.03467627 0.0478352 0.090200216 0.0034009954
0.034825537 0.15270059 -0.09947565 0.023231076 0.33865032 -0.00992559 -0.07279498 -0.12873694
0.059528586 0.14506596 0.029924555 0.26316234 0.028240712 0.13980421 0.16926514 0.21389592
-0.020899553 -0.08044853 0.19571677 -0.014234321 0.17390491 -0.036990527 -0.007578297 -0.14093539
-0.07534038 -0.07684713 -0.17798197 -0.09501995 0.24956048 0.11650294 0.020216718 -0.016582996
0.047565047 0.23496623 0.047123887 0.004361787 -0.043208122 0.060591873 0.22997007 -0.36959025
-0.19813372 -0.0214723 0.09807694 -0.058958065 -0.26700583 -0.16729794 0.1304604 -0.02759736
-0.12086319 -0.04243229 -0.025614655 0.26945022 0.052591767 -0.062915355 -0.008582247 -0.0080835065
-0.008201218 0.001746989 -0.20001724 0.13727626 0.09858113 0.2730922 0.097857885 -0.06703723
-0.05406429 -0.002567827 -0.06506358 0.14863355 0.052368518 -0.10764087 -0.06378789 -0.0692559
0.1586731 0.014545199 0.054908507 0.21365659 0.09298579 0.20706256 -0.1533903 0.15069684
-0.7716353 -0.015965918 -0.039766565 0.15297318 0.035551593 0.10284757 -0.82587224 -0.09961677
0.001090535 -0.10469853 -1.6288524 0.0138043435 0.13319144 0.35960567 0.016642354 -0.06287426
-0.14913028 -0.13847679 -0.02428798 0.0013516091 0.05247945 0.14834557 0.03633253 -0.031988278
-0.16073832 -0.11689166 0.015952326 -0.3597589 0.32539982 -3.3699722 -0.109162875 0.018658292
-0.07537818 0.1994122 -0.043011464 -0.42535353 0.6517443 -0.08223311 0.14861289 0.09501578
-0.11918484 0.056070805 -0.21271065 0.09804365 0.3458209 -0.18080452 0.15943275 -0.10097831
-0.07386822 -0.07145011 -2.4412148 -0.18499187 0.025368944 0.17732355 0.29826513 -0.03836575
0.023668094 0.004909566 -0.18584391 0.11855019 -0.32783937 -0.4693917 0.12797749 -0.008786501
0.20777372 0.1623259 0.04528468 0.22626394 -0.06135872 -0.19066909 -0.0020431455 0.13412362
0.16284211 -1.8377004 -0.21102148 -0.045151405 -0.35389948 -0.02989991 -0.04103292 0.081000626
0.055932462 0.19283089 -0.021426987 0.1322397 0.12440466 0.097102426 -0.33891878 0.0065803826
0.12117518 0.14678551 0.5701059 -0.20495826 0.26903567 -0.01154679 -1.1100304 0.1119254
0.08784396 -4.2388973 -0.0021709076 -0.115750276 0.18255411 0.38681653 -0.82995534 0.014332939
-0.086722925 0.13333517 -0.012146612 -0.20543642 -0.05912388 0.074473895 0.35019785 -0.01504592
0.18860027 0.082444526 -0.31734276 0.025337629 -0.2140259 0.08845378 -0.02784444 0.22342496

mlp.2.bias f4 [128]
00000000: db16 e63e 8e75 b93e 148e e1bd d821 01bd
00000010: 0ed0 a53d fb1d 2dbd df48 01be b1df 00be
00000020: 6169 e53e fd86 a6bd cca3 f23e 0058 ed3e
00000030: e323 0bbe 68c2 933d 98aa 02bd 6b55 2fbd
00000040: f752 ad3e 6b87 4dbc 2b82 ca3e 8b22 a83e
00000050: e2c4 893b fd2d c0bc 27ef 52bd 4a59 d1bd
00000060: 9a37 0cbe 605f 343c d577 6e3e f5f1 55bd
00000070: b606 a9bd e906 8e3e cb2e fcbd 146e 8cbc
00000080: 373a 79bb 6180 313e 3205 babd 4172 a4bd
00000090: 63ce 483e 5fc3 c43e 9646 d5bd 17e3 91bd
000000a0: da31 833e e782 cf3e 5304 3fbd ff6f d93e
000000b0: b311 c73e ef94 bfbd d046 8c3e 52c3 c73e
000000c0: 1f24 9d3e 2190 8c3e aa8d 203e 0f74 f3bd
000000d0: dd8d edbd d2cf 98bd 76b8 a13d b695 ba3e
000000e0: 10b2 0abe 1ffb d53e 0437 afbd dea0 7bbd
000000f0: ed6e 493e 1811 a33e da8c 723e 53b7 0c3c
00000100: 1bee 1bbd b374 cc3e 0d8e bd3e 9fd8 903e
00000110: 1435 c03e 9b01 003f f461 05bc fd5a 133f
00000120: 3281 7cbc df9d 9bbc 8fdb 03be 1206 f1bc
00000130: ae26 8bbd ab0c 83be e689 28bd 5022 6f3d
00000140: 5f00 f6bd 861c e8bc 52a7 b23c b754 ac3e
00000150: b62a 8dbd fe0d 5b3e e2e5 d63d 22e0 07be
00000160: 6444 babc dc0a c1bc c61d 0bbd 74f7 43be
00000170: 3ccb ecbd fb0e 9a3e acb2 e13b 984c 9b3b
00000180: 61a0 953e 1289 003f 3d7e 81bd f24f dc3d
00000190: 3fa3 f9bd a0d0 d73e 73b3 ec3d 88c4 873e
000001a0: fe3b d4bd 0a0e 113f eb2d fbbd 5e74 88bd
000001b0: 1746 0c3e 0b7d b7bd 5446 09be 4150 c2bd
000001c0: 468e afbd 43c5 5cbc 32ca 313c 7877 6ebd
000001d0: e8bc 943b 1c61 c1bd d461 1a3e 5214 9b3e
000001e0: c088 bfbd b721 04be a576 013f 3bc8 b9bd
000001f0: f7b2 63bb 0ebe 7abd 42eb 8dbd 9889 b23e
0.44939312 0.362225 -0.110134274 -0.031526417 0.08096324 -0.04226492 -0.12625454 -0.12585331
0.4480696 -0.08131216 0.47390592 0.463562 -0.13587908 0.072148144 -0.031900972 -0.04280607
0.3385236 -0.012544493 0.39552435 0.32838854 0.0042043785 -0.023459429 -0.051497605 -0.10222109
-0.13693085 0.011009067 0.232879 -0.0522327 -0.08253233 0.27739647 -0.123136126 -0.017142333
-0.0038029084 0.17334129 -0.09083022 -0.08029605 0.1960998 0.38430306 -0.10413854 -0.07123392
0.2562397 0.40529558 -0.046634983 0.4246826 0.3888069 -0.09354579 0.27397776 0.39016205
0.3069162 0.27453712 0.1567904 -0.11887371 -0.11599324 -0.074615136 0.07896511 0.36442345
-0.13544488 0.41793153 -0.08555415 -0.06143271 0.19671221 0.3184898 0.23686543 0.00858863
-0.038068872 0.39932784 0.3702244 0.2829027 0.37540495 0.5000245 -0.00814103 0.5756071
-0.015411662 -0.018996177 -0.12876724 -0.02942184 -0.06794487 -0.25595602 -0.041147135 0.058382332
-0.120117895 -0.028333914 0.0218083 0.33658382 -0.06892912 0.21392056 0.104930654 -0.13269094
-0.02273769 -0.023564748 -0.03396394 -0.19137365 -0.115622014 0.30089554 0.0068877544 0.0047393553
0.29223922 0.5020915 -0.06322906 0.10757436 -0.1218934 0.42151356 0.11557665 0.2651713
-0.10363005 0.56662047 -0.122646175 -0.0666282 0.13698612 -0.08959397 -0.13405734 -0.094879635
-0.085720584 -0.013474765 0.01085143 -0.058219403 0.004539121 -0.0944235 0.15076381 0.3028894
-0.09352255 -0.12903486 0.5057166 -0.09071394 -0.0034744123 -0.061216407 -0.069296375 0.348706

mlp.4.weight f4 [3, 128]
00000000: d58f 43bd cd9f 1abd 4719 0eba efa4 473c
00000010: 18a9 d1be 1a27 13bd 9184 96bc 0834 a33d
00000020: 188b 8dbd 41b4 483d 0471 363e 24bc 473d
00000030: fc50 0cbe 7d66 253e 32ae 86bd 3778 d8bd
00000040: 1360 073e 5755 f9bd dfea 01be 4ec0 1cbe
00000050: 6c4e d7bd 8509 edbb 14ba 92ba 4c34 f23b
00000060: 3ba9 e3bd 54a7 86bd 095b c93e 6e7b c1bd
00000070: c980 5f3c eee1 87bd f1e2 233e d486 90bd
00000080: 1484 bd3d 3b0b 1fbf ebd2 693d a584 45bc
00000090: a5e0 2bbd 01a5 263d a77a f8bd 2bb1 04bd
000000a0: 31b5 02be a661 16bd a583 7aba 6236 c23b
000000b0: 596f 753d 34db 17bc db65 9d3e dfdc b7bd
000000c0: 5f10 953d 38d8 33be 5e13 e73d e7d9 05bc
000000d0: 57f3 873c e0a1 053d 7f75 b7be e8a6 22bc
000000e0: 45e0 febc d0dd ca3d a5ea 51bc a5b8 eebb
000000f0: 121f cabd a420 1fbe 82b2 a93d edec 59bd
00000100: e9c1 b2bd 533d ebbd bcf8 0a3d f1c2 4a3c
00000110: acef 8cbc ca75 453c 408b dbbd 9586 e9bc
00000120: b9b2 9cbc cbe3 b8bc f4c2 383d e49d 1fbc
00000130: fbb3 573d 7470 22be 147d 9ebd f675 fd3e
00000140: c9b3 563c b09d dbbd 7eca e63d 23d8 103e
00000150: fde7 ddbd 190e a13d 6402 123e 86c9 ebbd
00000160: 2122 8d3c 4f0e 4b3d 24b6 833d 031d 923d
00000170: 835c a1bd ca9a afbb 9112 80bd 8e9d 053d
00000180: 9ef1 783d c9df 363c ca82 b53c f8b0 863e
00000190: d53b a9bd d131 1c3d d2b6 04bf c944 ff3c
000001a0: e6b5 c73c 4d91 0bbd 1e27 f63d 9074 74bd
000001b0: fb94 6abe 8ce1 92bc 25f0 af3d f8c3 37ba
000001c0: f391 413e a876 dc3a a44a adbb 7b03 99bb
000001d0: 9714 323d d0c9 663d 2910 023d 0413 46be
000001e0: 86ca 31bc bb92 1cbd 00ca 29bd f462 adbb
000001f0: aff8 6fbd d197 033e 045f e4bd ce0a e2bb
00000200: 26f9 95bd bbb6 bebe 255f 2cbd 24be 65bd
00000210: 0c48 b3bc 736a c6bd 5a98 82bd f174 f0bc
00000220: 99e0 bdbe 4c86 b03d 4740 fd3c 7fa8 debd
00000230: 6d91 8cbd 997d d53d 14b9 1fbd 27a0 e33b
00000240: ad00 133d bca1 183c cd4e 87be 8843 babc
00000250: 53fc 87bd dee1 b2bd f939 8d3b 7f33 27bd
00000260: dceb 08bd e113 45bd 0737 38bb 5974 2b3c
00000270: 70be 5fbd 26dc 76bd 3d32 4dbd 0dd9 4abd
00000280: 2a2f b2bd 93e4 23bd 5f2a 0d3e e683 a63c
00000290: ac88 98be 0317 93bd 336f b8bc b58a aabb
000002a0: 193b 723d a5f0 11be 5cf0 cbbd 1eec dbbb
000002b0: a47b aabd 4461 6fbd 188c 493c ef7a dfbd
000002c0: 81e7 083f 334d 1fbd 6b36 a43e 3937 e4bc
000002d0: a845 b63c a6b9 a43c 9a78 1cbd a9cd a1bd
000002e0: 8c27 a4bc 27d1 57bd 24bf 3cbd 236d 8e39
000002f0: 909a 103e f29b a8bd fa58 163d 798d a4bd
00000300: c81c f4bd 8212 11be bcec 08be 7de7 34be
00000310: 2a83 52be b031 3bbd 9397 a3be 96c7 21be
00000320: 3eaa 543c 0d01 df3c 42b7 4e3b f18f 6bbc
00000330: 0ec9 15bd ef9d 3fbe 1b38 573c 7678 333d
00000340: 054e 45bd a540 0ebd fc6a 57bd 3cbd 953c
00000350: 9639 fbbb 2139 60bc 9bbc b5bd 9662 b8bc
00000360: 3f21 9bbd 1b85 603d 1caf 1cb9 fec9 bebd
00000370: deb6 a3bd dbec 783d 1fce c8bc 75e6 92bd
00000380: f8ec ae3c b403 02be e56f a63a 5507 47bd
00000390: 5f1b e53c 7434 8ebd cf43 25be a839 35be
000003a0: 3586 5dbd 31c5 13be 9c8d 123c a0a1 d93a
000003b0: 6f5b 603e 91e8 acbd b60d a43c c091 6cbd
000003c0: a171 e73c aced 613c daa4 a83c a58d 59bc
000003d0: caff 77bd 1b15 e2bb 35a6 26be ebde 94bc
000003e0: d7af 70bd c4c2 8e3d b897 e5bd c3b5 efbb
000003f0: 59d3 72bc 5240 dc3b c397 a83c f995 8abd
-0.04774459 -0.037750054 -0.0005420637 0.012185319 -0.4094932 -0.035925962 -0.01837376 0.079689085
-0.06911296 0.04900003 0.1781655 0.04876341 -0.13702768 0.16152377 -0.06576194 -0.10569804
0.13220243 -0.121744804 -0.12687252 -0.15307733 -0.10513005 -0.007233801 -0.0011194372 0.007391488
-0.111162625 -0.06574884 0.39327267 -0.094473705 0.013641545 -0.066348895 0.1600454 -0.070569664
0.092537075 -0.6212651 0.057085913 -0.012055551 -0.041962285 0.040684704 -0.12132769 -0.032395523
-0.12764432 -0.03671422 -0.000955636 0.005926893 0.059920643 -0.009268571 0.30741772 -0.08977675
0.07278513 -0.1756295 0.11282991 -0.008169628 0.016595526 0.03262508 -0.3583183 -0.009927489
-0.0311128 0.099055886 -0.012812291 -0.007285195 -0.098692074 -0.15539795 0.08286001 -0.053204466
-0.08728392 -0.11486306 0.033928618 0.012375579 -0.017204128 0.012052009 -0.10719919 -0.028506557
-0.01912819 -0.022569558 0.045107797 -0.009742234 0.052661877 -0.1586321 -0.077387005 0.4950406
0.013104388 -0.10723436 0.11269091 0.1414495 -0.10835264 0.07864017 0.14258724 -0.11513047
0.017228188 0.049574193 0.06431225 0.0713444 -0.07878973 -0.0053590285 -0.06253541 0.03262096
0.0607773 0.011161753 0.022157092 0.2630689 -0.08263365 0.038133446 -0.5184146 0.031160729
0.024378728 -0.034074116 0.1201918 -0.059681475 -0.22908394 -0.017929815 0.08590726 -0.00070100976
0.18903331 0.001682003 -0.005288439 -0.0046696044 0.043476667 0.056344807 0.031753693 -0.19343191
-0.010851508 -0.03822587 -0.041452408 -0.005291337 -0.058586773 0.12850882 -0.11150935 -0.0068982607
-0.07322912 -0.37248787 -0.042082924 -0.056089535 -0.02188494 -0.09688272 -0.06376715 -0.029352637
-0.37085417 0.08619365 0.030914439 -0.10871982 -0.06863675 0.104243465 -0.038994864 0.006946582
0.035889316 0.009315904 -0.26427308 -0.02273728 -0.06639924 -0.08734487 0.0043098894 -0.040820595
-0.033428058 -0.04811466 -0.002810897 0.010464751 -0.054624975 -0.060268544 -0.05009674 -0.049523402
-0.08700402 -0.040012907 0.13785695 0.020326566 -0.29791772 -0.071821235 -0.022513961 -0.0052045234
0.05913839 -0.14251955 -0.09957954 -0.006711497 -0.08324364 -0.05844237 0.012301467 -0.109121196
0.53478247 -0.038891982 0.32072768 -0.027858363 0.022250012 0.020108055 -0.038200952 -0.07900555
-0.020038389 -0.052689698 -0.046080723 0.00027165664 0.14121461 -0.08232869 0.03670595 -0.08034796
-0.11919552 -0.14167216 -0.13371557 -0.17666431 -0.20557848 -0.045701683 -0.3195158 -0.15798792
0.012980042 0.02722218 0.0031542336 -0.01437758 -0.036568694 -0.1871259 0.013135935 0.043816052
-0.04817011 -0.03472962 -0.052592263 0.01827871 -0.007666777 -0.013685496 -0.08873864 -0.022507947
-0.075747006 0.05481444 -0.00014942553 -0.09315871 -0.079938635 0.060772758 -0.024512349 -0.071728624
0.02135323 -0.12696725 0.0012698142 -0.048590977 0.027967153 -0.069435984 -0.16139148 -0.17697775
-0.054083068 -0.14430691 0.008944895 0.0016603954 0.21909879 -0.08442796 0.02002607 -0.057756186
0.028252425 0.013789576 0.02058642 -0.0132784 -0.060546674 -0.0068994886 -0.1627434 -0.018172702
-0.058761444 0.06970742 -0.11210579 -0.007315369 -0.014820897 0.0067215348 0.020580178 -0.06766886

mlp.4.bias f4 [3]
00000000: 05b9 1dbd d9cb 08bf 8fd0 283f
-0.038506526 -0.53436047 0.65943235
