EUSIPCO/Mutual Coupling No Noise/saved_models/da_music_0dB_uca_8.pth (torch, 46978 bytes, 18 tensors)

bn.weight f4 [16]
000000 63 2b 7f 3f 1c c7 6f 3f 52 04 83 3f fc 16 48 3f
       0.9967558 0.9366319 1.0235693 0.7816007
000010 59 f4 83 3f 21 71 73 3f f3 a0 5b 3f 57 9a 79 3f
       1.0308944 0.95094496 0.85792464 0.9750113
000020 e1 98 95 3f 01 29 a6 3f 44 40 63 3f 41 76 6c 3f
       1.168728 1.2981263 0.88769937 0.9236794
000030 5e 3e 9a 3f 87 f6 40 3f f1 cb 19 3f ff e1 84 3f
       1.2050283 0.7537617 0.60076815 1.0381469

bn.bias f4 [16]
000000 32 37 f5 bd 8e e5 38 be c7 0a 7d bd 95 25 59 bd
       -0.11973418 -0.18056318 -0.061777856 -0.053014357
000010 f5 d3 13 bd 2d a8 83 3d 16 31 f6 3c f4 a9 56 bd
       -0.03609081 0.06428561 0.030052703 -0.052408174
000020 f3 30 40 3d 3b 48 10 be e4 3d 1a be ca 3d 0e 3e
       0.04692168 -0.14090054 -0.15062672 0.13890758
000030 6f a8 3e bc f8 33 56 bd 7b c7 db bd a0 46 10 3e
       -0.011636837 -0.052295655 -0.10731407 0.14089441

bn.running_mean f4 [16]
000000 6c 71 85 3a dc 36 9a 3b 10 7f e2 3a 73 dd 43 3b
       0.0010180897 0.004706247 0.0017280299 0.0029886633
000010 4e 9b b2 3a 8e 0e 3b ba ca 7f 3b bb c0 41 1b 3b
       0.0013626607 -0.00071356527 -0.0028610104 0.0023690313
000020 00 31 99 bb 0e 40 cd ba 4c 94 7d bb 81 67 63 bb
       -0.0046750307 -0.0015659349 -0.0038693128 -0.0034699144
000030 fc 11 98 bb 2b c4 89 bb 05 9d 6d bb 8f bb 7f bb
       -0.004640816 -0.0042042932 -0.003625692 -0.0039021706

bn.running_var f4 [16]
000000 91 3a ef 40 7e eb d7 40 2a 58 0a 41 fc 8a d8 40
       7.475899 6.7474966 8.646524 6.766966
000010 87 38 ef 40 02 94 00 41 f7 05 ad 40 c1 64 01 41
       7.4756503 8.036135 5.406978 8.087098
000020 9a da ee 40 ee c2 d7 40 a2 f5 09 41 3a b2 d7 40
       7.4641848 6.742545 8.622469 6.740506
000030 88 88 ef 40 ee d0 00 41 32 f0 ac 40 40 55 01 41
       7.4854164 8.051008 5.4043207 8.083313

rnn.weight_ih_l0 f4 [48, 16]
000000 d4 2f 88 3e ea 8a 87 3e e0 45 c4 3d b6 77 e0 3d
       0.2659899 0.2647317 0.0958364 0.10960333
000010 55 85 ab 3c 9b 8f f1 be 36 50 9c bd 76 17 1e 3f
       0.020937601 -0.47179875 -0.076324865 0.6175455
000020 8d 7d 03 3f 9f 97 64 3f ac 32 79 bd 43 c4 86 bf
       0.5136345 0.89293855 -0.06083934 -1.0528644
000030 ad 99 13 3c 9d e9 b3 be 06 b3 51 bd 06 03 1d 3e
       0.009008807 -0.3513917 -0.05119612 0.15333185
000040 45 4f 97 3a a3 71 84 bd 3e 49 e3 3d 37 32 b8 3e
       0.001154401 -0.06466987 0.11097954 0.3597581
000050 6a 73 b5 bd 66 3d 13 bf 0a cb 56 be b6 2b 84 3e
       -0.08859904 -0.5751556 -0.20975891 0.258146
000060 43 05 76 be 2a 43 a9 3e cc af 82 bd 97 8d 0f be
       -0.24025445 0.33059055 -0.06381187 -0.14018856
000070 b3 70 38 be dd 16 41 3d 98 c0 01 3d 36 35 02 bd
       -0.18011741 0.047140945 0.031677812 -0.031789027
000080 06 24 fc 3d 5a 46 1a 3f 54 3c 20 3f 95 56 be be
       0.123115584 0.602636 0.62592053 -0.37175432
000090 5e 59 43 3f 31 ce 40 3f 4c 26 e2 3e 6b 8e dc be
       0.7630824 0.75314623 0.44169843 -0.43077406
0000a0 52 53 50 bf 80 0f 19 bd 41 51 05 be a6 18 ef 3e
       -0.81377137 -0.037368298 -0.13019277 0.46698493
0000b0 ae 7c bf 3e 2a 91 b5 3d 7f db 08 bf 6c 31 73 bf
       0.3739981 0.088655785 -0.53459924 -0.94997287
0000c0 a3 20 51 bf 11 63 99 3e 62 02 49 bf 1a c2 2a bf
       -0.81690425 0.29958394 -0.7851926 -0.66702425
0000d0 7e 11 42 3e a9 11 7f 3e 7f 10 b3 be a6 1e 79 bf
       0.18951985 0.2490908 -0.34973523 -0.9731239
0000e0 bc 0c 9b be 40 5a 0d 3e fb 42 8e 3e 49 72 25 bf
       -0.30283153 0.13803959 0.27785477 -0.6462751
0000f0 62 dc 42 3f db f7 55 3f 2d 6a a8 3e f3 41 a3 be
       0.7611753 0.8358132 0.32893506 -0.31886253
000100 ef 2e d2 be f0 ad ed be 33 78 02 be 45 ff ef be
       -0.41051432 -0.46421766 -0.12741165 -0.46874443
000110 dd 4e c9 3d e4 14 51 be a0 d3 c0 38 d7 14 37 be
       0.09829495 -0.20418125 9.194692e-05 -0.17879044
000120 30 88 a3 be 54 b9 53 3e e9 fa f4 bc e4 5d 3c bf
       -0.3193984 0.20676166 -0.0299048 -0.73580766
000130 fe 07 a2 3e 39 51 cc be 44 86 80 3e 4d b9 0e 3f
       0.31646723 -0.39905718 0.25102437 0.55751497
000140 d7 83 f9 3d 85 f3 a5 be 14 ce 87 bf 38 01 be bd
       0.121833496 -0.32412353 -1.0609765 -0.09277576
000150 d0 16 15 3d 9b 34 7d bf ce 8c f2 be 8b 37 4a 3d
       0.03639871 -0.98908395 -0.4737305 0.049369376
000160 91 95 33 3f bb 9f 26 bb 46 96 8c 3e ef b9 2f bf
       0.70150095 -0.0025424797 0.274584 -0.6864309
000170 04 42 8c be b6 1c 59 be c1 de b9 be 01 5b 0b 3f
       -0.27394116 -0.21202359 -0.3630276 0.54435736
000180 ef 05 54 3e e7 6c 9e be 29 1a a1 3e cc 72 8b 3f
       0.20705388 -0.3094246 0.3146527 1.0894408
000190 6a e6 8b be e0 74 ea 3e 07 c9 2d be f3 36 40 be
       -0.2732423 0.45792294 -0.16971217 -0.18770961
0001a0 e9 92 f2 be d7 cd 1d bf be eb 12 be 98 75 b0 3e
       -0.4737771 -0.6164221 -0.14347741 0.34464717
0001b0 34 13 2c bf 6b ef 4f bf e3 83 a9 be a9 86 96 3e
       -0.672168 -0.812247 -0.33108434 0.29399613
0001c0 b0 da b9 3e eb f5 58 bf 14 fc 39 3f 2b 4e 3f 3e
       0.36299658 -0.8475024 0.72650266 0.18682162
0001d0 ff 19 4a bf 2e 46 4b bf ee 14 b4 3e 33 5f 90 3f
       -0.78945917 -0.7940396 0.35172218 1.1279052
0001e0 26 a0 8d be 7a c1 d2 3e 6d e8 15 3e fe 8b 2b bf
       -0.27661246 0.41163236 0.14639445 -0.67010486
0001f0 64 dd d5 3d 60 cd 43 be 81 d5 6a 3e c4 0b 18 3f
       0.104426175 -0.19121313 0.22933008 0.5939295
000200 e7 aa d3 3e 6e 4f 4d 3e 64 08 36 be 00 d1 9e be
       0.41341326 0.20049831 -0.17776638 -0.3101883
000210 cc d6 a1 bd 9f be bb bd 94 df 0d 3e d4 8b 03 3f
       -0.079022974 -0.091672175 0.1385482 0.51385236
000220 1a fb 82 3d df 9d 02 3f 98 7f a3 3d 8c 49 e9 3d
       0.0639555 0.5102214 0.07983321 0.11390981
000230 ff 72 cb 3e f1 42 3b 3f b6 cc ff 3e 4b 5c e0 be
       0.39736173 0.7314902 0.4996087 -0.43820414
000240 97 8f df be 37 fe b6 3e 00 32 25 bf 6b 99 cb 3e
       -0.43664238 0.35740826 -0.6452942 0.39765486
000250 e5 e6 d8 3e d0 7a 15 3f 6a 1a 21 bf 36 e0 e1 bd
       0.4236366 0.5839052 -0.6293093 -0.11029093
000260 eb eb 73 bf 6e 7f 57 3f 29 fd 15 3e a2 63 a2 be
       -0.9528186 0.8417882 0.14647354 -0.3171664
000270 44 4a a8 ba 1d f7 3f 3f e8 da 48 3e dd 99 05 be
       -0.0012839516 0.7498644 0.19614756 -0.13046975
000280 6c c8 96 be 31 d0 58 3f 20 84 b6 bd 6c f5 a6 3e
       -0.29449785 0.84692675 -0.089119196 0.32609117
000290 a5 5e fa 3e bc 6b 46 3e e1 97 d3 be 7d ef e7 3e
       0.48900333 0.19377035 -0.41326812 0.45299903
0002a0 ca 9b 70 bf 4f c8 ed bd 4c a0 8e 3e 0d 4e 9c bf
       -0.93987715 -0.116104715 0.27856672 -1.2211319
0002b0 d8 fb 3d 3e 23 66 8c be 34 ff d9 3e d9 87 85 be
       0.18553102 -0.27421674 0.42577517 -0.26080206
0002c0 f0 51 89 3e e5 e6 14 3f f5 dc ea 3e 61 68 6a 3f
       0.26820326 0.5816482 0.45871702 0.9156552
0002d0 a5 d9 3a 3f f8 a3 04 3f ad 7d 50 3e b0 b2 98 3e
       0.7298835 0.51812696 0.20360442 0.29823828
0002e0 3c d6 ff be 76 9d 8e bd 61 a5 75 3e dc 2c 0d be
       -0.49968135 -0.06963627 0.23988868 -0.13786644
0002f0 d0 ba 73 be a5 d1 50 be bd 5b 69 3e 08 e0 1e bc
       -0.23801732 -0.20392473 0.22788902 -0.009696968
000300 3d d2 2d 3f c7 bc f3 3e 9c 3a c5 3d c6 d0 24 bf
       0.67898923 0.47604963 0.096303195 -0.64381063
000310 26 2f b7 3e c0 2f ba be 39 61 04 3f 54 b6 23 3d
       0.3577816 -0.36364555 0.5171085 0.039968804
000320 ab 94 b9 3e 9f 6b 06 3f 0d 26 05 3e d0 c8 5d be
       0.36246237 0.52507967 0.13002796 -0.21658635
000330 1e fe 42 3f 3a 16 ba 3e dc 6e ec be e3 de 61 bf
       0.76169 0.36345083 -0.4617833 -0.88230723
000340 df f5 01 bd 6b 5f 1d 3f dd d0 34 3e 27 36 92 3e
       -0.03172862 0.6147372 0.176578 0.2855694
000350 bc 44 8f 3e 34 e2 d3 3e ee e1 67 bd 6b 5f 76 be
       0.27982128 0.41383517 -0.056611948 -0.24059837
000360 cd 0f 8b be 81 54 ad be f9 ac 81 bd d4 d9 84 bc
       -0.27160493 -0.33853534 -0.0633182 -0.01621715
000370 2c 9a 2e bf e9 98 b9 be 68 54 d8 bc ad 91 1d bf
       -0.68204 -0.36249474 -0.026407436 -0.6155041
000380 2c a4 55 bd 2d 96 a2 3e c7 8b e6 be 27 e5 79 3e
       -0.05215852 0.317552 -0.45028517 0.24403821
000390 e7 85 36 3e 4a 6a cb 3e 6c 57 9a 3e f9 70 76 3e
       0.17824517 0.3972953 0.30144823 0.24066533
0003a0 b3 9b 24 3f 9e 38 7b 3e 0e 7c 2a 3c 59 ae 22 3f
       0.6430008 0.24533316 0.0104055535 0.63547283
0003b0 1c a9 32 3f 7f c9 07 3e e6 c6 f4 be 35 fc 2e 3e
       0.6978929 0.13260458 -0.47807997 0.17088397
0003c0 06 e5 c2 bd 2f bf dc bd bd be 47 3e 6d 31 ea 3d
       -0.09516339 -0.10778653 0.19506355 0.114352085
0003d0 06 26 12 3d 05 c2 4e be f9 8b 02 be 01 b7 df 3c
       0.035680793 -0.201912 -0.12748708 0.027308943
0003e0 ca 6d 04 be 2f 51 79 bd 72 d5 51 bc 2e 54 87 be
       -0.12932506 -0.06086844 -0.012807237 -0.26431412
0003f0 9d 4e 24 bd 67 26 a2 be 44 21 ba 3d 79 8c 74 3e
       -0.040114034 -0.31669924 0.09088376 0.23881711

rnn.weight_hh_l0 f4 [48, 16]
000000 a4 7d d1 bd f4 7d 0c be b3 c8 34 3e c9 31 aa 3e
       -0.10229042 -0.13719922 0.17654686 0.33241108
000010 6a aa b6 3e f9 ab 83 3f ac a8 cf be 7a 43 38 bf
       0.3567689 1.0286857 -0.40558374 -0.7197796
000020 ea bf 8b bd 30 f5 a1 bf 54 9e 1b 3f 65 1c 9e 3e
       -0.06823714 -1.265295 0.60788465 0.30881038
000030 d5 be 2b 3f 9e 10 af bd 6b 74 db 3e 23 12 25 be
       0.6708806 -0.08548091 0.42862257 -0.161202
000040 f4 df 59 bf b5 49 8f bc 71 4f e6 3e 89 67 92 3e
       -0.8510735 -0.017491201 0.44982484 0.28594616
000050 be 3f 87 3c 79 f3 03 3f b3 48 60 3c 7e 45 1f bf
       0.016509887 0.51543385 0.013689208 -0.6221541
000060 be fb 01 bf 14 8e 3b bf 85 53 70 3f 97 49 d5 bd
       -0.50774753 -0.7326367 0.9387744 -0.10414427
000070 b4 fe 44 bf 6a 77 07 bf 62 76 bd 3e 1d 7c 6c be
       -0.76951146 -0.52916586 0.3700438 -0.2309422
000080 e0 90 1f 3b b3 ed a8 bd 93 31 e4 be 0f c9 a0 be
       0.0024347827 -0.082484625 -0.44569072 -0.31403396
000090 17 70 9c 3d 14 98 16 bd 8f 36 11 3c 6d 43 dc 3d
       0.07638567 -0.036766127 0.008863105 0.10755048
0000a0 6a d8 6a bc 47 c6 76 3d 50 a3 78 3e 37 b8 85 3e
       -0.014333824 0.060247686 0.24281049 0.26117107
0000b0 8c 70 ec 3e 71 55 b5 3d d2 6d d0 be 77 5d a5 3d
       0.46179616 0.08854187 -0.40708786 0.08074468
0000c0 3a a4 fd 3c 12 cc c1 bd 9b f5 6b 3e dc 49 00 3f
       0.030962098 -0.094627514 0.2304291 0.501127
0000d0 4c c2 27 be dd 96 71 3f 68 d4 01 be 9e 5a 43 3f
       -0.16382712 0.94370824 -0.12678683 0.76310146
0000e0 b9 1e 5a be 04 fe 8e be a4 de b9 bd 7e ae 37 be
       -0.21300782 -0.27928174 -0.090756685 -0.17937657
0000f0 51 d6 2b be 0b 82 f9 3e 09 5e e4 be ed b5 8f 3d
       -0.16780974 0.48732027 -0.44602993 0.070171215
000100 3b cb 22 bc dd 33 cd 3e a1 e9 12 3e 00 7d 0f bd
       -0.009936149 0.4007863 0.14346935 -0.03503132
000110 08 39 82 be 2b 9a 93 3e 8c 9a 80 be ed b4 4f bd
       -0.25434136 0.28828558 -0.2511791 -0.050709654
000120 e1 6a ac be 34 f7 31 be 74 ab 6d bd 45 43 16 3d
       -0.33675292 -0.17379457 -0.05802484 0.036685247
000130 8b 91 9d bd 1e 22 da 3e 0b 0e 1c 3e 07 63 a2 bd
       -0.07693776 0.42604154 0.15239732 -0.07929044
000140 de ef 61 3e 65 ee 38 be 23 e5 56 bf e7 a4 ad 3d
       0.22064158 -0.1805969 -0.83943385 0.08478718
000150 be ea 48 be 56 ba 07 be 66 e6 09 bf c9 da f1 be
       -0.19620797 -0.13254675 -0.53867185 -0.47237232
000160 36 89 f7 3e 5f e4 85 3d 70 b0 a9 bc 95 4f 52 be
       0.4834687 0.06537699 -0.020714015 -0.2053817
000170 df f7 6e be 55 5b 9e 3e 4a 91 4b 3e 87 00 48 bd
       -0.23336743 0.30929056 0.19879642 -0.048828628
000180 9a 4b 6c 3e 32 63 1b 3e aa 88 0e bf 6c 63 f2 be
       0.23075715 0.15174559 -0.5567728 -0.47341478
000190 0b 35 51 3b 40 22 15 3c d7 21 c9 be df ec 86 3e
       0.0031922485 0.009102404 -0.3928363 0.26352593
0001a0 c0 8d 46 3d 04 3d 71 3e ec 9a 35 bf 0f 59 09 3e
       0.048475027 0.23558432 -0.7093952 0.1341288
0001b0 3c 9a 20 3e 81 1a 0e 3c ba 9c 7c be 50 b3 46 be
       0.15683836 0.008673311 -0.24669161 -0.1940434
0001c0 9e 87 ea 3d d3 79 9e 3e ee 6c 65 3e 56 7f b4 3d
       0.11451648 0.3095232 0.22404835 0.0881335
0001d0 52 af fb be 28 cc 1b 3e 2a ec 1f bf 62 0a 24 bf
       -0.49157196 0.15214598 -0.6246973 -0.6407834
0001e0 2e 3f d9 be 5f d6 1b bd aa 0d ef 3d 68 fc 07 bf
       -0.42431015 -0.038046237 0.11672528 -0.53119516
0001f0 02 30 d8 3e 3c 8f 20 3f 96 d6 8d bf 80 9d 28 be
       0.42224127 0.6271856 -1.1081111 -0.16466331
000200 57 6c d7 be 0e d2 80 be ed fe d6 3e 8f 65 2f be
       -0.42074844 -0.2516026 0.41991368 -0.17128585
000210 29 7e ba 3e 82 71 26 3f de d0 3a bd c8 3b c5 3d
       0.36424378 0.6501695 -0.045609348 0.09630543
000220 0a b5 62 3e 8a 9b fa 3d d9 8f 64 be a9 8f 85 3e
       0.22139373 0.12236698 -0.22320499 0.26086167
000230 22 52 68 3e 56 2a 12 3e f2 76 d4 3b 21 0f 0e bc
       0.22687581 0.14273962 0.006483906 -0.008670599
000240 c6 9b 83 3f 2d ee d6 3e 41 60 9a be 33 f7 eb be
       1.0281913 0.4197859 -0.3015156 -0.46087036
000250 94 a6 93 be f6 a0 69 3e ef e8 28 3e 09 6c a3 3f
       -0.28838027 0.22815308 0.16495107 1.2767345
000260 ae 1a da bd e6 df 6e 3f 40 f6 50 bf 5f 50 86 bd
       -0.1064962 0.9331039 -0.8162575 -0.06558298
000270 c5 cf 16 3f 73 63 c2 3f 41 73 76 bf 05 6b 67 3e
       0.5891078 1.51866 -0.96269614 0.22599418
000280 cc 06 dc 3e a1 48 3a be c4 04 9a be 56 5b ab be
       0.42973936 -0.18191768 -0.3008176 -0.3346812
000290 48 cc a3 3c 51 52 9d be 4b f0 1b 3c d2 4a 27 bf
       0.01999487 -0.30726865 0.0095177395 -0.6534854
0002a0 5b db 4e be 59 3d 62 bf 5a 27 18 bf de 76 11 bd
       -0.20200865 -0.8837486 -0.59435046 -0.03551375
0002b0 b4 d6 5d 3e 6d 03 bc 3c 40 23 88 3e 13 f6 36 be
       0.21663934 0.022950852 0.26589394 -0.17867307
0002c0 cc ce fc 3e 30 a4 35 3a e5 8e 88 be 7a bf bc be
       0.49376523 0.0006929068 -0.2667152 -0.36864835
0002d0 a0 de 71 bd 3a 65 81 3f f2 95 de 3e de cc ee bd
       -0.059050202 1.0109017 0.43473774 -0.11660169
0002e0 f1 89 7d 3e 72 ca 8a be 9d 1d 1f be f2 6f 7b 3e
       0.24759652 -0.2710758 -0.1553864 0.24554422
0002f0 30 1f f6 bb 84 3b 13 3e af 60 8f be 18 ce a1 bd
       -0.007511042 0.14378172 -0.2800345 -0.079006374
000300 c2 6c ef be 0c 1f 75 be 61 4b ff 3e 71 53 c1 3f
       -0.46762663 -0.23937625 0.49862197 1.5103589
000310 54 35 a3 3e 43 db e5 be 29 ef 0b 3e 63 6f cd 3c
       0.31876624 -0.44893846 0.13665451 0.025077527
000320 20 d1 fd 3e e8 30 03 40 a2 86 77 3e 5d fc a8 3e
       0.49573612 2.04986 0.24172452 0.33005038
000330 89 8b 95 bf 07 f0 24 be 7e 37 cc 3d 27 44 e3 3d
       -1.1683208 -0.16107188 0.09971522 0.110969834
000340 a2 d9 81 3e 6d 0e 3a be cc 97 71 3e 7b 1a 9c bd
       0.25361353 -0.18169565 0.23593062 -0.07622238
000350 8e ad 7d 3e 57 71 58 3e a5 9e 07 be 4a e9 b6 bd
       0.24773237 0.21136986 -0.13244112 -0.08931215
000360 a5 68 6b bd 4f c2 41 bd 91 0c fb 3d 7b 3d 01 be
       -0.057472844 -0.047304448 0.12258256 -0.12621109
000370 84 74 d3 bb c4 76 83 be 71 89 ee 3e 54 3c bd bd
       -0.0064530987 -0.25676548 0.46589234 -0.09240022
000380 d3 e4 ea bd 6a f7 79 3e e5 44 fe 3e 66 f1 1e 3f
       -0.11469426 0.24410787 0.49661937 0.62087095
000390 a1 67 27 3e 52 b4 32 bb 04 07 04 be 48 c0 2a bf
       0.16348125 -0.0027268124 -0.12893301 -0.6669965
0003a0 ae f5 69 bd fe 37 ad be e2 29 8f be 8e 73 68 3c
       -0.057119064 -0.3383178 -0.27961642 0.014187707
0003b0 bb ff fe 3e 56 25 1d be 94 9f 1b 3d af 36 00 be
       0.49804482 -0.15346274 0.037993982 -0.1252086
0003c0 11 2a 0d 3e aa a4 1e bf a7 96 88 3d 1d ce e4 3d
       0.13785578 -0.6197001 0.0666936 0.111721255
0003d0 9b 95 80 bf 0f 66 81 bd fa 3a 4a 3f 87 58 5b 3d
       -1.0045656 -0.06318294 0.7899624 0.053551223
0003e0 90 84 d1 be 28 76 94 be b3 bf 5a 3e be c0 4b bd
       -0.4092145 -0.28996396 0.2136219 -0.04974436
0003f0 37 ee 75 be d6 7b 20 be 54 7d f5 be 03 d5 6f bf
       -0.24016653 -0.1567224 -0.4794718 -0.93684405

rnn.bias_ih_l0 f4 [48]
000000 7f 75 92 be de 4a 99 be c3 77 83 3e 4f 8c 23 3e
       -0.28605267 -0.29939932 0.25677308 0.15971492
000010 84 3a 31 be 8b 53 80 3d 30 8d 0d 3e 06 08 58 3e
       -0.17307478 0.062659346 0.1382339 0.2109681
000020 f5 93 e8 bd ef 8c 35 bc 7f 81 3d bc 38 e2 52 bd
       -0.113563456 -0.0110809645 -0.011566519 -0.05148527
000030 7e a4 e4 be 17 b5 69 be b7 1e a6 be fe 40 13 3e
       -0.44656748 -0.22822987 -0.3244531 0.14380261
000040 23 a0 0c 3f cc bf a7 3f 79 a8 5b 3f 98 82 0c 3f
       0.5493185 1.3105407 0.85803944 0.5488677
000050 53 39 e4 3e 57 fc 17 3f 0d ea 88 3f 79 38 8b 3f
       0.44574985 0.59369415 1.0696427 1.0876609
000060 38 34 83 3f f4 e6 23 3f ba a3 13 3f ba 5b e4 3e
       1.0250311 0.6402428 0.576717 0.44601232
000070 c9 0d e9 3e ce c1 5f 3f e7 46 7f 3f cf 31 96 3f
       0.4551833 0.874051 0.99717563 1.173395
000080 f0 bd 3f be eb 75 45 be 8f 58 f9 3d 46 1f f7 3d
       -0.18724799 -0.19283263 0.12175094 0.12066512
000090 b3 ab a5 be db 2a 95 be 91 a0 82 3e 6a 9b 14 3e
       -0.3235756 -0.2913426 0.25513127 0.14512411
0000a0 ca 72 f5 bc c0 0a 35 3e 9c 76 a3 3d 64 31 a9 be
       -0.029961962 0.17679882 0.07981607 -0.33045495
0000b0 96 3f 90 bc 7f c4 9b bd 94 47 a5 3d 31 4d ff 3c
       -0.017608445 -0.07605838 0.08070293 0.031164737

rnn.bias_hh_l0 f4 [48]
000000 8d 63 6f be 0e 58 08 be 3b a9 50 bb 3b 49 92 3e
       -0.2337782 -0.1331484 -0.003183915 0.28571495
000010 ec 07 10 bc b2 ca 15 3e de 80 c7 3d 5d ff 84 3e
       -0.008790951 0.14628103 0.09741376 0.25976077
000020 0f 21 27 3d ea e1 b4 be 2b f5 2f 3e f9 f2 a7 bd
       0.04080301 -0.3532861 0.17183368 -0.0820064
000030 f4 f8 db be 3a e8 29 be 7a 8f 86 be 88 c2 63 bc
       -0.42963374 -0.16592494 -0.2628134 -0.01390136
000040 f5 8b 17 3f 18 8d 9b 3f 2c 77 58 3f ab 93 cf 3e
       0.5919793 1.2152433 0.8455684 0.4054235
000050 be 32 e3 3e 0f c6 23 3f 24 a7 8e 3f 52 36 96 3f
       0.4437465 0.6397409 1.1144757 1.1735327
000060 e4 f3 41 3f 74 1e 38 3f a1 8e 10 3f ce 61 f1 3e
       0.7576277 0.7192147 0.56467634 0.47144932
000070 3f 92 00 3f 9f 72 25 3f ef 54 66 3f 8b 7f 8d 3f
       0.50223154 0.6462802 0.8997335 1.1054548
000080 be ea a4 be f0 7f ea 3c 1a b6 76 be 1b 29 be 3e
       -0.32210344 0.028625458 -0.24092904 0.37140736
000090 cb 0d ae 3c 08 27 de bd 95 d6 8d 3d 4a ae 53 bc
       0.021246811 -0.10847288 0.06925694 -0.012919972
0000a0 16 b6 b5 bd bb bf 2f 3e f9 a8 fa bd 3b 7f 37 be
       -0.08872621 0.17162983 -0.1223926 -0.17919628
0000b0 ff 4c 4d 3d e9 06 0d 3e 54 a1 0f 3e cc 68 5c bd
       0.050122257 0.13772167 0.14026386 -0.05381088

fc.weight f4 [128, 16]
000000 53 48 ad 3e 0c 2c 35 3e d6 28 6d 3e a3 f0 22 be
       0.33844241 0.17692584 0.23160109 -0.15912108
000010 58 8c f6 bc 4c 61 19 3e c4 db 93 be a0 f3 84 3c
       -0.030096218 0.14978522 -0.28878605 0.01622945
000020 83 fc b4 3e 9f b1 5e bd b9 19 8b 3e 7b 84 26 3e
       0.353489 -0.05436861 0.27168062 0.16261475
000030 e3 0d cb 3d ad 2c ec bd be d2 08 3e be 92 07 3e
       0.09914758 -0.11531959 0.13361642 0.13239571
000040 91 e5 4f 3e d2 e6 a3 3e 72 d4 15 be 83 6c 13 3e
       0.20302416 0.3201204 -0.14631823 0.14396863
000050 04 76 c3 bc 78 d7 ed 3a 2b b6 b9 bd 2e b9 83 be
       -0.023859985 0.001814588 -0.09067949 -0.25727218
000060 6d 5a 8b 3e f2 7c 88 3d ac 99 3c bd d4 63 98 3e
       0.27217427 0.066644564 -0.04604499 0.29763663
000070 1a a8 80 be 61 d5 87 be a4 7b 26 be ec 27 89 3e
       -0.2512825 -0.26529983 -0.16258103 0.2678827
000080 69 32 1a 3d a3 7a 43 3e a7 2c fb bd 95 d0 09 bf
       0.03764573 0.19089751 -0.12264376 -0.53833896
000090 34 92 fc 3e 86 12 c3 3e c6 ea 0d bf a8 a9 c6 3d
       0.49330294 0.3810007 -0.5543636 0.09700328
0000a0 8d ef c9 3e fa 5d 7a be 4b eb 22 bd ae 48 d8 3e
       0.39440575 -0.24449912 -0.039775174 0.4224295
0000b0 0d 09 99 3e 34 b4 93 3d 53 fa d7 3d 9b 16 44 3f
       0.29889718 0.072121054 0.105457924 0.76596993
0000c0 12 62 1a 3e 17 2d b9 bc 4e c6 e7 be 72 ee d0 be
       0.15076473 -0.022604508 -0.45268482 -0.4080692
0000d0 04 fc 5e bc 4b 1e b8 3e 42 dc 59 3c 93 f1 95 3e
       -0.01360989 0.35960612 0.013297142 0.2928587
0000e0 25 d6 52 be c4 bc e6 be 3d 67 45 be b2 32 4d 3e
       -0.20589502 -0.45065892 -0.19277664 0.2003887
0000f0 0c 62 9f 3e 1a 95 14 be ec c9 2c be cd b4 44 3b
       0.3112949 -0.14510003 -0.16873902 0.0030014992
000100 e8 f7 4b 3e 4d 6f 11 bf 38 78 33 3e be b0 8c 3d
       0.19918787 -0.56810457 0.17526329 0.068696484
000110 7e f9 05 bf 19 ee 84 be 5f d8 fb 3e 82 a6 8f 3e
       -0.5233382 -0.25962904 0.49188516 0.28056723
000120 29 21 c5 be a4 6d 05 3e b6 0d 67 3d 25 af c2 be
       -0.38501862 0.13030106 0.05640956 -0.3802425
000130 51 c0 04 be ca a6 ea bd 32 ea da be 5f 4d c8 be
       -0.12963988 -0.11457594 -0.42756802 -0.3912153
000140 6a 5f e7 3d 27 7f 71 3e 6f 2f a0 3c d9 3a 25 be
       0.11297496 0.23583661 0.019553868 -0.1613573
000150 9b ca 5e 3e df e3 3e 3e be 3e f0 3d e2 82 fd 3d
       0.21756975 0.18641613 0.11730717 0.123784795
000160 7e 1a 71 3c 9f 8c b6 bd 6f 84 4d be ee 81 14 3d
       0.014715789 -0.0891354 -0.2007005 0.036256723
000170 1a 45 0e 3f bd 4e 72 3c de 50 13 be c9 4e 61 3c
       0.5557419 0.0147892805 -0.14386317 0.013751694
000180 d2 2e 9d bd 5e d1 0f be 77 e4 83 be 76 6d 40 3d
       -0.07674946 -0.14044711 -0.25760242 0.04697939
000190 4b 2e 63 bd 0d 96 21 be 0e 19 96 3e 0b 35 75 3e
       -0.05546407 -0.15779896 0.2931599 0.23946016
0001a0 cb 25 e2 3e b7 87 a0 3e 7d 6e 87 be 9f 79 a2 3e
       0.4416946 0.31353542 -0.26451483 0.31733415
0001b0 9e 4d aa 3d ae 01 99 bd f7 40 cf be 6b 8d a8 3d
       0.083155856 -0.074710235 -0.40479252 0.08230098
0001c0 58 19 a6 3d 43 3b 7d 3e aa b3 c8 3e ef 6b 15 be
       0.08110303 0.24729638 0.39199573 -0.14591955
0001d0 0e 10 09 b9 c0 ff eb 3e 4b 77 ba 3a 54 f2 cd bd
       -0.00013071319 0.4609356 0.0014226226 -0.10055986
0001e0 29 30 53 be 20 32 8f 3c c7 e5 f7 3d 2f f7 ca 3d
       -0.2062384 0.017479956 0.121043734 0.09910428
0001f0 dc db 92 3d ca d7 9a 3d b6 52 51 3e 9b 47 6e 3e
       0.07170841 0.0756069 0.20441708 0.23269503
000200 94 c4 72 be 0e 50 0c be 94 0b 82 3d c7 3c b2 3e
       -0.23707801 -0.13702413 0.063498646 0.34811994
000210 97 f3 2a be 4d 4c e2 be 95 8a 6b 3d b0 f2 22 3d
       -0.16694485 -0.44198838 0.05750521 0.039782226
000220 a5 55 df bd ff 31 95 3e bc ef c7 3d e9 2e 82 be
       -0.10905007 0.29139706 0.097625226 -0.25426415
000230 d5 a0 fb be 00 86 13 3e fe 48 94 3c 9b be 4d 3e
       -0.49146143 0.14406586 0.018101212 0.20092241
000240 9e e1 2b 3f 7f 9e 81 be 7d 02 4d be 0e fd 3e bd
       0.6714114 -0.25316235 -0.2002048 -0.04662805
000250 8d 81 c2 be 48 1f 93 3d ba 41 fe 3d b6 a3 77 3e
       -0.37989464 0.07183701 0.1241488 0.24183545
000260 70 a4 3d bc 3f ad 75 be 00 78 89 be b5 a9 a0 be
       -0.0115748495 -0.2399187 -0.26849365 -0.31379476
000270 b3 d8 2e be b9 ec 2e be a5 6a 10 bf 56 26 1c be
       -0.17074852 -0.1708249 -0.56412727 -0.15248999
000280 2b 7c 5d be 54 ef 50 3d 54 25 8e 3e ba 23 16 bd
       -0.21629398 0.05100949 0.27762854 -0.036655165
000290 c9 6e b4 3d d5 c6 50 3e a3 35 e3 3d af 4b 71 3e
       0.08810193 0.20388348 0.11094215 0.23564027
0002a0 eb 17 b5 bd 45 d4 c4 3d 7e 2a a1 3a eb 44 1e be
       -0.088424526 0.096108 0.0012295989 -0.15455978
0002b0 81 fc 38 3d 59 af d5 3d 1d f4 14 be cd 4a 97 3d
       0.04516268 0.104338355 -0.14546247 0.07387314
0002c0 19 bc 49 be f8 a4 98 3d c1 d2 a8 3e 00 ef 32 be
       -0.1970066 0.0745334 0.32973292 -0.17473984
0002d0 8b 78 6b bc fe e6 28 3e 77 9e 90 be e4 3b 4f be
       -0.014372001 0.16494367 -0.282459 -0.2023769
0002e0 e0 86 7a 3e 59 91 bc bd d0 3b 2b 3e ce 77 83 3e
       0.24465513 -0.0920741 0.16722035 0.2567734
0002f0 2d 10 00 3d 43 cc 7a be 78 52 4e 3e 60 43 36 be
       0.031265426 -0.24491982 0.20148647 -0.17799139
000300 90 cc 99 be 53 1a 0b 3d c2 38 31 3d 2d 9b 79 3e
       -0.3003888 0.03396065 0.04326702 0.24375601
000310 22 53 59 3e c0 02 46 3e 7c a2 f6 be a5 7e ac bd
       0.21223119 0.19336987 -0.4817084 -0.08422593
000320 5c 91 00 be 16 19 1b 3f 2c 9a 80 3c 5d 1a 3d bd
       -0.1255545 0.60585153 0.015698515 -0.04616772
000330 ca da 2f bd b7 4c a5 3e df 55 24 be 99 0e 73 3e
       -0.042933263 0.3228509 -0.16048382 0.23736037
000340 68 fd a7 be 72 1b 73 3e ac fd 98 3e cd 1e 3b 3e
       -0.3281052 0.23740938 0.29881036 0.18273468
000350 53 15 13 3d f4 1d 05 3f b0 e3 6b 3d 6f f3 a7 bd
       0.03590901 0.5199883 0.057590187 -0.08200728
000360 1e 17 bb be 0f 3e a2 3d f5 5b 6c 3e 82 5c 51 be
       -0.36541075 0.07921993 0.23081954 -0.20445445
000370 eb f9 f3 bd b8 fd d5 3e 54 67 d1 bd be 20 2a 3e
       -0.119129024 0.41795135 -0.102247864 0.16614053
000380 07 fc df be ca 3a 7c 3d f5 67 df 3d b5 b3 1a 3f
       -0.4374697 0.061579503 0.109085 0.6043046
000390 0e fc 8b 3d d0 ea c1 3d bb 18 92 3d 8e bc 2d be
       0.06835185 0.09468615 0.07133623 -0.16966459
0003a0 73 bc 52 bd ac 95 10 3e 5f fe dd 3d 2c ff 2b be
       -0.05144925 0.14119595 0.10839533 -0.16796559
0003b0 6c 89 1d bc bc 72 7a 3e f8 5e 29 3e a5 12 47 be
       -0.009615283 0.2445783 0.16540134 -0.19440706
0003c0 ac d5 ba 3d e8 d5 90 be eb fa 02 3f 10 c3 44 3e
       0.09122786 -0.28288198 0.5116412 0.19215035
0003d0 e9 af 59 be 70 aa 78 be f2 da 01 3f 90 00 94 3d
       -0.2125851 -0.24283767 0.5072471 0.0722667
0003e0 2f ca 4e be 64 29 a8 3c e2 1e ed 3d d2 47 01 bf
       -0.20194314 0.02052755 0.11578156 -0.50500214
0003f0 31 d8 ab 3d d2 50 20 bc 43 2f 67 be db b6 3f bd
       0.083908446 -0.009784894 -0.22576623 -0.046805244

fc.bias f4 [128]
000000 f2 94 0d be 11 65 58 be da 02 04 bf cb c9 43 bd
       -0.1382635 -0.21132304 -0.5156685 -0.047799867
000010 f7 5b 02 3f 57 3a 9f bd a7 e0 bf bd ef 67 ab 3c
       0.5092158 -0.07774799 -0.09369021 0.020923583
000020 6a 25 3b bd b3 d2 82 bd 2e cb de 3d 76 d0 33 be
       -0.045689978 -0.06387844 0.10878597 -0.1755999
000030 1b 08 bd be 94 8c 28 3e 65 19 07 3d 3d 13 8d 3e
       -0.36920246 0.16459876 0.032983202 0.2755374
000040 06 7b 4d be f4 81 31 3e dc 17 54 3d 9c b1 9c 3e
       -0.20066461 0.1733473 0.051780567 0.30604255
000050 c1 eb 3b be cf c6 c5 3c 74 f5 db be 21 84 b8 3e
       -0.18351652 0.02414265 -0.42960703 0.36038306
000060 f8 55 ca 3e 9a eb d4 3c e9 1d ea be 48 94 4b 3e
       0.39518714 0.02599125 -0.45725945 0.19880784
000070 e0 9a e3 be 41 3a ac 3e a6 dc 95 3e de c6 af be
       -0.44454098 0.33638194 0.29269904 -0.3433141
000080 35 63 02 3e 57 06 72 3e c8 61 0b bd 3a e0 5e 3e
       0.12733157 0.23635231 -0.0340288 0.21765223
000090 44 cc 95 3d 7d b0 d4 3e 9b 9d 7d 3e 78 76 73 3d
       0.07314351 0.415409 0.24767153 0.059439152
0000a0 3b 2e 3e bd 4a c4 0e bd a9 1b 9e be db f0 47 be
       -0.046430808 -0.034855165 -0.30880478 -0.19525473
0000b0 23 c6 c8 3d 74 ce cc 3c 03 dd fe 3e 5c 3e 81 be
       0.098034166 0.025000788 0.49777994 -0.2524289
0000c0 f9 59 50 3d 78 c2 8e be 73 dd 4c 3e 3a cc c9 bd
       0.050867055 -0.27882743 0.20006351 -0.09853406
0000d0 c2 7e 38 be 25 34 0b bd a9 01 dd be f5 24 97 bd
       -0.18017104 -0.033985276 -0.4316533 -0.07380096
0000e0 c4 cd 98 be f4 58 64 3e 1f 66 94 3e 1d 04 8d 3e
       -0.29844487 0.22299558 0.28984162 0.275422
0000f0 29 97 6b 3e cd 95 28 3c 80 69 c6 be d4 26 26 be
       0.23006882 0.010289622 -0.38752365 -0.16225749
000100 f3 53 c1 3e 5a 01 75 3e 37 01 87 be da 5c ed bd
       0.3775936 0.23926297 -0.26368114 -0.11589976
000110 58 b7 b2 be 3b bb 15 bf e1 f3 0f 3e cd bd bc 3e
       -0.34905505 -0.58488816 0.14057876 0.36863557
000120 03 14 8c 3e 2e d1 9c be 24 7b 83 be fd a0 68 3e
       0.27359018 -0.3062834 -0.25679886 0.22717662
000130 b5 a6 a2 be 4e 36 68 be 62 3a 42 be e0 ea f6 3e
       -0.31767812 -0.22676966 -0.18967584 0.4822607
000140 a9 fd 78 3c 1f bd 6a 3e 64 e6 ab bd 24 93 6b 3e
       0.015197196 0.22923706 -0.08393553 0.23005348
000150 9c 39 5d 3e cf bc 17 be c1 bc 96 3e bc 2a 81 be
       0.21604007 -0.14818119 0.29440883 -0.25227916
000160 d6 bc 53 be 41 17 98 be c2 95 90 3e ad 72 63 be
       -0.20677504 -0.2970524 0.28239256 -0.22211714
000170 88 5a 16 be ae cf 64 3e 46 c4 9d be b9 25 19 bd
       -0.14682972 0.22344849 -0.30813807 -0.03738949
000180 fb 2a 2e 3d 0b 71 aa 3d 67 30 83 3d 1f 5f b4 be
       0.042521458 0.083223425 0.064057164 -0.35228822
000190 41 51 ef 3e 85 71 30 be 5a 43 76 be a3 1f 41 3e
       0.4674168 -0.17230804 -0.2404913 0.18859725
0001a0 33 ec b0 be bf 59 37 3c 16 a0 c6 be 42 18 4e 3e
       -0.34555206 0.011190831 -0.3879401 0.20126441
0001b0 0b db 53 3e a3 06 ac be d1 49 fb 3e d8 e5 28 3e
       0.20689027 -0.33598813 0.49079755 0.16493928
0001c0 d6 28 98 3e 03 2a 2d 3e 89 9d 57 3a 8f 3c b4 bd
       0.29718655 0.16910557 0.00082250737 -0.08800613
0001d0 30 95 b3 3e 00 a0 88 3e c2 b7 9c be d0 96 a1 3e
       0.3507476 0.2668457 -0.30608946 0.31560373
0001e0 f3 87 48 be 69 44 e4 be 0c ef 4c 3d 05 64 d4 3e
       -0.1958311 -0.44583443 0.05003266 0.4148256
0001f0 b7 12 41 3e 6d 03 1a be df da 5a 3e d5 ef 70 3e
       0.18854795 -0.1504037 0.21372555 0.23528989

mlp.0.weight f4 [16, 360]
000000 b1 39 fe bc 17 66 ab bd 60 af a9 bd c1 b0 7f bd
       -0.031033369 -0.083690815 -0.08285403 -0.062424425
000010 9d 01 95 bd c7 a0 77 bd bc 9b 7b bd f5 fd 91 bd
       -0.07275698 -0.060456064 -0.061427817 -0.071285166
000020 12 aa 85 bd ca 73 72 bd f4 7c 9f bd 73 59 be bc
       -0.06526579 -0.059192456 -0.07787505 -0.023236012
000030 7f c4 87 bd 27 83 d0 bd 10 06 3b bd 42 02 e3 bd
       -0.066292755 -0.10181265 -0.04566008 -0.11084415
000040 59 6d 31 bd d9 fe 0f bd bc dd ba bd 80 18 f6 bb
       -0.043317173 -0.03515515 -0.09124324 -0.007510245
000050 26 e6 bb bd ab 08 e4 bd 07 ea a4 bd d9 b8 b4 bd
       -0.09174757 -0.11134466 -0.0805245 -0.088243194
000060 05 79 fe bc 0c b0 bf bd 84 70 5b bc fa 95 ca bc
       -0.031063566 -0.0935975 -0.013393525 -0.024729718
000070 83 be 20 bd 84 89 38 bd b0 99 a8 bd da 7e a3 bd
       -0.039244186 -0.04505302 -0.082324386 -0.079831794
000080 8c 60 bb bd 50 6d 38 bd de ff 29 bd e3 ad 68 bd
       -0.09149274 -0.045026124 -0.04150378 -0.056806456
000090 ff a7 82 bc 31 4d 94 bd 8f 9d bb bd 97 4f c2 bd
       -0.015949247 -0.072412856 -0.09160911 -0.09487837
0000a0 b6 2d e1 bd 9c 9b a3 bd da 68 86 bd 83 ff 7d bd
       -0.10995047 -0.079886645 -0.065629676 -0.062011253
0000b0 bc 15 a6 bd 30 65 1d bd 10 c9 d7 bc 78 16 68 bd
       -0.08109614 -0.038426578 -0.026340991 -0.056662053
0000c0 f4 3c a3 bd 8b 50 a1 bc 9c 79 4c bd 57 5f 99 bd
       -0.0797061 -0.019691726 -0.049920663 -0.07488888
0000d0 92 d6 81 bd 15 c3 c2 bc 81 b4 c2 bd fb 96 bd bd
       -0.06339754 -0.023774663 -0.09507085 -0.09257313
0000e0 1f 6e 20 bd 3c 58 84 bd 6e 30 d1 bd 1e f8 5e bd
       -0.03916752 -0.06462142 -0.10214315 -0.05443584
0000f0 b4 64 d9 bd 42 92 a5 bd 85 4c 64 bc d6 99 a2 bd
       -0.10614911 -0.08084537 -0.013934259 -0.07939498
000100 45 e6 bb bd ad 0e 61 bd 36 1f df bd 54 7a bc bd
       -0.0917478 -0.054945637 -0.10894625 -0.0920302
000110 0f 52 9d bc 27 1a ac bd 3f 7e 7b bd 5c 29 d7 bd
       -0.019204168 -0.08403426 -0.061399695 -0.105059355
000120 0d 38 2b bd 97 4b c4 bd 3a e3 9e bd 10 6d c1 bd
       -0.0418015 -0.0958473 -0.07758184 -0.0944463
000130 5b 57 b8 bd c6 06 79 bc c7 22 33 bd b2 50 45 bd
       -0.09001037 -0.015199369 -0.043734338 -0.04817266
000140 35 d3 45 bd 0d 5a 42 bd 8d 88 2a bd ae e9 c1 bc
       -0.048297126 -0.04744916 -0.04163413 -0.023670997
000150 71 86 b9 bd 5a 92 d6 bd b5 c6 9b bd b1 72 c3 bc
       -0.09058846 -0.10477133 -0.0760626 -0.0238584
000160 ee 26 aa bd 59 0b 2c bd f9 49 d5 bd a8 fd 3f bd
       -0.083082065 -0.04200301 -0.104145 -0.046872765
000170 08 b9 cc bc 1e 61 6b bd 60 f2 d0 bd a8 11 d8 bd
       -0.024990574 -0.057465665 -0.10202479 -0.10550243
000180 cc b9 d7 bd fa be 6a bd 76 ec af bd de f6 57 bc
       -0.10533485 -0.057311036 -0.08590023 -0.013181416
000190 ea fb ca bd a2 4c e3 bd e6 38 b1 bd a1 da 2a bd
       -0.0991133 -0.11098601 -0.08653431 -0.041712407
0001a0 a6 f1 d4 bd 78 d0 05 bd 3f 3f d9 bd 44 a0 20 bd
       -0.10397653 -0.032669514 -0.10607766 -0.03921534
0001b0 69 8f c9 bd ac 04 07 bd 7d b7 c8 bd a0 f3 cf bd
       -0.098418064 -0.03296344 -0.098006226 -0.1015389
0001c0 94 0d 94 bd 85 21 84 bd f1 ef ee bb 4d 14 22 bd
       -0.07229152 -0.06451706 -0.007291787 -0.03957014
0001d0 d0 7b e2 bd 44 57 67 bd 90 81 01 bd 89 f8 19 bd
       -0.110587716 -0.056479707 -0.0316177 -0.037590537
0001e0 6f 61 2f bd 7b 8e 41 bd 83 91 27 bd 0f c1 e1 bd
       -0.04281753 -0.04725502 -0.040910255 -0.11023151
0001f0 48 dc 01 bd d4 3a 94 bd 9d a1 d3 bd 7d ff cb bc
       -0.031704217 -0.07237783 -0.1033356 -0.0249021
000200 9b 24 54 bd 82 05 dc bd f2 b4 1d bc cd 52 62 bc
       -0.051792722 -0.10743238 -0.00962566 -0.013813687
000210 a5 4b b1 bd 0b db dd bd 44 d7 10 bd e7 85 e0 bd
       -0.08657006 -0.10832795 -0.035361543 -0.1096304
000220 4d 39 00 bd f2 a8 37 bd f7 89 c0 bd f5 4e fa bc
       -0.031304646 -0.044838853 -0.09401315 -0.030555228
000230 d4 e5 95 bd f3 13 f7 bc 14 f0 98 bd f2 0b 9b bd
       -0.07319227 -0.03016088 -0.07467666 -0.07570638
000240 d1 c7 9f bd 24 85 e4 bc 6a a5 8b bd 94 d0 65 bc
       -0.07801784 -0.027895518 -0.068186596 -0.01402678
000250 c6 03 d2 bc f7 aa 0f bc 22 70 a5 bd 3c 54 53 bc
       -0.025636565 -0.008768789 -0.08078028 -0.012898501
000260 39 43 69 bd 7a a8 8f bd 8f e4 36 bd be ae bf bc
       -0.056948874 -0.07014556 -0.044651564 -0.023398753
000270 c5 4e df bd b7 fe 10 bd 59 d9 86 bd 9e 46 c8 bd
       -0.10903696 -0.035399165 -0.065844245 -0.09779094
000280 e1 ed dc bd fb ca 20 bd 44 3f 09 bc 0d b8 c0 bd
       -0.10787559 -0.039256077 -0.0083769 -0.09410105
000290 7a 18 9c bd 67 47 3a bd 6c 86 bc bc 0f c0 a0 bd
       -0.07621856 -0.04547825 -0.023013316 -0.07849132
0002a0 05 94 db bd 0a e7 c8 bd 74 87 89 bd 32 1c 61 bd
       -0.10721592 -0.09809692 -0.06715289 -0.05495853
0002b0 81 d1 46 bd da 54 79 bd b5 96 81 bd 90 06 5b bd
       -0.048539642 -0.060871936 -0.06327573 -0.053473055
0002c0 d7 2e 3b bd b0 3d 6b bd f3 8c ac bd 08 a4 de bd
       -0.045698967 -0.057431877 -0.084253214 -0.1087113
0002d0 2b 79 b0 bd de 4a 80 bd e8 c7 98 bc 6d 47 c4 bd
       -0.08616861 -0.0626428 -0.01865001 -0.09583936
0002e0 4c f5 e2 bd f1 fc 6f bd 03 31 cf bc 03 bc e8 bc
       -0.11081943 -0.058590833 -0.025291925 -0.028409963
0002f0 5b 93 76 bd 30 39 bd bd e9 11 fd bc 3c 58 8f bd
       -0.060199123 -0.09239423 -0.03089233 -0.06999251
000300 40 25 69 bd 33 c9 8b bd fe b2 61 bd 96 d4 d8 bd
       -0.05692029 -0.06825485 -0.05510234 -0.105874225
000310 ac f6 c4 bd f3 51 84 bd 59 46 57 bc 9e c0 c7 bd
       -0.096173614 -0.06460943 -0.013139331 -0.09753536
000320 22 af 33 bc b0 a7 be bc 82 42 de bd 79 ba 80 bd
       -0.010967048 -0.023273319 -0.10852529 -0.06285567
000330 35 27 af bd 05 53 cd bc 5b 10 61 bd 43 9b 88 bd
       -0.085524 -0.025064 -0.05494724 -0.06670239
000340 23 c1 e5 bd 5d 30 41 bd 79 91 ce bc 21 8b 71 bd
       -0.112184785 -0.047165263 -0.025215851 -0.058970574
000350 b5 6f 55 bc 37 24 4b bd 89 95 8f bd 87 52 f8 bb
       -0.013027121 -0.049595084 -0.070109434 -0.0075781974
000360 6f 31 92 bc 21 d5 ba bd 90 b6 0d bc df d9 ca bd
       -0.017845837 -0.09122682 -0.008649483 -0.09904837
000370 73 d9 a5 bd d6 2c 22 bc 64 38 2c bd 98 dd a6 bd
       -0.08098116 -0.009898385 -0.042045966 -0.081477344
000380 5b f7 16 bc a8 e7 c0 bd dc 2c 0c bd 35 b8 0c bd
       -0.009214248 -0.09419185 -0.03422247 -0.03435536
000390 73 8b 1d bd 1f 58 90 bc fe 8f c7 bd c4 e2 c0 bd
       -0.038463067 -0.017620144 -0.09744261 -0.09418252
0003a0 04 3f 63 bd cb 72 19 bd 8b 16 83 bd 83 0c 7c bd
       -0.05548002 -0.03746299 -0.06400784 -0.06153537
0003b0 27 a0 d6 bd fb aa 8b bd 83 5c 7e bd 4c bc 9e bd
       -0.104797654 -0.06819721 -0.062099945 -0.077507585
0003c0 d4 03 dc bc f1 48 b3 bc 7c da 45 bd dd 9a 9d bd
       -0.026857294 -0.021885367 -0.048304066 -0.076955535
0003d0 10 e5 73 bd 2d 28 c6 bd 57 f9 d6 bd a7 9b 9c bc
       -0.059544623 -0.09675632 -0.104967766 -0.01911719
0003e0 76 08 ac bd ad 77 a1 bd f6 68 d2 bd ed 60 5f bd
       -0.08400051 -0.078841545 -0.10273926 -0.054535795
0003f0 4d 05 1a bd 90 89 e2 bd 2a 66 89 bd 6a 39 4a bd
       -0.03760271 -0.11061394 -0.067089394 -0.04937116

mlp.0.bias f4 [16]
000000 b0 70 cd bd 2a 27 c1 bd 8f 04 d5 bc 2b 1e 79 bd
       -0.10031259 -0.09431298 -0.02600315 -0.060819786
000010 44 1e a4 bd 42 67 0f bc 0b a0 ae bd 16 50 a4 bd
       -0.08013585 -0.008752646 -0.085266195 -0.08023088
000020 1e 65 86 bd 7c 01 bf be 69 cf a9 bc 39 b0 8b bc
       -0.06562255 -0.3730582 -0.020728784 -0.017051803
000030 1d 86 a7 bd 68 2d 11 bc 02 b2 c3 be bf 2b c8 bc
       -0.08179877 -0.008860923 -0.38221747 -0.024434922

mlp.2.weight f4 [16, 16]
000000 ef 30 8c bd 93 f4 77 3d 1f 3a 12 be f9 3a 31 3e
       -0.06845271 0.06053598 -0.14279984 0.17307653
000010 3f a9 01 be e2 2f 1d 3e e8 00 88 be 33 f3 19 be
       -0.12662219 0.15350297 -0.2656319 -0.1503418
000020 99 a1 82 be 6f 57 25 3e 13 ec 15 3d d3 b0 70 3c
       -0.25513914 0.16146635 0.03660209 0.014690596
000030 9b bc 56 be 4a 5e 9c 3d f1 f4 10 3e 01 af 92 3d
       -0.20970385 0.07635172 0.14155938 0.071622856
000040 5b f3 da 3c f1 da cf 3d 63 29 96 3d af 83 e5 bc
       0.026727369 0.10149182 0.07332113 -0.028016893
000050 02 9d 12 bd 49 21 c8 3b 7a 81 02 3e ea ee 0f 3d
       -0.035794266 0.0061074835 0.12744704 0.035139956
000060 fe 8e fe bc 4c 38 a4 be 64 03 1d 3d c6 b5 cd 3b
       -0.031074043 -0.320742 0.03833331 0.0062777726
000070 80 d4 30 bc 45 11 63 3c 86 c8 fb 3d 1b 5d bf 3c
       -0.010792851 0.013859098 0.12294106 0.023359826
000080 82 ad a1 39 b6 84 10 bc a5 6d 12 bd 14 dd b3 3b
       0.00030837586 -0.008820703 -0.035749096 0.005489001
000090 62 66 c3 bc 7c 7a 08 bd 69 d3 77 3c c0 84 c3 ba
       -0.02385253 -0.033319935 0.015126088 -0.0014916882
0000a0 5f be 7a bc 91 1d 2c 3b 39 85 76 bc 0a 56 a8 ba
       -0.015304177 0.002626274 -0.015046411 -0.0012843024
0000b0 6e a6 97 bb ac 30 18 3b b5 39 3b 3e 73 45 01 bd
       -0.0046279943 0.002322237 0.18283732 -0.031560373
0000c0 6a 09 3b 3e e7 96 db 3d aa 09 0a 3e 50 38 88 bc
       0.1826531 0.10722142 0.13480249 -0.016628414
0000d0 ed 2f 22 bd d8 7e 62 be b9 05 a9 3c 56 83 aa 3d
       -0.039596487 -0.221187 0.020632612 0.083258316
0000e0 46 f1 37 be e9 18 eb be 00 6e 33 3e fb 5c cd 3d
       -0.17963132 -0.45917442 0.1752243 0.100275
0000f0 4d 53 10 3e 6d d2 39 3e 8c a0 e8 bd eb 4b b9 bb
       0.14094277 0.18146677 -0.11358747 -0.005654802
000100 bc d1 e5 3c 23 88 0a bd 86 06 a4 bc 6f 5c 96 bc
       0.02805411 -0.033821236 -0.020022642 -0.018354623
000110 5c 8f c1 3a d9 7c bd 3c 16 4f 78 3c 65 7e a4 ba
       0.0014767456 0.023130821 0.015155574 -0.0012549876
000120 30 0c a5 bc e4 78 33 3e d2 f4 a6 bc 8d cf 5e bb
       -0.020147413 0.17526585 -0.020380411 -0.0033998222
000130 53 84 bb 3c ff 3a ac 3b 09 ca aa 3e b0 08 83 ba
       0.022890246 0.0052560563 0.33357266 -0.0009997096
000140 fc 94 81 bb b8 52 0d 3c 29 e9 61 bc cd 79 96 3d
       -0.003954528 0.008625679 -0.0137885 0.073474504
000150 e3 b1 10 be de 5f 63 bb ce 9a 1d 3e 4e e0 6e bd
       -0.14130358 -0.0034694592 0.15391085 -0.058319382
000160 23 00 69 bd 52 99 60 be b3 c4 c2 bc 3b 33 02 3d
       -0.056884896 -0.21933487 -0.023775434 0.03178714
000170 d9 b9 0d 3e 27 93 20 be 4d 1f 88 be d7 8d 1e 3d
       0.13840427 -0.15681134 -0.2658638 0.038709488
000180 1d 89 23 3e f4 de 90 3e 54 68 96 3e 33 cf 16 be
       0.15970273 0.282951 0.2937647 -0.14727478
000190 a4 5d 1c 3b 54 a9 44 bc 83 8a d9 3d 12 7d 28 be
       0.0023859525 -0.012003262 0.10622122 -0.1645396
0001a0 b1 ee 50 3e 84 40 3c bd 43 2b 7a 3e 59 c7 fc 3c
       0.20403554 -0.045959964 0.24430566 0.030856775
0001b0 5c b8 23 bd 93 51 06 3e ea b6 84 3e 31 f2 36 be
       -0.03997074 0.13117056 0.25920802 -0.17865826
0001c0 59 7b ad 3c 8b 44 03 3c c9 75 dc 3c 88 27 15 bd
       0.02117698 0.008011947 0.026911633 -0.036414653
0001d0 c2 11 15 bd d5 f9 4f bc 36 99 17 bd b3 64 b6 bc
       -0.03639389 -0.012693842 -0.037011348 -0.022264814
0001e0 cb 12 73 3c 48 9a 74 bb e9 0a d5 3b 8e 43 9b bc
       0.014836024 -0.0037323404 0.0065015447 -0.018953111
0001f0 a6 c0 c3 bc 7d 25 19 bd 08 07 d9 bc c4 46 1a bd
       -0.023895573 -0.037389267 -0.02649261 -0.037665144
000200 11 d2 9b bc 39 7a 26 bd b4 bb d2 bc 6c 3c 23 bc
       -0.019021066 -0.040643904 -0.02572427 -0.009963136
000210 d9 55 0b 3d 9d 05 9d bc 2c f3 95 bc 9d 6a 0e 3c
       0.034017418 -0.019167716 -0.01830443 0.008692411
000220 a5 ec 20 3c db b0 20 bd 50 a0 87 3c 61 b0 f3 3b
       0.009822045 -0.039231163 0.016555935 0.0074367975
000230 40 f0 49 bc 39 6a f3 3c db ce 0c bd 57 08 af bc
       -0.0123253465 0.029713737 -0.03437696 -0.021366281
000240 40 8c cb 3d d1 78 14 be ad 6f a2 bb 66 f6 3f 3e
       0.0993886 -0.14499213 -0.0049571604 0.18746337
000250 bf c7 fd bd 24 66 72 3c 37 bf a2 3c 09 ef 8c 3e
       -0.12391614 0.01479486 0.019866569 0.2752612
000260 b1 af 18 be a9 11 06 be 04 55 1d 3e 56 73 8e bd
       -0.14910771 -0.13092674 0.15364462 -0.06955592
000270 85 ac 50 3d b0 1e 1b 3e ab a9 c8 3e 9b 34 42 be
       0.050945777 0.15148425 0.39191946 -0.1896538
000280 4d 66 db bc d5 a3 85 3e f5 89 30 bd a3 90 e0 3c
       -0.02678218 0.26101556 -0.043100316 0.027412718
000290 f2 6b 1a bd ff 8d f5 bc f3 d7 a6 3d 1d dd 88 3c
       -0.0377006 -0.029974936 0.08146658 0.016706998
0002a0 ea 8b ef 3b a8 49 ec 3d a0 21 05 3d 0c 28 25 bd
       0.00731038 0.11537486 0.03250277 -0.040321395
0002b0 d4 a9 11 3d bd 82 5e 3e 04 ad 88 3d 98 f8 ba bc
       0.03556235 0.2172956 0.06673625 -0.022823617
0002c0 65 c0 82 3d 2a 22 9a 3d c7 35 33 bd ed ab 4e 3d
       0.063843526 0.075260475 -0.043752458 0.05045693
0002d0 58 39 86 3e 4e 3c 68 3d 50 6b b2 bd a6 1e 2a bd
       0.26215625 0.056698136 -0.087118745 -0.041533135
0002e0 49 4b 45 bc 55 1a f2 3e 4c 53 d8 3d 34 34 68 3e
       -0.012041875 0.47285715 0.105627626 0.22676164
0002f0 f9 95 08 be 81 14 f6 bd 11 ab 35 be d9 d0 b9 bc
       -0.1333846 -0.120156296 -0.17741038 -0.022682594
000300 ae f1 0a 3e 5d 03 b2 bd 11 fd 0b 3e ed 61 93 bb
       0.13568756 -0.08692048 0.13670756 -0.0044977576
000310 3c d1 b5 bd 64 65 35 3d 86 39 98 3d ac 37 f5 bd
       -0.08877799 0.044286147 0.07432847 -0.11973509
000320 58 4f 34 3e 1b 4b 62 be 53 1f 24 bd 44 59 d0 3c
       0.17608392 -0.22098963 -0.040068936 0.02543319
000330 fa 50 98 3d fc df 92 3e 46 8b 6f be 98 30 29 3e
       0.0743732 0.28686512 -0.23392972 0.16522443
000340 ce 55 b4 bd 0a 08 4e 3d 72 be 52 bd c2 4d 73 be
       -0.088054284 0.050300635 -0.051451154 -0.23760131
000350 a1 08 94 3d 93 32 33 bb c7 0c a7 bd 0e d8 2d be
       0.07228208 -0.0027343377 -0.08156734 -0.1697695
000360 c5 cf 3f 3e 3b 5a db bd c7 7f 13 3e 2e f0 ba 3c
       0.18731602 -0.107105695 0.14404212 0.022819605
000370 75 f6 8f be 3b 98 62 bd f2 c2 ea bc 85 7c 87 3d
       -0.2811772 -0.05532096 -0.02865741 0.06615547
000380 36 27 25 3c 08 2c 19 3e f5 39 c2 3d e7 8e f0 3d
       0.010080149 0.14958203 0.09483711 0.117460065
000390 0c 9c cf 3d 18 c3 54 3d 44 c1 ed 3c 7c 53 5c bd
       0.101371855 0.05194387 0.02902282 -0.053790554
0003a0 56 53 17 3e bf d0 d2 bd b8 14 00 bd ec 57 02 3d
       0.14777884 -0.102937214 -0.03126976 0.03182213
0003b0 5e 21 ed bd 29 83 00 be 91 78 23 be 90 7c 84 bd
       -0.1157863 -0.12550034 -0.15963961 -0.06469071
0003c0 ca c4 2a 3d 21 30 45 3d 7b 84 3f be c2 98 07 be
       0.04169158 0.048141602 -0.18702881 -0.13241866
0003d0 40 4f bf 3d 68 cc 37 3e a1 80 ce bd 88 f4 5b bc
       0.093412876 0.17949069 -0.10083128 -0.013425
0003e0 73 de 1c 3e 5f 1c 3d 3e 28 b5 6f be fa 9b 60 3e
       0.15319233 0.18467854 -0.2340895 0.219345
0003f0 1e 35 91 3d 9f 27 8a bb 5e bd 2f 3b d7 34 86 be
       0.070902094 -0.004216149 0.0026815752 -0.2621219

mlp.2.bias f4 [16]
000000 36 39 80 be 97 07 ba be 97 ed ba bf d0 06 59 3e
       -0.25043648 -0.36333916 -1.4603757 0.21194005
000010 2b 8b 0b bf 83 cd 81 3f a8 2e 8f bd 9d 3a 1f bd
       -0.5450923 1.0140842 -0.06991321 -0.038874257
000020 52 3b 99 bc 08 ed 98 be a6 35 63 be 76 62 e9 3d
       -0.018705044 -0.2986834 -0.22188434 0.11395733
000030 91 06 c9 bd 82 3d 85 3b 17 25 95 bd 12 88 9c 3e
       -0.098157056 0.00406617 -0.07282465 0.30572563
