EUSIPCO/Mutual Coupling No Noise/saved_models/da_music_v2_15dB_uca_5.pth (torch, 47122 bytes, 18 tensors)

bn.weight f4 [16]
000000 c9 18 88 3f 31 60 a4 3f 5e 46 89 3f 3e 31 7f 3f
       1.0632564 1.2841855 1.0724599 0.9968451
000010 8e 56 af 3f 56 29 82 3f 94 86 88 3f da 57 65 3f
       1.3698289 1.0168865 1.066607 0.89587176
000020 89 66 a5 3f 55 1d 70 3f ed f6 3e 3f 7a 01 88 3f
       1.2921916 0.9379476 0.7459553 1.0625451
000030 fc 85 b1 3f 01 76 88 3f 36 b9 8c 3f af db 7b 3f
       1.3869014 1.0661012 1.0994022 0.98382086

bn.bias f4 [16]
000000 d4 1b 20 3e 72 df c6 3d c3 c1 bb 3d 40 77 ed bd
       0.15635616 0.097105876 0.091678165 -0.11595011
000010 69 ba b2 bd ad 3d a4 3a e5 54 d4 3c 7a cd c2 3d
       -0.08726961 0.0012530588 0.025919387 0.09511848
000020 f9 a4 83 3d 18 86 06 3d a8 39 7f 3e 90 24 d4 bc
       0.064279504 0.032842726 0.24924338 -0.02589634
000030 c7 32 4c bc 55 05 d1 3c 95 23 57 3e 32 32 16 3e
       -0.012463278 0.025515238 0.21009667 0.14667585

bn.running_mean f4 [16]
000000 bd 33 a0 bb 2c 9a 0b bb 2a c6 49 bb 63 7c 5d bb
       -0.00488898 -0.002130161 -0.003078828 -0.0033796064
000010 4a ff a4 bb 9b 11 90 bb b2 75 1c bb 90 d7 3b bb
       -0.0050353156 -0.00439663 -0.0023873863 -0.002866242
000020 c7 9c 69 bb e0 c5 14 b9 bd 8b 92 bb e7 bb 9c bb
       -0.0035646425 -0.00014188094 -0.0044722245 -0.004783142
000030 a4 3c fa 3a 9b 04 c6 3a cc f8 52 3a 1a e2 05 bb
       0.0019091559 0.0015107574 0.0008047938 -0.0020428956

bn.running_var f4 [16]
000000 16 af e2 40 1d 53 ca 40 31 18 00 41 76 66 c9 40
       7.083873 6.3226457 8.005906 6.2937574
000010 79 03 e2 40 b4 6d f0 40 93 12 9e 40 02 f1 ef 40
       7.062924 7.5133915 4.9397674 7.49817
000020 d7 c0 e1 40 9b 4a cb 40 2e 73 00 41 d1 a4 c8 40
       7.05479 6.352857 8.02812 6.270119
000030 bb 75 e2 40 28 eb f0 40 7b 1e 9e 40 81 33 ef 40
       7.0768714 7.5287056 4.9412208 7.475037

rnn.weight_ih_l0 f4 [48, 16]
000000 fe 47 de 3e 55 60 db bf 5f 27 bb 3d c4 00 45 3f
       0.434143 -1.7138773 0.09138369 0.76954293
000010 26 5f 1a be 45 b9 40 bf a7 14 5b be 2e d8 79 3f
       -0.15075359 -0.752827 -0.21394597 0.9759549
000020 1b f8 25 3f ce 7d b6 be f9 ee 8b 3f c9 1c 94 bf
       0.64831704 -0.35642856 1.0932304 -1.1571285
000030 f4 8e 02 3f 15 00 0e 3f ee 45 ba 3e b2 a8 bf be
       0.5099938 0.55468875 0.36381477 -0.37433392
000040 99 2f 84 3f 79 dd 23 3f e7 79 37 be 82 42 86 3f
       1.0327026 0.64009815 -0.17917596 1.0489047
000050 79 1b 14 3f 28 ad 73 3d c1 f4 14 be ea dd 3b 3e
       0.5785442 0.059491307 -0.14546491 0.18346372
000060 0b 4f ab 3f 96 34 06 bf 7d 19 85 3e 6d 93 27 3e
       1.3383497 -0.5242399 0.2599601 0.16364832
000070 f2 80 c1 3e 6e a7 86 be 6e 34 80 be aa 93 a6 3d
       0.3779369 -0.26299614 -0.2504 0.081336334
000080 f2 76 2b be 91 54 35 3d 78 c7 dc bc d3 bc d5 bd
       -0.16744593 0.044270102 -0.026950583 -0.10436406
000090 bb 45 1e bf 4b 01 d3 be 3c 31 73 bd 2b 9c c0 be
       -0.6182515 -0.41211924 -0.059373125 -0.37619147
0000a0 16 3a 4f bf 6d 91 a9 3e 45 c3 43 bf 2b 3b e7 be
       -0.8094801 0.33118764 -0.7646983 -0.4516233
0000b0 1f f1 9c 3e 4a f4 27 3e 37 14 b5 be 7e 9c 11 bf
       0.3065271 0.16401783 -0.35366985 -0.56879413
0000c0 9c d8 e1 3d 83 27 69 3f bd 4b 32 be a3 66 31 be
       0.11027643 0.91075915 -0.17411704 -0.17324309
0000d0 3c 47 c5 3f ef ad 2a bf 7c bc 85 be 12 32 95 3e
       1.5412364 -0.6667165 -0.26120365 0.29139763
0000e0 6a 21 82 3e ff d6 05 3e 28 45 07 3f 71 40 b4 be
       0.25416118 0.13070296 0.528399 -0.35205415
0000f0 54 66 6e bd 30 f8 6b 3d d7 c4 bf be 9e b8 fd bc
       -0.058203056 0.057609737 -0.37454864 -0.030971821
000100 a2 7d 72 bd 3c 60 ea 3d 9b bd 83 bd 08 4f aa be
       -0.059201844 0.114441365 -0.06432649 -0.3326342
000110 29 7c b0 3d 89 21 29 bd 27 28 57 be 44 46 ca be
       0.08617432 -0.041291747 -0.2101141 -0.39506733
000120 d8 2a 40 3f d6 a7 93 bf bf 88 4f 3e 9a 38 88 3e
       0.75065374 -1.1535594 0.20267008 0.26605684
000130 2c 71 a7 3e 75 51 09 bf 27 ce c7 bd dc 13 8e 3f
       0.3270353 -0.5363992 -0.09756117 1.1099811
000140 09 e9 ba bd d8 1b a5 3d 45 8f 22 3f de 78 60 bf
       -0.09126479 0.080619514 0.6349986 -0.8768443
000150 49 20 a4 3e 96 b6 c6 be 76 2f 06 3f af 14 ee be
       0.32055882 -0.38811177 0.5241617 -0.46500155
000160 a6 d6 a5 be 72 c1 4b 3f 5a b4 c1 be 86 a5 19 3f
       -0.32390326 0.7959205 -0.3783291 0.60018194
000170 45 b4 5d bf 27 01 01 3f 9b b5 16 bf 14 9c 50 3f
       -0.86603194 0.50392383 -0.5887086 0.81488156
000180 ab 15 1f bf 81 18 93 3f cd 55 20 bf 73 19 c0 3e
       -0.6214244 1.1491853 -0.6263092 0.37519416
000190 d9 eb 14 be 9f f4 6b 3e 77 60 01 be c4 81 3a 3e
       -0.14543094 0.23042534 -0.12634455 0.18213564
0001a0 29 64 b6 3d ba e8 17 3f c7 a9 57 bf 77 f2 82 3e
       0.08905823 0.5933949 -0.84243435 0.2557561
0001b0 d9 4a ef 3e 6e 90 07 bf f9 4c 94 3e 4f 15 59 be
       0.46736792 -0.5295476 0.28964975 -0.21199535
0001c0 61 98 72 3d de 1f a3 3c 31 73 b0 3e ad 5d 89 3e
       0.05922735 0.019912656 0.34462884 0.2682928
0001d0 e5 d5 81 bd a9 9f 18 3e 2f 23 ad 3e b6 b2 07 3e
       -0.06339625 0.14904656 0.33815905 0.13251767
0001e0 62 a3 ac 3e 8a 2c 40 3e 04 a7 fc bd dd c7 08 3f
       0.337184 0.1876699 -0.12336543 0.5342997
0001f0 a3 22 a1 be da a1 41 be 66 22 9a bd 87 dd 1c 3e
       -0.31471738 -0.18909398 -0.07526092 0.15318881
000200 e7 c8 30 3f 73 76 7e bf 50 b9 08 3f 87 b0 c1 bc
       0.6905655 -0.9939949 0.53407764 -0.023643745
000210 1e ba af be 9c 33 d5 bd 35 a3 0a 3f 9e 7a 33 bf
       -0.34321684 -0.10410234 0.54155284 -0.70108974
000220 f4 54 34 bf 12 2e 36 bf cb e8 b3 3d ff 8f 1b 3f
       -0.7044213 -0.7116405 0.08784636 0.60766596
000230 c7 80 5c bf af 3c dd 3e e6 8a a6 3e 18 51 95 3e
       -0.86134 0.4321036 0.32527846 0.29163432
000240 48 fc 8d 3d 7f ef 90 3d 75 b3 e2 3c 84 86 70 be
       0.069328845 0.0707693 0.027673462 -0.23488814
000250 ed 19 48 3d 2e d4 1a bc 6b a4 a0 3e 3c 68 25 3e
       0.04885285 -0.009450002 0.3137544 0.16153044
000260 e0 83 25 3f 8e 89 55 3e 9b 6f 88 bf 88 40 d0 3e
       0.6465435 0.20853254 -1.0659059 0.40674233
000270 83 29 17 be 4f c9 82 3c a7 07 b8 be 08 c7 0d be
       -0.14761929 0.015965132 -0.35943338 -0.13845456
000280 e9 2c 31 3f fb aa 86 bf 79 39 5c 3f 0f 23 11 3f
       0.6920915 -1.0520929 0.86025196 0.5669412
000290 4d 60 34 3f 7d 57 75 bf db 00 3b 3d 2f 87 c3 3f
       0.70459443 -0.9583662 0.045655113 1.527563
0002a0 c3 cb 90 be 70 b5 b3 3f 57 0a 54 bf 19 87 a5 3f
       -0.28280458 1.4039745 -0.8282828 1.2931854
0002b0 c9 3f 62 bf e6 78 42 bf 27 d1 0d bf be a2 d8 3e
       -0.8837858 -0.75965726 -0.55397266 0.42311662
0002c0 e4 8d 0d 3e bc e7 fb be ff 0a 0d be 0d 94 c2 3e
       0.13823658 -0.49200237 -0.13773726 0.3800358
0002d0 9d 1a 23 3f 2e 48 54 be 44 ec 8c bd 76 89 4a 3e
       0.63712484 -0.2073066 -0.068810016 0.19779
0002e0 58 33 f9 3c 1b 6d 18 bf 57 a5 d1 3e d3 61 a7 bf
       0.03041999 -0.5954148 0.40946457 -1.3076729
0002f0 eb 4e e2 3e f2 05 3f 3c 16 05 9b 3e db fa ab be
       0.44200835 0.011659132 0.30277318 -0.33589825
000300 52 5a 93 be 17 4d 2a 3f 85 0e 0f bf d8 4a 4b 3e
       -0.28779846 0.6652388 -0.5588153 0.1985277
000310 df 0b 12 3f ff 21 8e be 5a 06 53 3e 07 42 91 be
       0.57049364 -0.27760312 0.20607892 -0.28370687
000320 c4 34 ec 3d 2c 1c d7 3e 29 31 eb be 4b 78 1d 3f
       0.11533502 0.4201368 -0.45935944 0.6151168
000330 2c b5 86 3d 8a 23 d0 be 08 be 82 be e5 45 4e 3e
       0.065775245 -0.40652114 -0.25535607 0.2014385
000340 d7 78 20 be 01 d3 8e 3e e0 6c 1a 3f 95 7e 20 be
       -0.15671097 0.27895358 0.6032238 -0.15673287
000350 c6 b1 93 be 2d 18 be 3e 23 ad bc 3e 93 08 83 3e
       -0.28846568 0.3712782 0.36850843 0.2559248
000360 24 6a 2f bc 97 4b 3a 3f 65 dd 8d 3d 30 5f b3 3e
       -0.010706458 0.7277159 0.06926993 0.3503356
000370 cb ff ce 3a c9 01 86 3f d0 97 ef 3b 65 d3 dd be
       0.0015792785 1.0469295 0.0073117986 -0.43325344
000380 a5 67 85 bf 6e 79 8e bf 10 5d 04 3e bd f7 6a 3d
       -1.0422255 -1.1130807 0.12926126 0.057365168
000390 9b 90 bf bf a7 3b 65 be a1 23 66 3f f6 f7 4d 3e
       -1.4966005 -0.22386037 0.89898115 0.20114121
0003a0 84 41 2d bd 8d 02 1f 3f 1f 10 c2 be 39 ac d0 3e
       -0.04229881 0.6211327 -0.37902924 0.40756395
0003b0 2a 80 10 3e cf bb 7c 3e d9 18 0f 3f ee 88 5a 3e
       0.1411139 0.24681018 0.5589729 0.21341297
0003c0 72 02 17 bf 92 07 8c 3e 94 39 d6 bd b8 a2 8c bd
       -0.58988106 0.27349526 -0.10460201 -0.06866974
0003d0 38 c7 17 3f 0b ec e7 3e 1b 5f ea bd 99 f1 10 be
       0.5928836 0.45297274 -0.11443921 -0.14154662
0003e0 dc 6c 3f 3f 04 f6 0b 3f bb d2 cc 3e 93 19 d0 be
       0.7477548 0.54672265 0.40004525 -0.40644512
0003f0 51 4a 31 bf 6f 97 dd 3e b3 5b fb bd 9b d6 0b 3d
       -0.6925402 0.43279597 -0.122733496 0.03414021

rnn.weight_hh_l0 f4 [48, 16]
000000 df 77 26 3f 9e b2 80 3d dc c6 99 be ec ba ae 3f
       0.6502666 0.062840685 -0.3003453 1.3650794
000010 07 33 ff be 31 46 64 3e d6 e4 4d be 3d ce 91 3d
       -0.49843618 0.22292401 -0.20106825 0.07119415
000020 e2 88 17 bd 59 78 3b be 85 2a ac bd 6b a5 b7 3e
       -0.036995776 -0.18307628 -0.084065475 0.3586839
000030 b1 86 33 3e 69 00 9d 3d ec 59 11 bf ad 86 65 3e
       0.1753185 0.07666094 -0.56777835 0.22414656
000040 11 ba 6f be 62 e9 86 3f b0 89 c6 be fe 08 5c 3e
       -0.23410822 1.0539973 -0.38776922 0.21487805
000050 fd 82 b1 3d b9 1f 99 3e ba e3 0c 3e 15 25 e1 3c
       0.08667562 0.29907015 0.13758746 0.027483502
000060 0a 99 1c 3f c3 e6 b0 be 16 35 97 3e bf 91 fb bd
       0.6117102 -0.34551057 0.2953269 -0.12283658
000070 ac f7 98 3e 54 a6 81 bf c9 b4 ed be 65 94 64 3e
       0.2987646 -1.0128884 -0.4642699 0.22322233
000080 12 9c a9 3e 8f 5e 0e 3f 15 cf 6c bf 4e e0 b1 3d
       0.33126885 0.55613035 -0.9250348 0.08685361
000090 29 ce 5d be 23 db 86 3e 73 de 91 bd 8a d4 65 3e
       -0.21660675 0.26339063 -0.07122507 0.22444358
0000a0 83 a7 da 3c 2b b1 8f bd 70 93 ab 3e fc b4 7c bf
       0.026691204 -0.07016214 0.33510923 -0.9871366
0000b0 a2 08 92 bd f8 46 e3 be d1 d3 9a be 16 8b e5 3d
       -0.07130553 -0.44390082 -0.30239728 0.11208169
0000c0 a4 33 fa be 0f 2e cf 3d 04 2d 49 be b4 2a a9 be
       -0.48867524 0.10116207 -0.19646078 -0.33040392
0000d0 65 ce bd be 14 53 20 be 0a 8b 25 be d9 9d fe bd
       -0.3707153 -0.15656692 -0.1616632 -0.12432451
0000e0 94 1d 3d 3e e4 a9 08 3e 9b aa 88 be 31 a3 3c be
       0.18468314 0.13346058 -0.26692662 -0.18421628
0000f0 48 96 9e 3e b4 cc 2a be 4e 4d 68 be 91 96 03 bf
       0.3097403 -0.1667965 -0.2268574 -0.5140162
000100 cb 08 dc 3e 51 2c ba 3e a6 32 49 3f 63 e3 91 3e
       0.42975459 0.36361936 0.7859291 0.28493795
000110 8d 74 15 be 9c 33 89 3e 0a e0 bd 3e e6 33 8f 3e
       -0.14595242 0.26797187 0.3708499 0.27969283
000120 d4 1b 62 bf 3d 29 49 be 3d 01 aa be 92 c4 ca 3c
       -0.8832371 -0.19644637 -0.3320407 0.024751935
000130 7d 97 3f 3f 9f 80 ad bd 4d ce 99 ba fa e9 65 3e
       0.7484053 -0.08471798 -0.0011734456 0.22452536
000140 71 04 e7 3e a4 db 9e 3d a2 05 88 be a4 11 e4 bc
       0.45120576 0.07756737 -0.26566797 -0.027840443
000150 bf 06 7a be 9d f7 f2 3d e3 7a a4 be 96 bf 29 bf
       -0.24416636 0.11863635 -0.32125005 -0.6630796
000160 49 58 c0 3f 21 64 0f 3f 24 37 0c be 41 da be bf
       1.5026942 0.5601216 -0.1369291 -1.4910356
000170 cc 58 8a be e6 ac b1 be ac cc ae bd 12 6d 2c bf
       -0.27020872 -0.34702224 -0.08535132 -0.6735393
000180 3a 99 53 3e 5e c6 d1 3d bd 21 96 bd 8f 06 84 bd
       0.2066392 0.10242914 -0.07330654 -0.064465635
000190 08 f2 15 c0 04 19 07 bd 2c 57 5b bf 4f 71 f6 be
       -2.3428974 -0.03298284 -0.8567989 -0.48133323
0001a0 c9 35 01 bf e2 31 89 be 6d 19 ac bd 58 7b 9d be
       -0.50472695 -0.2679587 -0.08403287 -0.30758166
0001b0 2c ce 92 3e 9e d6 11 bf a6 e7 c4 3d 5f 8d ec bd
       0.28672922 -0.56968105 0.09614496 -0.11550402
0001c0 fb 05 80 be 11 21 f9 3e 7b 30 71 3e cd 9a 00 be
       -0.25004563 0.4865804 0.2355365 -0.12559052
0001d0 36 b4 2c bf df bf 09 3d c3 35 8f be 9f 8b 66 3d
       -0.6746248 0.03363025 -0.27970704 0.056285497
0001e0 38 f7 01 bf 4d b7 77 be 53 1f 29 be 55 ed 86 be
       -0.5076785 -0.24191017 -0.16515855 -0.26352945
0001f0 84 f5 35 be 79 d4 2b 3e 9a 73 2b 3e 18 c6 05 bd
       -0.17769438 0.1678027 0.16743317 -0.03265962
000200 c7 d3 12 3f 6f 5c 0d 3e d1 18 97 be 05 3d 64 be
       0.57354397 0.13804792 -0.2951112 -0.22288902
000210 57 ae 28 bf ed 9a 41 3f 6c c7 5c bf 47 0e 70 bf
       -0.6589102 0.75627023 -0.86241794 -0.93771785
000220 db 97 03 bc 0f 0c e4 be 7b ec 37 3f 6f 2c 81 bf
       -0.008031811 -0.4454045 0.71845216 -1.0091685
000230 ed c2 31 3e b3 32 6e bf a8 74 52 3f 51 3d 46 bd
       0.17359515 -0.9304611 0.82209253 -0.04839832
000240 06 ec 66 bf 92 65 39 be 99 6d 95 be 82 b6 aa be
       -0.90203893 -0.18105152 -0.2918518 -0.33342367
000250 3a f0 b9 be 98 f0 46 3f a6 0a a1 3e 46 d6 e5 be
       -0.3631609 0.77710867 0.31453437 -0.4489004
000260 ae 0b 69 be 0b c6 93 3e a5 84 b3 be 99 d5 9c be
       -0.22758362 0.28862032 -0.35062137 -0.30631712
000270 e8 0f ef 3e c1 bc cf 3e e2 38 16 bd 35 5b fe bd
       0.46691823 0.40573695 -0.03667534 -0.1241974
000280 3d cd 8b 3d c5 04 4c 3e be c8 fb be a1 b8 8d be
       0.068262555 0.19923694 -0.49176592 -0.27679923
000290 f4 98 70 3c 17 cd bd bd 48 c8 7f 3e fc 53 3a 3f
       0.014684904 -0.092676334 0.24978745 0.727844
0002a0 34 e7 4b bd 76 d1 f6 bc 66 21 68 3e 50 3f 88 3e
       -0.04978104 -0.030129176 0.2266899 0.26610804
0002b0 ae e7 01 3f 86 cc 8a 3d 13 3c a9 bc f3 da 83 3e
       0.5074414 0.06777291 -0.020658528 0.25752982
0002c0 4a 2e aa bd 4e 83 ab 3e 0d 88 54 bf fa 5e 03 be
       -0.0830961 0.33498615 -0.83020097 -0.128292
0002d0 43 1a 7a bf db c7 15 3e 55 30 a4 bc 59 78 7b 3e
       -0.9769632 0.1462702 -0.020042578 0.24557628
0002e0 69 c5 9f 3e 3c 49 cf 3c 12 0a b9 3e b9 fb 5d bf
       0.312053 0.025303476 0.36140496 -0.86712223
0002f0 24 3c 7b be dc 01 1d bf 41 d3 06 bf d1 ec 70 be
       -0.2453466 -0.6133096 -0.526661 -0.23527838
000300 0e 3a 3d be d0 23 86 be a0 17 40 3f 8f a8 8d be
       -0.18479177 -0.26199198 0.7503605 -0.27667663
000310 23 4e 7a be b9 b6 37 bf c9 2c 4e be b6 fa 78 bd
       -0.2444387 -0.7176319 -0.20134272 -0.06078597
000320 4a b1 8d 3e 45 83 c3 3d 76 47 8a be 65 31 55 3f
       0.27674323 0.09546522 -0.27007645 0.83278495
000330 bb b0 68 3e 6c 89 03 3f 92 d5 1d bf d6 42 23 be
       0.22723667 0.51381564 -0.6165401 -0.15943465
000340 b9 2e 3b 3f 0f 63 2f 3f 22 33 9d 3e c6 22 13 3f
       0.7311817 0.68510526 0.30703074 0.57474935
000350 3c b6 3b 3e ae c6 8a 3c 4d 24 46 be 59 0a 2f be
       0.18331236 0.016940441 -0.19349785 -0.17093791
000360 f7 ec bd 3e 0f ee ba be 6e 3b 8d bf 9e 19 30 3d
       0.37094852 -0.3650975 -1.1033762 0.04299318
000370 b9 38 1a 3e 38 12 b4 bf ba 32 14 bf 38 1d 9a 3f
       0.150607 -1.406806 -0.578899 1.2040167
000380 78 43 5a 3e f4 0a 39 bc 34 a9 1c 3c 48 dc 96 3d
       0.213148 -0.011294115 0.009561826 0.07366234
000390 9c ca 0f be fb 4b e2 3d d2 3f bc be 81 95 a5 be
       -0.14042133 0.110496484 -0.3676744 -0.32340625
0003a0 1f 3d de 3e 32 dd d0 be b4 6e 90 be c5 58 0c bf
       0.43406007 -0.4079376 -0.2820946 -0.5482295
0003b0 a5 99 31 be e6 0e 8d bf 00 f9 9c bf 07 08 cc 3e
       -0.17343767 -1.1020172 -1.2263489 0.39849874
0003c0 2c ca 0d bf 97 65 61 3d 1f c2 bb be e1 65 69 be
       -0.55386615 0.055028524 -0.3667154 -0.2279277
0003d0 80 b9 c9 bd 43 0a 0d be b4 5d 35 be 68 1f 94 3e
       -0.098498344 -0.13773446 -0.17711526 0.2893021
0003e0 77 77 1c 3f ed ed 04 be 09 66 cc 3e 21 9d db be
       0.6111979 -0.12981386 0.39921597 -0.42893317
0003f0 c9 1a 3a be 27 fc 58 be 1f 29 0f be b1 dc e3 be
       -0.1817428 -0.21189938 -0.1398053 -0.44504312

rnn.bias_ih_l0 f4 [48]
000000 33 d8 84 3c 00 9f 5c 3c 33 ac a9 bd 71 88 5b 3e
       0.016216373 0.013465643 -0.082847975 0.21438767
000010 91 6b 00 bd 09 ef 4a 3e 2f b6 29 be 9b c3 43 bd
       -0.031352583 0.19817747 -0.16573404 -0.047793966
000020 22 fc 97 bd f0 dc d1 bd ba e2 2c 3e 77 7b fb 3b
       -0.074211374 -0.102472186 0.16883364 0.0076746303
000030 38 64 17 be 1b d0 f9 be 7b 11 e5 bd 3d 5f c8 3c
       -0.14784324 -0.48791584 -0.11184975 0.024459476
000040 2b 7e 58 3f ec ca ae 3f c7 aa a3 3f 72 d5 a4 3f
       0.8456752 1.3655677 1.2786492 1.2877638
000050 6f a8 ad 3f 74 5c 75 3f d7 9d 00 3f ce ef 7d 3f
       1.3567027 0.958442 0.50240844 0.9919404
000060 95 20 ee 3e f0 65 69 3f 5c 92 7a 3f c7 e0 5b 3f
       0.46509233 0.9117117 0.97879577 0.8588986
000070 11 53 80 3f 5b 4f 85 3f c0 cb 67 3f 29 95 60 3f
       1.002535 1.0414842 0.9054527 0.877276
000080 06 13 ff 3d d8 e8 bb bb 7b 49 03 be bc 4d 55 3e
       0.124548 -0.0057345442 -0.12821 0.20830435
000090 93 bd aa bd a6 25 82 bd 01 e9 8e 3d 6b ed 0c be
       -0.0833694 -0.06354837 0.06978036 -0.13762443
0000a0 dc 53 90 be de 29 9e 3e 1a f2 73 3d d7 ef a9 3d
       -0.2818898 0.30891317 0.059557058 0.08297699
0000b0 67 f8 09 ba 4d 0b e5 bd bc 03 57 3e 18 f1 2e be
       -0.000526315 -0.11183796 0.20997518 -0.17084157

rnn.bias_hh_l0 f4 [48]
000000 85 84 68 be c1 36 28 3d 23 af ed bd cc b5 a3 3e
       -0.22706802 0.041067842 -0.1160567 0.31974638
000010 11 d1 5b 3b e1 cd 8c 3e a1 fc 0d 3e 94 9a 50 bd
       0.0033541361 0.27500823 0.13865902 -0.050928667
000020 db c9 60 3d a8 ab 7c be 35 f9 34 be 56 2b 68 3e
       0.054880004 -0.24674857 -0.1767319 0.22672781
000030 78 a4 1a 3e 2f 04 9f be 66 e4 61 be 0e 63 b6 bd
       0.15101802 -0.3105788 -0.22059783 -0.08905612
000040 98 de 66 3f f1 8d 89 3f 4b 89 62 3f f2 96 90 3f
       0.901834 1.0746442 0.8849074 1.1296065
000050 ba 7a b5 3f f1 76 a3 3f 6a 06 4f 3f 5e 19 b2 3f
       1.4178078 1.2770673 0.8086916 1.3913991
000060 6b 05 12 3f 36 27 5c 3f d7 e6 62 3f a9 a9 61 3f
       0.5703952 0.8599733 0.88633484 0.88149506
000070 da 4e 93 3f d8 cf 32 3f 09 80 98 3f 86 da 0f 3f
       1.1508439 0.69848394 1.1914073 0.56192815
000080 ad ce d3 3d f1 f5 f8 3d 07 b3 1c be 0f 4f 97 be
       0.10342155 0.121562846 -0.15302669 -0.29552504
000090 d5 ef 35 bd 06 92 da bd 5f 0f 47 3c be 97 14 be
       -0.044418175 -0.10672383 0.012149661 -0.1451101
0000a0 21 db 97 bc 51 09 e4 bc 1e 46 a0 3c c8 a6 36 bd
       -0.018537106 -0.027836474 0.019564684 -0.04459265
0000b0 94 25 6e 3c 65 d3 63 3e 71 c6 12 be b1 91 a9 be
       0.0145353265 0.2224861 -0.14333512 -0.33118966

fc.weight f4 [128, 16]
000000 c2 4b 54 be af b3 92 3e 5b 95 fb bd 09 56 54 bd
       -0.20732024 0.28652713 -0.12284347 -0.051839862
000010 7f 9c d7 be 82 a0 a4 bd 87 8a 0e be 9f c4 45 3d
       -0.42111585 -0.08038427 -0.13920031 0.048283216
000020 00 15 8b be 4f 98 34 be 58 cd 88 bd 3c a3 86 3d
       -0.2716446 -0.17636226 -0.06679791 0.06574103
000030 8c 62 00 be 56 41 2c bf 1e 59 19 bf 18 aa 6d bd
       -0.12537593 -0.67287195 -0.5990161 -0.058023542
000040 65 c3 fb be 50 2f 4c be 99 22 99 bd cc fe 2d be
       -0.49172512 -0.19939923 -0.07477302 -0.16991729
000050 aa 03 e5 be 57 3e 80 3e 05 d5 94 be 3b a5 62 3d
       -0.44729358 0.25047562 -0.2906877 0.055333357
000060 09 6a 9b bd b6 a8 87 3d bd 78 98 be b9 13 92 be
       -0.07588584 0.06623976 -0.29779616 -0.28530672
000070 1e da ac be 37 b0 f0 be 8d 2f a1 bd 83 73 91 be
       -0.3376016 -0.4700944 -0.07870398 -0.2840844
000080 9e 91 13 3f 42 79 c2 bd 70 98 b1 bd 66 07 ef 3e
       0.5764407 -0.09495784 -0.08671653 0.46685332
000090 0f 05 4a 3e d4 30 94 3e 74 58 c4 be ed cb dd bd
       0.19728492 0.28943503 -0.38348734 -0.108299114
0000a0 29 cf 89 3d 70 c3 b8 be 77 50 b5 be 2a 94 3b bc
       0.06728966 -0.36086607 -0.35412952 -0.011448899
0000b0 57 0d be be 16 17 9e be ff b9 8e be c2 4b 90 3d
       -0.37119552 -0.30876988 -0.2787628 0.070457
0000c0 49 b3 d5 be 63 be 5f be 5d 94 8d 3e 4a 27 f7 bb
       -0.41738346 -0.2184997 0.27652255 -0.0075425254
0000d0 14 fb 99 be 98 3c c1 be e2 93 2e be a8 78 54 3e
       -0.3007437 -0.37741542 -0.170486 0.20749152
0000e0 6d 0d 7c 3e e0 e8 11 3e 83 e8 2a 3e 7c 7a d0 bd
       0.24614497 0.14248991 0.16690259 -0.10179612
0000f0 d2 2f 4f 3e b0 18 19 3d 54 c8 3a 3e d6 39 1f bf
       0.20233086 0.03737706 0.18240482 -0.62197626
000100 44 da 4d be 6d a8 bd 3d a9 01 28 3e 66 37 52 3e
       -0.20102793 0.0926064 0.16406883 0.20528945
000110 c8 fa 82 3e a2 92 6f 3e e5 19 a6 3e 48 b2 a8 3e
       0.25581956 0.2339578 0.3244163 0.32948518
000120 d2 b3 d8 be d7 a6 65 3e 38 75 b7 3e cc c6 35 3e
       -0.42324692 0.22426926 0.35831618 0.17751616
000130 da 43 1d 3f c6 0d ac 3e 2b d5 b2 3e 99 ca b9 3e
       0.6143166 0.33604258 0.3492826 0.36287382
000140 55 95 b9 bc 7c fd d3 3d a0 d2 17 3d d9 52 bd 3e
       -0.022654215 0.10351083 0.037066102 0.3697727
000150 f6 96 81 3d 4a 62 1a be b4 08 08 be c8 c1 54 3d
       0.06327622 -0.15076557 -0.1328457 0.051942617
000160 b3 f3 f3 3d 80 4a d4 3c ff a7 8c be 72 38 f0 bd
       0.11911716 0.02591443 -0.2747192 -0.11729516
000170 f9 61 45 3e d1 86 87 3e 8a f3 25 bc 66 f5 f7 3e
       0.19275655 0.26470044 -0.010128865 0.48429412
000180 82 f5 1e bd df 32 08 be f2 bb 02 3e 72 eb e3 be
       -0.038808353 -0.13300656 0.12767008 -0.44515568
000190 5e b1 c3 bd 40 66 f9 3e 17 f1 8e 3e b0 a8 d2 bd
       -0.095553145 0.48710823 0.27918312 -0.10286081
0001a0 8e 5c f4 be 24 f0 87 bd 90 c6 9d 3d bb 2e 27 be
       -0.47726864 -0.066376 0.077038884 -0.1632642
0001b0 2e c4 eb 3d ae b4 95 3e 20 25 85 3e 7f f2 91 3c
       0.11512028 0.2923941 0.26004887 0.017815826
0001c0 8f b5 7e 3e 73 56 74 be ba 8a c8 3e 29 e6 1a bf
       0.24873947 -0.23861103 0.3916834 -0.60507447
0001d0 2f d2 9c be e1 3b d3 be 98 6c 98 be eb 48 14 bf
       -0.30629107 -0.4125662 -0.2977035 -0.57923764
0001e0 b5 a1 23 3d 8b b8 0c 3e 3e 5e 1e 3e c6 24 be be
       0.039949138 0.13742273 0.15465638 -0.3713743
0001f0 aa 3e 9b bd ef 5a 01 be 7c 8f 03 3f 50 cb 11 be
       -0.075803116 -0.12632345 0.51390815 -0.14237714
000200 c0 4a ae bc 3a 83 0d bd 78 16 93 3c b9 96 83 3e
       -0.021275878 -0.034548976 0.01795505 0.2570093
000210 fb 15 e9 bd d4 5f b3 3c 55 76 45 be 76 45 ae bd
       -0.113811456 0.02189628 -0.19283421 -0.08509342
000220 80 00 7b be ab f7 ea 3c fd b9 9d 3e d4 60 8d bd
       -0.2451191 0.02868255 0.3080596 -0.06903234
000230 46 69 a3 be f9 e5 b2 bd 47 a9 49 3d 71 6f 25 3e
       -0.31916255 -0.0873527 0.0492337 0.16155793
000240 85 10 c5 3d 75 6d ce be 92 96 42 be b0 68 a9 3d
       0.096222915 -0.40317884 -0.1900275 0.08271921
000250 07 0b f5 3c 07 8a 76 3c 2a 58 29 be 33 da 5c 3c
       0.029912485 0.015047557 -0.16537538 0.013479757
000260 82 50 82 3e 4f 91 a0 bd a0 67 61 be 19 38 e8 be
       0.25452048 -0.078402154 -0.22012186 -0.453553
000270 b8 bd 4d 3d d0 00 13 bf 48 dc b2 bc d2 7f d2 3d
       0.050229758 -0.57423115 -0.021833554 0.10278286
000280 bd 61 b7 3e a9 47 ff bd 8c 71 1e be ed 9e 65 3e
       0.35816756 -0.1246484 -0.15473002 0.22423907
000290 a6 90 5a 3e c2 5f 26 3e 51 3d fe 3d ab e2 82 3e
       0.21344241 0.16247466 0.12414039 0.2556356
0002a0 4f 6d f9 3d fc f3 3d 3e c9 21 4a 3d 7d 16 76 3e
       0.12179052 0.18550104 0.049348626 0.24032016
0002b0 51 ea 2a bc 12 79 a9 3e 30 f6 f9 3d ec eb 96 bc
       -0.010431842 0.33100182 0.1220516 -0.018423043
0002c0 be d5 13 ba 52 a4 dd bd 28 fc 89 be e5 57 44 be
       -0.0005639455 -0.10822357 -0.26950192 -0.19174154
0002d0 8f 71 c8 bc 8e 3e f3 3d 73 f6 1a be 3d 23 19 be
       -0.024468211 0.11877166 -0.15133075 -0.14954849
0002e0 e9 8b 86 bc 0f 51 ca bd de 00 5d 3e 77 13 06 3e
       -0.016424136 -0.09878742 0.21582362 0.13093363
0002f0 79 b9 68 3e c2 86 9c 3d 08 d1 ae bd 8d a8 2c bd
       0.22727002 0.076428905 -0.08535963 -0.04215293
000300 9f ca 8a be e0 06 b0 3e 69 fd f7 3d 92 6c 31 be
       -0.27107713 0.34380245 0.12108881 -0.17326573
000310 b6 08 bb 3e 6c c6 fa 3c 9e c0 2b 3e 82 12 e4 bd
       0.36530083 0.030612193 0.16772696 -0.111363426
000320 d8 98 c4 3b 95 34 f8 3d 3f ec 16 bd 98 e0 72 3e
       0.0059996657 0.12119404 -0.036846396 0.23718488
000330 c5 d8 d8 3d e8 46 63 3e 16 6e cb bc ec 1e de be
       0.105882205 0.22195017 -0.024832767 -0.43382967
000340 bf 1d df 3b 64 31 e8 bd 09 0f ee 3c 81 c5 21 3e
       0.006808966 -0.113375455 0.029059904 0.15797998
000350 fe 21 92 3e 9f 63 ee bd 3c a1 1f 3e b3 62 2f 3b
       0.2854156 -0.11640095 0.1558885 0.002676171
000360 df a8 98 3e 97 7a 37 3e ac be 5f be 9b 89 cc 3d
       0.29816338 0.17917858 -0.2185008 0.09987184
000370 dc f0 fa 3d 6c c6 c7 3c 5f b7 9e 3d e9 d5 0a 3e
       0.122529715 0.024386607 0.07749819 0.13558163
000380 5d e3 b0 be da 02 a2 bd 1f 6d a8 3d 1b 46 a0 be
       -0.34548464 -0.079107 0.08223938 -0.31303486
000390 55 e4 a0 3d e0 12 0a 3e 62 ac b9 3c d7 69 22 3e
       0.07856051 0.13483763 0.022665206 0.15860687
0003a0 94 17 59 3d ac 3b 49 bd 96 a1 80 3e 99 4a c5 3d
       0.053001 -0.049129173 0.2512328 0.09633369
0003b0 02 73 9b 3d d2 8e 16 3e cb 1a c7 bd 6d 6d a5 be
       0.075902954 0.14702919 -0.09721907 -0.32310048
0003c0 cb 8c 2a be ea 80 c2 be 18 cc 0b 3e fb d9 0a be
       -0.16655271 -0.3798898 0.13652074 -0.13559715
0003d0 05 61 55 be d1 79 0e be 2e 1f 2d 3e 67 eb 0f 3d
       -0.20837791 -0.13913657 0.16906425 0.035136607
0003e0 84 c1 90 3d 00 69 a7 3c 59 59 80 bc a1 3b fd bd
       0.0706816 0.02043581 -0.015667604 -0.12364889
0003f0 dc ab fc bd 04 48 a7 3d b7 ca c5 3d 32 ac 30 be
       -0.12337467 0.08168033 0.096578054 -0.17253187

fc.bias f4 [128]
000000 70 1c e2 be ab 24 90 bd 57 00 4d be 55 5e 73 3d
       -0.4416232 -0.07038244 -0.20019661 0.059416134
000010 f4 64 af 3e 43 07 e3 3d 29 b1 02 3e 1c a5 4a 3e
       0.3425671 0.110853694 0.12762894 0.19789547
000020 a8 97 b3 bc 0d 2c a8 bd a1 10 75 3d ac e0 3c 3c
       -0.021922901 -0.08211527 0.05983031 0.011528175
000030 32 27 0f 3d 51 be 83 bd e0 82 28 be 9c a6 c0 3e
       0.03494949 -0.06432784 -0.16456175 0.37627113
000040 cf a5 00 3d 23 1b 5b bd d9 34 2c 3d 93 4b 97 3d
       0.031408127 -0.053492676 0.042042587 0.073874615
000050 0b 7e 14 3e 51 d8 a6 be 07 c3 08 be 0c 50 ab 3e
       0.14501207 -0.3258691 -0.13355647 0.33459508
000060 a5 a0 a8 3c da fc f9 bd b4 1f 6e be f4 18 a3 3d
       0.020584414 -0.12206431 -0.23254281 0.07963744
000070 59 cc 36 3e 58 09 90 3e 11 37 cf bc 4a b9 60 3e
       0.1785139 0.2813213 -0.025294812 0.21945682
000080 79 56 94 3e 95 80 cc 3d 56 c1 28 be e8 05 ce 3d
       0.28972223 0.099854626 -0.16480002 0.1005972
000090 a6 6f ce 3c 80 33 68 be 5f 15 24 3e 39 d7 ca 3d
       0.025199722 -0.22675896 0.16023777 0.09904332
0000a0 ea 44 76 3e 2a fb 4f 3e 70 7b a2 be a0 12 82 3e
       0.24049726 0.20310655 -0.317348 0.25404835
0000b0 40 eb 36 3e 54 ea 07 bf e8 f5 d4 be 33 25 0e 3e
       0.17863178 -0.5309193 -0.41593862 0.13881378
0000c0 54 34 84 3e c4 82 d0 3d a8 2e 90 bc ef 53 9e bb
       0.25821173 0.101811916 -0.017600372 -0.004831783
0000d0 c3 02 59 be 91 4b 49 3d c5 45 98 3e 43 4b 29 be
       -0.2119246 0.04914433 0.2974073 -0.16532616
0000e0 fc 8b 36 3e 56 b7 18 3c f5 27 4f be 5a e7 b4 bc
       0.17826837 0.009321054 -0.20230086 -0.022082973
0000f0 2e 62 19 bd 8c c9 96 be b0 b3 1c 3e 16 5a e6 bd
       -0.037447147 -0.29450643 0.1530292 -0.11247651
000100 35 b5 24 bc 3b 72 53 3e cc 2d 84 3e 32 11 7b be
       -0.010052969 0.20649044 0.2581619 -0.24518278
000110 37 79 89 3e 37 02 f1 3d e2 d7 86 3e 3e 9b 9f 3b
       0.26850292 0.117680006 0.2633658 0.004870801
000120 67 51 26 3d 0c 7a 4a bc 21 e7 54 3e fa ee bb be
       0.040604975 -0.0123582 0.20791294 -0.36705762
000130 3f d7 a0 bd f9 8e 0c bd 67 f5 35 be ef bc 3e 3d
       -0.07853555 -0.034316037 -0.17769395 0.0465669
000140 02 eb 25 3f d8 2a 2d be fa f0 60 3e 5c 47 53 bd
       0.6481172 -0.16910875 0.21966925 -0.051581725
000150 f6 62 81 be 8a 02 b8 bc 6e 80 8e be 8c d2 5f 3e
       -0.25270814 -0.022462148 -0.2783236 0.21857661
000160 06 3c 82 bc e3 5b 11 be 0e 3b b5 bc e1 4d b3 be
       -0.015897762 -0.14195208 -0.022122886 -0.35020354
000170 b2 5b 0a 3e 52 0f 2e 3e fe 0a 91 bb aa 5c b1 3d
       0.13511541 0.16998032 -0.004426359 0.086602524
000180 a0 dc 7e be d8 61 08 bd f5 5b c8 bd 76 42 24 bd
       -0.2488885 -0.033296436 -0.097831644 -0.040102445
000190 7b 60 82 3e 1a 5e 4e 3d 2d 83 b4 3e 98 43 53 bd
       0.25464234 0.05038271 0.3525633 -0.051578134
0001a0 48 db ca 3e 3c 9e 7b 3d 3c d2 e1 3e 47 1b 60 3e
       0.39620423 0.0614302 0.4410571 0.21885405
0001b0 03 01 f7 bb e7 4f 61 3c a4 9f 38 3e c3 ff cd 3d
       -0.0075379624 0.01375196 0.18029648 0.10058548
0001c0 84 87 b6 3d ad 7a aa bd dc 80 b8 3e 84 c8 76 3e
       0.08912566 -0.0832418 0.36035812 0.24099928
0001d0 0d 8d 37 3e e6 cd c9 bd fd dc 21 3e ea 2e 35 be
       0.179249 -0.09853725 0.15806957 -0.17693678
0001e0 7a 33 a6 be 69 6c 18 3e 46 1c 0b 3e ea 88 fb 3c
       -0.32461149 0.14885105 0.13585004 0.030704934
0001f0 8b fb b9 3d c7 9a 3a bd 31 c7 bf 3e 55 27 34 be
       0.09081181 -0.045557763 0.37456658 -0.17593129

mlp.0.weight f4 [16, 360]
000000 6e 48 af be 0e e6 bb be b0 18 b9 be 63 82 9e be
       -0.34234947 -0.36698955 -0.36151648 -0.30958852
000010 68 de b8 be 62 76 b5 be 52 b3 97 be 54 25 a9 be
       -0.36107183 -0.3544188 -0.29628998 -0.33036292
000020 09 fc 95 be 50 eb 88 be a9 8c b0 be 1b 14 93 be
       -0.2929385 -0.2674203 -0.34482315 -0.28726277
000030 92 14 9c be 21 5f 86 be b1 e5 9f be 19 4a 69 be
       -0.30484444 -0.26244453 -0.31229928 -0.22782172
000040 b3 61 94 be 99 d4 84 be 3d 10 9e be c7 2a 63 be
       -0.2898079 -0.2594345 -0.30871764 -0.22184287
000050 2f b1 89 be aa bd 80 be 5b f7 66 be 67 c4 5c be
       -0.26892993 -0.25144702 -0.22555296 -0.21559297
000060 c2 77 89 be 00 13 5c be 9a 12 87 be 46 d3 40 be
       -0.2684918 -0.21491623 -0.2638138 -0.18830594
000070 4f 53 5d be 3f 21 73 be 54 39 32 be 89 dd 46 be
       -0.21613811 -0.23743151 -0.17404681 -0.19420446
000080 d8 f3 3c be 3a 9c 5d be bd 0e 39 be d3 d3 1d be
       -0.18452394 -0.21641627 -0.18072028 -0.15412836
000090 2f 5a 4a be c5 7c 2b be 62 fb 2a be ad 6d f5 bd
       -0.19760965 -0.16746815 -0.16697457 -0.119838096
0000a0 d9 59 c3 bd f0 fb 1c be a2 d7 fb bd 09 aa 17 be
       -0.095386215 -0.15330482 -0.12296988 -0.14810957
0000b0 ce d1 e7 bd b0 ba 63 bd fd bf a0 bd 11 6b aa bd
       -0.11319314 -0.05559796 -0.07849119 -0.083212025
0000c0 46 14 5e bd e8 55 1c bd 27 35 93 bd 7f 91 4a bd
       -0.054218553 -0.038167864 -0.071878724 -0.049455162
0000d0 89 ea 0e bd 7e a0 cd bd b2 99 e4 bd 37 39 bf bc
       -0.03489164 -0.10040377 -0.111621276 -0.023342712
0000e0 91 c8 75 bd d5 73 c2 bd d9 65 86 bd a6 51 b3 bd
       -0.06000573 -0.094947495 -0.06562395 -0.087558076
0000f0 63 dc 90 bd 12 cc 9e bd 41 5d 2c bd 8c 2c a9 bd
       -0.070732854 -0.07753767 -0.04208112 -0.0826045
000100 36 ca 25 3c 25 c5 42 bc 79 7b ba bc 69 5e 02 3c
       0.010119012 -0.011887823 -0.022763954 0.007957079
000110 ff fb 9e 3c 60 29 64 bd 8d 7d ea ba a5 d3 10 3d
       0.01940727 -0.05570352 -0.00178902 0.03535809
000120 84 46 d4 3c 91 16 25 3c 72 7d 23 3d 70 3b 29 3c
       0.02591253 0.010076181 0.039914556 0.010329112
000130 b0 a5 8b 3d 9d 05 9b 3d f5 fe d5 3c 90 64 b3 3c
       0.06818712 0.0756943 0.02612255 0.021898538
000140 47 12 c4 3d 61 fe 1c 3d a1 d0 95 3d f0 6d 70 3c
       0.095737986 0.038328532 0.073151834 0.014674649
000150 4f 02 22 3d 68 48 f8 3d 91 f2 3f 3d 4b e5 05 3e
       0.039552983 0.121231854 0.04686219 0.1307575
000160 7e 45 79 3d 64 e4 4c 3d 72 4a a4 3d 66 f0 e5 3d
       0.06085729 0.050022498 0.08022012 0.11227493
000170 93 97 06 3e f8 25 14 3e 87 e5 f7 3d 4e 3c 72 3d
       0.13143758 0.14467609 0.12104326 0.059139542
000180 a7 fb 9b 3d 6d 77 1a 3e 56 4a 70 3d e7 11 57 3d
       0.07616358 0.1508462 0.058664642 0.052507307
000190 37 96 4b 3d 9e da c8 3d c6 4a a0 3d e2 28 c6 3d
       0.049703803 0.09807323 0.07826762 0.096757665
0001a0 d1 8a 3f 3d be b5 60 3d e7 23 c9 3d da c0 de 3d
       0.046763245 0.054860823 0.09821301 0.10876627
0001b0 2b 4b ee 3b 48 d1 ef 3b c1 3c 95 3b 36 9c 08 3d
       0.0072721443 0.0073186494 0.0045543616 0.0333521
0001c0 f6 35 a0 3b 1c f3 8a 3c 61 ec 00 3d cb e9 65 3d
       0.004889245 0.016961627 0.03147543 0.056131165
0001d0 d3 6f 97 bc 0e 57 4a bc 9f 48 0e bb 0b e9 57 bd
       -0.01848594 -0.012349857 -0.0021710766 -0.05271248
0001e0 bd c3 56 bc 7b 07 33 bc be 3c 0f bd f0 8b 0c bd
       -0.013108191 -0.010927076 -0.034970038 -0.034313142
0001f0 23 62 0c 3d 22 bf 70 bd b4 08 50 3c 6e 28 4c bd
       0.034273278 -0.05877603 0.0126973875 -0.049843244
000200 27 34 13 bd ce 85 1b 3c a8 0c 9d 3c 42 42 09 bd
       -0.03593841 0.009492351 0.019171074 -0.033510454
000210 0f c0 6d bc 45 e4 78 bd cb 77 32 3c 1c bd 77 bd
       -0.014511122 -0.06076457 0.010892819 -0.060483083
000220 5e 9a d3 3c 0f cc 1b 3c 87 b3 c0 3c 56 a9 2d 3d
       0.025830444 0.009509101 0.023523105 0.04239782
000230 a2 df 3e bd ec 78 17 3c 8a 9b ac 3c 76 05 1a bd
       -0.04659999 0.009245139 0.02107026 -0.037602864
000240 63 1e 9b 3b f2 86 25 3d b1 dd e6 3c 5b 3d 41 3d
       0.004733847 0.040411897 0.028181883 0.047177654
000250 46 6e 93 bb 16 53 85 3d 20 92 99 bb c0 88 7d bc
       -0.0044992296 0.06509988 -0.004686609 -0.015474498
000260 a9 4b 33 3d 48 df a4 3d 74 0d 15 3c 96 66 d6 3c
       0.043773327 0.080504 0.009097446 0.026171964
000270 77 22 ce 3b 4e d3 27 3c 02 16 b9 bb 89 09 82 3d
       0.0062907296 0.01024325 -0.0056483755 0.06349475
000280 84 f9 3b 3d 6e 42 13 3d 8e ae ac 3c 5e de 7f 3d
       0.045892254 0.035952024 0.021079328 0.062467925
000290 6f 31 95 3c b1 72 c3 3c 6a 17 dc 3d e1 59 d7 3d
       0.018212048 0.0238584 0.107466534 0.1051519
0002a0 d2 db 1d 3d a6 b5 c0 3d 5d 13 d7 3d 54 a8 a4 3d
       0.038539715 0.09409647 0.1050174 0.080399185
0002b0 9b c8 9b 3d ac a7 cc 3d 95 e3 e9 3d b9 59 fd 3c
       0.07606622 0.09992918 0.11420361 0.030926572
0002c0 2c fd 13 3d b7 c3 51 3d 16 2e a0 3d a0 ed da 3c
       0.036130115 0.05121204 0.0782129 0.026724637
0002d0 96 5a 5b 3d 45 66 80 3d 6b 7e ce 3d 55 d3 68 3d
       0.053553186 0.06269506 0.10082706 0.056842167
0002e0 54 e2 48 3d 18 34 1f 3d 7b 81 bc 3d a1 ae 8e 3d
       0.04904397 0.03886804 0.09204384 0.069669016
0002f0 16 22 b2 3d b4 a6 ec 38 c4 f1 93 3c 27 2d 19 3d
       0.086979076 0.00011284408 0.018059619 0.037396576
000300 a1 7c 2b 3c f1 20 63 bc b8 2a 77 3d f9 95 c2 3c
       0.010466726 -0.013862834 0.060343474 0.023753153
000310 87 36 d2 bc ff 7e ce bc be 2d f5 bc 43 ca 4d bd
       -0.025660766 -0.02520704 -0.029929038 -0.05024172
000320 d7 dc 5d bd 95 58 c3 bb 0e 29 a4 bd af 7b 2b bd
       -0.054165687 -0.0059614875 -0.08015643 -0.041866
000330 fe fd ae bd e1 18 c7 bc a7 3f 6b bd 1f 92 3e bd
       -0.08544539 -0.024303855 -0.05743375 -0.04652607
000340 0c 1e 9b bd 6f 61 da bd 50 2a 9a bd 49 9b b5 bd
       -0.0757409 -0.10663115 -0.07527602 -0.08867509
000350 50 e5 c4 bd fe 4a a6 bc 9f e7 00 bd 02 28 62 3b
       -0.096140504 -0.020299431 -0.03147089 0.003450871
000360 39 81 df bb 10 9e 59 3c 9e 68 90 3d 9e 67 06 3c
       -0.0068208245 0.013282314 0.07051204 0.008203415
000370 8a 7b 99 3d 24 2a 88 3d ff 0b 14 3e 82 40 12 3e
       0.07494266 0.06648663 0.14457701 0.1428242
000380 a6 fa f0 3d ca f8 18 3e b7 37 4e 3e f5 90 42 3e
       0.117665574 0.14938655 0.20138441 0.19000609
000390 7e fb 68 3e 25 b5 25 3e 42 e6 60 3e cd ff 16 3e
       0.22752187 0.16182382 0.21962836 0.14746018
0003a0 9b 26 2b 3e 82 1d 64 3e 00 bd 52 3e 6a 16 80 3e
       0.16713946 0.22276881 0.2057991 0.250171
0003b0 b0 83 60 3e df 0b 36 3e df 27 77 3e f5 8e 34 3e
       0.21925235 0.17777966 0.24136303 0.17632659
0003c0 15 b1 1b 3e ef e8 51 3e 28 81 23 3e 39 71 42 3e
       0.1520427 0.20499013 0.15967238 0.18988504
0003d0 29 b7 4f 3e 51 dd 17 3e b7 c5 4a 3e 23 76 da 3d
       0.20284714 0.1483052 0.19801985 0.10667064
0003e0 0f b7 ec 3d 51 96 1a 3e 0a 72 3c 3e 99 12 01 3e
       0.11558353 0.15096404 0.18402877 0.1260475
0003f0 4c fc 19 3e e8 a1 01 3e 57 93 d9 3d 5b e4 97 3d
       0.1503765 0.12659419 0.10623806 0.07416602

mlp.0.bias f4 [16]
000000 e5 dc 4e bd 9d 03 a4 bc 59 be ca bc 95 de 72 bd
       -0.05050363 -0.020021254 -0.024748968 -0.059294302
000010 3c 66 29 bd 0f de 35 3d 4c fb ae bd 79 b0 12 3e
       -0.041357264 0.044401225 -0.08544025 0.14325131
000020 0c 8b f8 3c dc 7e 50 bc ba c3 aa 3d c0 70 9c bd
       0.03033974 -0.012725558 0.08338113 -0.07638693
000030 ff 81 5c bd 74 ca 95 3d 0e 57 b6 bd 8d f5 21 bd
       -0.05383491 0.073140055 -0.08903323 -0.039540816

mlp.2.weight f4 [16, 16]
000000 6d c5 83 be 6e 66 ae 3c cf 00 ab 3d 89 98 d3 3d
       -0.2573656 0.021289077 0.083497636 0.10331828
000010 ec 28 21 be 6f 82 2e 3d 24 8c 2a be d6 bb ff 3c
       -0.15738267 0.04260486 -0.16655022 0.031217497
000020 51 3d b1 be 87 df ba bd 58 e2 09 bd e8 da 9b 3d
       -0.34617093 -0.09124666 -0.033663124 0.076101124
000030 85 61 64 be ad b2 8d be e1 71 86 bd a7 56 15 be
       -0.22302826 -0.2767538 -0.065646894 -0.14583836
000040 35 c8 a9 bd 68 2b 4f bc f4 82 b4 3c 15 20 b0 bc
       -0.082901396 -0.012644626 0.0220351 -0.021499673
000050 2f 89 ac bd d5 04 5c 3e cd 58 07 3c 6c fd 80 bd
       -0.08424603 0.21486218 0.008260918 -0.062983364
000060 83 5a 9c 3e 06 db a2 bb ad 0f 50 3e 5b 54 24 be
       0.30537805 -0.0049699573 0.2031848 -0.16047804
000070 a2 90 6e 3c cd 58 76 bd b9 45 3b 3e a3 11 dc 3c
       0.01456085 -0.06014328 0.18288316 0.026863879
000080 70 1d e4 bb a4 a2 10 3b 4f 1b a5 3c 9f 3f 1d 3c
       -0.006961517 0.0022069598 0.020154623 0.009597688
000090 dd 9d 83 be 3a 02 a2 bd 18 7a 9d bc 4f 00 a5 be
       -0.25706378 -0.07910581 -0.019223258 -0.32226798
0000a0 b6 ee 9a 3e a2 ee 35 bc 00 a5 04 3e 94 58 fb bd
       0.30260247 -0.011104258 0.12953568 -0.12272754
0000b0 34 26 c2 3c 84 a0 77 3e 47 0c bd bd 07 20 a0 3d
       0.023699857 0.24182326 -0.09230857 0.07818609
0000c0 9a 58 02 be b8 ca 7a 3e 3a cb 1b be 3f c6 18 3e
       -0.12729111 0.24491394 -0.15214244 0.14919375
0000d0 36 92 8b bc 90 11 6e 3d ea 10 9d 3c f2 e9 4e be
       -0.017037492 0.058122218 0.019173104 -0.2020643
0000e0 a6 d7 0e be 0e 59 77 3e 0d ea b2 3e bc e6 9b bb
       -0.13949451 0.24155065 0.34944192 -0.0047577303
0000f0 e1 0f 42 3e 9b 7a 55 3a d9 f2 80 3e bb 34 10 3e
       0.1895137 0.0008143575 0.25185278 0.14082615
000100 84 22 c4 bd 19 04 35 3e 3c da 30 be 16 e2 23 be
       -0.09576896 0.17677344 -0.1727075 -0.16004214
000110 ae 1d 9b bd 94 60 63 3d ac 85 66 3d d3 e0 82 be
       -0.0757402 0.055512026 0.056279823 -0.25562152
000120 54 17 3f 3e d6 28 10 3e 4d 29 d5 bd 46 19 a7 bd
       0.18661243 0.14078078 -0.10408268 -0.081591174
000130 e1 32 5d 3d 4c 91 7e 3d 31 e9 8c 3e 02 70 03 be
       0.0540036 0.062150285 0.2752166 -0.12835696
000140 ef 71 be bd b9 b7 10 bd 66 d8 0b be 96 ed da 3b
       -0.09299075 -0.03533146 -0.13656768 0.0066811545
000150 15 98 7e 3e cc 9f b5 3d 26 4c 20 3d 2f ac 2e bb
       0.24862702 0.088683695 0.03913512 -0.0026652922
000160 e2 d7 36 3e 5a 58 de 3d e2 94 75 be 0c 66 00 3d
       0.1785579 0.108566955 -0.23982576 0.03134732
000170 43 cf ba 3b 43 c6 30 be 17 fb 49 be 03 fa 6e bb
       0.005700977 -0.17263131 -0.1972469 -0.0036464937
000180 0f c1 49 3e 39 50 80 bd 03 a7 5e bc a8 d7 0c be
       0.19702552 -0.06265301 -0.013589623 -0.13754141
000190 24 73 c2 3d 50 6e e4 3c ca b8 55 ba 32 36 9b bd
       0.094946176 0.027884632 -0.0008152841 -0.07578696
0001a0 64 3f 41 be d6 e1 3d be 94 4c 25 3e e1 35 7b 3e
       -0.18871838 -0.18543181 0.16142493 0.24532272
0001b0 bc f7 80 bb a7 51 a3 bd 17 2c ce 3e 7d f4 63 3d
       -0.0039357822 -0.07974558 0.40268013 0.055653084
0001c0 0f 9b c2 3e 27 15 1c 3e dd 2f 25 3e 8c 4e a9 3d
       0.38008925 0.15242444 0.1613154 0.08266935
0001d0 2d 26 73 3d 35 e4 40 bd a3 2e 2f be ea 04 93 3e
       0.05936258 -0.047092635 -0.17107634 0.28714687
0001e0 4d 9a a4 3c 3f 4a 08 be 57 e3 7d 3e 92 2a 7e 3e
       0.020093108 -0.13309573 0.24793755 0.24820927
0001f0 23 21 9b 3e b3 6b 31 3e 77 6d 2a be 05 2d 05 bd
       0.3029872 0.1732624 -0.1664332 -0.032513637
000200 98 f1 78 3d f8 6b 59 3d 66 ad e8 bc 9a 17 b7 bd
       0.060777277 0.053081483 -0.028402995 -0.089400485
000210 93 85 8c be ba 7e 8b 3d 82 26 c0 3c af b5 78 3d
       -0.2744566 0.068112805 0.023455862 0.060720142
000220 b6 01 ce bd 28 d6 ec 3c d1 5b 73 be 12 2f 49 be
       -0.1005892 0.028910711 -0.23765494 -0.19646862
000230 f3 fd 6f be 7c b0 7e be ba 64 15 3e 18 6d c5 bd
       -0.23436718 -0.24872011 0.14589205 -0.096399486
000240 e3 b4 57 3c bd be 19 be 7f d8 13 3e aa 7b 4b bd
       0.013165685 -0.15014167 0.14438055 -0.049678482
000250 f2 ff a2 bc 33 e7 d0 3d 97 1e 3b be 21 8c 68 3e
       -0.019897435 0.10200348 -0.18273388 0.22709705
000260 ba e5 f1 3d e5 7f 94 3e 31 31 4d be df 90 b5 bd
       0.11811395 0.29003826 -0.20038296 -0.088655226
000270 0e 94 90 3e 1c 0c 6d 3e 6b 2e 7b 3e e5 37 48 3e
       0.28237957 0.2314915 0.24529426 0.19552572
000280 50 7c c2 bd 13 a8 76 3e 2e dd 0f 3e ff 94 14 be
       -0.09496367 0.24087553 0.14049217 -0.14509962
000290 c2 c6 2a 3e 5f f4 f7 3d c0 6b 5b bc 1b 4c 92 3d
       0.16677383 0.12107157 -0.013392389 0.07143422
0002a0 12 bb a4 be db b6 21 3c ae 7a 6b bd a3 a8 22 3e
       -0.32173973 0.009870256 -0.057490043 0.15884642
0002b0 ab bf f3 3d 60 0b 90 be 31 d9 90 be fb e5 cb bb
       0.11901792 -0.28133678 -0.28290704 -0.006222484
0002c0 58 da c2 3d 5e 68 12 be a0 3d 2f 3e 54 83 33 3e
       0.09514302 -0.14297625 0.17113352 0.17530566
0002d0 c2 18 9f 3e 5d 0e 49 3e 29 87 cc 3d 42 3a d5 3e
       0.31073576 0.19634385 0.09986717 0.4164601
0002e0 44 f8 b2 3c e1 1d 5b 3e b2 61 7b 3e 76 70 22 3e
       0.021846898 0.21398117 0.24548987 0.15863213
0002f0 b3 68 2b bb 5a 64 8a bd e0 ac 02 be 87 ff 71 be
       -0.0026154935 -0.06757422 -0.12761259 -0.23632632
000300 62 51 c8 bd 23 43 84 3d 7a e5 38 3e fb 3e 90 bd
       -0.097811475 0.06458118 0.18056288 -0.070432626
000310 aa 3a 4b 3e aa 10 9b be 0c 03 46 3e 2c f4 d5 3d
       0.19846597 -0.3028615 0.193371 0.10446963
000320 d7 1c 86 be 2f 93 01 3e 80 f6 31 be f5 dd 04 bc
       -0.26193878 0.12653802 -0.17379189 -0.008109559
000330 98 1c a3 3d b1 30 b2 be 81 f0 dc be 39 7e 53 bb
       0.07964438 -0.34802774 -0.4315224 -0.003227128
000340 81 a6 9c bd 1c a7 b5 3d 0a 17 0c 3d 1b e7 f9 3d
       -0.076489456 0.08869764 0.03420166 0.12202283
000350 cb 12 59 bd ea d3 8c bc 5b 01 61 3e ad db bb 3d
       -0.052996438 -0.017190892 0.21973173 0.09172759
000360 6e 68 65 3d 68 6d f2 3d e1 14 4e be 38 66 1a bd
       0.056007795 0.11837274 -0.20125152 -0.03769514
000370 b4 90 12 3d 9a 2b 9c 3e 5c d8 a8 bd 96 29 de 3d
       0.03578253 0.30502015 -0.08244392 0.10847776
000380 f2 c9 91 3e f3 6c 1b 3e a6 64 95 3e 83 3f 61 3e
       0.28474385 0.1517828 0.2917835 0.21996884
000390 26 c0 b5 bd 48 06 6d be 29 c5 6f 3e 04 c6 a6 bc
       -0.0887454 -0.23146927 0.23415054 -0.020358093
0003a0 02 1d 93 3e c5 66 8a 3d 86 91 69 3e 9c 84 e5 bd
       0.2873307 0.06757883 0.22809419 -0.11206934
0003b0 fd f8 99 3e 9e fb 83 be f9 85 03 3e 5d d5 d4 bd
       0.30072775 -0.25777906 0.12844075 -0.10392258
0003c0 b3 3c b9 bd 0b 2e 8f bd 75 a0 19 be ca fc c8 bd
       -0.090447806 -0.06991204 -0.15002616 -0.09813841
0003d0 86 27 7f 3e 00 77 3e 3e 92 12 2c bd f9 b2 99 bd
       0.2491742 0.18600082 -0.042009898 -0.075048395
0003e0 08 c1 83 3e c0 7f 17 bd 3a ea 87 bd 3a d8 0c 3e
       0.2573321 -0.036987066 -0.06636472 0.13754359
0003f0 1f 5d fd bd 14 70 64 3e b5 95 3e 3e 17 fc 87 bc
       -0.12371277 0.2230838 0.18611796 -0.016599698

mlp.2.bias f4 [16]
000000 70 6c 89 be 2f 9f 09 be 5a ef 61 be 43 51 c6 bd
       -0.26840544 -0.1343963 -0.22063962 -0.09683468
000010 e8 0d 5b be e4 39 2b be 8d e4 a8 3d cc 54 9d 3e
       -0.21392024 -0.16721302 0.082467176 0.30728757
000020 d0 c1 a0 bd 12 f9 c0 3e 1a 2c 0e 3d 89 b7 cc 3e
       -0.07849467 0.37690026 0.034710027 0.39983776
000030 71 2c 47 be 3b eb 83 3e a2 21 3d 3e 2f 77 82 3e
       -0.19450547 0.25765404 0.18469861 0.25481555
