EUSIPCO/Mutual Coupling No Noise/saved_models/da_music_5dB_uca_9.pth (torch, 46978 bytes, 18 tensors)

bn.weight f4 [16]
1.200218 1.1211631 0.9639549 1.0508243 1.251012 0.8141505 0.9230557 0.67414725
1.1028863 1.0688627 0.8677509 0.8250883 1.2653195 0.91171694 0.90859294 0.9631198
00000000: bea0 993f 4682 8f3f c0c5 763f 6981 863f
00000010: 2921 a03f 2b6c 503f 614d 6c3f ea94 2c3f
00000020: 612b 8d3f 7ed0 883f ec24 5e3f fd38 533f
00000030: fdf5 a13f 4866 693f 8c99 683f 058f 763f

bn.bias f4 [16]
-0.094821185 -0.022134803 -0.14644898 -0.29325315 0.067614555 -0.1340123 -0.16463381 0.0037054454
-0.48936692 0.002827125 -0.23032396 -0.27745435 0.10972413 -0.05817542 -0.23674726 -0.19215071
00000000: 9c31 c2bd 0c54 b5bc b9f6 15be 4725 96be
00000010: 8079 8a3d 853a 09be c495 28be 0fd7 723b
00000020: 4d8e fabe 4947 393b 0bda 6bbe 7f0e 8ebe
00000030: 0bb7 e03d 5949 6ebd e06d 72be 28c3 44be

bn.running_mean f4 [16]
-0.0031495374 -0.0022611648 -0.0060068127 -0.0062495004 0.0006193091 -0.0018543868 -0.0024636132 -0.0027945393
0.0016712433 0.003083307 0.00372236 -0.00013584645 0.004216445 0.0068607233 0.0020797104 0.003922921
00000000: 7868 4ebb 0d30 14bb ccd4 c4bb 9cc8 ccbb
00000010: 2159 223a e50e f3ba 9274 21bb 9724 37bb
00000020: 9f0d db3a 4f11 4a3b d6f2 733b 0172 0eb9
00000030: 1b2a 8a3b ebcf e03b c04b 083b d98b 803b

bn.running_var f4 [16]
7.256644 6.375535 8.128717 6.504468 7.1651373 7.6290374 5.0765295 7.6552477
7.247044 6.398323 8.146879 6.498768 7.182092 7.645604 5.065538 7.617082
00000000: 6d36 e840 6204 cc40 3a0f 0241 9a24 d040
00000010: ce48 e540 1321 f440 ee72 a240 caf7 f440
00000020: c9e7 e740 10bf cc40 9e59 0241 e8f5 cf40
00000030: b3d3 e540 caa8 f440 e318 a240 23bf f340

rnn.weight_ih_l0 f4 [48, 16]
0.8255719 -0.11996699 -0.19156797 0.756239 0.7892945 -0.014956603 -0.63041395 0.46433768
-0.5039505 0.029982006 0.2633649 -0.9065002 0.7792615 -0.52005035 -0.2759715 -0.048638772
0.2606131 0.43092754 0.41535664 -0.18041144 0.15665776 0.576309 0.6304036 -0.3635784
-0.96762407 -0.24166852 0.56759 0.16799715 1.2483906 0.826888 -0.13620494 -0.5456233
0.06531695 -0.11838234 0.24478814 0.13734557 0.60822386 0.6874621 0.52567416 -0.08642831
0.5668708 0.14561492 0.5053964 0.47356856 -0.16667418 -0.6843314 0.1820349 0.86532813
0.105222344 -0.26318642 -0.6827784 0.5100852 -0.20056853 0.40226668 0.6448605 -0.24174026
0.42492062 -0.08973438 -0.15252772 0.6321881 0.24726313 -0.5651979 -0.25252044 0.199689
0.664901 -0.06799321 -0.5732499 1.4022925 -0.63790125 0.5196259 0.061730318 -0.85944253
1.1131973 -0.86022437 -0.49551702 1.0094761 0.13501838 -0.6292746 -0.17178927 0.32400548
0.023669263 0.029763399 -0.6093883 -0.5119254 -0.08645284 0.07890833 -0.70828426 -0.774018
-0.40476018 -0.47111663 -0.1464451 0.48341018 0.3976914 0.24736927 -0.42708486 -0.7448492
-0.7079821 0.61819845 -0.23756449 -0.3459341 -0.19623451 0.042779796 0.14912249 -0.33149678
0.29470024 -0.04097669 0.23077656 -0.44787365 -0.21724676 0.53856224 0.3307445 -0.31268764
0.44978723 -0.7803484 0.4121555 0.17608535 -0.31623283 0.60815966 0.18930289 0.00906648
-0.3612135 -0.5369525 -0.068589 0.32198414 -0.079107665 0.19691952 0.6006122 0.042318776
-0.33745125 0.63281685 -0.12053746 -0.3930391 0.655016 -0.2318239 0.12460276 0.12051677
0.18134612 -0.12759632 -0.103093274 0.61814076 -0.5547998 0.34952307 0.06404197 -0.5391105
0.100259475 0.20972857 -0.43466932 0.5225301 -0.0678518 0.5336383 -0.33804253 -0.33788112
0.2698324 -0.22689219 0.2595684 0.7677645 -1.0016918 0.14243397 0.48207003 0.16035186
0.06375843 0.27146927 -0.57413816 1.3080457 -0.36285144 0.76832914 0.22897324 0.28569484
0.75077486 0.05526012 -0.64087945 0.7769305 0.2604654 -0.18624921 -0.12582028 0.072247274
0.11190037 0.48037001 0.37615162 0.13592395 -0.15252669 -0.5396066 0.28700122 0.46508905
0.28791094 0.3436901 -0.07811011 -1.2177407 -0.027855441 0.2450001 0.120639004 -0.1861758
0.5795084 0.2065438 -0.17313491 0.5809537 -0.13365373 0.76165664 0.042322125 -0.0099372165
0.32212943 -0.12575886 0.46156022 0.48481333 -0.33909985 -0.011798253 0.29483205 -0.031917147
-1.2625118 -0.13375254 -1.1314167 1.2855321 -0.25484473 -0.27039215 -0.62965775 -0.47662443
0.67197615 -0.55771685 -0.54576886 -0.25223926 -0.79178494 -1.2995498 -0.24088842 1.0697685
0.07940502 0.43195364 0.12354108 -0.13453527 0.4385412 0.63942796 -0.3640867 0.26452774
-0.6398953 0.22052678 0.5286013 0.30328485 -0.34620792 -0.119180776 -0.0010346897 -0.20785095
0.10967082 -0.32850462 0.84587264 0.37677008 -0.02207021 -0.17114164 0.49203122 0.33062917
0.14172578 -0.20982225 0.2503899 0.6539885 -0.9700313 -0.4269784 0.2424748 0.55840904
00000000: ae58 533f 41b1 f5bd 652a 44be e198 413f
00000010: 340f 4a3f 8a0c 75bc cf62 21bf abbd ed3e
00000020: e602 01bf d39c f53c c4d7 863e 6610 68bf
00000030: af7d 473f 0522 05bf 234c 8dbe 7339 47bd
00000040: 156f 853e 89a2 dc3e a0a9 d43e c7bd 38be
00000050: e46a 203e fd88 133f 2162 213f f326 babe
00000060: 36b6 77bf f477 77be 944d 113f 7207 2c3e
00000070: 43cb 9f3f efae 533f 4f79 0bbe f8ad 0bbf
00000080: e5c4 853d 7172 f2bd bea9 7a3e 51a4 0c3e
00000090: 8fb4 1b3f 84fd 2f3f 9592 063f 5301 b1bd
000000a0: 721e 113f 141c 153e a961 013f 9477 f23e
000000b0: a3ac 2abe 5830 2fbf 5b67 3a3e 2586 5d3f
000000c0: d07e d73d 5fc0 86be 91ca 2ebf f294 023f
000000d0: d661 4dbe e6f5 cd3e 9415 253f c28a 77be
000000e0: 328f d93e a9c6 b7bd 3a30 1cbe 14d7 213f
000000f0: 8c32 7d3e cfb0 10bf 5c4a 81be 467b 4c3e
00000100: f436 2a3f 0640 8bbd 81c0 12bf 527e b33f
00000110: 7f4d 23bf 3406 053f eed8 7c3d 6d04 5cbf
00000120: 407d 8e3f aa37 5cbf 68b4 fdbe 8336 813f
00000130: 4242 0a3e 2418 21bf 87e9 2fbe 0ce4 a53e
00000140: 0be6 c13c 5fd2 f33c df00 1cbf 8b0d 03bf
00000150: 300e b1bd b19a a13d 1e52 35bf 0b26 46bf
00000160: ba3c cfbe 3336 f1be b4f5 15be 8a81 f73e
00000170: 359e cb3e 5f4e 7d3e deaa dabe 70ae 3ebf
00000180: 513e 35bf 4142 1e3f 1b44 73be 461e b1be
00000190: b3f1 48be de39 2f3d 91b3 183e f2b9 a9be
000001a0: f3e2 963e 2cd7 27bd b150 6c3e b24f e5be
000001b0: ef75 5ebe 37df 093f 5857 a93e 9818 a0be
000001c0: 834a e63e eac4 47bf 0c06 d33e b84f 343e
000001d0: 45e9 a1be 5ab0 1b3f 9ed8 413e 938b 143c
000001e0: faf0 b8be b875 09bf 6478 8cbd 1bdb a43e
000001f0: 3303 a2bd 45a5 493e b9c1 193f 7456 2d3d
00000200: 69c6 acbe 4900 223f 58dc f6bd 6c3c c9be
00000210: 21af 273f 3f63 6dbe bb2f ff3d 7fd1 f63d
00000220: ccb2 393e 9ca8 02be 9122 d3bd 793e 1e3f
00000230: 5c07 0ebf b0f4 b23e 7028 833d 2503 0abf
00000240: d754 cd3d 16c3 563e fa8c debe 88c4 053f
00000250: e2f5 8abd 859c 083f e913 adbe c1fe acbe
00000260: 7927 8a3e 6d56 68be 26e6 843e 378c 443f
00000270: 7037 80bf 36da 113e e2d1 f63e 4733 243e
00000280: c893 823d 05fe 8a3e b8fa 12bf 0b6e a73f
00000290: aac7 b9be 38b1 443f f677 6a3e 9846 923e
000002a0: c832 403f 7058 623d ad10 24bf ebe4 463f
000002b0: b95b 853e 1db8 3ebe 08d7 00be 61f6 933d
000002c0: 052c e53d 0ff3 f53e f296 c03e a62f 0b3e
000002d0: f52f 1cbe a823 0abf d3f1 923e 2720 ee3e
000002e0: 1069 933e 26f8 af3e 31f8 9fbd edde 9bbf
000002f0: 1831 e4bc 4ee1 7a3e 9511 f73d dea4 3ebe
00000300: aa5a 143f 3880 533e 474a 31be 62b9 143f
00000310: 86dc 08be eefb 423f f759 2d3d b5cf 22bc
00000320: 26ee a43e eec6 00be 9f51 ec3e 7439 f83e
00000330: 7f9e adbe 764d 41bc 3af4 963e 8ebb 02bd
00000340: fd99 a1bf 6df6 08be 43d2 90bf 518c a43f
00000350: 027b 82be d770 8abe 4031 21bf 1e08 f4be
00000360: a106 2c3f 88c6 0ebf 82b7 0bbf 8125 81be
00000370: 6bb2 4abf a657 a6bf 74ab 76be 2dee 883f
00000380: 199f a23d 0729 dd3e 1b03 fd3d 9dc3 09be
00000390: 7988 e03e 8db1 233f 9269 babe 2e70 873e
000003a0: 2ed0 23bf c6d1 613e 6a52 073f 2748 9b3e
000003b0: 2a42 b1be 0d15 f4bd 6d9e 87ba e1d6 54be
000003c0: 189b e03d c231 a8be 1c8b 583f 02e8 c03e
000003d0: 96cc b4bc c13f 2fbe 84eb fb3e 3a48 a93e
000003e0: 9020 113e a5db 56be 1b33 803e ca6b 273f
000003f0: f953 78bf ea9c dabe 504b 783e e5f3 0e3f

rnn.weight_hh_l0 f4 [48, 16]
-0.48485172 -0.47994855 -0.082403325 -0.61177474 -0.4514364 0.61848897 0.5794319 0.35074535
0.28231838 -0.856065 0.553491 -0.6506502 -0.20804861 0.58122677 -0.50081235 -0.14920603
0.19903125 0.12127157 0.11976235 -0.43295628 -0.060376 -0.6139854 0.30440253 0.4110636
0.0364329 -0.10315026 0.27034834 0.23912467 -0.28622732 -0.603849 -0.26910323 -0.2770301
0.2825321 0.14522612 0.70222986 0.04346969 -0.078257054 0.5212127 -0.23662813 -0.15981397
0.027563188 0.08978356 0.38899025 -0.13742204 0.16085058 -0.22401033 -0.18765962 0.3236056
-0.060240645 0.25515178 -0.21975134 0.36279085 0.19090539 0.25337464 -0.81451017 0.05886391
-0.24632703 0.16378401 -0.17734182 0.424411 0.7476364 0.06650211 0.10514971 0.7058458
-0.77611256 -0.07366475 -0.20413898 -0.57192206 0.025861762 0.18413308 0.28907773 0.32509896
-0.4131505 -0.13598777 -0.18917646 -0.36135036 0.32145134 -0.381053 -0.27810422 -0.40448418
-0.29528755 0.18617976 0.62153506 0.07271715 -0.1256116 0.37975693 -0.090150736 0.093913384
-0.07107207 -0.27173787 -0.021064896 -0.1461025 0.057041876 -0.0048470283 -0.27319366 -0.030457703
-1.1712543 0.12349903 0.4624723 0.030403944 0.1220997 0.9807982 -1.2828044 -0.6738248
0.2700702 0.289483 -0.23123321 -1.6527754 -0.16615191 0.70862925 -0.19331743 0.17181359
-0.36197 0.5331504 0.60104316 -0.21262398 0.05871528 0.80996966 0.10735686 0.03768692
-0.3179541 0.038687546 0.17592205 0.33062947 0.112900056 -0.5319307 0.23522915 0.5285246
1.0646899 0.029238692 -0.321344 0.100958884 -1.5557499 0.22507042 -0.013849356 0.022053465
-0.19039206 -0.1841875 -0.45687667 0.6200338 0.08550189 -0.43999285 -0.6515976 -0.77583677
-0.52321845 -0.35296458 -0.3105112 0.3298763 1.4614012 0.17294683 -0.51099527 0.02403431
-0.9221441 0.5530492 0.046217285 -0.09534128 0.2994773 -0.06719073 1.0406004 0.7521916
-0.53768826 0.24822311 -0.9090546 -0.40027815 0.13140811 -0.063199796 -0.37732378 -0.21545956
-0.32952943 -0.18720445 -1.2031299 -0.1540933 0.5035553 -0.06603976 -0.344215 0.1981707
-0.125258 0.080259316 0.2099545 -0.18796001 0.21807873 0.34903002 -0.097261146 -0.06830505
-0.7377428 -0.08708885 0.117893055 0.038045697 -0.028367935 -0.65996605 0.043327626 0.20865661
-0.61258763 0.63173926 0.8876811 -0.030873816 1.2517769 0.4588519 -0.46470144 -0.22983679
-0.3679309 0.20337126 0.061300863 -0.788152 0.7344403 -0.36547616 0.6907708 0.9111973
-0.13313372 -0.09231217 -0.17058778 -0.18699488 -0.05676479 0.057101384 -0.17070603 0.027968768
0.081168585 0.21065171 -0.22585215 -0.021808323 -0.050791748 -0.83666277 -0.4760279 -0.35703832
0.015328843 -0.16721581 -0.25791076 -0.18425915 -0.19780241 -0.20178701 0.107848264 -0.21919759
-0.1838772 0.3606673 -0.66900676 0.519804 0.46183652 -0.17775038 0.074666895 -0.15722162
-0.01532612 -0.4884953 0.3884821 -0.35250917 -0.16262169 -0.29253766 0.04689998 0.047756582
0.47292572 -0.5337093 0.22937801 -0.17777178 -0.06899037 0.09573767 -0.6054389 -0.34393236
00000000: 7c3e f8be d1bb f5be 13c3 a8bd 459d 1cbf
00000010: ac22 e7be 4b55 1e3f a655 143f e594 b33e
00000020: 098c 903e 1327 5bbf 96b1 0d3f 0391 26bf
00000030: b20a 55be 47cb 143f 3d35 00bf 77c9 18be
00000040: d9ce 4b3e 3b5d f83d f745 f53d 72ac ddbe
00000050: d34c 77bd 262e 1dbf a6da 9b3e ee76 d23e
00000060: aa3a 153d 7240 d3bd 196b 8a3e 19dd 743e
00000070: 638c 92be d995 1abf e6c7 89be e4d6 8dbe
00000080: 0ca8 903e 28b6 143e 56c5 333f 460d 323d
00000090: 3c45 a0bd 326e 053f a54e 72be 46a6 23be
000000a0: 32cc e13c 71e0 b73d bb29 c73e 5db8 0cbe
000000b0: 04b6 243e f762 65be d829 40be a2af a53e
000000c0: e5be 76bd 41a3 823e 7f06 61be b9bf b93e
000000d0: b47c 433e 52ba 813e bd83 50bf 491b 713d
000000e0: 273d 7cbe ffb6 273e 1899 35be 664c d93e
000000f0: 1965 3f3f 4232 883d bb58 d73d 4fb2 343f
00000100: 50af 46bf 8bdd 96bd cf09 51be 7c69 12bf
00000110: 0cdc d33c 628d 3c3e ff01 943e 5f73 a63e
00000120: 7688 d3be 6140 0bbe 79b7 41be ea02 b9be
00000130: 4595 a43e 6119 c3be ad63 8ebe 8d18 cfbe
00000140: ee2f 97be e8a5 3e3e ec1c 1f3f bbec 943d
00000150: 54a0 00be 806f c23e f3a0 b8bd a955 c03d
00000160: 3c8e 91bd 3a21 8bbe 4a90 acbc e59b 15be
00000170: bea4 693d d2d3 9ebb 0ae0 8bbe 6f82 f9bc
00000180: a9eb 95bf 0fed fc3d 2bc9 ec3e b111 f93c
00000190: 680f fa3d 9715 7b3f ef32 a4bf c87f 2cbf
000001a0: a446 8a3e 1e37 943e 66c8 6cbe 258e d3bf
000001b0: ba23 2abe ba68 353f 01f5 45be e7ef 2f3e
000001c0: 2254 b9be 8b7c 083f f7dd 193f 1aba 59be
000001d0: 6f7f 703d 2c5a 4f3f eadd db3d 9a5d 1a3d
000001e0: e1ca a2be d576 1e3d e924 343e 4448 a93e
000001f0: 2538 e73d 9c2c 08bf e9df 703e 634d 073f
00000200: c247 883f fb85 ef3c 3387 a4be 88c3 ce3d
00000210: d022 c7bf dc78 663e 69e8 62bc 78a9 b43c
00000220: 23f6 42be a69b 3cbe bdeb e9be 89ba 1e3f
00000230: 9d1b af3d be46 e1be 1acf 26bf 3d9d 46bf
00000240: a5f1 05bf c6b7 b4be 53fb 9ebe 8ce5 a83e
00000250: 320f bb3f f918 313e 96d0 02bf 9ae3 c43c
00000260: a311 6cbf a294 0d3f 564e 3d3d 4a42 c3bd
00000270: 1755 993e 4b9b 89bd 6532 853f a18f 403f
00000280: f0a5 09bf 332e 7e3e cdb7 68bf 42f1 ccbe
00000290: d98f 063e e56e 81bd 9530 c1be 6ea1 5cbe
000002a0: 15b8 a8be 86b2 3fbe 2900 9abf a2ca 1dbe
000002b0: 00e9 003f db3f 87bd f33c b0be 43ed 4a3e
000002c0: a243 00be ff5e a43d 50fe 563e 9778 40be
000002d0: 0850 5f3e 10b4 b23e da30 c7bd 85e3 8bbd
000002e0: b6dc 3cbf a45b b2bd ea71 f13d ced5 1b3d
000002f0: df63 e8bc 89f3 28bf 4f78 313d 14aa 553e
00000300: 8bd2 1cbf aab9 213f 123f 633f 16eb fcbc
00000310: 3a3a a03f a3ee ea3e 59ed edbe 565a 6bbe
00000320: 7061 bcbe 8e40 503e 9d16 7b3d 54c4 49bf
00000330: 4804 3c3f b11f bbbe 5bd6 303f 3a44 693f
00000340: 3554 08be 2a0e bdbd 90ae 2ebe 967b 3fbe
00000350: 3282 68bd 24e3 693d 90cd 2ebe c21e e53c
00000360: b73b a63d 15b5 573e c945 67be 5ea7 b2bc
00000370: 020b 50bd 882f 56bf eeb9 f3be bacd b6be
00000380: d425 7b3c 9f3a 2bbe e10c 84be 6eae 3cbe
00000390: b78c 4abe 41a1 4ebe 8ddf dc3d 5575 60be
000003a0: 4e4a 3cbe 62a9 b83e 0744 2bbf e011 053f
000003b0: d675 ec3e 3204 36be f5ea 983d b4fe 20be
000003c0: 681a 7bbc 0e1c fabe 20e7 c63e 157c b4be
000003d0: 4d86 26be 7fc7 95be 321a 403d 689c 433d
000003e0: 5223 f23e 2ca1 08bf 12e2 6a3e ce09 36be
000003f0: d34a 8dbd 1d12 c43d 0bfe 1abf e717 b0be

rnn.bias_ih_l0 f4 [48]
-0.4442208 0.26386675 -0.23737405 0.2749906 -0.12252678 -0.16798723 0.07527999 -0.41530266
0.11187233 -0.201017 -0.09319721 0.07652084 -0.038050838 0.11961 0.038348887 -0.35536405
1.0253688 1.0155436 0.76083535 -0.07108053 0.7900237 0.36174884 1.1937765 0.896305
0.5711112 0.9632584 0.86382335 0.71617746 1.1025797 0.7959219 0.80143625 1.4052166
0.27930146 -0.026368447 0.012516155 0.63337415 -0.2441817 0.09088532 -0.20440462 0.08683022
0.27625865 0.18361056 -0.2941371 0.11700075 0.22097737 0.22660808 0.31144974 0.13596308
00000000: e970 e3be 8b19 873e 2f12 73be 91cb 8c3e
00000010: 52ef fabd d804 2cbe 652c 9a3d 8da2 d4be
00000020: 521d e53d 67d7 4dbe 2ede bebd f5b6 9c3d
00000030: 32db 1bbd 16f6 f43d b913 1d3d 47f2 b5be
00000040: 493f 833f 55fd 813f 1bc6 423f ab92 91bd
00000050: fe3e 4a3f 2537 b93e abcd 983f 3f74 653f
00000060: 5834 123f 1a98 763f 8723 5d3f 6857 373f
00000070: 5521 8d3f 8ac1 4b3f ed2a 4d3f 23de b33f
00000080: 9a00 8f3e a402 d8bc 8f10 4d3c cf24 223f
00000090: c40a 7abe 1522 ba3d 724f 51be 0bd4 b13d
000000a0: c671 8d3e 6804 3c3e 2399 96be 179e ef3d
000000b0: e447 623e f30b 683e 5776 9f3e e839 0b3e

rnn.bias_hh_l0 f4 [48]
-0.30687526 0.23061965 0.11136095 0.39895374 -0.24269384 -0.29727125 -0.23650554 -0.2850285
-0.070887946 0.088369645 0.106741495 -0.2245536 -0.39045852 0.09145905 0.19801655 -0.092621036
1.081966 0.8299635 1.1336633 0.0025221042 1.1263162 0.6296769 0.8256612 1.1178292
0.3417071 1.174936 0.9991236 0.59927785 0.9450055 1.025275 0.77423203 1.3338372
-0.37449417 0.35829893 0.22441474 0.34642935 -0.07232604 0.25116134 -0.4201809 0.078942545
0.24346097 0.15553838 -0.22339651 -0.18168126 0.038868636 0.09091649 0.09203203 -0.026515983
00000000: c11e 9dbe 8f27 6c3e 3611 e43d aa43 cc3e
00000010: bc84 78be f033 98be 822e 72be 41ef 91be
00000020: b32d 91bd 25fb b43d 499b da3d 61f1 65be
00000030: 2eea c7be e24e bb3d dac4 4a3e 19b0 bdbd
00000040: dd7d 8a3f 7d78 543f e11b 913f e349 253b
00000050: 212b 903f 8132 213f 885e 533f 0715 8f3f
00000060: 3cf4 ae3e 4e64 963f 90c6 7f3f 466a 193f
00000070: e1eb 713f 363c 833f 1234 463f 2dbb aa3f
00000080: b3bd bfbe f572 b73e facc 653e 305f b13e
00000090: ad1f 94bd 3898 803e f321 d7be a1ac a13d
000000a0: d54d 793e 7445 1f3e 0ec2 64be a70a 3abe
000000b0: b834 1f3d 6d32 ba3d 4a7b bc3d 0c38 d9bc

fc.weight f4 [128, 16]
-0.0788263 -0.4479479 0.06448634 0.09535036 -0.46841472 -0.0068068723 0.15792753 -0.18521738
0.1243025 0.070046425 0.13024776 -0.30384803 -0.36323783 -0.28868783 0.1675125 -0.23333317
0.23819372 -0.07776931 -0.3415093 0.06577381 -0.29932722 -0.17144935 -0.34930044 -0.10122608
0.020767245 -0.15364277 -0.12352904 0.33757138 0.0015079608 0.11460558 -0.08015403 -0.009857999
-0.52863973 -0.2225925 -0.27247572 -0.89683616 -0.2409301 0.2559452 0.6411623 0.49806717
-0.19559404 -0.2341028 0.23756272 0.23422241 -0.29019967 0.18223312 0.16716264 0.051868975
0.40272325 0.012850266 0.015910173 0.4797214 -0.21960735 0.25893557 -0.28697082 -0.23200853
0.11652949 0.39372596 -0.6334317 -0.36698228 0.29622078 0.5202275 -0.026310593 0.0313265
0.220389 0.28338945 -0.11944553 -0.10204779 -0.17153464 -0.5420286 0.33327198 -0.14687802
0.15714967 -0.15100689 -0.010522434 0.009019597 0.103131145 -0.21669438 -0.13208176 -0.4078623
-0.14169627 0.028029997 0.30378655 -0.3087485 0.23852822 -0.012166201 0.5216201 0.42954376
-0.16050474 -0.3668715 0.15041709 -0.060330104 -0.24963507 -0.112987 0.109161094 -0.029998848
0.13598599 -0.1793937 -0.23081991 -0.28876022 -0.17008875 -0.0048421524 -0.31120005 -0.14874458
0.022679832 0.0787091 -0.5428322 0.16954756 0.13080193 0.09700519 -0.16627082 -0.21524295
-0.13675725 0.030232184 0.16041729 -0.09803851 -0.0012320216 -0.4451661 0.51870084 0.4229053
-0.19769089 -0.17808793 0.5389139 0.17503807 -0.26929647 -0.47796986 -0.11820853 -0.37844846
0.17424138 -0.3343603 -0.46015722 -0.31573346 0.07792208 -0.4903707 0.13605197 0.3766588
-0.20446004 -0.014154501 0.1943593 0.53334105 0.011894314 0.4066315 -0.005727141 -0.41125825
-0.14492948 -0.22985539 -0.041481037 0.08455828 -0.04304792 -0.48830172 0.09423653 0.13880055
-0.3642114 -0.14110215 0.07558872 0.29511264 0.261871 0.033938043 -0.18684587 0.12093002
-0.1841134 -0.2213975 0.26057664 -0.51817226 -0.41140383 0.5454542 0.108409464 -0.102345064
0.28325358 -0.10228835 0.09820887 0.2412503 -0.24906711 0.26333007 -0.09546678 -0.27829072
-0.15863724 -0.044687435 0.2385511 -0.0061206277 -0.25266275 -0.44120392 -0.1369007 -0.14048399
0.5860925 -0.16572192 0.13172546 -0.20974913 -0.30417892 -0.015015272 -0.15385677 -0.27103287
-0.05328191 -0.3110895 0.016059982 0.17339975 0.30464292 -0.019325452 0.0020252184 0.11022699
-0.19768487 -0.02019741 0.05305381 0.03155884 -0.051171426 0.38054964 -0.025975877 0.008738496
-0.15945551 -0.18261895 -0.47453168 0.18028659 -0.13653062 -0.035063863 0.10679633 0.14524646
-0.24385595 -0.18268013 -0.30674914 0.38440755 0.0962398 -0.14527118 -0.28185725 -0.039577954
-0.15554546 0.14842418 0.5836132 -0.23918721 -0.20732594 -0.003715975 0.42195174 0.33564487
-0.07244815 -0.3228582 0.4198172 0.13365111 -0.31926146 -0.18164863 -0.44148237 0.018327631
-0.07330166 0.08917992 -0.82579076 0.51657194 0.3089642 0.0675813 -0.0020362874 -0.03888769
-0.19176802 0.5874266 -0.52812016 0.32390666 0.2092973 0.16373535 0.093851864 0.45224628
00000000: af6f a1bd 6d59 e5be 6a11 843d 0d47 c33d
00000010: 0ed4 efbe 2f0c dfbb c1b7 213e a0a9 3dbe
00000020: 4f92 fe3d 8074 8f3d ab5f 053e f891 9bbe
00000030: 4ffa b9be e4ce 93be 6688 2b3e e4ee 6ebe
00000040: 0ee9 733e 8445 9fbd 4fda aebe 6bb4 863d
00000050: 6b41 99be 6b90 2fbe 82d7 b2be 9e4f cfbd
00000060: 1220 aa3c 8854 1dbe cbfc fcbd 28d6 ac3e
00000070: c5a6 c53a 55b6 ea3d cc27 a4bd 7283 21bc
00000080: ef54 07bf 4aef 63be f081 8bbe 0e97 65bf
00000090: 61b6 76be 400b 833e 3623 243f a902 ff3e
000000a0: ce49 48be a5b8 6fbe a443 733e 00d8 6f3e
000000b0: 0d95 94be 529b 3a3e af2c 2b3e 9074 543d
000000c0: be31 ce3e ec89 523c 0d56 823c 0b9e f53e
000000d0: c0e0 60be 3493 843e d7ed 92be a593 6dbe
000000e0: 03a7 ee3d 7396 c93e 9428 22bf 1ae5 bbbe
000000f0: 40aa 973e a12d 053f 5089 d7bc 3750 003d
00000100: a7ad 613e 6c18 913e dc9f f4bd 6ffe d0bd
00000110: c7a6 2fbe 63c2 0abf a0a2 aa3e 3167 16be
00000120: d8eb 203e 8da1 1abe 4966 2cbc efc6 133c
00000130: 6c36 d33d 22e5 5dbe 7140 07be 54d3 d0be
00000140: d418 11be 2a9f e53c e989 9b3e 4914 9ebe
00000150: be40 743e bf54 47bc e588 053f 29ed db3e
00000160: 5b5b 24be 95d6 bbbe f006 1a3e b31c 77bd
00000170: 56a0 7fbe ba65 e7bd da8f df3d 25c0 f5bc
00000180: e93f 0b3e fbb2 37be 0e5c 6cbe 61d8 93be
00000190: bf2b 2ebe ebaa 9ebb 9d55 9fbe 8050 18be
000001a0: 0ecb b93c 3d32 a13d 0df7 0abf e09d 2d3e
000001b0: f1f0 053e a8aa c63d e642 2abe a668 5cbe
000001c0: 180a 0cbe 7ca9 f73c 6e44 243e 6ac8 c8bd
000001d0: c97b a1ba d0ec e3be 94c9 043f 0b87 d83e
000001e0: 7b6f 4abe af5c 36be 43f6 093f 2e3d 333e
000001f0: 3ae1 89be 77b8 f4be 5017 f2bd ffc3 c1be
00000200: 556c 323e 4631 abbe ba99 ebbe d1a7 a1be
00000210: 9d95 9f3d de11 fbbe 3551 0b3e 6cd9 c03e
00000220: f95d 51be 48e8 67bc 2006 473e 0a89 083f
00000230: 5ee0 423c 0132 d03e beaa bbbb 7190 d2be
00000240: 6568 14be 365f 6bbe 05e8 29bd e42c ad3d
00000250: 0453 30bd af02 fabe 15ff c03d bb21 0e3e
00000260: eb79 babe 157d 10be 42ce 9a3d 0119 973e
00000270: f513 863e 9e02 0b3d 8654 3fbe 29aa f73d
00000280: 3988 3cbe 07b6 62be 4d6a 853e f0a6 04bf
00000290: 86a3 d2be e3a2 0b3f c805 de3d 4a9a d1bd
000002a0: 9d06 913e 8e7c d1bd bb21 c93d 520a 773e
000002b0: 730b 7fbe 33d3 863e 1684 c3bd 1f7c 8ebe
000002c0: cd71 22be 2c0a 37bd bd46 743e 8c8f c8bb
000002d0: 035d 81be 7be5 e1be b22f 0cbe 09db 0fbe
000002e0: 280a 163f 02b3 29be 0ae3 063e 7ac8 56be
000002f0: 57bd 9bbe 9e02 76bc a18c 1dbe d2c4 8abe
00000300: 223e 5abd 1f47 9fbe 3990 833c b48f 313e
00000310: 28fa 9b3e 6950 9ebc 87b9 043b b0be e13d
00000320: e76d 4abe 0a75 a5bc f44e 593d d843 013d
00000330: 2199 51bd 67d7 c23e 5dcb d4bc e92b 0f3c
00000340: 4e48 23be 7600 3bbe d1f5 f2be 0c9d 383e
00000350: afce 0bbe 209f 0fbd 09b8 da3d 7dbb 143e
00000360: 60b5 79be 8010 3bbe 390e 9dbe 11d1 c43e
00000370: 5f19 c53d f8c1 14be 984f 90be 7e1c 22bd
00000380: 4f47 1fbe 82fc 173e ad67 153f 7eed 74be
00000390: 404d 54be b787 73bb 0f0a d83e a5d9 ab3e
000003a0: b25f 94bd ac4d a5be 48f2 d63e d6db 083e
000003b0: 3d76 a3be 1902 3abe fa09 e2be d423 963c
000003c0: 2e1f 96bd f6a3 b63d 0667 53bf 0f3e 043f
000003d0: 8e30 9e3e 1168 8a3d 3c73 05bb b348 1fbd
000003e0: d65e 44be 9761 163f e232 07bf 18d7 a53e
000003f0: 0852 563e 3daa 273e 6835 c03d d38c e73e

fc.bias f4 [128]
0.023885967 0.0016469839 -0.16691335 0.34976617 -0.17154449 0.020889921 0.04205028 -0.57246363
-0.046038426 0.2015797 0.22313213 0.16783294 -0.06537018 -0.046062026 -0.0865525 0.5401523
-0.23698613 0.45868754 0.35198656 -0.016399123 0.01357799 -0.6061012 0.23514204 0.058421377
-0.40631047 -0.01959845 -0.4042988 -0.017016686 0.14403123 0.082522325 0.2615743 0.07782768
0.048358813 -0.24843468 0.41940156 0.62486243 -0.10008728 0.0145886475 0.3833161 0.122140035
-0.18569177 0.14657594 -0.12770507 -0.45476216 -0.42180404 -0.35846648 -0.13161966 -0.038398094
-0.055278387 0.122411184 -0.19134964 -0.14607047 -0.014253158 -0.03474305 0.34633458 0.70224893
-0.2828671 -0.2796498 0.42728102 0.045763962 0.09151843 0.06293436 0.21950553 -0.034384962
0.0009326198 0.121334165 -0.23870724 -0.45130035 -0.49021894 -0.18813984 0.15188365 0.13356377
0.24965079 0.05387002 0.46926212 -0.3971304 -0.16222079 0.15210596 -0.1842104 0.4465604
0.30393308 0.17411986 0.21363091 -0.3018615 -0.32049155 0.35466152 -0.4170573 -0.29743502
0.76189816 -0.42309877 -0.2983176 0.19370204 0.5347997 -0.11190868 -0.5987979 -0.39889452
-0.056101073 -0.10359368 0.16527441 -0.24381773 0.0040308647 0.047881458 0.26931462 0.22690398
0.5554793 0.28081143 0.6156409 0.0029371623 0.1642077 -0.15181234 0.3542128 -0.2194259
0.16473207 -0.08006593 -0.24850461 0.3245559 0.08711927 0.08967075 0.10521207 0.29351994
0.3561309 -0.24276374 0.00069856935 0.46909663 -0.382088 -0.05563379 -0.2474684 0.43892378
00000000: 81ac c33c 9cdf d73a 55eb 2abe 8d14 b33e
00000010: 5ca9 2fbe 5721 ab3c ea3c 2c3d fa8c 12bf
00000020: ca92 3cbd e96a 4e3e c07c 643e 66dc 2b3e
00000030: cde0 85bd 89ab 3cbd 7042 b1bd 6c47 0a3f
00000040: 7eac 72be 18d9 ea3e 9537 b43e 7457 86bc
00000050: 3876 5e3c 7329 1bbf 13c9 703e 414b 6f3d
00000060: ed07 d0be ee8c a0bc 4100 cfbe 9466 8bbc
00000070: ec7c 133e 7701 a93d 11ed 853e 1e64 9f3d
00000080: e413 463d a965 7ebe cdbb d63e fcf6 1f3f
00000090: 8ffa ccbd 3905 6f3c 0242 c43e 8e24 fa3d
000000a0: fc25 3ebe 0118 163e 1ec5 02be 96d6 e8be
000000b0: b3f6 d7be eb88 b7be 4ec7 06be 5247 1dbd
000000c0: 976b 62bd b7b2 fa3d 29f1 43be 7f93 15be
000000d0: 1486 69bc ba4e 0ebd c452 b13e 96c6 333f
000000e0: f5d3 90be 422e 8fbe 94c4 da3e fe72 3b3d
000000f0: 046e bb3d bbe3 803d 0fc6 603e 3fd7 0cbd
00000100: 0e7b 743a 0c7e f83d ac6f 74be d710 e7be
00000110: fafd fabe bba7 40be 6387 1b3e f1c4 083e
00000120: 75a4 7f3e cfa6 5c3d 2043 f03e ad54 cbbe
00000130: 351d 26be aac1 1b3e a7a1 3cbe 91a3 e43e
00000140: 1e9d 9b3e 7a4c 323e 10c2 5a3e 978d 9abe
00000150: 7817 a4be 3296 b53e 8988 d5be 6749 98be
00000160: c20b 433f 67a0 d8be 16bd 98be d459 463e
00000170: a2e8 083f 6130 e5bd d24a 19bf e73b ccbe
00000180: 3dca 65bd ec28 d4bd b23d 293e 5bab 79be
00000190: 5815 843b 591f 443d 9be3 893e 8459 683e
000001a0: e433 0e3f 84c6 8f3e a49a 1d3f 687d 403b
000001b0: 1026 283e b274 1bbe 615b b53e 2fb1 60be
000001c0: 86af 283e 9bf9 a3bd fe77 7ebe 312c a63e
000001d0: 966b b23d 4ca5 b73d 6d79 d73d 3f48 963e
000001e0: ca56 b63e 0f97 78be 3220 373a 6f2d f03e
000001f0: 0aa1 c3be 42e0 63bd 5b68 7dbe 9eba e03e

mlp.0.weight f4 [16, 360]
-0.04532711 -0.055313412 -0.055008583 -0.070061885 -0.013801893 -0.008497808 -0.037629668 -0.017624581
-0.048221625 -0.06419005 -0.046594024 -0.046259798 -0.075945154 -0.06526924 -0.043659586 -0.001133492
-0.018866519 -0.06015327 -0.032526683 -0.046499975 -0.06835267 -0.0038639186 -0.01488119 -0.05895829
-0.03766961 -0.025919372 -0.025415326 -0.049277503 -0.047822528 -0.06842871 -0.024433857 -0.024154695
-0.0071960483 -0.054563727 -0.064600006 -0.06807761 -0.05565587 -0.06243103 -0.072514445 -0.01941478
-0.013562789 -0.036300603 -0.03123096 -0.028594656 -0.024436437 -0.0135105485 -0.05881407 -0.018923666
-0.030513255 -0.050272305 -0.012542329 -0.045977518 -0.029333899 -0.017557641 -0.0632269 -0.052192274
-0.0042912057 -0.0039236136 -0.057865378 -0.057087786 -0.043064024 -0.04607768 -0.020103505 -0.068185225
-0.026591076 -0.012014395 -0.017088031 -0.0011837614 -0.044399846 -0.023622077 -0.058668878 -0.04255116
-0.023637503 -0.04511118 -0.053260997 -0.001073901 -0.07132709 -0.06920138 -0.04547386 -0.017653657
-0.06992717 -0.022951411 -0.076164015 -0.07421771 -0.06632459 -0.038310893 -0.0136128105 -0.013046251
-0.053062372 -0.04200826 -0.06366173 -0.04025132 -0.010037539 -0.042433854 -0.020631246 -0.07778215
-0.07991005 -0.040621545 -0.02411592 -0.063701324 -0.057675794 -0.028322984 -0.07201283 -0.0751642
-0.052397616 -0.046833623 -0.051296778 -0.07460251 -0.0035452195 -0.0573095 -0.024824493 -0.07321354
-0.0024276036 -0.047911648 -0.023612404 -0.025412083 -0.062020425 -0.052835174 -0.007813303 -0.009552256
-0.072881125 -0.036306456 -0.07517674 -0.025177566 -0.044473756 -0.04423815 -0.06391872 -0.03946445
-0.07883337 -0.046806183 -0.023560021 -0.08565943 -0.039592583 -0.07113726 -0.036506794 -0.07569691
-0.05215288 -0.0036907902 -0.058737986 0.0005994211 -0.027068488 -0.065683514 -0.047522727 -0.06384401
-0.018696902 -0.016106626 -0.005178486 -0.05074118 -0.08552148 -0.06311195 -0.04794921 -0.08160037
-0.012907975 -0.06985978 -0.0049933214 -0.023022002 -0.08498339 -0.06577412 -0.075324886 -0.037110247
-0.021096243 -0.033487786 -0.0012993696 -0.07062369 -0.06740623 -0.063302726 -0.08021521 -0.08066507
-0.07473639 -0.04825177 -0.03724712 -0.020119833 -0.002618237 -0.046150405 -0.07244921 -0.0660972
-0.07693352 -0.013687649 -0.05988407 -0.009619589 -0.042963117 -0.085379906 -0.05798834 -0.034540106
-0.06837922 -0.05011742 -0.0075962846 -0.035684664 -0.063631184 -0.016948394 -0.07159406 -0.018579034
-0.019490624 -0.0046484126 -0.08102339 -0.08864689 -0.008866459 -0.049424928 -0.083953016 -0.042828027
-0.038910992 -0.045234032 -0.058447786 -0.017023724 -0.028797269 -0.06629564 -0.06576414 -0.079942755
-0.05157937 -0.07674068 -0.069100335 -0.04613014 -0.008399435 -0.055978708 -0.062222417 -0.049185738
-0.042415082 -0.044026043 -0.046325255 -0.085082315 -0.040713422 -0.09048425 -0.06971369 -0.04382565
2.0115798e-05 -0.055863243 -0.07301897 -0.065726824 0.0005337124 -0.016349554 -0.08046486 -0.015587604
-0.0051072873 -0.028192557 0.00080227444 -0.064053714 -0.014564728 -0.06182117 -0.023153735 -0.026971925
-0.077316836 -0.051396444 -0.022483883 -0.041866895 -0.06327509 -0.054402772 -0.08956349 -0.035361703
-0.08881746 -0.04808294 -0.044601977 -0.06494053 -0.014815841 -0.02134032 -0.061660852 -0.078827016
00000000: eba8 39bd 5190 62bd ae50 61bd 9b7c 8fbd
00000010: 5621 62bc 643a 0bbc 9121 1abd 6d61 90bc
00000020: 0a84 45bd 1376 83bd 60d9 3ebd ea7a 3dbd
00000030: 2289 9bbd e1ab 85bd 65d4 32bd ae91 94ba
00000040: f58d 9abc 4663 76bd b33a 05bd c276 3ebd
00000050: 7cfc 8bbd cc39 7dbb 3cd0 73bc 3f7e 71bd
00000060: 734b 1abd dd54 d4bc cd33 d0bc 35d7 49bd
00000070: 8ee1 43bd 5a24 8cbd 8329 c8bc 11e0 c5bc
00000080: d4cc ebbb 377e 5fbd 024d 84bd 466c 8bbd
00000090: 69f7 63bd aeb7 7fbd 7482 94bd bf0b 9fbc
000000a0: 7636 5ebc f1af 14bd 12d8 ffbc 573f eabc
000000b0: ec2e c8bc 595b 5dbc 06e7 70bd ce05 9bbc
000000c0: eff6 f9bc 55ea 4dbd 577e 4dbc ec52 3cbd
000000d0: a54d f0bc 0bd5 8fbc 1b7d 81bd 91c7 55bd
000000e0: 3e9d 8cbb a891 80bb 3f04 6dbd e2d4 69bd
000000f0: e763 30bd f3bb 3cbd 1bb0 a4bc b2a4 8bbd
00000100: 87d5 d9bc 06d8 44bc 33fc 8bbc 7128 9bba
00000110: 9ddc 35bd 1683 c1bc c74e 70bd 204a 2ebd
00000120: 70a3 c1bc 80c6 38bd 3428 5abd 23c2 8cba
00000130: f013 92bd 74b9 8dbd cc42 3abd 679e 90bc
00000140: fa35 8fbd 9904 bcbc e1fb 9bbd 74ff 97bd
00000150: 30d5 87bd e2eb 1cbd 4408 5fbc f1bf 55bc
00000160: ee57 59bd da10 2cbd 1561 82bd 91de 24bd
00000170: 7d74 24bc 1fcf 2dbd dc02 a9bc 3f4c 9fbd
00000180: e1a7 a3bd c762 26bd c08e c5bc d775 82bd
00000190: 743d 6cbd 9a05 e8bc 767b 93bd b0ef 99bd
000001a0: e29e 56bd 9dd4 3fbd 921c 52bd 33c9 98bd
000001b0: ea56 68bb 5ebd 6abd bc5c cbbc fbf0 95bd
000001c0: 6e18 1fbb 013f 44bd cd6e c1bc 002d d0bc
000001d0: 2109 7ebd b269 58bd 5e03 00bc 1181 1cbc
000001e0: b342 95bd 14b6 14bd 43f6 99bd 2f41 cebc
000001f0: 1d2a 36bd 1033 35bd d1e7 82bd 7aa5 21bd
00000200: 6473 a1bd d7b7 3fbd f200 c1bc 366e afbd
00000210: d52b 22bd 69b0 91bd 2688 15bd fb06 9bbd
00000220: 429e 55bd 2fe1 71bb 3e97 70bd 7822 1d3a
00000230: bcbe ddbc 1485 86bd 31a7 42bd a6c0 82bd
00000240: 3f2a 99bc 0bf2 83bc 4ab0 a9bb fcd5 4fbd
00000250: e325 afbd d740 81bd 6466 44bd 181e a7bd
00000260: f97b 53bc a512 8fbd 049f a3bb a398 bcbc
00000270: c60b aebd 95b4 86bd ef43 9abd ea00 18bd
00000280: 07d2 acbc 7d2a 09bd 9c4f aaba 27a3 90bd
00000290: 470c 8abd dca4 81bd df47 a4bd ba33 a5bd
000002a0: 640f 99bd a6a3 45bd 7090 18bd 59d2 a4bc
000002b0: ba96 2bbb 3508 3dbd 4060 94bd f85d 87bd
000002c0: 528f 9dbd 2942 60bc 0049 75bd 7b9b 1dbc
000002d0: 18fa 2fbd a9db aebd 2e85 6dbd ed79 0dbd
000002e0: 680a 8cbd ec47 4dbd 41ea f8bb 152a 12bd
000002f0: 1151 82bd 5cd7 8abc e89f 92bd 0f33 98bc
00000300: cdaa 9fbc b651 98bb 97ef a5bd 808c b5bd
00000310: a044 11bc cb71 4abd 8fef abbd 716c 2fbd
00000320: 2261 1fbd 5247 39bd f266 6fbd 5675 8bbc
00000330: 40e8 ebbc 02c6 87bd 59af 86bd 07b9 a3bd
00000340: e444 53bd 382a 9dbd 7a84 8dbd f5f2 3cbd
00000350: c99d 09bc ee49 65bd efdc 7ebd fc76 49bd
00000360: 70bb 2dbd a754 34bd 8dbf 3dbd a33f aebd
00000370: 1ec3 26bd ce4f b9bd 0dc6 8ebd 8682 33bd
00000380: 59be a837 dbd0 64bd f88a 95bd c99b 86bd
00000390: d5e8 0b3a 80ef 85bc c3ca a4bd 2663 7fbc
000003a0: 085b a7bb 14f4 e6bc ba4f 523a 982e 83bd
000003b0: e6a0 6ebc 3238 7dbd e7ac bdbc 3af4 dcbc
000003c0: 4a58 9ebd 1485 52bd 1f30 b8bc 9f7c 2bbd
000003d0: 5f96 81bd 71d5 5ebd 106d b7bd 6fd7 10bd
000003e0: eee5 b5bd 9ef2 44bd 90b0 36bd 8aff 84bd
000003f0: 24be 72bc e5d1 aebc 1790 7cbd 0f70 a1bd

mlp.0.bias f4 [16]
-0.0006204783 -0.067534916 -0.18193984 -0.04870871 -0.078552365 -0.11747638 -0.04795133 -0.18806049
-0.08367247 -0.014494179 -0.11269302 -0.07139732 -0.053247742 -0.08254377 -0.08425275 -0.11781111
00000000: 98a7 22ba bf4f 8abd 704e 3abe c982 47bd
00000010: 10e0 a0bd 7597 f0bd 9d68 44bd ee92 40be
00000020: 795c abbd fe78 6dbc 99cb e6bd c238 92bd
00000030: 4e1a 5abd b50c a9bd b58c acbd f446 f1bd

mlp.2.weight f4 [16, 16]
0.005576263 0.16422854 -0.29158226 0.1569836 -0.11476893 -0.2001996 -0.011206006 -0.0137131205
-0.017635237 0.12143148 0.13545202 0.17308584 -0.08921426 0.041239254 -0.12569413 0.06639649
0.0056333914 0.007882949 -0.020971881 -0.008444842 0.0030303951 -0.120300926 0.017596466 -0.004172391
0.023903372 -0.024481395 -0.0010883589 -0.008957344 -0.02181808 -0.3130107 0.008991622 -0.01880034
0.022417018 -0.06798576 -0.27707005 0.0047982843 0.13860257 0.044304643 -0.1691675 0.3396323
0.18761286 0.15032825 -0.06765229 0.11166583 -0.73400426 0.1327615 0.11678576 0.50691277
0.01829962 0.0029244074 -0.20938277 -0.13808452 -0.018978126 0.18031658 -0.19523247 -0.27580625
-0.102152646 -0.16627826 0.11884729 0.23276483 -0.17012133 -0.454137 -0.21952717 -0.3024492
-0.083870694 0.013655793 0.195147 -0.07249759 -0.11321651 -0.106778644 0.15119681 0.09500677
0.07506202 0.16660914 -0.16516788 0.14271335 0.34531426 -0.15952253 0.14482237 0.11529682
-0.14475432 0.004926654 -0.1842307 -0.126898 -0.17372437 -0.03483694 -0.18377797 -0.024473468
-0.10613246 0.13202542 -0.0884944 0.09655746 0.22931324 -0.012579232 0.009196021 0.20568147
0.042118136 -0.11579136 -0.10047416 0.06825222 0.028877124 0.085426286 0.2673467 -0.21452846
0.0334598 -0.12346319 0.13434081 -0.060291745 -0.029234376 0.10442183 -0.010722734 0.13696308
-0.009282029 -0.008538049 0.073915415 -0.11953052 0.016308751 0.20316379 0.01471547 -0.4357345
0.014338959 0.015447772 -0.024963979 -0.0018595313 -0.6168513 -0.28191373 -0.2290278 0.06367462
-0.01767855 0.0030148488 -0.048258137 -0.1594045 -0.025572134 -0.12486695 0.020966396 0.0619772
-0.0007473101 0.009909211 0.022048889 -0.0071282918 -0.048569538 -0.102613226 -0.017986298 0.07468701
0.008545874 -0.13021642 0.16738032 0.03800644 0.13600898 -0.118600175 -0.12995069 -0.12481149
-0.17950168 0.045914486 0.17680141 0.058405425 -0.056936868 0.2970772 0.07630064 0.3528852
0.005624014 0.21383195 -0.17845523 -0.19389683 -0.023361424 -0.03355308 0.09504901 0.10986034
-0.19138883 0.010520054 0.16556203 0.12656264 -0.14779703 -0.11177116 0.056588374 0.041356426
0.00784007 -0.018364957 -0.06504302 -0.17733705 0.021621717 0.2793113 0.10578385 -0.1389736
-0.09833097 0.014291434 0.16882023 -0.10618728 0.08727241 0.24664576 0.1610875 -0.055421263
0.002529985 0.0036626996 -0.0035525912 -0.02380601 -0.010182892 -0.016656134 -0.00038484012 0.0013130553
-0.010566088 0.00011089994 -0.005051028 0.005733353 -0.022226667 -0.013222713 0.0043634158 -0.0071135922
-0.01000084 -0.004453214 -0.012638464 -0.012449002 0.008952312 -0.017420117 0.021886984 -0.017135669
0.024545746 0.00477617 -0.022334682 -0.011023429 0.017770544 -0.014663535 0.00122119 -0.004185347
0.020224323 -0.02315584 -0.26930767 -0.14850685 -0.01560273 -0.14559953 -0.16350763 -0.07956575
0.007670791 -0.23318496 -0.29511046 0.010193873 0.024498925 0.011342102 -0.16191258 -0.14106575
0.02534812 -0.05037109 0.024728365 -0.12827262 -0.043585457 -0.051039536 -0.017346881 -0.2213597
0.0031325538 0.023227315 -0.011762643 0.013391568 0.012521711 -0.16239303 0.15576912 -0.022549674
00000000: 16b9 b63b 872b 283e 454a 95be 4fc0 203e
00000010: f90b ebbd 2001 4dbe 6599 37bc ffac 60bc
00000020: c677 90bc 11b1 f83d efb3 0a3e 6a3d 313e
00000030: f7b5 b6bd 7eea 283d f6b5 00be e2fa 873d
00000040: 5098 b83b 7c27 013c 39cd abbc 3c5c 0abc
00000050: 9899 463b 5560 f6bd 7726 903c 8db8 88bb
00000060: 01d1 c33c 358d c8bc 44a7 8eba d3c1 12bc
00000070: d5bb b2bc f042 a0be 9951 133c 2c03 9abc
00000080: e5a3 b73c 1e3c 8bbd 20dc 8dbe ed3a 9d3b
00000090: d5ed 0d3e c978 353d 3f3a 2dbe 49e4 ad3e
000000a0: 961d 403e a6ef 193e 498d 8abd 0eb1 e43d
000000b0: b4e7 3bbf a1f2 073e 5f2d ef3d 09c5 013f
000000c0: 16e9 953c 6aa7 3f3b 7068 56be 0766 0dbe
000000d0: 0478 9bbc e9a4 383e 05eb 47be 7a36 8dbe
000000e0: 6835 d1bd d944 2abe 3566 f33d e759 6e3e
000000f0: 4934 2ebe a584 e8be bbcb 60be 9fda 9abe
00000100: 66c4 abbd 8cbc 5f3c 9dd4 473e 9e79 94bd
00000110: 0fde e7bd c3ae dabd 56d3 1a3e e992 c23d
00000120: 1eba 993d 969b 2a3e c521 29be 7323 123e
00000130: 08cd b03e e059 23be 514c 143e bd20 ec3d
00000140: 7a3a 14be c56f a13b f9a6 3cbe 8df1 01be
00000150: cde4 31be 2eb1 0ebd 4b30 3cbe 957c c8bc
00000160: fa5b d9bd ac31 073e 8d3c b5bd ebbf c53d
00000170: 17d1 6a3e 2019 4ebc e8aa 163c 2a9e 523e
00000180: 1184 2c3d 0524 edbd 65c5 cdbd d2c7 8b3d
00000190: b88f ec3c faf3 ae3d abe1 883e 59ad 5bbe
000001a0: 250d 093d 45da fcbd a390 093e 7af4 76bd
000001b0: ee7c efbc 1ddb d53d 68ae 2fbc 0d40 0c3e
000001c0: a713 18bc 2ce3 0bbc f760 973d 6bcc f4bd
000001d0: ee99 853c 2b0a 503e 2819 713c 9818 dfbe
000001e0: f4ed 6a3c a718 7d3c 4281 ccbc 84bb f3ba
000001f0: f7e9 1dbf ff56 90be 4386 6abe d767 823d
00000200: 9bd2 90bc c594 453b 53aa 45bd ef3a 23be
00000210: a77c d1bc 3eba ffbd b8c1 ab3c cedb 7d3d
00000220: 22e7 43ba 3e5a 223c df9f b43c 7294 e9bb
00000230: daf0 46bd e226 d2bd 0058 93bc 81f5 983d
00000240: fe03 0c3c 7457 05be bf65 2b3e a4ac 1b3d
00000250: f045 0b3e a6e4 f2bd cb11 05be 2b9d ffbd
00000260: 4acf 37be d410 3c3d 6e0b 353e 873a 6f3d
00000270: a236 69bd 811a 983e 8343 9c3d 5ead b43e
00000280: a649 b83b c3f6 5a3e f8bc 36be e48c 46be
00000290: 7560 bfbc f46e 09bd 0ea9 c23d 75fe e03d
000002a0: 6ffb 43be 4e5c 2c3c 1889 293e a399 013e
000002b0: 1b58 17be 47e8 e4bd 36c9 673d 5b65 293d
000002c0: a373 003c 1b72 96bc 4635 85bd d897 35be
000002d0: 0720 b13c e401 8f3e 34a5 d83d 184f 0ebe
000002e0: bf61 c9bd 9e26 6a3c 36df 2c3e b778 d9bd
000002f0: e1bb b23d b590 7c3e 1ff4 243e 6801 63bd
00000300: 1bce 253b e709 703b 97d2 68bb d204 c3bc
00000310: 25d6 26bc 7272 88bc 5ec4 c9b9 d31a ac3a
00000320: 631d 2dbc f492 e838 1883 a5bb dade bb3b
00000330: b314 b6bc 14a4 58bc fcfa 8e3b 2319 e9bb
00000340: 90da 23bc 44ec 91bb 8f11 4fbc e6f6 4bbc
00000350: b8ac 123c a2b4 8ebc 554c b33c 1a60 8cbc
00000360: 2914 c93c 6b81 9c3b 39f7 b6bc 9d9b 34bc
00000370: 8893 913c 533f 70bc 5610 a03a 3c25 89bb
00000380: 7bad a53c 51b1 bdbc b2e2 89be 2e12 18be
00000390: 98a2 7fbc 0b18 15be 8b6e 27be 5ef3 a2bd
000003a0: 425b fb3b 0ac8 6ebe b818 97be 3404 273c
000003b0: f8b1 c83c 39d4 393c 69cc 25be 8a73 10be
000003c0: dca6 cf3c eb51 4ebd 2493 ca3c e659 03be
000003d0: aa86 32bd d50e 51bd 0c1b 8ebc 1eac 62be
000003e0: 884b 4d3b 3647 be3c 1ab8 40bc 4f68 5b3c
000003f0: dd27 4d3c 5c4a 26be f181 1f3e 18ba b8bc

mlp.2.bias f4 [16]
-0.1628108 -0.39936152 0.56984687 0.24286717 -0.15431428 -0.11152389 -0.18132928 -0.02212157
-0.29525086 -0.21115568 -0.020937959 0.38100445 -0.003776499 -0.024484532 -0.051645886 -0.28621414
00000000: e0b7 26be 1d79 ccbe 7ce1 113f 2cb2 783e
00000010: 9004 1ebe a366 e4bd 62ae 39be 4b38 b5bc
00000020: 1f2b 97be 3239 58be 1586 abbc 0413 c33e
00000030: 247f 77bb c993 c8bc a38a 53bd a98a 92be

mlp.4.weight f4 [16, 16]
-0.1818109 -0.019926636 0.096892506 0.038488273 -0.080197826 -0.29741776 0.016893256 0.0107817305
-0.02550965 -0.06290976 -0.018352132 -0.2531402 0.020805938 -0.004476409 -0.10639915 0.02059015
0.26246908 -0.1611392 0.901849 -0.5900171 0.013947486 -0.1475588 -0.05122968 -0.70270103
-0.22083569 0.10963798 0.20974815 -0.08670674 -0.018165756 0.013626316 0.14714776 -0.13710022
-0.04091236 -0.046068776 -0.19640802 -0.21713252 -0.16789667 0.11382244 -0.032763027 -0.09584995
0.1648518 0.19419996 0.16751276 0.30630904 -0.016325261 0.015425188 0.16498673 0.058268305
-0.016603135 -0.0054479814 0.012978788 -0.006033229 0.0072117955 -0.15800594 -0.107170224 0.049062368
0.004429138 -0.012616163 0.01983 -0.15946698 -0.018421082 -0.023648182 -0.005968574 0.023473155
0.107361935 -0.2166261 -0.09229611 0.12613541 -0.22058001 0.1568523 0.21822268 -0.17331275
0.024209684 0.19715357 0.12367415 0.5192589 -0.010578732 0.017319847 0.16409138 -0.17410022
0.115735315 0.0027486053 0.27717933 -0.18289013 0.009795606 0.10107526 0.027093245 -0.3547427
0.18169741 0.2315896 -0.11595178 -0.040260762 -0.008531553 -0.02186559 0.29094213 -0.08199651
-0.18331288 0.0050328537 -0.10603967 0.07209585 -0.09876635 -0.13051465 -0.14675622 -0.1034322
0.009619008 -0.21587314 0.13960871 -0.05182302 0.007432261 0.0220998 -0.16047631 -0.023649544
-0.15179852 0.08880942 0.10551248 0.036350753 -0.106553435 -0.098496355 -0.085833594 -0.34671822
-0.1564948 -0.0146090025 0.24199563 0.103241175 -0.0050075664 -0.0038308084 -0.056989722 0.18958163
-0.030529795 0.16658297 0.19230288 -0.27963617 -0.18048966 -0.29854333 -0.034995954 -0.18345538
0.05751012 -0.088210754 -0.19333676 0.06431494 0.0036816723 0.01981093 -0.034975998 0.11089427
-0.007022242 -0.011705027 -0.011254451 0.006869873 -0.015706275 -0.26716095 0.08584101 -0.14058925
-0.025234476 -0.23416932 0.004830317 -0.12697451 0.00045933767 -0.025123395 0.0010540431 -0.0026895518
-0.26384398 -0.005814818 -0.049362253 -0.026503855 0.10458099 -0.18852343 -0.28345945 0.56325614
-0.0072560906 -0.2554099 0.1824977 0.15941855 -0.020629862 0.0022184358 0.18671207 -0.02104264
0.20981783 0.09273146 0.5747289 0.4442589 -0.8559909 -0.008582521 0.06357512 0.14929204
0.008193689 -0.3715907 -0.07965647 0.27628452 -0.009876723 0.0018048136 0.016445285 0.022667138
-0.10868565 0.011938359 -0.1325081 -0.18448316 0.37014285 0.0013482894 0.21373439 0.26273844
-0.06313987 0.4707654 0.3109183 -0.14532612 0.021689788 0.005446056 0.1840193 0.23533536
0.01826923 0.06480637 -0.004855805 0.115873665 -0.050514575 0.11118015 0.06255115 0.23293634
0.15710303 -0.2076532 -0.04208718 0.34035227 0.021244422 -0.0051620994 -0.05847048 -0.11744811
0.18040437 -0.004760521 0.018641967 0.00051469135 -0.15742314 -0.03434034 0.06603416 -0.15310788
-0.005788357 -0.119849496 0.14300191 -0.13394417 0.007512107 -0.004898711 0.0048964904 0.023767468
0.14852549 -0.0065743234 -0.16596465 -0.078918725 0.006050838 0.057218805 0.27955058 -0.18097557
0.04899232 0.0020035717 -0.056699004 0.41568425 -0.0052505685 -0.02329973 -0.046841186 -0.19074379
00000000: a32c 3abe 2f3d a3bc 946f c63d e1a5 1d3d
00000010: c23e a4bd 2447 98be ba63 8a3c dba5 303c
00000020: 9df9 d0bc d5d6 80bd 3657 96bc 989b 81be
00000030: 3771 aa3c d7ae 92bb cce7 d9bd adac a83c
00000040: 5962 863e ad01 25be 93df 663f 5c0b 17bf
00000050: ff83 643c a719 17be 37d6 51bd 37e4 33bf
00000060: c022 62be e189 e03d 38c8 563e 4e93 b1bd
00000070: 5ad0 94bc e940 5f3c e7ad 163e 0064 0cbe
00000080: b893 27bd 9db2 3cbd 2f1f 49be fd57 5ebe
00000090: 1bed 2bbe bd1b e93d 8632 06bd fb4c c4bd
000000a0: e9ce 283e 5bdc 463e 7788 2b3e 8ad4 9c3e
000000b0: 8ebc 85bc edb9 7c3c 48f2 283e bfaa 6e3d
000000c0: 4c03 88bc fb84 b2bb fca4 543c 65b2 c5bb
000000d0: ed50 ec3b 4fcc 21be 107c dbbd 9ff5 483d
000000e0: 4d22 913b 06b4 4ebc 8672 a23c 504b 23be
000000f0: cfe7 96bc d5b9 c1bc 0794 c3bb c64a c03c
00000100: 93e0 db3d 3bd3 5dbe be05 bdbd a429 013e
00000110: badf 61be e49d 203e c475 5f3e e678 31be
00000120: 6353 c63c a0e2 493e df48 fd3d 27ee 043f
00000130: 6b52 2dbc 5ae2 8d3c 9207 283e 5447 32be
00000140: a306 ed3d f221 343b 73ea 8d3e 8d47 3bbe
00000150: c07d 203c 8c00 cf3d a7f2 dd3c d6a0 b5be
00000160: e30e 3a3e d325 6d3e 2078 edbd 78e8 24bd
00000170: edc7 0bbc 771f b3bc 5ef6 943e c9ed a7bd
00000180: 5fb6 3bbe a3ea a43b 542b d9bd fda6 933d
00000190: 0346 cabd a2a5 05be 4347 16be 43d4 d3bd
000001a0: 0b99 1d3c d90d 5dbe 96f5 0e3e 6044 54bd
000001b0: 538a f33b a40a b53c e753 24be b0bc c1bc
000001c0: 1271 1bbe b7e1 b53d ed16 d83d 87e4 143d
000001d0: b038 dabd 75b8 c9bd 86c9 afbd 0d85 b1be
000001e0: 2c40 20be 995a 6fbc b4cd 773e 1c70 d33d
000001f0: 8316 a4bb 4d0e 7bbb 0e6e 69bd b021 423e
00000200: 9f19 fabc ba94 2a3e 0ceb 443e 792c 8fbe
00000210: 48d2 38be acda 98be eb57 0fbd badb 3bbe
00000220: bb8f 6b3d d7a7 b4bd 12fa 45be 8db7 833d
00000230: 3648 713b 884a a23c fe42 0fbd 891c e33d
00000240: d61a e6bb 71c6 3fbc 9764 38bc ac1c e13b
00000250: 72aa 80bc 52c9 88be 69cd af3d a1f6 0fbe
00000260: 88b8 cebc 15ca 6fbe a347 9e3b 9b05 02be
00000270: 42d3 f039 94cf cdbc d127 8a3a 3143 30bb
00000280: 8f16 87be 3b8a bebb 1330 4abd 9d1e d9bc
00000290: 8f2e d63d 490c 41be 9921 91be 8e31 103f
000002a0: 80c4 edbb 16c5 82be ade0 3a3e 9e3e 233e
000002b0: f5ff a8bc 2d63 113b 7331 3f3e 9d61 acbc
000002c0: 7cda 563e fee9 bd3d 6f21 133f e775 e33e
000002d0: 3822 5bbf b49d 0cbc ac33 823d 03e0 183e
000002e0: d33e 063c 2341 bebe ee22 a3bd 2a75 8d3e
000002f0: fbd1 21bc 7f8f ec3a 43b8 863c 6fb0 b93c
00000300: 9596 debd 1b99 433c 34b0 07be 27e9 3cbe
00000310: 5d83 bd3e 16b9 b03a 30dd 5a3e a785 863e
00000320: 7a4f 81bd 2a08 f13e af30 9f3e 5fd0 14be
00000330: c8ae b13c d474 b23b 8e6f 3c3e c1fb 703e
00000340: 5aa9 953c 34b9 843d 721d 9fbb 2c4f ed3d
00000350: 5fe8 4ebd 6bb2 e33d d11a 803d dd86 6e3e
00000360: 9edf 203e 0aa3 54be 9b63 2cbd a742 ae3e
00000370: c808 ae3c d426 a9bb be7e 6fbd a288 f0bd
00000380: ecbb 383e 25fe 9bbb 0ab7 983c 5aec 063a
00000390: 8833 21be 75a8 0cbd eb3c 873d 50c8 1cbe
000003a0: 42ac bdbb a773 f5bd 186f 123e a928 09be
000003b0: 1f28 f63b 5e85 a0bb bd72 a03b feb3 c23c
000003c0: 1117 183e 6c6d d7bb a3f2 29be 24a0 a1bd
000003d0: 1c46 c63b 445e 6a3d 4121 8f3e a951 39be
000003e0: 2cac 483d 5b4e 033b 373d 68bd 91d4 d43e
000003f0: f60c acbb 13df bebc 8bdc 3fbd 5752 43be

mlp.4.bias f4 [16]
0.027532205 -0.08827175 0.023983842 -0.32258183 0.12341878 -0.09525649 0.016321452 0.19415504
0.5087926 -0.15648901 0.8351893 0.03745821 -0.1464728 0.5469228 -0.23759393 0.016762871
00000000: 388b e13c d2c7 b4bd c379 c43c 7229 a5be
00000010: fcc2 fc3d d615 c3bd 91b4 853c 94d0 463e
00000020: 3b40 023f a83e 20be f7ce 553f c86d 193d
00000030: f7fc 15be 2203 0c3f d34b 73be 4a52 893c

mlp.6.weight f4 [3, 16]
-0.047590114 -0.009775485 0.21857509 -0.029886447 0.3780218 0.040365305 0.004819847 0.08806856
0.15739639 -0.29037112 0.35584953 -0.104129635 -0.32180616 0.5197806 -0.057416387 0.30207402
0.120665655 0.10504706 -0.18531469 0.0049439375 -0.1474831 -0.12297839 -0.01255879 0.03159224
0.3149542 -0.030611005 -0.23954922 0.42326918 -0.35411006 0.3009093 -0.10029718 -0.13883194
0.07907427 -0.19170268 -0.08287444 -0.08794573 -0.110838965 -0.14012463 -0.0686166 -0.026482547
0.06534056 0.22789846 0.51835084 0.20434017 -0.17543027 0.1683959 0.03626089 -0.009081596
00000000: daed 42bd 5b29 20bc 26d2 5f3e 6cd4 f4bc
00000010: 138c c13e 1756 253d cfef 9d3b 4a5d b43d
00000020: 852c 213e 86ab 94be e931 b63e eb41 d5bd
00000030: c7c3 a4be 5710 053f 722d 6bbd 72a9 9a3e
00000040: 8e1f f73d ea22 d73d 22c3 3dbe c100 a23b
00000050: cf05 17be 18dc fbbd 62c3 4dbc dd66 013d
00000060: ad41 a13e eec3 fabc 644c 75be bdb6 d83e
00000070: ea4d b5be c910 9a3e 9c68 cdbd f629 0ebe
00000080: b1f1 a13d b54d 44be 13ba a9bd e41c b4bd
00000090: 8aff e2bd d57c 0fbe dc86 8cbd edf1 d8bc
000000a0: 46d1 853d 375e 693e a4b2 043f 8d3e 513e
000000b0: fea3 33be fa6f 2c3e 4d86 143d f9ca 14bc

mlp.6.bias f4 [3]
0.16869482 0.4882796 -0.27903563
00000000: 56be 2c3e c9ff f93e c2dd 8ebe
