EUSIPCO/Mutual Coupling No Noise/saved_models/rnn_10dB_uca_3.pth (torch, 87842 bytes, 14 tensors)

bn.weight f4 [16]
000000 b0 31 82 3f 38 79 88 3f 0d 00 68 3f 6c 6d 7f 3f
       1.0171413 1.0661993 0.9062508 0.9977634
000010 40 a7 9a 3f 4a ad 8d 3f 8e ce 79 3f b5 98 89 3f
       1.2082291 1.1068509 0.975808 1.0749727
000020 09 d6 a9 3f 5a 2e 83 3f 83 04 6c 3f d3 46 8e 3f
       1.3268443 1.024852 0.92194384 1.1115364
000030 1b b1 97 3f d0 32 6d 3f 47 a3 7d 3f 80 ed 75 3f
       1.1850923 0.9265566 0.99077266 0.9606552

bn.bias f4 [16]
000000 90 6a 0b 3e c5 61 82 3d ee 48 11 be 46 7e bb bc
       0.13614869 0.06366304 -0.14187977 -0.02288736
000010 c3 29 62 3d 1f ee ec bd cb 2a 9d be 22 1f 00 3d
       0.05521561 -0.115688555 -0.3069671 0.03127969
000020 40 c3 d6 bd 51 c9 0a be 45 9a 9a 3c b8 7a 72 3d
       -0.1048646 -0.13553359 0.01887239 0.059199065
000030 64 c5 b6 bc 85 37 11 bd 35 d5 09 be 2e 05 30 bd
       -0.02231092 -0.03545334 -0.13460238 -0.04297369

bn.running_mean f4 [16]
000000 a7 a7 06 bb ec 15 51 39 83 f7 37 3a 73 cb 08 bb
       -0.0020546706 0.0001993996 0.0007017778 -0.0020873218
000010 0a d5 51 ba ce 0e 4f 3b 32 9f 8c 3a 8f 74 31 ba
       -0.00080044626 0.0031594518 0.0010728596 -0.0006769383
000020 9a f9 a0 b9 fb da d7 38 b5 8a 14 3b 27 c5 b5 3a
       -0.00030703546 0.00010292787 0.0022665684 0.001386796
000030 66 99 d7 3a 91 e6 18 3b d9 0a 3e 3b 6f 0e 3f 3a
       0.0016448915 0.0023330788 0.0028998165 0.00072882226

bn.running_var f4 [16]
000000 dd 1b e0 40 b2 01 c8 40 00 74 04 41 ea e7 c8 40
       7.0034013 6.250207 8.27832 6.27831
000010 36 86 de 40 fa f6 f5 40 ad 03 9e 40 67 a4 f3 40
       6.953883 7.6863985 4.9379487 7.6138186
000020 88 dc e0 40 e5 00 c8 40 f5 97 04 41 2f 26 c9 40
       7.0269203 6.250109 8.287099 6.285911
000030 29 9f de 40 70 ce f5 40 36 16 9e 40 44 bd f3 40
       6.9569287 7.68145 4.9402113 7.6168537

rnn.weight_ih_l0 f4 [48, 16]
000000 d7 87 15 bd 42 b2 92 bf 25 8b 39 bf 7b be 87 3f
       -0.0365065 -1.146065 -0.7247794 1.0605005
000010 57 23 95 bf 7d c9 14 bf 00 e6 3e be e4 e1 1f be
       -1.165141 -0.58119947 -0.18642426 -0.15613514
000020 88 f8 c2 3e 21 b8 d7 be 64 2a e8 3d 4b 41 38 bf
       0.3808024 -0.42132667 0.1133621 -0.7197463
000030 74 af 0e be 16 b6 9f bf 40 a5 84 3f cf d3 5c 3f
       -0.13934118 -1.2477443 1.036293 0.86260694
000040 2b 18 d7 3e 01 02 18 bf a5 b0 25 be b1 18 3b 3f
       0.42010626 -0.5937806 -0.16180666 0.7308455
000050 f9 60 d1 3d 0f bc 83 3d a2 27 7d be c7 78 66 3d
       0.10223574 0.06432354 -0.2472215 0.056267526
000060 96 e5 9f be a7 20 ee 3e 4f f0 86 3c 4c 48 d2 bd
       -0.31229848 0.46509287 0.01647201 -0.10267696
000070 a7 6b aa be b8 25 33 be fa 4d c1 be e4 30 d6 bc
       -0.33285257 -0.17494857 -0.37754804 -0.02614636
000080 77 34 ea 3d d7 e7 b3 3f 73 d8 83 3e 98 8d 02 bf
       0.11435788 1.4055127 0.25751075 -0.50997305
000090 da 68 ff 3e 7b d6 4d 3f 5b 86 a9 be ae 16 1e bf
       0.49884683 0.80405396 -0.33110318 -0.61753356
0000a0 02 53 e8 3e ea fb f4 be 53 11 92 b9 e9 3b 59 3e
       0.4537583 -0.47848445 -0.00027860198 0.2121426
0000b0 eb a8 8f bf 67 51 30 3f 3d ae f6 be 0e 64 e2 be
       -1.1223425 0.6887421 -0.48179808 -0.4421696
0000c0 83 98 95 3e 3a e4 20 3f 83 f5 a0 bd e9 53 2b 3e
       0.2921792 0.62848246 -0.07859328 0.16731228
0000d0 f6 a9 29 3f 72 b3 93 be 13 ee 09 be f5 07 43 3e
       0.66274965 -0.28847843 -0.13469724 0.19046004
0000e0 30 67 2a be 99 c7 15 3f 5b ef c5 be 42 eb 97 3e
       -0.16640925 0.58507687 -0.38659176 0.29671675
0000f0 49 7f 14 bf c9 8e 99 be 34 44 01 bf cb 38 9f be
       -0.5800672 -0.2999175 -0.50494695 -0.31098017
000100 a5 ce 94 be f4 21 14 be 23 63 81 3e 1e 7c 93 be
       -0.29063907 -0.14466077 0.25270948 -0.2880563
000110 15 93 2c bd c3 82 68 be 1b a8 92 3e 39 02 a6 3d
       -0.042132456 -0.22706132 0.2864388 0.08105893
000120 f3 84 39 be 67 b4 a0 3f 8c 07 f6 be 6f d2 1e 3d
       -0.18117122 1.2555054 -0.48052633 0.038774904
000130 74 8d ce be 8b 2c 7e be 7e 18 fc bd 2c 46 b8 3e
       -0.40342295 -0.2482168 -0.12309359 0.35991037
000140 eb 83 37 bf 36 a6 1b 3e c6 0a 37 bd bc 21 01 3f
       -0.71685666 0.15200123 -0.04468801 0.504421
000150 8b fa e2 be 35 89 47 3e f8 fd 86 bf e9 ff 04 3e
       -0.44331774 0.19485934 -1.0546255 0.12988247
000160 b6 5f 5f bf 6e 51 34 3f e3 68 a4 be 3f cf 25 be
       -0.8725542 0.7043675 -0.32111272 -0.1619234
000170 37 a3 27 bf c4 ee fa 3e c8 34 82 be 2c cf a4 3e
       -0.6548342 0.4901029 -0.25430894 0.3218931
000180 1c 54 8c be d0 84 3a 3f 91 77 8c be 76 da d4 be
       -0.2740792 0.72858906 -0.27434972 -0.41572922
000190 1d c0 4b 3e 6d 18 71 3e 28 a8 47 bf 9a 32 06 bf
       0.19897504 0.23544474 -0.7799096 -0.5242096
0001a0 e8 66 1f bf 8b 01 39 be fa 43 3d bc 36 f7 14 3f
       -0.622664 -0.18066995 -0.011551851 0.58189714
0001b0 65 0b b0 bd fb 82 0b 3f 8f ea 0e bf 15 0a 98 3e
       -0.08595923 0.54496735 -0.5582666 0.29695192
0001c0 9a d1 9c be aa 80 ee 3e 9c d7 a4 bf 71 10 00 bf
       -0.30628663 0.46582538 -1.2878299 -0.5002509
0001d0 95 9a a5 3c 50 3c 3b 3f 8b 4f 52 be f8 4f fe be
       0.020215312 0.73138905 -0.20538156 -0.49670386
0001e0 e1 85 c5 3e 95 15 80 bf 03 dc 03 3f b1 88 58 bf
       0.38578704 -1.0006586 0.51507586 -0.84583575
0001f0 bf ea 44 3f ae 85 00 3f a8 a0 f2 3e b1 ac 5e bf
       0.76920694 0.5020398 0.47388196 -0.86982256
000200 a0 2c a5 3f a6 de d2 be 85 7b fe bd da b7 f0 3e
       1.2904243 -0.41185492 -0.12425903 0.47015268
000210 96 8f 51 be 87 e5 cb bd c4 51 85 be b2 e5 5c bf
       -0.2046493 -0.09955888 -0.26038945 -0.8628799
000220 4f 3b 8c 3d a7 26 2b bf db f1 32 3f e3 ca 1f bb
       0.0684725 -0.66855854 0.6990029 -0.0024382405
000230 3b 0b ac be bf f0 e5 bc 40 f9 08 3e 89 38 b9 bd
       -0.33602318 -0.028068898 0.13376331 -0.09043986
000240 a9 b5 bd be 55 d8 60 3e 85 b2 74 bf 6c 3f b3 3e
       -0.37052658 0.21957524 -0.955849 0.35009325
000250 cd f1 b6 be 32 5c d7 be 38 23 e3 be ee d7 6e 3f
       -0.35731354 -0.42062527 -0.44362807 0.9329823
000260 26 91 1d be 5c a3 e5 3e e9 38 34 3f 42 7e 02 bf
       -0.15387401 0.44851196 0.7039934 -0.50973904
000270 f0 13 60 be 19 0b 11 3f 53 bc a0 be 89 ab 88 3d
       -0.21882606 0.5665756 -0.3139368 0.06673343
000280 e0 e7 63 3f 9f 4a 93 3f 68 ca 10 3a ee c8 43 bf
       0.8902569 1.1507148 0.0005523325 -0.7647847
000290 0a 6b 89 3f c1 a1 f6 bd 69 49 3c 3e 89 35 29 bf
       1.0735791 -0.12042571 0.18387379 -0.66097313
0002a0 d2 14 37 3f a4 d8 c3 bf 5f 02 96 3f c9 74 b5 be
       0.71516144 -1.5300488 1.1719474 -0.35440663
0002b0 03 aa 24 be cc 60 b9 3e 56 5e 16 bd 1b 93 13 bf
       -0.1608048 0.36206663 -0.03671106 -0.5764634
0002c0 60 d3 f5 ba 68 63 d0 bd 72 6e 51 bf 67 7b c9 3f
       -0.0018755011 -0.1017521 -0.8180915 1.5740784
0002d0 35 b0 40 bf ac e3 bd 3e 6c ff 80 be a6 79 c9 be
       -0.7526887 0.37087762 -0.2519487 -0.39350623
0002e0 88 9b 90 3d 73 85 ba be 6f ba b5 bd ea 4c 02 be
       0.07060915 -0.3642994 -0.0887345 -0.12724653
0002f0 6f 73 9d 3e 54 62 bd be 16 e7 7a 3e b3 d7 21 3f
       0.3075213 -0.3698908 0.24502215 0.63219756
000300 81 12 73 bf c4 ae 88 3e f3 dc be 3e e7 c8 12 3f
       -0.9495011 0.26695836 0.37277946 0.573378
000310 63 a2 40 3f e8 66 a4 be 53 e1 21 3f a9 77 39 3e
       0.7524778 -0.3210976 0.6323444 0.18112053
000320 18 66 3f 3f 6a fb 6b 3e 99 fc 8f 3d 9e 98 35 bd
       0.7476516 0.23045126 0.07030601 -0.044335
000330 49 6b 11 bf 86 36 14 bf f5 f2 86 3d d2 71 e0 3e
       -0.5680433 -0.57895696 0.06589309 0.43836838
000340 f4 15 83 3e 05 50 37 3d 45 8e 56 3e 72 93 28 bf
       0.25602686 0.044754047 0.20952709 -0.65849984
000350 5e 22 c2 3e 61 12 88 3d 21 9f 28 3e 9a 5b f1 3e
       0.37916845 0.066441305 0.16466953 0.471402
000360 7c 22 34 3e d2 5a 44 3f ed 70 3c 3d 1c 4f 08 be
       0.1759128 0.7670108 0.046006132 -0.13311428
000370 28 46 07 3f d4 2c 9a 3e 55 f8 7c be cc a9 f3 be
       0.52841425 0.30112326 -0.24704106 -0.47590482
000380 16 1e 66 3f 58 77 4b bf c6 b9 db 3e 0b 44 ed 3d
       0.8988966 -0.7947898 0.4291517 0.11585244
000390 18 36 ca bc cd 0a b1 3e dc a6 34 3f d1 f4 42 bd
       -0.024683997 0.34578553 0.7056711 -0.047596756
0003a0 3b 9e 81 3f 01 9a 05 bf a5 d6 20 3e d4 42 f7 3f
       1.0126413 -0.52188116 0.1570688 1.9317269
0003b0 48 7f 19 bf 8d ed d5 be 18 b6 15 bf 08 13 20 3f
       -0.5995984 -0.417828 -0.5848098 0.6252904
0003c0 16 83 51 3e 9d 45 8b 3e 0a a9 5a be 92 d0 a9 be
       0.20460162 0.27201548 -0.21353546 -0.3316694
0003d0 5d 60 a8 3e ac 50 b4 bf 43 fc a0 be c9 f0 06 3f
       0.3288602 -1.4087119 -0.3144246 0.5271116
0003e0 e8 f9 c0 bf 85 90 b4 3e 45 41 c1 bc eb 4b 9f bf
       -1.5076265 0.3526651 -0.023590693 -1.2445043
0003f0 61 7b 30 be 95 9c be bd 60 96 e2 3e 2f 60 99 bf
       -0.17234565 -0.093072094 0.44255352 -1.1982478

rnn.weight_hh_l0 f4 [48, 16]
000000 04 9b 55 3f 59 a6 15 3e 95 e2 0f 3e 7c c6 6e 3e
       0.8343966 0.14614238 0.14051278 0.23317903
000010 09 38 d4 3e 55 2d e6 3e a8 c5 5c 3e 83 81 2d 3e
       0.41449 0.4495646 0.21559775 0.16943936
000020 0f 0f 8a 3e 8e 31 0b bf c0 17 a9 be 62 d5 e4 bc
       0.26964614 -0.5437249 -0.33025932 -0.02793378
000030 07 01 01 bd e1 d5 5a be 30 4f 59 3e e0 9f 14 be
       -0.03149512 -0.21370651 0.21221614 -0.14514112
000040 56 e4 d2 be 41 8c 55 be 1a b5 a5 3e d3 f2 50 3f
       -0.41189831 -0.20854284 0.32364732 0.8162052
000050 d5 88 02 be c7 91 9a bf 92 40 ab bc f2 ea 12 bf
       -0.1274751 -1.2075738 -0.020904813 -0.5738975
000060 5d 89 7e 3f 52 a2 32 bf b2 59 25 3f f2 4b b9 3e
       0.9942835 -0.6977893 0.6458999 0.36190754
000070 98 3d e6 be 3a 53 ec be f7 1a 10 bf b7 a9 84 bd
       -0.44968867 -0.46157247 -0.56291145 -0.06477683
000080 4a 29 3e 3e 54 8a 49 3e e4 72 94 be db 35 56 3e
       0.18570438 0.19681674 -0.28993905 0.20918982
000090 42 ef cf 3e 42 cd 63 3e 5d 75 62 3f b0 0d 82 be
       0.40612227 0.22246268 0.8846033 -0.25401068
0000a0 5e 84 9b be 20 15 2a bd 61 98 ff be 40 39 f6 3e
       -0.30374426 -0.041524053 -0.49920943 0.48090553
0000b0 3b 47 62 be 33 bf bf 3d 06 57 a0 be a1 61 29 be
       -0.22097485 0.0936264 -0.31316394 -0.16541149
0000c0 5f 3f 7c be e1 49 5a 3b bd 8f 88 bd c7 5f e0 3e
       -0.24633549 0.0033308195 -0.06668041 0.43823072
0000d0 ce 25 08 be 0f 32 83 be 6d 15 0a 3e d6 20 5f be
       -0.13295671 -0.2562413 0.13484736 -0.2178987
0000e0 d0 45 43 be 8b ec a7 bd 58 25 b0 bd 65 c1 1a 3e
       -0.190696 -0.08199414 -0.08600873 0.15112837
0000f0 44 b8 69 3e 03 2f 52 3d ac 28 4b be 1b 31 21 be
       0.22824198 0.051314365 -0.19839734 -0.15741388
000100 d3 22 93 3e 97 3c a9 be 65 c6 5f 3f 4a 1f 64 3e
       0.28737506 -0.3305404 0.874121 0.22277561
000110 21 0a fa 3c ee f9 13 bf c0 50 0b be 7f 65 9f bd
       0.030522408 -0.5780324 -0.13605022 -0.07783031
000120 fa 1d ec be 6d 7d 0c 3e 2e c6 72 3f 49 27 79 3b
       -0.4611662 0.13719721 0.9483365 0.00380178
000130 33 d7 b8 be c9 66 e3 3d b9 01 46 bd ed d5 c1 3e
       -0.36101684 0.11103589 -0.048341487 0.37858525
000140 d3 5a e7 3e 2e 75 de be 14 1f 11 bf cb 40 f7 be
       0.4518648 -0.43448776 -0.56688046 -0.4829162
000150 e2 a6 4d 3f a2 7b 8f be af 64 59 bc 3c 0e c2 3d
       0.8033277 -0.28024012 -0.013268634 0.09475371
000160 ad fd 08 bf c7 ce 4b be a8 9c ce 3e e4 f2 49 bd
       -0.5351208 -0.19903098 0.40353894 -0.049303904
000170 a1 f2 a8 be bd 1e 31 3f 14 d8 a0 3e 7a 16 ae 3e
       -0.3299761 0.6918753 0.31414855 0.34001523
000180 56 2a d7 3d 1f cb b6 3d da 75 c6 bd e6 82 d3 3d
       0.10506122 0.08925461 -0.09690447 0.10327701
000190 3d 1f 84 be 28 70 11 3e 7e bf 88 3e 69 09 d5 bd
       -0.25805083 0.1420294 0.26708597 -0.104021855
0001a0 fe 3d 31 3e 84 f9 26 be 3b 49 70 be 02 c4 85 be
       0.17308804 -0.1630612 -0.23465435 -0.26126105
0001b0 c4 51 04 3e b2 ea 16 be 65 1c 53 be ad bb cd be
       0.12921816 -0.14737967 -0.206163 -0.40182248
0001c0 d1 c2 2e bd 5e 1d 91 bc 16 f3 f5 be 3c 9e 0d 3e
       -0.04266626 -0.017714199 -0.48037022 0.13829893
0001d0 35 6f 9f bd 3f 3e 87 3e df 80 db 3e 7e 2a e8 be
       -0.07784883 0.26414678 0.42871758 -0.4534492
0001e0 c0 1c 5b 3d b8 9e 84 be b2 ef 39 3d ce d8 01 be
       0.053494215 -0.25902343 0.045394607 -0.1268036
0001f0 a7 ec 3b 3e db f7 21 3e 32 8a 32 bf c6 65 e3 be
       0.18351994 0.15817206 -0.6974212 -0.44413584
000200 ee 86 eb 3c b9 93 8c bd 8a 07 3d 3f d7 42 c1 3e
       0.028750863 -0.06864113 0.7383963 0.37746307
000210 72 7d c3 3e fc f5 d2 bf 6f 6a 63 3e 16 c3 9b 3c
       0.38181645 -1.6481318 0.2220857 0.019013923
000220 63 d9 53 be f7 52 0f bf 55 a2 d2 3e 09 e1 3f be
       -0.20688395 -0.5598597 0.41139475 -0.18738188
000230 47 bf 57 be 8c 9f a5 3d 31 d9 d2 3e d9 ec 05 3f
       -0.2106906 0.08087072 0.4118133 0.52314526
000240 3a 5b d6 3e 2a 18 06 3f 68 43 75 be 2a 33 04 3f
       0.41866475 0.5238062 -0.23951495 0.5164057
000250 20 47 16 bd 0d a0 ef 3e d5 52 cf be bf e6 82 bd
       -0.036688924 0.46801797 -0.40492883 -0.063916676
000260 26 2e 1a 3f d2 5b b9 bd 7a a5 5f 3f 5c 14 59 be
       0.60226667 -0.090507165 0.8736187 -0.21199173
000270 9b 90 f1 3e a4 03 86 3c 9d c5 92 3c ec 84 77 3e
       0.47180638 0.016359158 0.017916495 0.241718
000280 dd 88 91 3e 31 5a 96 be a8 ba ad bf 0f 1e 9c 3e
       0.2842473 -0.29365686 -1.3572588 0.30491683
000290 eb 20 ae 3e 62 25 48 3f 2c d8 26 be dc fb d0 3e
       0.3400949 0.7818204 -0.162934 0.40817153
0002a0 04 e9 b0 3e 00 6b d1 be cd 68 74 3d 47 a8 2a 3e
       0.34552777 -0.40901947 0.05967026 0.16665755
0002b0 b3 32 a4 be 57 ef a6 3d 9e 5d 4e 3f d6 b7 35 be
       -0.3206993 0.08151119 0.806116 -0.17745909
0002c0 55 a5 56 bd f5 33 62 3d bb 5d 53 be bd 5a 12 3e
       -0.052403767 0.05522533 -0.20641224 0.14292426
0002d0 0e 82 d3 3f 99 3c 48 3e 39 29 40 3f af 36 21 bc
       1.6524065 0.19554366 0.750629 -0.009839698
0002e0 33 44 6d bf 81 03 b2 be a8 02 07 bf 07 28 ba 3e
       -0.9268219 -0.34768298 -0.5273843 0.36358663
0002f0 ea 66 96 be d6 72 81 39 74 6d a8 3e ec 9b 0f 3e
       -0.29375392 0.00024690357 0.32896006 0.14024323
000300 47 81 f0 3d a8 cb 00 3e 51 29 0a bf 30 7b 39 bd
       0.11743408 0.12577689 -0.53969294 -0.045283496
000310 34 83 d5 be 07 e3 eb 3e a8 a0 01 bf 39 66 f8 be
       -0.41701663 0.46071646 -0.50635767 -0.4851549
000320 52 a6 56 3f d3 06 9b 3d d3 70 12 be f1 b2 ff 3d
       0.83847535 0.07569661 -0.14300852 0.12485302
000330 39 9c 58 bd 97 da 99 be 82 15 2e bf ca 37 0f bf
       -0.05288336 -0.30049583 -0.6800157 -0.559445
000340 7e d4 2b 3e a8 07 59 3e e7 85 9c bd bf 66 a9 3e
       0.16780278 0.21194327 -0.07642727 0.33086202
000350 36 b4 0d 3f 9f b6 26 be 25 81 51 bd a4 cb 20 3e
       0.55353105 -0.16280602 -0.051148552 0.15702683
000360 8c 63 4d be 0f 5b f8 be 3c 5f cb bd 0d 75 ab be
       -0.20057505 -0.48506972 -0.09930274 -0.3348774
000370 f5 84 36 3d e7 b9 83 3d 40 59 41 be cf 33 90 3e
       0.04456039 0.064319424 -0.18881702 0.28164527
000380 12 3e 1e 3d d3 2a f0 bd 81 b1 7d 3e 86 cf 33 3f
       0.038633414 -0.11726918 0.24774744 0.7023853
000390 03 87 6b 3d 9b 53 6b bf ba 34 11 3e 44 89 03 3d
       0.057501804 -0.91924447 0.1418027 0.03211333
0003a0 ae 73 7c 3d a1 7c 52 be 5a 07 7e 3f 1b e1 89 be
       0.06163376 -0.20555355 0.9922997 -0.26929554
0003b0 1c 11 a7 bd 08 32 09 3e 4d c8 8b bd e6 1e f6 3d
       -0.0815756 0.13397992 -0.06825314 0.12017612
0003c0 a1 ba 10 3e 41 54 8d bd 23 38 0f bc b0 ab 70 3e
       0.14133693 -0.06900836 -0.008741411 0.23502994
0003d0 30 49 08 3e 74 1f 85 be bf e4 c3 3e fc 1a 5d be
       0.13309169 -0.2600056 0.38260457 -0.21592325
0003e0 c7 38 ee 3d 57 c9 76 3e 35 3c 80 3e 4e cd dc be
       0.11631923 0.24100243 0.25045934 -0.43125385
0003f0 4e e6 6c be 86 e2 b2 be 4b 25 9e be 25 6f ea be
       -0.2313473 -0.3493845 -0.30887827 -0.45787922

rnn.bias_ih_l0 f4 [48]
000000 a5 3b 96 3d 5d 56 67 be 2e 4a 06 be 19 35 86 bd
       0.07335595 -0.22591539 -0.13114235 -0.06553096
000010 ae 2f 05 be 7e d5 f9 bd ac 10 05 3e 45 11 fc 3d
       -0.1300647 -0.121989235 0.12994641 0.123079814
000020 ef c7 74 bd a9 e1 8a 3e 64 8a da be 4a c8 5e 3d
       -0.059760984 0.2712529 -0.4268371 0.05439023
000030 6d 64 b3 bd e3 49 fe bc 7a b9 ec bd 97 37 4e bd
       -0.08759389 -0.031041091 -0.11558814 -0.050345983
000040 65 b5 7e 3f c6 f2 c3 3f 1d 8d 77 3f 78 3f aa 3f
       0.99495536 1.5308464 0.96699697 1.3300619
000050 ef d0 b4 3f 3f ce 81 3f 50 e0 b5 3f 83 88 ab 3f
       1.4126261 1.0141066 1.420908 1.3401035
000060 52 05 b9 3f df d5 c3 3f b1 fc a3 3f 56 0c a6 3f
       1.4454749 1.5299643 1.281149 1.2972515
000070 9a d9 be 3f a2 14 95 3f 16 77 7c 3f af e3 b1 3f
       1.4910157 1.1646922 0.9861921 1.3897609
000080 5d 14 d7 bd b2 14 cc 3d b2 28 de b3 36 47 06 3e
       -0.10501931 0.09964885 -1.0345083e-07 0.13113102
000090 b9 80 91 3d 69 6f 2a be 5b 14 1d 3c f9 bc c3 3d
       0.0710463 -0.16644062 0.009587373 0.09557528
0000a0 8a 4d 00 3e 7c cb 6a bd 74 ac 23 3e a6 f5 ab bd
       0.12529579 -0.057322964 0.15983754 -0.08396463
0000b0 45 28 52 3e 27 5a 13 3e d3 36 3b 3b 53 50 9c 3e
       0.20523174 0.14389859 0.0028566613 0.30530033

rnn.bias_hh_l0 f4 [48]
000000 98 f9 2c bd df ba 5f be b8 20 47 be e5 ed 7d 3c
       -0.04223022 -0.2184863 -0.19446075 0.015498613
000010 43 1f 3d 3d 9b 9e 86 be dd ae 3d 3e 29 c5 31 3e
       0.04617239 -0.2629288 0.18523736 0.17360367
000020 af b3 ab 3b a3 a0 b6 bd 27 f0 08 bf e0 1a 33 be
       0.005239926 -0.08917358 -0.53491443 -0.17490721
000030 62 19 0e be ed e9 98 bc 87 3d 25 3d 66 54 64 3d
       -0.1387687 -0.018666232 0.04034188 0.05574455
000040 34 c6 8f 3f a3 15 8b 3f 94 73 84 3f 05 7b a7 3f
       1.1232362 1.0865978 1.0347772 1.3084418
000050 8b 5f 85 3f c0 d8 99 3f d9 3c 8d 3f e4 d9 a2 3f
       1.0419782 1.2019272 1.1034194 1.2722745
000060 a9 f3 a9 3f fe cb 99 3f db f8 73 3f a1 6e be 3f
       1.3277484 1.2015378 0.953016 1.4877511
000070 06 37 a8 3f 9d 1f a8 3f 2c 89 64 3f d9 58 a6 3f
       1.3141792 1.3134648 0.8927181 1.2995864
000080 bd 5a 3a 3e a6 6b 07 bc db 9e 7d bb 6f 68 40 bd
       0.18198676 -0.0082654115 -0.0038699422 -0.046974596
000090 f5 cd a0 3c 63 79 74 be 02 45 81 3e 7a 73 8c be
       0.019629458 -0.2387443 0.2524796 -0.27431852
0000a0 be 75 10 be 7f 9d b2 3c d0 d8 b2 3c 76 c2 ae 3b
       -0.14107415 0.021803616 0.0218319 0.00533324
0000b0 e8 f5 fd 3d 9e 5f 43 3e 19 c9 82 be 9e 96 79 bd
       0.124004185 0.19079444 -0.2554405 -0.060934655

mlp.0.weight f4 [128, 16]
000000 7c 10 49 3d aa 61 4f 3c 57 b3 08 be 3c ab f6 3d
       0.049087986 0.012657562 -0.13349663 0.12044379
000010 5e 27 21 3f 0e 4f 1b 3d e6 ba 21 be 51 e9 6b be
       0.62950695 0.03791719 -0.15793952 -0.23038222
000020 21 ad 82 3e 2f 86 3c be 1c 43 a3 bd 5c 72 bf bd
       0.25522712 -0.18410562 -0.079717845 -0.09347984
000030 8e c3 99 be 37 11 e7 be 64 f8 b5 3d 8c 4a ec be
       -0.3003201 -0.4513032 0.088852674 -0.46150625
000040 9a 8e 63 bd 5d b0 c9 be 09 06 da 3c 04 4c 02 be
       -0.055555917 -0.39392367 0.026614206 -0.1272431
000050 6c a0 f2 3d 19 ee 5d 3c ba bc 04 3e 4e d4 d3 be
       0.11847004 0.013545536 0.12962618 -0.41372913
000060 cf ce b7 3d d1 cd cd bd dc 29 eb 3e 9e 85 3d 3e
       0.089749925 -0.10049022 0.45930374 0.18508002
000070 cc 4d d1 be b6 2d c4 3e 43 53 5f bd b5 b2 1a be
       -0.40879667 0.38316125 -0.054522764 -0.15107234
000080 f4 fb 11 3e 13 68 e1 3c de 67 41 3d ea 91 89 3e
       0.14256269 0.027515447 0.047218196 0.26869136
000090 3d 64 2f 3e 83 d3 1a be 71 33 bb 3c 06 26 e9 3d
       0.17128082 -0.15119748 0.022851678 0.113842055
0000a0 cd 0c 14 3e e3 59 fc bd 52 00 a2 bc 53 ca e3 bd
       0.14458008 -0.12321832 -0.019775543 -0.11122575
0000b0 14 20 07 3e ca d5 ee 3d 26 a4 e9 3d aa c9 28 3e
       0.1319583 0.11661871 0.11408262 0.16483179
0000c0 bb 1d 39 3e 61 b5 a9 be 4b a0 8a be 63 e3 ae be
       0.18077748 -0.33146194 -0.2707542 -0.34157857
0000d0 7e 10 9b 3e 5a bd b6 bc 8d f3 a3 be 6f 13 2c bf
       0.3028602 -0.022307087 -0.32021752 -0.67217153
0000e0 05 72 d0 be cb 7d 1b 3e 8b c8 0f 3e e2 1c 04 3e
       -0.4071199 0.15184705 0.14041345 0.12901643
0000f0 f2 0f 8f be 08 1d a5 bd bd 67 45 be ef 50 e4 be
       -0.27941853 -0.08062178 -0.19277854 -0.44592997
000100 5b 41 88 3e f1 8f e1 3d f2 8e 06 be d9 61 e3 3d
       0.26612362 0.11013783 -0.13140467 0.11102647
000110 ed 70 21 be 91 57 89 3e f8 21 b9 bc 9e c5 97 3e
       -0.15765734 0.2682462 -0.022599205 0.29642957
000120 4d 91 e6 3d 52 2a d9 bd e2 84 97 3e e2 9a e0 3d
       0.11258183 -0.10603775 0.2959357 0.109670416
000130 d6 a9 62 3e 9e a3 08 3e 96 0e 94 be e2 67 f5 bb
       0.221351 0.13343665 -0.28917378 -0.0074891904
000140 97 f8 28 bc 4f 3d aa bd b8 f7 20 3f 76 55 2b bd
       -0.010313175 -0.08312475 0.6287799 -0.04182955
000150 81 32 51 3e 2f 06 bc bd 6c 8d ed be c1 e9 9a be
       0.20429422 -0.09180867 -0.4639696 -0.30256465
000160 76 5b 62 be 22 19 83 bc d8 53 07 3f 8a 2a ce 3d
       -0.22105202 -0.016003195 0.5286231 0.100667074
000170 f3 60 89 3e bb 23 15 bd e9 da 64 3e b8 be 68 bc
       0.2683178 -0.03641103 0.22349133 -0.014205627
000180 41 36 10 3f 5f 0b b7 be 5b 70 2e bd f9 4b 01 be
       0.56332785 -0.35750863 -0.04258762 -0.12626638
000190 74 20 3e bd b8 ab e9 3d 77 b5 3c bf b4 46 54 be
       -0.04641767 0.11409706 -0.73714393 -0.20730096
0001a0 a0 51 37 3e 44 83 b0 3e de c3 bf 3d db 9a 64 3b
       0.17902231 0.34475148 0.093635306 0.003488234
0001b0 e6 d0 0e bd ac f5 88 3e 12 e9 2d be 3e 54 f5 be
       -0.03486719 0.26749933 -0.1698344 -0.47915834
0001c0 62 58 04 3f 43 ed 6a 3d 68 33 a7 bd cc a5 ba be
       0.5169736 0.057355177 -0.08164102 -0.36454618
0001d0 d8 b9 35 be 6f 43 8e bc 16 6e 02 3e c7 04 f1 3d
       -0.17746675 -0.01736614 0.12737307 0.11768489
0001e0 39 95 8c 3e d6 3e 80 bd 0b 78 b4 bc 40 d4 27 be
       0.27457598 -0.06261985 -0.022029897 -0.1638956
0001f0 17 9a 25 3d 72 18 9f 3e 2a 02 98 3e 91 67 cd bc
       0.040430155 0.31073338 0.2968915 -0.025073798
000200 71 22 95 3e 9b ec 3d be 50 93 f7 bb 00 3f 80 be
       0.2912784 -0.18547289 -0.007555403 -0.25048065
000210 c5 e6 eb 3d a6 8f 20 be a4 1e c9 bd 42 39 40 bc
       0.11518625 -0.15679798 -0.09820297 -0.011732401
000220 74 1d fc bd 2a 25 2e be 43 f6 49 3d db 68 e1 3e
       -0.12310305 -0.17006364 0.04930712 0.4402531
000230 8b ca e2 bd 42 8b 03 3e 6b c3 d6 39 6c c6 cb be
       -0.11073788 0.12846091 0.00040962858 -0.3979982
000240 fd 5e 3f be a3 76 2a be 76 a3 d8 bd c9 bf 03 3e
       -0.18688579 -0.16646819 -0.10578053 0.12866129
000250 de 7c 99 3e 35 eb 45 3d ee 95 55 3e 29 00 d8 bc
       0.2997808 0.048320014 0.20857975 -0.026367264
000260 a3 05 2e be 6a 96 82 3e 43 90 83 bd 67 98 98 bd
       -0.16994338 0.25505382 -0.06424 -0.074509434
000270 3a 7d 52 be bc 04 05 be b1 4b d9 bc 10 a8 58 be
       -0.20555583 -0.12990087 -0.02652535 -0.21157861
000280 98 e0 0a 3e 00 3e 41 3c ae 56 bd bb 46 1c 53 be
       0.13562238 0.011794567 -0.0057781553 -0.20616254
000290 6a a9 7d 3d 34 0b 59 3d 9e e2 42 3e 43 e7 4a 3e
       0.061929144 0.0529892 0.1903176 0.19814782
0002a0 bb c6 01 be 2c af 22 3e 91 40 7a bd 6b 20 6f 3e
       -0.12673466 0.15887135 -0.06109673 0.2335221
0002b0 f6 e9 4d 3e c7 02 54 3e 31 9f da 3d 0b 76 80 bd
       0.2010878 0.20704184 0.106748946 -0.06272515
0002c0 92 7e eb be 37 cb 69 be ab 4f dd 3e f2 0e c1 3e
       -0.45995003 -0.22831427 0.43224844 0.37706715
0002d0 2e 76 8d 3d 4a 28 a3 3e de 32 44 3e 68 fa 24 3d
       0.069073066 0.31866676 0.1916003 0.04027787
0002e0 8f db 0d be 7b 95 87 3e a8 0a 37 bb 27 a1 0e 3f
       -0.13853286 0.26481232 -0.0027929936 0.5571465
0002f0 dd a2 54 be 61 cb 23 bc ec a8 bf 3b 3d 32 c5 be
       -0.20765252 -0.00999722 0.0058489945 -0.3851489
000300 c6 af d7 3e a3 30 00 bd 5d 31 f5 bd 08 d3 ff bd
       0.42126292 -0.031296384 -0.11972306 -0.12491423
000310 51 44 3a be 89 b2 0a bd 33 fa c7 3d 20 7c 04 3e
       -0.18190123 -0.03386167 0.097645186 0.12937975
000320 e7 a1 4e bb dc 5a c0 3d 27 80 ca 3d 59 18 68 be
       -0.0031529607 0.0939233 0.09887724 -0.22665538
000330 39 22 b7 bc 4e c4 f8 3e b5 99 a9 bc 0c 93 5b 3e
       -0.022355186 0.4858727 -0.020703176 0.21442813
000340 84 5c a1 3d 0c 89 b4 3d 27 8d 9c 3e a6 33 75 be
       0.07878974 0.08815202 0.3057644 -0.23945484
000350 40 07 07 3e 54 9d 98 bd 4d 6e 61 3e 8f 4c 55 3e
       0.1318636 -0.07451883 0.22014733 0.20829986
000360 5f 62 e3 bc 39 b0 98 3e ee 61 06 be da 79 80 bd
       -0.027756868 0.29821947 -0.13123295 -0.06273241
000370 26 2b 8e 3c bb 59 2f 3e 6f 95 0a bd 16 f2 b2 bd
       0.01735456 0.17124073 -0.033833917 -0.087375805
000380 9f 06 b6 bd 8e 26 21 be 5a 08 3c bf d8 61 05 3e
       -0.088879816 -0.15737364 -0.73450243 0.13025606
000390 2f 47 64 3d c2 1f 13 be 7c 1b e9 bd a3 25 4a be
       0.05573195 -0.14367583 -0.11382195 -0.1974092
0003a0 69 69 83 bc d4 ea a0 be 02 52 0f 3f 26 d5 42 3e
       -0.016041474 -0.3142916 0.5598451 0.19026622
0003b0 81 62 f4 be d1 db 98 bc 18 4f 45 be 58 1a 12 be
       -0.47731403 -0.018659504 -0.19268453 -0.14267862
0003c0 ac 8b 22 3e 1d 61 e4 be 51 83 1d 3d 01 4e 88 3d
       0.15873593 -0.44605342 0.03845531 0.06655503
0003d0 8b 6f f0 3c 72 92 f3 3c 52 67 e1 bd dd d4 02 bd
       0.029350063 0.029732917 -0.11006035 -0.031941283
0003e0 1a e8 04 3e 2b bd 27 3d 30 ac 3c be 28 f3 09 3d
       0.12979165 0.04095189 -0.1842506 0.033679157
0003f0 24 a6 b3 3b 80 4a 36 be f3 54 05 3e a9 80 74 be
       0.005482452 -0.17801857 0.13020687 -0.23877205

mlp.0.bias f4 [128]
000000 5d ab 4c bd 58 48 8d 3d 27 f6 93 3d 38 69 f9 bd
       -0.049968112 0.06898564 0.07224684 -0.12178272
000010 7a e8 c3 be 28 50 65 be 5d ef 48 be ad e6 c2 3c
       -0.38263303 -0.22393858 -0.1962256 0.023791635
000020 74 55 2c be 1d be 17 3e 47 69 5a 3e 01 a5 a3 be
       -0.16829473 0.14818616 0.21329223 -0.31961825
000030 5f d3 0e 3e be 02 e2 3c 48 33 3a be 68 8c 2b bd
       0.13947819 0.027589198 -0.18183625 -0.04188195
000040 1f 7a d4 3c 86 64 7d 3d 73 65 96 be cb 3f b4 be
       0.025937138 0.061863445 -0.29374275 -0.3520492
000050 38 47 1e be 4a 04 43 be ab c7 6b bd 68 45 5e be
       -0.15456855 -0.19044605 -0.057563465 -0.21706164
000060 4a 8f 4b be 3b 1c 12 be 9c cc 2a be 94 0d 5c be
       -0.19878879 -0.14268582 -0.16679615 -0.21489555
000070 d2 30 8f be 82 bc da 3c 3a e8 56 be 81 a0 8f 3d
       -0.27966934 0.026701216 -0.20987025 0.070130356
000080 84 9a e0 be 86 8a 8b 3e ca ac a9 be 02 64 f2 3d
       -0.43867886 0.27254122 -0.3313964 0.11835481
000090 54 7a 80 3e 19 eb 4f be 2e 64 1b be f3 31 60 3e
       0.2509333 -0.20304526 -0.15174934 0.21894054
0000a0 5d e4 12 3e 6a 77 58 be ff b4 b1 be 7b e2 23 3e
       0.14344926 -0.21139303 -0.34708402 0.16004364
0000b0 99 4c b1 3d 78 e0 e5 bd 47 ae 7a be 96 74 72 3e
       0.08657188 -0.11224455 -0.24480544 0.23677287
0000c0 6a 6b 64 be 2b 61 3f 3e 4d 46 9a be ea 89 32 3e
       -0.223066 0.1868941 -0.3013176 0.17435423
0000d0 20 97 c3 be 40 3c 9a bd 41 3b e7 be b0 9d 0a 3d
       -0.38201237 -0.07531023 -0.45162395 0.03384179
0000e0 9b 1c 0c be 64 e2 c8 bc 18 1d 74 be 56 54 71 3e
       -0.13682787 -0.024522014 -0.23839223 0.23567328
0000f0 84 40 1b 3e 00 a5 92 3d 34 55 ad bc c5 7e e4 bb
       0.1516133 0.071603775 -0.021158792 -0.00697312
000100 8d 86 9a be 7e 14 d2 be 3f 42 9d be a1 88 17 3e
       -0.3018078 -0.4103126 -0.30714604 0.14798214
000110 11 36 d7 bd 48 7e 4c be 22 70 b6 3d 56 b2 83 3c
       -0.10508359 -0.19970047 0.089081064 0.016076248
000120 98 51 2f be 15 33 bd 3d 98 6a dd 3d cb 7f 0a bf
       -0.1712097 0.09238259 0.10811347 -0.54101247
000130 c5 9c 6d 3e ef bf 66 bc b2 e2 0a 3e e1 6e 60 3d
       0.23204334 -0.0140838465 0.1356304 0.054793242
000140 25 4b 48 3e a4 01 a4 3d a0 92 c4 bd 03 55 62 3e
       0.19559915 0.080081254 -0.09598279 0.22102742
000150 71 20 4b be 38 06 a7 be 1b d2 0f 3d 82 10 00 bf
       -0.19836594 -0.32621932 0.03511248 -0.5002519
000160 ce 96 2c be 76 e6 38 be 56 02 81 3d 43 c9 8e be
       -0.16854402 -0.18056664 0.06299274 -0.27887926
000170 9c 96 4b 3e da 15 04 be 9d 5a 94 be b1 e9 a0 be
       0.19881672 -0.1289896 -0.28975382 -0.31428292
000180 8d 59 da 3a 75 ed c7 3c 6a e9 75 3d 48 4b 2b bd
       0.0016658768 0.02440522 0.060037054 -0.04181984
000190 cb a3 55 3e 21 95 6e be cd 8c 84 bd 75 fc 1b be
       0.20863263 -0.23299076 -0.06472168 -0.15233023
0001a0 3d 4c 94 bd 0d da be be e8 e1 93 be e7 d5 0d 3d
       -0.07241104 -0.37275735 -0.2888329 0.03462782
0001b0 e6 b7 d9 3c 16 65 bb 3d 11 ef aa be bb 8b 12 be
       0.026576947 0.0915014 -0.33385518 -0.14311115
0001c0 d5 dd ba 3d 95 35 85 be 41 55 72 bc e0 96 98 be
       0.09124342 -0.26017442 -0.014790834 -0.29802608
0001d0 3b 42 23 3e 4f f3 c4 be 50 d6 33 bd 43 aa 76 be
       0.15943234 -0.3846688 -0.043905556 -0.24088387
0001e0 95 bc 9e 3d aa 89 16 bc 9c 7c 17 3e 8d fd 3e be
       0.07750813 -0.009188095 0.14793628 -0.1865141
0001f0 f2 d5 e3 be 17 42 c6 be 53 e2 e2 bd 10 df 35 bc
       -0.44499165 -0.38722298 -0.11078324 -0.0111005455

mlp.2.weight f4 [128, 128]
000000 d1 f8 07 be 64 8a 0f bc d0 8c 86 bd 65 31 bb bc
       -0.1327851 -0.008761022 -0.065698266 -0.022850702
000010 f9 a4 36 3d 42 44 56 be 2e 52 1f bd ad 7e 56 3c
       0.044590924 -0.20924476 -0.038896732 0.013091725
000020 1e 5d 0e 3c 53 51 25 3e 41 36 91 bd 7c a8 a6 bd
       0.008689193 0.16144304 -0.07090426 -0.081376046
000030 84 85 8f bd 95 74 71 bd b5 49 36 3d 09 fc 4c 3d
       -0.07007888 -0.058949072 0.044503886 0.050045047
000040 11 92 c6 3d 9e 79 57 3e b0 0e c2 bd 7a fb 7a bc
       0.09695829 0.21042487 -0.09475458 -0.015318746
000050 77 65 a8 bd 66 b0 11 bd 03 61 02 3d 15 ac 41 3e
       -0.08222478 -0.035568617 0.0318308 0.189133
000060 c4 9d b0 bc b7 be 39 be a9 9e b5 be 59 75 11 bd
       -0.021559604 -0.18139158 -0.3547261 -0.035512302
000070 f9 b3 1e 3c 3d 21 03 3d 63 d1 52 bd 88 ca 43 3c
       0.0096864635 0.03201412 -0.051469218 0.011950143
000080 18 e4 1d 3d ab a5 d1 ba 7e df 08 be d8 c0 98 bc
       0.038547605 -0.0015994807 -0.13366506 -0.018646643
000090 f3 68 74 3d 32 9f 96 3c 39 70 64 3d 93 c7 bc bd
       0.0596704 0.018386457 0.055771086 -0.09217753
0000a0 5e b9 db 3d 93 9a 93 bd 19 fd 62 bd dd 7f 23 bd
       0.10728715 -0.07207217 -0.055417154 -0.03991686
0000b0 9f 75 70 bd 38 44 21 be 69 9f 2c bd b0 05 6b 3d
       -0.058705922 -0.1574868 -0.042144213 0.05737847
0000c0 69 b0 34 3c b0 e8 c3 3d 48 cf 19 3e 4a 57 1f bd
       0.011028388 0.09565866 0.15020478 -0.038901605
0000d0 e3 16 57 be 84 f3 13 bd 45 6f 2e be f8 49 26 3d
       -0.21004824 -0.036120906 -0.17034633 0.040597886
0000e0 8d 07 82 bd eb b6 8f bd d7 2d a8 bd c4 b1 bf bd
       -0.063490964 -0.07017311 -0.08211868 -0.09360078
0000f0 88 1c 78 be 84 1d 84 bc dd b7 57 3d 52 a9 00 be
       -0.24229634 -0.016127355 0.05266558 -0.1256459
000100 84 87 16 be d2 63 72 bd 93 88 14 bd d6 06 40 3d
       -0.14700133 -0.059177227 -0.03626306 0.04688152
000110 8e bc c1 bd 93 a5 a3 bd 29 7f 40 bd 9b 40 a8 3d
       -0.09459792 -0.07990565 -0.04699627 0.082154475
000120 a8 a0 0e be 2d 2c 6e bd b2 64 90 bd 45 41 e1 3d
       -0.13928473 -0.058147598 -0.07050456 0.10998777
000130 bb be 3c 3c ce 66 55 bb e7 15 ad bd e0 cd 39 3d
       0.011520083 -0.0032562497 -0.08451443 0.045362353
000140 6e 47 9f bd a4 e3 ca bd be 2e 52 bd 98 9b 6e bd
       -0.07777296 -0.099067 -0.051314108 -0.058253855
000150 cf 5b a0 be f1 21 9f bd c5 e9 9c bd 60 de 4d bc
       -0.31320044 -0.07770146 -0.076617755 -0.012565225
000160 4c cb 5e be 8d e2 11 be c6 1f e5 bc 3f d7 1b bd
       -0.21757239 -0.14246579 -0.027969252 -0.03804707
000170 e0 a5 e8 bd d8 91 00 3e 72 57 29 bd ab f6 dd bd
       -0.11359763 0.12555635 -0.04134316 -0.10838064
000180 bb 91 91 bd af a1 be bc dd bf 2c 3e 1d ef bc 3d
       -0.07107874 -0.023270456 0.16870065 0.09225295
000190 9c 37 00 3e 13 44 42 be 7a fc 60 3d b3 10 07 bd
       0.12521213 -0.18971281 0.05492828 -0.03297491
0001a0 b2 4c ee 3d 71 8c a9 bd 77 06 5e 3d 22 6e c1 bb
       0.11635722 -0.0827874 0.054205384 -0.0059030214
0001b0 4d 20 fc 3c 3e cd c4 bd 81 90 92 bd 10 cf a2 bd
       0.030777121 -0.09609459 -0.07156468 -0.0794965
0001c0 e8 f0 a9 bd cc de c8 bd 3b 37 b4 bd ac 1d 13 3d
       -0.08297902 -0.0980812 -0.08799597 0.03591697
0001d0 bb b7 f8 bd 47 cf 02 3d c0 4b a1 bd 30 ea 0c be
       -0.12144419 0.031935956 -0.07875776 -0.1376121
0001e0 a8 aa 7b bd cd e3 8f 3a 99 71 bc 3d c5 64 55 be
       -0.061442047 0.0010977924 0.092013545 -0.20839222
0001f0 d2 4a 56 bd 39 66 4c be 7d db 29 bd a8 d7 3f bd
       -0.052317448 -0.1996087 -0.041469086 -0.046836525
000200 1c 51 43 3d 3a 28 0a be 5e 4d 04 be e6 7b e9 bd
       0.047684774 -0.13491908 -0.12920138 -0.11400585
000210 38 b8 b5 bd fc 54 68 3d 57 6a 08 be d2 6f 82 bc
       -0.088730276 0.056721672 -0.13321815 -0.01592246
000220 2c 1b 1c bd 7b ed 14 3c 3e 8e f7 bb fd 5a b1 bb
       -0.03811185 0.009089823 -0.0075547984 -0.005412458
000230 9e 67 89 bd 89 2e 2a be 74 6a b5 bd 63 d2 db bd
       -0.067092165 -0.16619314 -0.08858195 -0.107334875
000240 10 04 ae 3c ab dd 95 bd 3b a1 e0 bc d8 87 36 3c
       0.021242172 -0.073176704 -0.02742063 0.011140786
000250 03 73 76 bd cd cf 78 bc 6a a3 aa bc 34 84 00 be
       -0.060168277 -0.015186262 -0.020829875 -0.12550431
000260 5d ec e1 bc 64 e3 f2 bb 9c b7 df bc f7 eb 88 bd
       -0.027578527 -0.007412361 -0.027309231 -0.06685632
000270 03 ff ca bd 0e 5b c2 bc 84 6f 37 3c e7 06 2a bd
       -0.09911921 -0.023725059 0.011196021 -0.04151049
000280 67 e1 e1 bd 96 bd 1c bc fa b5 9b bd ca 39 89 bd
       -0.1102932 -0.009566685 -0.07603069 -0.067004755
000290 e1 84 f7 bd 1e 99 8e bd 00 08 fd bd e1 81 8e 3b
       -0.120858915 -0.069627985 -0.123550415 0.004348979
0002a0 9f ad ce bc 93 b7 d5 3c e1 4f 0f 3d b2 bf 97 bd
       -0.025229273 0.026088512 0.034988288 -0.0740961
0002b0 da e0 ac bc 4f 88 1d bd f8 11 8b bc 30 71 0f bc
       -0.021103311 -0.038460072 -0.016976342 -0.008755013
0002c0 e2 a8 a5 bd f8 2e 17 bc 18 2f e4 3d 21 50 b6 bc
       -0.080888525 -0.009227507 0.11141795 -0.022255005
0002d0 8a 67 e1 bd c8 e7 d3 bd 87 99 da bc ed da 4a bc
       -0.11006077 -0.10346943 -0.026684536 -0.012381298
0002e0 e7 3c eb bc 3f 46 8b bd 75 d9 99 3d b4 97 92 3d
       -0.028715564 -0.06800508 0.0751218 0.07157841
0002f0 d0 dc 7f bd d5 53 d5 bc 61 70 89 bd 1e 01 00 be
       -0.062466443 -0.02604095 -0.06710888 -0.12500426
000300 dc 9c 26 3d 11 fe fe bb d7 a1 00 be 41 49 a5 bd
       0.040676937 -0.007781752 -0.12561737 -0.08070613
000310 c0 c6 53 3c 6e ee 53 bd 39 0e 0a bd 89 52 9a bd
       0.012925804 -0.051741056 -0.03370497 -0.075352736
000320 a8 a3 02 bd d4 09 7d bc 0a 84 29 be 7b 13 f3 bd
       -0.031894356 -0.015444238 -0.16554275 -0.1186895
000330 16 76 9f bc 4e 0c b4 3c bb da 16 be cb 76 e2 bd
       -0.019465487 0.021978524 -0.14731877 -0.11057814
000340 bb 81 15 be a0 6e 0e 3d f3 c7 cb bb de 12 0e bd
       -0.1460027 0.03477347 -0.006218904 -0.034685962
000350 85 10 23 be a2 c4 c1 3c 79 12 86 bd a0 2a f2 bc
       -0.1592427 0.023653332 -0.06546492 -0.02956134
000360 95 97 1a 3b 77 97 f3 3a 64 8f d6 bd d9 d6 cb bc
       0.0023588885 0.0018584569 -0.10476568 -0.02488272
000370 dc cb 0b be 0f 67 f9 bd 23 10 aa 3d fd 6b 73 bd
       -0.13651985 -0.1217786 0.08303859 -0.059429158
000380 ba 6a d9 bd d9 0d c5 bb e9 01 2e be 63 ab 59 bc
       -0.106160596 -0.0060136137 -0.16992916 -0.013285491
000390 9f e9 6d bc 8d 21 a0 bc ce a7 a7 bd ed 6e 27 bd
       -0.014521032 -0.019547248 -0.08186303 -0.04087727
0003a0 a7 24 88 bc ab 52 da 3c 14 77 c8 3b c3 ee a6 bd
       -0.01661904 0.026650747 0.006117711 -0.08151009
0003b0 7b 35 32 bd 55 28 7c 3d e1 ea bf 3b 69 ae 75 bd
       -0.043508034 0.0615619 0.005856857 -0.059980784
0003c0 2c a6 9b bd 4f 68 23 3d 5b a6 fe bc 50 c2 d3 bc
       -0.07600054 0.0398944 -0.031085184 -0.025849491
0003d0 72 69 c0 3c d7 c6 95 bc fd 1d 13 be 2b 3a 0f 3d
       0.02348778 -0.01828329 -0.14366908 0.034967583
0003e0 39 91 0d bd 42 9e 1b 39 93 d3 25 be 35 8f e7 bd
       -0.034562323 0.00014840908 -0.1619399 -0.113066114
0003f0 ea 21 1e 3d 49 7d 65 3b 9c ba 92 bd e6 0d 07 bd
       0.03860656 0.0035017303 -0.07164499 -0.03297224

mlp.2.bias f4 [128]
000000 7e d2 a6 3d 08 5e 2c be 62 b3 5e 3e be 92 f1 bc
       0.08145617 -0.16832745 0.21748117 -0.029488917
000010 d4 ec a4 3b f7 97 90 bd 7a 16 20 bd 7d 63 d7 3c
       0.005033115 -0.07060235 -0.039083935 0.026292557
000020 2f 2a 84 3d 6b bf 73 bd ff 19 7d 3e a6 87 8e bd
       0.064533584 -0.059508722 0.24716948 -0.06959467
000030 a7 b0 9d 3e 29 2e 73 be 1b 57 cd 3d 35 c7 81 3c
       0.30798838 -0.23748077 0.1002638 0.01584206
000040 a4 bf cf bc 4a dc 13 bc 64 20 fd bd e8 84 97 bd
       -0.025359936 -0.009024689 -0.12359694 -0.07398397
000050 d4 92 c2 bb ce 70 62 3e 24 19 f9 bd 80 3d b8 bd
       -0.0059379134 0.22113344 -0.12162998 -0.08996105
000060 cd 9a 37 be f2 1d d6 3b 74 f3 6d bd 6a 09 ed b9
       -0.17930146 0.0065343315 -0.058093503 -0.00045211177
000070 9d 94 81 bd 7f c9 49 3e ed 0e 40 bd 59 30 de 3b
       -0.06327174 0.19705771 -0.046889234 0.006780666
000080 b5 72 2a 3e f5 1f 0b 3e 9d 44 74 3e bf 51 e9 bd
       0.1664532 0.1358641 0.23854299 -0.11392545
000090 ba 04 4b bd 9d 70 46 3d 54 9c a6 bd 60 e6 73 bd
       -0.049565054 0.04844724 -0.08135286 -0.059545875
0000a0 55 e6 c3 bd 84 e5 99 3e be 11 83 bd b6 18 97 bd
       -0.09565417 0.3005792 -0.063998684 -0.0737776
0000b0 bf 17 67 bd 59 40 4a 3b 8a a1 ea bd e5 88 0f 3e
       -0.05641913 0.0030861108 -0.114565924 0.14017065
0000c0 d8 20 b3 bc 40 bd 04 be 8a eb 16 bd 66 57 e6 bd
       -0.021866247 -0.12962818 -0.03684572 -0.11247139
0000d0 83 5e 02 be 1b e2 dd bd b6 0c ee bd 36 56 62 3d
       -0.12731366 -0.10834142 -0.11623518 0.055258
0000e0 1d 0c a3 bd 7b b2 bd 3d 79 d2 78 3e 57 64 bf bd
       -0.07961295 0.09262558 0.24299039 -0.0934531
0000f0 9a ab 1c be 4b 55 02 be a8 56 42 3e 05 20 b2 bb
       -0.15299836 -0.12727849 0.18978369 -0.005435946
000100 d6 76 05 be 45 e4 43 3e 89 91 ca bc cc 44 01 3e
       -0.13033614 0.19130047 -0.0247276 0.126239
000110 dd bc 60 3b 3e 76 82 3e c5 34 cc bd 87 f6 c4 bd
       0.0034292259 0.25480837 -0.099710025 -0.09617334
000120 12 63 43 3e 12 c4 ed 3d 5a a8 e2 bd 85 2c a7 bd
       0.19080761 0.11609663 -0.11067267 -0.08162788
000130 ed 1b aa bd f4 35 4d 3e 00 2a 07 3e e5 3f a8 3c
       -0.08306108 0.20040113 0.13199615 0.02053828
000140 bd e2 ce bd 16 5c 7e 3e 5a 7e ca 3c 72 a1 92 3e
       -0.10101841 0.24839815 0.024718452 0.28638798
000150 9d b2 31 bd 00 e9 6a 3b 9e 78 b2 bd 9c 6a c5 bd
       -0.04338323 0.0035844445 -0.08714412 -0.09639475
000160 ac 4d b0 37 c1 c4 61 3c ef a1 84 bc fe 00 c8 bd
       2.1017004e-05 0.01377982 -0.016190497 -0.09765814
000170 32 c4 aa bd 2d 45 23 ba a0 13 77 bc ba 8a d2 3c
       -0.083382025 -0.00062282645 -0.015080363 0.025700916
000180 ef c5 b6 bd 83 f5 ff 3d c8 9c a3 3b d6 3c 26 3d
       -0.089244716 0.124979995 0.004993055 0.04058536
000190 cd d4 d0 3d 97 35 df 3b fc fa 45 bd 81 ce 6f 3e
       0.101968385 0.0068118083 -0.04833506 0.23418619
0001a0 1d ff b1 bd 09 d4 19 3d 13 6e 15 be f5 d6 d4 bd
       -0.08691237 0.037555728 -0.14592771 -0.10392562
0001b0 b5 93 d9 bd 3c 80 56 bd c7 45 c5 bd 7b b5 9c 3a
       -0.10623876 -0.052368388 -0.096324496 0.0011955941
0001c0 29 db 2f bd fa d9 83 3e 7b 5c 52 3d 37 0d 2c bd
       -0.042933617 0.2575224 0.051357727 -0.04200479
0001d0 66 5e 08 be 26 5d ac bd 4c 16 f1 bb ab cc 10 be
       -0.1331726 -0.08416204 -0.0073573943 -0.14140575
0001e0 7e 5f 94 bd aa e0 c9 3d 4a 29 97 3b d2 6c 2b 3e
       -0.07244776 0.098573044 0.0046130763 0.1674073
0001f0 3c 60 5c 3e bc 23 f3 bd 43 e1 43 3c 03 b9 02 3e
       0.21521086 -0.1187205 0.011955562 0.12765889

mlp.4.weight f4 [3, 128]
000000 9d 2f a4 3d cf 5a fb bb 03 dc 5e 3c d8 ab 2b 3d
       0.08016894 -0.0076707373 0.01360226 0.04191193
000010 b1 82 d6 3d f1 eb 1b bc d9 37 9b bc 3a e7 10 bd
       0.10474146 -0.009516702 -0.018947529 -0.035376765
000020 c4 73 85 3d 4f 06 92 bd 37 f0 f7 bd f9 4b 72 3d
       0.06516221 -0.071301095 -0.12106364 0.059154484
000030 54 51 18 3e 62 0c 24 3d 3a cb 06 3c 8d 35 6d 3c
       0.14874774 0.04005087 0.008227164 0.0144780995
000040 f6 9e fe 3d 3f 12 36 3d f9 c3 a6 3d 0f ad 72 bc
       0.12432663 0.044450995 0.081428476 -0.014811768
000050 06 5f 08 3e f7 4e 8e 3d 6f 92 31 3b 23 60 a2 3d
       0.13317499 0.06948655 0.0027095338 0.07928493
000060 ed fc c5 bc 99 d6 82 3d f0 50 9d 3d 03 83 96 bc
       -0.024168456 0.063885875 0.07681453 -0.018373018
000070 a8 37 b2 3c 71 9d b2 3c 3e 08 5b 3b 18 a4 25 3d
       0.021755055 0.02180359 0.003342166 0.040439695
000080 58 64 b7 bb e0 bb bb 3d e0 46 06 3e bb 7b 91 3d
       -0.0055966787 0.09166694 0.13112974 0.07103678
000090 4c 81 c4 3d e8 03 2f 3d 97 72 08 3b 06 25 92 bc
       0.09594974 0.042728335 0.0020820254 -0.01783992
0000a0 34 a9 db bb a1 99 eb 3d e9 76 e0 3c 57 b9 3d 3d
       -0.00670352 0.11503912 0.02740045 0.046319332
0000b0 fa b0 e0 3d 7d 86 c6 bc eb 70 83 3d 88 36 93 3d
       0.109712556 -0.02423405 0.06418022 0.071881354
0000c0 35 3d 88 3d 5a 76 21 3c 8c 9e 63 bc 97 a4 a6 3a
       0.06652299 0.009854877 -0.013892781 0.0012713847
0000d0 f4 cb 59 bd e6 5a 13 b9 6d 4a 74 3d 89 df 8d 3d
       -0.05317302 -0.00014052875 0.05964129 0.069274016
0000e0 ce f1 2c 3d 3c 5a 90 3d a8 c5 13 3e 9c 8c c7 bd
       0.04222279 0.07048461 0.14430869 -0.09743616
0000f0 f1 7b c5 bb 82 ed 06 3d a2 ef bc bc 92 49 9f 3d
       -0.006026738 0.03294135 -0.023063485 0.07777704
000100 f3 72 db 3c 70 57 02 3d a8 2b b8 3c 03 5b 18 be
       0.02678821 0.03182167 0.022481754 -0.14878468
000110 c5 ad 19 3d ca dc ed 3d f0 a6 87 3d 2a 64 f7 bc
       0.037519235 0.11614378 0.06623638 -0.03019913
000120 55 32 8e 3d 3c 53 49 bb 9c b7 2b bd 71 83 04 bc
       0.06943194 -0.0030719778 -0.04192315 -0.008087979
000130 00 e3 e7 b9 0b 5d ed 3a 6d 66 09 3c 85 11 1a 3d
       -0.00044228882 0.0018109394 0.008386237 0.037614364
000140 22 00 0f 3d 00 4d 1c 3c 0f 4e 99 bd dc df a4 3d
       0.034912236 0.009539843 -0.074855916 0.0805051
000150 ad 30 35 3b ef a5 6b 3d 18 d1 a0 3d a0 bb 42 be
       0.0027647421 0.057531293 0.078523815 -0.19016886
000160 a3 68 7c 3d 82 fd 7c 3c 02 0a be 3d f1 c0 a1 3d
       0.061623227 0.0154413 0.092792526 0.07898129
000170 68 68 74 bd c7 b3 b4 bd 9a dc 06 3d b0 04 dc 3c
       -0.059669882 -0.08823352 0.032925226 0.026857704
000180 22 d4 4e 3d 4a 1c 54 bb 70 30 1d 3d 3a d9 88 3d
       0.050495274 -0.0032365494 0.03837627 0.06682058
000190 ac e5 88 bc d0 25 39 3d df e2 e3 3c cc 8b 06 3d
       -0.016711079 0.045202076 0.027818142 0.032848164
0001a0 89 63 91 3d 0b 40 68 3d c7 3f 1f bd 92 d7 44 bd
       0.07099063 0.0567017 -0.038879182 -0.048057146
0001b0 8e 55 b0 3b 67 b7 23 bc 96 da ed 3d b5 02 8f bc
       0.0053812927 -0.009992457 0.116139576 -0.017457346
0001c0 c8 5c d3 bc 1d 8b 9e 3d de 53 a9 3c 49 d6 00 3d
       -0.025801077 0.077413775 0.020669874 0.03145436
0001d0 f7 33 10 bd 4d 89 d2 3d 52 10 0e 3d 72 68 8f 3c
       -0.035205808 0.10280094 0.034683533 0.017505858
0001e0 ec 4c 85 bb 70 95 2d bd d9 5a de 3d 75 aa 36 3e
       -0.0040680077 -0.042378843 0.108571716 0.17838462
0001f0 ce 42 5f bb bb fb 42 3d 70 04 c2 3d 3c 0b 5b 3c
       -0.0034066918 0.04760335 0.09473503 0.013369378
000200 46 ab 49 3c b4 53 00 3c 99 2a 65 bd 28 95 75 3d
       0.012308901 0.007832456 -0.055948827 0.0599567
000210 c2 b8 12 3d d6 79 3a bc 3e f6 a1 3d d4 e2 0e bd
       0.03582073 -0.011381587 0.07908295 -0.03488429
000220 86 99 07 be 45 9a a3 bd d9 23 ee bd de 6f cb 3c
       -0.13242158 -0.07988409 -0.11627931 0.024833616
000230 6e 18 bf bb 71 b2 b3 3e 2b 02 7b 3d 07 43 40 be
       -0.0058317697 0.35097077 0.061281364 -0.18775569
000240 df e2 ee bb cd 16 7b 3d 54 5a 73 3b 22 74 0d 3e
       -0.0072902287 0.06130104 0.0037132697 0.13813832
000250 b8 cf 02 3e ca a4 3f bc 2e 64 98 3d 9c 2d 2b 3d
       0.12774551 -0.011697004 0.07440983 0.041791543
000260 64 39 65 bc cb bd 97 3d 00 08 cd bb 04 a4 9c 3d
       -0.013990734 0.07409247 -0.006257057 0.07648471
000270 e8 bd eb bd 2f db 03 3c e9 d7 2c 3d b2 b0 fc bc
       -0.11510831 0.008047863 0.042198095 -0.030845974
000280 b9 c9 40 3e 8b e8 ad bd 32 7a 8e 3c 1a 50 0e be
       0.18826951 -0.0849162 0.017392252 -0.13897744
000290 bb 65 41 3c a9 0d 57 be 61 30 18 3a 20 f0 44 3c
       0.01180404 -0.21001305 0.0005805549 0.012020141
0002a0 c6 00 a3 3c f9 a2 6b 3e 8b 03 57 3c 37 d2 b3 3d
       0.01989783 0.23011388 0.013123403 0.0878033
0002b0 28 da 97 bb aa 80 07 3e a1 18 b2 3b 95 43 88 bd
       -0.0046341605 0.13232675 0.005435065 -0.06653515
0002c0 b5 41 ea 3c d7 17 8f 3d af 6c 05 bd eb fb 5c 3d
       0.028595785 0.06986969 -0.032574352 0.053951185
0002d0 a3 3c 78 bd bc 18 65 bd 8e ce 11 3d 9b 1e 19 3c
       -0.060604703 -0.05593179 0.035597377 0.009345676
0002e0 60 5e b2 3d f4 8c 4a 3e 91 30 44 3d 19 c7 ff 3d
       0.08709407 0.19780332 0.04789788 0.12489147
0002f0 b1 65 84 bd 9d c1 be 3c dd 47 89 bd e8 83 0c bc
       -0.064647086 0.023285681 -0.0670316 -0.008576371
000300 73 ba 04 3e cb 5f 0b be 70 f8 00 3e e0 2c 3a be
       0.1296175 -0.13610761 0.12594771 -0.18181181
000310 f4 3a 8c 3d 30 8d 2f 3b 51 a7 e3 3c 40 8e f7 bd
       0.06847182 0.0026787035 0.027789744 -0.12087679
000320 9b 44 39 3d 16 bd db bd 82 e1 e0 bd b3 3e 2e bd
       0.045231443 -0.10729425 -0.10980512 -0.042540263
000330 a5 2b 12 3e e1 8e a2 3d 8e 53 7a bd e6 45 ff 3a
       0.14274462 0.07937408 -0.06111484 0.0019475787
000340 26 45 41 bb 61 09 80 bd c4 fe c9 bc fa 1b 05 be
       -0.0029490679 -0.06251789 -0.024657615 -0.12998953
000350 81 49 24 3d 00 b4 d8 3a 9a 9c 66 bc 50 c4 f1 3c
       0.04010916 0.0016533136 -0.014075423 0.029512554
000360 cd 8e 21 3d 32 85 91 bc c0 8f a9 3c d9 7a 8d 3d
       0.039442826 -0.017763708 0.020698428 0.06908197
000370 45 5a d9 3d 1d ec 9d bd c2 8d 8f 3c eb 02 18 3c
       0.10612921 -0.07711051 0.01752365 0.009278039
000380 a6 bc b5 3d bd af 80 3c 2c ac 59 3c dd 1e 07 3d
       0.088738725 0.015708799 0.013285678 0.032988418
000390 53 1a e1 bd b8 a7 67 3d 60 f7 37 bc 07 87 9f bc
       -0.10991349 0.056556433 -0.011228412 -0.019473566
0003a0 c0 1e 95 3d 72 4b f9 bc 4c 14 ef bc 13 53 da bd
       0.07281256 -0.030431483 -0.029184483 -0.106603764
0003b0 b1 97 11 bd 6a 69 3e 3d d8 9d 79 3d 5c 4a 0c 3c
       -0.035545055 0.04648725 0.060941547 0.0085626505
0003c0 69 9b b1 bd 7a 09 63 bb 35 f1 6d 3e 7a 45 2a bc
       -0.0867222 -0.00346431 0.23236544 -0.010392541
0003d0 c4 2a 52 be 0d 02 fe 3c 25 bf a8 3c d1 cf d1 3d
       -0.20524126 0.031006837 0.020598957 0.10244716
0003e0 56 1d 1a 3d df 9d c9 bd bc 7b 2e 3d 56 ed 9f 3b
       0.037625633 -0.09844565 0.04259847 0.0048805876
0003f0 46 c1 e2 bb a8 15 f8 3c 18 c0 d9 3d af a7 54 be
       -0.0069200126 0.030283764 0.10632342 -0.20767091

mlp.4.bias f4 [3]
000000 53 55 a3 3e 0e 13 d7 3c ac b1 ac be
       0.31901035 0.026254203 -0.33729303
