EUSIPCO/Mutual Coupling No Noise/saved_models/rnn_5dB_uca_9.pth (torch, 87826 bytes, 14 tensors)

bn.weight f4 [16]
00000000: bcf2 823f 7a0c 613f 0536 5b3f 6987 583f
00000010: 4495 873f 4607 773f ed21 7c3f 1bf2 6f3f
00000020: 14a3 993f 5d23 8b3f 5033 5a3f cab2 813f
00000030: 15e3 903f f42d 893f 31cc 6d3f 3f37 833f
1.0230327 0.8790966 0.856293 0.8458162 1.0592427 0.96495473 0.98489267 0.937288
1.2002892 1.0870167 0.85234547 1.0132687 1.13193 1.0717149 0.92889696 1.0251235

bn.bias f4 [16]
00000000: 9d08 2d3d d9e9 3abe f96c f4bd d659 093d
00000010: cb47 0abd 678d 27bd f00b d8bc c520 1a3e
00000020: 58e1 e23c 4c36 053d 2124 75bd 2400 1fbe
00000030: e86b 883e b807 e93c 2bfd f73c 17c1 133d
0.042244542 -0.18253268 -0.119348474 0.03353294 -0.033759873 -0.040906336 -0.02637288 0.15051563
0.027695343 0.032522485 -0.05984891 -0.15527397 0.26644826 0.028446063 0.030272087 0.036072817

bn.running_mean f4 [16]
00000000: 435d 3eba f9cc a0ba 2ebe 18bb a201 6dbb
00000010: 1356 e83a 82b5 66bb 95f2 75bb e8c6 7138
00000020: c866 bbba df6e 5eba cbdc ba3b aa03 75bb
00000030: 6051 ebba 125b 513b 144f 3c3b ccb9 f03a
-0.0007261822 -0.0012268118 -0.0023306715 -0.0036164303 0.0017725847 -0.0035203402 -0.0037528623 5.7644123e-05
-0.0014297599 -0.0008485149 0.00570259 -0.0037386217 -0.0017953329 0.0031945151 0.0028733658 0.0018365919

bn.running_var f4 [16]
00000000: 7a53 e440 1dc8 ce40 8125 0341 a322 cc40
00000010: 8f5a e640 1787 f640 4659 a240 9be6 f540
00000020: 476c e540 2d94 cf40 9958 0341 960e cd40
00000030: 9d8e e640 949c f540 5c4a a140 3c7f f540
7.13519 6.461928 8.196656 6.379228 7.1985545 7.7039905 5.0733976 7.6844
7.1694674 6.486838 8.20913 6.4080305 7.204909 7.6753635 5.040327 7.6717815

rnn.weight_ih_l0 f4 [48, 16]
00000000: a37c 283f c092 d5be 26b9 a53e 36dc 683e
00000010: a031 113f 356f b73c 59f3 263e e4c1 95be
00000020: 4f5f dbbb 8aee 913c 111f 083f 17e2 613e
00000030: cc53 31bd d173 e8be 404d 0dbf 358c fc3e
00000040: 2c9b 3bbf aafb 4dbd 4d3f af3e 0622 f4bd
00000050: f921 23bf bf6e 253e eca9 173f deca 41be
00000060: 70b3 3ebe b5bb e93e 6224 babf 9596 933f
00000070: fcf3 833d 5a91 9e3e 2eaf 39be f8a8 b23e
00000080: eb6f 663c 8204 1e3f 0b15 d63d 8e46 183f
00000090: 4c98 0ebf 6524 283f 5355 71bf 7709 4fbf
000000a0: 6eeb 97be 22cd 39bf 542a a0be 24b2 b73f
000000b0: 913b 9ebf 67a7 5dbe 80c7 c3be 4dd7 b63e
000000c0: 2f32 18bf d38e cdbe bd66 54be 23ce 4ebd
000000d0: ab35 683d b20d b63f dee8 eb3e 8cb6 a6bf
000000e0: 31ab 6e3f 2b83 07bf 2c5d bd3e 9002 8c3f
000000f0: f32c 2a3e 96f6 b83e 59d4 b4bc b3f6 5d3f
00000100: 0803 4cbf b006 4f3f 5dd1 113e 6723 32bf
00000110: 22d0 983e 1737 82bf 2fe8 52be 8960 5f3e
00000120: 552d 8ebf eb4b 9d3d 4145 8d3d ce8a b8bf
00000130: d7d5 46be 74c0 bb3e 21aa f63e ed86 17bf
00000140: 45a2 56bf 2bda c0bd c0a4 72bd ceb4 70be
00000150: 3f85 a0be b59d dabe 525c f73e 958c 053f
00000160: e37c d6be 9c1b a13f 328f 92bf f78c b1be
00000170: bccd 753f e4c6 6a3d 117f b23e 3ea3 733e
00000180: 54d5 e23c 7591 113f 7409 c9be f5f3 bcbe
00000190: 3ac8 bf3e 733e ed3e afc4 d03e fa29 4abf
000001a0: 87d9 053f ade0 dbbf c7c0 663f f8f0 5fbf
000001b0: 314c 283f 34e4 853e 0907 e63e 0cbe 413f
000001c0: 2031 a83e 2111 14bf 873f 9d3e e489 08bf
000001d0: 7769 05be 9199 4abe 20d8 9e3e 27a9 263f
000001e0: 0016 953e 9be2 df3e 7aaa 293b c620 4ebf
000001f0: 9cdc aa3e 947e 923e bfd6 19be d371 f6bd
00000200: 9e36 a43e 5da9 693e 4a43 fbbe f3f7 ed3d
00000210: 60d3 c33e f9a0 97be 21f9 f8be 18e8 0f3e
00000220: cff5 7dbd 3c26 ae3e 33f0 0bbe 784b 463c
00000230: 45b9 c7be e454 b8be 6c82 9fbe dd65 d13d
00000240: cc50 76be e576 bd3e fd3a 82ba 5ce7 c73d
00000250: cd67 babd 4d6c 243f b636 ec3e af1c a5be
00000260: 69c1 173f 66b5 513c 597a e33a cba4 bc3e
00000270: 2d03 8f3e 6dde 89be 1b10 22be 4883 cd3e
00000280: f30f 84bf 640c 983f 37a7 46bf fd1f e83e
00000290: d0f4 e33d ea1a 99be ff21 8cbe 35dc ac3e
000002a0: 615c f4bd 6e8f fc3e 991b 0bbe fff1 7cbf
000002b0: e8e4 c6bd f9d4 673d f253 763e cf34 8b3c
000002c0: a2c1 13bf e149 873d f939 ce3e c56c 063f
000002d0: 6749 183d ac10 433f f7ee 913f 62f8 9dbe
000002e0: bff1 58bf 6810 fcbe 4f36 e6be d485 2abe
000002f0: b70a 7d3f 6483 ffbe 0691 f13e c16b dcbe
00000300: 18c6 f53d d6b0 3ebf 2028 703e b50b 2b3f
00000310: c55c 4fbf 0670 593e 5d80 703d 0981 443e
00000320: 7469 dfbe a0e3 edbe 5f4a 683e fa1c 0dbe
00000330: 37e7 963e 0e08 46be a931 cd3e 4bd9 09be
00000340: f407 033f 7714 a33e 761d a7be 892e a53e
00000350: d5a1 1f3f cecd 34be 3038 17bf 6d9b 733d
00000360: 1316 333e 2211 04bf 6bfb 9d3f de59 1cbe
00000370: cc87 333e 2eda 94bd 60fc e3be b17a 96be
00000380: a02d 963f 961b 473f c7f7 ebbe e04a 203f
00000390: 4bb6 b63f 110f 7a3e c7b1 abbe c0f8 bf3d
000003a0: 86c2 ae3d 5685 80be b490 833e b1cc 663d
000003b0: 9e60 a2be 3954 8dbd 12de 38bf 5739 83be
000003c0: c3a5 e03d de3a ad3d 69cb 20be 18d0 c13e
000003d0: 422d 423f b087 a63d c21a c9be e1b9 073f
000003e0: ba3a 033f 0aac d4be 847b 763f 560c 56be
000003f0: 56f3 8f3d 44ff 2abf ff06 b7be e702 933e
0.6581518 -0.41713524 0.3236782 0.22740254 0.56716347 0.022391895 0.16303767 -0.2924949
-0.0066947113 0.01781394 0.53172404 0.22058903 -0.043292806 -0.4540086 -0.55196 0.4932572
-0.7328365 -0.050288834 0.34227982 -0.11920552 -0.63723713 0.16155528 0.59243655 -0.18925044
-0.18623137 0.45651022 -1.4542353 1.1530329 0.06443021 0.3097027 -0.18133232 0.34894538
0.014064769 0.6172563 0.104532324 0.5948266 -0.55701137 0.65680534 -0.9427082 -0.8087382
-0.29671806 -0.7257863 -0.31282294 1.4351239 -1.2361928 -0.2164589 -0.38238144 0.35711136
-0.59451574 -0.4014803 -0.20742317 -0.050489556 0.056691807 1.422293 0.460761 -1.3024459
0.9322997 -0.5293452 0.36985147 1.0938282 0.1661871 0.3612563 -0.022073912 0.8670456
-0.79692125 0.8086958 0.14240022 -0.6958527 0.29846293 -1.0173062 -0.20596384 0.21814169
-1.1107584 0.07680496 0.06897975 -1.441736 -0.19417511 0.36670268 0.48176673 -0.59190255
-0.83841354 -0.09416612 -0.05923915 -0.23506472 -0.3135166 -0.42698446 0.48312622 0.52167636
-0.41892156 1.2586551 -1.144995 -0.3467786 0.9601705 0.057318583 0.3486257 0.2379274
0.027689613 0.56862575 -0.39265025 -0.36904874 0.37457448 0.46336707 0.40775058 -0.789703
0.52285045 -1.7177941 0.90137905 -0.87477064 0.6574126 0.26150668 0.44927242 0.75680614
0.3284998 -0.57838637 0.3071253 -0.53335404 -0.13028513 -0.19785143 0.31024265 0.65101856
0.29118347 0.43727574 0.0025888965 -0.8051876 0.33371437 0.28612196 -0.15023325 -0.12033429
0.3207292 0.22818513 -0.49074775 0.11619558 0.38247204 -0.29615 -0.4862757 0.1405338
-0.062002 0.34013546 -0.13665847 0.012102954 -0.39008537 -0.36002266 -0.31154191 0.10224507
-0.24054259 0.37004772 -0.0009935793 0.09760925 -0.0910183 0.64227754 0.4613549 -0.32248446
0.59279495 0.012799596 0.0017355188 0.36844477 0.2793211 -0.2692751 -0.15826456 0.40139222
-1.0317367 1.1878781 -0.775989 0.45336905 0.11130679 -0.29903346 -0.27369687 0.33761755
-0.119316824 0.49328178 -0.13584746 -0.98806757 -0.09711629 0.05659959 0.2405546 0.016992955
-0.57717335 0.06605888 0.40278605 0.5250972 0.037179377 0.76197314 1.1401051 -0.30853564
-0.84743875 -0.49231267 -0.4496331 -0.16652614 0.98844475 -0.4990493 0.47180957 -0.4305096
0.12000674 -0.7448858 0.23452806 0.6681474 -0.8100093 0.2123414 0.058716167 0.19189848
-0.43635142 -0.46462727 0.2268462 -0.13780585 0.29473278 -0.1933901 0.4007695 -0.13461797
0.5118401 0.3185155 -0.32639664 0.32262066 0.6235631 -0.17656633 -0.5907011 0.059474397
0.1748889 -0.5158864 1.2342352 -0.15268657 0.17532271 -0.07268177 -0.44528484 -0.2939048
1.1732674 0.7777647 -0.46087477 0.6261425 1.4274381 0.2441981 -0.3353407 0.09373617
0.08533196 -0.25101727 0.25696337 0.056347553 -0.31714338 -0.0690083 -0.7221385 -0.25629684
0.109691165 0.08458494 -0.15702595 0.37854075 0.7585031 0.08131349 -0.39278227 0.53018004
0.51261485 -0.41537505 0.9628222 -0.20903143 0.070288345 -0.66795754 -0.35747525 0.28713152

rnn.weight_hh_l0 f4 [48, 16]
00000000: aeef d9bd 2ef0 dfbd b66f 15be 9da5 2a3c
00000010: ed3d 28be 30f6 d4bd ec53 55be 5f0e 0b3e
00000020: 93bd 573e 7589 e5be b10d ac3e 58ef 89bd
00000030: 6c85 28bd 2f90 48bf ad1f 72be 1435 4ebe
00000040: 7f8f 2d3e 52a0 c8be 0922 55bf 2ec4 f3bc
00000050: 924c 42bf 9c2a 09bf 9992 e13e d312 0a3d
00000060: 7931 46be 0cef ffbe df56 2b3e c05f 3a3e
00000070: 573f 2cbd 6849 393d 7474 863f cbd8 48be
00000080: 2081 11bf 2ffa 043e 8e9e f7bd 4210 17bf
00000090: a330 e8be 334a ee3e e362 a03c aea8 6cbe
000000a0: 922e c0be 18a3 ff3e fab8 21bf 6341 9d3d
000000b0: b546 e53e fcbc 633f 1e91 113f 535d 03be
000000c0: 0983 b93b b185 013e 822c 7f3c 05fd ec3e
000000d0: e396 57be 8de3 28be b2a1 57be 8877 a03d
000000e0: 96fc 1f3f 8fce 68be e604 9f3e b080 8ebd
000000f0: af31 983d dd34 b2be b8b8 563e eeed 7b3e
00000100: 6b6d e8be ea13 eebd 44b5 00bd 8941 a23e
00000110: b6d7 2fbc c002 c0be 3eb2 71be fcaa 6bba
00000120: b69a d53e 8bed 0ebf 8ac3 e63e a7d6 793a
00000130: 2fa0 e93e 5a86 07bf df45 803d 2f0c 9cbc
00000140: 8787 803e adf2 c5be 6fbc 71be f4e6 35be
00000150: ba4e 2ebf e80d d23d 1d22 eb3e 1750 13be
00000160: 9858 65bd e3d2 bbbd 918c 533e 4bbb c1be
00000170: d1a4 3ebd 756f 8e3c b63f 313e 97b6 8cbe
00000180: fd29 463e caa1 c4be b5d2 0e3e b938 aa3e
00000190: 3cd3 e03e 05e8 0ebf 08e7 2b3f 2d76 a93e
000001a0: 9a42 0fbf b8fa 173e aa9f 09bd 4a84 d53d
000001b0: 14cf e8bd ee8f aa3d eef7 0abe 4443 16bc
000001c0: badd b9be 9b32 3bbf 0b20 a33c db76 5bbd
000001d0: 47c0 f0bd 122e 4b3e 23ca 803e 8fc9 7f3d
000001e0: b9ff 5d3c e94a f0bd 5116 ce3e a9b7 063f
000001f0: 0a54 51be 9f63 49be 82c2 ad3e 23e7 fc3e
00000200: fbbc 203d 6574 29bf 759f 3c3f 6bc5 76bd
00000210: 827d 44be a80f 7e3e 8e91 11bf 4636 e53e
00000220: f978 8c3c 943b 003b 0134 2a3f df38 79be
00000230: 08ea e73d 27c7 aabe c1c4 1f3e 2ea0 c0bc
00000240: 7eef bf3e bb47 da3e b298 b5be ac11 983e
00000250: dc95 743e 9fc4 04bf d1b5 bb3e e202 0bbe
00000260: 0d4b 793e 46af f8be 828e 303e deab e93d
00000270: d8f0 2bbe d942 09be 6ad7 793c 7898 a43e
00000280: 1b99 923e 07dc 0e3e 7137 923e ee20 2b3f
00000290: 5cca e53e 0e73 5e3e ccd1 573e 800a 4cbe
000002a0: 3101 8dbe 9897 993d 51f7 37be b9c0 713e
000002b0: 37a5 e2bd ed1a 00bf 89e3 25bf 34fa 1d3e
000002c0: 39df 9b3e 48bd f2bd a490 14be f512 5d3e
000002d0: 08f7 383d 0d09 bf3e 7ae5 6cbe f2e4 74bf
000002e0: 5273 c83d 6606 d73c b517 c5bd b842 b7bd
000002f0: e1b8 d23e e834 053e 5e43 b7bd 85f8 be3c
00000300: a61f d03e 59c0 fbbc 7a36 923e b15a a23d
00000310: 5bbd 723e cf9e eebe 58f9 373f 1bc5 c43f
00000320: a595 e6be ca4f 16bf da02 643e b362 213e
00000330: 018d 83be 4e4a 42be b4a6 b0be 6710 da3d
00000340: 5ebb aa3e ec5b bd3e ebd1 81be eab1 833e
00000350: 40b6 463d 1494 6ebe 75e5 c83e aa26 8e3e
00000360: 99d9 4bbf e691 51be 0521 4cbe 109d fd3d
00000370: 9131 2abd b94f e6be 4787 723f 353e 7ebe
00000380: 9fbd 48be 2f07 2dbf 4a96 b93e efaf 853d
00000390: 90cf a73e 6393 843d 9062 ae3d 96bc 203d
000003a0: 9b5f 31bd efd8 2dbe 0f09 5d3c e195 cbbe
000003b0: e884 7bbe 6430 86be 215d b23e 0ba8 2f3e
000003c0: 8f6f 8cbe 32c5 85bf e8bb 8b3f 2d47 f3be
000003d0: 5f89 3ebe 32a4 3b3f 4639 883d e576 c73e
000003e0: 1dde d4be fa98 d23d f22d 053d c0dc 90be
000003f0: 9a9b abbe 6a8f 173f 3bff 103e 8f69 f23e
-0.106414184 -0.109344825 -0.14593396 0.010415462 -0.16429873 -0.10398519 -0.20832795 0.13579701
0.2106841 -0.44831434 0.33604196 -0.06735104 -0.041142866 -0.78345007 -0.23644896 -0.20137435
0.1694927 -0.39184815 -0.8325506 -0.029756632 -0.7589809 -0.5358064 0.44057158 0.03370936
-0.1935481 -0.49987066 0.16732357 0.18200588 -0.042052593 0.04523602 1.0504289 -0.1961395
-0.56837654 0.12986062 -0.12090789 -0.5900918 -0.45349607 0.46540985 0.019578403 -0.23111221
-0.3753553 0.49929118 -0.63172877 0.07678487 0.44780508 0.8896024 0.56862056 -0.12828569
0.0056613726 0.12648655 0.015574576 0.4628679 -0.21053652 -0.16493054 -0.21057776 0.07835299
0.6249479 -0.22735046 0.31058425 -0.06958139 0.074313514 -0.34805956 0.20968902 0.24602482
-0.4539598 -0.11624892 -0.03142287 0.31690624 -0.010732582 -0.37502098 -0.2360315 -0.0008990017
0.41719598 -0.5583121 0.4507106 0.0009530582 0.45630023 -0.5293938 0.06263327 -0.019048778
0.251034 -0.3866171 -0.23607038 -0.17763883 -0.6808888 0.10256559 0.45924464 -0.1438602
-0.055992693 -0.09171083 0.2065909 -0.37838206 -0.0465439 0.017387131 0.1730946 -0.27483055
0.19351955 -0.38404685 0.13947566 0.332464 0.4391116 -0.55822784 0.671494 0.33097973
-0.55961 0.14841735 -0.033599533 0.10425623 -0.11367622 0.08328234 -0.1357114 -0.009171311
-0.36301976 -0.7312409 0.01991274 -0.053580146 -0.11755424 0.19841793 0.25154218 0.06244808
0.013549739 -0.11733038 0.402514 0.52623993 -0.20442215 -0.19666909 0.3393746 0.49395093
0.039242726 -0.6619323 0.7368081 -0.060246866 -0.19188502 0.2481066 -0.56862724 0.4476797
0.017147528 0.0019566761 0.664856 -0.24338101 0.11323935 -0.33355066 0.156024 -0.02351388
0.37487406 0.4263285 -0.3546806 0.29700983 0.23885292 -0.5186252 0.36662152 -0.13575318
0.24345036 -0.48571223 0.17241862 0.11409734 -0.16791093 -0.13404407 0.015249113 0.32147574
0.28632435 0.13951121 0.28557923 0.6684712 0.4488095 0.21723577 0.21076125 -0.1992588
-0.2753997 0.07499617 -0.17965437 0.23608674 -0.110666685 -0.50041085 -0.64800316 0.15427476
0.30443743 -0.11852509 -0.14508301 0.21589263 0.045157462 0.37311593 -0.23134413 -0.9566184
0.097876206 0.026248168 -0.096236624 -0.089482725 0.41156676 0.13008463 -0.08948396 0.023311863
0.40649146 -0.030731367 0.28557187 0.07927454 0.23705046 -0.46605536 0.71864843 1.5372652
-0.45036045 -0.587155 0.22266713 0.15760307 -0.25693515 -0.18973657 -0.34502184 0.1064766
0.33346075 0.36984193 -0.25355467 0.25721675 0.04851365 -0.23298675 0.39237562 0.27763873
-0.796289 -0.20465812 -0.19934471 0.12383473 -0.041551176 -0.449827 0.94737667 -0.24828418
-0.19603585 -0.67589086 0.36247474 0.06527697 0.32775545 0.06473424 0.08514893 0.03924235
-0.043304067 -0.16977285 0.013490929 -0.39762786 -0.24562418 -0.26208794 0.34836677 0.17153947
-0.27428862 -1.0450804 1.091672 -0.4751524 -0.1860709 0.7329742 0.06651549 0.38957897
-0.4157571 0.10283084 0.03251452 -0.2829342 -0.33517152 0.5920321 0.14159863 0.4734616

rnn.bias_ih_l0 f4 [48]
00000000: 094e 28bd 2c10 d9bd 6eb6 d4be 9fb1 263e
00000010: b01c 83bc 1b1c 09bd 58ee 953e ede3 7a3e
00000020: 57ea 45be 4bb9 06bd 6d84 04be 7fc7 8b3e
00000030: 1cd5 2a3e 6402 dabe 1e40 783e 980a bcbe
00000040: 4351 893f 7f4d 5c3f 9946 983f 1251 8a3f
00000050: 21b3 963f 3b9f 8f3f 53de 9e3f e1a5 4e3f
00000060: 866a bf3f 765d 9a3f 9f6d 7f3f f534 783f
00000070: 7faa 973f ae54 893f 6773 d23f c705 b03f
00000080: 6711 d8bd a0ce 29be 3706 a63d 3dd3 ae3d
00000090: c999 8ebc 154d 99be bccd 8e3e 14d4 6bbe
000000a0: c51c 673e 8360 88bc 116a ef3d d2c2 1f3d
000000b0: 8495 9c3d 18d3 64be cc97 6b3d 704e 193e
-0.041090045 -0.10598788 -0.41545433 0.16278695 -0.01600489 -0.03347407 0.29283404 0.2450101
-0.19327675 -0.032891553 -0.12941141 0.2730064 0.16682857 -0.4257995 0.24243209 -0.36726832
1.0727924 0.8605575 1.1896545 1.0805991 1.1773416 1.1220468 1.2411598 0.8072186
1.4954383 1.2059772 0.99776644 0.96955806 1.1848906 1.0728967 1.6441468 1.3751763
-0.10550194 -0.16582727 0.08106654 0.08536384 -0.017407315 -0.2994162 0.27891338 -0.2303012
0.22569568 -0.016647583 0.116901524 0.039004155 0.07645705 -0.22346151 0.05751781 0.14971328

rnn.bias_hh_l0 f4 [48]
00000000: 6bf2 963e e07b 89be 4d36 22bf 7943 a5bd
00000010: ebbe 233e 8038 1f3e f2e7 e5bd c91a aabc
00000020: 34b4 55be 66c6 bdbd 5f1b fbbd 94a1 babd
00000030: 7c8e 713c 93d4 5ebe ba5e 35be 66c6 bdbe
00000040: a3ac aa3f 2306 5e3f 809d 913f ce61 6e3f
00000050: bbf3 993f 0d2b 9b3f bd14 a53f 89b0 693f
00000060: 11c5 bd3f 7347 8c3f b186 a43f cdbb 7a3f
00000070: 27c6 9d3f 2a22 9d3f a845 b83f a1c5 d23f
00000080: 63ed f73d 8c59 22be 9b1e 3cbe 1f4f b63e
00000090: 0489 993e 5637 cabc 05a1 74bd dba9 db3c
000000a0: 48c4 8e3d ddf7 8fbe d6a1 afbd cf85 d8be
000000b0: 251e 4ebe 4687 4bbd e0c6 213e 8546 263d
0.29481825 -0.26852322 -0.63364106 -0.0806951 0.15990798 0.15548897 -0.11225881 -0.020764725
-0.20869523 -0.09266357 -0.1226108 -0.0911285 0.014743444 -0.21760778 -0.17711917 -0.37065428
1.3333935 0.86728114 1.137619 0.9311799 1.2027506 1.2122513 1.2896954 0.91284996
1.4825765 1.0959305 1.2853605 0.9794281 1.2326096 1.2276051 1.4396257 1.6466562
0.12105825 -0.15854472 -0.1837105 0.3560724 0.29987347 -0.02468459 -0.059723873 0.026814392
0.069710314 -0.28118792 -0.0857579 -0.42289588 -0.20128687 -0.049689554 0.15798521 0.040594596

mlp.0.weight f4 [128, 16]
00000000: 49e6 9dbd c87c 9a3d 9cee 0d3d 172b 9d3d
00000010: c9fa 533d e906 20bd ab15 44bc b342 b7bd
00000020: a695 73bd eac0 1bbc 1e43 2dbd 2c0f d23c
00000030: 9b0d 30bb fced cb3d 35f1 6c3d ff67 c7bd
00000040: d364 98bd 3703 ba3c 3f24 65be 8576 42bc
00000050: e20f 8f3c bc11 18be c086 423e e2eb 5dbf
00000060: d1c9 753e 6044 b1bd 177e f2be 34d4 9c3d
00000070: 3781 233e b761 40be 24e7 2a3e 4ae8 cabe
00000080: 0ab4 1b3e 4f60 1c3e 880e 11be 0290 3dbd
00000090: 259b e1bd 9850 acbe d72f 4fbc 6705 32bd
000000a0: 5a0b 06be 398a 84be 987a 283c c3d5 08be
000000b0: 3801 a1bd 826f 74bd e6a5 b83e a309 643d
000000c0: 2012 2dbe 8e27 663d b736 713d da32 05be
000000d0: 2f63 873e a0ad 3e3c 2c90 83be 3453 883d
000000e0: cabb 5f3c 30cf 0a3d e34e 0dbe 6975 aa3d
000000f0: bcbf 33bd 7248 2dbd ace9 f73d 228f c13d
00000100: c109 923e 5255 1fbe cf60 50bd b2fc 123e
00000110: c08e 1cbe de68 95be 86ea f23d cd9d 52bd
00000120: 2c73 18bf 99eb c3bd ae55 7dbe c5b7 fc3d
00000130: 4e58 92bb a6fd d2bd 0c28 cf3d 498e 84bf
00000140: 8b66 febd adf0 08be 2e92 043e 593c 763e
00000150: ee90 d43d 4854 0c3e 779f b3bd f818 60be
00000160: d57f 1ebe 4055 46be 3e78 053d 5740 fd3d
00000170: cb00 f0bd 1009 633b 3cb3 42bd b536 9ebc
00000180: f8af dc3c 29da 92be 72de d93e 2125 143e
00000190: 6792 aebd a8da 11be a41c e83c 95c2 be3e
000001a0: 5838 6ebf d268 033e 68f2 5dbe cb0f 73be
000001b0: 733d 9fbe eb2b 0fbe 9388 763d 14f8 69bf
000001c0: 11c5 033e 6a3a 0d3e 3c29 41bd a3b0 7ebd
000001d0: f1c9 99be 4c72 a5be 353d 2abe bfe3 173e
000001e0: 8e6c 3abe d005 163e 81fc 5abe a91f b9bd
000001f0: de0b 383e f2fb 503c cb6f 543e 7a97 963b
00000200: de2f a73c 0c35 eb3b d293 f43e 7789 4d3e
00000210: 973b 8d3d 1a5f fd3c 18a1 353d 0c50 2fbe
00000220: 662e 22bf 14ea 6fbe f5db 8b3e 527e 6a3e
00000230: 521a 393e 9c6a 53bd 6ecc 033c 5116 28be
00000240: 5ab8 a1bd 88dd 5bbe f35f 0cbe 338a c33c
00000250: ecef 5f3e 2535 5c3e 7075 8b3c 7277 93bc
00000260: 62c5 8a3d f4a1 823e af48 093e 91a9 473e
00000270: e9df 38be 1cf5 2cbe f684 263e 3dad dd3d
00000280: b96c ed3c ac1b a7bd a84f 1cbd 63e5 d5bd
00000290: 2c1c 0b3e 45a9 5b3e ecdf 593c 90d1 fe3d
000002a0: 2770 1abe 3788 ebbd 6b6c 943d e3c9 6a3e
000002b0: f0c8 02be 588a 9dbc bd4a d33d 9d2b 8a3d
000002c0: d3ec fcbd 87c2 a5bd 8df5 99bd c71e 123e
000002d0: f8b5 cb3d f5a7 233e 9195 fa3d ca02 043f
000002e0: f79f 0a3e 399a f73d d633 9a3d 5587 a23e
000002f0: dece 2d3e 6bc6 eabd 5800 a93e b803 613d
00000300: be75 35bd bddc 213e d8e1 cdbd 749f c53c
00000310: e209 57bd 4656 39bd 6e5a 9b3d ecda 9c3d
00000320: 890e 1dbe f928 203e 85d3 2b3e d133 f03e
00000330: 697b 6fbd 4665 54bd b428 abbd 3199 253d
00000340: 6b05 42be 858a 7b3e f8f9 17bd ce1d bcbd
00000350: 48de d43e 5b9a 58be 6f43 81bd cfc4 5dbe
00000360: 30a4 eb3d c60e 86be 910f 613e 290c f93d
00000370: b469 2f3f cb45 b23d 0975 3c3e 30d7 7c3e
00000380: c931 a6bb a548 f7bc 134c 49bd eb86 c93c
00000390: c291 483d 32ec 8c3d 5640 4c3d 8944 c7be
000003a0: cada a3bd 40b6 37be 2230 343e 01a1 afbc
000003b0: 72c7 6fbe 3bae ab3d d248 5d3e f4bb 6fbd
000003c0: 54c2 a93c 6ae4 2dbd b1fd 283d 7a57 ae3e
000003d0: 14b6 c7ba 1f3f 063e 1fe7 ebbd c2c4 843e
000003e0: ea28 ee3d 29b4 f6bd bd1e a93d 335d 103e
000003f0: e67a 453e 9004 05bd 1090 8fbc dc30 1e3d
-0.07709939 0.075433314 0.034651384 0.07674234 0.05175284 -0.03906909 -0.011968057 -0.08948269
-0.059468888 -0.0095064435 -0.042300336 0.025642 -0.0026863578 0.09957501 0.05784722 -0.097366326
-0.07441106 0.022706611 -0.22377108 -0.011869078 0.017463628 -0.14850515 0.18996716 -0.86688054
0.24002768 -0.086556196 -0.47361824 0.07657662 0.1596726 -0.18787275 0.16689736 -0.39630347
0.15205398 0.15271114 -0.141657 -0.046279915 -0.110159196 -0.33655238 -0.012645683 -0.043462183
-0.13090268 -0.25886706 0.010283135 -0.13362794 -0.078615606 -0.059676655 0.3606407 0.055673253
-0.16901445 0.056190066 0.05889007 -0.1300768 0.2644286 0.011638075 -0.25695932 0.06656495
0.013655612 0.033888996 -0.13799624 0.083231755 -0.043884024 -0.042305417 0.12105116 0.094511285
0.28523067 -0.15559891 -0.050873574 0.14354208 -0.1528883 -0.2918157 0.11861138 -0.05142002
-0.5955074 -0.09566421 -0.24739715 0.12339739 -0.004466093 -0.10302286 0.1011506 -1.0355922
-0.12421902 -0.1337306 0.12946388 0.24046458 0.10379206 0.13704026 -0.0877065 -0.21884525
-0.15478452 -0.19368458 0.032585375 0.123657875 -0.11718901 0.0034642853 -0.047534212 -0.019313196
0.026939377 -0.28682068 0.42552525 0.14467289 -0.08524018 -0.14243567 0.02833397 0.3725783
-0.93054724 0.12832955 -0.21674502 -0.23736493 -0.3110157 -0.13981597 0.06018884 -0.9139416
0.12868144 0.13791814 -0.047158465 -0.062180173 -0.30036882 -0.32313764 -0.16624911 0.14832972
-0.18205473 0.14650655 -0.21385385 -0.09039242 0.17973277 0.012755381 0.2074577 0.004595694
0.020408567 0.0071779545 0.47769028 0.2007197 0.068961315 0.030929137 0.044343084 -0.17120379
-0.6335205 -0.23429137 0.2731625 0.2289975 0.18076447 -0.051615342 0.008044345 -0.16414763
-0.078964904 -0.21471226 -0.13708477 0.02386961 0.21868867 0.21504648 0.017023772 -0.018001292
0.06775929 0.25514185 0.13406633 0.19498278 -0.18054165 -0.16890377 0.16261658 0.10824058
0.028982507 -0.08159575 -0.038161904 -0.10444143 0.13584965 0.2145129 0.013298016 0.124423146
-0.15081845 -0.1150059 0.072472416 0.22928576 -0.12771964 -0.019231007 0.103169896 0.067466
-0.12349858 -0.08093744 -0.07517538 0.14269553 0.09946817 0.1598204 0.12235559 0.51566756
0.13537584 0.120899625 0.07529418 0.31743875 0.16973445 -0.114636265 0.33008075 0.054935187
-0.04430174 0.15806861 -0.10052842 0.024123885 -0.05249966 -0.045248292 0.075856075 0.076589435
-0.15337576 0.1564063 0.16779907 0.46914533 -0.058467302 -0.051854394 -0.08357373 0.040429298
-0.1894738 0.2456456 -0.037103623 -0.09185372 0.41575837 -0.21152632 -0.0631169 -0.21657108
0.11505926 -0.26183146 0.21978594 0.121605225 0.68520665 0.08704718 0.1840402 0.24691463
-0.005071853 -0.030186007 -0.049144816 0.024600467 0.04896713 0.06880988 0.049866043 -0.38919476
-0.08000715 -0.17940617 0.17596486 -0.021439077 -0.23415926 0.08382841 0.2160981 -0.058528855
0.020722546 -0.04245416 0.041257564 0.34051114 -0.0015236759 0.13110016 -0.11518692 0.25931364
0.116288975 -0.120460816 0.08257816 0.14098053 0.19285163 -0.032475054 -0.017524749 0.038620815

mlp.0.bias f4 [128]
00000000: 4413 b2be 5fd1 75be 0b52 24be 92aa 293e
00000010: 2e41 b5be 09a6 64be 3679 32be 8cf5 bd3d
00000020: 13fb 0cbe acaa 613e 0064 f63d f389 8bbd
00000030: 284c 493e ae1f fdbd 4e85 243e b4c4 6b3d
00000040: f793 98be 0e02 24bd 7c23 b1bd a2d7 e4be
00000050: 7b85 2fbd 07c9 84be 2944 fcbe 6d47 ffbc
00000060: ce4a d3bd f73c d5bd ace5 5a3d 79a1 a1be
00000070: 7a6a 743e 5ff4 d3bd 78a2 36be 2659 e7be
00000080: 8f68 29be 6c9e 823e ea8b c4bb c7a5 553e
00000090: 317d 86bd fe1f 06bf 853c a53d 36f6 083e
000000a0: e5cc 723e 205e 44be 253a 89be dfb1 0d3e
000000b0: 167b eb3d fcc0 703e a313 6a3c 1d92 6dbd
000000c0: efdb 813d b717 f13d b46f 9dbe 2f04 dfbd
000000d0: 1950 dcbe 2e96 29be a4b6 1e3e 35dc 53bc
000000e0: 2cad 87be 61c6 80be f23e 85be fdfb ffbd
000000f0: 316f 083d 25fa 8d3d b498 173e 0db4 40be
00000100: 6b21 52be 74a5 24be 4a1c 4b3e 7e8f 36be
00000110: e3d5 9ebc 2aeb 613e 171b 023e 78a6 583d
00000120: 6e5b 94be e8d1 9c3e c403 74be 56cd 15be
00000130: 2736 7b3e 1eb9 9bbe b360 4e3d 36b7 61be
00000140: 93e4 30bb 79e7 463e 3389 393e 7ffe 693e
00000150: 5b69 17be 3648 293e c029 acbe 0e89 173e
00000160: edde 1a3e bf00 8fbe c1de 373e 0333 87be
00000170: c98c b0be 5e2a dbbe 758d 8bbe c46a 46be
00000180: b953 043e bed1 ba3d 5f9e 633e bdaa 11be
00000190: b9d1 dd3d 892a 013e c8e8 883d 6f97 67be
000001a0: 726b 903e 192b e3be dc1a b03c f22e 89be
000001b0: 6b80 643d 81e3 ee3d 92a9 6d3e 6d2f f8bc
000001c0: 95c5 bcbc fa85 a5be b51a d0be 1569 efbe
000001d0: 8234 91be 68ca 79bc 9ec0 dc3d 3d19 4abe
000001e0: 86ae 143e 3736 53bd 602d 0cbe cfc7 0b3e
000001f0: 99bd a2be e9f3 afbe 80c4 59be 1f49 1f3e
-0.34780324 -0.2400565 -0.16046922 0.16568974 -0.3540129 -0.22328962 -0.17429051 0.0927535
-0.13767652 0.22037762 0.12030792 -0.06813421 0.19657958 -0.12359558 0.16066477 0.057560638
-0.29800388 -0.040041022 -0.08649346 -0.44695765 -0.042851906 -0.25934622 -0.49270752 -0.031161988
-0.10317002 -0.10412019 0.05344169 -0.31568506 0.23868743 -0.103493445 -0.17835414 -0.45185202
-0.16543792 0.2551149 -0.0059981244 0.2086402 -0.06566847 -0.52392566 0.08068184 0.13375172
0.23710974 -0.19176531 -0.26802173 0.13837384 0.11498086 0.23511118 0.014286908 -0.058000673
0.06340777 0.11772101 -0.30749285 -0.1088947 -0.4302986 -0.16561195 0.1549936 -0.012930919
-0.26499307 -0.2515135 -0.26024586 -0.12499235 0.033309165 0.06932477 0.14804345 -0.18818684
-0.2052056 -0.1607874 0.1983501 -0.17828175 -0.019389099 0.22062364 0.12705646 0.052893132
-0.28976005 0.30628896 -0.23829561 -0.1462911 0.24532376 -0.3041467 0.05038519 -0.22042546
-0.002699171 0.19424237 0.18118744 0.22850989 -0.14786284 0.16531453 -0.33625603 0.14798376
0.15124102 -0.27930257 0.17956068 -0.26406106 -0.3448241 -0.4280576 -0.2725636 -0.19376665
0.12922563 0.091220364 0.22228383 -0.14225288 0.10831017 0.12613882 0.066850245 -0.22616361
0.28206974 -0.44368818 0.021497183 -0.2679363 0.05578653 0.11664487 0.23209217 -0.030296052
-0.023043433 -0.32328779 -0.40645376 -0.4675986 -0.28360373 -0.015246011 0.10778926 -0.1973619
0.145197 -0.051565375 -0.13689184 0.1365044 -0.31785277 -0.34365776 -0.21266365 0.15555237

mlp.2.weight f4 [128, 128]
00000000: d163 a239 9b13 22be 2c1d edbd 40a5 ce3d
00000010: 19ac 59bd f1ed f03d 5fb0 3cbd fa66 0fbe
00000020: bcb8 2c3d 5988 0f3e 3110 913c 037e 80bd
00000030: c0a1 c83d 88d4 53be 03e5 acbd 5ec9 943c
00000040: e9c3 043e 5034 ca3a f225 913d b125 0ebe
00000050: da16 5a3c b42a 7c3d 0ae1 cdbd f548 46bd
00000060: 752d 463d 5598 c83d 039a 56bd e28d 02be
00000070: 194a b03c b78e 053d 30cc 093d 5808 3a3c
00000080: 42b0 af3d 2eb0 163e 1e83 e7bc 4e35 f93c
00000090: 19a6 893d 9693 333d a13a f5ba 8ca9 d7bc
000000a0: 593f 84bc dc9c e13b 83a7 19bd c332 68bd
000000b0: 18c4 2c3d b990 853d b317 bd3c c566 dabd
000000c0: e409 7abd 27e3 eabc e7a7 7abd 25d8 7fbd
000000d0: bb16 dfbe 2d6b 27bd 4e37 e2bd 9f5d 11bd
000000e0: e836 8fbd 41ce 29be ced9 a5bd 1f65 e63d
000000f0: 3717 53bc 397f cabd ae92 3b3d 100c 843d
00000100: fbfd 90bd 88ef fc3b 1beb fd3c 654a e23d
00000110: 9c91 a6be fc0f 9d3d 791e d33d bd19 66bd
00000120: f43a 533d e8fe 0d3d b27a 31be 84c1 7cbb
00000130: db84 0e3e 4dab 92bd 3101 503d fd03 b6bd
00000140: 5e13 d93d 18c0 0e3d 6fe8 d63c 66f5 293e
00000150: e2a1 56be e63d 7fbd 3305 e1bc e063 aa3d
00000160: 88f2 543d 8e9e 5abd 436c 733d 68f4 24bd
00000170: 33d7 e3bd 73a0 003e 67ec f7bc 9bd9 1ebc
00000180: b564 2bbd baf3 db3c a7a2 bcbc 17a2 1f3e
00000190: 2c7f 31bd e892 0b3c d321 18be bc48 f9bd
000001a0: 3299 c03c 08d8 efbd de95 283d 7100 6c3d
000001b0: edc8 1e3c 29aa 24bc 7927 7e3c 36fb 2ebb
000001c0: e704 9b3d b50f c3bd a6a7 3abd 65cb 4ebe
000001d0: 4648 4dbe 268d ffbd f39e 6f3d 8195 783c
000001e0: dad5 8cbc 78c4 8e3c 1ab0 99bd c9fb 23bd
000001f0: 2a39 503c ca57 eabd 6a98 f5bd c528 48bd
00000200: 59dd 703b 0d0d 9b3c de7c 01bd 352f b9bd
00000210: e4dc 4bbd 6055 9f3d a741 8dbb 69b9 94bc
00000220: 073f aebc 2b09 2cbd b001 43bb 641b 0e3c
00000230: 57ec 763c 3fee 0fbc ce42 22ba 7ab6 eebd
00000240: 1274 49bd f57c 9aba 95b2 8dbd 6237 853c
00000250: d231 02be 743c debc b19c eebd ca3f eabc
00000260: 5980 a5bd f383 e03b e60f 88bd 3f72 a23b
00000270: 1e8b a9bc 2444 e2bd cfbc 3a3d 3dd1 643c
00000280: 1f24 9e3c 0b05 19be 6adb c0bd aba3 a5bc
00000290: 467c 0d3c 95c8 a33d 8e1b 4fbd 4c1a f1bd
000002a0: 9031 f0bd 18a4 a13c 3b3c 56bd 802f c1bd
000002b0: 84ad 4a3d e45c 24bd 6f0a dbbd d6c3 e03d
000002c0: 00ae 34bd adda 3bbd 4cda 9abd 5423 a6bd
000002d0: d056 d3bd 6741 ebbd e4f8 eabb ca39 70bd
000002e0: cbe4 053d af26 82bd a317 ffbb a28c 87bd
000002f0: 8295 d3bd 76f1 aabd a73b 21bd 7515 d2bd
00000300: 1d53 03be 09fd a63c 1d2d 63bd e371 8e3c
00000310: de7b e1bd d00d 02be a179 a3bd e341 07be
00000320: f6a3 75ba 94ca a13c 5d00 183c 07ee 983b
00000330: 44c3 08bd c2d8 833c 2c7d 85bd 2589 a2bc
00000340: 6ad9 0ebd 9b0a 17be 680a ccbc 6fec 173c
00000350: 4ebc c23b ca04 e0bd f288 90bd b554 fbbd
00000360: bd87 82bd 60eb fc3b cff5 863c 779a 75bd
00000370: 91dc 823c 26b7 bbbd 6f77 cabd 6596 d4bd
00000380: f23d 12bc da2d 453c 12ef d0bd fb8f f8bd
00000390: 25b0 343d 0f62 03bd e371 c9bd 9532 953c
000003a0: ff7c 13be 1a94 dabb e4c5 03be 20a1 61bb
000003b0: 5243 9ebd 938f 9a3b 472a 01bb b380 c3bd
000003c0: 3af3 92bb 2e5c bdbd bfe1 bebd f627 bdbd
000003d0: d569 b1bd c6bb e3bd 40f6 c1bd b73d e8bb
000003e0: a6aa f6bd 9244 a3bd 36eb a5bd 8eb3 62bd
000003f0: 330a adbd 80db aebc 163b 31bd 2636 0bbe
0.00030973417 -0.15827791 -0.1157783 0.10090113 -0.05314264 0.11764134 -0.046066638 -0.14004126
0.042168364 0.14016856 0.017707916 -0.06274035 0.09796476 -0.20686543 -0.08442118 0.018162426
0.12965359 0.0015426967 0.070873156 -0.13881566 0.013311112 0.061564162 -0.100526884 -0.04840942
0.048383195 0.0979468 -0.05239297 -0.12749436 0.021519708 0.032606807 0.033641994 0.011354528
0.085785404 0.14715645 -0.028260764 0.030420925 0.06721134 0.04384192 -0.0018709489 -0.026325963
-0.016143488 0.006885154 -0.037513267 -0.056689035 0.042179197 0.06521744 0.02308259 -0.10664133
-0.06104459 -0.028672768 -0.06119528 -0.06246199 -0.4357203 -0.040873695 -0.11045705 -0.035489675
-0.069928944 -0.16582586 -0.080981836 0.11249756 -0.012883953 -0.09887547 0.04579418 0.06447613
-0.07079693 0.007718984 0.030995896 0.11049346 -0.32532966 0.076690644 0.103085466 -0.05617689
0.051569894 0.034666926 -0.17331961 -0.0038567493 0.13917868 -0.07161579 0.050782386 -0.088874795
0.10599397 0.034851164 0.02623388 0.16597518 -0.20960191 -0.06231489 -0.0274683 0.08319831
0.05198911 -0.053373866 0.05942942 -0.040272146 -0.1112503 0.12561207 -0.030264093 -0.009695436
-0.04184409 0.026849616 -0.023026777 0.15589176 -0.04333417 0.008518912 -0.14856653 -0.12172076
0.02351055 -0.117111266 0.04115855 0.05761761 0.009691459 -0.010050335 0.015512341 -0.0026700026
0.075692944 -0.0952448 -0.04557004 -0.20194776 -0.20047101 -0.12478094 0.058501195 0.015172363
-0.017191816 0.017427668 -0.07504292 -0.040035043 0.0127089415 -0.11442526 -0.11991961 -0.048867006
0.0036753027 0.018927122 -0.031613223 -0.09042207 -0.049771205 0.07779956 -0.004310805 -0.018154817
-0.021270288 -0.04200093 -0.0029755645 0.008673523 0.015070996 -0.00878483 -0.0006189764 -0.116558984
-0.04918296 -0.0011786508 -0.069188274 0.01626176 -0.12714317 -0.027128436 -0.1165098 -0.02859487
-0.08081121 0.006851667 -0.066436574 0.004957467 -0.020696219 -0.11048153 0.04559022 0.013965902
0.019304333 -0.1494333 -0.0941685 -0.020219645 0.008635586 0.07997242 -0.050563388 -0.11772594
-0.11728203 0.019731566 -0.052303534 -0.09432888 0.049481884 -0.04012765 -0.106953494 0.10974853
-0.04411125 -0.045862842 -0.07561168 -0.08112207 -0.103192925 -0.11487084 -0.0071707834 -0.058648862
0.032688897 -0.063550346 -0.0077848 -0.066186205 -0.10331251 -0.08346836 -0.03936353 -0.10257999
-0.12824674 0.020384328 -0.055462945 0.01738829 -0.11009954 -0.12700582 -0.07982183 -0.13208728
-0.00093704404 0.019749917 0.00927743 0.004667047 -0.033389345 0.01609457 -0.06518015 -0.019840786
-0.03487531 -0.1475014 -0.024907306 0.009272679 0.005942858 -0.109384134 -0.0705737 -0.12272016
-0.06373546 0.0077184886 0.016474633 -0.059961762 0.015974315 -0.09165792 -0.098860614 -0.10380248
-0.008925902 0.012034858 -0.10201849 -0.12136837 0.044113297 -0.032075938 -0.09836175 0.018212596
-0.14403151 -0.006670487 -0.12868458 -0.0034428313 -0.07727684 0.0047168224 -0.0019709037 -0.09546032
-0.0044845613 -0.092460975 -0.093204014 -0.092361376 -0.08662764 -0.11119799 -0.094707966 -0.007087435
-0.12044267 -0.07972063 -0.081015036 -0.055347018 -0.08449211 -0.0213449 -0.04326924 -0.13594875

mlp.2.bias f4 [128]
00000000: ee20 733e 1b20 91bd 9184 bfbd a32f 8f3e
00000010: 0fe3 123e 05cc 153e f12f 90bd 1226 b33b
00000020: afbd 82bc 308f bdbc c1eb a0bd 9e46 62be
00000030: 5e70 1bbd 9954 95bc 6c15 ba3d 69c5 e0bd
00000040: 94bc b13b a300 903d 889e d7bd bc5d e6bd
00000050: b115 febc 5016 8d3d e135 fa3c 9c5b e8bd
00000060: 4bb8 ff3b ba2b afbe bc92 8eb9 484f 01be
00000070: e9fe 0abc 1ed8 19bc 034f 01be 7f17 4abd
00000080: 2d64 dc3d 8271 2bbd 4588 16be 165d f1bd
00000090: b78a 49bd 3eb7 3fbd 8c6a c83c bb00 89bd
000000a0: 946a 823d 4ece 99bb 56a3 f7bd 2c8a f6bd
000000b0: 01e6 7bbc 3e1e f7bd 9df7 143e b589 f63c
000000c0: ec11 8fbb f5a7 8abd 59d5 c5bd 4945 d13d
000000d0: 6144 a2bd cd40 13be de39 5b3e 53ab 8fbd
000000e0: 7dad 11be b144 17be 75c0 603c 1256 7e3e
000000f0: 230b 71be 91f8 ffbd a808 983d 4977 f43d
00000100: f70b 89bd b0b3 8e3d af30 e7bd 78af 9f3e
00000110: 3ab8 433e 0467 79ba deec a23b f9d6 67bc
00000120: cea3 973e 131f acbd 52ab cf3c 0832 933e
00000130: 74f6 9fbd c587 00be 994c aabd 4716 e03d
00000140: 0084 13be f149 f33d 20ba 95bd 3b8d ed3d
00000150: 8030 a3bd 29af 823e ab7f 91bd 2fab c63b
00000160: a854 333c e369 2d3e 6490 25bd c312 4abc
00000170: e6ca 21be 4987 2bbd e22b 123e 45e8 9cbd
00000180: 6c63 2fbe e182 8dbd e122 a63c f904 eebd
00000190: e91c faba 955e 81bd 3b8b babb 2b50 bfbd
000001a0: af22 843d 732f 22bd a62d 07bd 38f8 e5bd
000001b0: 462b 473e 5888 623c 40cb 823e 2491 5cbd
000001c0: 352d 7b3b a66c b9bd 2496 d73b a94d febd
000001d0: 6312 2bbe 3c37 f3bc 0b66 15bd ee75 aebd
000001e0: ba0b a9bd be15 123e 7458 4f3e bd67 673e
000001f0: 3d9c 5c3e 9153 c5bd faaf ae3d 3432 0dbd
0.2374303 -0.07086202 -0.09351457 0.2796603 0.14344428 0.14628609 -0.07040394 0.005467185
-0.015959589 -0.023139566 -0.078574665 -0.22097251 -0.03794896 -0.018228816 0.09086117 -0.10975153
0.0054240916 0.070313714 -0.10528284 -0.11248347 -0.031016203 0.068890214 0.03054327 -0.11345598
0.007803952 -0.34213048 -0.00027193676 -0.126279 -0.008483627 -0.009389905 -0.12627797 -0.049338814
0.107612945 -0.041856296 -0.1470042 -0.11785333 -0.049204554 -0.046805613 0.024464868 -0.066895925
0.063679844 -0.004693783 -0.12091701 -0.12038073 -0.015374661 -0.12066315 0.14547582 0.03009496
-0.00436615 -0.067703165 -0.096598335 0.10218293 -0.079231985 -0.14380188 0.21408793 -0.070150994
-0.14226337 -0.14772297 0.01371776 0.2483752 -0.23539405 -0.12498582 0.07423526 0.11936814
-0.06691735 0.069678664 -0.112885825 0.3118856 0.19113246 -0.0009513947 0.0049720844 -0.014150375
0.2961716 -0.084043644 0.025350247 0.28749108 -0.07810679 -0.12551792 -0.08315391 0.10941749
-0.14405823 0.118793376 -0.07310891 0.11599203 -0.07968235 0.25524262 -0.07104429 0.006062887
0.010945477 0.16934924 -0.040420905 -0.012333575 -0.15800056 -0.041877065 0.14274552 -0.076614894
-0.1712777 -0.06909729 0.020280303 -0.11622042 -0.0019082102 -0.06316868 -0.005692867 -0.09341463
0.06451928 -0.039596032 -0.033002518 -0.112289846 0.19450101 0.013826452 0.25545692 -0.053849354
0.0038326506 -0.09053926 0.0065791775 -0.12417156 -0.16706233 -0.029689424 -0.03647427 -0.08518587
-0.0825419 0.14266106 0.20248586 0.22598167 0.21543975 -0.0963508 0.085296586 -0.034471706

mlp.4.weight f4 [3, 128]
00000000: 77b7 0f3c 3e1a 01bc 3cec 03bc 9c5f 0e3e
00000010: 40b3 53bd da4a 5738 da20 1d3d fef8 003d
00000020: ca2a 84bc 5fe8 003d 0b8f a5bc 6879 ffba
00000030: 8a14 803d e196 acbd 2b05 043d c136 1bbd
00000040: fb45 e33c 2543 1a3c 3e7b 143d 966d 04be
00000050: 5373 c13d 9c24 91bd b1c2 5b3d 27a2 2fbc
00000060: 71b0 52bc 9462 b93c b50a 583d e875 51bc
00000070: 3feb 2d3d b47f 60bd 1dc2 6bbd 7062 333a
00000080: d2c7 0fbe cbca d83d 6854 cb3c 62a4 95bd
00000090: 9e85 1c3d 7a87 213d e522 543d 3616 56ba
000000a0: dc96 e03d 6a4e ea3c 4182 1bbe e700 b73b
000000b0: b2bd 6ebc 0b7b a83b 8612 d63d 2c83 d8bc
000000c0: 5018 20bd 8712 f83d 6168 673d f2d2 2c3d
000000d0: 747b cebc 827e b3bc 871f ee3d bcc1 d4bc
000000e0: ab84 0c3d b209 c53d f344 e83c 574e 2b3e
000000f0: d9ba 26be 5ca5 21bd 88fb ddbb adf8 a9bc
00000100: 5a31 5b3d 1d61 f0bb 519e acbb 5579 cb3d
00000110: 92ba f23d fbb8 a43c 3e65 a13c a766 9a3d
00000120: 8ae9 903d 143c 073d ddbe 663c 8dd5 b13d
00000130: 552f 0bbd dbe5 e23d d7f1 bbbc d19b 1e3b
00000140: bd9d 51bc d2ae e93d 4aee d139 dcba bd3c
00000150: 991b 523b 2739 063e c377 24bd e562 2dbc
00000160: c4c5 573d 70e8 22bd 7274 653c 9447 1ebc
00000170: cfb0 20bd c654 9d3b 8fb1 513d 4529 a6bb
00000180: bbbf babd bf44 cf3c 431e f43c 553a ccbc
00000190: efd8 d43c f765 003d 9732 a53d 82ee cebc
000001a0: ce1d bd3d e393 b7bc ac6e 4ebd 7b80 c53c
000001b0: bda9 f03c 61fb cfbc e5ef 8b3d 560e 62be
000001c0: b30d 8ebc 7a33 8cbc cf4a 3fbd 0915 b6bc
000001d0: c9cf a73d 5247 27bc e488 94bc e335 7b3d
000001e0: 7dea 5f3d e10d 91bc cb1d 023d 6007 673c
000001f0: 6bd6 4c3d 69a6 3abd 8a63 773a 85a5 4fbd
00000200: 8607 d0bd 8ddc c8bd f32d cfbd bff0 07bd
00000210: 2950 79bd f18a 92bd b5a3 90bd 9ace ffbb
00000220: 775c ebbd 1655 a3bd cc50 373c 703c 103e
00000230: 42ca 9abd 265e a3bc 5105 733e cae3 153e
00000240: 1343 8cbd 8c13 3abd a2a4 acbd 129a 31bd
00000250: 0f6f aa3c f4b1 c4bd 075f 26ba ab2f 62bd
00000260: 3807 db3b aa58 0a3e 97b6 81bd 56c2 dbbd
00000270: 5b28 1abd ec05 2a3d dd5f 5fbd be33 6abd
00000280: 12b8 3fbd 4f24 563c 3081 b23b be41 e63c
00000290: ee48 98bd 9f9b 98bc b027 25bd 5503 6d3c
000002a0: b919 7dbc 0045 2fbd 3da3 353d b490 b7bc
000002b0: a014 fd3c 1375 51bd 0f63 7a3c 6bc3 98bc
000002c0: 1cc9 62bd 99f9 2b3c 5dc2 6fbd 82e9 4f3e
000002d0: ff72 8f3b 1b0b 93bd a2c1 c9bb 34df 123d
000002e0: f8d9 6ebd ae90 11bc 6120 55bc 67a2 ab3b
000002f0: 827f 32bd 20de 583d 9a87 65bb f7f7 18bd
00000300: bc00 e63c e93f 303b 3d01 70bd 7a8d fd3d
00000310: 5c7a 5fbd fe9d adbd ce38 19bd 37a7 673b
00000320: c487 1ebe 808b 4c3c 9464 b63c 209b 7abd
00000330: 61b1 993c 38e3 c03c aa88 f43b 2e15 cfbd
00000340: 265e babd b642 df3c 359e fcbb 92dc b23a
00000350: 28b1 303d defd d5bd 0503 23bd 2b83 4cbc
00000360: 81ba d1bb b339 4dbd 6565 0abd 6d63 a6bd
00000370: fc57 053d 304a ddbd 2667 803b 42d4 69bd
00000380: 9f1a 8ebc b484 b23d 9237 ddbc 5df8 d0bd
00000390: a860 193c b774 8ebd ce96 29bc 3914 08bd
000003a0: 5b3a f3bb 71cf d6bd a3c4 d539 cff0 4bbd
000003b0: d7a1 34bd cbf6 f5bb 3931 b3bd b4a3 3bbc
000003c0: 98c3 cebc b98a ecba 784b 5dba 0ed8 91bd
000003d0: 2ece 65bc 7d6c adbd 4002 dbbc 4e45 b6bd
000003e0: 7e3f 00bd 8f7b 49be 8ef6 fb3a a071 52bb
000003f0: 3266 09bd 01cb 0a3d 2aca 9dbc 8ac0 00bd
0.008771769 -0.007879792 -0.008051928 0.1390366 -0.051684618 5.1329705e-05 0.038361408 0.031487457
-0.016133685 0.031471606 -0.02020981 -0.0019491138 0.062539175 -0.08427215 0.03223149 -0.037894014
0.02774333 0.009415423 0.036250345 -0.12932429 0.094458245 -0.07087061 0.05365247 -0.0107198125
-0.01285945 0.022630014 0.052744586 -0.012784459 0.042460676 -0.054809287 -0.057558168 0.00068429764
-0.14041069 0.10585555 0.024820521 -0.07306744 0.038213365 0.03943584 0.05179109 -0.0008166762
0.10966274 0.028601844 -0.15186407 0.0055848244 -0.014571594 0.005141621 0.10452752 -0.026429735
-0.039085686 0.12112909 0.056496028 0.04219336 -0.025205351 -0.02191091 0.11627107 -0.025971286
0.03430621 0.0962099 0.02835319 0.16729103 -0.16282214 -0.03946434 -0.0067743696 -0.02074846
0.053513862 -0.0073357956 -0.005267896 0.099352516 0.11851992 0.020107737 0.019701596 0.07539111
0.07075794 0.03301628 0.014083591 0.0868331 -0.033980686 0.11078998 -0.022942467 0.002420176
-0.012793955 0.114102975 0.00040041126 0.02316039 0.0032059907 0.1310774 -0.040153276 -0.01058266
0.05267884 -0.03977245 0.0140048135 -0.00966062 -0.039231118 0.0048013655 0.051194724 -0.0050708377
-0.09118601 0.025301335 0.029799586 -0.024930159 0.025982348 0.03134724 0.0806629 -0.025260214
0.092342004 -0.022409385 -0.050398514 0.024109116 0.029377813 -0.025388421 0.068328656 -0.22075781
-0.017340517 -0.01711439 -0.046702202 -0.022226827 0.08193929 -0.010209875 -0.01813168 0.061330687
0.054666985 -0.017706813 0.031766694 0.014100879 0.050009172 -0.045568857 0.0009437135 -0.05069496
-0.10157685 -0.09807692 -0.10116186 -0.033188578 -0.060867462 -0.07155407 -0.07062475 -0.0078066112
-0.11492246 -0.07975213 0.011188697 0.14085555 -0.07558109 -0.019942354 0.23732497 0.14637676
-0.06848731 -0.045428798 -0.08429839 -0.043359824 0.02080491 -0.09604254 -0.00063465576 -0.05522124
0.00668421 0.13510385 -0.063336544 -0.10730426 -0.037636142 0.041509554 -0.05453478 -0.05717825
-0.046806403 0.01307018 0.0054475293 0.02810752 -0.07435785 -0.018628893 -0.040321052 0.014466126
-0.015448027 -0.042790413 0.04434513 -0.022407867 0.030893624 -0.05113704 0.0152824065 -0.01864787
-0.055367574 0.01049652 -0.05853497 0.2030392 0.0043777223 -0.071798526 -0.006157116 0.035857394
-0.05831334 -0.008884592 -0.013008208 0.0052378657 -0.043578632 0.05294621 -0.0035023452 -0.037345853
0.028076522 0.0026893562 -0.05859493 0.123805 -0.05456005 -0.084774 -0.03740769 0.003534747
-0.15481478 0.012484431 0.022264756 -0.061183095 0.018761339 0.023545846 0.0074625807 -0.101114616
-0.09099989 0.02725349 -0.0077092894 0.0013646057 0.0431377 -0.10448812 -0.0397978 -0.012482445
-0.006400407 -0.050103854 -0.033788104 -0.08124433 0.03255461 -0.10805166 0.0039185463 -0.05708719
-0.017346678 0.08716717 -0.027004037 -0.102036215 0.009361424 -0.06955855 -0.010350896 -0.03322241
-0.007422728 -0.10488785 0.00040773032 -0.0497902 -0.044099655 -0.0075062267 -0.08749623 -0.011452604
-0.02523975 -0.0018046714 -0.00084417267 -0.07121287 -0.014026208 -0.08467958 -0.026734471 -0.088999376
-0.03131055 -0.1967604 0.0019223259 -0.0032111183 -0.033544727 0.033885006 -0.019261438 -0.03143362

mlp.4.bias f4 [3]
00000000: 91d5 b53e 5945 9dbe 32b7 633c
0.355145 -0.3071697 0.013898658
