EUSIPCO/Coherent Sources/saved_models/da_music_10.0dB_1.pth (torch, 46958 bytes, 18 tensors)

bn.weight f4 [16]
0	0x3fc893af	1.567007
1	0x3fe16817	1.7609891
2	0x3fc5c43f	1.5450515
3	0x3f6d42a8	0.92679834
4	0x3f6e2def	0.9303884
5	0x3e9f217b	0.3108023
6	0x3e997b4c	0.2997688
7	0x3f2ee651	0.68320185
8	0x3fc4364e	1.5329072
9	0x3fc9ee1a	1.5775788
10	0x3f643e9d	0.8915804
11	0x3f3c8a5c	0.7364862
12	0x3f465b88	0.77483416
13	0x3e716daa	0.2357699
14	0x3e66e9f6	0.22550187
15	0x3ed75773	0.42058906

bn.bias f4 [16]
0	0xbeb68520	-0.3564844
1	0x3db40c5f	0.08791422
2	0xbeb68da3	-0.35654935
3	0x3e2e29c0	0.17008114
4	0xbbd29ea9	-0.006427605
5	0x3f0f1098	0.55884695
6	0xbe8c73b4	-0.27432024
7	0x3ed82f72	0.42223698
8	0xbbef1499	-0.0072961566
9	0x3cb46190	0.022019178
10	0x3decdcad	0.11565528
11	0x3e0925f7	0.13393389
12	0xbec3dab4	-0.38252795
13	0x3f032d7a	0.51241267
14	0xbebb394b	-0.3656715
15	0xbdaad310	-0.08341038

bn.running_mean f4 [16]
0	0x3a62ed9c	0.00086566224
1	0xba4943ec	-0.00076776627
2	0x3b22478b	0.0024761881
3	0xbacfdb63	-0.0015858229
4	0xb97b3bdc	-0.00023959525
5	0xb9033fec	-0.00012516946
6	0x39d87540	0.00041286089
7	0xbb1cb0b0	-0.0023909025
8	0xbb638efe	-0.003472268
9	0xb70531cd	-7.939013e-06
10	0xb89bf79d	-7.4370975e-05
11	0x3a812acf	0.0009854677
12	0x3a47dcbe	0.00076241407
13	0x3a8d1e17	0.0010766414
14	0x398a13ce	0.00026336167
15	0x3a849804	0.0010116105

bn.running_var f4 [16]
0	0x40915e33	4.542749
1	0x3fc88b48	1.5667505
2	0x3fb779bc	1.4334025
3	0x3fb494ef	1.4107951
4	0x3faf9e76	1.3720233
5	0x3fb26b15	1.3938929
6	0x3fb58f21	1.4184304
7	0x3fb4f4e7	1.4137238
8	0x40916eb1	4.544762
9	0x3fc86dfb	1.5658563
10	0x3fb85eb1	1.4403898
11	0x3fb4cfb7	1.412589
12	0x3fae8e5c	1.3637195
13	0x3fb1d5fe	1.389343
14	0x3fb5cf29	1.4203845
15	0x3fb46ae5	1.4095122

rnn.weight_ih_l0 f4 [48, 16]
0	0x3e1ea928	0.15494215
1	0x3c413db6	0.011794498
2	0xbf3c1451	-0.734685
3	0xbf08b5d3	-0.5340244
4	0x3f259289	0.6467672
5	0xba997544	-0.0011707922
6	0xbfa300e3	-1.2734646
7	0x3f3a7b70	0.728446
8	0xc010cf3b	-2.2626483
9	0xbf544be4	-0.829283
10	0xbf05a204	-0.5220034
11	0x3f705b51	0.9388934
12	0x3e87f54b	0.2655433
13	0xbf218fad	-0.63109857
14	0x3e81a9f0	0.25324965
15	0x3f8c578f	1.0964221
16	0xbf3c4f9c	-0.73558974
17	0xbeaee04d	-0.34155503
18	0x3f6a0880	0.9141922
19	0xbe4eedc3	-0.20207886
20	0x3f2f558b	0.68489903
21	0xbe537c1e	-0.20652816
22	0x3ec2c4d6	0.380408
23	0xbdf5380d	-0.119735815
24	0xbf0109d1	-0.50405604
25	0x3eeb0952	0.45905548
26	0xbed36491	-0.41287664
27	0xbe8d68a5	-0.276189
28	0xbe559891	-0.2085898
29	0xbe4089d2	-0.18802574
30	0xb9b0cf80	-0.00033723935
31	0x3e25d23c	0.1619348
32	0x3d704e58	0.058668464
33	0xbe9913de	-0.2989797
34	0x3efb2863	0.4905425
35	0x3e884439	0.2661455
36	0x3edbcf2a	0.4293149
37	0xbef68485	-0.4814798
38	0x3e9e7af9	0.30953196
39	0xbdbaf891	-0.091294415
40	0x3e99f7c4	0.30071843
41	0xbd9edd4a	-0.07757051
42	0x3c1afbef	0.00945948
43	0x3def03e0	0.11670661
44	0xbef02e37	-0.4691026
45	0xbef37259	-0.47548178
46	0x3f71bcbb	0.94428605
47	0xbe17a3d0	-0.14808583
48	0x3e557369	0.20844807
49	0x3eebf29a	0.46083528
50	0xbf192030	-0.5981474
51	0x3c6cec2d	0.014460606
52	0x3f273672	0.6531745
53	0xbf904fe0	-1.1274376
54	0x3e8dd854	0.27704108
55	0xbe9cf6fb	-0.3065718
56	0x3e97f341	0.29677776
57	0xbd9e53c4	-0.07730821
58	0x3f0864c0	0.5327873
59	0x3ea484ac	0.3213247
60	0x3e1a359c	0.15059513
61	0xbf2d5dba	-0.6772114
62	0x3e68a509	0.22719206
63	0x3e9bea10	0.30452013
64	0xbea2bd69	-0.31785133
65	0xbfa1df6a	-1.2646306
66	0x3fadd8e3	1.3581814
67	0xbe28c0e7	-0.16479836
68	0x3e176e38	0.14788139
69	0x3d922fd3	0.07138028
70	0xbe8683cc	-0.26272428
71	0x3f03b85f	0.514532
72	0x3ee6a543	0.4504796
73	0x3e8621fd	0.26197806
74	0x3e4c8d81	0.19975854
75	0x3f281a41	0.6566506
76	0xbf2d662b	-0.6773402
77	0x3f676bfa	0.90399134
78	0xbf5f8648	-0.8731427
79	0x3e4fd863	0.20297389
80	0xbef2ae41	-0.4739857
81	0x3f88f2fa	1.069915
82	0xbe534308	-0.20631039
83	0x3e95fe5b	0.2929562
84	0xbeb78b09	-0.35848263
85	0xbdc13483	-0.09433844
86	0x3f2cd984	0.675194
87	0xbe3e37b2	-0.18575934
88	0x3f7b5b13	0.98185843
89	0xbdcf1b18	-0.101125896
90	0xbdba39b6	-0.09093039
91	0xbf3ef482	-0.7459184
92	0x3f396bb0	0.72429943
93	0xbe851fd9	-0.2600086
94	0xbdc8eddb	-0.09810992
95	0xbf821f31	-1.0165769
96	0xbf5cf2be	-0.86307895
97	0xbf1cfb39	-0.61320835
98	0x3f2b9620	0.6702595
99	0xbf2056d7	-0.6263251
100	0x3ea3c23d	0.3198413
101	0x3e1f2768	0.15542376
102	0x3e925be0	0.2858572
103	0x3ef41650	0.47673273
104	0x3f8a7462	1.0816767
105	0xbed49edb	-0.41527447
106	0xbde46eae	-0.11153923
107	0x3f8ca479	1.0987693
108	0xbf750525	-0.95710975
109	0x3e140548	0.1445514
110	0xbf0f8ad7	-0.5607123
111	0xbe5b1b63	-0.21397166
112	0x3e00ca53	0.1257718
113	0x3e840f46	0.25792903
114	0xba6296c8	-0.0008643684
115	0x3e3fc5b9	0.18727769
116	0xbee97257	-0.45595047
117	0x3f423741	0.7586556
118	0xbe3976af	-0.1811168
119	0xbe04822d	-0.12940283
120	0xbfb609a6	-1.4221694
121	0x3ea88ac8	0.32918382
122	0xbee08e0a	-0.43858367
123	0xbea6278b	-0.32452044
124	0x3f3dbcdf	0.7411632
125	0xbf16004d	-0.5859421
126	0x3f69a01b	0.91259927
127	0xbf40c2f4	-0.75297475
128	0x3dff131c	0.12454817
129	0x3f43db80	0.76506805
130	0xbf4c4e0f	-0.7980661
131	0xbe38d45e	-0.18049762
132	0x3e4675cc	0.19380873
133	0xbf4ec84b	-0.8077437
134	0x3f039fdc	0.514158
135	0xbeb7f60b	-0.35929903
136	0x3ffa4d2b	1.95548
137	0xb9cfc55e	-0.00039629167
138	0xbdf00cad	-0.11721168
139	0x3e49aed9	0.19695605
140	0x3e0a6a55	0.13517125
141	0xbf39c2f7	-0.7256312
142	0x3e48a93d	0.1959581
143	0x3e96ded2	0.29466873
144	0xbf457db6	-0.77144945
145	0xbd73bc0d	-0.05950551
146	0xbe030357	-0.12794243
147	0x3ebf6e6a	0.37388927
148	0xbeaa62b4	-0.3327843
149	0xbee2a452	-0.4426599
150	0xbdd820e4	-0.105531484
151	0xbf09e0b8	-0.5385852
152	0xbdbb6864	-0.0915077
153	0x3ecfbaa9	0.40572098
154	0xbf8f8171	-1.1211377
155	0xbf178941	-0.5919381
156	0x3f08c6e8	0.53428507
157	0xbf1a3106	-0.60231054
158	0x3f3fbb83	0.74895495
159	0xbd3c5003	-0.045974743
160	0xbe319ce9	-0.17345013
161	0x3f4623ac	0.7739818
162	0x3d956595	0.07294766
163	0xbf400d97	-0.75020736
164	0x3de6e424	0.11273983
165	0xbee02153	-0.43775424
166	0x3e420060	0.18945456
167	0x3ebee7ef	0.37286326
168	0xbf690754	-0.91026807
169	0xbeb65bde	-0.35616964
170	0x3dd27bc9	0.102775164
171	0x3deeedb8	0.11666435
172	0x3e9cce6c	0.30626237
173	0xbf1ec29b	-0.62015694
174	0x3f9c3237	1.2202824
175	0xbedab0e4	-0.42713082
176	0x3da874bd	0.08225391
177	0x3f97ea27	1.1868333
178	0x3edd4a2a	0.43220645
179	0xbbb29ec4	-0.0054510552
180	0xbd8808f0	-0.0664233
181	0xbe9f4a95	-0.3111159
182	0x3d2c2f37	0.042037215
183	0xbf02279a	-0.5084168
184	0xbfc29897	-1.5202817
185	0xbfabffe4	-1.3437467
186	0x3f8853d9	1.0650588
187	0x3c8eed77	0.017447216
188	0x3db1bccf	0.086785905
189	0xbdbe5fde	-0.09295629
190	0x3f198409	0.59967095
191	0x3e8dcf7d	0.27697363
192	0x3fac8b8b	1.3480085
193	0x3f60e419	0.8784805
194	0xbf0d381e	-0.55163753
195	0xbf9a00b9	-1.203147
196	0x3ea1dbdd	0.31613055
197	0x3f87be23	1.06049
198	0xbefdca7f	-0.49568555
199	0x3f22cb76	0.63591707
200	0x3fa2d300	1.2720642
201	0x3f8536d5	1.0407358
202	0xbeef1889	-0.46698406
203	0x3d934eef	0.0719279
204	0x3ec92e66	0.39293212
205	0xbee8348c	-0.4535259
206	0xbed96921	-0.4246302
207	0x3e2c608f	0.16833709
208	0x3f45e255	0.7729848
209	0xbf2003de	-0.625059
210	0xbd01911f	-0.03163254
211	0xbed9e668	-0.425586
212	0x3f0540bb	0.52051896
213	0xbf58e5cf	-0.8472566
214	0xbf265da2	-0.6498662
215	0x3e8d09f0	0.27546644
216	0xbf54f237	-0.8318209
217	0xbef24287	-0.4731638
218	0xbf1c2b39	-0.6100345
219	0x3f932d28	1.1498156
220	0x3ea02671	0.31279328
221	0xbf75a049	-0.959477
222	0x3f407c01	0.75189215
223	0x3f8ebec9	1.1151973
224	0xbe8e3fba	-0.27782995
225	0xbf280a78	-0.65640974
226	0x3e9f4331	0.3110595
227	0x3f18f9ed	0.59756356
228	0xbe4e85d8	-0.20168245
229	0x3ec60a80	0.38679886
230	0xbf9ceb23	-1.2259258
231	0x3ece2de2	0.4026938
232	0x3f707e4d	0.9394272
233	0xbf2eb1be	-0.68239963
234	0xbd3bb844	-0.045830026
235	0x3f9f66a6	1.2453201
236	0xbfbe8dff	-1.4887084
237	0x3f407399	0.7517639
238	0xbe13e6c0	-0.14443493
239	0x3f94c6d6	1.162318
240	0xbe922a79	-0.2854803
241	0xbc80a0a9	-0.015701609
242	0x3f081144	0.53151345
243	0xbf317a59	-0.6932731
244	0x3f7845db	0.9698159
245	0xbf48a175	-0.78371364
246	0x3e40625b	0.1878752
247	0xbf99de2c	-1.2020926
248	0xbf841577	-1.031905
249	0xbf5fd995	-0.8744138
250	0x3f14b6e3	0.58091563
251	0x3e8805e8	0.26567006
252	0x3e893593	0.26798686
253	0x3ed450f4	0.41468012
254	0xbc496c2b	-0.012293856
255	0xbec5a922	-0.386056

rnn.weight_hh_l0 f4 [48, 16]
0	0x403e1edb	2.9706333
1	0xbedaf9d9	-0.42768744
2	0xbd839969	-0.06425745
3	0x3b3c188a	0.002870115
4	0xbe8dec02	-0.27719122
5	0xbe69e503	-0.22841267
6	0xbe46a622	-0.19399312
7	0x3f13e158	0.5776572
8	0x3e6d3845	0.23165996
9	0x3e2482c5	0.1606551
10	0x3dd92837	0.106033735
11	0x3f7cf0c0	0.98804855
12	0x3e40935e	0.18806216
13	0x3ea68d12	0.32529503
14	0xbed95976	-0.42451066
15	0x3ee43b0e	0.44576305
16	0xbf108aca	-0.56461775
17	0x3dffa85f	0.12483286
18	0x3e919c9b	0.28439793
19	0xbdbaf307	-0.09128385
20	0x3f33c1fe	0.70217884
21	0x3ea98da9	0.3311589
22	0x3f16ce14	0.589082
23	0xc007c8c6	-2.1216292
24	0x3e90b800	0.2826538
25	0x3f32047c	0.6953809
26	0xbe176c97	-0.14787517
27	0x3e9cf177	0.30652973
28	0xbe909c90	-0.28244448
29	0xbed89476	-0.42300767
30	0x3fa2c5ac	1.2716575
31	0x3daea117	0.08526819
32	0xbf25abce	-0.6471528
33	0x3e9f009b	0.3105515
34	0x3fb1bfd0	1.3886662
35	0x3edc7613	0.43058833
36	0xbe24cffb	-0.16094963
37	0x3fb2b34d	1.3960968
38	0x3ef75f95	0.4831511
39	0xbf90f265	-1.1323973
40	0x3de12858	0.10994023
41	0x3e854459	0.26028708
42	0xbf14dfe0	-0.58154106
43	0x3e69ea13	0.22843198
44	0xbf5feed4	-0.874738
45	0xbdb96a43	-0.09053471
46	0xbe1182b9	-0.14210023
47	0xbc3bfa0f	-0.011473193
48	0x3eb3e403	0.35134897
49	0xbebcfaa9	-0.3690999
50	0xbe232338	-0.15931404
51	0xbd76063e	-0.060064547
52	0xbe07270e	-0.13198492
53	0xbca7ff53	-0.02050749
54	0xbed47c1b	-0.41500935
55	0x3e806189	0.25074413
56	0xbd6bceda	-0.057570316
57	0x3dd172a8	0.10226947
58	0xbe087c73	-0.13328724
59	0xbe9bc15d	-0.30420962
60	0x3ed25bbc	0.41085613
61	0x3ee65162	0.44983965
62	0x3e9799c6	0.29609507
63	0x3e51268c	0.2042486
64	0x3ecdd8ec	0.4020456
65	0xbe9fdedb	-0.31224713
66	0x3e927178	0.28602195
67	0x3eba1bf6	0.36349458
68	0xbf2d7742	-0.677601
69	0x3d9490c7	0.072541766
70	0xbf3f8865	-0.74817497
71	0x3e4db6d0	0.20089269
72	0xbe3eafbf	-0.1862173
73	0xbf0c17b6	-0.5472368
74	0x3ef4ee2d	0.47837964
75	0xbebb3e3c	-0.3657092
76	0x3e7521d6	0.23938689
77	0x3efccd31	0.493753
78	0xbf308934	-0.68959355
79	0xbed6d438	-0.41958785
80	0x3f53a665	0.8267577
81	0x3e85b642	0.26115614
82	0x3f4f219a	0.80910647
83	0xbe4789a1	-0.19486095
84	0xbd4fa1fa	-0.050691582
85	0x3eb453cb	0.3522018
86	0x3c300784	0.010743979
87	0xbf151a3d	-0.5824316
88	0xbe0ec204	-0.13941199
89	0xbeac44c7	-0.33646223
90	0xbe858ee2	-0.26085573
91	0x3d90da6a	0.07072909
92	0xbdd42183	-0.10357954
93	0x3f04ed10	0.5192423
94	0xbee3ad1b	-0.44468006
95	0xbe185092	-0.14874485
96	0x3eac6407	0.33670065
97	0x3d6d8518	0.057988256
98	0x3e6988d4	0.22806102
99	0x3e9d93e5	0.30776897
100	0xbe6a0117	-0.22851978
101	0x3cbdc4c2	0.02316511
102	0xbed66ea5	-0.4188129
103	0x3f1b84c2	0.6074945
104	0x3e5adfa0	0.21374369
105	0xbea11365	-0.3146011
106	0x3f11c9d5	0.56948596
107	0x3de5a925	0.112139024
108	0xbdbcef10	-0.09225285
109	0x3e339eaf	0.17541002
110	0xbe4a6f2c	-0.19768971
111	0x3e7d76c4	0.24752337
112	0xbe8c9584	-0.2745782
113	0x3e9fbda7	0.3119938
114	0x3f27c2ff	0.65531915
115	0x3e8e6c4c	0.27817
116	0xbe45a44c	-0.19300956
117	0x3cd85d20	0.026411593
118	0xbe60875c	-0.21926636
119	0x3f1ca268	0.6118531
120	0x3b8fcfe9	0.0043887985
121	0x3d14262a	0.03616921
122	0x3efe48a8	0.49664807
123	0x3e2f9caa	0.17149606
124	0xbf2f6161	-0.68507963
125	0x3e50f3ed	0.2040555
126	0xbf033c13	-0.5126354
127	0xbde10659	-0.10987539
128	0xbed5caa8	-0.41756177
129	0xbe92fe19	-0.28709486
130	0xbe25d00c	-0.16192645
131	0xbf562b8f	-0.83660215
132	0x3e0c4bc3	0.13700776
133	0xbf0ab161	-0.5417691
134	0x3cd66ff6	0.026176434
135	0x3e592e79	0.21209134
136	0xbec997f4	-0.39373744
137	0xbead13a1	-0.33804038
138	0xbefbc635	-0.49174657
139	0xbd71de38	-0.059049815
140	0x3f81dd61	1.0145684
141	0xbda5a62d	-0.08088336
142	0x3f480612	0.7813426
143	0x3f0b484c	0.5440719
144	0xbf8c9700	-1.0983582
145	0xbe3c7d55	-0.18407185
146	0x3e414bcd	0.18876572
147	0xbebf2db8	-0.37339568
148	0x3f6cc265	0.9248412
149	0x3b804e16	0.0039155586
150	0xbf36a066	-0.713385
151	0xbdc48b82	-0.095969215
152	0xbf219306	-0.63114965
153	0xbdae6391	-0.085150845
154	0xbea0a7a7	-0.3137791
155	0xbe98df62	-0.29857928
156	0x3e8b3bf4	0.27194178
157	0x3f60215d	0.8755091
158	0x3f81ef04	1.0151067
159	0x3d4a27ba	0.049354292
160	0xbf564ea5	-0.8371375
161	0xbe08e77b	-0.13369553
162	0xbe943e6d	-0.28953877
163	0x3eeef1d9	0.4666889
164	0x3f8c3af8	1.0955496
165	0xbf65d6ba	-0.8978077
166	0xbf154838	-0.5831332
167	0x3f075bbe	0.5287436
168	0x3b8454fd	0.0040384517
169	0x3f605657	0.87631744
170	0x3eb44230	0.35206747
171	0x3f1142ab	0.5674235
172	0x3f32af0f	0.6979837
173	0xbe4032b6	-0.18769345
174	0x3efc794e	0.49311298
175	0xbea740e0	-0.32666683
176	0xbe51d915	-0.20492966
177	0xbe29fb77	-0.16599832
178	0x3d65776c	0.056022093
179	0xbe5232ab	-0.20527141
180	0xbed89d42	-0.42307478
181	0xbd489161	-0.04896677
182	0x3dceae6b	0.10091861
183	0x3e41e985	0.18936737
184	0xbda04646	-0.078259036
185	0xbd359eac	-0.044340774
186	0x3eaf5e88	0.3425181
187	0xbde7ca62	-0.11317898
188	0x3f1eed60	0.62080956
189	0xbe6162e0	-0.22010374
190	0xbf1e5355	-0.61845905
191	0x3eb68d34	0.35654604
192	0x3f331623	0.6995565
193	0x3dbd1b09	0.09233672
194	0x3e90b38c	0.28261983
195	0x3d8ba976	0.068194315
196	0xbedaa56a	-0.42704326
197	0x3e3d761c	0.18502086
198	0xbe9daf41	-0.3079777
199	0xbec05e48	-0.3757193
200	0x3f2bf587	0.6717152
201	0xbeffc3d1	-0.49954084
202	0x3d3e5ac0	0.046473265
203	0x3f268c10	0.6505747
204	0x3f0c8193	0.54885215
205	0xbeace7dd	-0.33770648
206	0xbedb12ad	-0.42787686
207	0xbe49367b	-0.19649689
208	0x3f674dec	0.90353274
209	0xbd459f00	-0.048247337
210	0xbe220449	-0.15821947
211	0xbf0c79a4	-0.5487311
212	0xbdd88aa5	-0.10573319
213	0xbcac6240	-0.021042943
214	0x3e05bd93	0.13060598
215	0xbf2aec4a	-0.667668
216	0x3e0c88be	0.13724038
217	0x3e2edfb6	0.17077526
218	0x3e246cd8	0.16057146
219	0x3eb35b32	0.35030514
220	0x3fb14175	1.3848101
221	0xbf3e2d4d	-0.74287874
222	0x3eed09a4	0.46296418
223	0x3ebd9701	0.3702927
224	0xbe54bcbd	-0.20775123
225	0x3ddc6917	0.10762232
226	0x3f16859c	0.5879762
227	0x3f338654	0.70126843
228	0x3d31dcd0	0.043423474
229	0xba442151	-0.0007481771
230	0xbfbc3b3e	-1.4705579
231	0x3f767040	0.9626503
232	0xbfaac3ec	-1.3341041
233	0xbe2f2298	-0.1710304
234	0xbf9f35d7	-1.2438306
235	0xbf19f440	-0.6013832
236	0x3f2157c8	0.6302457
237	0xbdb24289	-0.08704097
238	0xbea118a1	-0.31464103
239	0xbd092999	-0.033486936
240	0x3e35d385	0.1775647
241	0x3e00058d	0.12502117
242	0x3eee9349	0.46596745
243	0x3f3536be	0.70786655
244	0xbed30ee7	-0.41222307
245	0x3ec150ef	0.3775706
246	0xbfb168dc	-1.3860126
247	0x3f174b62	0.590994
248	0xbf0a7cbc	-0.5409658
249	0xbdc38745	-0.09547285
250	0xbf2e45b5	-0.68075114
251	0xbf32dad6	-0.6986517
252	0x3e30097d	0.1719112
253	0x3e003662	0.12520745
254	0xbe284aee	-0.16434833
255	0xbed89bc0	-0.42306328

rnn.bias_ih_l0 f4 [48]
0	0xbea827e4	-0.32842934
1	0xbd268403	-0.04065324
2	0x3e7b0ac1	0.24515821
3	0xbdf2812b	-0.11841043
4	0xbd9cba25	-0.07652692
5	0x3e3e2753	0.18569688
6	0xbd8dc227	-0.06921797
7	0x3f0d087d	0.5509108
8	0xbd2bde43	-0.041960012
9	0x3b91bc64	0.0044475067
10	0xbf38990f	-0.7210855
11	0xbe476f92	-0.19476154
12	0x3ab2d3ca	0.001364344
13	0xbe9a4691	-0.30131963
14	0xbebdedd6	-0.37095517
15	0x3ddfac7c	0.10921571
16	0x3fb8c34c	1.44346
17	0x3ef92d96	0.48667592
18	0x3fc04193	1.5020012
19	0x3fbbdd37	1.4676884
20	0x3f077dcb	0.5292632
21	0x3f4248c5	0.7589229
22	0x3f46f8e8	0.7772355
23	0x3f33f357	0.7029318
24	0x3f596b6b	0.8492953
25	0x3fab084f	1.336191
26	0x3ed58fa6	0.41711158
27	0x3faff5bf	1.3746871
28	0x3fc52e3a	1.5404732
29	0x3f9aa4a9	1.20815
30	0x3f275023	0.65356654
31	0x3f99f9eb	1.2029394
32	0x3e479b55	0.19492848
33	0x3e56b373	0.20966892
34	0x3e810f50	0.25206995
35	0x3e91df14	0.28490508
36	0xbe8e23d6	-0.27761716
37	0x3ea391f0	0.3194728
38	0x3f0769b7	0.52895683
39	0xbe79ec17	-0.24406467
40	0xbcb23e30	-0.021758169
41	0xbe502b37	-0.20328985
42	0xbef66811	-0.4812627
43	0x3d85b4f4	0.06528655
44	0xbef4a853	-0.4778467
45	0x3e82d38a	0.25552016
46	0xbdb932d9	-0.090429015
47	0x3c1f294b	0.009714435

rnn.bias_hh_l0 f4 [48]
0	0xbed45463	-0.41470632
1	0x3df2905f	0.11843943
2	0x3eb4d5ae	0.35319275
3	0xbe8ab4fd	-0.27091208
4	0xbe137909	-0.1440164
5	0x3ee5c203	0.44874582
6	0xbe7da0a4	-0.24768311
7	0x3e7eda39	0.24887933
8	0xbddda63b	-0.108227216
9	0xbd5586b6	-0.052130423
10	0xbf9b2482	-1.2120516
11	0x3bb084b3	0.0053869127
12	0x3e194a6a	0.14969793
13	0xbe8f6ec2	-0.2801419
14	0xbe52349c	-0.20527881
15	0xbd2b21b6	-0.041780196
16	0x3fb2a057	1.3955182
17	0x3eb7b590	0.3588071
18	0x3fa8ab12	1.3177207
19	0x3f8567e2	1.0422328
20	0x3ebaf047	0.36511442
21	0x3f52fcfd	0.8241728
22	0x3f274df0	0.653533
23	0x3f8cd05d	1.1001087
24	0x3f896bd7	1.0736035
25	0x3fb5404f	1.416025
26	0x3f52c684	0.8233416
27	0x3fb56d85	1.4174048
28	0x3fb5dfaa	1.4208882
29	0x3f7c4eed	0.9855793
30	0x3f3466a5	0.70469123
31	0x3f7a0af2	0.9767295
32	0x3f383fdf	0.7197246
33	0x3ecb7719	0.39739302
34	0x3ebb1847	0.3654196
35	0x3c9f63ff	0.019456862
36	0xbe98eab6	-0.2986657
37	0x3ec723bd	0.38894454
38	0x3f0abcdb	0.5419442
39	0xbf0e3169	-0.55544144
40	0xbe515eea	-0.20446363
41	0x3dc6f3dd	0.09714482
42	0x3d6d6665	0.05795898
43	0xbeab673d	-0.33477202
44	0xbf0ba1c7	-0.5454373
45	0xbde6929d	-0.11258433
46	0xbda506d8	-0.08057946
47	0xbd43b453	-0.047779392

fc.weight f4 [128, 16]
0	0x3d12a31b	0.03580008
1	0x3ba8e98a	0.005154793
2	0xbd024cc4	-0.03181149
3	0x3e50f3ee	0.20405552
4	0xbdfb4e1c	-0.122707576
5	0x3f1279ef	0.57217306
6	0xbf090308	-0.5352025
7	0xbf2cd461	-0.67511564
8	0x3d3bd35b	0.04585586
9	0x3bff70e9	0.0077954424
10	0xbe298217	-0.16553532
11	0xbf0c5fb7	-0.5483355
12	0x3d9c50c9	0.07632596
13	0xbe9f8c6a	-0.31161815
14	0x3e0db295	0.13837655
15	0x3db63903	0.08897593
16	0xbe5f9236	-0.21833119
17	0xbe880dcd	-0.2657303
18	0xbea742b1	-0.3266807
19	0xbec86e32	-0.39146572
20	0x3e278a0f	0.16361259
21	0xbe404aea	-0.18778577
22	0xbe71e975	-0.23624213
23	0xbd6c6fa2	-0.05772365
24	0x3e04f974	0.12985784
25	0x3beb03d6	0.007172088
26	0x3e318084	0.17334181
27	0x3f1e3f10	0.61814976
28	0x3eada2b8	0.33913207
29	0xbf312b7e	-0.6920699
30	0x3e3756fc	0.17904276
31	0xbe5c3446	-0.21504316
32	0xbeb39fe3	-0.3508292
33	0xbe921af6	-0.28536195
34	0xbed28aed	-0.41121617
35	0xbe9d03b1	-0.3066688
36	0xbdc7cce5	-0.097558774
37	0xbe47af21	-0.195004
38	0xbe83ab77	-0.25716755
39	0xbe377f7f	-0.1791973
40	0xbc2f2a8f	-0.010691299
41	0xbeecfa45	-0.4628469
42	0x3f0b1244	0.54324746
43	0x3f0d5537	0.5520815
44	0x3f175547	0.591145
45	0xbe33fa08	-0.17575848
46	0xbe9a6840	-0.3015766
47	0x3e719c5f	0.23594807
48	0x3e25beaf	0.16186021
49	0xbf0c469e	-0.54795253
50	0xbd8073d5	-0.06272093
51	0x3e845418	0.25845408
52	0xbe94b480	-0.2904396
53	0x3e897891	0.26849797
54	0xbe7a2b43	-0.24430566
55	0x3c9cbf5c	0.019134216
56	0x3e8b56f7	0.27214786
57	0xbe5cc332	-0.21558836
58	0x3dd96f76	0.106169626
59	0xbee0b995	-0.43891588
60	0xbd6a98f9	-0.057274792
61	0x3f08ec38	0.5348544
62	0xbeb508d5	-0.353583
63	0x3e175f3e	0.14782426
64	0xbe67e1d4	-0.2264474
65	0x3c3e0e7d	0.011600134
66	0x3ec78d80	0.38975143
67	0x3c7d7423	0.015469584
68	0xbea26f97	-0.3172576
69	0x3f0afd6a	0.5429293
70	0xbd43d567	-0.04781094
71	0x3eb0e805	0.34552017
72	0xbe849467	-0.25894472
73	0xbe200aa5	-0.1562906
74	0xbe8a1ac6	-0.26973552
75	0xbea0c757	-0.31402084
76	0xbe07b40a	-0.13252273
77	0x3ea500e7	0.3222725
78	0x3ddc389a	0.107529834
79	0xbf393624	-0.7234824
80	0x3ec43df8	0.38328528
81	0x3ec1c662	0.37846667
82	0x3e809aa6	0.25117987
83	0x3e88c71f	0.26714417
84	0xbd883e0a	-0.06652458
85	0x3e1b0af4	0.15140897
86	0x3f0ccc6b	0.5499942
87	0xbeee1995	-0.46503893
88	0xbe2ccfcc	-0.16876143
89	0x3dbe375b	0.09287902
90	0xbe15f1b9	-0.14642991
91	0x3ed2e1e5	0.4118797
92	0x3cd1b1bd	0.025597448
93	0x3d9c81f7	0.07641976
94	0xbcd9874a	-0.026553769
95	0x3dd2d716	0.10294931
96	0x3e203141	0.15643789
97	0x3ed02cfb	0.40659317
98	0xbe5a8ad9	-0.21342029
99	0x3e0bd507	0.13655482
100	0x3f333fe3	0.7001936
101	0xbed359f3	-0.41279563
102	0x3eb8647d	0.36014166
103	0xbf3ef756	-0.74596155
104	0xbda7202d	-0.08160434
105	0x3ef00942	0.46882063
106	0x3e220fe9	0.15826382
107	0x3f056291	0.52103525
108	0xbf2deb40	-0.6793709
109	0x3ea9f67a	0.3319586
110	0xbea2ca63	-0.31795034
111	0xbd89cee2	-0.06728913
112	0xbea84d2c	-0.32871377
113	0xbe82105e	-0.25403112
114	0xbdff0ecd	-0.12453995
115	0x3db5bf79	0.08874411
116	0x3e63075f	0.2217078
117	0x3e84c147	0.2592871
118	0xbe5167fc	-0.20449823
119	0xbe8b1dd1	-0.27171186
120	0xbdae3ffd	-0.085082985
121	0x3c659bf3	0.014014232
122	0xbd054f10	-0.032546103
123	0xbe0314c2	-0.12800887
124	0xbebe72b8	-0.37196898
125	0xbd9b39bc	-0.07579371
126	0x3ea04f20	0.31310368
127	0x3d54926a	0.051897444
128	0xbe323008	-0.17401135
129	0x3e9db659	0.30803183
130	0x3e9dfb6a	0.30855876
131	0x3d15bebe	0.03655886
132	0x3ec50ac8	0.38484788
133	0x3e6734ce	0.22578737
134	0xbe85d3f5	-0.26138273
135	0xbeae61c5	-0.34058967
136	0xbd1a5ed4	-0.03768809
137	0x3e189fed	0.14904757
138	0xbd1f77be	-0.038932554
139	0xbf074068	-0.5283265
140	0xbea1aed5	-0.315787
141	0x3e81fec3	0.2538968
142	0x3f082a2d	0.53189355
143	0xbe6f6143	-0.23376946
144	0xbdd4de2e	-0.1039394
145	0xbbc2c92d	-0.005944392
146	0x3ea79593	0.32731304
147	0x3e0df187	0.13861667
148	0xbf5f7ebd	-0.8730276
149	0x3f1b449c	0.60651565
150	0x3f36e6b7	0.7144579
151	0xbedb7276	-0.42860764
152	0xbea1d9a4	-0.3161136
153	0xbd8214c8	-0.0635162
154	0x3da58c4b	0.080833994
155	0x3e581339	0.21101083
156	0xbdef9d08	-0.11699873
157	0x3e957292	0.29188973
158	0x3dc0008f	0.093751065
159	0x3ee4ba5d	0.44673434
160	0x3dbd9a1c	0.0925791
161	0x3e78d668	0.2430054
162	0x3eb9b972	0.36274296
163	0xbe4c8b4a	-0.1997501
164	0xbee740b6	-0.45166558
165	0x3e0c4b84	0.13700682
166	0x3e0eae4e	0.1393368
167	0xbe237587	-0.15962802
168	0xbe218e4d	-0.1577694
169	0x3ca409ba	0.02002417
170	0xbe3b919a	-0.18317261
171	0xbe9c9e5a	-0.30589563
172	0xbc10569d	-0.008809713
173	0x3daa17bd	0.08305309
174	0x3e49af4f	0.19695781
175	0xbe5fe193	-0.21863393
176	0xbf0c52ef	-0.54814047
177	0x3ecb359b	0.39689335
178	0x3eb0ff27	0.34569666
179	0x3e0a53cc	0.13508528
180	0xbddc07d9	-0.10743684
181	0x3e05ab16	0.13053545
182	0xbde6be03	-0.112667106
183	0x3de382d0	0.11108935
184	0xbe96b923	-0.29438123
185	0xbd4a695a	-0.049416877
186	0x3e94e1c8	0.29078507
187	0xbdf00ba5	-0.11720971
188	0xbe7b2446	-0.24525556
189	0x3f1c42fb	0.61039704
190	0x3ce341c4	0.02774132
191	0xbe324d5e	-0.17412326
192	0x3e43b22a	0.19110933
193	0x3e97f6ae	0.2968039
194	0x3d8a8b79	0.067648835
195	0xbd2a5d71	-0.04159302
196	0x3df82d3b	0.12118002
197	0x3d8fef89	0.070281096
198	0x3ed78801	0.4209595
199	0xbe6ed40c	-0.23323077
200	0x3e0aae39	0.13543023
201	0x3edb6c43	0.42856035
202	0xbe9d8d62	-0.3077193
203	0xbc9950c7	-0.018715275
204	0xbe866fe9	-0.26257256
205	0xbe2bc4eb	-0.16774337
206	0x3e9ebe07	0.31004354
207	0x3e8ccae0	0.2749853
208	0xbea60492	-0.32425362
209	0xbe82002c	-0.25390756
210	0xbecc09a7	-0.39851114
211	0x3cbcfbd9	0.02306931
212	0x3ef1a69a	0.4719742
213	0xbead434c	-0.33840406
214	0xbc19a049	-0.009376594
215	0xbe13a0fd	-0.14416881
216	0x3edb56b1	0.42839578
217	0x3e96ca44	0.2945119
218	0x3e639efa	0.22228613
219	0x3e09ce11	0.13457514
220	0x3e9443cb	0.28957972
221	0xbe358c08	-0.17729199
222	0x3e9d01c7	0.30665419
223	0xbe295434	-0.16536027
224	0xbe32ad65	-0.17448957
225	0x3eacb363	0.3373061
226	0x3f292a67	0.66080326
227	0x3e70529f	0.23469017
228	0x3de61fbb	0.11236521
229	0xbdaad41a	-0.083412364
230	0xbeb47a38	-0.35249496
231	0x3e59955e	0.21248385
232	0xbdbe64c5	-0.09296564
233	0xbe949713	-0.2902151
234	0xbe387403	-0.18013005
235	0xbf1603d3	-0.58599585
236	0xbe577fbc	-0.2104482
237	0x3ca76092	0.02043179
238	0x3e866289	0.2624705
239	0xbd615f34	-0.055022433
240	0x3e0671c5	0.13129337
241	0xbdec9a80	-0.11552906
242	0xbdba3576	-0.09092228
243	0xbe32c385	-0.17457397
244	0xbe97ec62	-0.29672533
245	0x3e56c7b2	0.20974615
246	0xbeafaf41	-0.34313396
247	0x3d388d7a	0.045056798
248	0x3e5b57f8	0.21420276
249	0xbed48e9f	-0.4151506
250	0x3cb3a1d4	0.021927752
251	0xbe0a8558	-0.13527429
252	0x3dd252a2	0.10269667
253	0xbe129b5c	-0.14317077
254	0xbeaa7d49	-0.3329871
255	0xbdf7f830	-0.12107885

fc.bias f4 [128]
0	0x3f070d0f	0.527543
1	0xbe7235de	-0.23653361
2	0xbf198ed9	-0.59983593
3	0xbe0ca523	-0.1373487
4	0x3f15987f	0.58435816
5	0x3efc40e1	0.4926825
6	0x3a525ec3	0.0008024985
7	0x3d8f7c6e	0.07006155
8	0x3cfcb146	0.03084625
9	0x3f1af841	0.60535055
10	0xbd6dcace	-0.058054738
11	0xbd419eee	-0.047270708
12	0x3dabc3d2	0.08386959
13	0xbf22d17f	-0.63600916
14	0x3f1920c7	0.5981564
15	0x3e6673de	0.22505137
16	0x3e593f03	0.21215443
17	0xbde57dd1	-0.11205638
18	0xbded7b17	-0.11595743
19	0x3cc7b9ed	0.024380649
20	0xbe85f3a0	-0.26162434
21	0xbf2f03f1	-0.6836539
22	0x3e41882b	0.188996
23	0x3e8c4831	0.27398828
24	0x3ce36d7b	0.027762165
25	0x3dd08bc3	0.101829074
26	0x3ec29ac7	0.3800871
27	0x3e367e65	0.17821653
28	0x3d3960d2	0.04525835
29	0xbd9bcff5	-0.07608024
30	0x3f38f1c8	0.7224393
31	0x3d753ab5	0.05987044
32	0x3f122a8e	0.57096183
33	0xbeea18d6	-0.45722073
34	0xbe1d91f1	-0.15387703
35	0x3e843701	0.25823215
36	0xbe86552f	-0.26236865
37	0x3eca717a	0.395397
38	0x3eb82290	0.3596387
39	0xbb557b52	-0.0032574725
40	0xbdac44e8	-0.0841158
41	0x3e23ea15	0.16007264
42	0x3e22648d	0.1585867
43	0x3ed98b29	0.42488983
44	0x3eb8af94	0.36071455
45	0xbe1a483d	-0.15066619
46	0xbea07c70	-0.31344938
47	0xbe5e3b04	-0.217022
48	0x3ef7fe1b	0.48436055
49	0xbf10a93b	-0.56508225
50	0x3e50768d	0.20357724
51	0xbe0f168b	-0.13973443
52	0x3e9e8f46	0.30968684
53	0xbea0ad79	-0.3138235
54	0xbe80e8d1	-0.25177625
55	0x3d2e5bd8	0.042568058
56	0x3dbf6d36	0.09347002
57	0x3ea29bcc	0.3175949
58	0x3ea390ba	0.31946355
59	0x3d82e17f	0.06390666
60	0x3f058313	0.5215313
61	0xbeb17f11	-0.34667256
62	0x3db44f05	0.08804134
63	0xbcb136c7	-0.021632565
64	0xbd9eaa7a	-0.077473596
65	0x3e06cbb8	0.1316365
66	0xbea8d942	-0.32978255
67	0x3c26bbdd	0.010176626
68	0x3f11792a	0.56825507
69	0x3f179268	0.59207773
70	0xbdf3f4bd	-0.119119145
71	0xbf0626e5	-0.524031
72	0xbcfc6ac0	-0.030812621
73	0xbec16d20	-0.37778568
74	0xbf062664	-0.5240233
75	0x3c981f07	0.018569482
76	0xbe7f775e	-0.24947879
77	0xbf0469da	-0.51724017
78	0x3e738135	0.23779757
79	0x3dc52fc3	0.096282504
80	0x3e70bd1b	0.23509638
81	0x3e3afadb	0.18259756
82	0x3e60467b	0.21901886
83	0xbd9cf36b	-0.07663616
84	0xbf071448	-0.5276532
85	0xbe2e4986	-0.17020234
86	0xbd1fbdf7	-0.038999524
87	0x3d0899cd	0.0333498
88	0xbebb50cf	-0.3658509
89	0xbdbb879d	-0.091567256
90	0x3e870d98	0.2637756
91	0xbe80f229	-0.25184754
92	0x3ecb7b70	0.39742613
93	0x3eb0b449	0.34512547
94	0xbe060ff6	-0.13092026
95	0x3f162ee8	0.58665323
96	0x3e806da2	0.25083643
97	0x3eee8558	0.46586108
98	0x3c337ea5	0.010955487
99	0xbe4687e7	-0.1938778
100	0xbe11b48e	-0.14229032
101	0xbdd03f1b	-0.101682864
102	0xbe3b6259	-0.18299235
103	0x3d58e8b0	0.052956283
104	0xbdd9be11	-0.106319554
105	0x3f07d4b1	0.53058916
106	0xbdb046c4	-0.086072475
107	0xbdde5051	-0.10855163
108	0x3f18cbb5	0.5968583
109	0x3d9ea9f9	0.077472635
110	0xbf059c36	-0.52191484
111	0x3f1aa619	0.60409695
112	0xbf264711	-0.6495219
113	0xbebdc703	-0.37065896
114	0x3ec9e50e	0.39432567
115	0xbe23f8da	-0.16012898
116	0xbe135787	-0.14388858
117	0xbe146ebe	-0.1449537
118	0x3f1e33ed	0.6179798
119	0x3e8e2726	0.27764243
120	0xbe6d0421	-0.23146106
121	0x3db676b8	0.089093626
122	0xbdf86643	-0.1212888
123	0x3f2d8671	0.67783266
124	0xbecf7c31	-0.40524438
125	0xbe3d34f3	-0.1847723
126	0x3d0a42b7	0.03375503
127	0xbebabfd9	-0.36474493

mlp.0.weight f4 [16, 360]
0	0xbe1aa6a0	-0.15102625
1	0xbdca49bb	-0.09877344
2	0xbde902fd	-0.11377523
3	0xbd86ad17	-0.06575983
4	0xbdb33806	-0.0875092
5	0xbe053179	-0.13007154
6	0xbd3c7e94	-0.04601915
7	0xbd7b6505	-0.061375637
8	0xbd378087	-0.044800308
9	0xbd7627ff	-0.060096737
10	0xbd4c2b8d	-0.04984622
11	0xbd442a27	-0.047891762
12	0xbdbd8d18	-0.09255427
13	0xbd843d98	-0.064570606
14	0xbdaa97d1	-0.08329738
15	0xbe0f156f	-0.1397302
16	0xbd82b727	-0.0638259
17	0xbd75edfc	-0.060041413
18	0xbd9cc01d	-0.0765383
19	0xbdbe9abe	-0.093068585
20	0xbdb95063	-0.09048536
21	0xbd725a73	-0.05916829
22	0xbdf7551f	-0.120767824
23	0xbdcbdcd3	-0.09954228
24	0xbde639db	-0.11241504
25	0xbd683f61	-0.056701068
26	0xbdadb5ad	-0.084819175
27	0xbd06d721	-0.032920007
28	0xbdb0e1c4	-0.086368114
29	0xbdaaebc2	-0.083457485
30	0xbda94eba	-0.08266969
31	0xbd1a55c6	-0.037679456
32	0xbbd4ff83	-0.006500186
33	0xbc45e06a	-0.01207743
34	0xbd3a92a1	-0.045549992
35	0xbd019298	-0.031633943
36	0xbbb6c8b9	-0.005578127
37	0xbcbb1275	-0.02283595
38	0xbcda0e62	-0.026618186
39	0xbc7b3e6f	-0.01533471
40	0xbce31ea0	-0.027724564
41	0x3be20869	0.006897975
42	0x3bc6f23e	0.006071358
43	0x3d0efe34	0.034910396
44	0x3d72227e	0.059114926
45	0x3dd32d0b	0.10311326
46	0x3c5617df	0.013067215
47	0x3d2b7688	0.041861087
48	0x3df77fc0	0.12084913
49	0x3d98a0ae	0.07452522
50	0x3ddbd945	0.107348
51	0x3e025f36	0.12731633
52	0x3e01385b	0.12619154
53	0x3dae7139	0.08517689
54	0x3db8c02b	0.09021028
55	0x3e1dd857	0.15414558
56	0x3d99e1ac	0.075137466
57	0x3e28bc0d	0.16477986
58	0x3e1acef2	0.15118006
59	0x3dc36a2b	0.09541734
60	0x3e1ae850	0.15127683
61	0x3e0b7782	0.13619807
62	0x3e41f058	0.1893934
63	0x3ddf4cb4	0.10903302
64	0x3e261971	0.16220643
65	0x3dbe3e3d	0.09289215
66	0x3de54c15	0.11196152
67	0x3deb07f4	0.11476126
68	0x3dce1a32	0.1006359
69	0x3ddd6ff7	0.10812371
70	0x3e37dc2b	0.17955081
71	0x3dd41314	0.10355201
72	0x3dd50711	0.104017384
73	0x3e0ce34c	0.13758582
74	0x3e4db34d	0.20087929
75	0x3df75afa	0.12077899
76	0x3e461769	0.19344868
77	0x3e6d1912	0.23154095
78	0x3e20e08c	0.15710658
79	0x3e50d84d	0.20395012
80	0x3e591314	0.21198684
81	0x3e7c2110	0.24621987
82	0x3e52e5f0	0.20595527
83	0x3e1bd002	0.15216067
84	0x3e6c8e85	0.23101242
85	0x3e30e9d2	0.17276695
86	0x3daf07d9	0.08546419
87	0x3d744f5d	0.059646
88	0x3d36f655	0.044668514
89	0xbbb56569	-0.0055357707
90	0xbd72961b	-0.059225183
91	0xbcdd4480	-0.027010202
92	0xbdaa5c2e	-0.08318363
93	0xbdb9eb9f	-0.09078144
94	0xbdb269e5	-0.08711604
95	0xbd9c0bbf	-0.07619428
96	0xbd9bae9d	-0.07601664
97	0xbd97aa26	-0.074055
98	0xbd6c997a	-0.057763554
99	0xbd99f7bc	-0.07517955
100	0x3c833e79	0.016021
101	0xbd0566d5	-0.03256877
102	0x3c3c0b18	0.011477254
103	0x3c8ad07c	0.016945116
104	0x3d6dcba3	0.05805553
105	0x3c1f4ce8	0.009722926
106	0x3df99d9c	0.12188265
107	0x3e18d993	0.14926748
108	0x3e38a283	0.18030743
109	0x3e38912f	0.18024133
110	0x3e31af48	0.1735202
111	0x3e51eaeb	0.2049977
112	0x3e19e107	0.15027247
113	0x3e539573	0.20662479
114	0x3e2f384e	0.17111322
115	0x3e1078a1	0.14108516
116	0x3dd32900	0.103105545
117	0x3e3c6de2	0.18401292
118	0x3e4d3a54	0.20041782
119	0x3e98a6b8	0.29814696
120	0x3e955b53	0.29171237
121	0x3ec53847	0.385195
122	0x3ec2dab8	0.38057494
123	0x3ed6ec46	0.41977137
124	0x3eb3fb4d	0.35152665
125	0x3ec1b19a	0.37830812
126	0x3ebd515d	0.36976138
127	0x3ea2d110	0.31800127
128	0x3e9c29d6	0.30500668
129	0x3e9d1819	0.30682448
130	0x3e8d5f1e	0.2761163
131	0x3e8478ad	0.25873318
132	0x3e930133	0.28711852
133	0x3e5c751d	0.2152905
134	0x3e72e359	0.23719539
135	0x3e38061f	0.17971085
136	0x3e42ce92	0.19024113
137	0x3e20fab4	0.15720636
138	0x3df28ebb	0.1184363
139	0x3cd84fa4	0.026405163
140	0x3d7aeaf8	0.06125924
141	0x3cad0f9b	0.021125605
142	0x3d91a670	0.071118236
143	0xbce1b954	-0.027554192
144	0xbb478a7b	-0.003044753
145	0x3d14fbdc	0.036373004
146	0x3d307f87	0.04309037
147	0x3b83f325	0.004026788
148	0xbd33726b	-0.04381029
149	0xbd20ba88	-0.03924039
150	0x3bcd34e4	0.0062624086
151	0x3a3fb878	0.000731356
152	0xbc836dd4	-0.016043581
153	0xbd79d8d8	-0.060997814
154	0xbd8cdcf4	-0.06878081
155	0xbd8973ed	-0.06711564
156	0xbda8bbb8	-0.082389295
157	0xbe2eb149	-0.17059816
158	0xbdfc31c7	-0.12314182
159	0xbe1773e5	-0.14790304
160	0xbe486d66	-0.19572982
161	0xbde34df0	-0.1109885
162	0xbe08c2d4	-0.13355571
163	0xbd8c7605	-0.06858448
164	0xbda0e61a	-0.078563884
165	0x3b76a62d	0.003763567
166	0xbc8a0166	-0.01684637
167	0x3cda6def	0.026663749
168	0x3d70194f	0.058617886
169	0x3d9fcfc0	0.07803297
170	0x3e191da1	0.14952709
171	0x3e386c1f	0.18009995
172	0x3dfc7362	0.12326695
173	0x3e72335f	0.23652409
174	0x3e4409e8	0.19144404
175	0x3e7e63d0	0.24842763
176	0x3e8a89cb	0.27058253
177	0x3e9c91e5	0.3058006
178	0x3eb9cbce	0.36288303
179	0x3ed0795b	0.40717587
180	0x3ec62394	0.3869902
181	0x3ed8f6a6	0.42375678
182	0x3ee9035b	0.45510373
183	0x3ee4b056	0.44665784
184	0x3eefc8b3	0.4683281
185	0x3eec252f	0.4612212
186	0x3eeac10e	0.45850414
187	0x3ee2b1f0	0.4427638
188	0x3ec5cc56	0.38632458
189	0x3ebf3342	0.37343794
190	0x3ed4ceef	0.41564128
191	0x3ebecf5e	0.37267584
192	0x3e908984	0.28229916
193	0x3e9624eb	0.2932504
194	0x3e444ddc	0.19170326
195	0x3e36ac8b	0.17839257
196	0x3d8b78e2	0.06810166
197	0xbc6f7a53	-0.014616567
198	0xbcfa23a3	-0.030534571
199	0xbcb03728	-0.021510676
200	0xbd455adc	-0.048182353
201	0xbd70c13e	-0.05877804
202	0xbdc86ee3	-0.09786775
203	0xbde17d88	-0.11010271
204	0xbe24385e	-0.16037127
205	0xbdbec178	-0.09314245
206	0xbe14b24c	-0.1452114
207	0xbe3655c2	-0.17806152
208	0xbe3f0024	-0.18652397
209	0xbe38e62d	-0.18056555
210	0xbe3502c6	-0.17676839
211	0xbe66af0b	-0.22527711
212	0xbe6c7a72	-0.23093584
213	0xbe602b6d	-0.21891566
214	0xbe675c8b	-0.22593896
215	0xbe118410	-0.14210534
216	0xbe253bab	-0.16136043
217	0xbe5f7fa5	-0.21826036
218	0xbe55990a	-0.20859161
219	0xbe1db984	-0.154028
220	0xbe406b03	-0.18790822
221	0xbde61526	-0.112345025
222	0xbe22ad6b	-0.15886466
223	0xbe0d79e0	-0.13816023
224	0xbe0748cb	-0.13211362
225	0xbe4566de	-0.19277522
226	0xbe81830d	-0.25295296
227	0xbe6a3426	-0.22871456
228	0xbe7be2fd	-0.24598308
229	0xbe6a1f7a	-0.2286357
230	0xbe95fff5	-0.29296842
231	0xbe89a448	-0.2688315
232	0xbea044bc	-0.3130244
233	0xbebdbda9	-0.37058762
234	0xbe9ebe82	-0.3100472
235	0xbec1f04a	-0.37878639
236	0xbeae6b9a	-0.34066468
237	0xbebbd44c	-0.36685407
238	0xbe8ee358	-0.27907825
239	0xbe920231	-0.28517297
240	0xbe638e6a	-0.22222295
241	0xbe23f2c8	-0.16010582
242	0xbe31b09a	-0.17352524
243	0xbd360cd9	-0.044445846
244	0xbd928529	-0.071543045
245	0x3d329b2c	0.043605015
246	0x3ab74613	0.0013982676
247	0x3d2b8e18	0.041883558
248	0x3d0a0231	0.033693496
249	0x3deea399	0.116522975
250	0x3d99f191	0.07516778
251	0x3d4fdd46	0.050748132
252	0xbac3b393	-0.0014930837
253	0xbd47c0a7	-0.048767712
254	0xbdb27001	-0.08712769
255	0xbd1a8558	-0.037724823

mlp.0.bias f4 [16]
0	0xbc36503a	-0.011127526
1	0xbc4c0b16	-0.012453815
2	0x3e2760a5	0.1634546
3	0xbd26609e	-0.040619485
4	0x3e03663d	0.1283197
5	0xbd8d4bd6	-0.0689923
6	0xbcd16dc1	-0.02556503
7	0x3d9378ff	0.072008125
8	0x3dd3bc7b	0.10338684
9	0xbda5653f	-0.08075952
10	0xbd625f7d	-0.055266846
11	0xbd7a933e	-0.061175577
12	0xbe3e11d9	-0.18561496
13	0x3c91be27	0.017790867
14	0xbd4b7dbf	-0.049680468
15	0xbd3c8e55	-0.046034176

mlp.2.weight f4 [16, 16]
0	0xbea1bc2a	-0.3158887
1	0xbda6e7a1	-0.081496485
2	0x3e276e87	0.16350757
3	0x3ddd7bc6	0.108146235
4	0x3dc2ced9	0.09512109
5	0xbde00c0f	-0.109398
6	0xbd984d1e	-0.07436584
7	0x3e2b6649	0.16738237
8	0x3e74a15b	0.23889677
9	0x3ecbefcb	0.39831385
10	0xbe11ec08	-0.14250195
11	0x3e6fc782	0.2341595
12	0xbdfb1772	-0.12260331
13	0xbc6a765f	-0.014310448
14	0x3d9d7b8e	0.07689582
15	0xbda4876e	-0.08033644
16	0xbd25eb86	-0.040507816
17	0xbdb59632	-0.08866538
18	0x3e426420	0.18983507
19	0xbd3fdd3d	-0.04684185
20	0x3e86d956	0.2633769
21	0x3de43080	0.11142063
22	0x3e6c9ec1	0.23107435
23	0xbe0de391	-0.13856341
24	0xbd9ecfd9	-0.077544875
25	0xbdd4cb70	-0.10390365
26	0x3dd08853	0.10182252
27	0x3c310956	0.0108054485
28	0xbe129f45	-0.14318569
29	0xbf39e1f9	-0.7261043
30	0x3e647451	0.22309996
31	0xbdd6b1b9	-0.10483117
32	0x3d8616af	0.06547295
33	0xbd31cd0b	-0.043408435
34	0x3e7fe9a3	0.24991469
35	0x3dec1cfc	0.11528966
36	0x3de380bb	0.11108538
37	0x3e279242	0.16364387
38	0x3e14ea6b	0.14542548
39	0xbd477b64	-0.04870166
40	0x3dea31d7	0.114352874
41	0xbcb460a1	-0.022018733
42	0xbe094165	-0.13403852
43	0x3e15d472	0.14631823
44	0x3da4d5a4	0.08048561
45	0xbe918817	-0.2842414
46	0x3e7d982d	0.24765082
47	0x3d9bd8d8	0.07609719
48	0xbe0748d7	-0.1321138
49	0x3d56a86a	0.052406706
50	0xbd8379bd	-0.06419704
51	0xbd413e7e	-0.047178738
52	0xbe04eef7	-0.12981783
53	0x3cb73251	0.02236286
54	0xbe8b6d74	-0.27231944
55	0x3e0748f4	0.13211423
56	0xbe563902	-0.20920184
57	0xbe4c5550	-0.19954419
58	0xbe4229ea	-0.18961301
59	0xbd71f8dc	-0.05907522
60	0xbda0b75b	-0.07847472
61	0xbe110bae	-0.14164612
62	0x3d8e294e	0.06941472
63	0xbdbda407	-0.09259801
64	0x3e9084ba	0.28226262
65	0xbe2cbc1b	-0.16868632
66	0xbed6e5eb	-0.41972288
67	0xbe3b1448	-0.18269455
68	0xbf072b26	-0.52800214
69	0x3e2b8ec2	0.16753677
70	0xbdf1fab9	-0.118154
71	0x3e9f4660	0.3110838
72	0xbd2307ae	-0.039802246
73	0xbd8f8f5c	-0.070097655
74	0xbdc58ec4	-0.09646371
75	0x3d7e7207	0.062120464
76	0x3db7fc14	0.08983627
77	0xbd6975dc	-0.056997165
78	0x3db8897b	0.09010597
79	0x3de292c9	0.11063153
80	0x3de90381	0.113776214
81	0xbd0b27f4	-0.03397365
82	0xbe359922	-0.17734197
83	0xbdb7cff5	-0.089752115
84	0x3dbf3f04	0.09338191
85	0xbd9e98da	-0.07743998
86	0x3e77f47f	0.24214362
87	0x3d2c9ea5	0.042143483
88	0x3e21d0bc	0.15802282
89	0xbda8040c	-0.08203897
90	0xbdd12c71	-0.10213555
91	0x3e45a98b	0.19302957
92	0x3d6b1317	0.057391252
93	0xbf27ab70	-0.6549597
94	0x3dbfdf77	0.093687944
95	0x3e1b053f	0.1513872
96	0x3cbd92ca	0.023141284
97	0x3a73f3e2	0.0009306056
98	0x3e86867c	0.26274478
99	0xbdc364b9	-0.09540696
100	0xbe983dfc	-0.2973479
101	0x3d802bdf	0.06258368
102	0xbe15e1fa	-0.14636984
103	0x3dc69572	0.09696473
104	0x3d87d3af	0.06632172
105	0xbe212e22	-0.15740255
106	0x3e057398	0.13032377
107	0xbdeefbd7	-0.116691284
108	0x3ccf25d3	0.02528659
109	0x3ea48deb	0.32139525
110	0x3dc30f56	0.095244095
111	0x3e84a193	0.2590452
112	0x3e440b12	0.19144848
113	0x3c1664fc	0.00917935
114	0xbdaf8bb5	-0.08571569
115	0x3e662874	0.22476369
116	0x3ea76e36	0.32701272
117	0xbddc5a17	-0.10759371
118	0x3d08aa55	0.033365566
119	0xbdb0a8ef	-0.086259715
120	0xbe9016b0	-0.2814231
121	0xbd992d76	-0.07479374
122	0xbc5faa82	-0.013651492
123	0xbdc3c480	-0.09558964
124	0xbf18a8fc	-0.5963285
125	0x3da00c88	0.0781489
126	0xbc3d888f	-0.011568203
127	0xbc61eb31	-0.013788984
128	0xbe2e87cc	-0.1704399
129	0x3b975af0	0.004618995
130	0xbdee87cd	-0.11646996
131	0xbc99c423	-0.018770283
132	0xbe2a312a	-0.16620317
133	0xbc460445	-0.012085979
134	0x3baaefd4	0.005216578
135	0x3c7011df	0.014652698
136	0xbeaa7c81	-0.33298114
137	0xbd8437bc	-0.06455943
138	0x3c292cb4	0.010325599
139	0xbc63b5c2	-0.013898315
140	0xbcbff3d3	-0.023431694
141	0xbd2d8ca2	-0.042370446
142	0xbc00e016	-0.007865926
143	0xbc946700	-0.01811552
144	0x3eb84d89	0.35996655
145	0xbbed21c1	-0.00723669
146	0x3daa20d4	0.08307043
147	0xba69b137	-0.00089146517
148	0xbe6492bc	-0.223216
149	0x3b95625d	0.004558845
150	0xbc9ec28f	-0.019379882
151	0xbd212b2b	-0.03934781
152	0x3e4e2bd1	0.20133902
153	0xbebabdd3	-0.3647295
154	0xbb15aac3	-0.0022837378
155	0x3c3cd01a	0.011524225
156	0xbdd1e078	-0.10247892
157	0x3d7a0e9f	0.0610491
158	0xbc240063	-0.010009858
159	0x3b8eb4eb	0.004355063
160	0x3d903504	0.07041362
161	0xbdce65be	-0.100779995
162	0xbdbd18ef	-0.09233271
163	0xbb254282	-0.0025216644
164	0x3ed2661f	0.41093537
165	0xbe118514	-0.14210922
166	0xbcdef888	-0.027218118
167	0xbbe5944b	-0.0070062033
168	0x3e62a058	0.22131479
169	0x3eb91975	0.36152235
170	0xbc76640a	-0.0150385
171	0x3cc25743	0.02372325
172	0xbf788a89	-0.9708639
173	0xbd647e60	-0.055784583
174	0xbdd9366d	-0.10606084
175	0x3ddcf999	0.107897945
176	0xbca6c89c	-0.02035933
177	0xbcbc41d3	-0.022980606
178	0xbe7f5eec	-0.24938554
179	0x3bc69185	0.0060598277
180	0xbd9e7ce9	-0.077386685
181	0xbbf10a02	-0.0073559294
182	0xbbb4cf30	-0.0055178627
183	0x3b6098a8	0.0034270678
184	0x3d7668e5	0.06015863
185	0x3b83f8a5	0.0040274435
186	0x3c7f5168	0.015583374
187	0xbc1a6965	-0.009424542
188	0xbcb94a39	-0.0226184
189	0xbe056bc5	-0.13029392
190	0x3c495a52	0.0122896
191	0xbc139ff2	-0.009010302
192	0x3e135c02	0.14390567
193	0x3c370d9f	0.011172681
194	0xc002770d	-2.0385163
195	0x3c30a491	0.010781423
196	0x3e842470	0.2580905
197	0xbc9278b1	-0.017879816
198	0xbc926bc7	-0.017873658
199	0xbef2c497	-0.4741561
200	0x3dd79054	0.10525575
201	0xbef428e1	-0.47687438
202	0x3c8f8677	0.017520173
203	0xbc66d93a	-0.014089877
204	0xbcba73c3	-0.022760278
205	0x3dcef557	0.101053886
206	0xbbe96808	-0.007122997
207	0x3bc202a9	0.0059207273
208	0xbe61e9f4	-0.22061902
209	0x3c2e3f9b	0.010635282
210	0xbe61dfa7	-0.22057973
211	0x3d32419b	0.043519598
212	0xbd5a7030	-0.053329647
213	0xbc969f0a	-0.018386383
214	0x3e3e1e1d	0.18566175
215	0x3d0c33a3	0.034228932
216	0xbe413233	-0.18866806
217	0xbdd7b8e4	-0.10533312
218	0x3e31f223	0.17377524
219	0x3d03e018	0.032196134
220	0xbb9c5dc9	-0.0047719222
221	0xbdc274a0	-0.09494901
222	0x3d32de8b	0.043669265
223	0xbc4b7c7d	-0.012419817
224	0xbea6ee09	-0.3260348
225	0x3d1b801a	0.037963964
226	0x3e9e6eee	0.30944008
227	0x3e813598	0.252362
228	0xbe75c16b	-0.23999564
229	0xbce4690d	-0.027882123
230	0xbe07e6af	-0.13271593
231	0xbd2350fb	-0.03987215
232	0xbda50725	-0.08058003
233	0x3d9f037d	0.07764337
234	0x3d349c83	0.044094574
235	0xbc375103	-0.011188748
236	0xbd0306c7	-0.031988885
237	0x3e969d8a	0.29417068
238	0x3be27ba9	0.006911714
239	0xbd4f3e26	-0.05059638
240	0xbe391eb1	-0.18078114
241	0xbc38bf1f	-0.011276036
242	0xbe31c3fd	-0.1735992
243	0x3b7b694b	0.003836232
244	0x3d9bcfb1	0.07607973
245	0x3caa8891	0.020817073
246	0xbc944095	-0.018097201
247	0xbe98fd39	-0.29880694
248	0xbe318137	-0.17334448
249	0xbeda7248	-0.42665315
250	0xbcaebc66	-0.02133007
251	0xbcbf9370	-0.023385733
252	0xbc868700	-0.016421795
253	0x3edf311b	0.43592152
254	0x3be2a4c4	0.0069166142
255	0xbc99d752	-0.01877943

mlp.2.bias f4 [16]
0	0x3ed004be	0.40628618
1	0x3ea6b210	0.32557726
2	0x3f0059cd	0.50137025
3	0x3e1ed787	0.15511905
4	0xbe0d89d8	-0.13822114
5	0xbcab2a73	-0.020894265
6	0xbdd58582	-0.10425855
7	0xbe236e8a	-0.15960136
8	0xbeb93231	-0.36171106
9	0xbdde8f84	-0.10867217
10	0x3dbde947	0.0927301
11	0xbe0caed5	-0.13738568
12	0xbf229971	-0.63515383
13	0x3e1ce6b1	0.15322377
14	0x3d926382	0.07147886
15	0xbe868278	-0.26271415

mlp.4.weight f4 [16, 16]
0	0xbda89d71	-0.082331546
1	0xbe1d86f8	-0.15383518
2	0x3d5f1547	0.05446365
3	0x3dd96077	0.10614102
4	0x3df6a216	0.12042634
5	0xbe18090a	-0.14847198
6	0xbe9c8928	-0.30573392
7	0xbe1165fb	-0.14199059
8	0xbc914d84	-0.017737158
9	0xbc514893	-0.012773651
10	0xbe0fcc96	-0.14042887
11	0x3c3856ce	0.011251165
12	0xbe15899d	-0.14603277
13	0x3dac1d03	0.08403971
14	0xbdb7c4db	-0.08973094
15	0x3b689398	0.0035488363
16	0xbe3d5e90	-0.18493104
17	0xbdd2a50c	-0.102853864
18	0xbddd7a8b	-0.10814389
19	0xba8888b6	-0.001041672
20	0xbe37b346	-0.17939481
21	0xbda3348a	-0.079690054
22	0x3e15c4ca	0.1462585
23	0xbe3213bb	-0.17390339
24	0x3c3d7425	0.011563336
25	0xbd9e97df	-0.07743811
26	0xbe0f1006	-0.13970956
27	0xbbec59f0	-0.00721287
28	0xbc99446b	-0.018709382
29	0xbc853c3a	-0.01626407
30	0xbe0ce983	-0.13760953
31	0xbd29184b	-0.041282933
32	0xbd35ea69	-0.044413004
33	0xbe8788bd	-0.2647151
34	0xbd4ec86b	-0.050484102
35	0x3c507aa6	0.012724554
36	0xbc5c0d80	-0.013430953
37	0xbe8a6787	-0.2703211
38	0xbe804441	-0.25052074
39	0xbd47c079	-0.04876754
40	0xbc209bf2	-0.009802805
41	0xbd9b74a1	-0.075906046
42	0xbe809666	-0.25114745
43	0xbbc56766	-0.006024289
44	0x3c57f4d7	0.013180933
45	0x3ca8ab2b	0.020589432
46	0xbc940f68	-0.018073753
47	0xbc27c1a4	-0.010239039
48	0x3e0e9bb6	0.13926587
49	0x3e91af66	0.2845413
50	0x3e41a2d7	0.18909775
51	0x3e70f2bb	0.23530094
52	0x3e2afaf0	0.16697288
53	0xbd9f3833	-0.07774391
54	0xbd35e8f5	-0.04441162
55	0xbee7c471	-0.4526706
56	0xbe5e7a7f	-0.21726416
57	0xbe7d63e6	-0.2474514
58	0xbeaf4d78	-0.3423879
59	0xbc3a146d	-0.011357409
60	0xbf2cd9e6	-0.67519987
61	0x3d44d2e2	0.048052676
62	0xbe6137a6	-0.21993884
63	0x3dc123bc	0.09430644
64	0xbeadef2e	-0.33971542
65	0xbe9043fc	-0.28176868
66	0xbe1c7ff7	-0.1528319
67	0x3bf32b12	0.007420906
68	0xbea33f4e	-0.31884235
69	0xbc922336	-0.017839056
70	0x3d849282	0.06473257
71	0x3d703a7f	0.058649536
72	0xbcde77ec	-0.027156793
73	0x3e2745cd	0.1633522
74	0x3e0df600	0.13863373
75	0x3b85f1e9	0.004087676
76	0x3d5f8c06	0.054576896
77	0xbdfb59f3	-0.12273016
78	0x3e82f213	0.25575313
79	0xbe5c8000	-0.21533203
80	0x3e7e5cc2	0.24840072
81	0xbe3a75cc	-0.18208998
82	0xbca8b51d	-0.020594174
83	0x3cd5cd0b	0.026098749
84	0xbe2a2283	-0.16614728
85	0x3ddf491c	0.109026164
86	0x3eaf83aa	0.3428014
87	0x3ec375f2	0.38175923
88	0xbdc6a481	-0.096993454
89	0xbd81f20e	-0.063449964
90	0xbeb69ec6	-0.3566801
91	0xbc3a3ff2	-0.011367785
92	0xbe8fedd4	-0.28111136
93	0xbd4196ba	-0.047262885
94	0x3e869611	0.26286367
95	0xbd38b165	-0.04509105
96	0x3e0cffe9	0.13769497
97	0xbc082ecd	-0.008311939
98	0x3e9e2076	0.3088414
99	0xbe12574a	-0.1429111
100	0x3e0143c3	0.12623505
101	0x3e821ed8	0.25414157
102	0xbd4be5a9	-0.049779568
103	0xbe4135bd	-0.18868156
104	0xbe254734	-0.16140443
105	0xbe977762	-0.2958327
106	0xbc9d5213	-0.019204175
107	0xbd31a8e6	-0.043373965
108	0xbb90d2de	-0.0044196686
109	0xbce71ae2	-0.02821106
110	0x3e04ba2a	0.12961641
111	0xbe0e1a36	-0.13877186
112	0x3e7c0e67	0.24614869
113	0x3d764b2c	0.060130283
114	0xbeb13d73	-0.34617195
115	0xbda5c78b	-0.080947004
116	0x3df3864a	0.11890848
117	0xbe081f55	-0.13293202
118	0xbe064afa	-0.13114539
119	0x3dcef9b3	0.1010622
120	0x3e4fd397	0.20295559
121	0xbda76f5d	-0.08175538
122	0x3e951076	0.2911412
123	0xbd46380a	-0.048393287
124	0x3eaff7d6	0.3436877
125	0xbdf50286	-0.11963372
126	0xbeb0a071	-0.34497407
127	0x3f0deb8a	0.5543753
128	0xbd1fcb06	-0.039011978
129	0xbeeb864e	-0.46000904
130	0xbe8e918f	-0.27845427
131	0x3e2966e1	0.16543151
132	0xbee97d79	-0.4560354
133	0xbdae6995	-0.08516232
134	0x3e573f1d	0.2102017
135	0xbdd3e0bb	-0.10345598
136	0xbe0a63a2	-0.1351457
137	0x3e472b3f	0.19450091
138	0xbf2ed12b	-0.68287915
139	0xbbb1f5cd	-0.005430913
140	0x3eb12d90	0.34605074
141	0xbe4bf672	-0.1991823
142	0x3e904ff8	0.2818601
143	0x3ea97599	0.33097532
144	0x3e87c66f	0.2651858
145	0x3e08ac73	0.13347034
146	0xbdbaccac	-0.09121069
147	0x3e10edb6	0.1415318
148	0xbeb54ac1	-0.35408595
149	0xbc68b19f	-0.014202504
150	0x3d6e7007	0.058212306
151	0x3cde869b	0.027163794
152	0xbe55dbac	-0.2088458
153	0xbe546808	-0.2074281
154	0x3dd011b0	0.101596236
155	0x3c89ef51	0.016837748
156	0xbe011712	-0.12606457
157	0xbc04202f	-0.008064314
158	0x3e8849a3	0.2661868
159	0xbe8d612b	-0.27613196
160	0x3dec348f	0.11533462
161	0x3cd83221	0.02639109
162	0x3ebc87d6	0.36822385
163	0xbd896afe	-0.0670986
164	0xbec014ff	-0.3751602
165	0xbc1d7daf	-0.009612485
166	0x3d84017e	0.06445597
167	0x3d43fb6a	0.04784719
168	0xbc89b8c9	-0.016811745
169	0x3ea58aa6	0.32332343
170	0x3ce5bca6	0.028044056
171	0x3c9f5674	0.019450404
172	0xbeaa9327	-0.33315393
173	0x3c0e01b4	0.008667398
174	0xbd4e63f3	-0.050388288
175	0xbedfbac5	-0.4369718
176	0x3d69cf86	0.057082675
177	0x3e8bfeed	0.2734293
178	0x3e71529d	0.2356667
179	0x3e641b47	0.2227603
180	0x3dcebc9a	0.10094567
181	0x3da19fc9	0.07891805
182	0xbc43a9c3	-0.01194233
183	0xbed0a56f	-0.40751216
184	0x3d2122f1	0.039339963
185	0x3dfd60d4	0.12371984
186	0xbe2e1f85	-0.17004211
187	0xbccfcfb2	-0.025367592
188	0x3da2f483	0.07956793
189	0xbe28e186	-0.1649228
190	0xbd199acd	-0.037501145
191	0x3d129e93	0.03579576
192	0xbe61c684	-0.22048384
193	0x3e3eb7fa	0.18624869
194	0x3e1803c9	0.14845194
195	0x3c010338	0.007874303
196	0x3dcfb53c	0.101419896
197	0x3e28a47a	0.16468993
198	0x3e49ac17	0.19694553
199	0x3ddc9b5e	0.107718214
200	0x3d6fd999	0.058557127
201	0x3eb363b6	0.3503701
202	0x3d0023e8	0.031284243
203	0x3cc12ed6	0.023581903
204	0xbe248d42	-0.1606951
205	0x3e0c81b5	0.13721354
206	0x3d812dfb	0.06307598
207	0xbe165b0f	-0.14683174
208	0x3d969219	0.07352085
209	0x3e7dbf15	0.24779923
210	0x3da40a6b	0.080097996
211	0xbd8544de	-0.06507276
212	0xbdebfb99	-0.11522598
213	0x3e370b07	0.178753
214	0xbdbd629d	-0.092473246
215	0x3e4042d2	0.1877549
216	0x3dadf639	0.08494229
217	0xbe2fac48	-0.17155564
218	0x3edcd4c4	0.43131077
219	0xbcbb74bb	-0.02288281
220	0xbf5c3428	-0.86017084
221	0xbd0f2fba	-0.034957625
222	0xbd925c76	-0.07146542
223	0x3cb390d6	0.02191965
224	0xbe645c75	-0.22300895
225	0x3e0295f9	0.12752523
226	0xbd5dfea9	-0.05419794
227	0x3cdcb382	0.026941065
228	0x3d49fcd4	0.04931338
229	0x3e466015	0.1937259
230	0xbe976208	-0.2956698
231	0x3e9d7b7e	0.3075828
232	0xbd9ab2c7	-0.0755363
233	0x3df58d60	0.11989856
234	0x3e7bcd43	0.2459002
235	0x3cb3568e	0.021891858
236	0xbefdff61	-0.496089
237	0xbd893daa	-0.067012146
238	0x3e0d16b2	0.13778189
239	0xbe60d8fd	-0.21957774
240	0xbec5e849	-0.38653782
241	0xbd63cd0f	-0.05561548
242	0x3d0f447d	0.034977425
243	0x3df1fb62	0.118155256
244	0xbd00f6e9	-0.031485472
245	0xbb33abfe	-0.0027415748
246	0xbed1185c	-0.40838897
247	0x3d53e934	0.05173607
248	0x3caf5e0c	0.02140715
249	0xbe91be32	-0.2846542
250	0xbed95868	-0.4245026
251	0xbbd916db	-0.006625039
252	0xbc8bc460	-0.017061412
253	0xbd639409	-0.0555611
254	0xbe727f22	-0.2368131
255	0xbcec1faf	-0.028823702

mlp.4.bias f4 [16]
0	0xbdbfc996	-0.09364621
1	0xbeab095c	-0.33405578
2	0xbe932e4f	-0.28746268
3	0x3e6370c6	0.22210988
4	0x3eddb266	0.4330017
5	0x3c4ccb84	0.012499694
6	0x3f0366d1	0.5132876
7	0x3c69d815	0.014272709
8	0x3dde1608	0.10844046
9	0x3ec5ae02	0.3860932
10	0x3e9d1b4a	0.30684882
11	0x3ed5d4c8	0.41763902
12	0x3eb87f2e	0.3603453
13	0x3e298224	0.16553551
14	0x3e0a6132	0.1351364
15	0x3d9f9a90	0.07793152

mlp.6.weight f4 [3, 16]
0	0xbd472759	-0.04862151
1	0x3e305e01	0.1722336
2	0x3c7c8510	0.015412584
3	0x3e521fc9	0.20519938
4	0xbcd5524b	-0.026040217
5	0x3e348390	0.17628312
6	0x3e259563	0.16170268
7	0xbe490fb0	-0.1963489
8	0xbe60347c	-0.21895021
9	0xbca92bbd	-0.020650739
10	0x3e5977d5	0.21237119
11	0x3e77f3e5	0.24214132
12	0x3dd91aa7	0.10600787
13	0xbe3d3f40	-0.18481159
14	0xbe768711	-0.24074961
15	0xbd3c6145	-0.0459912
16	0x3b7dba69	0.0038715845
17	0xbe13047a	-0.14357176
18	0xbd328b9c	-0.043590173
19	0x3e3923c6	0.18080053
20	0xbdc3f227	-0.09567671
21	0xbe5f1bb9	-0.21787919
22	0x3e8c397c	0.27387607
23	0xbe720497	-0.23634563
24	0x3ddac696	0.106824085
25	0x3db52f24	0.08846882
26	0x3e4bddc9	0.19908823
27	0x3eaa55cd	0.33268586
28	0x3e13e6f9	0.14443578
29	0x3e06aa09	0.13150801
30	0x3ddeb50b	0.10874375
31	0xbd1622ce	-0.036654286
32	0x3e025589	0.12727942
33	0xbe64889c	-0.22317737
34	0xbcf48971	-0.029850693
35	0xbda65f40	-0.08123636
36	0x3daf273e	0.08552407
37	0xbdaf4195	-0.08557431
38	0xbe2f5dd1	-0.17125632
39	0xbe091c75	-0.13389762
40	0xbba3fd24	-0.005004542
41	0xbe8f3825	-0.27972522
42	0x3da25307	0.079259925
43	0x3d4c6de3	0.049909484
44	0x3e9c70e2	0.30554873
45	0xbdff51a7	-0.12466746
46	0x3da9a2f7	0.08283036
47	0xbe1ba4ab	-0.15199535

mlp.6.bias f4 [3]
0	0x3e2b5a43	0.16733651
1	0x3ec07e34	0.37596285
2	0xbea56064	-0.32300103
