EUSIPCO/Coherent Sources/saved_models/rnn_15.0dB_1.pth (torch, 87810 bytes, 14 tensors)

bn.weight f4 [16]
000000 a6 8a bb 3f 0f 51 8f 3f 58 aa 92 3f 56 a1 86 3f
       1.4651687 1.1196612 1.1458235 1.0517986
000010 15 b8 40 3f d5 b5 28 3f 50 54 9e 3e 66 8c 12 3f
       0.75280887 0.65902454 0.309237 0.5724548
000020 86 65 b9 3f a5 b3 73 3f 33 01 a6 3f fc 8e 62 3f
       1.4484107 0.9519599 1.2969116 0.88499427
000030 8e 24 88 3f e1 ce 82 3f f5 2f 0f 3f 94 a3 3c 3f
       1.0636156 1.0219384 0.5593255 0.736871

bn.bias f4 [16]
000000 14 41 f2 3d 32 20 fe 3d 3b b5 da 3e e3 60 96 bd
       0.11828819 0.124084845 0.42716393 -0.073426984
000010 8d e2 b1 3e e0 67 cb bc b8 a3 c3 3e f8 f0 fa 3c
       0.34743157 -0.024829805 0.38210845 0.030632481
000020 15 51 ff bd 45 f7 87 3d 25 15 7f be 7d 0d 0e 3e
       -0.12466637 0.0663896 -0.2491041 0.13872333
000030 1d df bb 3d 44 d8 b7 bb 2d 13 ce bb ef 04 a2 bd
       0.09173415 -0.0056104977 -0.006288907 -0.07911097

bn.running_mean f4 [16]
000000 c7 aa ae ba 88 ca c7 3a d5 65 bf b9 f2 87 0b bb
       -0.0013326042 0.0015242854 -0.0003650623 -0.0021290747
000010 ef d6 ab ba ce ac 98 3a c6 7e 02 ba 41 3b 01 3b
       -0.001311032 0.001164818 -0.0004977997 0.0019719156
000020 54 c4 79 ba eb d1 d6 b8 8b f8 6e ba 36 52 ba 3a
       -0.00095278514 -0.000102434155 -0.0009116015 0.0014215175
000030 07 75 69 ba fd 3f 41 39 c3 b8 02 3b 7a e6 f0 ba
       -0.0008905683 0.00018429752 0.0019946552 -0.0018379234

bn.running_var f4 [16]
000000 0d a0 90 40 ac 2b bf 3f dd 41 af 3f fa aa ae 3f
       4.5195374 1.4935203 1.3691975 1.3645928
000010 2c bc b0 3f 85 8c b0 3f 46 6b b4 3f 17 65 b6 3f
       1.3807425 1.3792883 1.4095237 1.42496
000020 b1 cb 90 40 6c 7a be 3f 62 fd af 3f 56 36 af 3f
       4.5248647 1.488111 1.3749201 1.3688457
000030 55 af b0 3f 0c 10 b0 3f b0 75 b3 3f ae 10 b5 3f
       1.3803507 1.3754897 1.402029 1.4145715

rnn.weight_ih_l0 f4 [48, 16]
000000 4c 08 73 be 35 ca a1 be 8b 00 1f bc 5e 4e e8 be
       -0.23733634 -0.31599584 -0.009704719 -0.4537229
000010 c1 4e 5d bf 7c ff a7 bd 3d ae 09 bf fa 2e 66 3e
       -0.86448294 -0.08203027 -0.5378149 0.22478858
000020 4d 0f 23 3e de b4 4b 3e 9e 05 5c bf ee f9 1e bf
       0.15923806 0.19893214 -0.8594607 -0.6210011
000030 71 58 8d be 8d a1 8b bd 8b bd e6 be 98 49 2d 3e
       -0.27606538 -0.06817923 -0.45066485 0.16922605
000040 11 4d 17 3f 80 37 55 be cb 0f 43 3f 73 b6 99 be
       0.5910197 -0.20821953 0.76195973 -0.3002201
000050 ac 51 e5 be bc 45 5a 3e e3 d5 c2 3d d1 b6 44 bf
       -0.44788873 0.21315664 0.09513452 -0.76841456
000060 da 96 40 bf 52 ea 4d bf cf a4 f7 3e 1f bb 0d 3e
       -0.7523018 -0.8043567 0.48367926 0.13840912
000070 5a d1 80 3e 58 d8 db be ee b5 00 3f 8d 5b ad 3e
       0.25159723 -0.42938495 0.502776 0.3385891
000080 41 fc b4 3f ce 23 0a be c1 99 ff 3e a5 8d da 3c
       1.4139482 -0.13490221 0.49921992 0.02667887
000090 59 ca 46 3d 93 23 d0 3d ad d4 d0 3e 47 71 e5 be
       0.048532818 0.10163035 0.4078726 -0.44812986
0000a0 43 36 51 bf ca da 86 be c7 11 09 bf 89 84 58 3f
       -0.8172342 -0.26338798 -0.5354275 0.8457723
0000b0 d8 00 5f bf 5a 1f 58 3e 65 74 21 bf 24 84 91 3f
       -0.8711066 0.2110571 -0.6306823 1.1368451
0000c0 9e f8 35 3f da f3 1a 3f f8 cf b2 be 73 be dd bc
       0.71082485 0.6052834 -0.34924293 -0.027068352
0000d0 31 f0 f1 be 52 82 58 3e a3 af bc 3e f2 43 35 bf
       -0.47253564 0.21143463 0.3685275 -0.708068
0000e0 99 74 13 3f 83 e9 cb bf 2e ce 0b 3f fd f9 94 3e
       0.5759979 -1.5930637 0.5461148 0.29096976
0000f0 d9 6c 9f be 6e 3e c2 3e e5 86 3e bf 09 84 3f 3f
       -0.31137732 0.37938255 -0.7442458 0.74810845
000100 2f 59 1a 40 cb 3d c8 be 06 14 98 bf 23 27 65 3f
       2.4116933 -0.39109644 -1.1881111 0.8951284
000110 e8 34 02 bf aa 1a ff 3d d5 73 80 bf 1f 76 1e 3f
       -0.5086198 0.12456258 -1.0035349 0.6189899
000120 57 e8 84 3f 61 ae e5 3e 70 c2 8a be 65 04 e0 3e
       1.0383404 0.44859603 -0.2710147 0.43753353
000130 6a be 97 3d 26 0f a4 bd 4f 73 62 3f 24 31 02 bf
       0.074093655 -0.08010702 0.88457197 -0.5085623
000140 0b 2b 08 bf 31 49 4e be bb bd 1b 3f b7 5b 1e 3f
       -0.5319068 -0.20145108 0.6083638 0.61858696
000150 4f b2 3c bf 09 2f 5e 3f e5 11 29 bf 16 73 52 3d
       -0.7370958 0.8679052 -0.6604293 0.051379286
000160 ee c7 b8 be e1 d7 ce be ad 87 cf 3e 22 50 b3 bf
       -0.36090034 -0.40399078 0.405332 -1.400883
000170 da 7e 1e 3e 6b b5 14 3e 2d 59 b9 be 8d 1c 19 3f
       0.15478078 0.1452233 -0.36200848 0.5980919
000180 6c c2 b1 3e d9 d9 a6 be 81 88 d8 bc 25 de 90 be
       0.34718645 -0.3258808 -0.026432278 -0.28294483
000190 2f 41 0c 3e f8 9d 10 bf 5d e8 aa 3f 55 59 c1 bf
       0.1369674 -0.5649104 1.3352162 -1.5105387
0001a0 0a b0 7a bf 9c d8 c7 3d 45 5f 81 3e 43 e7 55 be
       -0.97924864 0.09758112 0.25267997 -0.20889
0001b0 6a 3d 76 3d 6e d3 15 3e 9d 13 ca be 0f 90 b7 3f
       0.060117163 0.14631435 -0.3946809 1.4340838
0001c0 92 dc 22 3f f6 f4 16 3d 0c e4 7c bd 8d ee 06 3e
       0.63617814 0.036854707 -0.06174092 0.13176937
0001d0 67 e8 af be b0 09 16 3e 49 2b 82 be 82 02 a4 be
       -0.34356996 0.14652133 -0.2542365 -0.32033163
0001e0 d3 69 d0 3e aa 8c 5c bf 36 f3 58 3e 0f 67 fc be
       0.40705737 -0.86152136 0.21186528 -0.49297377
0001f0 2e 94 6b 3e 28 a1 9f bc 80 b2 1e 3f 6a 5a 38 bf
       0.23005745 -0.019486025 0.6199112 -0.7201296
000200 1f 51 40 bf 0b f3 03 3e 5f d7 3b bf 3b b7 84 be
       -0.7512378 0.12885682 -0.73375505 -0.25921044
000210 80 11 92 bf df 09 c3 3e 60 de 97 bf f2 be 28 3f
       -1.141159 0.3809347 -1.1864738 0.6591636
000220 5c 50 6b bf 95 69 ce 3e 70 cd b5 3d 68 28 09 bf
       -0.91919494 0.40314928 0.08877075 -0.5357728
000230 f5 f6 e1 3e 92 46 19 bf 05 39 3a 3f df e0 8c be
       0.44133726 -0.59873307 0.72743255 -0.27515313
000240 21 da 1d bf 7d 6e 84 3e 7f 6b 6e 3d b8 56 1f bf
       -0.61660963 0.25865546 0.058207985 -0.622417
000250 53 f3 7c bf 48 1d 0c bf 3d ac 6a be d4 bb 2b 3f
       -0.98808783 -0.5473218 -0.22917266 0.6708348
000260 ef c1 3c be de 3b dd 3c da 1f 8f 3e df 98 97 bd
       -0.18433355 0.027006086 0.27953988 -0.07402205
000270 14 cc 31 3f 3e e7 d2 bd 1a 83 cd be d0 58 b0 3d
       0.69452024 -0.10298012 -0.40139085 0.0861069
000280 35 8d e3 3e cf 61 89 3d e5 86 1a bf 0a 37 ab 3e
       0.4444367 0.06708109 -0.6036208 0.3344043
000290 0c f0 90 bc 39 9a d5 bf ad f5 a5 3f 4c cd 9f 3c
       -0.017692588 -1.668769 1.2965599 0.019507073
0002a0 79 3f 96 3f 10 0d 90 3e b6 f6 09 3f 32 25 f7 be
       1.173812 0.28134966 0.53892076 -0.48270565
0002b0 d4 74 69 3f 15 1a 38 bd 30 de 81 bf 8c d3 8d 3f
       0.9119389 -0.04494675 -1.0145931 1.1080184
0002c0 a2 89 0b bf e0 67 05 bf 3a 8c c6 bf 0c 78 dd 3e
       -0.54506886 -0.52111626 -1.5511544 0.4325565
0002d0 81 c2 9e be be d3 5b bb d9 03 52 bf b8 b2 dc be
       -0.3100777 -0.0033542956 -0.8203712 -0.43105102
0002e0 b9 ac 7d 3f 28 94 b0 3e 6e 09 c5 3f 4a 16 4d bd
       0.9909168 0.34488034 1.5393503 -0.050070085
0002f0 20 ca 17 3f 62 c2 c5 bd 76 ae 3f 3f 8a 44 0e bf
       0.59292793 -0.09656216 0.7487558 -0.5557333
000300 61 59 17 bf 7e 8c d6 be 2f 56 0e be c5 42 9b 3e
       -0.59120756 -0.41904062 -0.13900064 0.3032438
000310 55 a8 a0 be 6c 3c 5b 3e e4 33 bb 3d cf 6b a0 be
       -0.31378427 0.21409768 0.09140757 -0.3133225
000320 9a a6 e9 be 15 88 2f bf 98 66 ae 3e 32 ce 28 bf
       -0.4563492 -0.6856702 0.34062648 -0.6593963
000330 b7 85 89 3e cc fd f3 bc ad f3 02 3f 99 87 3d 3e
       0.2685983 -0.029784106 0.5115307 0.18508758
000340 2c c6 cd 3d 23 2a 09 3f c9 a1 82 bd ff 70 20 3f
       0.10047564 0.5357992 -0.06378514 0.6267242
000350 d1 b1 87 bf a2 74 e5 3e 44 9d 3b bf f2 da c3 3e
       -1.060114 0.44815546 -0.73286843 0.3825298
000360 a0 12 95 3f d6 66 5b bf fc a6 4a 3b 94 71 8f 3d
       1.1646309 -0.8570379 0.0030922284 0.07004085
000370 58 11 89 be 39 e0 d0 3e 9d 2e 12 bf ba 08 20 3f
       -0.26771045 0.40796068 -0.57102376 0.62513316
000380 82 f0 e2 3e 3d 43 ef 3d 51 60 b0 3e ed de cc 3e
       0.44324118 0.116827466 0.34448484 0.4001383
000390 ad 7e 93 3e 7a bd 7a be 02 81 65 3e 5b 62 2c bf
       0.28807583 -0.24486342 0.22412494 -0.6733758
0003a0 2b 30 b6 3e 87 11 c8 be b2 92 29 bf 26 27 a6 3e
       0.35583624 -0.39075872 -0.66239464 0.32451743
0003b0 bc 17 d3 be c4 89 70 3d 7d d2 07 3e a8 1b 74 be
       -0.41229045 0.058725134 0.13263889 -0.23838675
0003c0 34 d1 bb bf a4 ea 9a bf 32 8e 20 be 24 69 57 3f
       -1.4673219 -1.2102857 -0.15679243 0.84144807
0003d0 51 18 2b bf ff 19 11 bf 61 64 f7 3e 9b 05 47 bf
       -0.6683398 -0.5668029 0.4831877 -0.7774293
0003e0 b0 c9 ad 3e 0f f9 63 3f f8 c4 f7 be cc a6 98 be
       0.33942938 0.8905191 -0.48392463 -0.29814756
0003f0 7a e5 c3 3e 96 29 69 be 56 b0 c1 bd a9 ed f9 3e
       0.38261014 -0.2276977 -0.094574615 0.48814133

rnn.weight_hh_l0 f4 [48, 16]
000000 19 58 33 be 0d 52 28 be 3d b9 22 be 43 1a bf 3d
       -0.17514075 -0.1643755 -0.15890975 0.09331181
000010 61 91 0c 3e 76 3f 9b 3e df 12 68 be d2 d3 1f be
       0.13727333 0.30321854 -0.22663449 -0.15608147
000020 fe 73 ff bd 94 02 95 3d ec 51 a1 bd fc c3 99 3e
       -0.12473296 0.07275882 -0.078769535 0.30032337
000030 13 d1 17 bf ca cf 11 bd 68 ad 18 3f f5 1e 64 be
       -0.59303397 -0.035598554 0.59639597 -0.22277434
000040 35 df 5e 3e 97 99 2e 3e da 00 ae be e4 e6 d0 3e
       0.21764834 0.17050777 -0.33985025 0.40801156
000050 90 b5 78 bf eb cb 99 be ff d0 a9 3d a2 a5 a3 3e
       -0.9715204 -0.3003839 0.08291816 0.31962305
000060 bd 8e a5 be f9 0b 4a bc 7d 06 85 3f 08 42 38 be
       -0.32335463 -0.012331956 1.0392605 -0.17993939
000070 29 89 59 3e f5 e9 62 3e 29 02 28 3e bf 8f 40 bd
       0.21243729 0.2215956 0.16407074 -0.047012087
000080 4e f5 9f 3e 8d d3 46 be c7 ab e0 be 06 19 b1 be
       0.3124184 -0.19416638 -0.43881056 -0.34589404
000090 bc 2a ae bf b7 ff 24 be 00 ec 65 be 56 e1 64 be
       -1.3606791 -0.16113172 -0.22453308 -0.22351584
0000a0 94 6f d7 3e 1e 8e 10 bf fb 92 89 3f 16 b8 c5 be
       0.42077315 -0.56466854 1.074798 -0.3861701
0000b0 48 32 b0 be f5 8b 14 3f 93 b7 87 be f4 7e dd 3e
       -0.34413362 0.5802606 -0.26507244 0.4326092
0000c0 85 be 2a 3e bd 16 cb bd f3 a0 6c 3d 1d 0f 80 be
       0.1667424 -0.09916446 0.05777068 -0.2501153
0000d0 2e 5f ad be 72 87 0f 3e fc d1 b2 be 42 ce 0a be
       -0.3386168 0.14016512 -0.3492583 -0.13555244
0000e0 3c e9 56 bd 6e 12 fa bd 2e d8 77 3e 01 90 15 be
       -0.052468523 -0.122105464 0.2420356 -0.14605714
0000f0 48 73 50 3d 20 e1 07 3f 9e d1 0c bf 21 9d 6b bd
       0.05089119 0.5307789 -0.5500735 -0.057522897
000100 79 3e 00 3f 8e af eb be f6 df 77 3c 20 a6 ee 3c
       0.50095326 -0.46032375 0.01512908 0.029131949
000110 43 b2 01 bd d9 e0 cc bd 3c 45 6c bc 4a 68 86 bd
       -0.031664144 -0.10003824 -0.014420804 -0.0656286
000120 d8 6f 21 3e 05 e8 af 3c a9 a0 35 3f bc 9f 11 3d
       0.15765321 0.02147294 0.7094827 0.035552725
000130 fd e9 56 be 65 5a 27 3d e1 95 93 be a8 8d 83 be
       -0.20987697 0.04085769 -0.28825286 -0.25694013
000140 d3 b6 ac 3e f9 78 54 bd 4f 6f d1 3c 80 55 0a 3e
       0.33733234 -0.05187318 0.025565771 0.13509178
000150 c1 60 68 bf 07 4a 4c bf 1b bc a5 3d fb f4 f0 bd
       -0.90772635 -0.79800457 0.08092519 -0.11765476
000160 61 25 6d 3e 68 5a 0c be 32 c3 0e 3e 3a 33 05 bf
       0.2315879 -0.13706362 0.13941649 -0.5203129
000170 0d 1f 0b bf 98 bc 44 3e 6e 5d 29 be fe 3c e3 3e
       -0.54344255 0.19212568 -0.16539547 0.4438247
000180 a4 dc 5d 3d 80 0c 4b 3f f8 98 2b bf fd 16 fe 3d
       0.054165497 0.7931595 -0.67030287 0.124067284
000190 46 5c bb bd 49 f5 47 bf d3 3f 22 b9 15 ad e0 3e
       -0.09148459 -0.7810865 -0.000154733 0.4388205
0001a0 a7 28 ad be f8 97 84 3e b4 a2 d4 3f 48 10 9f bd
       -0.33820078 0.25897193 1.6612153 -0.07766777
0001b0 39 07 4c 3d ba 63 1d 3e 38 d3 18 be fc e5 da be
       0.049811576 0.15370074 -0.14924324 -0.4275359
0001c0 5c ba 0c 3e 1c e9 c7 3d 21 de af be 0b a7 ba 3e
       0.13742965 0.09761259 -0.34349158 0.3645557
0001d0 a8 3a 46 bf 1c 1b 25 be 82 2b 55 bd ad a6 09 be
       -0.7743325 -0.16123623 -0.052043445 -0.13442488
0001e0 7d 5c 94 be 4c 48 bc ba af f4 af 3f d6 58 73 be
       -0.28976813 -0.0014364808 1.3746547 -0.23764357
0001f0 d9 47 c0 3e 59 67 36 3f 61 ca 24 be a4 e2 fd bd
       0.37554815 0.71251446 -0.16092826 -0.12396744
000200 65 37 1f be 6c c4 73 3f 87 c2 1e 3f f7 7f 9e be
       -0.15548475 0.9522159 0.62015575 -0.30957004
000210 1c 67 4d 3d e5 3e 4c bf 74 b4 10 3e 39 e9 b2 3e
       0.05014716 -0.7978347 0.14131337 0.3494356
000220 83 0c 6f 3d 35 83 a3 3d 20 a2 e5 3e 33 f6 80 3e
       0.05836154 0.0798401 0.44850254 0.25187835
000230 92 84 8c bd 14 cf 1d 3f 68 c0 2e bf 23 dc ae be
       -0.06861223 0.616441 -0.6826234 -0.34152326
000240 e1 98 0c 3f 72 16 90 bc 93 cb 7d bf e5 69 28 3e
       0.54920775 -0.017588828 -0.99138755 0.16446646
000250 34 b5 9a bf bb 8d 7e bf 39 6a ad be 25 18 bb 3e
       -1.2086549 -0.99435014 -0.33870104 0.36541858
000260 55 1f 2c bf 71 08 5a be cb 41 71 3f b8 ff ce be
       -0.6723531 -0.21292283 0.9424102 -0.40429473
000270 4b 37 a1 3e c7 7e 6b 3d c1 8f 08 be cb c4 ac 3d
       0.31487498 0.05749395 -0.13336088 0.08435973
000280 79 39 3f 3e 06 5e 16 3e 2f 46 bc 3d ed cf 81 3e
       0.18674268 0.14684305 0.09193074 0.25353947
000290 c2 42 66 be 8b 4b 47 3e a1 57 66 bf ac 7d 2e 3e
       -0.22486404 0.19462411 -0.8997746 0.17040128
0002a0 95 9c ef 3e 82 72 9c be dd 09 46 3f db 70 47 3d
       0.4679915 -0.30556113 0.773588 0.04869161
0002b0 7d 9e 98 bf 8c 16 b9 3d 0e 29 e8 be 2b ea 86 bf
       -1.1923367 0.090375036 -0.45343822 -1.0540212
0002c0 64 ac e7 3e 73 86 1b bf 46 63 52 bf 6d 07 fb 3e
       0.4524871 -0.6075203 -0.8218273 0.49029103
0002d0 9f df 05 3e 63 10 8b bd df dd f2 3c b3 0a a4 be
       0.13073586 -0.06790235 0.029646812 -0.32039413
0002e0 5d 29 91 3e e0 52 db bb 8d 8e ab 3f 5f 95 9a be
       0.2835187 -0.006693229 1.3402878 -0.30192086
0002f0 a6 18 02 3f 58 e1 79 be 3b e5 d0 be 9c 04 4f bf
       0.5081886 -0.24402368 -0.4079989 -0.8086641
000300 ff ef c3 3e ce c6 84 be d1 f9 88 be bd 2e e4 3c
       0.3826904 -0.25932926 -0.26753095 0.027854318
000310 7d dc 03 bf 87 c8 81 3e e7 40 00 bf 4a 07 64 3e
       -0.51508313 0.25348303 -0.50099033 0.22268406
000320 e4 1b cd 3e 25 e9 ed 3d cd 6d d3 bd 05 dd 22 be
       0.4006034 0.116167344 -0.10323677 -0.15904625
000330 85 6d c8 be ae b7 2a bd a3 3e f5 bc c3 7e df 3b
       -0.39146057 -0.041679077 -0.029937094 0.006820531
000340 b1 91 f8 3e c2 aa a5 be 74 db 05 3f 75 d9 30 3e
       0.48548654 -0.3235684 0.52287984 0.17270453
000350 cd 31 0d bf f1 22 3c bf 81 4f 66 3d b9 ad 5a be
       -0.55154115 -0.73490816 0.056228165 -0.21355332
000360 f9 5f 23 3f d2 4b 2d 3e 36 6b 46 3f 61 18 43 be
       0.6381832 0.16923454 0.7750734 -0.19052269
000370 70 41 5d be f8 8c 33 3f 6b c1 ef bd a9 b9 80 be
       -0.21606994 0.70136976 -0.117068134 -0.25141647
000380 8c ac 8c 3d 54 75 47 3f 6e c9 bb bc 9f 31 2c be
       0.06868848 0.77913404 -0.022923198 -0.16815804
000390 c0 1e 18 bf 3f 5a 10 bf 09 d9 e7 3e fc ed 41 3f
       -0.5942192 -0.56387705 0.45282772 0.7575376
0003a0 48 0a 4f bf 3c 8b 1b 3f c1 b0 c9 3e e6 6d 40 bf
       -0.8087506 0.6075933 0.39392665 -0.7516769
0003b0 0d 36 35 3e c9 d5 39 3f c9 c2 9d be d3 cd 96 bd
       0.176964 0.72591835 -0.30812672 -0.073634766
0003c0 e3 bd 0b 3f 1e a1 ba 3e c6 dd ca 3d 5f 30 42 be
       0.5458662 0.36451048 0.09905581 -0.18963765
0003d0 69 34 0c bf ae eb 69 3d a7 17 14 bf 70 10 f9 3d
       -0.5476747 0.057109527 -0.5784859 0.12161338
0003e0 d0 d5 10 3f 6c a5 42 be 8d f8 6a 3f 7f 1d f4 bd
       0.5657625 -0.19008416 0.9178551 -0.119196884
0003f0 c3 d8 96 be 51 e4 04 3e 1f 8a 15 bf 54 5b 94 bf
       -0.2946225 0.12977721 -0.5841388 -1.1590371

rnn.bias_ih_l0 f4 [48]
000000 4c 37 c7 3e 0b 06 4d bc 9a 63 c8 be 88 d3 c4 be
       0.38909376 -0.012513648 -0.3913849 -0.38442636
000010 12 25 e6 bd 9e e7 5b 3d dc ac bb 3b bb 83 93 be
       -0.11237539 0.053687684 0.0057273936 -0.2881144
000020 05 75 8e bd d9 6d 9f be 72 c9 bb be 5a ba a3 be
       -0.069559135 -0.31138495 -0.36677128 -0.31978112
000030 c9 3a 47 be 88 56 e5 bd bb d4 e4 be bd 29 e3 be
       -0.19456019 -0.11198145 -0.4469355 -0.4436778
000040 a9 a6 3f 3f 3b 15 92 3f ce 21 b0 3f 4b 97 7e 3f
       0.7486368 1.1412729 1.3760316 0.99449605
000050 f4 f1 c0 3f 0c 13 81 3f 29 58 e7 3e f4 09 b8 3f
       1.5073838 1.0083938 0.45184448 1.4378037
000060 13 a0 40 3f e7 45 9a 3f 7c 86 cb 3f 1c cb de 3f
       0.75244254 1.2052583 1.5900416 1.7405734
000070 fd 81 a4 3f 13 e7 90 3f fe c6 82 3f 35 48 98 3f
       1.2852169 1.1320518 1.0216978 1.1897036
000080 94 20 f8 be 54 3b e4 3e 43 05 df 3d ef 3d a6 be
       -0.48462355 0.44576514 0.108896755 -0.32469127
000090 9c 29 0d 3e 32 0e 5a 3d 0a 53 97 3e a8 21 16 3e
       0.13785404 0.053236194 0.2955554 0.14661276
0000a0 d4 5e 7d be 82 27 e0 bd c9 18 d8 be 34 00 a9 3e
       -0.24743205 -0.109450355 -0.4220641 0.33007967
0000b0 ac 52 21 bd 4b 10 5e be 0e c4 9f 3e 3f 86 57 be
       -0.039385483 -0.21685903 0.31204265 -0.21047305

rnn.bias_hh_l0 f4 [48]
000000 b0 98 ab 3e 40 76 c9 3d c7 96 0d bf e4 f3 ea bd
       0.3351493 0.098370075 -0.5530819 -0.114723
000010 11 7e d5 bd 6e 31 9c be 7b d0 97 3d 81 fb 33 3b
       -0.10424436 -0.30506462 0.07412811 0.002746314
000020 b6 08 29 3d 7a 96 f5 be f5 26 ae be 91 d0 63 be
       0.041268073 -0.47966367 -0.34014097 -0.2224753
000030 2e 16 03 bf 18 42 6d be b4 b2 00 bf cf f9 b0 be
       -0.5120572 -0.23169744 -0.5027268 -0.3456559
000040 7d 67 43 3f 03 89 3d 3f c0 86 bf 3f d5 cc 93 3f
       0.76329786 0.7403719 1.4962997 1.1546885
000050 35 26 99 3f 46 93 a0 3f 17 98 45 3f b4 3a 9f 3f
       1.1964785 1.2544944 0.77185196 1.243979
000060 6f c5 32 3f 36 15 89 3f 6f e4 c5 3f 91 08 bc 3f
       0.6983251 1.0709598 1.5460337 1.4690114
000070 2b ac c4 3f b7 e6 71 3f 72 a0 85 3f 85 46 c2 3f
       1.5365041 0.9449267 1.0439589 1.5177771
000080 6c 22 eb be 43 a2 dc 3e 0c bf 8c be 6e 6e 5a be
       -0.459247 0.43092546 -0.27489507 -0.21331188
000090 a0 b5 11 3f b6 41 79 3e 14 6e a2 3e 2a d9 1d 3e
       0.5691776 0.24341473 0.31724608 0.15414873
0000a0 6d 64 58 3e f8 ff a3 bc 12 bf 64 3c ac 6d ad 3e
       0.2113206 -0.020019516 0.01396157 0.33872736
0000b0 71 f7 35 be 39 98 0c bf f2 39 36 bd b7 39 0e bf
       -0.17770173 -0.54919773 -0.044488855 -0.55556816

mlp.0.weight f4 [128, 16]
000000 67 09 92 3e e2 f4 49 be d1 e8 a0 3e f1 04 04 be
       0.28522798 -0.19722322 0.31427625 -0.1289251
000010 db ad c6 3e 31 fe 24 be ed 23 80 3e 06 46 93 3e
       0.38804516 -0.16112591 0.2502741 0.2876436
000020 ef c1 64 bc a1 ec c0 bc 1d f8 23 3d 0c a8 15 be
       -0.013962253 -0.023550333 0.04003154 -0.14614886
000030 43 bd a4 be a6 59 87 be 15 4d 85 3d 81 58 44 be
       -0.32175645 -0.26435584 0.06508843 -0.19174387
000040 4c f7 40 3e 14 ea b1 3c ae 2f ed be b5 47 8f 3e
       0.18844336 0.021718062 -0.4632544 0.27984396
000050 6f d7 1b bf fd 65 0b 3e 7d c5 28 3d 8b 64 8a 3e
       -0.608756 0.13613124 0.041203965 0.27029833
000060 e8 43 ab 3d f7 3e 85 3e c2 d3 e5 3e 70 d4 37 bf
       0.083625615 0.260246 0.4488812 -0.7180853
000070 95 1f 07 bf 03 e4 07 3f 42 d6 88 bd 75 97 bb bd
       -0.52782565 0.53082293 -0.066814914 -0.091597475
000080 d7 21 e2 3e e1 18 49 be 4d 55 c9 be 93 06 45 3e
       0.44166443 -0.19638397 -0.39322892 0.19240789
000090 38 2d e2 bd 25 38 db bd b4 88 96 3d a7 6d 84 3e
       -0.11043781 -0.10704068 0.07350293 0.25864908
0000a0 94 b0 f3 bd 0a ae 0e bd 18 c5 4b 3d 87 17 e0 be
       -0.11898914 -0.034833945 0.04974851 -0.4376795
0000b0 53 da c6 3e 6c 06 c4 be 71 13 e0 be 60 76 f0 bd
       0.38838443 -0.3828615 -0.43764833 -0.11741328
0000c0 85 c4 f7 bd 58 64 12 3d b7 a4 f6 3c d1 88 d3 bd
       -0.1209803 0.035740227 0.030107839 -0.1032883
0000d0 c5 e8 38 be 40 33 91 bd 6a 53 17 be 11 d9 9b bd
       -0.18057545 -0.07089853 -0.14777914 -0.076097615
0000e0 b0 9e 58 bd 40 b3 92 bd f3 d3 f3 be aa a9 1f be
       -0.05288571 -0.071630955 -0.47622642 -0.15592065
0000f0 84 12 2d be 4f 5c 9e 3c bc 51 39 be 9e 64 89 be
       -0.16901594 0.019331126 -0.18097585 -0.26834577
000100 cc 49 58 be c6 dc 85 be f7 e1 0b bf 84 d0 0e bf
       -0.21121901 -0.26145 -0.5464167 -0.5578692
000110 ce 0c 55 3d da 27 69 3c 39 e8 a2 3d 6e 4a 41 be
       0.052014165 0.014230693 0.07954449 -0.18876049
000120 4f 47 28 3e 88 24 36 be ae 0e 61 bc ee 25 2a bf
       0.16433452 -0.17787373 -0.01373641 -0.66464126
000130 d7 ed f1 3e 61 58 15 3f 5e af a1 3d e0 39 77 3e
       0.4725177 0.5833798 0.07894777 0.24143171
000140 85 d7 f7 3e cf c3 85 be 00 80 03 be 2f 8d 94 3d
       0.48406616 -0.26125953 -0.12841797 0.07253491
000150 d7 8c 95 be 22 e4 3c 3f 62 e5 44 3e 44 7e ea bd
       -0.29209015 0.73785603 0.19228128 -0.114498645
000160 4d f4 0c 3d 2f ac d4 3d ad b1 81 bd b3 8c b5 be
       0.03441267 0.10384404 -0.06332717 -0.35458907
000170 4a f4 10 3f b6 e8 cd be e8 f4 a0 3c 63 69 74 3d
       0.56622756 -0.40216607 0.01964803 0.059670817
000180 1c e2 c5 3d 27 6d 26 bd dc 25 b5 3e 00 ad 20 be
       0.096622676 -0.04063144 0.35380447 -0.15690994
000190 7d cb ef 3d 9c 72 e0 bd 71 81 66 be 6c 55 5b be
       0.11708734 -0.1095936 -0.22510315 -0.21419305
0001a0 e1 93 9c 3c 5d 25 82 be aa 7f 0e be 46 06 a7 3d
       0.019113483 -0.2541913 -0.13915887 0.081554934
0001b0 83 e3 2e 3f 28 56 be bc d9 da 91 bd f6 14 54 3e
       0.68315905 -0.023234442 -0.0712182 0.20711121
0001c0 97 2e 23 3e 8f 52 f3 bd 83 ae c6 3e ba e0 6a bf
       0.15935741 -0.11880981 0.38805017 -0.91749156
0001d0 2c 25 bf 3e b5 7b 7d bf 75 05 4c bd b7 c3 a6 bd
       0.37333047 -0.99016887 -0.04980989 -0.081427984
0001e0 d0 ba 89 bd ae 41 97 3d ca 70 f9 be 31 11 4a 3e
       -0.06725085 0.07385574 -0.48718864 0.1973312
0001f0 1f 5a 80 be 75 53 c6 3e c3 0c ff 3d 12 c2 c1 3e
       -0.25068757 0.38735548 0.12453606 0.37843376
000200 8c 6d 3a 3e d5 dc 84 bd 23 0e 0f be 94 15 42 3e
       0.18205851 -0.06487433 -0.13970236 0.18953544
000210 51 3f 04 3c 98 6e 1c be d6 d7 e7 3d 17 48 29 3e
       0.008071736 -0.15276563 0.11320464 0.16531406
000220 94 5c 7e 3c e5 82 0e 3e d8 e0 c3 bd 6e 2f bb bd
       0.015525002 0.1391712 -0.0956437 -0.09139906
000230 72 c6 1c 3e 22 c9 75 3d 2d ff 65 be 23 9a 02 bd
       0.15310076 0.06000627 -0.22460623 -0.031885277
000240 f1 29 3b be e1 7a 17 3e 21 ea 06 bd 0c 2a 12 3f
       -0.18277718 0.14792968 -0.032938126 0.5709541
000250 52 7f c8 3e 42 94 e1 be ea 51 09 3d 1c 15 bc bc
       0.39159638 -0.44058424 0.033525385 -0.022959284
000260 6d 0e 51 3e c5 44 0a bd 23 97 af 3e 4b 36 58 be
       0.20415659 -0.03375699 0.34294996 -0.21114461
000270 73 d5 87 be 8d 47 50 be 56 cd ca be ed 5b 85 3e
       -0.26530036 -0.20339794 -0.39609784 0.26046696
000280 1f 96 51 be 66 9b 1a 3e a4 9a bb be 17 f5 f1 3d
       -0.20467423 0.15098342 -0.3664142 0.11814325
000290 c4 50 4b 3d a9 57 b5 3e 86 5c d0 3d 1f 99 7e be
       0.04963757 0.35418442 0.101738974 -0.24863099
0002a0 8e ab 04 3e c0 70 59 be 02 02 48 bb c3 44 bb be
       0.12956068 -0.21234417 -0.0030518775 -0.365759
0002b0 3f 8a 49 3e 56 e9 1f bb cf 3e d2 bd 6c bb fa bd
       0.19681643 -0.0024400554 -0.10265886 -0.12242779
0002c0 a9 1a 6e be 08 2b 22 3e 30 ee 24 be 06 16 84 be
       -0.23252358 0.15836728 -0.16106486 -0.25798053
0002d0 d5 f9 01 bf ad a4 b3 bd e7 de c7 3c 7a 90 93 3d
       -0.5077184 -0.08771644 0.02439828 0.07205291
0002e0 bc d1 18 bb c2 4d 07 be fd a4 93 3e 4c 01 3e be
       -0.002331837 -0.13213256 0.28836814 -0.18555182
0002f0 d8 a8 73 be 52 44 9b 3e 39 4f a9 bd 6b fe 9d 3d
       -0.23794878 0.30325562 -0.08267064 0.07714542
000300 80 cd 47 3c 07 ad d3 3a 09 72 d2 bd b7 3b 7b be
       0.012194991 0.0016149589 -0.10275657 -0.24534498
000310 c4 2a db bd 9c 09 57 3e 88 5d b8 3b 7d 6b 31 3d
       -0.10701516 0.2099976 0.005626384 0.0433154
000320 02 e8 73 3c 3d 77 ed 3d 2c 37 74 3e 3a f0 28 bf
       0.014886858 0.115950085 0.23849171 -0.65991557
000330 30 64 7e be ee 75 14 bf eb 80 43 bd 19 77 a5 3e
       -0.24842906 -0.57992446 -0.047730368 0.32317427
000340 e2 b4 a5 3e d8 81 15 be c5 6f fa 3e b0 8c 6c 3f
       0.32364565 -0.14600313 0.48913398 0.9240217
000350 00 e6 e6 3d 2b 3d 39 bf 4d 67 92 3d 90 6d eb be
       0.11274338 -0.7235896 0.07148609 -0.45982027
000360 ef ef 48 be 93 f9 b8 bd 4b 67 e5 be aa db 0e 3f
       -0.19622777 -0.090319775 -0.4480537 0.5580393
000370 99 21 c8 3e 7c 90 ce 3e 32 01 bf be 35 08 e1 3e
       0.39088133 0.40344608 -0.373056 0.43951574
000380 a3 b3 3b 3e bf 50 40 be f6 ed 86 be 73 da ac 3e
       0.18330245 -0.18780802 -0.26353425 0.33760414
000390 2e f8 a0 be 7a e1 9f 3c 20 44 72 be f2 23 1f be
       -0.31439346 0.019516695 -0.236588 -0.15541056
0003a0 b1 15 74 bc 5f 88 1d 3e 26 dd 6d 3d 57 fb 1f bf
       -0.01489775 0.15384053 0.05807223 -0.6249289
0003b0 e1 27 cf 3e 8d 88 59 be 8d 1b a4 be 30 07 4c bc
       0.40460113 -0.21243496 -0.3205227 -0.0124528855
0003c0 c0 7c cd 3d 72 86 c4 bd d1 93 a3 3c dd 41 95 3d
       0.1003356 -0.09595956 0.019967945 0.07287953
0003d0 ef e1 22 be 2a 5d 23 be ce b1 31 bd 7b f2 ae bd
       -0.159065 -0.15953508 -0.04338246 -0.08542343
0003e0 1b 52 6b 3d ee d5 7f bd 88 d7 84 3e fa f6 77 bd
       0.05745135 -0.06245988 0.25945687 -0.06053827
0003f0 b6 cb 97 3d 0d 63 8d bd e5 7e 8e 3d 11 76 aa bd
       0.07411902 -0.06903658 0.06957797 -0.08323301

mlp.0.bias f4 [128]
000000 c1 10 ad be 25 82 d1 be bf 65 c9 be f7 de 02 3e
       -0.33801845 -0.40919605 -0.3933544 0.12780367
000010 91 23 bd 3d da cc 85 bc ee e8 69 be a9 dc c3 be
       0.092352994 -0.016333032 -0.22842762 -0.38254288
000020 67 27 57 be 8d 95 39 3d 94 36 cd 3d 25 c8 aa 3e
       -0.21011125 0.04530864 0.100201756 0.33355823
000030 f4 7d f2 bd c2 da 1d be eb 92 db be 9a cd b3 be
       -0.1184043 -0.1541548 -0.42885527 -0.351178
000040 95 d4 b4 3e 96 d6 4b be 72 6b 30 bd 44 4e ea be
       0.35318437 -0.19906077 -0.043071218 -0.45762837
000050 26 a7 ec be fd c4 75 be 4e 5c 06 be e7 3f a3 be
       -0.46221274 -0.24000926 -0.13121149 -0.3188469
000060 2a 18 be be cd 8f 98 be 06 af 5f 3e ca 65 28 be
       -0.3712781 -0.2979721 0.2184411 -0.1644508
000070 42 b7 eb be 59 c4 98 3d 8a fb d3 be 24 1c fd 3d
       -0.46038252 0.07459325 -0.41402847 0.12358883
000080 ce 3a 46 3d 19 66 0b bf 57 4f e0 bd b8 da 9f be
       0.048395924 -0.54452664 -0.10952633 -0.31221557
000090 97 be 6f be 13 e3 e8 3d f0 15 bb be 5b a3 1a 3e
       -0.23412548 0.11371436 -0.36540174 0.15101378
0000a0 20 9b 42 3e 72 ba 96 be 83 f9 ce be dd e1 ed bd
       0.19004488 -0.2943912 -0.40424737 -0.116153456
0000b0 2f 57 c3 be c1 fc 98 be f2 c7 c5 bc 55 63 0f bf
       -0.38152453 -0.29880336 -0.024143193 -0.56010944
0000c0 af eb 2f be 9a 2c 9a be 2e 23 3f be 41 0c 0e 3e
       -0.1717975 -0.30112153 -0.18665764 0.13871862
0000d0 32 80 4d 3e bc 9c ef bd c5 62 ed bc dd 60 59 3e
       0.20068434 -0.116998166 -0.028977761 0.21228357
0000e0 ba e0 bc be bf 5e b9 3e a3 de 26 be 6e 2d 05 3e
       -0.36890203 0.36205098 -0.16295867 0.13005611
0000f0 de b7 a9 bd 48 09 be be fb fa 42 be fa 88 29 be
       -0.08287023 -0.37116456 -0.19041054 -0.16556159
000100 d1 c7 a1 be 2a 8e 8f 3d 70 4d c1 3e c1 9c f1 3d
       -0.3159776 0.070095375 0.37754393 0.117974766
000110 b5 06 7f be 2f 3d ef bd 40 ed 9b be df ec d0 be
       -0.24904902 -0.11681592 -0.30454445 -0.40805718
000120 09 a3 ca be 32 80 d6 bd 97 50 47 be b4 08 d5 3b
       -0.3957751 -0.1047367 -0.19464336 0.0065012816
000130 89 68 21 be 3d 6a f2 be 76 4d 54 be 1e 53 3d bf
       -0.15762533 -0.47346678 -0.20732674 -0.7395495
000140 71 8f 74 be 53 d6 e1 3d 0d f1 3a be 3b 4f a8 3e
       -0.23882844 0.11027207 -0.18256016 0.32872948
000150 20 e7 d0 bd 58 bc b5 bc 8f 5e 30 bf e8 02 87 be
       -0.102003336 -0.022184536 -0.68894285 -0.26369405
000160 b6 d0 c3 be e2 bf 43 bf 74 9e 03 bf ce 56 70 3d
       -0.3824517 -0.76464665 -0.51413655 0.058676533
000170 ed 5b d1 be 1b f7 97 3d 32 bf d3 be 15 2a 1f 3e
       -0.40890446 0.074201785 -0.41356808 0.15543397
000180 69 4e 26 bd 3a be 43 3e 17 87 d8 bd 1c 5f 1f bc
       -0.04060212 0.19115534 -0.10572641 -0.009727266
000190 be 80 ec be 4f 93 cd be 43 32 4b be cf 3d 6f be
       -0.46191972 -0.4015145 -0.19843392 -0.23363422
0001a0 12 47 00 bd e6 71 42 3e c0 8e c5 bd 14 c1 af be
       -0.031317778 0.18988761 -0.09646368 -0.34326994
0001b0 ef 0c ad bd 5c fa a9 be 95 ed 5e 3e c7 c4 65 be
       -0.084497325 -0.33198822 0.21770318 -0.22438346
0001c0 63 8f 06 be ce 78 b6 3b 67 06 89 be 37 10 fb 3d
       -0.13140635 0.0055686003 -0.26762697 0.12258952
0001d0 6b 5e cb be d5 1e 5e be e6 02 14 be df 96 11 bf
       -0.39720473 -0.21691449 -0.1445423 -0.56870836
0001e0 a2 f3 68 be 5e 5a 99 be d3 25 79 3e fb de 40 3e
       -0.22749189 -0.29951757 0.24330835 0.1883506
0001f0 87 c3 aa be bc f6 78 be 6d 00 ac be 5e 67 12 be
       -0.333523 -0.24312872 -0.33594075 -0.14297244

mlp.2.weight f4 [128, 128]
000000 f1 f5 04 3e e1 81 5d be 0d ae 53 3e 50 b6 8a 3d
       0.12984444 -0.21631576 0.20671864 0.067730546
000010 e9 f0 af 3e 2f be d8 3d a3 4e ce bd cf c4 f5 bd
       0.34363487 0.1058315 -0.100735925 -0.12000429
000020 59 d4 49 3d 0e 2e 8d be 87 4c 51 3d 0a 30 d7 3d
       0.049274776 -0.275742 0.051098373 0.105072096
000030 67 35 51 3e 9c 86 05 3e ee 62 6a 3e 48 e1 33 be
       0.20430528 0.1303963 0.22889301 -0.17566407
000040 6d 41 2c bc 0a a4 04 be cc 1e ea 3d 17 0b 0d bf
       -0.010513646 -0.12953201 0.11431655 -0.55095047
000050 61 20 fd 3d 7b 06 59 3d c4 b0 b5 bd 94 2a a2 bc
       0.123596914 0.052984696 -0.08871606 -0.019795693
000060 3b 7a 34 be b3 84 01 be 4d 02 4d 3e f8 71 3a 3e
       -0.17624752 -0.12648277 0.20020409 0.18207538
000070 e5 d1 df bd 9c 1d 53 bc 41 66 1f bc 25 2c 55 3d
       -0.10928706 -0.012885477 -0.009728969 0.052044053
000080 b8 27 b1 be dd b3 36 3e dc 44 e7 3c f8 a7 66 3d
       -0.34600616 0.1784205 0.028231077 0.05631253
000090 e0 4d a9 3d 91 4a da 3d 6e db 74 bd 5d d0 a9 bd
       0.082668066 0.10658754 -0.059779577 -0.08291695
0000a0 68 61 73 3d 14 14 d8 3c fb a8 02 ba 76 ae f1 3d
       0.059419066 0.026376761 -0.00049842865 0.11800854
0000b0 fb 6c a7 ba bc 9d a8 bd f4 fd b5 bd 90 bd bf be
       -0.0012773568 -0.082332104 -0.08886328 -0.37449312
0000c0 b6 75 01 3e f9 11 99 be f1 a4 fc 3d df 07 52 3e
       0.1264256 -0.29896525 0.123361476 0.20510815
0000d0 61 1f 1b 3e f9 52 4e 3a 6a f7 02 3e 9f 22 17 be
       0.15148689 0.000787064 0.12789693 -0.147593
0000e0 88 31 b9 bd 14 46 bb bc cf f4 45 be 43 ee 07 3e
       -0.090426505 -0.022860564 -0.19331668 0.13274483
0000f0 da b2 51 3d 0b 61 66 3e d1 3f 22 3e ac ad 18 3e
       0.051195957 0.22497956 0.15844657 0.1491
000100 4a 0a 8e bd c9 5a 49 bc fe 5a 24 3e f4 ee 53 bd
       -0.06935556 -0.012289711 0.16050336 -0.051741555
000110 1b 0b b2 bd e7 42 0a 3e 18 76 5d 3e 76 df 3c 3d
       -0.086935245 0.13502084 0.2162708 0.046111546
000120 97 ee cc bd 71 fb 2f 3d fa d1 a2 3d a4 21 8f 3c
       -0.10006445 0.042964403 0.07950206 0.017472096
000130 cb 89 0f be 18 80 3d 3d 9b 4a 58 bd 7b fc af bc
       -0.14017408 0.046264738 -0.052805524 -0.021482697
000140 0e 72 56 3d 63 21 63 3d 32 90 b7 3c c0 df 83 3e
       0.052354865 0.055451762 0.022407625 0.25756645
000150 22 7b 21 3e c7 dc 68 bd bb 81 24 bf 03 7c bd bd
       0.15769628 -0.056851175 -0.64260453 -0.09252169
000160 ef d8 4e be 03 91 20 bf 85 dc 15 be 94 26 5e bd
       -0.20199941 -0.6272127 -0.14634903 -0.05423601
000170 8d 74 46 bf a4 35 fd be 32 3b bc bd f5 6a 65 3d
       -0.7752159 -0.49454987 -0.09190978 0.056010205
000180 64 5d a7 3d 19 9b d8 3d a5 f3 9a bc ed a1 8f bd
       0.0817211 0.105764575 -0.018915007 -0.07013307
000190 1c ae b4 bc 09 12 b9 3d a1 3d 8e bd e6 59 da bd
       -0.022055678 0.09036643 -0.069453485 -0.10661678
0001a0 e0 a4 11 be 85 90 12 3d 95 b5 ce 3d 75 53 82 3e
       -0.14223051 0.035782356 0.10093228 0.25454298
0001b0 cf eb 84 3d 3b 56 6b bd b8 9d 7a bd d8 86 0c 3d
       0.064902894 -0.057455283 -0.06118557 0.034308285
0001c0 35 24 4f bd 2a 4a 1b 3c bc fd 06 bf 61 3c d0 3c
       -0.05057164 0.009478131 -0.5273092 0.025419416
0001d0 df e6 55 bd 7c 6e 1e 3e 46 59 55 3d c5 e4 2d bf
       -0.05222213 0.15471834 0.05208709 -0.679272
0001e0 ed 98 d1 bc c5 28 a3 bd dc 4f 87 bd 90 a9 91 bd
       -0.025585616 -0.079667605 -0.06607029 -0.071124196
0001f0 5d 05 cd 3d 5b e6 eb 3c 07 b5 d6 3d 05 6b d6 3b
       0.100107886 0.028796365 0.10483747 0.0065435194
000200 ab 54 79 3d 4f 7e b7 bd 72 86 c4 3d a8 5c 8f 3c
       0.06087176 -0.08959638 0.09595956 0.017500237
000210 bf 42 05 bd fc 4f 34 3d 56 78 70 bd b1 63 16 bd
       -0.032534357 0.04402159 -0.05870851 -0.036716167
000220 84 45 ca bd 78 2d 17 3d ee 93 46 bd 6d 90 6f 3d
       -0.0987654 0.036908597 -0.04848092 0.058487345
000230 4f fa d8 bd 1d 93 c2 3c f5 34 e0 3d 5e 18 96 bc
       -0.105946176 0.02375179 0.10947601 -0.018322166
000240 89 29 db bd 04 5a e3 bd c9 71 67 3c 19 a9 25 bd
       -0.107012816 -0.111011535 0.01412625 -0.040444467
000250 6f 8d 7e bd b7 61 9a bd 61 af e1 3d e5 4e b5 bd
       -0.0621466 -0.07538169 0.11019779 -0.088529386
000260 e3 57 f0 bd 7f a9 4c 3c 8c 70 7a bc b7 46 c9 bd
       -0.11735513 0.012491583 -0.015285622 -0.09827941
000270 f7 cb 2e 3d c0 32 d5 bd d1 be cc bc ad 1f 23 be
       0.042674985 -0.104100704 -0.024993332 -0.15930052
000280 0b 0c e2 bd 46 40 51 bd e5 dd dc 3a 34 bf 0f 3d
       -0.11037453 -0.051086687 0.0016850798 0.035094455
000290 44 f9 a1 3d cc 3e cb bc 72 6f 37 bd 8f f5 00 be
       0.07908872 -0.024810217 -0.044784017 -0.12593673
0002a0 cc 6a c6 bc c1 5b ba 3b 50 87 f1 3d 1c c7 00 be
       -0.024220847 0.0056872074 0.11793387 -0.12575954
0002b0 9a 2f be bc 9a 07 a1 3d 38 ef 85 bd 92 99 30 bc
       -0.023216058 0.07862778 -0.06539768 -0.0107788015
0002c0 be 70 49 3d 21 6c 92 bd 8e aa b0 3d 8c 5b 27 bc
       0.049179785 -0.0714953 0.08626281 -0.010214698
0002d0 aa 5a 5e bd 1e 8f 2b bc 17 b8 7b bd c0 9b 4c bd
       -0.054285683 -0.0104711335 -0.06145486 -0.049953222
0002e0 dd bb d3 bd c5 aa 6a 3d a1 55 b6 bd cf c3 95 bb
       -0.103385665 0.057291765 -0.08903051 -0.0045704613
0002f0 c5 22 cb 3b 6d d9 ee bd b4 bd 00 be 5f 74 18 3d
       0.006199213 -0.116625644 -0.12572366 0.037220355
000300 96 d5 7d 3d c6 cd 85 bd a6 55 76 bd d8 56 6a 3d
       0.06197127 -0.06533389 -0.060140274 0.057211727
000310 76 6a 25 be ba 72 f9 bd d4 17 e0 bd 8d e8 bc bd
       -0.16153893 -0.121800855 -0.10942045 -0.09224043
000320 af 9a c0 bc de 57 be bd df c7 2c 3d 89 97 00 be
       -0.023511259 -0.09294103 0.0421828 -0.12557806
000330 30 73 b4 bc 89 ab a3 bd b1 30 01 3b 78 25 e1 3c
       -0.022027582 -0.07991702 0.001971286 0.027483687
000340 22 4b ac 3d 42 2e 9d bd ba 4e d1 bd ef f0 b6 bd
       0.08412768 -0.076748386 -0.10220094 -0.08932673
000350 96 4b 97 bd 22 94 a3 bd d9 9e 76 bd 32 90 90 bd
       -0.07387464 -0.079872385 -0.060210083 -0.07058753
000360 a3 d1 6f 3c a4 32 90 bc fe 7c 38 3d 8f d8 f1 bd
       0.014637384 -0.017602272 0.045041077 -0.118088834
000370 65 a9 be bd ea 5b bb bc a4 5f 05 3b 4c d1 9b bc
       -0.09309653 -0.022870976 0.0020351196 -0.019020699
000380 ea 81 f4 bd 35 01 d5 bd 87 79 e5 3d 4a 2e e2 bd
       -0.11938842 -0.10400621 0.1120482 -0.11043985
000390 d8 2b d5 3c f3 00 19 be 3c 66 b7 bb 4b 47 43 bd
       0.026021883 -0.14941768 -0.005596904 -0.047675412
0003a0 b6 bd d8 3c a2 b6 f6 3c 13 a2 cd bc bf fc 58 bd
       0.026457649 0.030116383 -0.025101697 -0.052975412
0003b0 ed d8 5f 3b cb 83 6a bd 4e 9c 47 bd 11 a4 d7 bd
       0.0034156397 -0.057254594 -0.04873305 -0.1052934
0003c0 10 15 92 bd 49 41 be ba 4b bc 70 3d 28 ab 00 be
       -0.071329236 -0.0014515306 0.05877332 -0.12565291
0003d0 7e 03 02 3d 89 8f 3a bd 13 d5 19 be ff ad 44 bb
       0.03174161 -0.045547042 -0.15022688 -0.0030010936
0003e0 cd f0 f9 bd 59 1e 67 bd 31 b6 bc bc bc 99 e4 bd
       -0.12204132 -0.056425426 -0.023036094 -0.11162135
0003f0 2b d4 9b bd f2 d2 d9 ba 23 ef a3 bc f8 40 17 be
       -0.07608827 -0.0016618653 -0.02001149 -0.14770877

mlp.2.bias f4 [128]
000000 e4 0b 76 3e 26 40 b5 3c f3 b3 96 bd c3 e3 ba 3d
       0.24027973 0.022125315 -0.07358541 0.09125473
000010 ca b0 cb bc 29 89 0e 3e 6f c7 ed bd b9 98 e3 be
       -0.024864573 0.1391951 -0.116103046 -0.44452456
000020 30 71 f7 bd 72 d4 5d 3e 95 73 bd bd 8a 80 99 bd
       -0.12082136 0.21663073 -0.09250561 -0.0749522
000030 f9 e2 b2 bd d8 1a 01 be 83 0b 0e be 9f 0b e9 bd
       -0.08734698 -0.12607896 -0.13871579 -0.1137917
000040 69 27 11 be 45 3f c1 39 19 cd 06 be b7 01 b9 bd
       -0.1417519 0.00036858968 -0.13164176 -0.0903353
000050 c7 76 47 bc 55 d8 18 bd 40 f0 1c 3e 58 d2 8c bd
       -0.012174315 -0.037315685 0.15326023 -0.068760574
000060 f7 44 bf bd 82 b2 bc bb cd 4a eb bd f0 d8 af bd
       -0.09339326 -0.0057585845 -0.114888765 -0.085862994
000070 66 85 ce 3c d4 60 06 3e 12 b3 93 3e 07 bd 84 3e
       0.025210094 0.13122874 0.28847557 0.25925466
000080 9b a0 f1 bd a0 a3 32 bd d4 57 22 3e cc c3 10 be
       -0.11798211 -0.043613076 0.15853816 -0.1413719
000090 4f 3e fa bd 6b cd 02 bd d3 ea 03 bd fc 03 3a 3c
       -0.12218916 -0.031934183 -0.032206368 0.011353489
0000a0 a9 ba 9e 3d 46 a8 04 be ea fc 46 bd 72 30 28 3d
       0.07750446 -0.12954816 -0.04858104 0.041061826
0000b0 f6 2b 50 bc 1b 11 3e bd f6 97 7f 3e 32 4b 37 be
       -0.012705794 -0.04640303 0.24960312 -0.17899778
0000c0 b0 71 b6 3e ae 4b a2 3d e9 f6 80 bd fd ff ac 3e
       0.35633612 0.07924591 -0.062970944 0.33789054
0000d0 8a f1 c8 3d 2f c9 50 bd 1e b9 9f bd 03 0f 0e be
       0.09811695 -0.050973114 -0.0779898 -0.13872914
0000e0 43 85 09 be b6 f8 62 be 47 ee 93 bd fe 11 f7 bd
       -0.13429742 -0.22165188 -0.07223182 -0.120639786
0000f0 6b 2e 25 be 40 60 a4 bc 65 fb ab bd 86 17 2f be
       -0.16130988 -0.020065427 -0.08397559 -0.17098817
000100 9a 00 be bd a7 1c 22 3e 6b 24 e9 bd 39 4b 1b bc
       -0.092774585 0.15831243 -0.11383899 -0.009478384
000110 e9 0c 48 3d 61 77 12 be 60 e7 f9 bd fc ac c7 bc
       0.048840437 -0.14303352 -0.122023344 -0.024374478
000120 46 29 07 be 7a 04 cb bd 22 fc 66 bd 57 fb 93 bd
       -0.13199338 -0.09912963 -0.056392796 -0.07225674
000130 71 53 b9 bd 84 80 82 3e 96 f3 59 3e 15 88 30 3d
       -0.09049118 0.25488675 0.21284327 0.043098528
000140 9c 77 15 bc 40 28 cd bd e9 fb a0 bd ae 76 db 3d
       -0.009122755 -0.10017443 -0.07860548 0.10715996
000150 75 7e 9c be 0a bf 90 bc f9 43 9a bd c5 4a 7b bd
       -0.3056523 -0.01766922 -0.07532496 -0.061350603
000160 af f2 a0 3c d8 3d 8b bd b1 1a 30 be e0 d9 06 bd
       0.01964697 -0.06798905 -0.17197682 -0.032922626
000170 b4 73 03 be ac 32 cf bd 23 9f d9 3e 77 05 68 be
       -0.12837106 -0.10117087 0.42504224 -0.22658335
000180 1f 10 eb bd 79 67 5a 3c da dc 38 3c a0 14 fb bd
       -0.11477684 0.013330334 0.011283124 -0.12259793
000190 94 fa 5d 3e c4 3f 38 bd 7d 09 66 bd 73 41 b8 bd
       0.21677619 -0.044982687 -0.056161392 -0.089968584
0001a0 a6 ab f9 bd ad f7 07 3e 5a 81 cf 3e a0 e0 dd bd
       -0.121909425 0.13278075 0.40528375 -0.108338594
0001b0 67 91 e1 bd 62 f6 12 be 03 58 f6 3d e5 a0 4a bc
       -0.110140614 -0.143518 0.12028506 -0.012367462
0001c0 43 20 aa 3d 78 75 13 be e5 fc 91 3e 83 0a 4c 3e
       0.08306935 -0.1440028 0.28513256 0.19925885
0001d0 19 cb 3d bd 9f d9 60 3d 05 f9 85 bd 65 05 20 be
       -0.046336267 0.05489504 -0.06541637 -0.15627058
0001e0 bd cb 6f 3e c3 cb 69 3e 27 a7 55 3e b9 0c 3d 3e
       0.23417564 0.22831635 0.20864545 0.18461885
0001f0 44 dc 6f 3e 76 5a e0 bd 29 64 45 bd dc fd df bc
       0.23423868 -0.10954754 -0.048191223 -0.02734273

mlp.4.weight f4 [3, 128]
000000 e7 4f b4 bd 69 8b 43 bd 89 ff fa bc c1 16 03 3d
       -0.08804303 -0.047740374 -0.030639427 0.03200412
000010 5b 0e 6b bd 5b 13 a1 3d 73 aa aa bd a9 bb 1a 3d
       -0.057386737 0.0786502 -0.08333292 0.037776623
000020 06 e8 0b bd a9 52 90 bd c2 3b 85 be 03 6a 63 3d
       -0.03415682 -0.07047016 -0.26022154 0.055521023
000030 6b 99 0a 3c 70 3d 79 bd ce f5 a6 3d 56 ed 99 bd
       0.008459429 -0.060849607 0.08152352 -0.07515971
000040 ad 4e 9d bd 77 da 1c 3d c2 88 a7 bd 44 04 9b bc
       -0.07681022 0.03829428 -0.08180381 -0.018922932
000050 10 49 f6 3d d0 bb f4 bb 62 58 97 3e bb 84 f1 bd
       0.12025654 -0.007468678 0.29559618 -0.117928945
000060 d8 a6 83 3c 92 2b f8 3c fe 90 f3 bc 6c c7 96 bc
       0.016070768 0.030294213 -0.029732224 -0.018405639
000070 f4 45 86 bd b2 e5 36 be 24 83 2a 3d 81 d6 c5 bc
       -0.06556311 -0.1786106 0.04162897 -0.024150135
000080 da 01 02 3c 4b 48 f5 3b f9 68 07 3e fc 01 cc 3c
       0.007935012 0.0074854246 0.13223638 0.02490329
000090 ea d3 cf bd ca 2a 7f 3d 4c b3 d4 bd c3 6a 99 bd
       -0.10147841 0.062296666 -0.10385761 -0.07491066
0000a0 98 37 7b bd d2 63 7a 3d 84 73 e5 3c 66 fe 5e bc
       -0.061332315 0.061130352 0.028009184 -0.013610458
0000b0 7d 4c 5a 3d 5f f1 9e bc 5c 6c 1e bd da e4 3a bc
       0.0532956 -0.019402204 -0.03867756 -0.0114071015
0000c0 f2 b7 a4 3d 0e 6a 15 bd d8 ab 3c 3d ce e6 6c 3e
       0.08042897 -0.036478095 0.04606232 0.2313492
0000d0 25 dd df bd c8 cf 0f 3d 28 5a 70 3d e4 c1 87 3e
       -0.10930852 0.035110265 0.05867973 0.26515114
0000e0 f2 b7 24 3d 61 24 68 3d a8 1a 07 be 95 e4 0f 3e
       0.040214486 0.05667532 -0.13193762 0.14052041
0000f0 47 c7 b6 bd 43 67 dd 3d a4 8d 4c 3a 24 fb 59 be
       -0.08924728 0.10810711 0.00078030885 -0.21287209
000100 98 cd 54 3d b9 9b 94 3b fd d8 79 3c 72 94 b7 bd
       0.051953882 0.004535165 0.015249488 -0.089638606
000110 43 1a de 3b 91 99 ff bc cb 60 f5 3c cc 52 4b 3d
       0.006778033 -0.031201156 0.029953381 0.049639508
000120 36 08 ba bd 1b 1b 0a 3d 2d 14 d1 bc 96 fc 30 bc
       -0.09083597 0.033717256 -0.025522316 -0.010802409
000130 d1 06 fb 3c 4c 3b e0 3d 85 b5 16 3e 68 d1 b3 3d
       0.030642899 0.1094881 0.14717682 0.087801754
000140 cf 08 1b bd e6 9f c5 bd 47 e7 09 3e 33 c1 31 3d
       -0.037850197 -0.09649639 0.13467132 0.04339714
000150 57 7e 81 be 97 3d e3 3c 4b 65 13 bd c5 6f e0 3d
       -0.25291702 0.02773933 -0.035985272 0.10958818
000160 e0 5a 3c 3c 21 54 e2 3d 21 cb 03 3c c1 60 30 bd
       0.011496276 0.110512026 0.008044035 -0.04306102
000170 2d 42 04 3d a3 57 2c 3d c2 a6 3e 3d 9d 3f 95 3c
       0.032289673 0.042075764 0.04654575 0.01821881
000180 3a 87 8a bc dc ce 09 3e c9 31 82 3c 48 a7 dd bd
       -0.016910184 0.13457817 0.01589288 -0.10822922
000190 1c 2e 91 bd 33 15 01 be ac 4e 14 be 4c f3 a8 bd
       -0.07088873 -0.12605743 -0.14483136 -0.0824953
0001a0 99 a1 1e 3c 7b 75 80 3e 2f bc 4f bc 89 24 dd bd
       0.009682083 0.2508963 -0.012679144 -0.10797984
0001b0 32 74 07 be f7 03 6c bd 3f 16 6c 3a 9d 80 d2 bb
       -0.13227919 -0.05762097 0.00090060005 -0.0064240233
0001c0 5b 7c b7 3c 13 9c e6 bc 24 45 15 3e 53 0f 4e 3d
       0.022398164 -0.028150594 0.14577156 0.050307583
0001d0 e1 8b c9 bb 0f f6 83 3d 2b 52 09 3d 48 89 b4 bd
       -0.006150708 0.06443416 0.033525627 -0.08815247
0001e0 8b 7e 48 bd ef 6c c3 3c 39 c9 d1 3d e5 be 3b be
       -0.048948806 0.023855655 0.10243458 -0.18334539
0001f0 0d 87 ec bc be 80 f8 3b ce 17 b9 bc 6e 94 f2 bd
       -0.028872991 0.0075837066 -0.022594359 -0.11844717
000200 2a 5d 3f 3d cd ab d3 3d 1e 02 0b 3d ad 0e a1 3d
       0.046719708 0.10335503 0.033937566 0.07864127
000210 64 e3 45 3c d9 47 2e bc f5 fd 0e 3d 0a c5 05 be
       0.01207814 -0.010637247 0.03491016 -0.13063446
000220 34 a7 94 3d 54 40 bd bc 63 98 77 bb b2 8a b0 bc
       0.07258454 -0.023101963 -0.0037780039 -0.02155051
000230 18 19 8c 3d 46 c3 dc bc e4 fc a9 3c dd c0 c9 bc
       0.06840724 -0.026948582 0.02075047 -0.024628097
000240 88 19 2b 3d 8b 8a 1d 3e ea 5b de 3d 8d 79 54 bb
       0.041772395 0.15384881 0.10857375 -0.0032421083
000250 37 1e 03 3e e2 f9 bf 3d 11 e3 83 3d 71 7c dc bb
       0.12804495 0.09373833 0.06439794 -0.0067287018
000260 a6 3d 3a bc 20 b6 ba bc 8f 89 c6 bd 34 cc ff b9
       -0.011367237 -0.022791922 -0.09694206 -0.00048789533
000270 b0 58 ea 3a ee 96 e7 bc 98 d9 a2 3e fc 8a f8 3d
       0.0017879214 -0.028270211 0.31806636 0.12135884
000280 31 0f fd bc e4 da 99 bc c8 9d 7c 3d 6c 35 00 3c
       -0.030891033 -0.018781133 0.06167391 0.007825237
000290 8e 67 4b 3d 65 dd 34 3d ce 1c 7b 3d 19 2f 68 3d
       0.049659304 0.04415645 0.061306767 0.05668554
0002a0 29 87 a9 bd 64 14 72 3d 8b 7d c3 3d 1e 61 0e 3c
       -0.08277733 0.059101477 0.0954543 0.008690147
0002b0 e4 59 14 bb 15 01 84 3c b0 61 08 3e 4d ca 94 3d
       -0.0022636587 0.016113797 0.13318515 0.07265148
0002c0 b2 f1 ad 3d 8d e6 88 3d 09 3d 9d bc 3e 43 33 3e
       0.08493365 0.06684599 -0.019194143 0.1750612
0002d0 2d d6 09 bd 40 c1 5d bd 35 b3 4d 3d cc 96 c4 bc
       -0.03365152 -0.054139376 0.050219733 -0.023997687
0002e0 8a 96 ff 3b 64 97 91 3d eb ec 07 bd 68 4c af bc
       0.007799928 0.071089536 -0.033184927 -0.021398738
0002f0 23 00 86 bd 4e d1 4d 3b 62 70 ad bd 40 eb 0d bc
       -0.06542995 0.0031405273 -0.08468701 -0.008662045
000300 07 e9 9b 3d 35 dc 07 3c 88 d0 ac 3d c2 88 3f 3e
       0.07612806 0.008292248 0.08438212 0.18704513
000310 40 a0 33 3d a0 45 49 3d 14 9b af bd 3d e1 cd 3d
       0.043854 0.049138665 -0.08574501 0.100527264
000320 99 91 d9 3d d2 83 c0 bc 51 10 aa bc e9 f8 d9 bc
       0.10623474 -0.023500357 -0.020759733 -0.026607947
000330 05 e0 62 3d d9 d2 40 3d 1f a2 35 3e be af f6 3d
       0.055389423 0.04707608 0.17737626 0.12045239
000340 5f e9 5f bc be 8a 25 3b ea dd 18 3d 29 eb f6 3c
       -0.01366648 0.0025259699 0.03732101 0.03014143
000350 ed 8a fc bc e8 21 6a 3c 79 7c 0e 3d aa 77 bc bc
       -0.030827964 0.01429031 0.034786675 -0.023006279
000360 49 e1 5b bc 11 cf 46 3b 9d 90 a5 3d 02 e6 78 bd
       -0.013420411 0.0030335824 0.080842234 -0.060766228
000370 bf e7 e7 3c af 86 00 3b 3c e1 a7 3e 18 e8 64 bd
       0.028308747 0.0019611528 0.32789028 -0.055885404
000380 a3 ae 1e bc 19 d0 e4 bd d3 aa d4 bb 7b d3 b1 3c
       -0.009685191 -0.11172504 -0.0064900904 0.021707287
000390 c1 3b b5 3b 4f ac 6b bd 4c 91 f8 3c 3f 44 0b 3d
       0.005530805 -0.057537373 0.03034272 0.03400063
0003a0 ae f4 ab bd e3 0d f4 3a 3b 77 10 3e 9f 94 bf 3c
       -0.08396278 0.0018619861 0.14107983 0.023386298
0003b0 90 ed 9e 3b 86 2f 2f 3d 05 14 3a be 71 f4 3e 3d
       0.004850097 0.04276993 -0.181717 0.046619836
0003c0 ef 3b a3 3d 6e c9 92 bb f0 a3 51 3c 15 16 92 3d
       0.07970416 -0.0044795787 0.012795433 0.07133118
0003d0 5f 5d 14 3d 42 6b 9b 3e ed 09 f6 bd 34 29 1e bd
       0.036221858 0.3035527 -0.12013612 -0.038613513
0003e0 b1 95 46 be 9a 17 34 3e 53 c3 e2 bb 95 d7 cf bd
       -0.1939304 0.17587128 -0.006920257 -0.10148541
0003f0 2f 88 8b bd 73 c4 8b bc a2 5f cc bd 11 86 a3 3d
       -0.06813084 -0.017061448 -0.09979178 0.079845555

mlp.4.bias f4 [3]
000000 7e d9 66 bc 31 29 c6 3e bd 80 b5 be
       -0.01408994 0.38703302 -0.35449782
